ModelSave3.pt (torch_old, 11151 bytes, 25 tensors)

lstm.weight_ih_l0 f4 [24, 6]
-0.16164413 -0.21308266 0.3528525 0.69642013 0.6000203 -0.054837205 -0.25436616 -0.8410543
-0.19346389 0.10194892 0.4450425 0.24402203 0.30277798 -0.43154767 0.24830468 -0.24979135
-0.7234043 0.502842 -0.1830532 -1.2512583 -0.13950892 -0.4438021 0.021928325 1.2248223
0.087083146 0.6005909 0.47671196 -0.6694038 -1.3823707 -1.507205 -0.2815058 0.18254063
0.052576233 0.31408364 0.23123269 -0.057400383 -0.10252014 -0.27345023 0.02654633 -0.38929465
0.13664234 0.30220968 0.3294288 -0.4039838 -0.11070052 -0.12010333 0.35999322 -0.3070112
-0.35732174 0.3161716 -0.13827622 -0.20509511 0.31082398 -0.22507866 0.12661022 -0.27798015
-0.1963899 0.08728531 -0.15240851 -0.18917546 -0.18646476 0.1563105 -0.1854496 0.2277646
0.19902116 0.4004913 -0.09306151 0.10439348 -0.3795001 0.04186952 -0.09101862 -0.07659912
0.1261339 -0.42590037 1.0922887 0.31519264 -0.3316384 0.44040573 -0.2452628 -0.05047689
0.85184014 0.23149125 0.7288569 0.9596948 0.19708557 0.3065593 -1.1193951 -0.55292934
-0.58455706 0.46102026 0.19986354 -0.61158496 0.69783825 0.36818463 0.28371364 -0.1149422
-0.048549313 0.18873787 -0.9301291 -0.37048987 0.3075379 0.4330911 0.012021206 -0.4606546
1.0116249 -0.027159348 -0.12760948 -0.018538347 -0.21699287 -0.6394763 1.0045694 0.12217725
0.45662928 -0.47894478 -0.3582575 -0.9143763 0.1462825 0.023586288 -0.10523562 -0.069195345
0.3379441 -0.26391214 0.45317253 -0.17827432 -0.6534794 0.6259921 0.36476195 -1.4806753
-0.30635464 -0.74953103 0.09946804 1.5795527 0.22220652 0.41486725 0.25030598 -0.3040849
-1.5153855 -1.628844 -0.008195338 0.16333684 0.41586953 1.1613528 0.42866486 -0.16166507
00000000: 0a86 25be 5732 5abe 15a9 b43e 9748 323f
00000010: ee9a 193f fa9c 60bd 483c 82be 564f 57bf
00000020: 661b 46be 98ca d03d 9cdc e33e e9e0 793e
00000030: b705 9b3e d1f3 dcbe 9543 7e3e 4ec9 7fbe
00000040: 0631 39bf 41ba 003f 4c72 3bbe 3b29 a0bf
00000050: 6ddb 0ebe 073a e3be 08a3 b33c fac6 9c3f
00000060: a658 b23d 53c0 193f 9713 f43e 0c5e 2bbf
00000070: 86f1 b0bf 18ec c0bf 8721 90be eeeb 3a3e
00000080: 2d5a 573d 92cf a03e 43c8 6c3e aa1c 6bbd
00000090: 14f6 d1bd ab01 8cbe b077 d93c a151 c7be
000000a0: f8eb 0b3e 3abb 9a3e e4aa a83e f7d6 cebe
000000b0: f4b6 e2bd bcf8 f5bd 0851 b83e 9230 9dbe
000000c0: e0f2 b6be 3ee1 a13e 4898 0dbe 7404 52be
000000d0: 5224 9f3e 057b 66be 1ca6 013e 6a53 8ebe
000000e0: 6f1a 49be a4c2 b23d fa10 1cbe 36b7 41be
000000f0: 9ef0 3ebe dc0f 203e 80e6 3dbe 203b 693e
00000100: 34cc 4b3e 320d cd3e 0897 bebd 40cc d53d
00000110: d64d c2be 607f 2b3d f867 babd 00e0 9cbd
00000120: 3f29 013e 9d0f dabe 1ed0 8b3f ee60 a13e
00000130: 82cc a9be dc7c e13e 2c26 7bbe dbc0 4ebd
00000140: 3212 5a3f 0b0c 6d3e 5e96 3a3f 8fae 753f
00000150: cdd0 493e 57f5 9c3e 5748 8fbf c78c 0dbf
00000160: 88a5 15bf d90a ec3e 07a9 4c3e d590 1cbf
00000170: 87a5 323f b282 bc3e ea42 913e d166 ebbd
00000180: a5db 46bd 8044 413e f11c 6ebf d9b0 bdbe
00000190: 9c75 9d3e 1ebe dd3e 98f4 443c ebda ebbe
000001a0: ed7c 813f 487d debc 0fac 02be bbdd 97bc
000001b0: 6133 5ebe b8b4 23bf bb95 803f 1138 fa3d
000001c0: 50cb e93e 4038 f5be 876d b7be 9114 6abf
000001d0: 14cb 153e 0838 c13c c685 d7bd 4ab6 8dbd
000001e0: 0207 ad3e 7e1f 87be 3b06 e83e 8b8d 36be
000001f0: 6d4a 27bf 0541 203f 14c2 ba3e c586 bdbf
00000200: 84da 9cbe 44e1 3fbf e6b5 cb3d c82e ca3f
00000210: 1b8a 633e 7b69 d43e 1b28 803e 04b1 9bbe
00000220: 27f8 c1bf f67d d0bf bd45 06bc c641 273e
00000230: daec d43e 35a7 943f f679 db3e 878b 25be

lstm.weight_hh_l0 f4 [24, 6]
-0.045118034 -0.19039714 -0.23332985 0.0058024824 -0.043322027 0.24407649 -0.14142457 0.17567545
0.2705539 -0.10187617 0.3654685 -0.3522399 0.3222404 0.0984453 -0.08383185 0.027867347
0.081995755 -0.15219909 0.27825773 0.024485588 0.27553213 -0.15679944 0.29238015 0.021387815
-0.21838616 0.12179667 -0.23995936 -0.2122968 0.08253178 -0.35520577 0.097865224 0.34177804
-0.03361109 0.34795552 -0.34346962 -0.2638547 0.01059714 -0.2874679 -0.12818253 0.15449
-0.3429561 0.041098535 -0.13922676 -0.05102679 0.25166166 0.21579939 0.14354551 -0.3367156
-0.077776074 0.089741796 -0.28025073 0.29879117 -0.2113344 0.084879816 0.027745187 -0.23730774
-0.11539805 0.12489617 -0.3392762 0.04035628 0.37735552 -0.32436422 0.28676862 -0.031101376
0.10599977 0.29371417 0.059262127 -0.14430141 0.37966412 -0.12680763 0.37449855 -0.35480723
-0.3929019 0.18965262 -0.10510668 0.23997462 -0.16323191 -0.2780705 0.17959327 -0.11932135
0.09318948 0.24881256 0.06631285 0.40389323 -0.34632045 0.15034485 -0.09118894 0.18265527
0.05254975 -0.18937601 -0.22457796 -0.12861753 0.3458168 -0.20375672 -0.11519933 0.32262224
0.406829 0.052916884 0.27759963 -0.06912801 -0.03530264 0.016171396 -0.22876026 -0.31766483
0.11636031 0.01952675 -0.3586901 0.1724484 -0.032538325 -0.3445057 -0.053066432 0.34753913
0.34224886 0.041828454 -0.28826082 -0.21160504 -0.1498931 -0.16584903 -0.112152725 -0.059718013
-0.12470925 -0.39108074 0.16647696 0.10572171 0.2537176 0.06984788 0.3411433 -0.34680238
-0.0058380365 -0.23173152 -0.22881846 0.31715006 0.0027982593 0.32179922 0.09964895 0.280495
-0.080803424 -0.23847911 -0.042153686 0.041229934 -0.08748168 -0.16853389 -0.27640626 -0.14591596
00000000: b0cd 38bd 78f7 42be 05ee 6ebe c022 be3b
00000010: 7072 31bd 30ef 793e 9ad1 10be 44e4 333e
00000020: 0a86 8a3e 74a4 d0bd b01e bb3e ca58 b4be
00000030: b2fc a43e b09d c93d 08b0 abbd 104a e43c
00000040: 64ed a73d 14da 1bbe cc77 8e3e 0096 c83c
00000050: 8c12 8d3e 0890 20be dab2 953e 8035 af3c
00000060: 9fa0 5fbe 8870 f93d e8b7 75be 5564 59be
00000070: 6c06 a93d 88dd b5be 906d c83d 88fd ae3e
00000080: c8ab 09bd 3a27 b23e 40db afbe f717 87be
00000090: a09f 2d3c fe2e 93be 4842 03be a032 1e3e
000000a0: f197 afbe f056 283d 7691 0ebe 7801 51bd
000000b0: ccd9 803e 84fa 5c3e 98fd 123e fd65 acbe
000000c0: 1049 9fbd 8cca b73d 067d 8fbe 28fb 983e
000000d0: 0c68 58be 78d5 ad3d e049 e33c cd00 73be
000000e0: d055 ecbd 90c9 ff3d 9cb5 adbe a04c 253d
000000f0: be34 c13e 1113 a6be 56d3 923e 50c8 febc
00000100: 6816 d93d b461 963e d8bc 723d c0c3 13be
00000110: 5663 c23e dcd9 01be 46be bf3e 4ba9 b5be
00000120: 702a c9be 4c34 423e 2c42 d7bd e8bb 753e
00000130: 4426 27be 425f 8ebe 4ce7 373e c05e f4bd
00000140: 20da be3d b8c8 7e3e 08cf 873d 18cb ce3e
00000150: ea50 b1be 00f4 193e 44c1 babd fc09 3b3e
00000160: 683e 573d c9eb 41be c4f7 65be 50b4 03be
00000170: e60e b13e 9aa5 50be a0ed ebbd be2e a53e
00000180: e44b d03e 60bf 583d 8a21 8e3e fc92 8dbd
00000190: 8099 10bd e079 843c 2140 6abe f7a4 a2be
000001a0: 504e ee3d 90f6 9f3c 3ba6 b7be 5096 303e
000001b0: e846 05bd 0d63 b0be 305c 59bd a6f0 b13e
000001c0: 3e3b af3e 5054 2b3d ec96 93be feae 58be
000001d0: 947d 19be 54d4 29be 54b0 e5bd e09a 74bd
000001e0: 9067 ffbd bc3b c8be f078 2a3e a084 d83d
000001f0: 46e7 813e 680c 8f3d 56aa ae3e 1590 b1be
00000200: 004d bfbb 074b 6dbe 634f 6abe 7e61 a23e
00000210: 0063 373b dec2 a43e c014 cc3d 0a9d 8f3e
00000220: 447c a5bd de33 74be 58a9 2cbd b8e0 283d
00000230: 9829 b3bd 2694 2cbe 1f85 8dbe fe6a 15be

lstm.bias_ih_l0 f4 [24]
-0.076609276 0.4935166 0.32510114 0.35996756 0.8376095 0.66415703 0.087596655 -0.40121174
-0.050661415 -0.16442989 0.00975436 -0.010311991 0.024748264 -0.07619471 0.047344796 -0.37037006
0.51642483 -0.023369562 0.523237 0.36189952 0.31403193 0.7396754 1.0964558 0.38977954
00000000: 53e5 9cbd 35ae fc3e a873 a63e ab4d b83e
00000010: 946d 563f 3206 2a3f e065 b33d a06b cdbe
00000020: 5882 4fbd 4f60 28be c0d0 1f3c a0f3 28bc
00000030: dfbc ca3c f90b 9cbd 9eec 413d 25a1 bdbe
00000040: 6b34 043f 8671 bfbc dcf2 053f e54a b93e
00000050: cbc8 a03e 5e5b 3d3f aa58 8c3f 2f91 c73e

lstm.bias_hh_l0 f4 [24]
0.45344344 0.1560204 0.21605547 0.39969638 0.91361135 0.18465878 0.22511512 0.0071164668
0.0055214167 0.21959442 0.027911872 0.042423844 0.07321302 -0.39845136 0.36339125 -0.29331794
0.031205827 -0.21048506 0.20228465 0.30709445 0.7489683 0.106777065 0.44933674 0.2682123
00000000: bd29 e83e d0c3 1f3e a53d 5d3e 01a5 cc3e
00000010: 6fe2 693f 3117 3d3e 9484 663e 4031 e93b
00000020: 00ed b43b 5cdd 603e 70a7 e43c a0c4 2d3d
00000030: b5f0 953d d101 ccbe 6b0e ba3e c52d 96be
00000040: 5da3 ff3c 6589 57be b523 4f3e 7c3b 9d3e
00000050: 63bc 3f3f efad da3d 770f e63e 1f53 893e

lstm.weight_ih_l1 f4 [24, 6]
0.45854414 -0.053909734 -0.019743076 0.6419307 0.1485473 0.84864384 0.32128382 0.04736945
0.04295997 0.106378324 -0.15102851 0.86051255 0.84348464 -0.37469003 0.18265904 -0.013966176
0.7296754 0.6127666 0.9680253 0.31905666 -0.9581555 0.48542622 -0.41432422 0.17991324
0.6225428 -0.19174537 -0.6162665 0.74880254 -0.113901205 0.45105726 0.9075942 1.1703749
-0.5040684 0.80067885 -0.8706165 0.07558627 0.2223407 0.30254334 0.038653553 -0.06926885
0.13492543 0.38215256 -0.13239545 -0.17651995 -0.36113545 -0.18075252 0.3098082 0.36284572
-0.28824383 0.32954305 -0.29205436 -0.38667837 -0.28722268 0.35327005 0.24123287 -0.3781157
-0.16472861 -0.31191444 0.03924471 -0.032139838 0.098466456 0.11412239 0.24616355 0.04279414
0.38280064 0.345231 -0.2232022 0.17488337 -0.36257386 0.056958735 0.34693313 -0.15451851
-0.21256484 -0.9238127 0.71604323 -1.0343441 1.1487212 -0.5303614 -0.22856042 -0.5630034
0.9227388 -0.64722663 1.0210675 -0.4166364 0.19685191 0.6909165 -0.92223614 0.94435716
-0.8987396 0.28479487 -0.4804088 -0.57393897 0.3683784 -0.8817428 0.72469866 -0.4856444
0.522043 0.6770881 -0.64560306 0.77292955 -0.8769789 0.8830597 0.18011473 0.96060514
-0.9450402 0.6647208 -0.5235562 0.6331551 0.3006726 -0.40365088 -0.15408094 0.76195556
-0.08900868 0.62505674 0.77196383 -0.45507056 -0.2150619 0.019081369 -0.10785235 0.34697437
0.92998886 -1.1342756 0.5559553 0.17348054 0.4645211 0.530724 0.35842094 0.48514667
-0.49685952 0.7033202 -0.28284776 0.74656785 0.8474843 0.13816081 -0.73244953 0.33885744
-0.61597246 0.67942536 0.73807234 0.9952875 -0.80237997 0.6572265 -1.0245364 0.41222006
00000000: 4cc6 ea3e 74d0 5cbd 3bbc a1bc 9255 243f
00000010: c91c 183e b940 593f 507f a43e 7806 423d
00000020: cbf6 2f3d e1dc d93d 38a7 1abe 8d4a 5c3f
00000030: 9cee 573f 5fd7 bfbe f90a 3b3e 63d2 64bc
00000040: 02cc 3a3f 46de 1c3f 82d0 773f 655b a33e
00000050: ae49 75bf c989 f83e 4e22 d4be 2d3b 383e
00000060: f75e 1f3f e658 44be a4c3 1dbf 86b1 3f3f
00000070: 0945 e9bd faf0 e63e 1858 683f d8ce 953f
00000080: a00a 01bf 4af9 4c3f b9e0 5ebf f9cc 9a3d
00000090: 48ad 633e f6e6 9a3e 3053 1e3d d4dc 8dbd
000000a0: e429 0a3e 80a9 c33e ac92 07be a5c1 34be
000000b0: bfe6 b8be 3017 39be 2e9f 9e3e eac6 b93e
000000c0: b294 93be deb9 a83e 2688 95be b5fa c5be
000000d0: da0e 93be d0df b43e c005 773e 6298 c1be
000000e0: 9eae 28be 40b3 9fbe 10bf 203d 10a5 03bd
000000f0: c8a8 c93d 00b9 e93d 4c12 7c3e e848 2f3d
00000100: 72fe c33e 1ec2 b03e 1e8f 64be a014 333e
00000110: 48a3 b9be 904d 693d 38a1 b13e 1a3a 1ebe
00000120: 99aa 59be fd7e 6cbf 9c4e 373f 6365 84bf
00000130: 4c09 933f c4c5 07bf be0b 6abe fe20 10bf
00000140: 9c38 6c3f a5b0 25bf 57b2 823f 5e51 d5be
00000150: 8c93 493e e7df 303f ab17 6cbf 64c1 713f
00000160: cc13 66bf a2d0 913e 24f8 f5be aaed 12bf
00000170: 189c bc3e e5b9 61bf da85 393f 62a6 f8be
00000180: 9ca4 053f a555 2d3f 3e46 25bf b6de 453f
00000190: b081 60bf 3310 623f ff6f 383e 38ea 753f
000001a0: 28ee 71bf 242b 2a3f c707 06bf 7416 223f
000001b0: c2f1 993e 54ab cebe 65c7 1dbe 850f 433f
000001c0: 2f4a b6bd b803 203f 6c9f 453f 02ff e8be
000001d0: 3039 5cbe 8850 9c3c b1e1 dcbd a0a6 b13e
000001e0: c013 6e3f f12f 91bf 1653 0e3f e2a4 313e
000001f0: b6d5 ed3e 87dd 073f f382 b73e 2565 f83e
00000200: 5f64 febe cb0c 343f 6cd1 90be 121f 3f3f
00000210: bbf4 583f 077a 0d3e d081 3bbf b97e ad3e
00000220: 5fb0 1dbf d2ee 2d3f 4ff2 3c3f 29cb 7e3f
00000230: c668 4dbf ff3f 283f 0224 83bf 820e d33e

lstm.weight_hh_l1 f4 [24, 6]
-0.10188517 -0.3196945 0.30629575 0.31188452 -0.04068479 -0.23644741 0.26585126 0.17304534
-0.17777288 0.27472037 -0.3352759 -0.011390954 -0.2711058 0.0034858584 -0.07953438 0.28993785
0.032936215 -0.17855267 0.044285446 -0.40653417 0.3504895 0.09993166 0.039800793 0.2163989
-0.2892554 0.2548886 -0.25016147 0.1648435 0.21880674 -0.32769457 -0.34835726 0.39108932
0.40593523 0.3489216 -0.17103323 -0.09743258 -0.080650836 0.024972528 0.33240062 -0.2230394
0.36475343 -0.29374075 0.37367076 -0.14036939 -0.11783978 -0.015016288 -0.3798915 0.23365408
0.12030095 0.13063425 -0.19649473 0.3110571 0.25869948 -0.25612834 0.18965733 -0.38087156
-0.28861946 0.36871028 -0.24196678 0.056509733 -0.041098773 -0.1825728 0.16983461 -0.26231402
-0.3170029 -0.056214362 -0.15294248 0.09346187 -0.26602024 0.2301839 -0.22078174 -0.37122846
-0.27964687 -0.21051632 0.029352576 -0.39348498 -0.013212502 0.016563654 -0.2544102 -0.1075812
0.16414171 -0.36235937 -0.2677418 -0.32565108 0.33511478 0.04458028 0.31400913 -0.37819076
-0.24895419 0.30911475 -0.10785374 -0.08236143 -0.3780316 -0.36281347 -0.17564982 -0.017474413
0.40630633 -0.19331935 -0.12780595 -0.3786526 -0.3450751 -0.18710983 0.17502362 -0.13511077
0.2794851 0.33291805 0.03269264 0.24478978 0.2477532 0.051327795 -0.143285 -0.2283314
0.05532542 0.122167885 -0.39601314 0.32821542 -0.28935987 -0.2355461 0.24604023 -0.21642785
0.09363872 -0.2007217 -0.31987065 0.12261164 0.29653388 -0.06590873 -0.17748696 0.12571168
0.02017811 0.24675208 0.19104916 0.028815717 -0.24132384 -0.30464864 0.05107957 -0.17520069
0.3890543 -0.39503732 -0.29036537 -0.33700424 0.20793194 0.042535335 -0.0004962981 0.09563577
00000000: 2ca9 d0bd ffae a3be ccd2 9c3e 54af 9f3e
00000010: 18a5 26bd 451f 72be a81d 883e cc32 313e
00000020: 180a 36be 26a8 8c3e 48a9 abbe 20a1 3abc
00000030: 61ce 8abe 0073 643b ece2 a2bd bc72 943e
00000040: 20e8 063d 83d6 36be a864 353d 3f25 d0be
00000050: 5c73 b33e f8a8 cc3d 2806 233d ac97 5d3e
00000060: 4919 94be c280 823e 2a15 80be bccc 283e
00000070: e00e 603e 95c7 a7be e25b b2be dc3c c83e
00000080: bed6 cf3e daa5 b23e 5623 2fbe bc8a c7bd
00000090: 442c a5bd 3093 cc3c 6a30 aa3e 7164 64be
000000a0: f6c0 ba3e 3065 96be c651 bf3e febc 0fbe
000000b0: fc55 f1bd e006 76bc 2481 c2be 0443 6f3e
000000c0: 5860 f63d fcc4 053e ea35 49be e042 9f3e
000000d0: 4274 843e 4123 83be 8835 423e 9901 c3be
000000e0: eec5 93be 98c7 bc3e 24c6 77be c076 673d
000000f0: 3057 28bd 5df4 3abe 20e9 2d3e 064e 86be
00000100: 344e a2be 0841 66bd f49c 1cbe f068 bf3d
00000110: ce33 88be 54b5 6b3e 9c14 62be a811 bebe
00000120: e02d 8fbe 9791 57be d074 f03c dd76 c9be
00000130: 4079 58bc 80b0 873c 0e42 82be 8853 dcbd
00000140: c414 283e 2b87 b9be 7415 89be bdbb a6be
00000150: 2a94 ab3e d099 363d cec5 a03e 38a2 c1be
00000160: d9ed 7ebe 4a44 9e3e 6ce2 dcbd 1cad a8bd
00000170: 5c8d c1be b0c2 b9be 8cdd 33be 8026 8fbc
00000180: 6207 d03e 82f5 45be 90df 02be c1de c1be
00000190: afad b0be b899 3fbe 6439 333e 7a5a 0abe
000001a0: ac18 8f3e 3c74 aa3e b8e8 053d 2caa 7a3e
000001b0: 04b3 7d3e 183d 523d 4eb9 12be b5cf 69be
000001c0: e89c 623d 2833 fa3d 3cc2 cabe da0b a83e
000001d0: fa26 94be ff32 71be f8f1 7b3e 439f 5dbe
000001e0: a8c5 bf3d fd89 4dbe 16c6 a3be d01b fb3d
000001f0: 4ad3 973e 28fb 86bd 24bf 35be 90ba 003e
00000200: 904c a53c 94ac 7c3e 64a2 433e f00e ec3c
00000210: 991d 77be e8fa 9bbe d038 513d cf67 33be
00000220: 2032 c73e 5542 cabe c5aa 94be d28b acbe
00000230: 1cec 543e 8839 2e3d 001a 02ba b0dc c33d

lstm.bias_ih_l1 f4 [24]
0.30404192 0.6803677 0.52280563 0.38148555 0.7721975 0.14166333 0.07078585 -0.13283834
0.19985944 0.117242694 -0.35088852 0.30861574 0.24610847 0.27524975 -0.59469116 -0.11017366
0.07485881 0.4962607 0.6996005 0.72147167 0.87668306 0.7364754 0.30344552 0.53710264
00000000: 62ab 9b3e 942c 2e3f 97d6 053f 1352 c33e
00000010: bcae 453f 3110 113e 2cf8 903d c606 08be
00000020: f4a7 4c3e f01c f03d a9a7 b3be e202 9e3e
00000030: dc03 7c3e 89ed 8c3e ae3d 18bf baa2 e1bd
00000040: 934f 993d e215 fe3e 0519 333f 5eb2 383f
00000050: 4d6e 603f a789 3c3f 365d 9b3e 8f7f 093f

lstm.bias_hh_l1 f4 [24]
0.8460835 0.72291756 0.63726735 0.135046 0.32555512 0.31422588 -0.19008474 0.17993277
-0.40156132 0.35107917 0.101650715 0.2837708 0.11231451 -0.035561576 0.0553919 0.07018096
-0.39228854 0.43485922 0.8334253 0.29724723 0.9085817 0.49435294 0.22396804 0.45825118
00000000: ee98 583f 2011 393f f423 233f 8049 0a3e
00000010: 29af a63e 37e2 a03e 93a5 42be 4c40 383e
00000020: 7299 cdbe a6c0 b33e 402e d03d 684a 913e
00000030: 2605 e63d 04a9 11bd 9ee2 623d 09bb 8f3d
00000040: 0bda c8be dea5 de3e 5c5b 553f ca30 983e
00000050: cf98 683f d41b fd3e e157 653e e69f ea3e

lstm.weight_ih_l2 f4 [24, 6]
-0.2799042 -1.0329643 -0.078446515 -0.46124625 0.26060003 1.0477077 -1.0452304 -0.78300565
0.8694252 -0.11196003 0.9018223 0.39278775 -0.67861193 -0.42560008 0.27033266 -0.79986143
0.43489423 0.67478937 0.8193061 0.6613517 -1.0924006 0.55648416 -0.47237656 0.17491327
-0.6858053 -0.19825041 0.09505477 -0.5669545 0.60699236 0.36530104 -0.43839884 -0.72186023
0.679019 -0.924139 0.692107 0.6668722 0.27535403 -0.2996636 -0.34353787 0.3489896
-0.31584808 0.35202122 0.29552507 0.18641406 -0.38395035 0.3742032 0.04732728 -0.1805539
-0.044445425 -0.056540877 -0.14672554 0.3832665 -0.2702734 0.33245772 0.24239999 0.026627183
-0.012618631 -0.07013425 -0.29460582 -0.22370994 -0.23287208 0.04347384 -0.30090475 0.3695699
0.35976744 -0.12090057 -0.19035898 -0.33199346 -0.12693626 0.13757008 0.13125747 0.019831985
0.90036637 1.3373588 -0.84068906 1.3193015 -0.7041043 -1.3756078 0.8670155 0.62384385
-0.91171116 0.56080645 -0.78254366 0.26661107 -0.53020006 -0.28546736 0.40814427 -0.5971452
0.50930095 0.8006739 -0.81458956 -0.3387622 0.4108126 -0.7397806 0.84338516 -0.0658381
-0.5881257 -0.651199 0.97363764 -0.4602021 0.84868777 0.3194488 0.38820973 0.42505485
-0.06762818 0.49762005 -0.6783407 -0.9526084 0.096763395 -0.71512234 0.28448302 -0.742026
0.4485758 0.6662874 -1.208761 -0.94607973 0.58404315 -0.5448261 0.80768067 0.26889804
-0.5380089 -0.5109456 0.055570997 -0.5901501 0.44442633 0.88657945 0.9326703 0.74016756
-0.47959462 0.34328768 -0.49669218 -0.3789419 -0.5066489 -0.3105839 -0.4469852 -0.82631046
1.365146 0.48860535 -0.9274281 -0.8795651 0.8202138 -0.6976261 0.58128 0.46341953
00000000: 9a4f 8fbe 2d38 84bf 91a8 a0bd 7828 ecbe
00000010: 5e6d 853e 491b 863f 1cca 85bf 0f73 48bf
00000020: a692 5e3f 4d4b e5bd d4dd 663f 7a1b c93e
00000030: 83b9 2dbf 41e8 d9be 0b69 8a3e b8c3 4cbf
00000040: 75aa de3e ffbe 2c3f 0bbe 513f 584e 293f
00000050: c8d3 8bbf bf75 0e3f 57db f1be 771c 333e
00000060: f090 2fbf 2802 4bbe 13ac c23d ee23 11bf
00000070: da63 1b3f bd08 bb3e d075 e0be d5cb 38bf
00000080: 30d4 2d3f 6094 6cbf ed2d 313f 23b8 2a3f
00000090: 34fb 8c3e 826d 99be 32e4 afbe c4ae b23e
000000a0: d7b6 a1be 203c b43e 104f 973e 54e3 3e3e
000000b0: 2495 c4be 9097 bf3e 40da 413d 1fe3 38be
000000c0: 680c 36bd 6897 67bd 383f 16be 823b c43e
000000d0: 4661 8abe e637 aa3e b437 783e 4021 da3c
000000e0: 60be 4ebc 8ca2 8fbd 93d6 96be 3814 65be
000000f0: 0576 6ebe a011 323d 3010 9abe 4438 bd3e
00000100: 7033 b83e b89a f7bd 77ed 42be 0cfb a9be
00000110: 94fb 01be 2cdf 0c3e 5c68 063e b076 a23c
00000120: 697e 663f 932e ab3f 6637 57bf dfde a83f
00000130: 2e40 34bf eb13 b0bf baf4 5d3f 3bb4 1f3f
00000140: e765 69bf 0391 0f3f c854 48bf 3f81 883e
00000150: 31bb 07bf c728 92be 49f8 d03e 82de 18bf
00000160: 8c61 023f f7f8 4c3f f188 50bf 3d72 adbe
00000170: 0756 d23e 4362 3dbf 17e8 573f 20d6 86bd
00000180: 688f 16bf fab4 26bf 5140 793f 9c9f ebbe
00000190: 9a43 593f cb8e a33e 6dc3 c63e caa0 d93e
000001a0: a580 8abd 0ec8 fe3e bca7 2dbf 25de 73bf
000001b0: e32b c63d 4212 37bf c2a7 913e 6af5 3dbf
000001c0: baab e53e d091 2a3f aeb8 9abf 4832 72bf
000001d0: da83 153f b979 0bbf 29c4 4e3f 01ad 893e
000001e0: f4ba 09bf 55cd 02bf 6a9e 633d 1414 17bf
000001f0: d98b e33e dff6 623f 7bc3 6e3f 9f7b 3d3f
00000200: 6d8d f5be 67c3 af3e 704e febe ac04 c2be
00000210: beb3 01bf da04 9fbe 3edb e4be 1589 53bf
00000220: 1bbd ae3f 7b2a fa3e ee6b 6dbf 2e2b 61bf
00000230: 88f9 513f a097 32bf c4ce 143f 5345 ed3e

lstm.weight_hh_l2 f4 [24, 6]
0.19704354 0.21136451 0.069425315 0.36367887 0.3343078 -0.1298813 -0.3191574 -0.23882663
-0.32761717 -0.24041055 0.15892774 0.32431507 -0.16296156 -0.16714346 -0.010855705 -0.04899794
0.15721238 -0.2027733 -0.13235912 0.15679467 -0.35982454 0.39349157 -0.37708628 -0.18082537
-0.073528916 0.31452745 0.30340922 -0.029982567 -0.04798749 -0.30005273 0.31411052 -0.18791586
0.15825349 -0.35971832 0.0054873526 0.40656573 0.061073363 -0.31529242 0.048125923 -0.15140554
0.2280702 -0.373392 0.23251247 -0.36024854 0.37493485 -0.25123864 0.098725736 0.24077088
0.15595227 0.3713382 -0.30830485 0.35436618 -0.00030946732 0.1788463 -0.07924077 -0.38351262
0.18198472 -0.17907666 -0.07893634 0.3310789 -0.23948559 0.25103414 0.17051625 -0.13837698
0.11052626 -0.19310327 -0.041310787 -0.21718934 0.272115 -0.22650985 0.32973993 0.31976193
0.29397148 0.20323658 -0.2531817 0.20164776 0.11694884 0.065410376 -0.0021047592 -0.31503564
-0.22554328 -0.38875622 0.31017578 0.17726362 -0.13358632 0.2373305 0.01962769 -0.091728956
-0.07350087 -0.21694027 -0.19958347 -0.22235379 -0.0786953 -0.1209054 -0.11945623 -0.30609667
0.22016746 -0.060067624 -0.17599288 -0.012442291 0.18081445 -0.07153404 0.13087052 -0.13777894
0.016099423 -0.31329513 0.0054127574 0.29875898 -0.0132671 -0.22875968 -0.014559507 -0.14110118
0.2098459 0.21134675 0.14450222 -0.17742768 0.38000375 -0.13145241 0.28622454 0.14130801
-0.29178274 -0.32673013 -0.3248527 -0.111245245 -0.2907711 0.29070246 -0.0057655275 -0.07142359
-0.20695278 0.07986882 0.4061175 -0.12993434 -0.009705365 0.007915646 0.24087429 -0.12655637
0.3960297 0.03914091 0.09648615 -0.13243261 -0.16367954 0.008150995 -0.12222183 -0.31091544
00000000: c8c5 493e f06f 583e dc2e 8e3d 1e34 ba3e
00000010: 642a ab3e 9aff 04be 9968 a3be f88e 74be
00000020: 70bd a7be 2f2e 76be f4bd 223e a00c a63e
00000030: 65df 26be a827 2bbe 20dc 31bc 10b2 48bd
00000040: 48fc 203e cea3 4fbe 2689 07be c88e 203e
00000050: ec3a b8be ba77 c93e 7411 c1be 492a 39be
00000060: 5496 96bd be09 a13e 7458 9b3e 009e f5bc
00000070: 888e 44bd 83a0 99be 18d3 a03e 046d 40be
00000080: 340d 223e 002d b8be 40cf b33b 6229 d03e
00000090: 1028 7a3d 026e a1be b01f 453d 0e0a 1bbe
000000a0: 3c8b 693e 3c2d bfbe c017 6e3e 7f72 b8be
000000b0: 76f7 bf3e 5aa2 80be b830 ca3d a48c 763e
000000c0: f4b1 1f3e 0a20 be3e 22da 9dbe 7c6f b53e
000000d0: 0040 a2b9 7c23 373e fc48 a2bd c45b c4be
000000e0: 345a 3a3e df5f 37be 60a9 a1bd 2c83 a93e
000000f0: b63b 75be 8c87 803e d09b 2e3e b2b2 0dbe
00000100: 985b e23d ddbc 45be 8035 29bd e266 5ebe
00000110: a852 8b3e 33f2 67be acd3 a83e d6b7 a33e
00000120: 6e83 963e 401d 503e 08a1 81be c07c 4e3e
00000130: e082 ef3d e0f5 853d 00f0 09bb 5a4c a1be
00000140: d1f4 66be 0e0b c7be 5ccf 9e3e 9884 353e
00000150: daca 08be c406 733e 40ca a03c 64dc bbbd
00000160: a087 96bd 9725 5ebe 9c5f 4cbe b6b0 63be
00000170: 002b a1bd 409d f7bd 78a5 f4bd b4b8 9cbe
00000180: 9473 613e 7809 76bd 7a37 34be c0da 4bbc
00000190: 6c27 393e 7080 92bd ec02 063e ec15 0dbe
000001a0: f0e2 833c 3868 a0be 805d b13b f0f6 983e
000001b0: 405e 59bc fa3f 6abe 008b 6ebc d47c 10be
000001c0: d8e1 563e 486b 583e 64f8 133e 9aaf 35be
000001d0: da8f c23e 769b 06be 068c 923e 0cb3 103e
000001e0: 8c64 95be 2c49 a7be 1853 a6be 8cd4 e3bd
000001f0: f3df 94be f4d6 943e c0ec bcbb 8846 92bd
00000200: 6eeb 53be 4492 a33d a2ee cf3e 820d 05be
00000210: 4003 1fbc a0b0 013c c0a7 763e fe97 01be
00000220: 68c4 ca3e 3852 203d 889a c53d 6a9c 07be
00000230: 9c9b 27be c08b 053c 704f fabd 4f30 9fbe

lstm.bias_ih_l2 f4 [24]
0.7626657 0.0032750801 0.15491532 0.57585394 0.5687673 0.24639598 -0.34880337 0.25097907
0.37182868 -0.27844203 0.28511178 -0.06921294 -0.7144943 0.059328657 0.3197458 -0.49391538
-0.0848391 -0.50471205 0.758963 0.18958017 0.35551298 0.5014865 0.7046482 0.20699711
00000000: 0f3e 433f baa2 563b 1fa2 1e3e 2a6b 133f
00000010: bc9a 113f 3a4f 7c3e 5b96 b2be 5480 803e
00000020: 5460 be3e f48f 8ebe 2cfa 913e 84bf 8dbd
00000030: 19e9 36bf 9b02 733d b9b5 a33e 7ae2 fcbe
00000040: 1fc0 adbd cf34 01bf 664b 423f 4e21 423e
00000050: cc05 b63e 6b61 003f d363 343f 0df7 533e

lstm.bias_hh_l2 f4 [24]
1.1351669 0.4912251 0.2901865 0.36846814 0.75874317 0.15483478 -0.28543356 -0.33771396
0.17334503 0.054837048 -0.10465422 -0.06468165 -0.78839535 0.059236478 -0.33620107 -0.8163233
-0.41027665 -0.1817406 1.2409871 0.5645237 0.762716 0.3763574 0.43445945 0.66011864
00000000: 264d 913f db81 fb3e 5393 943e dba7 bc3e
00000010: fe3c 423f 028d 1e3e 5924 92be d8e8 acbe
00000020: 5c81 313e d09c 603d f454 d6bd d077 84bd
00000030: 47d4 49bf f3a1 723d 8c22 acbe 90fa 50bf
00000040: c80f d2be 351a 3abe aad8 9e3f a084 103f
00000050: 5b41 433f ebb1 c03e 7871 de3e 89fd 283f

lstm.weight_ih_l3 f4 [24, 6]
-0.33792806 -0.33705994 0.097373076 -0.8578526 0.110399 -0.28653383 -0.14072329 -0.118103825
0.5119789 -0.41110185 0.35749203 -0.66318905 -0.93517435 -0.62555903 0.42259413 -0.47935703
0.90041494 -0.8775358 -0.08121276 -0.5045985 0.46821776 -0.39692485 0.5263083 -0.24589677
-0.8671314 -0.7659068 0.49292794 -0.83110565 0.702294 -0.08994601 0.017346533 -0.8630363
0.378449 -0.48687524 0.8675345 -0.41607448 0.24871749 0.077298224 -0.37345028 -0.09294611
-0.08992633 -0.33070967 -0.006678134 0.29990077 0.19827849 -0.114236265 0.122828305 0.38320553
-0.12325382 -0.13724115 0.34139496 0.40069687 -0.25206965 0.14463335 0.32842416 -0.048062205
0.093663216 0.19463456 0.13852036 -0.26648217 0.15295458 0.21994972 0.09735602 -0.34056142
0.09134638 0.33874547 -0.27038494 -0.34567642 0.19728214 -0.40774587 -0.13922614 -0.28382185
-0.5234759 -0.079622425 -0.06809353 -0.51474637 -0.055919345 -0.51415604 0.96658003 0.09000151
-0.52789766 0.14156279 -0.7341853 0.5003742 -0.38108304 0.888717 -0.86848724 -0.8800706
-0.98292583 0.64402133 -0.64014643 -0.26276347 0.52146965 0.5558926 0.5784976 -0.2491566
0.87048566 0.14973593 -1.0618172 -0.39887947 -0.45127022 0.94488704 -0.4354783 -0.6188174
0.22961053 0.40234768 0.63204217 -0.565748 -0.9296393 0.14466959 0.299339 -0.6566
0.08431978 -0.6168858 -0.68160826 -0.24833527 0.16806823 -0.538846 0.5020358 -0.8904886
-0.9322513 -0.413736 0.8385014 -0.74615765 0.6417721 -0.9131946 -0.6996123 -0.32736182
0.5830265 -0.69123065 0.40622392 -0.33498412 -0.21216732 -0.61384535 0.3465631 -0.47909164
0.2795735 -0.8594999 -0.4107138 -1.0341672 0.6550516 -0.57243043 0.8085935 -0.40380776
00000000: e804 adbe 1f93 acbe 896b c73d 3a9c 5bbf
00000010: df18 e23d 90b4 92be c419 10be 6be0 f1bd
00000020: 0d11 033f f17b d2be 3209 b73e c2c6 29bf
00000030: 9667 6fbf a324 20bf 425e d83e 496e f5be
00000040: 9881 663f 30a6 60bf e052 a6bd 5e2d 01bf
00000050: 3dba ef3e bc39 cbbe 24bc 063f 5dcc 7bbe
00000060: 53fc 5dbf 7812 44bf 0d61 fc3e 57c3 54bf
00000070: 8ac9 333f 9d35 b8bd 511a 8e3c f2ef 5cbf
00000080: 11c4 c13e b647 f9be be16 5e3f b707 d5be
00000090: ccaf 7e3e 884e 9e3d e034 bfbe 885a bebd
000000a0: 4c2b b8bd c752 a9be 40d4 dabb 988c 993e
000000b0: 8409 4b3e b4f4 e9bd 688d fb3d 8433 c43e
000000c0: 806c fcbd f288 0cbe 52cb ae3e 2428 cd3e
000000d0: 460f 81be c41a 143e 3627 a83e e0dc 44bd
000000e0: 80d2 bf3d 484e 473e 48d8 0d3e 5a70 88be
000000f0: 20a0 1c3e 803a 613e 9862 c73d 115e aebe
00000100: d013 bb3d 0c70 ad3e e56f 8abe 80fc b0be
00000110: 5404 4a3e 11c4 d0be 4c91 0ebe 1951 91be
00000120: 8402 06bf 1511 a3bd 9f74 8bbd 6bc6 03bf
00000130: af0b 65bd bb9f 03bf ca71 773f b652 b83d
00000140: 4d24 07bf d6f5 103e 91f3 3bbf 8618 003f
00000150: 511d c3be f582 633f 2e55 5ebf 4f4c 61bf
00000160: 07a1 7bbf 95de 243f a3e0 23bf ef88 86be
00000170: 097f 053f fa4e 0e3f 6b18 143f e822 7fbe
00000180: 26d8 5e3f 6054 193e a0e9 87bf ee39 ccbe
00000190: e40c e7be 1ee4 713f 03f7 debe d16a 1ebf
000001a0: 061f 6b3e 8400 ce3e 84cd 213f dcd4 10bf
000001b0: d7fc 6dbf 4424 143e f642 993e f016 28bf
000001c0: d9af ac3d 3aec 1dbf e17d 2ebf 9a4b 7ebe
000001d0: 141a 2c3e d0f1 09bf 6b85 003f 10f7 63bf
000001e0: 05a8 6ebf 34d5 d3be 07a8 563f 3004 3fbf
000001f0: 2d4b 243f 1fc7 69bf cb19 33bf f89b a7be
00000200: 3a41 153f 7ef4 30bf 95fc cf3e 0a83 abbe
00000210: 6442 59be f824 1dbf b870 b13e 804b f5be
00000220: 4224 8f3e 2f08 5cbf 1449 d2be 975f 84bf
00000230: 76b1 273f cd8a 12bf fcff 4e3f e4bf cebe

lstm.weight_hh_l3 f4 [24, 6]
-0.36424094 -0.14799628 -0.38315862 -0.05756858 0.066937506 -0.12857178 0.11857468 0.16203994
-0.3913647 0.3724513 0.048286915 -0.085909456 0.16240633 0.29476714 -0.09964728 0.27851045
-0.1302886 -0.31942627 0.207425 0.030272186 0.28806764 0.22065908 -0.36357462 -0.1080803
0.03617409 0.17488217 -0.39608264 -0.32703167 -0.30935523 -0.32028043 -0.14082038 -0.25534642
-0.17398931 -0.22710267 -0.18860672 0.08305684 0.31751776 0.015694022 -0.003886938 -0.37731954
0.3646267 -0.35899872 -0.13689756 0.40647763 0.07123354 0.09011179 0.24829781 -0.24046467
0.3243009 -0.19103394 -0.15423441 0.39771962 0.2741608 0.0025972724 -0.3432066 0.21609223
0.15131825 0.18736166 0.08660436 -0.031873822 0.30439758 -0.40182012 0.324812 0.07342073
0.16915816 -0.044936508 -0.13456711 -0.29002854 0.17756271 -0.20486228 -0.18667519 0.29631013
-0.30595165 0.07993922 -0.120512426 -0.36258617 0.07326588 -0.2081967 0.16776949 0.0674178
0.15259606 -0.056487292 -0.020661235 -0.1576078 0.07099873 0.21609873 0.039507806 -0.15399724
-0.001118809 0.38574302 -0.0658021 -0.28227025 0.3452248 0.40202254 -0.06814572 0.21766156
0.3817786 -0.05035472 0.27320832 0.16114414 -0.4025994 -0.07066378 0.1280067 0.2533781
0.24141818 0.3341905 -0.2015122 0.044905722 0.07798535 0.23388869 -0.31765246 0.058926374
0.012688011 -0.35630876 0.1792261 -0.13196447 0.38299257 0.31043512 0.023775727 0.054425597
-0.23448719 -0.39527828 -0.38013825 0.39240217 0.0027421415 0.08060092 -0.18321355 0.29101962
0.086311966 0.10386127 0.23570895 0.25108743 -0.31780615 -0.08989626 -0.09156981 -0.18117723
0.095068395 0.064434946 0.27181447 0.24108374 0.3274641 -0.09003782 -0.32725197 -0.2884445
00000000: ca7d babe 568c 17be 5e2d c4be 08cd 6bbd
00000010: 8816 893d 52a8 03be 48d7 f23d cced 253e
00000020: f460 c8be f0b1 be3e 80c8 453d 4cf1 afbd
00000030: d84d 263e b8eb 963e e013 ccbd ec98 8e3e
00000040: 606a 05be d78b a3be 3867 543e 60fd f73c
00000050: 9a7d 933e 74f4 613e 7426 babe 3459 ddbd
00000060: 482b 143d 5014 333e 58cb cabe b270 a7be
00000070: cf63 9ebe ccfb a3be 3833 10be c4bc 82be
00000080: 412a 32be 9a8d 68be 1f22 41be b419 aa3d
00000090: b091 a23e c090 803c 00bc 7ebb 0730 c1be
000000a0: 5ab0 ba3e aece b7be e02e 0cbe d61d d03e
000000b0: e4e2 913d 888c b83d c841 7e3e 5f3c 76be
000000c0: c40a a63e 679e 43be a0ef 1dbe e8a1 cb3e
000000d0: ce5e 8c3e 0037 2a3b c7b8 afbe 4847 5d3e
000000e0: 2cf3 1a3e bcdb 3f3e a05d b13d 208e 02bd
000000f0: 00da 9b3e 5ebb cdbe c24d a63e 9c5d 963d
00000100: cc37 2d3e 580f 38bd f6cb 09be 9f7e 94be
00000110: 00d3 353e 6bc7 51be c827 3fbe f6b5 973e
00000120: b2a5 9cbe 2cb7 a33d 38cf f6bd e5a4 b9be
00000130: 6c0c 963d 8431 55be c4cb 2b3e 5812 8a3d
00000140: 2442 1c3e 385f 67bd c041 a9bc f063 21be
00000150: c867 913d fc48 5d3e f0d2 213d 74b1 1dbe
00000160: 00a5 92ba 1c80 c53e 40c3 86bd ba85 90be
00000170: 4ec1 b03e e6d5 cd3e fc8f 8bbd ace2 5e3e
00000180: 7c78 c33e c040 4ebd f6e1 8b3e f802 253e
00000190: 8221 cebe 2cb8 90bd 3014 033e c6ba 813e
000001a0: 5436 773e 041b ab3e 3759 4ebe 10ef 373d
000001b0: c8b6 9f3d 8480 6f3e 58a3 a2be c85c 713d
000001c0: 60e1 4f3c 1a6e b6be 0c87 373e b221 07be
000001d0: 9a17 c43e 5af1 9e3e 50c5 c23c 60ed 5e3d
000001e0: 691d 70be ea61 cabe 7ba1 c2be f0e8 c83e
000001f0: 80b5 333b 1812 a53d 559c 3bbe 8600 953e
00000200: 54c4 b03d 38b5 d43d b05d 713e 888e 803e
00000210: 7db7 a2be 881b b8bd f488 bbbd 8686 39be
00000220: 38b3 c23d 78f6 833d 442b 8b3e a8de 763e
00000230: 60a9 a73e c065 b8bd 928d a7be ffae 93be

lstm.bias_ih_l3 f4 [24]
0.8377256 0.7962302 0.84888726 0.6145741 0.69421506 0.39471817 0.1977458 -0.15114829
-0.23677094 0.14148337 0.2578215 0.116069674 0.7355016 -0.038738173 0.17362612 0.6079899
-0.2956079 0.11231621 0.65519655 0.37485737 1.0584016 0.740906 0.7604172 0.6492493
00000000: 2f75 563f bed5 4b3f ad50 593f ba54 1d3f
00000010: 14b8 313f 8018 ca3e e07d 4a3e 9ec6 1abe
00000020: 1574 72be 04e1 103e 2e01 843e f0b5 ed3d
00000030: d549 3c3f ebab 1ebd 0ccb 313e 3aa5 1b3f
00000040: eb59 97be 0b06 e63d f6ba 273f 4eed bf3e
00000050: b479 873f 04ac 3d3f b4aa 423f 3435 263f

lstm.bias_hh_l3 f4 [24]
0.25030392 0.51887465 0.2932238 0.153573 0.11239972 -0.01838159 0.1109612 -0.26558083
-0.21129766 0.3011939 0.03819555 -0.1410417 0.81986433 -0.29273194 0.25338137 0.0074108783
-0.35424614 -0.17050017 0.74201554 0.8539978 1.0304446 0.69463134 0.3149173 0.12774578
00000000: d627 803e f8d4 043f 6e21 963e 3e42 1d3e
00000010: d331 e63d fd94 96bc a03f e33d 36fa 87be
00000020: 6a5e 58be 1636 9a3e f072 1c3d 3c6d 10be
00000030: a1e2 513f f6e0 95be 34bb 813e f4d6 f23b
00000040: c05f b5be 9997 2ebe bbf4 3d3f 9a9f 5a3f
00000050: 9ce5 833f 5cd3 313f d73c a13e cacf 023e

lstm.weight_ih_l4 f4 [24, 6]
0.5740743 -0.7355248 -0.26649615 0.6713516 -0.77975595 0.34794146 0.70487136 -0.14044037
-0.8204807 0.12622713 -0.7150642 0.060761966 1.2392453 -0.168876 -0.23702653 0.8874754
-0.2657824 0.16721636 0.38643163 -0.85005826 -0.15980199 0.396891 -0.6201191 0.4817734
0.9118338 -0.20608413 -0.21641819 0.379629 -0.40258244 0.7758802 0.84416 0.18320325
-0.3639037 0.22669877 -0.21860568 -0.13218363 -0.01853177 -0.340178 -0.32690513 -0.30718103
0.120455384 0.3889528 0.34416223 0.39970106 0.37977958 -0.31784308 -0.15450203 -0.12717474
-0.008095086 0.22100663 0.251171 0.39190042 0.3515578 0.2214964 -0.09510568 -0.1352992
-0.21520713 0.062011033 0.12337476 0.17977905 -0.101707965 0.3444895 0.17560983 0.33901978
-0.16286106 -0.2730678 0.1042636 -0.24186462 -0.31595087 0.019664884 -0.12976095 -0.02160561
-0.29843485 0.46570066 0.26412657 -0.81386864 1.0870059 -0.5728932 0.40318844 0.7558131
1.1078081 -0.26273918 0.14255331 -0.47570294 -0.120632455 -0.11901642 -1.3282197 0.38806763
-0.3570278 0.8039718 0.377593 -0.4842637 -0.4222459 1.0155817 -0.5946306 0.39051417
-0.3010817 0.7670973 0.38666394 -1.1148161 0.78487957 -0.7297834 -0.24225503 -0.40214905
-0.9547166 0.49914834 -0.38157475 0.76315147 0.8736927 -0.27355635 -0.44857523 0.3482756
-0.91470593 0.4149004 0.71502715 -0.24920785 -0.49983314 0.7521958 -0.70850664 0.22669205
0.837345 -0.60708976 0.32824874 0.53850585 -0.3746444 0.6468672 0.5188564 -0.5902984
-0.9627158 0.72890353 -0.52566534 0.36341852 0.19453755 -0.71938443 -0.44894892 0.23722462
-0.91713923 0.39660177 0.94529694 0.060661986 -0.21371754 0.5273539 0.16696757 -0.068713054
00000000: 89f6 123f 5a4b 3cbf 2f72 88be b3dd 2b3f
00000010: 169e 47bf 6225 b23e 7372 343f 9acf 0fbe
00000020: 060b 52bf af41 013e 730e 37bf 8ae1 783d
00000030: 979f 9e3f d5ed 2cbe 15b7 72be 9631 633f
00000040: a114 88be c43a 2b3e 5eda c53e 6b9d 59bf
00000050: 22a3 23be 4c35 cb3e 20c0 1ebf 01ab f63e
00000060: f16d 693f b807 53be bb9c 5dbe bb5e c23e
00000070: 491f cebe 16a0 463f df1a 583f a299 3b3e
00000080: 9651 babe b923 683e 2bda 5fbe 255b 07be
00000090: f0cf 97bc d02b aebe 1c60 a7be d546 9dbe
000000a0: 50b1 f63d d224 c73e 0836 b03e 9ea5 cc3e
000000b0: 7872 c23e 54bc a2be c835 1ebe 183a 02be
000000c0: 40a1 04bc 904f 623e 7c99 803e 2ca7 c83e
000000d0: 62ff b33e f4cf 623e c4c6 c2bd e08b 0abe
000000e0: 425f 5cbe 48ff 7d3d e8ab fc3d 0018 383e
000000f0: 444c d0bd ee60 b03e 10d3 333e 0094 ad3e
00000100: 0dc5 26be 8bcf 8bbe 2888 d53d 5cab 77be
00000110: 50c4 a1be 4018 a13c 0ee0 04be 40fe b0bc
00000120: 74cc 98be 5170 ee3e 993b 873e b259 50bf
00000130: 0223 8b3f 21a9 12bf b76e ce3e f87c 413f
00000140: a8cc 8d3f c085 86be 7ff9 113e 568f f3be
00000150: 260e f7bd e1be f3bd 1a03 aabf cdb0 c63e
00000160: 59cc b6be 19d1 4d3f df53 c13e 69f1 f7be
00000170: 9d30 d8be 95fe 813f b639 18bf 79f1 c73e
00000180: 6127 9abe 7d60 443f d1f8 c53e 4bb2 8ebf
00000190: deed 483f 16d3 3abf b411 78be 7be6 cdbe
000001a0: 4f68 74bf 5f90 ff3e c45d c3be e55d 433f
000001b0: 53aa 5f3f 940f 8cbe a7ab e5be 2e51 b23e
000001c0: 2b2a 6abf d36d d43e 050c 373f 5830 7fbe
000001d0: 21ea ffbe e78f 403f b160 35bf f621 683e
000001e0: 3e5c 563f 3c6a 1bbf 3810 a83e 85db 093f
000001f0: 64d1 bfbe 1799 253f c6d3 043f cc1d 17bf
00000200: 8b74 76bf 6c99 3a3f 0192 06bf fe11 ba3e
00000210: da34 473e 9429 38bf a2dc e5be 03eb 723e
00000220: a3c9 6abf 630f cb3e fbfe 713f b478 783d
00000230: c5d8 5abe aa00 073f 8cf9 2a3e 6eb9 8cbd

lstm.weight_hh_l4 f4 [24, 6]
-0.090736866 -0.38645533 -0.26733717 0.24015868 0.29179168 0.12099135 0.220622 -0.28697416
0.05855161 0.34417272 0.13084084 0.09822881 0.189686 0.10839182 0.3064047 -0.005819261
0.3460166 0.19201785 0.3119223 0.18639898 0.059568048 0.07062286 0.4026252 0.28126043
0.022982597 0.09215009 0.18623692 -0.2115958 0.30408734 -0.3948091 0.105498135 -0.3557486
-0.016000062 0.2496121 -0.3988563 -0.28817356 -0.06662789 0.043509215 0.3603152 0.104133904
0.27073586 -0.2878065 -0.32476377 0.07593399 0.18989813 -0.3064188 -0.40161055 -0.19277185
0.012527794 0.10495877 0.31635988 0.31073332 -0.26972067 0.37196606 0.40742296 0.06465721
-0.28466126 -0.27717668 0.15583736 -0.34012568 -0.04507518 0.16079801 -0.25549495 -0.1449537
0.26541573 0.122878194 -0.33608323 0.27488548 0.2521695 -0.09874645 0.115805924 0.2179687
-0.31800506 0.17220634 0.3007868 -0.030592173 0.29561436 0.15982515 -0.140526 -0.038986832
-0.39271846 -0.07230249 0.22616106 0.24293631 0.094240844 0.2165392 -0.05454451 0.0040837526
0.23712009 0.3415265 -0.39694345 -0.05524403 -0.10839 0.23229384 0.36668593 0.1816355
0.19562083 0.04338351 0.2698964 0.15887022 -0.016212344 0.10910344 -0.055277914 0.12707376
0.020409763 -0.26154733 0.3222105 0.25762194 -0.22831549 0.0033286214 -0.022052854 -0.17648894
-0.31635636 -0.3322339 -0.25265697 -0.0067864656 -0.21070237 -0.11800164 -0.14902744 0.36643374
0.111257374 -0.30910775 0.12556005 -0.13072634 0.0005542636 0.10340327 -0.33794075 -0.2855223
0.38445717 0.17408055 -0.03512612 0.1983844 0.24293631 0.20153105 -0.004980862 -0.09258053
0.36805552 -0.23485288 0.23310369 -0.12807584 -0.16462228 0.3519299 0.23982066 0.36885047
00000000: 40d4 b9bd 79dd c5be 6be0 88be 28ec 753e
00000010: b865 953e 50ca f73d bcea 613e 47ee 92be
00000020: d0d3 6f3d 6837 b03e 24fb 053e 302c c93d
00000030: 0c3d 423e 88fc dd3d 14e1 9c3e 80af bebb
00000040: 1629 b13e 54a0 443e 48b4 9f3e 60df 3e3e
00000050: a0fd 733d b8a2 903d e424 ce3e 5e01 903e
00000060: 0046 bc3c 30b9 bc3d e4b4 3e3e 92ac 58be
00000070: 56b1 9b3e 6b24 cabe 680f d83d ae24 b6be
00000080: 9012 83bc 509a 7f3e e536 ccbe 7c8b 93be
00000090: 3474 88bd b836 323d 3c7b b83e 2844 d53d
000000a0: e49d 8a3e 605b 93be 7047 a6be 4883 9b3d
000000b0: a874 423e ede2 9cbe e69f cdbe fc65 45be
000000c0: 6041 4d3c a0f4 d63d ecf9 a13e 7018 9f3e
000000d0: d418 8abe 5672 be3e be99 d03e 006b 843d
000000e0: 1fbf 91be 1aea 8dbe d493 1f3e f424 aebe
000000f0: c0a0 38bd 3ca8 243e 3cd0 82be be6e 14be
00000100: 92e4 873e 90a7 fb3d 1a13 acbe cabd 8c3e
00000110: 5c1c 813e 943b cabd a82b ed3d 3033 5f3e
00000120: 8fd1 a2be dc56 303e ba00 9a3e 709c fabc
00000130: c45a 973e 34a9 233e 0ce6 0fbe a8b0 1fbd
00000140: 6512 c9be 5413 94bd c496 673e 4cc4 783e
00000150: 5801 c13d 74bc 5d3e 106a 5fbd 00d1 853b
00000160: 9ccf 723e 90dc ae3e 2c3c cbbe 9047 62bd
00000170: 94fb ddbd 70de 6d3e 42be bb3e a8fe 393e
00000180: d450 483e e8b2 313d dc2f 8a3e e0ae 223e
00000190: c0cf 84bc a071 df3d 186b 62bd a01f 023e
000001a0: 6032 a73c 88e9 85be c6f8 a43e 06e7 833e
000001b0: 89cb 69be 0025 5a3b 30a8 b4bc 84b9 34be
000001c0: 76f9 a1be 901a aabe 415c 81be 0061 debb
000001d0: 5dc2 57be d8aa f1bd a69a 18be 349d bb3e
000001e0: e8da e33d 5f43 9ebe d092 003e 20dd 05be
000001f0: 004c 113a 18c5 d33d 9206 adbe fb2f 92be
00000200: 92d7 c43e 2c42 323e 68e0 0fbd 4825 4b3e
00000210: 4cc4 783e 285e 4e3e 8036 a3bb dc9a bdbd
00000220: c671 bc3e 467d 70be bcb2 6e3e 5026 03be
00000230: be92 28be 2830 b43e 8c93 753e f8d9 bc3e

lstm.bias_ih_l4 f4 [24]
0.8630126 0.411345 0.7621091 0.7158192 0.4533443 0.39224178 -0.16720843 -0.027172834
-0.15681103 0.009091347 0.010813326 0.39986676 0.045995332 0.15095654 0.04194694 0.04280989
0.10690911 -0.5720569 0.7111128 0.25282994 1.0187787 0.5526293 0.4606118 0.52705675
00000000: 65ee 5c3f d09b d23e 9519 433f ed3f 373f
00000010: be1c e83e ead3 c83e b038 2bbe 9099 debc
00000020: 1293 20be e0f3 143c 602a 313c 56bb cc3e
00000030: 9a65 3c3d 5a94 1a3e 8ed0 2b3d 6c59 2f3d
00000040: 2af3 da3d 5272 12bf 7d0b 363f ed72 813e
00000050: 5767 823f 1d79 0d3f 4fd5 eb3e 31ed 063f

lstm.bias_hh_l4 f4 [24]
0.38198647 0.57339865 0.910473 0.50511533 0.3647183 0.67999214 0.31063014 0.15408218
0.10987908 -0.1266045 0.19275343 -0.35709542 -0.22956924 0.047662508 -0.6142107 0.3151168
-0.278604 -0.11263302 0.6886933 0.35582545 0.855581 0.36448053 0.60415554 0.72350895
00000000: bb93 c33e 41ca 123f c214 693f 3d4f 013f
00000010: 5bbc ba3e f713 2e3f ea0a 9f3e b8c7 1d3e
00000020: 4808 e13d 9ca4 01be 2861 453e 36d5 b6be
00000030: 3314 6bbe c339 433d ea3c 1dbf fd56 a13e
00000040: 2fa5 8ebe 24ac e6bd 344e 303f c12e b63e
00000050: 5b07 5b3f 319d ba3e f0a9 1a3f e237 393f

lstm.weight_ih_l5 f4 [24, 6]
-0.5569786 -0.14497823 -0.38700244 0.2480919 -0.19239049 0.03760353 -0.33365837 -0.34088513
0.04986415 0.17207499 -0.4961574 0.072874166 -0.28640145 0.018683303 -0.29501635 0.5046406
-0.4717284 -0.32104552 -0.38016573 0.14016968 -1.081045 0.22888689 0.24248591 -0.87987506
-0.06254524 -0.44131038 -0.0423664 0.7474425 -0.7420031 -0.25213173 0.21738677 0.28090063
-0.20197795 0.3978053 0.03557046 -0.6876462 0.171853 0.11204952 0.3769343 -0.31158295
-0.33515126 0.31097037 0.021455854 0.22966504 0.15751946 -0.011274934 -0.11815244 -0.1375108
-0.34570193 -0.011769295 -0.33441862 0.107846856 -0.22167479 0.25364977 -0.25775003 -0.26649195
-0.053266168 -0.09959209 0.27105147 0.108042 -0.18863827 -0.10304487 0.0685859 0.21815765
-0.1559867 -0.3827912 0.3006333 0.19514173 0.3403607 -0.24735446 0.34222144 0.14938384
1.201764 0.9258495 -0.293904 -1.0999002 0.9856246 -0.8653046 -0.78352904 -0.9651163
0.6646986 0.986385 -0.70314723 1.0010455 0.30739564 1.0121228 -1.1375537 -0.371078
0.6529965 -0.7389484 -0.4445 -0.84368664 1.3442203 0.76640624 -0.32646173 0.78418744
-1.1007019 -0.7254252 0.43598908 0.54182976 -1.1180978 0.9403855 -0.4198461 -0.8580394
0.9852291 0.4948222 -0.79079014 0.45706272 -0.59698343 -0.1789285 -0.105600476 0.0026169978
-0.7493915 -0.43305543 -0.6831481 -0.06911214 -0.117689766 0.6645493 -0.08927751 0.33240938
-0.029488713 0.050911274 0.088230476 0.42140073 0.05881223 0.09872692 0.3959214 -0.20889801
-1.0232369 -0.041515503 0.07451012 -0.8054265 -0.7673856 -0.35250303 -0.08256023 0.69862765
-0.427052 -0.19119523 0.17336221 0.3482303 -0.75652295 0.3075449 0.008412532 -0.31094277
00000000: 2696 0ebf 2c75 14be 2f25 c6be ce0b 7e3e
00000010: 0302 45be 2906 1a3d 45d5 aabe 7f88 aebe
00000020: 5a3e 4c3d 6d34 303e 5808 febe 0d3f 953d
00000030: 36a3 92be ba0d 993c 620c 97be 2030 013f
00000040: 6386 f1be 1460 a4be 15a5 c2be a488 0f3e
00000050: af5f 8abf 5361 6a3e 3a4e 783e 7e3f 61bf
00000060: b817 80bd 6ff3 e1be 6488 2dbd 6458 3f3f
00000070: eaf3 3dbf 6917 81be a39a 5e3e 35d2 8f3e
00000080: 4fd3 4ebe 23ad cb3e 55b2 113d 9509 30bf
00000090: 3cfa 2f3e 387a e53d 88fd c03e cd87 9fbe
000000a0: f298 abbe 8237 9f3e 30c4 af3c 502d 6b3e
000000b0: c84c 213e 80ba 38bc e8f9 f1bd a2cf 0cbe
000000c0: d8ff b0be 00d4 40bc eb38 abbe d0de dc3d
000000d0: b7fe 62be 62de 813e d0f7 83be a271 88be
000000e0: a02d 5abd f0f6 cbbd 42c7 8a3e 2045 dd3d
000000f0: 642a 41be 3009 d3bd c476 8c3d b864 5f3e
00000100: faba 1fbe 35fd c3be 9cec 993e 3cd3 473e
00000110: c243 ae3e 7d4a 7dbe a637 af3e 14f8 183e
00000120: 67d3 993f 7904 6d3f 967a 96be 88c9 8cbf
00000130: e551 7c3f 9a84 5dbf 5c95 48bf dd11 77bf
00000140: b029 2a3f ba83 7c3f 7501 34bf 4222 803f
00000150: f662 9d3e 3d8d 813f 5c9b 91bf f0fd bdbe
00000160: c72a 273f b92b 3dbf 8195 e3be d9fb 57bf
00000170: 690f ac3f 3333 443f fe25 a7be 82c0 483f
00000180: cde3 8cbf 77b5 39bf f639 df3e 5bb5 0a3f
00000190: d41d 8fbf 1bbd 703f 11f6 d6be 78a8 5bbf
000001a0: f937 7c3f 5659 fd3e 3971 4abf 2004 ea3e
000001b0: e8d3 18bf 0839 37be 1045 d8bd f081 2b3b
000001c0: 1fd8 3fbf 71b9 ddbe cbe2 2ebf aa8a 8dbd
000001d0: 5507 f1bd e71f 2a3f 21d7 b6bd 9031 aa3e
000001e0: 5092 f1bc 5788 503d 2eb2 b43d d6c1 d73e
000001f0: 18e5 703d 5731 ca3d 36b6 ca3e 5ce9 55be
00000200: 6df9 82bf 290c 2abd c398 983d 6e30 4ebf
00000210: 6273 44bf 477b b4be 5615 a9bd 43d9 323f
00000220: 8fa6 dabe afc8 43be dd85 313e 3e4b b23e
00000230: 7dab 41bf 8676 9d3e b7d4 093c e433 9fbe

lstm.weight_hh_l5 f4 [24, 6]
-0.06301442 0.012697548 -0.29377016 -0.08840689 -0.1903218 0.10335946 -0.016164154 0.37564427
-0.36217934 8.401275e-05 0.17200774 0.25104308 0.12338817 0.065610856 0.3178876 -0.32795793
-0.32098606 -0.3612535 0.1022774 0.036143035 -0.026316762 -0.23660494 0.16739821 -0.09158251
-0.35387176 -0.18820883 -0.37080693 -0.25643274 -0.26467687 0.19628334 -0.38809472 -0.2562704
-0.11333442 0.15534407 -0.3398597 -0.36260232 0.39730382 0.16659063 0.31964725 -0.07779491
-0.0547767 -0.08039996 0.21608597 -0.15192434 0.30924743 -0.25509396 -0.38752872 0.12382299
-0.021328896 0.07905963 0.3229131 0.048287153 0.018474966 -0.33168787 -0.3844781 -0.010472447
0.28035742 0.12955421 -0.31737354 0.38248032 0.11734384 0.18353027 -0.04695624 0.4076742
-0.30373862 0.32443857 0.29262853 0.27146685 0.15670538 -0.21003734 -0.24017783 0.16633236
-0.37000334 -0.14236063 -0.22069877 -0.13039958 0.034326226 -0.19895013 -0.15588272 -0.0461514
0.18688881 -0.13748425 -0.24533892 -0.032335132 -0.027901918 0.23288101 3.4213066e-05 -0.011662841
-0.27238983 0.03017363 0.26281202 0.36327946 0.27667218 -0.17854454 -0.2998197 0.37598854
0.2559409 0.20964354 -0.15391758 -0.02160874 0.05197352 -0.14987156 -0.083746254 0.032476068
-0.3155254 -0.19408181 0.07134974 -0.021384627 0.18445224 0.19221032 0.02676192 -0.3452502
0.27207142 0.20058537 0.30806637 -0.21948113 0.04367736 -0.3184272 -0.011695057 0.35104096
-0.1089634 0.22377902 0.33131987 0.23137432 -0.20814794 -0.25533915 -0.35026208 0.39110202
0.0371387 -0.34919807 0.15690404 -0.35015866 -0.21593778 0.36265647 0.2630561 -0.13206577
0.26332963 0.08035004 0.124426365 0.31323898 0.3258686 -0.33554626 0.28303164 -0.22781388
00000000: b40d 81bd 6009 503c 0b69 96be ac0e b5bd
00000010: b8e3 42be 20ae d33d b06a 84bc 7254 c03e
00000020: 926f b9be 0030 b038 cc22 303e b888 803e
00000030: f0b2 fc3d fc5e 863d 2ac2 a23e 1aea a7be
00000040: 4958 a4be 38f6 b8be d076 d13d b80a 143d
00000050: 4096 d7bc 9148 72be 706a 2b3e 9c8f bbbd
00000060: ae2e b5be d1b9 40be 68da bdbe 274b 83be
00000070: ba83 87be 80fe 483e 5ab4 c6be e035 83be
00000080: e01b e8bd 8412 1f3e 1702 aebe 03a7 b9be
00000090: 686b cb3e bc96 2a3e cea8 a33e f052 9fbd
000000a0: 885d 60bd bca8 a4bd a445 5d3e 0e92 1bbe
000000b0: ae55 9e3e ad9b 82be 2a6a c6be e896 fd3d
000000c0: f0b9 aebc 04ea a13d de54 a53e c0c8 453d
000000d0: d058 973c fed2 a9be 50da c4be a094 2bbc
000000e0: 028b 8f3e dca9 043e c97e a2be 76d4 c33e
000000f0: f851 f03d 5cef 3b3e 3055 40bd acba d03e
00000100: a183 9bbe d01c a63e 68d3 953e b4fd 8a3e
00000110: 6077 203e 0714 57be 2df1 75be 0853 2a3e
00000120: 1471 bdbe fcc6 11be dcfe 61be 7887 05be
00000130: a899 0c3d 95b9 4bbe b89f 1fbe 4009 3dbd
00000140: c85f 3f3e acc8 0cbe 203a 7bbe d871 04bd
00000150: 9092 e4bc 5c78 6e3e 0080 0f38 8015 3fbc
00000160: ae76 8bbe b02e f73c 4c8f 863e c4ff b93e
00000170: faa7 8d3e 61d4 36be f881 99be 9281 c03e
00000180: b00a 833e ccac 563e 929c 1dbe d004 b1bc
00000190: 30e2 543d ee77 19be 2883 abbd a005 053d
000001a0: 8c8c a1be 62bd 46be d01f 923d d02e afbc
000001b0: 0ce1 3c3e c8d2 443e d03b db3c a2c4 b0be
000001c0: f24c 8b3e 4066 4d3e e0ba 9d3e a9bf 60be
000001d0: 08e7 323d e408 a3be a09c 3fbc a4bb b33e
000001e0: 3428 dfbd 5426 653e c2a2 a93e 64ed 6c3e
000001f0: bc24 55be d0bb 82be 8d55 b3be 863e c83e
00000200: c01e 183d 17ca b2be 74ab 203e ff47 b3be
00000210: cb1e 5dbe 1cae b93e 4aaf 863e 403c 07be
00000220: 24d3 863e 908e a43d 40d3 fe3d dc60 a03e
00000230: 40d8 a63e b8cc abbe 86e9 903e 0b48 69be

lstm.bias_ih_l5 f4 [24]
1.2150992 0.97215474 0.7530376 1.2231961 0.7891813 1.0258559 -0.14270681 0.14657998
-0.17302245 -0.064971805 0.2179197 -0.109031975 0.4589351 -0.114724085 0.40360302 -0.29938373
0.05605834 -0.23075242 1.1678896 0.80760723 1.207421 0.7759615 0.5590977 1.2388649
00000000: 5f88 9b3f 22df 783f 12c7 403f b191 9c3f
00000010: c907 4a3f 3f4f 833f bc21 12be 1019 163e
00000020: cc2c 31be f00f 85bd 5826 5f3e 284c dfbd
00000030: 8bf9 ea3e 76f4 eabd 0ea5 ce3e d348 99be
00000040: 6e9d 653d 5d4a 6cbe 687d 953f 59bf 4e3f
00000050: c58c 9a3f 6aa5 463f 0721 0f3f 2093 9e3f

lstm.bias_hh_l5 f4 [24]
0.68843645 0.5504914 0.9855124 0.58423334 0.65399426 1.2289677 -0.3952817 0.38602138
0.26153964 -0.20749079 0.05336088 -0.049286038 -0.12938227 0.070067674 0.22461264 -0.57230216
-0.2845017 -0.5942143 0.8552982 0.61798877 1.059261 1.3913223 0.62787175 1.0733844
00000000: 5f3d 303f 01ed 0c3f 8a4a 7c3f 5190 153f
00000010: 2b6c 273f d04e 9d3f 5d62 cabe 98a4 c53e
00000020: 86e8 853e 7778 54be f090 5a3d 28e0 49bd
00000030: c97c 04be a47f 8f3d db00 663e 6582 12bf
00000040: 35aa 91be 6e1e 18bf d3f4 5a3f 8334 1e3f
00000050: dd95 873f d916 b23f 34bc 203f a964 893f

linear.weight f4 [1, 6]
0.98211503 -0.9854132 1.1571188 -1.2111516 -0.9503845 -1.0759536
00000000: e46b 7b3f 0a44 7cbf 781c 943f 0407 9bbf
00000010: 664c 73bf d9b8 89bf
