ModelSave.pt (torch_old, 3860 bytes, 11 tensors)

lstm1.weight_ih f4 [24, 6]
00000000: 9c78 c0be 7d6c a6be cd93 8bbe dc1b a03d
00000010: ea9a cfbd 0669 82be 1b4e f83e 6fb3 a9be
00000020: 355e 433d c4c0 4fbe d2d7 dabe 000f 903e
00000030: 8619 98be 4785 82be 6c75 963e dd14 833e
00000040: 98eb 303e ac99 14bd 5a50 21bd 00c9 f3ba
00000050: 8d27 57be 1bc1 9ebe ea6b 023e 4a08 f0bc
00000060: 9b73 36be 3253 3ebe ef7f 72bd 07e0 cd3e
00000070: 5e74 133e 3ed0 45bd 4b79 abbe 49fb 793d
00000080: 589a 903d 5d1d 0a3d 7a7e ab3c 56e2 23be
00000090: a67b a43e 7d5b 91be 38ca babe 702d 883e
000000a0: be90 82be 9ab4 81be f10e 68be da1f 65be
000000b0: 460c 833e 506f 923c 904e c1bc 787e 98bd
000000c0: c84d 153e 104d 923e 9438 aabd fc43 f3bd
000000d0: 7248 c43e 74e5 d4bd a0a7 e03d c269 913e
000000e0: e0d2 cb3e b605 893e 400f cbbc 2886 9fbd
000000f0: e0e5 3cbc 6c4e bb3e 60a9 98be 68f3 84be
00000100: 4097 e6bd d0ae 42be d45e 8a3e 181b c23e
00000110: b84e 013e b059 423e 4437 8b3d aaad 8dbe
00000120: 1b53 78be 9ef8 283f 7dc7 51bf 60bf 36bf
00000130: c9a1 34be ff1b 713e 4e4a 483f 7f30 c73f
00000140: 6f2f 01c0 dd39 58bf d102 9ebe 9a97 493f
00000150: 1fb0 0d3f f722 22bf 6e90 683c fc62 5c3d
00000160: ad60 9fbe 6b40 863e 208b 073e 2515 1dbe
00000170: 10ee ae3f 4e92 023f 9dde 41be 17ac e4be
00000180: 4be1 cb3e 7990 8cbf 8e11 623f 622a 2c3e
00000190: 29bf 393e 4331 afbe 139f e03e e8e8 09bf
000001a0: b2b8 cb3f 7828 b23e 06c6 b1bd 6339 c2bd
000001b0: 774b 313e 4933 04bf 4a0d bfbe d9e2 04bf
000001c0: d05b 80be cc27 493e b95c f23e f074 38be
000001d0: efd1 5cbe eeae 373b 811c 44be f2cd 2bbe
000001e0: e257 dfbe 1d7e 213e 5b7f 9b3b d181 70be
000001f0: e434 d83e 1a67 bcbe 9a87 153e 4533 a53d
00000200: cf9d bfbd 202e 46ba 4189 cd3d a442 733e
00000210: 36ef 763e 037a bcbe 99d1 883e b465 a63e
00000220: 36fc 403e e16c 2ebe 72d4 55be 1a18 aebe
00000230: 2baa c9be d420 643e 78c9 a43d 3dc7 e9be
-0.37592018 -0.32504645 -0.272612 0.07817814 -0.101369694 -0.25470752 0.4849709 -0.3314471
0.047697265 -0.20288378 -0.42742783 0.28136444 -0.29706973 -0.25492308 0.2938646 0.25601855
0.17277372 -0.036279365 -0.03938327 -0.0018599331 -0.21011181 -0.31006703 0.12736478 -0.029300828
-0.17817537 -0.18586424 -0.05920404 0.40209982 0.1439986 -0.0482943 -0.33490977 0.06103066
0.07060689 0.03371941 0.020934332 -0.16004309 0.32125586 -0.28390113 -0.36482406 0.26597166
-0.25501055 -0.253331 -0.2266195 -0.22375432 0.255953 0.017875344 -0.023597032 -0.07445997
0.14580452 0.2857442 -0.08311573 -0.11878201 0.3833652 -0.10395327 0.10969472 0.28401
0.39809322 0.2676217 -0.024787545 -0.0778926 -0.011529416 0.3658327 -0.29816723 -0.25966954
-0.112593174 -0.19011998 0.27025473 0.37911296 0.12627685 0.18979526 0.067976505 -0.27671558
-0.24250452 0.6600436 -0.8194502 -0.71385765 -0.17639841 0.23545836 0.7823838 1.5561675
-2.01852 -0.8446329 -0.30861524 0.7874695 0.55346864 -0.633346 0.014194591 0.053805336
-0.31128445 0.26221022 0.13236666 -0.15340097 1.3666401 0.51004493 -0.18932576 -0.44662544
0.39820322 -1.098159 0.88308036 0.16813043 0.18139328 -0.3421727 0.43871364 -0.5387101
1.591574 0.347965 -0.08680348 -0.09483602 0.17313944 -0.51640755 -0.37314826 -0.5190864
-0.25070047 0.19644088 0.47336367 -0.18013358 -0.21564458 0.002802785 -0.19151498 -0.1677778
-0.43621737 0.15770765 0.0047454066 -0.23487021 0.42227852 -0.3679741 0.14602509 0.080664195
-0.093562715 -0.0007559974 0.10035945 0.2375589 0.24114689 -0.36811838 0.2672241 0.32499468
0.18846211 -0.17033722 -0.20881823 -0.34002763 -0.3938764 0.22278148 0.080462396 -0.4565982

lstm1.weight_hh f4 [24, 6]
00000000: 9c85 2d3e 945b 7f3e 26e6 94be a084 a6be
00000010: aee1 ae3e 9811 1bbd 5c66 b7be f086 7ebd
00000020: 3825 623e 355d 4dbe 2ca5 603e 4f15 9cbe
00000030: 529d b03e b0ad ff3d e069 b0bc d5e7 87be
00000040: 80b3 743b 284c cd3d 9fe3 91be 48d9 55be
00000050: b0b6 d63d 1ec0 a63e 7807 383e baf4 13be
00000060: 20d3 3fbc 94f9 033e b051 e63d 1ce0 8dbe
00000070: e083 0fbc 9243 883e 20d3 1cbd 8007 423b
00000080: 704c a63d 981a 21be 22a9 913e 2a8a b8be
00000090: 5a6c a6be 6433 bb3e 248e cb3e ecf7 793e
000000a0: a046 633e ce13 8cbe 2793 b7be 8c08 5f3e
000000b0: 3c6e 553e 7469 a7bd d085 c7bc f0d6 c93c
000000c0: 1e58 903e e822 c33d e04d 153d 1cb8 b13d
000000d0: b45e bb3d 06dd 8e3e 42e0 cf3e e847 9abe
000000e0: 54ac 163e 2852 65bd 7222 ad3e 3827 b63d
000000f0: a904 3ebe b2f1 a6be c052 183e c0b8 943b
00000100: e060 833e 8a87 82be 1874 a83e 86bd 34be
00000110: 8c4f 293e 1ac7 ae3e 7f33 82be 78e2 b83e
00000120: 68cc 283d 7857 17be 1013 c3be 5c3b 983d
00000130: a05b c7be 04ec be3e 92eb 9d3e 38ef 603d
00000140: e74a cfbe 4977 3fbe 30eb d83d fee5 8d3e
00000150: ea50 80be 8499 8dbd cc7f 863d 9d47 b0be
00000160: e040 a0bd 7692 8ebe f9b6 7abe 043a 893e
00000170: 1081 d33c fa1f 02be f074 bf3c 7018 353e
00000180: 888d d43d 29b1 bbbe 8439 cabd 007b 16bb
00000190: 1a6e a03e be90 adbe e02e f5bd 1057 04be
000001a0: 98fb ec3d 3843 5cbe 24e6 013e d07b c63e
000001b0: f0b4 0d3e 203d fabc 60d6 2bbd 38ce 43bd
000001c0: 5c89 783e f5d0 65be 18b1 343d 16b7 9d3e
000001d0: 50d5 713e 7e78 b1be 20ee 97bd 04f0 a7be
000001e0: f0e7 903e 2023 ddbd 1889 543e 2cc2 7c3e
000001f0: bebd 923e c44b 95be 2043 9e3e d0d9 143e
00000200: 0070 f0ba 7a7a 8abe e075 cc3e 06d8 8e3e
00000210: aea1 96be c872 683e dd20 77be 9c25 a03e
00000220: 763e 64be e498 9c3e 88f2 003e b8a7 dc3d
00000230: 9e39 a03e a87e 1d3d 806b 1fbe b07f 5a3e
0.16945499 0.24937278 -0.2908184 -0.3252306 0.34156555 -0.037858576 -0.35820282 -0.062140405
0.2208451 -0.20055087 0.21938008 -0.30485007 0.34495026 0.124843 -0.02153486 -0.2654406
0.0037338436 0.10024291 -0.28493974 -0.20883667 0.104840636 0.3256845 0.17971599 -0.14448825
-0.011708051 0.12888175 0.112460494 -0.27710044 -0.008759469 0.26614052 -0.038287282 0.002960652
0.08120048 -0.15732801 0.2844935 -0.3604291 -0.3250454 0.36562645 0.39756882 0.24410981
0.2219491 -0.2735886 -0.35854456 0.21780604 0.20842832 -0.081744105 -0.024355799 0.024638623
0.28192228 0.09528142 0.03645122 0.08677694 0.091489226 0.27903003 0.40600783 -0.30132985
0.14714175 -0.055986553 0.33815342 0.08894199 -0.18556465 -0.32606274 0.14875317 0.0045386255
0.25659847 -0.25494033 0.32901073 -0.17650422 0.16534251 0.34136277 -0.25429913 0.36110282
0.041210562 -0.1477946 -0.3810048 0.07433197 -0.38937092 0.3728944 0.30843788 0.054915637
-0.40486833 -0.18697847 0.105917335 0.27714533 -0.25061733 -0.069140464 0.06567344 -0.34429637
-0.07824874 -0.27846116 -0.24483861 0.26802075 0.025818378 -0.1270751 0.02337119 0.17685103
0.103785574 -0.366586 -0.098742515 -0.0022961497 0.31334 -0.33899492 -0.11971831 -0.12923837
0.11571425 -0.21510017 0.12685448 0.38766336 0.13838553 -0.030546725 -0.04195249 -0.047804087
0.24271148 -0.22442992 0.044114202 0.30803746 0.23616529 -0.3466224 -0.074184656 -0.32800305
0.28301954 -0.10797715 0.20755422 0.24683446 0.28660387 -0.29159367 0.30910587 0.14536214
-0.0018343925 -0.27046567 0.3993368 0.27899188 -0.29420227 0.22700036 -0.2413363 0.31278694
-0.22289452 0.30585396 0.12592518 0.10774177 0.31293958 0.038450867 -0.15568352 0.21337771

lstm1.bias_ih f4 [24]
00000000: f96c d13e 19cc 4a3f ac81 923e 7fe2 373f
00000010: 5d42 9a3e 91fa 123f 0049 dcbd 080d e33d
00000020: 240d 5d3e 30ca 553e 8087 103e 1880 8ebe
00000030: 3356 f43e 4e22 033f 09be bd3e 5b6b cdbe
00000040: 34cb 5cbe cf50 b7be a2ff 843e 87d0 823f
00000050: c430 21be 83ce 063f 803c 773e 49c0 d03e
0.40903452 0.7921768 0.28614557 0.7182998 0.30128756 0.57413584 -0.10756111 0.1108647
0.21587044 0.2087791 0.14114189 -0.27832103 0.47722015 0.5122422 0.37059048 -0.40120968
-0.21561891 -0.3580384 0.25976282 1.0219887 -0.15741259 0.5265886 0.24144173 0.40771702

lstm1.bias_hh f4 [24]
00000000: 408c c23e f39f 093f 0920 aabe f433 963e
00000010: 7ff0 b33e 7cb5 133f 7477 523e d060 eabd
00000020: 082e 3c3e 7ab6 adbe cac4 36be cbb8 cebe
00000030: 1767 7c3e 7940 793f 7c60 4cbe d62a a9be
00000040: 04d9 cebe 99aa d8be 56a4 89bd a43c 113f
00000050: d9f7 b03d 10fd 003f c7d3 4e3e f725 873e
0.37997627 0.5375969 -0.33227566 0.29336512 0.3514442 0.576988 0.2055338 -0.11444247
0.18376935 -0.3392828 -0.17848507 -0.4037536 0.246487 0.97364 -0.19958681 -0.33040494
-0.40399945 -0.42317656 -0.06720798 0.56733155 0.08641023 0.5038614 0.20197974 0.26396152

layer1.weight f4 [6, 6]
00000000: ac60 fe3c 4de5 1bbe 532f 973e f321 dc3c
00000010: 82fc 5f3e 0cd7 80bd d265 6b3f 7181 a33f
00000020: 3590 0f3e fbc5 97bf 5e0f 13bf b6e0 96bf
00000030: 26c3 2f3e a7af 203e 84d5 bdbe 4c0a 5a3e
00000040: 3d7d a3be 7862 83be c31e a93e 4410 2dbd
00000050: 731e 8a3e d96d 8e3e 7ab3 083c 4883 463e
00000060: 52a5 26bf dad3 a0bf 820f 143f c58f f43e
00000070: 6eb5 413f 22f6 313f f891 39be effd 893e
00000080: d5e8 87be 0ff5 69be e005 013d 4837 8e3e
0.031051956 -0.1522419 0.29528293 0.026871657 0.21873668 -0.06291017 0.9195224 1.2773877
0.14019854 -1.1857294 -0.57445323 -1.1787326 0.17164287 0.15692006 -0.37076962 0.2129299
-0.31931487 -0.25661063 0.33031282 -0.04225184 0.26976356 0.27818182 0.008343572 0.19386017
-0.6509601 -1.2564652 0.57836163 0.47765937 0.75667465 0.69516194 -0.18122089 0.26951548
-0.26544824 -0.22847389 0.031499743 0.2777655

layer1.bias f4 [6]
00000000: e31c 91be 3350 373f 0bec 75be 695f 78be
00000010: 4af1 0f3e aa61 54be
-0.2834235 0.7160675 -0.24015824 -0.24255146 0.14056888 -0.20740381

layer2.weight f4 [6, 6]
00000000: 34a6 823e f891 3b3e a607 94be 6811 3f3e
00000010: 9d1a 64be 90aa 9b3c 005d 83be d064 a03c
00000020: 401b bdbb 8422 ca3e 637c a2be d2e4 8b3e
00000030: 16de 863e 2a49 64be bed1 c2be c4ba cc3e
00000040: d2ec a7be 704a 523d a8c3 6a3e c000 a93e
00000050: 3b38 9fbe 3c12 43be 54fc ecbd 824c cc3e
00000060: 38ba 2d3e 98b6 4a3e 40b0 85bc 3082 f93d
00000070: 295a bdbe a00d 3d3c 16d7 ae3e a693 b6be
00000080: ec37 ccbe c04f 8fbc e7d2 28be 406c 29be
0.25517428 0.18317401 -0.28912085 0.18658984 -0.22275777 0.019002229 -0.2565689 0.019579321
-0.0057710707 0.39479458 -0.31735525 0.27323014 0.26341313 -0.22293535 -0.38050646 0.3998624
-0.32797867 0.05134052 0.229262 0.33008385 -0.31097588 -0.19049925 -0.11571565 0.3990212
0.16965568 0.19796216 -0.016319394 0.121830344 -0.3698285 0.011538893 0.34148473 -0.35659522
-0.39886415 -0.017494082 -0.16486703 -0.165452

layer2.bias f4 [6]
00000000: ca10 08be e098 4c3e 80a8 05be 2e42 11be
00000010: 8027 d83c 6cb0 983d
-0.13287655 0.19980192 -0.13052559 -0.14185402 0.026386023 0.07455525

layer3.weight f4 [6, 6]
00000000: 7fb4 64be 8643 09be 5eea aabe 5c42 013e
00000010: aa7e ba3e 9881 db3d 3822 dc3d 00e0 3cbd
00000020: f876 483e 9815 d93d 14af 9ebd 60f5 9b3e
00000030: 00a1 8fbb ea24 853e b02a ecbd d5e8 36be
00000040: a04d 313e b8ab 883e 48ce 8c3d 0cc1 f7bd
00000050: 7016 3c3e f2c6 81be 60eb 9f3c dc97 393e
00000060: 4c25 0fbe b866 6c3d 4afe 9b3e 9e99 c9be
00000070: ea49 c5be 2edf 4abe 84f7 f3bd d0b5 77bd
00000080: 98c7 653e 8043 2d3d e8f4 aa3d cc99 a93e
-0.22334479 -0.13404664 -0.33381933 0.1262297 0.36424762 0.107180774 0.10748714 -0.04611206
0.19576633 0.10599822 -0.07748237 0.30460644 -0.0043832064 0.26004726 -0.115315795 -0.17862256
0.17314768 0.2669351 0.068752825 -0.12097368 0.18367934 -0.25347096 0.019521415 0.18124336
-0.13979071 0.057715148 0.30467445 -0.39375013 -0.38532954 -0.19811699 -0.11912444 -0.060476124
0.2243942 0.0423007 0.083474934 0.3312515

layer3.bias f4 [6]
00000000: b70d 44be 6093 17bc a801 babe 048a b83d
00000010: eab5 a2be 188d 3b3e
-0.19145857 -0.0092514455 -0.3632939 0.090106994 -0.31779414 0.18315542

layer4.weight f4 [1, 6]
00000000: 09f6 9a3e 7b04 0140 a5ad 88be 0797 18be
00000010: 8c3c 91bf 9528 a9be
0.30265835 2.0158985 -0.2669498 -0.14901362 -1.1346602 -0.33038774
