ModelSave0.pt (torch_old, 30741 bytes, 45 tensors)

lstm.weight_ih_l0 f4 [32, 6]
00000000: 1ecb 8e3f 74e9 6e3e f199 5bbf a0a2 193e
00000010: b152 e93f 6c7a 1cc0 9994 163f 6065 d4bf
00000020: 4f95 a53e 7f07 9e3f 8c83 a1bf c8c3 0bbf
00000030: f0b3 81bf 2fcd 27be 9c96 623f 8b4d 1d3f
00000040: 6992 a2bf eac5 ea3f c0a0 b1be cec1 253d
00000050: 9d6c ae3f 31bd bf3c 1980 e0bf 42b1 e23f
00000060: 1aff 893d 9e31 36be b0a5 6abf c55f 6ebe
00000070: 0c9f c33e 2a5c f83e 0c9a 0fbf 9003 e33e
00000080: 439c 88be f1c9 15bf 88ed 21bf d1b2 113e
00000090: 17fc 56bf 09e1 183e 0ba3 0640 29e9 fd3d
000000a0: 2c93 0f3f 397d 1b40 1f57 0f3d a736 43be
000000b0: cb31 24bf ec03 3dbf b8b9 0f40 af83 34c0
000000c0: 0aef 4c3e 80fb b6bd 10da abbe c0ff e8bd
000000d0: 5002 75bd 389a d53d 101b a03c 2ced db3d
000000e0: a90c ae3e 5e13 5d3e 170f b0be 72b9 043e
000000f0: c244 89be ecf0 8fbd 888c 76bd d9fd 83be
00000100: 99c2 3bbe 571a 48be 7621 023e 0016 7a3c
00000110: c429 f0bd 4061 833c d975 a13e 5c40 9bbe
00000120: f1d2 ae3e 7add 6d3e 3ada acbe d602 62be
00000130: e619 513e 226f 013e 80f6 3a3c 301a 90bc
00000140: ae60 1e3e 2c5b 123e c27b 5c3e a06b 303c
00000150: 350d 913e 69c7 8fbe b982 953e 7387 8f3e
00000160: 90dd b33c b12c b3be 581a 6fbd adae 9b3e
00000170: 5a08 f4bd 2d30 38be c1fe acbe 2830 64be
00000180: 9a53 dcbe c320 28be 319a 853f bfa4 223e
00000190: 7f0e b0bf 22cb d93f a96f 03bf 8087 74bf
000001a0: 0cd0 633f b8b9 5ebe 406f 5740 8447 2a3f
000001b0: ba27 4abe 51dd 063f 2ff2 dbbf d101 14bf
000001c0: 99a7 4c3e 4077 e83f 6c62 8bbd a019 aabe
000001d0: 104e 0c40 e98c ae3f a7ac b33f 538c 22be
000001e0: c08d cfbe 4799 73bf 2112 0f3f bc2a 973e
000001f0: 0b06 f1be c924 0bbf 5e85 09bf 0126 12bf
00000200: 0287 bbbe 6015 c3be d491 0ebe 3257 043e
00000210: 909d 333e 424f d2be f29e 9a3f 73b1 4d3f
00000220: bd08 89bf 7d2d e4bf 11a2 463e 6712 123f
00000230: dc77 e6bf 2d9f 20bf 281a 613f 291e acbf
00000240: 3752 4a3f d36e 983e 81ee 55bf 3136 75be
00000250: bde5 1140 3e04 27c0 ebde 9fbd af9f 04c0
00000260: 9839 673f ccef 633f 94f1 b4bf 199d 4a3f
00000270: b3ff 1ebf 74c0 debc ac6f 3f3f f58a 113e
00000280: 9f88 ad3f 5d55 0140 7e69 b3be 3a1a 8b3c
00000290: 01c8 aa3f 58f5 f3be 3689 e0bf f333 b43f
000002a0: 01fd 7dbd 9c75 02be d98a b0bf a8d0 ebbe
000002b0: 76c4 3b3f 2cbe 553f cb5b fcbe d70b a4bd
000002c0: 497d 01bf 7f6c 3abf 281a 13bf 1d46 6c3e
000002d0: 8f82 c6be 3472 343e f231 b33f b251 edbd
000002e0: 03d2 d73f 3ae7 de3f a423 d33e 84bd 0f3e
000002f0: c1bf 89bf 2060 a1be 2367 2340 f9ce 28c0
1.1155736 0.23331243 -0.8578177 0.15003443 1.822836 -2.444972 0.5882049 -1.6593437
0.32340476 1.2346038 -1.261827 -0.54595613 -1.0133038 -0.16386865 0.8851106 0.61446446
-1.2700931 1.8341649 -0.34692955 0.04046803 1.3626896 0.023405643 -1.7539092 1.7710345
0.0673811 -0.17792365 -0.9165907 -0.2327872 0.3820728 0.48507816 -0.5609443 0.44338655
-0.26681718 -0.58511263 -0.6325307 0.1422837 -0.8397841 0.14929594 2.1037014 0.123979874
0.5608394 2.429518 0.034995195 -0.19063817 -0.6413848 -0.7383411 2.2457104 -2.8205373
0.20013061 -0.089346886 -0.33564806 -0.113769054 -0.05981666 0.104298055 0.019544154 0.10738596
0.33994034 0.21589419 -0.34386513 0.12961367 -0.2681027 -0.07028374 -0.060192615 -0.25779608
-0.18335952 -0.19541298 0.12708077 0.015264034 -0.11726716 0.016037583 0.31535223 -0.3032254
0.3414531 0.23229018 -0.33760244 -0.22071394 0.20420036 0.1264005 0.011411309 -0.017590612
0.15466568 0.14292592 0.21531585 0.010767847 0.2833039 -0.28081825 0.29201296 0.28033027
0.021956235 -0.34995034 -0.058374733 0.30406705 -0.119156554 -0.17987128 -0.33788112 -0.22283995
-0.43032533 -0.16418748 1.043768 0.15883158 -1.3754424 1.7015116 -0.51342255 -0.95519257
0.8898933 -0.21750534 3.3661652 0.66515374 -0.19741717 0.5268145 -1.7183284 -0.5781527
0.19985808 1.8161392 -0.06805882 -0.33222675 2.1922646 1.3636752 1.4037064 -0.15873842
-0.40537834 -0.9515576 0.5588704 0.2952479 -0.47074923 -0.54353005 -0.5371913 -0.5708924
-0.3662644 -0.38102245 -0.13922817 0.12923887 0.17540574 -0.41076094 1.2079756 0.8034889
-1.0705792 -1.7826382 0.19397761 0.5705933 -1.8005328 -0.6274288 0.87930536 -1.3446704
0.790317 0.29772052 -0.83567053 -0.23946454 2.279647 -2.609634 -0.0780619 -2.0722463
0.90322256 0.89037776 -1.4136224 0.7914596 -0.62108916 -0.027191378 0.7477977 0.14213164
1.3557318 2.0208352 -0.35041422 0.01698028 1.3342286 -0.4764812 -1.7541873 1.4078354
-0.06200886 -0.12740177 -1.3792373 -0.4605763 0.7334665 0.83493304 -0.49288782 -0.08010071
-0.50581795 -0.728218 -0.57461786 0.23073621 -0.38771483 0.1762169 1.3999617 -0.11587848
1.6860965 1.7414315 0.4123813 0.14037138 -1.0761644 -0.3151865 2.55317 -2.6376326

lstm.weight_hh_l0 f4 [32, 8]
00000000: dd53 9dbe eaa0 763e d1dc 803e 60ba a73c
00000010: 249a 32be 5e0c a3be a019 003d b2d2 293e
00000020: a4b1 9abe c890 5cbd 80a2 393b ecf4 8abd
00000030: 16f7 473e 5b5f b23e 3e58 46be e027 4abd
00000040: 40c8 be3b 8cfe 9bbe 20f6 c4bc bd24 24be
00000050: aed8 523e 709a cf3d 21c0 b1be c805 47be
00000060: a060 ab3c be98 6d3e 1383 ac3e c0d3 e03b
00000070: b639 3f3e 6923 28be f8ee 01bd dfa5 1cbe
00000080: a177 14be 0f22 893e f8d9 2cbe 2b2e 60be
00000090: 6ee1 4fbe 0c17 b2bd 12d3 33be 2fa3 a63e
000000a0: 2d6c 983e dec4 84be d923 73be b050 54bd
000000b0: 42bd 87be ec8c 86be 24ee 96be 0090 b73d
000000c0: 2b3e b13e 51fa 983e 80fa aa3b 208d b3bd
000000d0: 261e 393e 7633 7f3e b7b8 ac3e fe20 0b3e
000000e0: 88d9 43bd 9155 873e 2015 b83d 0896 203d
000000f0: f3b9 85be 5f35 9d3e 5c83 dcbd 8282 08be
00000100: 2683 8bbe 857a a33e fe4b 8ebe 8064 fc3c
00000110: 29a3 863e a27c 653e a030 5abd 6299 473e
00000120: 9d09 ae3e 44f1 5fbe 5017 b2be be81 273e
00000130: e980 a6be 7099 0bbd a6db 1a3e e282 5d3e
00000140: a08f 713c 788d c1bd f27b 6e3e 1379 06be
00000150: e674 1f3e 0ee4 19be f4be afbd 9fab a53e
00000160: 6050 77bc a9b4 91be 1178 7ebe 0dc8 b23e
00000170: d4e1 fd3d 20dd a1be 56ca 263e beec 3a3e
00000180: b710 b23e 924f 76be 582f 4d3d 23d0 813e
00000190: cca6 ea3d a888 93be ba58 5d3e 705c e73d
000001a0: b0c6 54be 61c1 943e d7f4 88be 5fc3 8dbe
000001b0: a0ca ac3c 3c62 a6bd dafe 3cbe 025b 363e
000001c0: 3cb6 35be 02db 0cbe 202a c3bc 70ee ea3d
000001d0: 170e 56be 338a a53e ecc3 b8bd 3837 09bd
000001e0: 04b5 0d3e 29e1 a43e cc00 043e b823 5dbd
000001f0: 444e d73d 29b5 80be 9492 0d3e b2dc 1f3e
00000200: 0671 dbbd ae6a 81be bad8 2b3e 2854 bbbd
00000210: f4c8 adbd 4432 973d a88c 83be a2cb 57be
00000220: 4e4e 553e 7564 9a3e 944c cd3d cc70 b33d
00000230: acd9 9dbe 7cc0 a83d 3af3 1a3e 9772 0cbe
00000240: 09e8 963e 7154 8e3e fcd4 6fbe e610 47be
00000250: 30c9 84be f1e3 943e bc84 c33d 0c3a c23d
00000260: ffe3 a43e ad02 04be e833 08bd e043 6ebd
00000270: 44b4 c73d 0978 99be a431 a8be e423 c13d
00000280: e30d 803e bd47 963e 609d 91be e217 fdbd
00000290: f472 9fbe 0035 4a3d f098 cabd f1a2 80be
000002a0: 6637 5d3e 80c8 08bb 3472 95bd 1892 70bd
000002b0: 18d2 47be 40a8 2f3c 0002 61bc 37dc b33e
000002c0: d4d8 c93d 2034 c33c 106d 913c b445 9abe
000002d0: 36f2 423e 8804 7d3d 47cb 8c3e c504 16be
000002e0: 692f b23e 001b c3bc 852e 8d3e 90f4 0abe
000002f0: 00da d63a 7f2e a2be 8b43 883e f607 82be
00000300: d27e 6e3e a6a2 6b3e 7507 8dbe daec 613e
00000310: 331c a9be a049 6c3d e242 213e d7c2 923e
00000320: ae19 163e ec30 9c3d 50ef e4bc 60ff 763d
00000330: 7aa3 503e c74d 813e 3c50 31be af87 07be
00000340: 6426 c9bd e42a fc3d 3453 ddbd a403 e73d
00000350: d590 8a3e 015c a43e 2016 b1bc cf28 893e
00000360: b2ed 9cbe 1dd8 8abe 2041 83bc 4944 1dbe
00000370: a68e 363e f6ec 9fbe 004e 7c3a c46d 133e
00000380: e644 ebbd fe54 303e 382e 833d e85a 86bd
00000390: a68c 1d3e 6c19 11be 6576 4abe 7431 a53d
000003a0: 54ac 83bd c681 a0be 2613 6a3e 9711 93be
000003b0: c827 2a3d f09a fabc 16b5 1f3e b44e cc3d
000003c0: 7c7d 903d 38d9 373d da77 1c3e 2c1a c8bd
000003d0: c8a1 f2bd 7ac5 053e 0688 5ebe a05e 6fbe
000003e0: f673 373e f537 97be 1586 68be 40a2 c73b
000003f0: c016 2cbd f845 2dbd c2ae 643e bd93 55be
-0.30728045 0.24084821 0.2516847 0.020474613 -0.17441612 -0.31845373 0.031274438 0.1658428
-0.30213654 -0.05384901 0.0028325617 -0.067849964 0.1952785 0.34838375 -0.19369599 -0.049354434
0.0058222115 -0.3046764 -0.024043143 -0.1602964 0.20590469 0.101368785 -0.34716895 -0.19435799
0.020920098 0.23202798 0.33693752 0.00686118 0.18674359 -0.16419758 -0.03172204 -0.1529765
-0.1449876 0.26783797 -0.16880023 -0.21892612 -0.20300838 -0.08695802 -0.17560986 0.32546374
0.29770032 -0.25931448 -0.23744144 -0.051834762 -0.2651158 -0.2627939 -0.29478562 0.08963013
0.34617743 0.29878476 0.00521785 -0.08767152 0.18077907 0.24921975 0.33734676 0.13586804
-0.047814876 0.2643247 0.08988404 0.03920558 -0.2611843 0.3070478 -0.10767242 -0.13331035
-0.27248496 0.31929412 -0.27792352 0.03080964 0.26296356 0.22410825 -0.05326903 0.19492105
0.3399171 -0.2186938 -0.3478341 0.16358086 -0.32520226 -0.034081876 0.15122852 0.21631959
0.0147437155 -0.09450811 0.23289469 -0.13132124 0.15571937 -0.15028402 -0.08581343 0.323575
-0.0150948465 -0.28458145 -0.24850489 0.34918252 0.12396589 -0.31614017 0.16288123 0.18254372
0.34778377 -0.24053791 0.05009398 0.25354108 0.11457595 -0.28815198 0.21615878 0.11296928
-0.20778918 0.29053786 -0.26749298 -0.2768812 0.021092713 -0.081242055 -0.18456593 0.17808154
-0.17745298 -0.1375542 -0.023823798 0.114712596 -0.20903812 0.32332 -0.09021744 -0.033499926
0.13838583 0.32203034 0.12890929 -0.053989142 0.10512975 -0.25138214 0.13825446 0.15611532
-0.10714917 -0.25276703 0.16781893 -0.09146911 -0.084855944 0.07382634 -0.2569325 -0.21073774
0.20830652 0.30154768 0.10024372 0.08761749 -0.30830133 0.082398385 0.15131846 -0.13715588
0.29473904 0.277988 -0.23421091 -0.1944004 -0.25934744 0.29080155 0.095468014 0.09483728
0.32205197 -0.12891646 -0.033252627 -0.0581702 0.0975118 -0.29974392 -0.32850373 0.09430674
0.25010595 0.29351607 -0.2844038 -0.12358071 -0.3114239 0.04936695 -0.09892452 -0.25124314
0.21603164 -0.002087146 -0.07297173 -0.058733076 -0.19513738 0.010721266 -0.013733387 0.35128948
0.0985581 0.023828566 0.0177522 -0.30131304 0.19037709 0.0617719 0.27498838 -0.14650257
0.34801796 -0.023816586 0.27574554 -0.13569856 0.0016391873 -0.316761 0.2661403 -0.253967
0.23290566 0.23011264 -0.27544752 0.22063008 -0.33029327 0.0576874 0.1574817 0.28664276
0.14658234 0.076265186 -0.027946144 0.06030214 0.20374861 0.25254652 -0.17315763 -0.13235353
-0.098217756 0.12312868 -0.10806885 0.11279991 0.27063623 0.32101443 -0.021616995 0.26788947
-0.30650097 -0.27118006 -0.016022265 -0.1535808 0.17827854 -0.31235474 0.000962466 0.14397341
-0.11487751 0.17219922 0.064053 -0.06560308 0.15385684 -0.14169854 -0.19771726 0.08066073
-0.06429353 -0.3134901 0.22858867 -0.28724357 0.041541845 -0.030591458 0.15596423 0.09975949
0.07055184 0.04488489 0.15280095 -0.09770617 -0.118472636 0.13063613 -0.21731576 -0.2337594
0.1791533 -0.2953488 -0.22707398 0.0060923398 -0.042013884 -0.042303056 0.2233229 -0.20857139

lstm.bias_ih_l0 f4 [32]
00000000: ef2f f73e dc8e df3e 4d8f 2f3f 14d3 3f3f
00000010: 8cbf 8cbe 35be 9cbf e28e eebe 9a87 993f
00000020: 6d5e a63e ae71 643e 9b72 a63e 8527 913e
00000030: 0052 72bb cca5 56be 9f6b 05be 088a 0b3e
00000040: c72e 7dbf 82ae b8bd 2026 4b3e eaf2 69be
00000050: c042 1f3e f259 0abe 1125 103f 0534 ab3c
00000060: bdb6 223e ba65 46bc 740b 343f 2a68 7f3e
00000070: d0d2 0cbf 7ecf adbf 5f8d 413d 78e8 933f
0.48278758 0.4366368 0.68578035 0.74931455 -0.2748989 -1.2245547 -0.46593386 1.1994507
0.32493916 0.2230899 0.32509312 0.28350464 -0.0036975145 -0.20961684 -0.13029335 0.13626873
-0.988995 -0.0901766 0.19838762 -0.2284657 0.15552807 -0.13510874 0.5630656 0.020898828
0.15890022 -0.012109214 0.70329976 0.24942079 -0.55009174 -1.3578947 0.047253963 1.1555319

lstm.bias_hh_l0 f4 [32]
00000000: b620 b43e 8af4 d03e 6518 a83e 9b64 253f
00000010: 7c39 6ebf 8d4c a3bf c648 abbe fafd 7d3f
00000020: 1403 103e 20ce 623c 50bc 52be f0c4 64bd
00000030: b155 59be ac1a 113e de33 77be 9646 59be
00000040: 96c1 61bf 851a 1e3e 6f54 37be 6ccd 33bf
00000050: 5642 c3be 77fa e63d 1bf3 703e a622 c53e
00000060: d481 d53e 6f77 0f3e bddf 143f 9691 3d3f
00000070: 7f0a cebe 8622 98bf 8c8f 7dbe ee15 573f
0.35181206 0.40811568 0.32831112 0.64606637 -0.93056464 -1.2757736 -0.3345396 0.9921566
0.14063674 0.013843089 -0.20579648 -0.055851877 -0.21224095 0.14170331 -0.2414088 -0.21218333
-0.88186014 0.15439804 -0.17903303 -0.70235324 -0.38136548 0.11278241 0.23530237 0.38502997
0.41700613 0.14010404 0.581539 0.7405027 -0.40242383 -1.1885536 -0.2476179 0.8401784

lstm.weight_ih_l1 f4 [32, 8]
00000000: a050 ea3e 73d4 103e db64 2fbf d0df 3c3e
00000010: 7b44 963e b5c0 113f 797a 223f 980b 5dbf
00000020: a2f8 043f f447 c9be dee9 833f e824 c3bf
00000030: 425e 61bd d447 373f 9046 0ebf 88fe f13e
00000040: 64f3 a63d cc79 02bf 6323 c83e 19b1 6dbf
00000050: ef0f c2bb f0a7 003f 6eff 193c 9fb9 043f
00000060: 590a 603f 4ded 85bf 6f07 043f e8d2 90bf
00000070: 56e7 ce3e da34 81be 13f7 f9bc c1d4 11be
00000080: 2b20 6f3f 28a3 b03e 7dcf b9be 947b ccbc
00000090: 91fb 253e f64f bb3e 3480 503f a9f2 03bf
000000a0: 0cfb 93bf fd92 dc3f 4803 11bf 4092 f63f
000000b0: 8aa4 2ebf a2f6 36be d818 9c3f 5b53 613f
000000c0: 7642 943f 335a d73f 3fe2 46bf ae0f 3b3b
000000d0: d036 26bf 290a ba3f d3a4 ab3f 9a00 83bf
000000e0: b80a 10c0 b9f5 503f 9fa1 de3e 9ef9 c33e
000000f0: 6e0a 87bf 3b16 903e 8595 0dbf 6394 d23f
00000100: b1cc 833e 2e74 79be 843d 6ebe 5589 8b3e
00000110: 07db 8d3e eaa7 7e3e 30ce e2bc 38bb 46bd
00000120: 186d 443d d12c 903e 7097 a6bc bc57 fa3d
00000130: f0cd 173d 3a66 4a3e 80f1 b03d fc9a 8bbd
00000140: 2aa9 b1be af20 9f3e 92db 4f3e 03ac 843e
00000150: 089e 023e e104 16be 4d66 00be 3f6c 69be
00000160: f5c5 a23e 5013 063d 5b02 aa3e f0a3 dcbc
00000170: fcef 8d3d 0cae ae3d 00e6 b7bb 251c 8a3e
00000180: dfb6 9b3e fe6e 3d3e acd7 c43d 5444 36be
00000190: 9b66 a53e 2578 b13e 00f5 f13a e0a6 bcbc
000001a0: b698 09be 4707 9a3e ccc2 fe3d de0b 8ebe
000001b0: 2b06 28be 195e 9d3e 26e6 40be 2041 00bc
000001c0: c0aa 78bc 80c6 443d cd45 9a3e aef6 613e
000001d0: 80b0 b3be 3ca0 ab3d 938a a33e 4344 a53e
000001e0: 5d16 a1be b665 3ebe faf5 173e 4002 64bc
000001f0: fc94 73be 6e60 6b3e ea30 0b3e 0202 313e
00000200: 1020 1e3f 2921 bc3f 37b7 f3be 56c5 613e
00000210: 8a99 313e 5cb5 a13f a2ab 8c3e f0e8 20bf
00000220: 3266 99bf 66a1 23bf 4b08 4b3f 4094 94bf
00000230: 3981 e93c 91bf 5abf 9d98 4dbf b992 fd3f
00000240: 6e88 073e 568a c63d 3089 16bf db80 1a3f
00000250: 1c18 afbe 644b 2a3e 2fa0 1e3f ac96 2fbf
00000260: 7860 13bf 6d8e c2be d052 253e aa93 953f
00000270: 6a17 40bd 168c 11bf 0b45 2f3d 135f a13e
00000280: 57ab 7abf 0826 9cbe 718e 0c3f 9976 84bf
00000290: 6698 fcbb d6b6 96bf ba44 afbe a6ab aa3f
000002a0: ca8c dabf 9ed2 abbf 1289 933f c73f 98bf
000002b0: a67f 2fbe de38 18bf ec63 72bf 9f7e 1140
000002c0: 5921 ce3f 71b0 523f 768e a9bf c664 b83f
000002d0: fd16 9d3e 762a a93e cf90 493f 64e6 f8bf
000002e0: a6ef b03f 4c81 723f a903 64bf 7d4b 133f
000002f0: 80a8 82bd cfa4 363f 2dd1 673f 67bd 04c0
00000300: 7478 103f 5f4d 9e3e 5f57 fdbd bf70 f03e
00000310: 01be 1cbe 4ad1 813f 3f2f 803e 0b47 78bf
00000320: 3de3 523e 13e5 d0be 8ab9 393f 5165 fbbf
00000330: d79a 8f3d e6f3 b73e ed07 e7be cd31 f43e
00000340: 98bd 323f bb36 42bf 01b3 e83e 0da7 38bf
00000350: f8df e03e 8652 983f fbe2 b2be ed45 933e
00000360: f611 313f 8bf0 d4be ec60 49bd deeb 89bf
00000370: efe9 f63e b5d7 a6be 659d d6be 83fc 3e3f
00000380: 76aa d03f 24bc a73e c347 31be 0ba2 12bf
00000390: 46a2 fabd 245c 4a3f 8b8b 113f 5b0a 3abf
000003a0: 3067 bebf 0e45 c43f 5aca a0be c221 c33f
000003b0: 58dd 09bf 8ebd fe3e 44b2 913f 70c3 463f
000003c0: 1646 b23f d75d fa3f 9b18 f3be ae8c 04bf
000003d0: f4c6 0fbe dd28 be3f 1196 a83f 01dd bfbf
000003e0: 556a 0ec0 ac5c f13e 3ccf 273f 3f2e 9f3e
000003f0: 712d 00bf 1c68 8c3e de52 7ebf 7b33 f83f
0.45764637 0.14143543 -0.6851327 0.18444753 0.2934912 0.5693467 0.6346813 -0.86345816
0.51941884 -0.39312708 1.0305746 -1.5245638 -0.055021532 0.71593976 -0.5557642 0.47264504
0.08151892 -0.509671 0.39089498 -0.92848355 -0.0059223096 0.5025625 0.009399278 0.51845735
0.8751579 -1.0463043 0.5157384 -1.1314363 0.4041087 -0.25235635 -0.030513322 -0.14241315
0.9340846 0.34499478 -0.36291113 -0.02496127 0.16209246 0.36584443 0.8144562 -0.51542145
-1.1560988 1.7232357 -0.5664563 1.9263382 -0.68219817 -0.1786752 1.2195082 0.88017815
1.1582782 1.6824402 -0.77688974 0.0028543281 -0.6492739 1.4534351 1.3409675 -1.0234559
-2.2506542 0.81624943 0.43482682 0.3827638 -1.0550058 0.2814196 -0.55306274 1.6451534
0.25742105 -0.24360725 -0.23265654 0.27253214 0.27706167 0.24868742 -0.027686208 -0.04851839
0.047955602 0.28159192 -0.020335883 0.12223765 0.03706163 0.19765559 0.086398125 -0.0681667
-0.34699374 0.31079623 0.20298603 0.25912485 0.12755597 -0.14650299 -0.12539025 -0.22795199
0.31791654 0.03273326 0.33204922 -0.02693364 0.06930539 0.085292906 -0.005612135 0.26974598
0.30412957 0.18499371 0.09611449 -0.17799503 0.32304844 0.34661976 0.0018459857 -0.023028791
-0.13437161 0.30083677 0.12439498 -0.2774343 -0.16408603 0.30735853 -0.18837795 -0.007828027
-0.015177429 0.048040867 0.3013138 0.22066757 -0.35095596 0.08380172 0.3194166 0.32278642
-0.31462374 -0.18593487 0.14839926 -0.013916552 -0.23787302 0.22986004 0.13592878 0.17285922
0.61767673 1.469762 -0.4760072 0.22047934 0.17343727 1.2633471 0.27474695 -0.62855434
-1.1984313 -0.6391815 0.7930953 -1.1607742 0.028504001 -0.8544856 -0.80310994 1.9810401
0.13235638 0.09694354 -0.5880308 0.6035287 -0.34198081 0.16630322 0.6196317 -0.6858928
-0.57569075 -0.37999287 0.16144872 1.1685688 -0.04689733 -0.5685438 0.042790454 0.31517848
-0.97917694 -0.30497766 0.5490485 -1.0348693 -0.007708597 -1.1774547 -0.34232122 1.3333633
-1.7074215 -1.342365 1.1526206 -1.1894463 -0.17138538 -0.5946177 -0.9468372 2.2733533
1.6103927 0.8230048 -1.3246601 1.4405754 0.306816 0.33040208 0.78736585 -1.944531
1.3823135 0.9472854 -0.89068085 0.5753706 -0.06379795 0.7134523 0.9055355 -2.0740602
0.56433797 0.30918404 -0.1237018 0.46961018 -0.15306856 1.0141995 0.25036046 -0.969834
0.20594497 -0.4079977 0.72548735 -1.9640294 0.07011955 0.35928267 -0.45123234 0.47694245
0.6982055 -0.7586476 0.4544907 -0.721299 0.43920875 1.1900184 -0.34938797 0.28764287
0.6916803 -0.4158977 -0.049164698 -1.0775106 0.48225352 -0.32586446 -0.41916957 0.7460405
1.630202 0.32760727 -0.17312531 -0.5727851 -0.122379825 0.79046845 0.5685355 -0.7267205
-1.487524 1.5333574 -0.31404382 1.5244677 -0.5385337 0.49753994 1.1382527 0.77641964
1.3927639 1.9559888 -0.4747971 -0.5177716 -0.14040738 1.485622 1.3170797 -1.498932
-2.22524 0.47141016 0.6555059 0.3108997 -0.5006934 0.2742318 -0.99345195 1.939071

lstm.weight_hh_l1 f4 [32, 8]
00000000: cc03 c73d 4c42 123e 3061 e73c f1e7 8cbe
00000010: 757b a1be 5608 463e ee2a 7d3e 109f 103e
00000020: d2e4 ebbd cd8a 16be df07 9a3e ee3f e3bd
00000030: 247c c53d e557 8c3e fea9 473e 9689 323e
00000040: e7cb b33e 5029 673d d693 243e 7930 96be
00000050: 7486 36be 3018 34bd be66 733e beb8 8cbe
00000060: c674 81be faf0 3f3e 3333 803e b6f2 6ebe
00000070: 1845 663d 408e 003d 00df a3be d358 1bbe
00000080: aeec a0be dece 233e 93ad 92be b2f8 533e
00000090: 36fb 83be e6bf 4dbe 6920 b1be ff2f 15be
000000a0: 400a e8bc c0c7 f6bc bb44 833e 1c92 04be
000000b0: 634c 93be 770f 59be 60ae 6d3c 98d6 02bd
000000c0: 809e 813c 58bb e7bd a81d 6d3d 249d d83d
000000d0: 4e72 373e 12fd 203e c53a b43e 40b7 8d3b
000000e0: af8f 98be d5b3 9c3e 009d ce3a dfdf 5cbe
000000f0: 6bbe 10be 9c8e b3bd 36ba 7fbe 13ad 803e
00000100: 7005 a6bc 4eed 313e 866b 5d3e bd59 ac3e
00000110: 2a5e 233e 6a0a 093e 51dd 17be a8a3 6fbd
00000120: 60b2 b7bc 1491 a3bd 4031 8cbe 28a9 703d
00000130: 1309 81be e213 a1be 54cc 01be 9417 cebd
00000140: c0e8 7d3d fa99 523e d8fe 7a3d 764c 463e
00000150: 9c04 6fbe 1e9d 4c3e f7ef 84be c80b b7bd
00000160: d937 18be 3142 973e a847 36bd 14c2 9ebe
00000170: f82f adbd ac61 f43d a828 4cbd 1023 ecbc
00000180: d316 923e e313 4cbe 38de a13d 8016 4b3d
00000190: 3919 aa3e 2066 6b3c 6099 713c f211 253e
000001a0: 4014 bb3b de0a 90be d36a 95be a021 253c
000001b0: 424c 6b3e 3d08 4dbe 880f 2fbd c076 4f3d
000001c0: c6dc 43be 1c94 bbbd 54f0 cbbd 5312 973e
000001d0: 52b2 14be 8258 353e 243e a2bd 6f48 813e
000001e0: 0047 f1bc b288 423e aede 7fbe 40de e03d
000001f0: 4da3 a33e 3b9f 59be dd30 8a3e 049c 8bbe
00000200: 1419 e53d dd08 9e3e 905b 4a3d 381c b5bd
00000210: c801 343d 8601 053e 9e3a a0be bed9 97be
00000220: b92a afbe 44ff 003e 801e 6c3d 75bd b1be
00000230: 4aab 77be 9acc 49be 940c 77be 26ec 9ebe
00000240: 0f3d 9a3e 5425 b1bd 4ecf ffbd d6b0 84be
00000250: 90fe 8dbd d2d7 033e 1ece 633e 8e6d 7a3e
00000260: 2bf7 9c3e 0e54 1f3e 7002 a7bd 6071 80bc
00000270: bebb 633e fb8b 813e 16bf 67be 59d2 ab3e
00000280: 9224 063e e6e3 4d3e 825b 223e 006e cb3b
00000290: b43b bd3d 176c a53e 28b7 9dbd 21ae 893e
000002a0: 28f3 09be 402e 9dbc 2a14 76be 41f9 953e
000002b0: cfe3 8dbe 8f2d 90be 5724 97be dc57 cebd
000002c0: 2f05 ac3e 2070 5abd 7e9d 7e3e bf66 a53e
000002d0: 9268 2bbe 1110 99be 8d38 30be 5c81 c43d
000002e0: 3c59 d53d 0275 743e d5fa 2fbe 9067 4b3d
000002f0: ff5f a0be 8813 35bd 7000 a93d 3f63 ad3e
00000300: 00c4 28bb f6a5 673e 7928 02be 7c67 85bd
00000310: ec56 103e 8dc0 81be 9876 483d 401a 9e3c
00000320: 667d 8bbe e082 663c 4fa3 0fbe 124d 443e
00000330: 6f7f a83e a1bd 8e3e 5049 fd3d b086 8cbe
00000340: 69ec 833e 7c67 afbd 9fae 31be 2429 ba3d
00000350: 40c7 83be db44 813e 5ebd 7c3e 747f e13d
00000360: e06f 753c 955f a93e d18b aebe e2a9 95be
00000370: 795b 7ebe b47f 83be 9628 6e3e a0c2 273d
00000380: 3e56 783e 80d0 2f3d 24a0 da3d 10b0 60be
00000390: e888 73be 1ba1 a3be e2f6 453e 404d ac3c
000003a0: 90b4 60be 06c2 4e3e f2f4 283e f6fb 1b3e
000003b0: ec92 aebe 448a 8abe 1a71 40be 709e 93be
000003c0: 8ff3 0abe 54b9 f93d 2676 febd 50bd bbbd
000003d0: 520c e5bd 8a77 333e 490f a43e a40c 093e
000003e0: cca9 78be 50c6 a8be 28a1 a93d b309 2fbe
000003f0: 9b2a 3fbe 2094 a5bc f04a 963d 7a12 5cbe
0.09717521 0.14283103 0.028244585 -0.27520707 -0.31539503 0.19339117 0.24723408 0.14123178
-0.115182534 -0.14701386 0.3008413 -0.11096178 0.096428186 0.27410808 0.1949844 0.17435297
0.35116503 0.056435883 0.1607202 -0.29333857 -0.17824727 -0.04396838 0.23769662 -0.27484697
-0.25284404 0.18744269 0.25039062 -0.23334774 0.056218237 0.03138566 -0.32006073 -0.15170603
-0.31430572 0.15996882 -0.28648052 0.20700338 -0.25777596 -0.20092735 -0.3459504 -0.1456909
-0.0283252 -0.030124545 0.25638375 -0.12946361 -0.28769216 -0.21197306 0.014506906 -0.031942934
0.015822649 -0.1131503 0.05788961 0.10576847 0.17914698 0.15721539 0.35201088 0.0043248236
-0.29797122 0.3060595 0.0015763342 -0.21569775 -0.14135139 -0.08767435 -0.24973378 0.25132045
-0.020266265 0.17375681 0.21623048 0.33662215 0.1595389 0.13382879 -0.1483052 -0.058505684
-0.022423923 -0.07986656 -0.27381325 0.05875507 -0.25202236 -0.31460482 -0.12675601 -0.10063091
0.061989546 0.2056655 0.061278194 0.19365105 -0.23341602 0.1998181 -0.2596433 -0.08937794
-0.14865054 0.29542688 -0.04450193 -0.31007445 -0.08456415 0.11932692 -0.04984346 -0.028825313
0.28533038 -0.19929461 0.07903713 0.049582005 0.33222368 0.01436761 0.01474604 0.16120127
0.005709201 -0.2813329 -0.29183063 0.010078818 0.22978309 -0.20022674 -0.04273942 0.05065036
-0.19127187 -0.09159109 -0.09957948 0.29506168 -0.14521149 0.17709544 -0.07922009 0.25250575
-0.0294528 0.18997458 -0.2498729 0.10979891 0.31960526 -0.21252148 0.26990405 -0.27267468
0.11186424 0.30866137 0.049403727 -0.08843273 0.04394701 0.12988862 -0.3129472 -0.29658312
-0.34212282 0.12597376 0.057646275 -0.34714857 -0.24186435 -0.19706956 -0.24125892 -0.31039542
0.3012471 -0.08649698 -0.12490712 -0.25916165 -0.069333196 0.12875298 0.22246596 0.24455854
0.30657324 0.15559408 -0.08154762 -0.015679061 0.22239587 0.2530211 -0.22631487 0.3355892
0.13099888 0.20106468 0.1585522 0.0062081814 0.09239903 0.32309029 -0.0770095 0.26890662
-0.13471663 -0.019187093 -0.2403113 0.29291728 -0.27712867 -0.28159758 -0.29519913 -0.100753516
0.33597705 -0.053329587 0.24864766 0.32304952 -0.16739109 -0.2989507 -0.17209072 0.09594986
0.10417411 0.2387276 -0.17185529 0.04965931 -0.3132324 -0.04420808 0.082520366 0.3386478
-0.002575159 0.22621903 -0.12710752 -0.06513879 0.14095658 -0.25342217 0.048941225 0.019299626
-0.2724411 0.014069289 -0.14027141 0.19170025 0.32909724 0.2787905 0.12367499 -0.27446508
0.25766304 -0.0856466 -0.17351769 0.09089878 -0.25737953 0.25247845 0.24681613 0.11010638
0.014980286 0.33080736 -0.34091046 -0.29231173 -0.24839582 -0.25683367 0.2325767 0.040957093
0.24251649 0.04292345 0.10675076 -0.21942163 -0.23782694 -0.3195885 0.1933246 0.02103293
-0.21943879 0.20191202 0.16499689 0.15232834 -0.34096467 -0.27058613 -0.18793145 -0.28831816
-0.13569473 0.12193552 -0.12424879 -0.09166968 -0.111839905 0.1752607 0.32042912 0.13383728
-0.24283522 -0.329638 0.08282691 -0.17093544 -0.18668596 -0.020212233 0.07338512 -0.21491423

lstm.bias_ih_l1 f4 [32]
00000000: 4de9 05bf 939e b53d 95f1 78bf e471 06bf
00000010: 09d0 22bf f32b 2340 d81f 783f 7cc0 833f
00000020: d8af 7bbd 2055 463d f249 6e3e 0859 73bd
00000030: b80f 8dbd 98fa 633d afac 953e c816 72bd
00000040: 41e8 02be 41fc f13e dd7d 1bbe 6194 883c
00000050: 9d47 f83e 6cf9 393f aeb4 3bbf 5c67 1ebf
00000060: 1210 7cbe 9dd0 893e 2a09 3cbf c87e d5be
00000070: 9fb7 16bf 032c 2940 eaea 463f d046 903f
-0.52309114 0.08868136 -0.97243625 -0.52517533 -0.63598686 2.5495574 0.9692359 1.0293117
-0.061446995 0.048421025 0.23270395 -0.05941108 -0.06887764 0.055658907 0.2923331 -0.059103757
-0.1278391 0.47262767 -0.15184732 0.016672315 0.48492137 0.7264621 -0.7332257 -0.61876464
-0.24615505 0.26916972 -0.73451483 -0.4169829 -0.58873934 2.6433113 0.777022 1.127161

lstm.bias_hh_l1 f4 [32]
00000000: efe0 d3be 7b06 ac3e ba26 58bf 7c79 42bf
00000010: 3857 b2be 5337 3f40 e145 963f f147 983f
00000020: db9c a33e 8009 15bd 00d6 bfba bdbd 97be
00000030: 0435 9abe a84c 44bd 8fdf 85be 5ab3 083e
00000040: 1ddb 80be 38af 1c3f 219a 08be d7ff 0f3e
00000050: a50d 533d 2a37 f23e 7ce2 ddbe eb35 d8be
00000060: 2df0 3abc 1e1b ec3e c993 1ebf 64e0 98be
00000070: 6e59 2cbe 72bf 3a40 7bb6 a13f 86d7 873f
-0.41382548 0.33598694 -0.8443409 -0.7596662 -0.34832168 2.9877517 1.1740075 1.1896955
0.3195561 -0.036386013 -0.001463592 -0.29636946 -0.30118573 -0.047924668 -0.26147124 0.13349667
-0.2516717 0.6120486 -0.13340046 0.14062439 0.051526684 0.47307712 -0.43336856 -0.42228636
-0.011409801 0.4611444 -0.6194425 -0.29858696 -0.1683099 2.917935 1.2633814 1.0612648

lstm.weight_ih_l2 f4 [32, 8]
00000000: 0d39 c83f b726 1140 7438 723e 1921 73bf
00000010: 5eb8 96bf 2337 943e 5d8f fb3e bd9a 8abf
00000020: e7a0 c13f ed89 613f 757b aebe 975f 27bf
00000030: b9c3 eebf 4450 703f 5570 8c3e acd3 9bbf
00000040: 5d49 b43e 3965 86bf ada9 89bd c523 00be
00000050: a6bf f73b 0253 943f f4b0 96bd 3561 debe
00000060: 41e9 1640 ff46 2040 eb12 4abf e158 92bf
00000070: 97d0 ecbf 87f5 483f f58f ea3e d2df ecbf
00000080: c205 4c3e 370e c2be d197 eb3e 72da 43be
00000090: b2ca bebd 972c b13f fe10 94be 6580 89bf
000000a0: 8133 83be 48a1 2dbb a061 483d 22b7 a5bd
000000b0: e6af 793e bae0 1240 bf91 30bf bfeb 93bf
000000c0: 49ee 083f f622 91bd 0602 49bf 7460 22bf
000000d0: 0466 17bf 511c 0bc0 ded8 6b3f c84a a93e
000000e0: b7c7 0e3e 2c62 933e ea61 cd3e cf68 6fbc
000000f0: 628b fcbe 5844 2a40 2c46 74bf e4fe 7abf
00000100: e180 a73e 21c8 a5be a068 1c3d ead3 2b3e
00000110: 3afc 343e 402e e23d cac8 593e 35b9 893e
00000120: 9c81 b43d fb08 893e 5811 f83d 0995 82be
00000130: f082 51bd 4e17 9abe 8586 8b3e 6af1 3f3e
00000140: 82b1 67be b259 2c3e 8851 adbe a8af e53d
00000150: 008a 0c3e 1ab4 afbe c5fd 27be f85f a83d
00000160: 103f 9d3c 802d 64bc d09d 83bc e354 96be
00000170: bda2 833e 4bb5 5dbe 73eb 8f3e 0a80 b0be
00000180: 96e5 453e 520a 083e be78 473e 58f5 113d
00000190: 3e24 2b3e 1614 5bbe c0cd 02bc 8f13 3dbe
000001a0: 0031 26bc a891 abbe 7037 933c eb85 833e
000001b0: 4359 52be 8ec3 203e 6072 44bd b48b ef3d
000001c0: cdca 903e fdd1 a5be e94d 16be 40ab 16bd
000001d0: 6ebb a7be 97f1 903e 7a24 5c3e 3c6b f63d
000001e0: cc63 91bd e195 9b3e 5234 9ebe 96a1 1e3e
000001f0: bc13 cd3d 7b9e a63e 90ce f2bc 574b 9e3e
00000200: fdc0 adbd 0618 ea3e c43c a53e 1027 b23e
00000210: 8f98 bfbe 2591 4040 8588 a8bf ad7e a3bf
00000220: c4b1 0e3c ae09 c0be e1e4 0e3d 528a b8be
00000230: f8f9 88bd e45a 58c0 429a 9c3f 494f da3f
00000240: f409 d2be 90e2 0b3f 1b86 ddbd c7d4 183f
00000250: bc8e 4cbe 8e64 5dbf c087 993c c49c 433e
00000260: 582b 143c 3e0e 20bf 8bed d6bd c99c 13bd
00000270: b7c6 833d 8349 66c0 a4a4 aa3f 85dc c13f
00000280: 787a 09bf 8fde 79bd e180 f83d 0a27 c7be
00000290: ca2d 8cbd 1f46 4140 5b81 33bf 3b83 88bf
000002a0: c606 a4be 450a bb3c 60a2 713d ce73 a83e
000002b0: 5d5c bdbe f3d0 3c40 8874 78bf 41c2 b7bf
000002c0: 944b 86be c77a e43e 5465 363d d19e b33e
000002d0: f850 173d 5b49 6240 7346 8cbf 50d7 a8bf
000002e0: fe58 0f3f e855 e4bd ddbc 7c3e 3c23 59bd
000002f0: 13a0 c1bd f6c6 3dc0 ff44 a43f 1cd8 c63f
00000300: 2d14 d73f 92d5 1440 3a7f 0abe 87b3 29bf
00000310: 95bd 4fbf 037b ea3d d84f 353f 5b18 6bbf
00000320: 8f9b f63f 3101 703f 59af 98be 50ff 70bf
00000330: ef23 e8bf abd9 353f fd4b e93c fe8c 83bf
00000340: f3e1 49be 6e59 24bf 99f3 8cbe e50d 86be
00000350: d044 8e3e 3151 a23f 7c3f 11be 42a9 2abf
00000360: a352 1240 889d 2440 21ab 4cbf b1e9 a0bf
00000370: d04c e0bf 441f fd3e 45c9 993e 4d00 eabf
00000380: 8044 b13e eb89 2bbf 0549 a53e ffb2 a13c
00000390: 8562 1abe 0057 0340 a93e 89be 6bd5 3dbf
000003a0: b914 193e 4082 3dbe e88b 5c3e e2ba 16bf
000003b0: 0c8f 72bd 6fe1 1240 3508 58bf e172 a3bf
000003c0: 1487 4a3f 4e9a 013f b81d 23bf aa4b c7be
000003d0: 78c4 28bf 56fe 0ec0 1ce2 f13e 05bb 393f
000003e0: 65e8 563d d061 8a3e 8a0e b13b ffcf 17bf
000003f0: 748d 2bbe 7a01 3d40 dc7c 71bf f957 b1bf
1.564241 2.267988 0.23654348 -0.9497238 -1.1775014 0.28948316 0.49132815 -1.0828472
1.5127228 0.88101083 -0.34078565 -0.65380234 -1.865348 0.93872476 0.27429453 -1.2173972
0.35212222 -1.0499641 -0.06721816 -0.12513645 0.007560688 1.1587832 -0.0735797 -0.43433538
2.3579867 2.5043333 -0.78935117 -1.1433374 -1.8501157 0.78499645 0.45812955 -1.8505805
0.19924071 -0.3790147 0.46014264 -0.19126299 -0.09316005 1.3841733 -0.28919214 -1.0742308
-0.25625232 -0.0026493836 0.048921227 -0.080915704 0.24383506 2.2949662 -0.6897239 -1.1556319
0.53488594 -0.070867464 -0.7851871 -0.63428426 -0.5914004 -2.1736033 0.9212779 0.33064866
0.13943373 0.28785837 0.40113765 -0.014612391 -0.4932509 2.6604214 -0.95419574 -0.9804518
0.32715514 -0.3237925 0.038185716 0.16780058 0.17674342 0.11043978 0.21268001 0.26899114
0.088137835 0.26764664 0.12112683 -0.2550433 -0.051150262 -0.30095905 0.27251068 0.18744436
-0.22626308 0.16831091 -0.33851266 0.112151444 0.13724518 -0.34317094 -0.16405399 0.082214296
0.01919511 -0.013926864 -0.016066462 -0.29361638 0.25710097 -0.21651189 0.2810932 -0.34472686
0.19325861 0.13285187 0.19479653 0.03563437 0.16713044 -0.21394381 -0.007983625 -0.18464492
-0.010143518 -0.33509564 0.01797077 0.2568811 -0.20541863 0.15699598 -0.04796064 0.11696568
0.28279725 -0.3238677 -0.14678158 -0.03678441 -0.32760185 0.28309318 0.2149829 0.12032172
-0.07099113 0.30387786 -0.30899292 0.15491328 0.1001353 0.32542786 -0.029639512 0.30916855
-0.08484075 0.45721453 0.32272923 0.34795427 -0.3742108 3.008859 -1.3166662 -1.2773033
0.008709375 -0.37507385 0.034886245 -0.3604303 -0.06688303 -3.3805475 1.2234576 1.7055446
-0.4102322 0.5464258 -0.10816594 0.5969967 -0.19976324 -0.8648156 0.018741488 0.1910277
0.009043537 -0.6252173 -0.104945265 -0.036038194 0.06434386 -3.5982368 1.3331494 1.5145422
-0.537025 -0.061003264 0.12133957 -0.38896972 -0.06844671 3.0199049 -0.70119256 -1.0665048
-0.32036418 0.022832045 0.058992743 0.32900852 -0.3698453 2.9502532 -0.9705281 -1.4356157
-0.26229537 0.44624922 0.044530228 0.35082105 0.036942452 3.5357273 -1.0958999 -1.3190708
0.55995166 -0.11149198 0.2468142 -0.053012118 -0.0945436 -2.9652686 1.2833556 1.5534701
1.6803032 2.3255353 -0.13525096 -0.6628956 -0.81148654 0.11449244 0.70824957 -0.9183404
1.9266223 0.9375182 -0.2982128 -0.94139576 -1.8135966 0.7103526 0.028478617 -1.0277402
-0.19715099 -0.6419896 -0.275296 -0.26182476 0.27786875 1.2681028 -0.14184374 -0.66664517
2.2862937 2.572115 -0.7994862 -1.2571317 -1.7523441 0.49437916 0.3003637 -1.8281342
0.34622574 -0.6700732 0.32282272 0.019738672 -0.15076645 2.052185 -0.26805618 -0.74153775
0.14949311 -0.18506718 0.21537745 -0.5887891 -0.05921845 2.2950094 -0.8438752 -1.2769433
0.7911236 0.50626075 -0.6371722 -0.38924915 -0.6592479 -2.2342734 0.4724282 0.72550994
0.052467722 0.2702775 0.0054033445 -0.5930175 -0.16753179 2.9532151 -0.94331145 -1.3854972

lstm.weight_hh_l2 f4 [32, 8]
00000000: a821 343d a3d4 8a3e 0ea3 7b3e 381e 86be
00000010: 7df7 a63e 66b3 653e b253 7f3e 45ef 65be
00000020: 7e1e 01be fd7d 963e 51b9 8e3e e008 2c3d
00000030: af7a 853e 9981 823e 1495 94bd bac4 503e
00000040: bc77 28be 2723 81be a65e 49be 68c0 dabd
00000050: 7809 073d 68b3 40bd 4082 f53d 266b 763e
00000060: 402c 683c 80be dc3c fc0f c0bd c5f3 ac3e
00000070: 0038 293a f0b9 c33c c18a 94be 00ed 3abd
00000080: 9093 0dbd d846 57bd 9f7d 05be 92b3 383e
00000090: 3427 96be c77b b33e bc4a 8ebe 5aef 3f3e
000000a0: 0d4d 953e 7eb6 2f3e f229 4dbe b8ed 2b3d
000000b0: 93e4 9d3e a032 33bd 83bc 873e df12 22be
000000c0: 20ad b63c 2652 9bbe a671 b3be b65e 063e
000000d0: 7636 4f3e 448c 143e 69d4 8a3e 7a65 3b3e
000000e0: 879d 59be bef1 303e 4845 56bd 7255 97be
000000f0: a82a a73d 6a7c 413e d50a 99be d139 8c3e
00000100: 46c2 2e3e 0022 b53d 2887 cfbd 7129 8dbe
00000110: 86ce 283e 950e 46be ae1c 5d3e 8b70 a93e
00000120: ec8c bdbd 3b79 a3be 4253 3cbe e044 04bc
00000130: 9360 22be 219f 9abe c854 213d 22ae 463e
00000140: 00d4 acbc 3a04 023e 626e 9abe c34c 9e3e
00000150: 558f 8ebe ec5a ccbd d30a 8e3e d40b 9fbe
00000160: 8bbf 823e f444 153e aa03 9bbe 0d85 34be
00000170: 5af5 51be 8eef 6cbe 5c64 fc3d e012 98bd
00000180: fd53 aa3e ff92 0ebe 82fe 483e 785a c13d
00000190: aca8 e6bd ecdd a1bd 3edf 323e 5a38 553e
000001a0: 5e58 89be 1f84 8d3e e568 873e eb9b af3e
000001b0: b3be b03e 042f 34be 7f11 b03e 5854 b4bd
000001c0: bc9a a63d 8b86 843e 2082 c8bc c0d1 b7bd
000001d0: 2a3c 343e b1f8 a83e 9a19 063e 800b 3d3c
000001e0: b5c2 8a3e 2a66 523e 6dd6 7bbe 96cc 3a3e
000001f0: 9ebc 5f3e 6850 363d db3a a63e d119 12be
00000200: 74a7 76be 683f 8ebd 0af6 453e 0521 a5be
00000210: 600c 3bbc cfdf a2be 86f5 6c3e b8bd 8bbd
00000220: 08a5 0d3e 3b9f b4be 55ad 97be 2df4 abbe
00000230: 2dff 923e 5036 a9bd 22bd 99be 80bf 1d3b
00000240: b31b b2be 58e9 a0bd 34cb cb3d 0030 70bc
00000250: 8cbe b13d 4060 00bd 71d1 ab3e a0ab c33c
00000260: 1ac0 4ebe 009b 04bc e0b5 433d 38ae e23d
00000270: aeea 563e 909b 69bd ac1c a1be 565e ebbd
00000280: efea 7dbe 8001 943c d59a 8c3e 3c48 a2be
00000290: 7070 6fbd c86d dabd be5e 393e 40d4 963c
000002a0: aab5 683e 7071 b1bd 569f 3a3e 58fe aa3d
000002b0: 1669 4b3e be6e 703e 202d 00be ea3c 153e
000002c0: 124d 2e3e a0b5 7e3d df43 a23e d40e c13d
000002d0: cd0a a9be e212 663e 1ce8 ac3d 22c3 633e
000002e0: 46b1 8dbe 5acc 123e f15a 02be 32d1 283e
000002f0: 58a0 403d 6722 aebe 826b 75be 3a4e 0c3e
00000300: 4a9f 163e a6b1 783e 2c5b f9bd 8d89 8f3e
00000310: 665b b3be de30 aebe 8c5a 123e 1f41 8ebe
00000320: 78e5 16bd 68d8 353d c216 76be f474 953d
00000330: 31ac 8cbe 7afa f3bd 35cf 5abe 4010 98be
00000340: 41b5 863e 7b30 70be 87ef 933e f8f3 7d3d
00000350: 3b59 8d3e 907b df3c eece 61be 5df3 09be
00000360: 833d a43e 3ec8 95be 1a4b 2ebe c0b8 7dbe
00000370: 180c 363d 288c f83d 70c9 b5bd b7f9 51be
00000380: 4960 acbe 2513 a43e efe9 b43e 7c2a 93be
00000390: 1698 73be 0ec1 49be 497d a43e d43a 95bd
000003a0: 9b8d 9c3e bcb4 dabd 65a6 983e 101e 7cbd
000003b0: 8a23 483e 4e34 613e 2093 39bc 6803 ac3d
000003c0: 2b63 90be 5846 283d 001a e13d 2a74 65be
000003d0: 40c9 a5bc 9a8c a0be a4e5 ccbd eea7 603e
000003e0: 78b3 763d b020 21bd 9001 3c3d c8d0 42bd
000003f0: 0d49 9abe a12c b0be 287c 06bd 3353 a63e
0.04397741 0.27115354 0.24573919 -0.2619493 0.32610694 0.22431716 0.24934271 -0.22454555
-0.12609288 0.29392996 0.2787576 0.04200065 0.26070163 0.254895 -0.07254997 0.20387545
-0.16451925 -0.25222132 -0.19665012 -0.1068123 0.032968014 -0.047046095 0.11987734 0.24064311
0.014170706 0.026946306 -0.09378049 0.3377973 0.0006455183 0.023892373 -0.2901211 -0.045636177
-0.034564555 -0.052557796 -0.13036202 0.1803725 -0.29326785 0.35055372 -0.27791393 0.18743649
0.29160348 0.17159459 -0.20035532 0.041974753 0.3083845 -0.04374945 0.2651101 -0.15827511
0.02229935 -0.30336112 -0.35047644 0.13122067 0.20235619 0.14506632 0.2711518 0.18300429
-0.21251498 0.17279717 -0.052312165 -0.29557377 0.08162433 0.18895116 -0.29891077 0.2738786
0.17066297 0.088443756 -0.10133201 -0.2757068 0.16485032 -0.193415 0.21592972 0.33093676
-0.09255394 -0.3192843 -0.18391135 -0.008073062 -0.15857153 -0.3019953 0.039387494 0.19402364
-0.021097183 0.12696925 -0.3016234 0.3091794 -0.2784373 -0.099782795 0.27742633 -0.31063712
0.2553676 0.14577085 -0.30276233 -0.1762888 -0.2050375 -0.23138258 0.123238295 -0.07425475
0.33267203 -0.13923262 0.19628337 0.09441084 -0.1126264 -0.07903656 0.17467973 0.20822278
-0.2682523 0.27639863 0.26447216 0.34298643 0.34520492 -0.1759606 0.34388348 -0.0880515
0.08134982 0.25883898 -0.024476111 -0.089755535 0.17601076 0.33002236 0.13095704 0.011538386
0.27101675 0.20546785 -0.24593516 0.18242106 0.21849295 0.044510275 0.32466778 -0.1426766
-0.24087316 -0.069456875 0.19332138 -0.32251754 -0.011416525 -0.31811377 0.23140535 -0.06823295
0.13832486 -0.35277733 -0.2962443 -0.3358473 0.2871031 -0.082623124 -0.3002711 0.0024070442
-0.34786758 -0.07857007 0.09950867 -0.014659882 0.08678922 -0.03134179 0.3355823 0.023885548
-0.20190468 -0.0080935955 0.04778087 0.11068386 0.2098796 -0.05703312 -0.31467187 -0.114926025
-0.24796651 0.018067122 0.27461877 -0.31695735 -0.058456838 -0.1066547 0.18102548 0.018411756
0.2272555 -0.086642146 0.18224844 0.083492935 0.19864306 0.23479745 -0.12517214 0.14574018
0.17021587 0.06218493 0.31692407 0.09426656 -0.33016053 0.2246814 0.08442709 0.22242406
-0.2767431 0.14335766 -0.12730004 0.16486052 0.047027916 -0.34010622 -0.23966792 0.13701716
0.14709201 0.24286518 -0.12175593 0.2803463 -0.3503067 -0.34021658 0.14292353 -0.27784058
-0.036839932 0.044395834 -0.24032119 0.07297698 -0.27475122 -0.11913009 -0.21368106 -0.29699898
0.2631016 -0.23455994 0.28893682 0.062000245 0.2760714 0.027280599 -0.22051594 -0.13471742
0.3207818 -0.29254335 -0.17020836 -0.24777508 0.044445127 0.12136108 -0.08876312 -0.20505415
-0.3366721 0.32045856 0.35334727 -0.2874335 -0.23788485 -0.19702551 0.32126835 -0.07286611
0.30576786 -0.106790036 0.2981445 -0.061552107 0.19544807 0.21992609 -0.011326581 0.08399087
-0.2820066 0.04108271 0.10991287 -0.22407594 -0.020237565 -0.3135727 -0.10004738 0.2193906
0.06022975 -0.039337814 0.045899928 -0.04756239 -0.30133858 -0.3440905 -0.03283325 0.3248535

lstm.bias_ih_l2 f4 [32]
00000000: 49f5 9b3f 45af cb3f 93b3 793f bfa0 1d40
00000010: 7560 213f 5c5d 153f 6023 4f3f 3883 2e3f
00000020: ffae b23e b022 93be b8d7 80be d3eb 9e3e
00000030: 4118 b23e deb3 3ebe 1857 7cbd f88e c7bd
00000040: cdd2 aa3d c905 0cbf 7c7a 54bf edca 9fbe
00000050: 0078 e23e e41e 0d3f 6e48 c03e 8a26 0bbf
00000060: 52f7 a93f 53f2 ed3f f79a 2b3f 2099 3940
00000070: 7263 423f 0d28 053f b69b 913e c8d1 013f
1.218423 1.5912863 0.97539634 2.4629362 0.63037807 0.5834558 0.8091335 0.68168974
0.34899136 -0.28737402 -0.2516458 0.31039295 0.3478413 -0.18623301 -0.061606497 -0.09744066
0.08340988 -0.5469633 -0.82999396 -0.31209508 0.44232178 0.5512526 0.3755526 -0.5435568
1.3278601 1.8589576 0.6703333 2.899971 0.7593299 0.5201424 0.2843911 0.50710726

lstm.bias_hh_l2 f4 [32]
00000000: 9d1d 9f3f 7b8f ee3f 695b 883f c958 4140
00000010: acb5 8e3f 19de 6f3f 52b4 8d3e b909 673f
00000020: 7809 6a3d 4bcd 37be e104 ab3e 0b43 9c3e
00000030: 91ec 823e 5c94 b83d fc2a a9be 4886 043d
00000040: 8d38 343f d567 a4be 179d 8cbf 42bc 06bf
00000050: b1df 013f 7539 023f 9af7 b63e efb1 0abf
00000060: 275c 8e3f 8221 0040 c402 3f3f 4016 1940
00000070: 3c97 0d3f 42e6 1c3f ffb3 083f 9004 833f
1.2430912 1.8637537 1.0652896 3.021044 1.1149192 0.9369827 0.27676636 0.9024921
0.057137936 -0.17949407 0.3340216 0.305199 0.2557111 0.09012672 -0.33040607 0.032354623
0.7039879 -0.32110468 -1.098544 -0.5263101 0.5073195 0.5086892 0.3573578 -0.54177755
1.1121873 2.0020452 0.74613595 2.391983 0.5530889 0.61288846 0.5339965 1.0235767

lstm.weight_ih_l3 f4 [32, 8]
00000000: a62e 6e3f 5766 63bf 7ce0 a2bd 05b2 15c0
00000010: 4d14 0c3f 47d1 923e 895f 593f 9ec2 5ebf
00000020: 776c 643f 135f 44bf d2f6 bdbf 39b5 98bf
00000030: d23a 98bf 37dc 1dbf 7dd8 c13d 4713 0c3f
00000040: a3ba 38bd 1538 84bf 32a3 10c0 a2b7 febe
00000050: de52 543f 5845 803f 6c6e 2bbf d75a 90bf
00000060: 2d14 5d3f 5036 99bf e116 0dbf 5cd7 e7bf
00000070: 1025 983e 2dc9 1c3f 375d 483f 04bb 20bf
00000080: 82ed 4d3f 9e77 dfbe 6d36 27c0 a988 b4bf
00000090: 5c4b c3bf 6b10 26bf 0344 8bbe 43ef 453f
000000a0: 6b97 8f3f 8208 5fbf 23f6 78c0 0968 8dbf
000000b0: 886a cabf ea14 51bf ff5d 2a3c c106 cb3f
000000c0: 1b03 723f 2cff 57bf 4123 5fc0 75c7 55bf
000000d0: dcad 97bf adad 90bf 9147 21be 8043 443f
000000e0: acf2 35bf 8d2d 723e 92ec f63e fee5 5e3f
000000f0: ad56 723e 0dd0 a2bc 1b8d 03be 51f1 afbd
00000100: d9bd 78be 5094 dbbd 05d9 a73e ef5b a2be
00000110: a03d 15bc 384d 073e 8642 693e fa3d 603e
00000120: 4033 70bc 4e9a 623e cd02 953e 39f6 8ebe
00000130: eaf6 753e 39db 953e 50e0 363d 299b b1be
00000140: 22b3 6c3e 70c4 ac3c 9c1c 36be 623f 053e
00000150: b543 28be 80a2 be3c 7716 47be 1366 4dbe
00000160: 306d 95bd 166a 85be 8ab3 dabd 9e86 2ebe
00000170: c882 ab3d ee5d 2e3e a8b0 aa3d 40f8 833d
00000180: ba7e 1d3e 565d 5b3e 4cbb 85be d73d ab3e
00000190: 2a1f 7dbe 39a8 a03e f4ce a7bd b196 993e
000001a0: b639 5f3e 5217 46be b272 283e 20ef 053e
000001b0: 3f2d 3bbe fcdd ca3d f3ea 2cbe b990 ac3e
000001c0: 5a28 173e 99df 46be 28b5 cc3d 9e50 0c3e
000001d0: b050 08bd 0080 4437 20a8 b2bd d03d 84bd
000001e0: 2074 e3bc b899 b3be 102d c23c 6849 87be
000001f0: 991b b33e aaab fabd a46e a9be 2876 713d
00000200: 437f cf3f b5a5 81bf 8660 55bf f9a4 0cc0
00000210: 0cc9 613f 6ab2 663e 649d 3b3f 92a3 f4be
00000220: cc9e 0cc0 3574 c03f 8f6a 253f ccc1 5b40
00000230: 3e7d 28bf 022c 58bf 4195 7fbf fa8a 8c3f
00000240: d17f f7bf d11e 0440 69df 0e3f e7bc 4e40
00000250: 6616 9ebf cc52 53bf a2d0 67bf 511f a93f
00000260: da71 0cc0 4494 dc3f f7cb 803e 03b7 4b40
00000270: a43f 41bf e837 17bf efec 17bf 870f 8d3f
00000280: 58e6 fe3f 0290 06c0 f307 48bf 28bc 50c0
00000290: 78ec 1d3f 9060 8e3f 6b04 473f c2ea 5bbf
000002a0: 3f8e 1ac0 480d 0640 e939 663f f2a1 6040
000002b0: 45d6 90bf 481a 84bf 047f 25bf 3de5 8a3f
000002c0: b470 1440 bee7 07c0 8690 ebbe 357f 48c0
000002d0: 9729 053f 0b6a 4b3f da74 813f 6385 9ebf
000002e0: e142 a8be cbb9 5a3f 0bb6 a9bc 74dd 8c3f
000002f0: 563f c93d 1420 f0bc 7909 7f3d bab7 f43e
00000300: a3e5 ab3f 3ada 81bf 34b7 cbbe 8ed7 ecbf
00000310: 940c 903e eeb1 263f 0f7f 273f bae9 17bf
00000320: c024 d53e 9ffc b9be 11f2 bcbf a635 acbf
00000330: 23c9 3ebf 2c88 5ebd a3dc 2a3d 9712 b2bd
00000340: 9b5d 933e f276 69bf 71cc efbf 9cee e2bd
00000350: da6e a73f 308e 813f 5114 7cbf 5a87 9bbf
00000360: 2c40 8a3f 0ac3 8bbf 9a7a 33bf cd4b efbf
00000370: ba5c ec3e 69e9 1d3f 604e 303f fa54 81bf
00000380: 41ab 493f 950a 1ebf ce2f 27c0 7150 a1bf
00000390: f301 c6bf 1d90 58bf 6642 5fbe c73a 853f
000003a0: 3ce1 b93f b1cb 98bf 622c 8ec0 3422 99bf
000003b0: 3cbe 1cc0 eac2 f1bf 6c9d eb3e 1c7e 0240
000003c0: eca2 b63f c79f 18bf c704 79c0 8d4e 8dbf
000003d0: 4081 b4bf 11fd 9fbf 730d 4d3e 620c e63f
000003e0: 260b 36bf d8ce 8c3e 74db a43e 6c55 4c3f
000003f0: 0e85 de3e ff9c 713e ed36 c8be 36b9 0e3d
0.9303993 -0.88828033 -0.07952973 -2.3389904 0.54718477 0.2867529 0.849114 -0.8701571
0.89228004 -0.7670757 -1.4840949 -1.1930305 -1.189295 -0.61664146 0.0946512 0.54716915
-0.045099866 -1.0329615 -2.2599607 -0.49749476 0.82938945 1.0021162 -0.66965365 -1.1277722
0.8635891 -1.19697 -0.55113035 -1.8112597 0.29715776 0.6124447 0.78267235 -0.62785363
0.80440533 -0.43645948 -2.612697 -1.4104205 -1.5257373 -0.648688 -0.27200326 0.7731821
1.1218084 -0.87122357 -3.890023 -1.1047374 -1.5813761 -0.8167254 0.010398387 1.5861436
0.9453599 -0.84373736 -3.4865267 -0.8350747 -1.1849933 -1.1303002 -0.15749957 0.76665497
-0.7107341 0.23650189 0.48227364 0.8706969 0.23665877 -0.019874597 -0.12846796 -0.08590949
-0.24291171 -0.10721648 0.3278276 -0.31710765 -0.009108931 0.1321305 0.22779283 0.21898642
-0.014660656 0.22129175 0.291037 -0.27922228 0.24019971 0.29268816 0.044647515 -0.3468869
0.23115209 0.021089762 -0.17784351 0.1301246 -0.16432078 0.023270845 -0.19442163 -0.2005847
-0.072962165 -0.260575 -0.106787756 -0.1704354 0.08374554 0.17028019 0.08334476 0.06443834
0.15380374 0.21422324 -0.2611946 0.33445618 -0.2471892 0.31378344 -0.0819377 0.2999778
0.21799359 -0.19344833 0.16450003 0.130795 -0.18278979 0.099056214 -0.16886501 0.33704165
0.14761487 -0.19421233 0.0999549 0.13702628 -0.033280075 1.1712313e-05 -0.087234735 -0.06457102
-0.027765334 -0.35078216 0.023703128 -0.26423192 0.34981993 -0.122397736 -0.33092225 0.058950573
1.6210712 -1.0128695 -0.8335041 -2.1975691 0.881974 0.22528997 0.73287034 -0.47781044
-2.1971922 1.5035464 0.6461572 3.4337034 -0.65816104 -0.8444215 -0.9983712 1.0979912
-1.9335881 2.064381 0.55809647 3.2302797 -1.2350585 -0.82548213 -0.90552723 1.3212682
-2.194449 1.7232747 0.25155613 3.1830451 -0.7548773 -0.5906968 -0.59345907 1.1020364
1.9914045 -2.1025395 -0.7813713 -3.2614841 0.6168895 1.1123219 0.77741116 -0.85905087
-2.414932 2.0945606 0.89932114 3.5098844 -1.131539 -1.032052 -0.64646935 1.0851208
2.3193789 -2.1235194 -0.460087 -3.132764 0.52016586 0.79458684 1.0113785 -1.2384456
-0.32863525 0.8543975 -0.020716688 1.1005082 0.098265335 -0.029312171 0.062264893 0.47796422
1.3429455 -1.0144722 -0.3978821 -1.8503282 0.28134596 0.6511525 0.6542825 -0.59341013
0.416296 -0.36325547 -1.4761373 -1.3453872 -0.7452566 -0.054329082 0.04171432 -0.08694952
0.28782353 -0.9119712 -1.8734266 -0.110806674 1.3080704 1.0121517 -0.984685 -1.2150681
1.0800834 -1.0918896 -0.7010895 -1.8695008 0.46164495 0.6168428 0.6886959 -1.0104058
0.7877694 -0.61734897 -2.6122928 -1.2602674 -1.5469345 -0.845949 -0.21802673 1.0408562
1.4521861 -1.1937162 -4.442918 -1.1963563 -2.449111 -1.8887608 0.4601854 2.038947
1.426847 -0.596188 -3.8909166 -1.1039597 -1.4101944 -1.2499105 0.20024662 1.7972529
-0.7111076 0.2750156 0.3219868 0.79817843 0.43460888 0.23595046 -0.39104405 0.0348446
