ModelSave100.pt (torch_old, 30998 bytes, 45 tensors)

lstm.weight_ih_l0 f4 [32, 8]
0	0x3cc91cfe	0.024549957
1	0xbfae3ccd	-1.3612305
2	0x3f0c31f1	0.54763705
3	0xbe3c17d5	-0.18368466
4	0x3e069847	0.13144027
5	0x3ec2e6b3	0.38066635
6	0x3bc0b8d1	0.005881407
7	0xbecd06c7	-0.40044233
8	0x3cbe1601	0.023203852
9	0xbf52cc04	-0.82342553
10	0x3e0edcfb	0.13951485
11	0x3e89ecc7	0.2693846
12	0x3e308352	0.17237595
13	0x3f282046	0.65674245
14	0x3e7fb801	0.24972536
15	0xbd03669c	-0.032080278
16	0xbd479508	-0.04872611
17	0xbf11a745	-0.5689586
18	0x3f368d94	0.7130978
19	0xbda80cf7	-0.08205598
20	0xbe35ce42	-0.17754462
21	0xbe6b5d2f	-0.22984765
22	0xbf17f6a4	-0.5936072
23	0x3eb1a5c0	0.3469677
24	0xbcef5d24	-0.029219218
25	0xbf28f39c	-0.6599672
26	0xbe3035b2	-0.17207983
27	0x3f25ef3e	0.6481818
28	0xbd762b39	-0.060099814
29	0x3fa29017	1.2700223
30	0x3ed709ab	0.41999564
31	0xbe7e32c7	-0.24824058
32	0xbd921d87	-0.07134538
33	0xbf9c8150	-1.2226963
34	0x3e884fe3	0.2662345
35	0x3e858703	0.26079568
36	0x3e0e3240	0.13886356
37	0x3f8ca33f	1.0987319
38	0x3e992679	0.29912165
39	0x3c9fa89b	0.019489577
40	0xbed6669b	-0.41875157
41	0x3ee7910f	0.45227858
42	0x3e897784	0.26848996
43	0xbf000d61	-0.50020415
44	0x3f04bf64	0.5185454
45	0xbe861af4	-0.2619244
46	0x3e7c4458	0.24635446
47	0x3e2e266e	0.17006847
48	0x3ec4cae9	0.38436058
49	0xbf9b3eef	-1.2128581
50	0x3f1903f9	0.59771687
51	0x3ed8ce34	0.4234482
52	0x3d94f045	0.0727239
53	0x3ee2516e	0.4420275
54	0x3c73b497	0.014874599
55	0xbdbfb305	-0.09360317
56	0xbf0010b9	-0.50025517
57	0xbe207bfb	-0.15672295
58	0xbe8dcdff	-0.27696225
59	0x3f199637	0.59994835
60	0x3ef566af	0.47929904
61	0x3ede6acc	0.43440855
62	0x3f04ee3f	0.51926035
63	0xbca23544	-0.01980079
64	0xbe58c3da	-0.21168461
65	0xbe090709	-0.1338159
66	0x3d7feea8	0.06248346
67	0xbe9e5d04	-0.3093034
68	0x3e82d69d	0.25554362
69	0x3e7830de	0.24237391
70	0xbd24b610	-0.04021269
71	0x3ead4f6d	0.3384966
72	0xbdfc6e8e	-0.12325774
73	0xbdb221cc	-0.086978525
74	0xbe915ae6	-0.28389663
75	0xbe227701	-0.15865709
76	0xbdedf81e	-0.1161959
77	0x3d532190	0.05154568
78	0xbded2342	-0.115789905
79	0x3e909991	0.28242162
80	0xbea0ebc6	-0.3142988
81	0x3e906b8f	0.2820706
82	0xbe4cc0f9	-0.19995488
83	0xbd7037a0	-0.058646798
84	0xbd85f714	-0.06541267
85	0x3dd11144	0.10208371
86	0x3eb05b5b	0.344447
87	0x3e80f821	0.25189307
88	0xbe77763c	-0.24166197
89	0xbdcb2520	-0.099191904
90	0x3d1a2b58	0.037638992
91	0x3e8f5807	0.27996847
92	0xbe86352e	-0.26212448
93	0x3dfd57ac	0.12370238
94	0x3da241d8	0.07922715
95	0x3ea61759	0.32439688
96	0xbddf032e	-0.10889278
97	0x3eb343bd	0.35012618
98	0xbe6b2046	-0.2296153
99	0x3d018340	0.03161931
100	0x3e4606de	0.19338557
101	0x3d87c3bc	0.0662913
102	0x3d89e994	0.067340046
103	0x3e04ecc6	0.12980947
104	0xbde73766	-0.11289863
105	0xbe9b7246	-0.3036062
106	0xbe54118c	-0.20709819
107	0x3e5fa406	0.21839914
108	0xbd331a18	-0.043726057
109	0x3e44b31a	0.19208947
110	0x3e80f45f	0.2518644
111	0x3e9c3d65	0.3051559
112	0x3e238236	0.1596764
113	0xbe8fd366	-0.28090972
114	0x3eaac811	0.33355764
115	0x3da09a74	0.078419596
116	0xbe27c14a	-0.16382328
117	0x3c072360	0.00824818
118	0x3d082930	0.033242404
119	0x3ea0592b	0.3131803
120	0x3e86e60f	0.26347396
121	0xbc39f220	-0.011349231
122	0x3e600682	0.21877483
123	0xbe2ee70d	-0.17080326
124	0x3e8ffc8f	0.28122374
125	0xbcaa9590	-0.02082327
126	0xbda0adb0	-0.07845628
127	0x3e863cab	0.2621816
128	0x3dccb2fb	0.09995075
129	0x3fa26cde	1.2689474
130	0xbd650b21	-0.055918816
131	0xbf3e332b	-0.74296826
132	0xbe1edf29	-0.15514816
133	0xbf869fc4	-1.0517507
134	0xbe0f83a7	-0.14015065
135	0x3ded358b	0.11582478
136	0x3d12cc75	0.035839517
137	0xbfaa4a58	-1.3303938
138	0x3efbc864	0.49176323
139	0x3f31aef4	0.6940758
140	0x3e1a4229	0.150643
141	0x3f99fa5c	1.2029529
142	0x3d4b1295	0.049578268
143	0x3d46d31d	0.048541177
144	0xbf05d883	-0.52283496
145	0xbf6a37b7	-0.91491264
146	0x3ee60dbc	0.44932353
147	0x3f69019d	0.91018087
148	0x3e14a5d8	0.1451639
149	0x3f63b181	0.88942724
150	0x3d9d2c79	0.07674498
151	0x3da5863e	0.08082245
152	0x3dbf0335	0.093267836
153	0xbf9e7910	-1.2380695
154	0x3f38bf15	0.7216657
155	0x3ee9092b	0.45514807
156	0x3d94ddb0	0.07268846
157	0x3f981006	1.187989
158	0x3af38afb	0.0018580848
159	0xbcc84f9a	-0.02445202
160	0xbeb56e26	-0.354356
161	0xbf01eb5e	-0.50749767
162	0x3ec5317d	0.3851432
163	0x3f082fa2	0.5319768
164	0x3e0cf3bc	0.13764852
165	0x3f61decb	0.8823058
166	0x3f03ea08	0.5152898
167	0xbdc0b0ce	-0.09408723
168	0x3d949bb4	0.072562605
169	0xbf8f48ba	-1.1194069
170	0x3caff47e	0.021478888
171	0x3f8ee830	1.1164608
172	0x3f0c0d72	0.54708016
173	0x3f547e11	0.8300486
174	0xbdd90f53	-0.10598626
175	0xbd803b11	-0.06261266
176	0x3e961d02	0.29319006
177	0x3edaee44	0.42759907
178	0x3efe6b02	0.49691015
179	0xbf82ec26	-1.0228317
180	0xbe93052d	-0.28714886
181	0xbf3d5141	-0.7395211
182	0xbed497d6	-0.41522092
183	0xbca8c35b	-0.020600965
184	0x3d432eda	0.047652103
185	0x3fcd18c8	1.6023188
186	0xbf0f96c5	-0.5608943
187	0xbe9441aa	-0.28956348
188	0xbe1d7926	-0.15378246
189	0xbf853357	-1.0406293
190	0x3c83b964	0.016079612
191	0xbde22b61	-0.1104343
192	0xbc52fad9	-0.01287719
193	0xbfb44c7e	-1.4085844
194	0x3ef61264	0.48060906
195	0x3e4f9e44	0.20275217
196	0x3e9c59bf	0.3053722
197	0x3e7a297c	0.24429888
198	0xbd7a4bf8	-0.061107606
199	0xbebb5ca3	-0.36594114
200	0xbe2b7c76	-0.16746697
201	0xbf6c038f	-0.9219293
202	0xbdb888c4	-0.09010461
203	0x3e6925fe	0.22768399
204	0x3eb5f60d	0.35539284
205	0x3f303f9c	0.6884706
206	0x3eb4aa71	0.35286286
207	0xbdcd0710	-0.10011113
208	0x3cd61451	0.026132734
209	0xbf689ef6	-0.90867555
210	0x3e6538f9	0.22385015
211	0x3e54a685	0.20766647
212	0xbe3523df	-0.17689465
213	0xbec7c084	-0.39014065
214	0xbf299650	-0.66244984
215	0x3e8effaf	0.27929446
216	0xbe99034e	-0.29885334
217	0xbf76ec91	-0.9645472
218	0xbe514382	-0.20435908
219	0x3f656d7b	0.8962018
220	0x3d5752bd	0.05256914
221	0x3f5d1388	0.8635793
222	0x3f2459bc	0.64199424
223	0xbeb2e7a7	-0.34942362
224	0x3e7d04dd	0.24708886
225	0xbf573490	-0.8406458
226	0x3ca0359e	0.019556817
227	0x3f324746	0.69640005
228	0xbda8d407	-0.08243566
229	0x3faf5df7	1.3700551
230	0x3e3d0f6b	0.18462913
231	0x3cdeb050	0.027183682
232	0xbef89c92	-0.48556954
233	0x3eaf77c4	0.3427106
234	0x3dd5a2fc	0.104314774
235	0xbe867188	-0.26258492
236	0x3f06ad9e	0.5260867
237	0xbeb31acd	-0.34981385
238	0x3e9e0c94	0.3086897
239	0xbe3396ec	-0.17538041
240	0x3edb075c	0.42779052
241	0xbf5c64aa	-0.860911
242	0x3f2bb21d	0.67068654
243	0x3efa0bbd	0.4883708
244	0x3eaa487d	0.3325843
245	0x3ebccabb	0.3687342
246	0xbd84873f	-0.06471109
247	0xbeb89bff	-0.36056516
248	0xbeb96aed	-0.3621439
249	0x3e8ad08d	0.27112237
250	0xbf162db2	-0.58663476
251	0x3f4b30ea	0.7937151
252	0x3ede1bb3	0.43380508
253	0x3f2bc42e	0.6709622
254	0x3e287f92	0.16454914
255	0x3e2d0f59	0.16900386

lstm.weight_hh_l0 f4 [32, 8]
0	0xbe422dc3	-0.18962769
1	0xbe92c66c	-0.2866701
2	0xbe344624	-0.17604882
3	0xbe9ac368	-0.30227208
4	0xbdcc70c0	-0.09982443
5	0xbe97b332	-0.29628903
6	0x3ea8af1d	0.329461
7	0xbd266ec0	-0.040632963
8	0xbe4e5828	-0.20150816
9	0x3e8b7cc1	0.27243617
10	0xbe275726	-0.16341838
11	0x3af20800	0.0018465519
12	0xbd73f160	-0.059556365
13	0x3c684d80	0.014178634
14	0x3e512aea	0.20426527
15	0x3d11f6b8	0.03563568
16	0xbd85dbf8	-0.06536096
17	0x3e158fc4	0.14605623
18	0xbe0b0372	-0.13575533
19	0x3e92850f	0.2861714
20	0x3e8d491b	0.27594838
21	0x3d4cd830	0.05001086
22	0xbe2be8bf	-0.16788004
23	0x3e5b62de	0.21424434
24	0xbe5b2c8c	-0.21403712
25	0xbe241b86	-0.16026124
26	0xbe8dcd44	-0.27695668
27	0x3e769fe6	0.24084434
28	0x3eb24583	0.34818658
29	0x3ea7eea5	0.3279926
30	0xbe8b4602	-0.2720185
31	0x3d7a0ff8	0.061050385
32	0x3e62cf02	0.2214928
33	0xbe68af84	-0.22723204
34	0x3deac090	0.1146251
35	0xbd393c28	-0.045223385
36	0x3e33c81a	0.17556801
37	0x3e94ec87	0.29086706
38	0x3e44f286	0.1923314
39	0x3e2bfcd6	0.16795668
40	0xbda144fc	-0.07874486
41	0x3e84a397	0.2590606
42	0xbd937058	-0.07199162
43	0xbe083246	-0.13300428
44	0xbe9fbd25	-0.31198993
45	0xbdc6efd0	-0.09713709
46	0xbe619b09	-0.22031797
47	0xbe88d77c	-0.26726902
48	0xbe8dd3c0	-0.27700615
49	0xbe1c1fee	-0.15246555
50	0xbe034a93	-0.12821417
51	0xbd1d82e8	-0.03845492
52	0x3a6ca800	0.00090277195
53	0xbd38b4d8	-0.04509434
54	0x3e4c806e	0.19970867
55	0xbe9fddd1	-0.3122392
56	0x3c3712a0	0.011173874
57	0x3d71a1e8	0.058992296
58	0x3d3ad4a0	0.04561293
59	0xbe3872bc	-0.18012518
60	0xbd3bf890	-0.045891345
61	0xbcb49150	-0.022041947
62	0x3bdec000	0.0067977905
63	0x3eab2e9d	0.33434
64	0x3d9f80bc	0.07788226
65	0xbe8e69b8	-0.27815032
66	0xbdba3e34	-0.090938956
67	0xbe536109	-0.20642485
68	0x3e30424e	0.17212793
69	0xbe4f2664	-0.20229489
70	0x3dbe1adc	0.09282467
71	0x3e13f392	0.14448383
72	0xbddbd838	-0.107346
73	0x3ea68513	0.32523403
74	0xbcccac70	-0.024984568
75	0x3b8b3bc0	0.004249066
76	0xbe845cd5	-0.25852075
77	0xbd5e6188	-0.05429223
78	0xbe149354	-0.14509326
79	0xbd939a50	-0.07207167
80	0xbd798700	-0.06091976
81	0xbd93ccc0	-0.07216787
82	0xbe2f7a59	-0.17136516
83	0xbe618881	-0.22024728
84	0x3dcdee7c	0.10055253
85	0x3cefbe90	0.029265672
86	0xbe16dfee	-0.1473386
87	0xbe34b276	-0.17646202
88	0xbd9e6b00	-0.077352524
89	0x3eaba05d	0.33520785
90	0xbe9c8efd	-0.3057784
91	0xbe1bade3	-0.15203051
92	0x3e863637	0.26213238
93	0xbead39b0	-0.33833075
94	0x3e07fb88	0.13279545
95	0x3e93fcb1	0.28903726
96	0xbdab66bc	-0.083692044
97	0x3c723be0	0.014784783
98	0x3da70824	0.081558496
99	0x3eaee6e7	0.3416054
100	0xbd2fac38	-0.04288885
101	0x3e9e5d65	0.3093063
102	0x3eb37ae1	0.35054687
103	0x3e096378	0.1341685
104	0xbe9b8711	-0.30376485
105	0xbeb1465c	-0.34623992
106	0x3e9c76b5	0.30559316
107	0x3ca3ccb0	0.019995064
108	0xbe182ba6	-0.148604
109	0x3e8dc00f	0.27685592
110	0xbe81ce24	-0.25352585
111	0x3e270fce	0.16314623
112	0xbdf1292a	-0.117754295
113	0xbe2efa19	-0.17087592
114	0x3e81532b	0.25258765
115	0xbd6c5b40	-0.05770421
116	0x3e1d3f4a	0.15356174
117	0xbdb2b38c	-0.08725652
118	0x3e8d5169	0.27601174
119	0xbe503996	-0.20334467
120	0x3e82cc0b	0.25546297
121	0xbe18cb0f	-0.1492121
122	0x3e92e1a9	0.2868779
123	0xbe08e340	-0.13367939
124	0xbb7ec580	-0.0038875043
125	0xbe7ed08e	-0.24884245
126	0x3df56ff0	0.11984241
127	0x3e25876e	0.16164944
128	0x3d280260	0.04101789
129	0x3e5bac72	0.21452501
130	0x3e35cac2	0.17753127
131	0x3da9043c	0.08252761
132	0xbcf27750	-0.029597908
133	0x3e697276	0.2279757
134	0xbe4d8324	-0.20069557
135	0xbe336ffa	-0.17523184
136	0xbd4dc990	-0.050241053
137	0xbeaab2d5	-0.33339563
138	0xbe75cd88	-0.24004185
139	0xbe22ad41	-0.15886404
140	0x3e89bde9	0.26902702
141	0x3e70a9d2	0.23502281
142	0x3c6c1ce0	0.014411181
143	0xbe6c22bf	-0.2306013
144	0x3e43b66a	0.19112554
145	0x3d4fb960	0.050713897
146	0x3e9323af	0.28738162
147	0xbe956e87	-0.29185888
148	0xbeb3f682	-0.35149008
149	0x3e1166c0	0.14199352
150	0x3e8e27b3	0.27764663
151	0xbe1f6b19	-0.15568198
152	0x3c230880	0.009950757
153	0x3dfae374	0.122504145
154	0xbd8c471c	-0.068495005
155	0xbdbefb28	-0.09325248
156	0xbd6fdc80	-0.058559895
157	0x3e411eaa	0.18859354
158	0x3e635802	0.22201541
159	0x3d009210	0.031389296
160	0xbcc6b5f0	-0.024256676
161	0xbe51066d	-0.20412607
162	0x3c5dca80	0.013537049
163	0xbe69629f	-0.22791527
164	0xbd25ee20	-0.040510297
165	0xbb0a7b80	-0.002113074
166	0xbe01bc13	-0.12669401
167	0xbeac3c3c	-0.33639705
168	0xbdcb1618	-0.099163234
169	0xbea0fe03	-0.31443796
170	0xbd9ff1ec	-0.07809815
171	0xbdce630c	-0.100774854
172	0xbc2208a0	-0.009889752
173	0xbdfc9d78	-0.12334722
174	0x3ea17c0d	0.31539956
175	0x3e242ece	0.1603348
176	0xbea351e9	-0.3189843
177	0xbe1b3ae7	-0.15159188
178	0xbe1ee13c	-0.15515608
179	0xbe869564	-0.2628585
180	0x3c669d60	0.014075607
181	0x3df34580	0.118784904
182	0x3e096b44	0.13419825
183	0x3d4bcd40	0.04975629
184	0x3e3c5352	0.18391159
185	0x3e56a772	0.20962313
186	0xbeb396e2	-0.35076052
187	0xbe94d9fc	-0.2907256
188	0x3e37baf6	0.17942414
189	0xbea0c9ef	-0.31404063
190	0x3e9b1643	0.30290422
191	0xbcd94150	-0.026520401
192	0x3bbd9240	0.0057852566
193	0xbe77d563	-0.24202494
194	0xbe7037a6	-0.23458728
195	0x3da99510	0.082803845
196	0xbb1ca600	-0.0023902655
197	0xbca5c220	-0.020234168
198	0x3ead67d5	0.3386828
199	0xbda8b350	-0.08237326
200	0x3c1784e0	0.009247988
201	0x3e793d7e	0.24339864
202	0xbc5dbc00	-0.013533592
203	0xbe761ab4	-0.24033624
204	0xbe8769cc	-0.26447904
205	0x3e68f176	0.2274836
206	0xbe72f577	-0.2372645
207	0xbeaae7e6	-0.3338005
208	0x3e099e72	0.13439348
209	0xbe678734	-0.2261017
210	0x3e4b0392	0.1982558
211	0x3e00a574	0.12563115
212	0x3c5098e0	0.012731761
213	0xbe73c065	-0.23803861
214	0x3e4df84e	0.20114252
215	0xbdbf6914	-0.09346214
216	0xbe8b6d23	-0.27231702
217	0xbc115360	-0.008869976
218	0xbcaabe70	-0.02084276
219	0xbea05d3e	-0.31321138
220	0x3e875933	0.2643524
221	0x3da4f580	0.08054638
222	0x3db10a0c	0.086444944
223	0x3e13603c	0.14392179
224	0x3e12b166	0.14325485
225	0x3e8c52ab	0.2740682
226	0x3e9d1701	0.30681613
227	0x3e8ad85f	0.27118203
228	0xbe4747fc	-0.19461054
229	0x3c52f1e0	0.01287505
230	0x3e8a19b7	0.26972744
231	0x3e93dc13	0.2887884
232	0xbe9efe07	-0.31053182
233	0xbe1c738b	-0.15278451
234	0xbe2d5b72	-0.16929415
235	0xbd9872c0	-0.07443762
236	0x3e306ed6	0.1722978
237	0xbe880283	-0.26564416
238	0xbe7d7f2d	-0.24755545
239	0x3e93fcf3	0.28903922
240	0x3ea183b7	0.31545803
241	0xbe859486	-0.26089877
242	0x3eb4d96b	0.35322127
243	0xbdce9f58	-0.10088986
244	0xbe1c83e2	-0.15284684
245	0x3e7567e2	0.2396541
246	0xbe7c88d1	-0.24661566
247	0x3e360a46	0.17777357
248	0x3eb34b59	0.35018423
249	0xbdb95f88	-0.09051424
250	0x3eacbd05	0.3373796
251	0x3e8f72c5	0.2801725
252	0xbe1789b6	-0.14798626
253	0x39d2c400	0.00040200353
254	0x3e9e8297	0.30959007
255	0xbe81473e	-0.25249666

lstm.bias_ih_l0 f4 [32]
0	0x3ede9ed0	0.4348054
1	0x3f25bd7b	0.6474225
2	0x3eec929c	0.46205604
3	0x3eeb070a	0.45903808
4	0x3e59eab7	0.21280943
5	0x3f8b0e96	1.0863826
6	0xbcbb7110	-0.02288106
7	0x3eec470d	0.46147957
8	0xbda74e6c	-0.08169255
9	0xbdd03cb0	-0.10167825
10	0xbe12b638	-0.14327323
11	0xbea446af	-0.32085177
12	0xbe06c325	-0.13160379
13	0xbd6f11a0	-0.058366418
14	0x3e4b6f6a	0.1986672
15	0xbeab3f85	-0.334469
16	0x3e97b45d	0.29629794
17	0xbdd65675	-0.10465709
18	0xbe22e822	-0.15908864
19	0xbd978499	-0.07398338
20	0x3ecc5d6f	0.39915034
21	0xbee5b300	-0.4486313
22	0xbec0e8cc	-0.3767761
23	0xbdc968fe	-0.09834479
24	0x3f4235a8	0.7586312
25	0x3f14f1be	0.5818137
26	0x3f450b1e	0.7697009
27	0x3f0dd045	0.5539592
28	0x3eaa1fa8	0.33227277
29	0x3f5e9008	0.86938524
30	0x3d1d08fc	0.038338646
31	0x3f6ade14	0.91745114

lstm.bias_hh_l0 f4 [32]
0	0x3f41a143	0.7563669
1	0x3f94af3d	1.1615978
2	0x3f2f7628	0.6853967
3	0x3cb532df	0.022118984
4	0x3db96332	0.09052123
5	0x3f3c53d1	0.73565394
6	0x3e47f4c6	0.19526967
7	0x3f8135ed	1.0094582
8	0xbd5bbef8	-0.05364892
9	0x3e1ea506	0.15492639
10	0x3dc295bc	0.09501216
11	0x3e6720da	0.22571126
12	0x3e9c50b9	0.30530336
13	0xbe32ae27	-0.17449246
14	0xbbc86700	-0.006115794
15	0xbe86d808	-0.26336694
16	0x3e0d1a91	0.13779666
17	0xbe95b3cd	-0.2923874
18	0xbef8b4ce	-0.48575443
19	0x3db63fa7	0.088988595
20	0x3ee173ef	0.44033763
21	0xbeca7dc3	-0.39549074
22	0xbdd89cf0	-0.105768085
23	0x3edbe45c	0.42947662
24	0x3f68f71d	0.91002065
25	0x3f851ded	1.0399758
26	0x3efabce5	0.4897224
27	0x3dd6c158	0.10486096
28	0x3ef9bc60	0.4877653
29	0x3f885499	1.0650817
30	0x3dca7cde	0.09887098
31	0x3f13673d	0.57579404

lstm.weight_ih_l1 f4 [32, 8]
0	0xbef71406	-0.48257464
1	0x3f62d870	0.8861151
2	0x3eab790f	0.33490798
3	0x3e90edf3	0.2830654
4	0x3f2cf9f5	0.67568904
5	0x3e8ec220	0.2788248
6	0xbe6db61c	-0.23214
7	0xbf4dc151	-0.803731
8	0xbea22bed	-0.31674138
9	0x3f26951d	0.6507128
10	0xbc80cde7	-0.015723182
11	0x3ee41627	0.4454815
12	0x3f5cecd9	0.862989
13	0xbe68940a	-0.22712722
14	0xbf22c809	-0.6358648
15	0xbee5d24a	-0.44887
16	0xbe05aa38	-0.13053215
17	0x3e3dffaa	0.1855456
18	0xbe290f3b	-0.16509716
19	0x3c658872	0.014009582
20	0x3df7b138	0.12094349
21	0xbc577241	-0.013149799
22	0xbec8bd5e	-0.39206976
23	0xbe6b5869	-0.22982945
24	0x3eb11eef	0.34593913
25	0xbee2740c	-0.44229162
26	0xbe2affc1	-0.16699125
27	0xbeabe6ff	-0.33574674
28	0x3da7b0c6	0.08188014
29	0xbf5caa3c	-0.8619726
30	0x3f00539b	0.5012757
31	0x3e5ba377	0.21449076
32	0x3e95fecf	0.29295966
33	0xbdb02bcf	-0.08602106
34	0x3e40183e	0.18759248
35	0x3d788239	0.060671065
36	0x3f2ed135	0.68287975
37	0xbf04d46f	-0.5188665
38	0xbe7ce6b6	-0.24697384
39	0x3ec37eb8	0.38182616
40	0xbf0d023c	-0.55081534
41	0x3de7af76	0.113127634
42	0x3e8ac7fa	0.27105695
43	0x3ee71469	0.4513276
44	0x3eec6aff	0.46175382
45	0xbe08c8ed	-0.13357897
46	0xbf12acbd	-0.5729483
47	0xbed577ed	-0.4169306
48	0x3f194728	0.598742
49	0xbf63a401	-0.88922125
50	0xbf149a60	-0.5804806
51	0xbecd1821	-0.4005747
52	0xbee0d5c0	-0.43913078
53	0xbf5e5e4c	-0.86862636
54	0xbe437d8f	-0.19090866
55	0x3f1d10cd	0.6135376
56	0xbea90054	-0.33008063
57	0x3eb91e4e	0.36155933
58	0x3ea82f64	0.32848656
59	0x3f6cc304	0.9248507
60	0x3f36c36a	0.7139193
61	0x3d6deaa7	0.05808511
62	0xbf53ea31	-0.8277922
63	0xbd693b37	-0.056941237
64	0x3dcef958	0.10106152
65	0x3ea2628f	0.3171582
66	0xbe5a517d	-0.21320148
67	0x3e3a9876	0.18222222
68	0x3e74f2c2	0.2392073
69	0x3e295bba	0.16538897
70	0x3e09c9aa	0.13455835
71	0x3d705fa0	0.058684945
72	0x3e513ef6	0.20434174
73	0xbcac6c70	-0.0210478
74	0x3e75f736	0.24020085
75	0xbd2d2758	-0.04227385
76	0x3e97968f	0.29607055
77	0xbd979040	-0.074005604
78	0x3db4719c	0.08810732
79	0xbe89478a	-0.26812392
80	0x3e1fc286	0.15601549
81	0x3d3d7050	0.046249688
82	0xbe45778a	-0.19283882
83	0xbc39a260	-0.011330217
84	0xbe1084e0	-0.14113188
85	0x3e67f512	0.2265208
86	0x3eab8a1d	0.3350381
87	0x3d234d18	0.039868444
88	0xbe6f10fa	-0.2334632
89	0xbe1a2ae6	-0.15055427
90	0xbea3c56c	-0.31986558
91	0x3e19ad16	0.15007433
92	0x3e130d94	0.14360648
93	0xbdf65774	-0.12028399
94	0x3eaf4f85	0.34240356
95	0x3e4611a6	0.1934267
96	0xbda3d178	-0.07998937
97	0x3e932f91	0.28747228
98	0x3c689e40	0.014197886
99	0xbd278bd0	-0.04090482
100	0x3cef83b0	0.029237598
101	0xbdf09fda	-0.11749239
102	0xbdc2d268	-0.09512788
103	0x3ea98c11	0.33114675
104	0x3e66c666	0.2253662
105	0x3dce4578	0.10071844
106	0xbd103618	-0.035207838
107	0x3e61d1d2	0.22052696
108	0xbcb19a70	-0.021680087
109	0xbd02eb18	-0.031962484
110	0x3e36ea0e	0.17862722
111	0xbdc3cd04	-0.09560588
112	0xbe92facb	-0.28706965
113	0x3cf58ff0	0.029975861
114	0x3db8c9a0	0.09022832
115	0x3dff0d28	0.12453681
116	0xbe291a0c	-0.16513842
117	0xbe95ed5c	-0.29282653
118	0x3e4360c2	0.19079879
119	0x3c011c80	0.00788033
120	0x3ea95c83	0.33078393
121	0x3d49a0a0	0.04922545
122	0x3e988b39	0.29793718
123	0x3e9ae0c9	0.30249622
124	0x3e7adc1a	0.24498025
125	0xbea3567e	-0.31901926
126	0x3e6c8ae2	0.23099855
127	0xbe8e280e	-0.27764934
128	0xbf4866c5	-0.78281814
129	0x3f64d2f3	0.8938438
130	0x3f802eb3	1.0014251
131	0x3edcfc6b	0.4316133
132	0x3e785ad8	0.24253404
133	0x3fa1d089	1.2641765
134	0xbf2d4897	-0.6768889
135	0xbf3ed2b0	-0.74540234
136	0x3fa1c0c7	1.2636956
137	0xbf8db863	-1.1071895
138	0xbf42920b	-0.76004094
139	0xbf55a8c3	-0.83460635
140	0xbf2c01b7	-0.67190117
141	0xbf8c3265	-1.0952879
142	0x3ec5b02c	0.3861097
143	0x3f99a3b4	1.2003083
144	0x3f380d4f	0.7189531
145	0xbf40b084	-0.7526934
146	0xbf8af580	-1.0856171
147	0xbef0b991	-0.47016576
148	0xbf553d63	-0.83296794
149	0xbfa2e8d1	-1.27273
150	0x3f2398cc	0.63905025
151	0x3f2da89f	0.6783542
152	0xbf8d0c94	-1.1019464
153	0x3f801b99	1.0008422
154	0x3f11a629	0.56894165
155	0x3e87781e	0.2645883
156	0x3dbae4bb	0.09125658
157	0x3f366b14	0.7125714
158	0xbef70639	-0.48246935
159	0xbee880fc	-0.45410907
160	0xbf3ae442	-0.73004544
161	0x3f6d93a0	0.9280338
162	0x3f4887f1	0.7833243
163	0x3f3313de	0.6995219
164	0x3ebe8211	0.37208608
165	0x3f6c0f63	0.9221098
166	0xbeeba8ee	-0.4602732
167	0xbf67842a	-0.9043604
168	0xbf857426	-1.0426071
169	0x3f256745	0.646107
170	0x3f1382d3	0.57621497
171	0x3f4215b1	0.7581435
172	0x3f161160	0.5862026
173	0x3f7e56bd	0.993511
174	0xbe48cf0c	-0.19610232
175	0xbf04d303	-0.5188448
176	0x3f6d23da	0.9263283
177	0xbf5c8dbb	-0.86153764
178	0xbec08b7d	-0.3760642
179	0xbeea6af1	-0.45784715
180	0xbf48260b	-0.7818305
181	0xbf87abe1	-1.0599328
182	0x3e7f9d2f	0.24962305
183	0x3f8f0fa4	1.1176648
184	0x3fa4f9e3	1.2888759
185	0xbf88cce7	-1.0687531
186	0xbf4caaaf	-0.7994794
187	0xbf82e715	-1.0226771
188	0xbed676c0	-0.41887474
189	0xbf996ae2	-1.1985743
190	0x3dde93ee	0.10868059
191	0x3f680a2a	0.9064051
192	0xbec98f0b	-0.39366946
193	0x3f7adea0	0.9799595
194	0x3f2cf276	0.67557466
195	0x3f358a04	0.7091372
196	0x3f3e1f1b	0.74266213
197	0x3e1e0a2d	0.15433569
198	0xbed0f8a6	-0.40814704
199	0xbf44d58a	-0.76888335
200	0xbe656331	-0.2240112
201	0x3f3789e4	0.7169478
202	0x3e853fc1	0.26025203
203	0x3f42807b	0.75977296
204	0x3ef8defe	0.4860763
205	0xbcc690ce	-0.02423897
206	0xbf2c92b0	-0.6741133
207	0xbde90ad4	-0.113790184
208	0x3d72dffe	0.059295647
209	0x3d8252b3	0.0636343
210	0x3e001ef8	0.12511814
211	0x3e27d8ca	0.16391292
212	0x3f05e04b	0.5229537
213	0xbcc92188	-0.024552122
214	0xbd7ad7c8	-0.06124094
215	0xbcce0a1d	-0.025151307
216	0x3f48e1bc	0.78469443
217	0xbe721b51	-0.23643233
218	0xbe150b5d	-0.14555116
219	0xbefd317c	-0.49451816
220	0xbdc4c066	-0.096070096
221	0xbf59c2c7	-0.8506283
222	0x3e38880b	0.18020646
223	0x3f4e5930	0.8060484
224	0x3ec9c6ab	0.39409384
225	0x3d8c61ce	0.06854592
226	0xbd67a03e	-0.056549303
227	0x3df16ce6	0.11788349
228	0x3f2dd0d3	0.67896765
229	0xbf158510	-0.5840616
230	0xbef12089	-0.47095135
231	0x3ecb2ae4	0.3968116
232	0xbf1fdb87	-0.6244435
233	0x3efdd4eb	0.49576506
234	0x3eba6244	0.36403096
235	0x3e87745b	0.2645596
236	0x3ea180b9	0.3154352
237	0xbddd624b	-0.108097635
238	0xbde5c246	-0.11218695
239	0xbe5e4d1b	-0.21709101
240	0x3f385272	0.720008
241	0xbf05f35e	-0.52324474
242	0xbf3695af	-0.7132215
243	0xbf2b84e9	-0.6699968
244	0xbe9e9073	-0.3096958
245	0xbf4e64fd	-0.80622846
246	0x3e13e7a7	0.14443837
247	0x3f6ff9a3	0.9374029
248	0xbf5df8e6	-0.86707914
249	0x3f0d58fa	0.5521389
250	0x3ec032fb	0.37538895
251	0x3f4bdffc	0.7963865
252	0x3f623e28	0.8837609
253	0xbe6f4c4e	-0.23368952
254	0xbea702a7	-0.3261921
255	0xbe077c8c	-0.13231105

lstm.weight_hh_l1 f4 [32, 8]
0	0xbe4eee90	-0.20208192
1	0xbdfec84e	-0.12440549
2	0xbe64ba7c	-0.22336763
3	0x3e509a8e	0.20371458
4	0xbda27b90	-0.07933724
5	0x3daf2604	0.08552173
6	0x3e8cc6ed	0.27495518
7	0x3d66d9b8	0.056359977
8	0x3ea23497	0.31680748
9	0x3db513b0	0.08841646
10	0x3e0af362	0.13569406
11	0x3e9b840b	0.30374178
12	0x3e3032a6	0.17206821
13	0x3ddff18c	0.10934743
14	0x3e7ec0aa	0.24878183
15	0xbe0987ff	-0.13430785
16	0x3da296a4	0.07938889
17	0xbd1c0a48	-0.038095742
18	0xbd6aea98	-0.057352632
19	0x3eacacbf	0.33725545
20	0xbdcbfca0	-0.09960294
21	0xbeb2da32	-0.34932095
22	0x3d50f040	0.05101037
23	0xbc9e1620	-0.01929766
24	0x3db1823c	0.08667418
25	0x3e829f35	0.2551209
26	0x3e406d32	0.18791655
27	0xbe9595f5	-0.2921597
28	0x3e8be17d	0.2732047
29	0x3dc91740	0.09818888
30	0xbe4dec04	-0.20109564
31	0xbd82137c	-0.063513726
32	0xbe90c8e8	-0.2827828
33	0xbe0d9a23	-0.1382833
34	0x3e9e16d3	0.30876788
35	0xbe860fa3	-0.26183805
36	0x3d797e08	0.06091121
37	0xbe78e14e	-0.24304697
38	0x3e8433ab	0.2582067
39	0xbd0a8dc0	-0.03382659
40	0xbdf46288	-0.11932856
41	0x3e66222a	0.2247397
42	0xbe903d8c	-0.28171957
43	0xbeaa4eb6	-0.33263177
44	0xbdff9502	-0.12479593
45	0x3e88f669	0.26750496
46	0x3d4460e0	0.04794395
47	0xbbadd580	-0.005304992
48	0x3e5abe4a	0.21361652
49	0x3e85bf4d	0.26122513
50	0x3dba8cb0	0.09108865
51	0xbd854cb4	-0.065087706
52	0x3e97f871	0.29681733
53	0x3e26cf42	0.1629
54	0x3d977a60	0.07396388
55	0x3d294198	0.04132232
56	0x3e994c41	0.2994099
57	0xbe862790	-0.2620206
58	0x3e9234a5	0.2855579
59	0xbda6beb4	-0.081418425
60	0xbdefde86	-0.11712365
61	0x3e93ffa1	0.28905967
62	0x3d347d20	0.04406464
63	0x3e6148f2	0.22000483
64	0xbe828eac	-0.25499475
65	0xbe75afe6	-0.23992881
66	0xbe993f0d	-0.29930916
67	0xbea6601a	-0.32495195
68	0x3e98eadd	0.29866686
69	0x3e55aa96	0.20865855
70	0x3de345d8	0.11097306
71	0xbdf149e8	-0.117816746
72	0xbe64e763	-0.22353892
73	0xbe917334	-0.28408206
74	0x3e2b2ea6	0.16717014
75	0x3ea9276b	0.33037886
76	0x3d6747d0	0.05646497
77	0xbd89bb38	-0.06725162
78	0xbe813e77	-0.2524297
79	0xbe88cc68	-0.2671845
80	0xbe6367bc	-0.2220754
81	0x3e5a97c2	0.21346954
82	0x3d5f1638	0.05446455
83	0x3e52d9ce	0.20590898
84	0x3d3b2f60	0.045699477
85	0xbe26d21f	-0.16291092
86	0x3dc71068	0.09719926
87	0xbe940b5e	-0.28914922
88	0x3ea66eb7	0.32506344
89	0x3e2cf1f2	0.1688917
90	0xbe21e946	-0.15811643
91	0xbd6a2858	-0.05716738
92	0x3d6189b0	0.05506295
93	0x3de73ebc	0.112912625
94	0x3dfc02d0	0.12305224
95	0x3e6ef90a	0.23337188
96	0x3e6c6922	0.2308698
97	0xbe700698	-0.23440015
98	0xbe39d628	-0.181481
99	0xbd7b1048	-0.061294824
100	0x3e1a7ac6	0.15085897
101	0xbb1c8680	-0.002388388
102	0x3e532746	0.2062045
103	0xbe8804c6	-0.26566142
104	0x3c59d980	0.013296485
105	0x3e1f19ee	0.15537235
106	0x3e43942e	0.19099495
107	0x3daa37a8	0.08311397
108	0x3e031424	0.12800652
109	0x3de7b3c8	0.113135874
110	0xbd6b6f20	-0.057479024
111	0xbeb04073	-0.3442417
112	0x3dedce6c	0.116116375
113	0x3a302200	0.00067189336
114	0x3d733c88	0.0593839
115	0x3d933e88	0.07189661
116	0x3e9d0b37	0.3067262
117	0x3e091cc2	0.13389876
118	0x3df60f00	0.1201458
119	0xbe10b778	-0.14132488
120	0xbe1a5f6f	-0.15075468
121	0xbe7b151a	-0.24519768
122	0x3e5b8942	0.21439078
123	0x3e370fe6	0.17877159
124	0xbe85244f	-0.26004264
125	0x3db04228	0.08606368
126	0xbe16ad43	-0.14714532
127	0x3dee0d70	0.11623657
128	0x3cfb9b10	0.030713588
129	0xbe9a5332	-0.30141598
130	0x3e620fde	0.22076365
131	0x3e9ad919	0.30243757
132	0xbe9d15a3	-0.3068057
133	0x3ea652bb	0.32484993
134	0x3e4fdb86	0.20298585
135	0xbde27492	-0.1105739
136	0xbd565658	-0.052328438
137	0xbd0d2840	-0.034462214
138	0xbcceaad0	-0.025227934
139	0x3ea41411	0.3204656
140	0xbe86e616	-0.26347417
141	0x3e3b2aca	0.18278041
142	0xbe6eaec4	-0.23308855
143	0xbe79ff8c	-0.2441389
144	0x3e4aac3e	0.19792268
145	0xbda9e340	-0.082952976
146	0xbaa05300	-0.0012231767
147	0x3e8d557d	0.27604285
148	0x3dac8448	0.08423668
149	0x3c3503e0	0.011048287
150	0x3dce017c	0.10058877
151	0x3e8c870f	0.27446792
152	0xbe68a7f5	-0.2272032
153	0xbdd8993c	-0.10576102
154	0x3eb41879	0.3517492
155	0xbe9b47f6	-0.3032834
156	0x3b062d00	0.00204736
157	0xbe96be34	-0.29441988
158	0x3cb4f000	0.022087097
159	0x3e042b72	0.12907198
160	0x3ea82a97	0.32844993
161	0xbeaf9eb0	-0.34300756
162	0x3e332622	0.17495015
163	0x3e44363e	0.19161317
164	0x3d7547d8	0.05988297
165	0x3e975449	0.29556492
166	0x3cea65e0	0.02861303
167	0x3e00a57a	0.12563124
168	0xbeafc0bf	-0.3432674
169	0xbe3d112c	-0.18463582
170	0xbde18bd2	-0.11012997
171	0x3e49344e	0.19648859
172	0x3de5f9b4	0.11229268
173	0xbe6149e2	-0.2200084
174	0x3e2a96e6	0.16659126
175	0x3d387ca0	0.045040727
176	0xbace2a00	-0.001572907
177	0x3e637b1e	0.22214934
178	0xbe58220b	-0.21106736
179	0x3e2d9faa	0.16955438
180	0x3e046c00	0.12931824
181	0xbd58e570	-0.052953184
182	0x3e07a474	0.13246328
183	0xbe97f19b	-0.29676518
184	0x3d9ce5ac	0.07660994
185	0x3d038418	0.032108396
186	0xbea1e970	-0.3162341
187	0x3e801821	0.2501841
188	0xbe690f87	-0.2275983
189	0xbe398d03	-0.18120198
190	0x3e0d9a26	0.13828334
191	0x3e930f21	0.2872248
192	0x3daa9750	0.08329642
193	0x3e75f906	0.24020776
194	0x3e27cb8a	0.16386238
195	0xbe4fb4c3	-0.20283799
196	0x3c5acf00	0.013355017
197	0xbe330ac0	-0.1748457
198	0xbe0858d8	-0.13315141
199	0xbe88b151	-0.26697782
200	0x3d5e2f98	0.054244608
201	0xbe54fb26	-0.2079893
202	0x3ea3078b	0.31841692
203	0x3e8c8703	0.27446756
204	0xbd3fba88	-0.04680875
205	0xbe15c601	-0.14626314
206	0x3e253ae2	0.16135743
207	0xbe17c973	-0.1482294
208	0x3e049ec8	0.12951195
209	0x3e8ef205	0.2791902
210	0x3e2b2a22	0.16715291
211	0x3e6ea492	0.23304966
212	0xbcc17d90	-0.023619443
213	0xbd496320	-0.0491668
214	0xbe67ef18	-0.22649801
215	0x3ea4a31d	0.32155696
216	0xbe946518	-0.28983378
217	0x3e90e03f	0.28296086
218	0x3e9ca2a7	0.30592844
219	0xbea198d4	-0.3156191
220	0xbbb67dc0	-0.00556919
221	0x3e3ebb36	0.18626103
222	0x3e460f86	0.19341859
223	0x3e39b93e	0.1813707
224	0xbdbfe304	-0.09369472
225	0x3e11901e	0.14215133
226	0x3eadbccb	0.339331
227	0xbeb3f81c	-0.3515023
228	0xbeb1f6ac	-0.34758508
229	0xbdc02560	-0.09382129
230	0xbdf8d614	-0.12150207
231	0xbd7195b0	-0.058980644
232	0x3dcd05cc	0.10010871
233	0x3e60b52a	0.21944109
234	0xbe820fb2	-0.254026
235	0x3e90b2e7	0.28261492
236	0xbe527eeb	-0.20556228
237	0x3cfe89d0	0.031071573
238	0x3d5d24c8	0.053990155
239	0xbe1ae563	-0.15126567
240	0xbe5d905f	-0.21637104
241	0x3e06dad8	0.1316942
242	0xbe88eaea	-0.26741725
243	0xbe558308	-0.20850766
244	0x3cd55d60	0.026045501
245	0x3e78849a	0.24269333
246	0x3e68be9a	0.22728959
247	0xbc746480	-0.014916539
248	0xbb98eb40	-0.004666716
249	0xbea0a6dc	-0.31377304
250	0x3e39e7d2	0.18154839
251	0xbe69496c	-0.22781914
252	0x3ca69610	0.020335227
253	0x3c56c220	0.013107806
254	0x3be431c0	0.0069639385
255	0xbeb1e1ce	-0.34742588

lstm.bias_ih_l1 f4 [32]
0	0x3eebfbea	0.46090633
1	0x3f5cd03e	0.8625525
2	0x3f26608b	0.6499106
3	0x3ebb5b68	0.36593175
4	0x3f76a50f	0.9634561
5	0x3eee46fb	0.4653853
6	0x3ee9dfb7	0.45678493
7	0x3fb73130	1.4311886
8	0xbeb2fcdc	-0.3495854
9	0x3d067ea8	0.032835633
10	0x3d3abfc0	0.045593023
11	0xbe97333b	-0.29531273
12	0xbdb1c3c8	-0.086799204
13	0x3ea07e1b	0.3134621
14	0xbea61d91	-0.32444432
15	0x3e849279	0.25893
16	0x3d225344	0.03963019
17	0x3e9757f2	0.29559284
18	0x3ee53149	0.44764164
19	0xbf3069f1	-0.68911654
20	0xbe83b1e6	-0.25721663
21	0xbe820891	-0.2539716
22	0x3ec213ca	0.37905723
23	0x3e0d94d1	0.138263
24	0x3f1d5949	0.61464363
25	0x3f86bd0b	1.0526441
26	0x3f7f1955	0.9964803
27	0x3ee7dead	0.45287076
28	0x3f6c1dae	0.9223279
29	0x3ea870a9	0.32898453
30	0x3ecd6b63	0.40120992
31	0x3f71c7b7	0.94445366

lstm.bias_hh_l1 f4 [32]
0	0x3f1168f5	0.56800777
1	0x3f7eae9d	0.9948519
2	0x3f8947c3	1.0725025
3	0x3e8c3e1d	0.2739114
4	0x3f451fbd	0.77001554
5	0x3eb09b3a	0.34493428
6	0x3ed92223	0.42408857
7	0x3f8737e3	1.056393
8	0x3d97726c	0.07394871
9	0xbe947100	-0.28992462
10	0xbe2a12f0	-0.16608787
11	0x3d8a31b4	0.06747761
12	0xbe9c7fe1	-0.30566314
13	0x3dd3cf38	0.10342258
14	0x3e7a187a	0.244234
15	0xbdf9a5c0	-0.121898174
16	0xbe02c2eb	-0.12769668
17	0x3eb1b720	0.34710026
18	0x3dd0c056	0.10192935
19	0xbcb51e11	-0.022109063
20	0xbe9a5fb1	-0.30151132
21	0xbdc9e3c4	-0.09857896
22	0x3f02361b	0.5086381
23	0x3ebee4be	0.3728389
24	0x3ed755e2	0.4205771
25	0x3fa481dd	1.2852131
26	0x3f84e104	1.0381169
27	0x3dd6fa8e	0.10497008
28	0x3f5a7b70	0.853446
29	0x3eeb513f	0.45960423
30	0x3f2dde8a	0.6791769
31	0x3f814cda	1.0101578

lstm.weight_ih_l2 f4 [32, 8]
0	0x3f7e2460	0.99274254
1	0xbf081387	-0.53154796
2	0xbe11f241	-0.14252569
3	0xbe6a1750	-0.22860456
4	0x3efa5062	0.48889452
5	0x3ee6cee0	0.45079708
6	0x3ee21c96	0.44162434
7	0xbf1e5589	-0.61849266
8	0xbe4b04f8	-0.19826114
9	0x3f3159f8	0.69277906
10	0x3f1a4400	0.6026001
11	0xbf56f704	-0.83970666
12	0xbf3d200c	-0.73877025
13	0xbf386c70	-0.7204046
14	0x3f18109b	0.5940034
15	0x3f55782b	0.83386487
16	0x3ec96bc0	0.3934002
17	0x3d62d4ec	0.05537884
18	0xbb7a0992	-0.0038152677
19	0xbeba03f8	-0.36331153
20	0x3db2435f	0.08704256
21	0x3f0b7fc3	0.54491824
22	0x3f8e376d	1.1110665
23	0x3e67c746	0.2263461
24	0x3f8775cb	1.0582823
25	0xbe8c4258	-0.27394366
26	0x3cd5c71a	0.026095916
27	0xbee27ffa	-0.44238263
28	0xbe6c1e6a	-0.23058477
29	0x3eaeb586	0.34122866
30	0x3f47de95	0.7807401
31	0xbee69ce5	-0.45041576
32	0x3f107557	0.56429046
33	0xbee85ebd	-0.4538478
34	0xbe4632ec	-0.19355363
35	0xbef13f8a	-0.4711879
36	0xbe9e26e1	-0.30889037
37	0x3f139ebb	0.5766408
38	0x3f917260	1.136303
39	0xbf0435b9	-0.51644474
40	0x38c25c7f	9.2678696e-05
41	0x3eaed7f0	0.34149122
42	0x3f14c230	0.58108807
43	0xbd4cfdb7	-0.05004665
44	0xbece3786	-0.40276736
45	0xbe34dd69	-0.17662586
46	0x3f21e4c7	0.6323971
47	0x3ed4b75a	0.41546136
48	0xbe79d391	-0.24397112
49	0x3f910a82	1.1331332
50	0x3f419020	0.7561054
51	0xbee15a0d	-0.44014016
52	0xbf0482a0	-0.5176182
53	0xbefd2db5	-0.49448934
54	0x3f36910d	0.7131508
55	0x3f98658a	1.1905987
56	0x3ee6151d	0.44937983
57	0xbf6ac843	-0.91711825
58	0xbe87d079	-0.2652624
59	0x3d49d574	0.04927583
60	0x3f384dbb	0.7199361
61	0x3dd0868a	0.10181911
62	0xbe1ef653	-0.15523653
63	0xbf89125a	-1.0708725
64	0x3e95a0c9	0.29224232
65	0x3dbac354	0.09119287
66	0x3e6f8212	0.23389462
67	0x3e691642	0.22762397
68	0x3cac6910	0.021046191
69	0x3e859277	0.26088306
70	0x3e46e09a	0.19421616
71	0x3df0e6bc	0.11762759
72	0xbbd8cf00	-0.006616473
73	0xbcd11d70	-0.025526732
74	0xbe8fa111	-0.2805257
75	0x3eb0b673	0.34514198
76	0xbcf7a250	-0.030228764
77	0xbe062372	-0.13099459
78	0xbe9dd45b	-0.30826077
79	0x3dec5ac4	0.1154075
80	0x3ea7e15b	0.3278912
81	0xbbc7cd40	-0.0060974658
82	0xbd2fa4a8	-0.042881638
83	0x3e38d54e	0.1805012
84	0x3e153434	0.14570695
85	0xbd24d820	-0.040245175
86	0xbead8a8a	-0.3389476
87	0x3e12fb26	0.14353618
88	0xbe0272d7	-0.1273912
89	0x3d11e138	0.035615176
90	0x3d80aa24	0.06282452
91	0xbdb61430	-0.08890569
92	0xbdbfa334	-0.093573004
93	0xbe80e77f	-0.25176618
94	0xbeb14995	-0.3462645
95	0xbd1b5ea8	-0.037932068
96	0x3e29b182	0.1657162
97	0xbe7765e0	-0.24159956
98	0x3cb60ce0	0.022222936
99	0xbd1548f8	-0.03644654
100	0xbead7063	-0.33874807
101	0xbd95f32c	-0.07321772
102	0xbe6b4b58	-0.2297796
103	0xbe6f7b51	-0.23386885
104	0x3dab02e0	0.08350158
105	0xbe087ba6	-0.13328418
106	0xbe8f29d7	-0.2796161
107	0xbdcab418	-0.098976314
108	0x3e519966	0.20468673
109	0x3d6ccba8	0.05781141
110	0x3d9e8174	0.07739535
111	0x3e59b9e2	0.21262315
112	0xbdcf89f4	-0.10133734
113	0x3d3f6ef8	0.046736687
114	0xbdb87ffc	-0.09008786
115	0xbe0ae3fb	-0.1356353
116	0xbdb5d1a8	-0.088778794
117	0xbde1ccac	-0.11025366
118	0x3d39b7e0	0.045341372
119	0x3e3bb9a2	0.18332532
120	0x3e32fd82	0.17479518
121	0xbd977090	-0.073945165
122	0x3d97676c	0.07392773
123	0xbe914538	-0.28373122
124	0xbe0c9b5f	-0.13731144
125	0xbe00aa01	-0.12564851
126	0x3e8894b5	0.26675954
127	0x3e89632d	0.26833478
128	0x3f052964	0.5201628
129	0xbfb481ab	-1.4102072
130	0xbf69e155	-0.91359454
131	0x3ec952b6	0.39320916
132	0x3f812de4	1.009213
133	0x3f4e6f56	0.80638635
134	0xbf7bca3e	-0.9835547
135	0xbf9f8db8	-1.2465124
136	0x3f39e56e	0.72615707
137	0xbf69de0e	-0.91354454
138	0xbf6c6f14	-0.9235699
139	0x3f4c2a75	0.79752284
140	0x3f5f8fd6	0.8732885
141	0x3f347a45	0.7049907
142	0xbf4e4fe7	-0.8059067
143	0xbf80af74	-1.0053544
144	0x3f6ca926	0.924456
145	0xbfaf82d3	-1.3711799
146	0xbee38a9b	-0.44441685
147	0x3f3add2c	0.7299373
148	0x3f2c14e4	0.67219377
149	0x3f39a61d	0.72519094
150	0xbeb2f902	-0.34955603
151	0xbfa8e9e9	-1.3196384
152	0x3f80e6c4	1.0070424
153	0xbfa970e0	-1.3237572
154	0xbf016ae3	-0.5055372
155	0x3f129a3a	0.5726658
156	0x3f394428	0.72369623
157	0x3f0c75c3	0.5486719
158	0xbee3f785	-0.4452478
159	0xbf9fbf88	-1.2480326
160	0x3f68d388	0.9094777
161	0xbf7562c5	-0.95853835
162	0xbf47ac99	-0.7799774
163	0x3f36c13b	0.71388596
164	0x3f8a57d3	1.0808052
165	0x3ee025a5	0.4377872
166	0xbf0acf58	-0.5422263
167	0xbfb24a50	-1.3928928
168	0x3f5765de	0.8413981
169	0xbf887c7e	-1.0662992
170	0xbed372aa	-0.4129842
171	0x3f079324	0.52958894
172	0x3f4cd8c4	0.8001826
173	0x3e96773c	0.29387844
174	0xbee37e13	-0.44432124
175	0xbf9f1483	-1.2428135
176	0x3f278b1f	0.65446657
177	0xbf830baf	-1.023794
178	0xbf4edb5c	-0.80803466
179	0x3ebabc4d	0.36471787
180	0x3fa268b3	1.2688202
181	0x3eafb826	0.34320182
182	0xbed18ebd	-0.40929213
183	0xbf963f65	-1.1738096
184	0xbefbb4a3	-0.49161252
185	0x3f715881	0.9427567
186	0x3f4e3c2a	0.80560553
187	0xbef5e2ab	-0.48024496
188	0xbf3fbaac	-0.74894214
189	0xbf164ff4	-0.5871575
190	0x3f5d3824	0.8641379
191	0x3f7eac35	0.9948152
192	0x3ec34a4a	0.38142616
193	0xbf5c1133	-0.85963744
194	0xbecc9305	-0.39955917
195	0xbeb693f0	-0.35659742
196	0x3dbb32db	0.09140559
197	0x3f403c94	0.75092435
198	0x3e9d048d	0.30667534
199	0xbf6f1d0c	-0.93403697
200	0xbc021c9f	-0.007941394
201	0x3f5c91f9	0.86160237
202	0x3f7b1ea4	0.9809363
203	0xbf287656	-0.65805566
204	0xbf607462	-0.87677586
205	0xbe1242b8	-0.14283264
206	0x3f18323e	0.59451663
207	0x3f55c4c1	0.8350335
208	0x3e2aab75	0.16666968
209	0x3e8e204d	0.2775902
210	0xbe4abd70	-0.19798827
211	0xbed961ea	-0.42457515
212	0xbe5420fb	-0.20715706
213	0x3f04803f	0.5175819
214	0x3f8ab2ab	1.0835775
215	0xbbc79b55	-0.006091515
216	0x3ef12bfd	0.47103873
217	0xbf4d9097	-0.8029875
218	0xbe26b81d	-0.16281171
219	0xbf27447f	-0.6533889
220	0xbcd1c1bd	-0.025605077
221	0x3ecabe88	0.3959849
222	0x3f618130	0.8808775
223	0xbe35e3be	-0.17762658
224	0x3ef3f3ca	0.47646934
225	0xbe826bd7	-0.254729
226	0x3c76f0ff	0.015072106
227	0xbed30b24	-0.41219437
228	0xbd397b30	-0.045283496
229	0x3ecb9ffa	0.3977049
230	0x3f165668	0.58725595
231	0xbf09dd4a	-0.53853285
232	0xbe3006a3	-0.17190032
233	0x3eded36c	0.43520677
234	0x3f1b57ce	0.60680854
235	0xbd98b03d	-0.0745549
236	0xbf54e9e9	-0.8316942
237	0xbe8897c9	-0.26678303
238	0x3f5219b5	0.82070476
239	0x3f260166	0.64845884
240	0xbe8ae258	-0.27125812
241	0x3faa522d	1.3306328
242	0x3f125e25	0.57174903
243	0xbf2c2e6f	-0.6725835
244	0xbf95b113	-1.1694664
245	0xbf450b91	-0.76970774
246	0x3f5f8be8	0.87322855
247	0x3f9b2cfd	1.2123104
248	0x3ee0081b	0.43756184
249	0xbf81b68b	-1.0133833
250	0xbeddc40d	-0.43313637
251	0x3ea2a323	0.31765088
252	0x3eeceaf0	0.46272993
253	0x3ea76455	0.32693735
254	0xbea3c8c7	-0.31989118
255	0xbf72d38a	-0.94854033

lstm.weight_hh_l2 f4 [32, 8]
0	0xbcabbaa0	-0.020963013
1	0x3e491c46	0.19639692
2	0x3e9e25bb	0.3088816
3	0x3cb4e6a0	0.022082627
4	0xbe2e6efc	-0.17034525
5	0xbe9b535f	-0.30337045
6	0xbe83b062	-0.25720507
7	0x3c1d9ce0	0.009619921
8	0x3e89eab9	0.26936892
9	0x3d3f3a08	0.046686202
10	0x3e6b27da	0.22964421
11	0x3e2c3cfe	0.16820142
12	0xbdb4ec2c	-0.08834109
13	0x3e8aac1f	0.27084443
14	0x3e0561d0	0.13025594
15	0xbea1b8f9	-0.31586435
16	0xbe438a5d	-0.1909575
17	0xbe50e2e5	-0.20399053
18	0x3e8375df	0.25675866
19	0x3c902470	0.0175955
20	0xbe1a45c8	-0.15065682
21	0x3e06d456	0.13166937
22	0x3c41ee20	0.011836559
23	0xbe9b391a	-0.30317003
24	0x3d7f8730	0.062384784
25	0x3e01fa00	0.12693024
26	0xbdeb2a02	-0.11482622
27	0x3e930cff	0.28720853
28	0xbe981e70	-0.29710722
29	0xbe84bc48	-0.25924897
30	0x3e0184a0	0.12648249
31	0x3e59624a	0.212289
32	0xbe671f9a	-0.22570649
33	0xbe947cab	-0.29001364
34	0x3e0cdb8a	0.13755623
35	0x3e24acce	0.16081545
36	0x3d1a85c0	0.03772521
37	0xbea90e56	-0.3301875
38	0x3e05e00a	0.13073745
39	0xbe6b324c	-0.22968405
40	0xbd615450	-0.055012047
41	0x3e8fbf11	0.2807546
42	0xbd63e798	-0.055640787
43	0xbd856844	-0.06514028
44	0xbe16ddf3	-0.14733104
45	0x3e437f36	0.19091496
46	0x3eaca42f	0.33719012
47	0xbe70ceb2	-0.23516348
48	0x3ea76421	0.3269358
49	0x3e3d0162	0.18457559
50	0xbe58adc1	-0.21160032
51	0xbe110a5d	-0.1416411
52	0x3e8819bd	0.26582137
53	0x3e86f33f	0.26357457
54	0x3d59b2b8	0.053148955
55	0xbe7c8db9	-0.24663438
56	0x3e7aff6e	0.24511501
57	0xbeb2eb8f	-0.34945342
58	0xbe6e65ee	-0.2328107
59	0x3ead56f7	0.3385541
60	0xbe9baf65	-0.30407253
61	0xbcc93e50	-0.024565846
62	0xbe87e7ae	-0.26543945
63	0x3e316b62	0.1732612
64	0xbe0e9381	-0.13923456
65	0x3da62ad0	0.081136346
66	0xbe4ff094	-0.20306617
67	0xbc8c4c00	-0.017126083
68	0xbe54bb05	-0.20774467
69	0xbe206b1d	-0.1566586
70	0xbeaf9f2b	-0.34301123
71	0xbe3f7c69	-0.18699802
72	0xbe82d5d3	-0.2555376
73	0x3dc24bf8	0.09487146
74	0x3c2712c0	0.010197341
75	0xbe916513	-0.28397426
76	0xbe8e32a3	-0.27773008
77	0xbb99dcc0	-0.004695505
78	0x3d957dc0	0.072993755
79	0xbc148460	-0.009064764
80	0xbca6ae10	-0.020346671
81	0x3e56707e	0.2094135
82	0xbe9281c1	-0.2861462
83	0xbd038520	-0.03210938
84	0x3d6ef760	0.058341384
85	0x3c3251e0	0.010883778
86	0x3e17d7b2	0.14828375
87	0xbe472474	-0.194475
88	0xbc4ed8a0	-0.01262489
89	0xbe72c98c	-0.23709697
90	0xbe647d98	-0.22313535
91	0x3cbf0b50	0.023320824
92	0xbda9ba34	-0.082874686
93	0xbe10c24e	-0.14136621
94	0xbe809ad8	-0.25118136
95	0x3d0f5030	0.034988582
96	0xbea67c78	-0.32516837
97	0x3e2a661e	0.16640517
98	0xbe4aa3e5	-0.19789083
99	0xbde1abd0	-0.11019099
100	0x3e89651b	0.2683495
101	0x3e047e14	0.1293872
102	0xbe74640e	-0.23866293
103	0xbdf2f00e	-0.11862193
104	0xbe47bfdd	-0.19506784
105	0x3e673f62	0.22582772
106	0x3e983263	0.29725942
107	0x3ea86675	0.3289067
108	0x3dcaa104	0.098939925
109	0xbc09d440	-0.008412421
110	0xbeaf5f8e	-0.3425259
111	0xbda03e28	-0.07824355
112	0x3e9ce9c9	0.30647114
113	0x3b5d8980	0.003380388
114	0x3e9c76b9	0.30559328
115	0x3ea0c31b	0.31398854
116	0x3e8aaac3	0.27083406
117	0x3dfb9fc4	0.12286332
118	0x3e14c25a	0.14527264
119	0x3e452362	0.19251779
120	0x3e391eca	0.18078151
121	0xbe0705f4	-0.13185865
122	0xbba0e180	-0.004909694
123	0xbea99758	-0.3312328
124	0x3ea4c84f	0.32184073
125	0xbe3862e4	-0.18006474
126	0x3e1fa4e6	0.15590248
127	0xbdadf464	-0.084938794
128	0xbe695ecf	-0.22790073
129	0x3d3e00a0	0.046387315
130	0x3e30059a	0.17189637
131	0xbc80b020	-0.015708983
132	0xbe3b49c3	-0.18289857
133	0xbe8ed1cd	-0.2789444
134	0x3e9a0393	0.30080852
135	0xbe9e36fb	-0.30901322
136	0xbeb0d24c	-0.34535444
137	0x3e21dcc6	0.15806875
138	0x3e1e0502	0.15431598
139	0xbd663380	-0.056201458
140	0x3e304236	0.17212757
141	0x3db3d218	0.087803066
142	0xbd63c6c0	-0.055609465
143	0x3e1f79b2	0.15573767
144	0x3e362aae	0.17789719
145	0x3d03f4a0	0.032215714
146	0x3e754b4e	0.23954508
147	0xbdbc90e4	-0.09207323
148	0x3e988be7	0.29794237
149	0xbd5eebc0	-0.054424047
150	0xbeaf504f	-0.34240958
151	0x3e1a58fa	0.15073004
152	0xbe94921d	-0.29017726
153	0xbe27b69e	-0.16378257
154	0x3e65137e	0.22370717
155	0xbe0c4665	-0.13698728
156	0xbe0f32e4	-0.13984257
157	0xbd35df58	-0.04440245
158	0xbe1e9fb2	-0.15490606
159	0xbd7163e0	-0.05893314
160	0xbe668943	-0.22513299
161	0xbe922c7c	-0.28549564
162	0x3d9032c8	0.07040936
163	0xbe846714	-0.25859892
164	0x3d4ad620	0.04952061
165	0xbd5392b0	-0.051653564
166	0xbeab241c	-0.33425987
167	0x3dd92f9c	0.10604784
168	0x3e8b299f	0.27180192
169	0xbe424cbe	-0.18974587
170	0x3e9d4247	0.30714628
171	0xbc44dd40	-0.012015641
172	0x3eb16b95	0.3465239
173	0xbda2095c	-0.079119414
174	0x3e0f9160	0.140203
175	0x3e8e0879	0.2774084
176	0xbe3fe82d	-0.18740912
177	0x3e8e50af	0.27795932
178	0x3e9d5493	0.30728588
179	0x3e9d5845	0.30731407
180	0xbdcc8510	-0.09986317
181	0xbe30137e	-0.17194936
182	0x3cd8a040	0.0264436
183	0xbe6047d2	-0.21902397
184	0x3c649da0	0.013953596
185	0x3dc8a354	0.09796777
186	0xbea8dd20	-0.32981205
187	0x3eaa66fd	0.332817
188	0xbd227978	-0.039666623
189	0x3e3410a2	0.1758447
190	0x3e992df9	0.29917887
191	0xbe90be83	-0.2827035
192	0xbeadf2fe	-0.3397445
193	0xbe63fbff	-0.22264098
194	0x3c800c10	0.015630752
195	0xbe20dbd2	-0.15708855
196	0xbc245300	-0.010029554
197	0x3defe174	0.11712924
198	0x3dcaef10	0.09908879
199	0x3d072cd8	0.03300175
200	0x3d0ecc80	0.034862995
201	0xbea0d8ca	-0.31415397
202	0x3c26a140	0.010170281
203	0xbe421158	-0.18951929
204	0xbe7e4d3e	-0.24834153
205	0xbc824d90	-0.015906125
206	0xbe489c94	-0.1959098
207	0x3d78e6c0	0.060766935
208	0xbd424e88	-0.047438174
209	0x3d7e7358	0.06212172
210	0x3e23c0d2	0.15991524
211	0xbddc7bea	-0.10765822
212	0xbd778658	-0.060430855
213	0x3e085db4	0.13316995
214	0xbeb057d1	-0.34442
215	0x3e902a71	0.2815738
216	0xbe8b74a2	-0.2723742
217	0xbe331a9d	-0.17490621
218	0x3d0b7980	0.03405142
219	0x3ea6f87f	0.32611462
220	0xbe75e138	-0.24011695
221	0x3c0dc300	0.008652449
222	0x3e8e43c1	0.27786067
223	0xbdf05392	-0.1173469
224	0x3d19df78	0.037566632
225	0x3ea1c3b9	0.31594637
226	0xbe305985	-0.17221649
227	0x3e07909a	0.13238755
228	0xbc976ab0	-0.01848349
229	0xbe82a563	-0.25516805
230	0x3c87e280	0.016587496
231	0xbe88fd61	-0.26755813
232	0xbd18b608	-0.037282974
233	0xbe5254d2	-0.20540169
234	0x3e9183eb	0.28420958
235	0x3e64d776	0.22347817
236	0x3db9a17c	0.09064004
237	0x3d629ec0	0.055327177
238	0xbe6f3142	-0.23358634
239	0x3e08b5b6	0.13350567
240	0xbd611b38	-0.0549576
241	0xbbca83c0	-0.0061802566
242	0x3ead3f03	0.33837137
243	0xbdc91fa0	-0.09820485
244	0x3e142856	0.14468512
245	0xbd9daba4	-0.076987535
246	0x3e928e17	0.2862403
247	0xbc99d170	-0.018776625
248	0x3e2bbb0a	0.16770568
249	0x3e614682	0.21999553
250	0x3e9cb2a3	0.3060504
251	0xbd49cf28	-0.049269825
252	0x3d55afb0	0.0521695
253	0xbe779012	-0.24176052
254	0x3c0563c0	0.008141458
255	0x3e6c0ad2	0.23051003

lstm.bias_ih_l2 f4 [32]
0	0x3f978880	1.1838531
1	0x3e1c4418	0.1526035
2	0x3f9283c3	1.144646
3	0x3f522079	0.820808
4	0x3f7edc56	0.99554956
5	0x3f728ee2	0.9474927
6	0x3f06b8e2	0.5262586
7	0x3f0229a5	0.50844795
8	0x3b5cd300	0.0033695102
9	0x3ea28fb3	0.3175026
10	0xbe7d87a6	-0.24758777
11	0xbd168938	-0.036751956
12	0x3e9145ff	0.28373715
13	0x3e7fb71e	0.24972197
14	0x3cce7c80	0.02520585
15	0xbdadfb20	-0.08495164
16	0xbcb57e96	-0.022155087
17	0xbe6fb79d	-0.23409887
18	0xbea1be24	-0.31590378
19	0xbdda8154	-0.10669199
20	0xbe4bcf30	-0.19903255
21	0xbe1ead78	-0.1549586
22	0xbedba337	-0.4289796
23	0xbe8668b9	-0.26251772
24	0x3f9abd17	1.2088956
25	0x3f2c9deb	0.67428464
26	0x3f73e7fc	0.95275855
27	0x3f870f8c	1.055162
28	0x3fb9447a	1.4474022
29	0x3ef94661	0.48686507
30	0x3f073c17	0.52826065
31	0x3eb432ed	0.35195103

lstm.bias_hh_l2 f4 [32]
0	0x3f3b238c	0.73101115
1	0x3e51a169	0.2047173
2	0x3f98afa5	1.1928602
3	0x3f991975	1.1960894
4	0x3fc17ef2	1.5116866
5	0x3f32bc71	0.6981879
6	0x3f3a80b5	0.7285264
7	0x3f1d6cc2	0.61494076
8	0xbd760ca0	-0.060070634
9	0x3e644b4e	0.22294351
10	0xbe4e3295	-0.20136483
11	0xbdd69db0	-0.10479295
12	0x3dcabf44	0.09899762
13	0x3d469788	0.048484355
14	0xbe7f213e	-0.24915025
15	0xbdc003b8	-0.09375709
16	0xbd419caa	-0.047268547
17	0xbe31eaa3	-0.17374663
18	0xbe0cdc14	-0.13755828
19	0xbe8d6d2a	-0.27622348
20	0xbd87c140	-0.066286564
21	0xbf0c13d5	-0.5471776
22	0xbe56c03c	-0.20971769
23	0xbe0df493	-0.13862829
24	0x3f1542cb	0.58305043
25	0x3e10141e	0.14070174
26	0x3f6cab1b	0.92448586
27	0x3f889cd8	1.0672865
28	0x3f6d6987	0.92739147
29	0x3eca173f	0.3947086
30	0x3e868129	0.26270416
31	0x3f362ead	0.7116497
