ModelSave3.pt (torch_old, 30998 bytes, 45 tensors)

lstm.weight_ih_l0 f4 [32, 8]
0.117571205 -1.0935899 0.5375677 -0.33898422 0.039725013 0.13953806 -0.1296385 -0.36635888
0.21270566 -0.61264735 0.08633525 0.08905 0.019258415 0.42223558 0.13389575 0.11903661
0.26204497 -0.29789028 0.58582926 -0.21320954 -0.068600215 -0.37534288 -0.6186027 0.46998712
0.17032503 -0.51711863 -0.18897104 0.5273799 -0.18341489 1.0659541 0.42703775 0.09592519
0.070703276 -0.96643835 0.19469991 0.1088489 0.08260513 0.80589545 0.1745779 0.27025956
-0.75230074 0.43188366 0.3279053 -0.5140452 0.41567847 -0.3263845 0.059784707 0.1418047
0.50808144 -1.0019804 0.51730454 0.32672718 0.019069351 0.19948722 -0.066103764 0.058745995
-0.16298243 -0.008022675 -0.35757667 0.5075785 0.4125511 0.2991755 0.5750774 0.20254037
-0.21168461 -0.1338159 0.06248346 -0.3093034 0.25554362 0.24237391 -0.04021269 0.3384966
-0.12325774 -0.086978525 -0.28389663 -0.15865709 -0.1161959 0.05154568 -0.115789905 0.28242162
-0.3142988 0.2820706 -0.19995488 -0.058646798 -0.06541267 0.10208371 0.344447 0.25189307
-0.24166197 -0.099191904 0.037638992 0.27996847 -0.26212448 0.12370238 0.07922715 0.32439688
-0.10889278 0.35012618 -0.2296153 0.03161931 0.19338557 0.0662913 0.067340046 0.12980947
-0.11289863 -0.3036062 -0.20709819 0.21839914 -0.043726057 0.19208947 0.2518644 0.3051559
0.1596764 -0.28090972 0.33355764 0.078419596 -0.16382328 0.00824818 0.033242404 0.3131803
0.26347396 -0.011349231 0.21877483 -0.17080326 0.28122374 -0.02082327 -0.07845628 0.2621816
-0.04557992 1.0488876 0.027708357 -0.5851095 -0.09257283 -0.75941503 -0.073396236 -0.16518751
0.16730124 -1.0789021 0.39568126 0.53630847 0.059983384 0.94334865 -0.034235172 0.21238965
-0.14686742 -0.7744903 0.34637955 0.85812324 0.19473857 0.6898251 0.11364535 0.38929403
0.22451787 -1.0261682 0.7099285 0.31611535 -0.060601164 0.9238663 -0.13303556 0.012418118
-0.15690552 -0.43305436 0.30734822 0.5086724 0.08301165 0.71837866 0.42401424 0.16395916
0.36096853 -0.86380225 -0.053572938 0.8849286 0.40789104 0.5623474 -0.17256704 0.15813193
0.13502902 0.31073496 0.56647134 -0.9571681 -0.26823458 -0.6406414 -0.4962659 -0.20958337
-0.14231746 1.3943924 -0.49868813 -0.17476723 -0.036224015 -0.81707263 0.10612704 -0.16846073
0.13775206 -1.1233045 0.4698265 0.023587717 0.1738845 0.057197597 -0.15358208 -0.34737256
-0.021128047 -0.803107 -0.12120448 0.13565172 0.26373976 0.48819506 0.2616101 0.08197952
0.28631008 -0.6631661 0.17507336 0.103030644 -0.07644471 -0.5808159 -0.6659948 0.4240893
-0.04401244 -0.8281037 -0.20645306 0.79739916 -0.10214413 0.64658344 0.640504 0.0035340583
0.44819942 -0.577163 -0.025380088 0.56647503 -0.13757466 1.0487711 0.10282067 0.20234412
-0.77971536 0.3246161 0.14086094 -0.30545574 0.4199323 -0.3930434 0.120690934 -0.20839603
0.5620754 -0.6780193 0.6126414 0.3752072 0.27929017 0.15201122 -0.12174068 -0.20652208
-0.107213706 0.41206443 -0.6735617 0.7220481 0.4750953 0.55308545 0.17654558 0.33301222
00000000: 2cc9 f03d c1fa 8bbf 099e 093f 578f adbe
00000010: b2b6 223d 11e3 0e3e f4bf 04be 6493 bbbe
00000020: 83cf 593e 75d6 1cbf 89d0 b03d d95f b63d
00000030: d3c3 9d3c 432f d83e f81b 093e 77c9 f33d
00000040: c22a 863e 1385 98be e8f8 153f 9a53 5abe
00000050: 457e 8cbd f12c c0be bf5c 1ebf 27a2 f03e
00000060: af69 2e3e e361 04bf a081 41be 5e02 073f
00000070: 1dd1 3bbe 2f71 883f b1a4 da3e 6d74 c43d
00000080: e1cc 903d 8168 77bf 6a5f 473e 2cec de3d
00000090: e12c a93d 2a4f 4e3f 8dc4 323e 765f 8a3e
000000a0: c896 40bf db1f dd3e 34e3 a73e 7798 03bf
000000b0: cfd3 d43e df1b a7be cfe0 743d 4035 113e
000000c0: a011 023f e540 80bf 126e 043f c948 a73e
000000d0: 5437 9c3c 6146 4c3e 6961 87bd a49f 703d
000000e0: dee4 26be 8a71 03bc 4a14 b7be aaf0 013f
000000f0: e639 d33e 882d 993e 4638 133f be66 4f3e
00000100: dac3 58be 0907 09be a8ee 7f3d 045d 9ebe
00000110: 9dd6 823e de30 783e 10b6 24bd 6d4f ad3e
00000120: 8e6e fcbd cc21 b2bd e65a 91be 0177 22be
00000130: 1ef8 edbd 9021 533d 4223 edbd 9199 903e
00000140: c6eb a0be 8f6b 903e f9c0 4cbe a037 70bd
00000150: 14f7 85bd 4411 d13d 5b5b b03e 21f8 803e
00000160: 3c76 77be 2025 cbbd 582b 1a3d 0758 8f3e
00000170: 2e35 86be ac57 fd3d d841 a23d 5917 a63e
00000180: 2e03 dfbd bd43 b33e 4620 6bbe 4083 013d
00000190: de06 463e bcc3 873d 94e9 893d c6ec 043e
000001a0: 6637 e7bd 4672 9bbe 8c11 54be 06a4 5f3e
000001b0: 181a 33bd 1ab3 443e 5ff4 803e 653d 9c3e
000001c0: 3682 233e 66d3 8fbe 11c8 aa3e 749a a03d
000001d0: 4ac1 27be 6023 073c 3029 083d 2b59 a03e
000001e0: 0fe6 863e 20f2 39bc 8206 603e 0de7 2ebe
000001f0: 8ffc 8f3e 9095 aabc b0ad a0bd ab3c 863e
00000200: 03b2 3abd f341 863f a3fc e23c bcc9 15bf
00000210: d396 bdbd 0669 42bf c450 96bd ea26 29be
00000220: 0451 2b3e 7719 8abf bc96 ca3e 834b 093f
00000230: 23b1 753d 4c7f 713f 2e3a 0cbd ac7c 593e
00000240: 6a64 16be ff44 46bf a958 b13e f7ad 5b3f
00000250: 8c69 473e 6198 303f e5be e83d 8c51 c73e
00000260: 03e8 653e 7b59 83bf e0bd 353f dfd9 a13e
00000270: ed38 78bd 8082 6c3f 793a 08be 5d75 4b3c
00000280: d7ab 20be 4db9 ddbe bf5c 9d3e 5b38 023f
00000290: 0302 aa3d aae7 373f 6518 d93e e9e4 273e
000002a0: ded0 b83e 2522 5dbf 4c6f 5bbd ae8a 623f
000002b0: 18d7 d03e 00f6 0f3f 6ab5 30be 56ed 213e
000002c0: 0c45 0a3e a718 9f3e 4404 113f f808 75bf
000002d0: 0b56 89be 1301 24bf 9016 febe 069d 56be
000002e0: abbb 11be 737b b23f 0d54 ffbe 2ef6 32be
000002f0: a25f 14bd ac2b 51bf 2259 d93d f880 2cbe
00000300: e00e 0d3e 71c8 8fbf 198d f03e 073b c13c
00000310: c70e 323e 0748 6a3d 9f44 1dbe d1da b1be
00000320: ba14 adbc 6c98 4dbf 0e3a f8bd 49e8 0a3e
00000330: e608 873e b4f4 f93e c2f1 853e e1e4 a73d
00000340: 3c97 923e 41c5 29bf 6e46 333e bb01 d33d
00000350: 0b8f 9cbd 5ab0 14bf a37e 2abf 3c22 d93e
00000360: 6346 34bd 9bfe 53bf 6e68 53be 5a22 4c3f
00000370: f130 d1bd 7e86 253f 12f8 233f a99b 673b
00000380: 657a e53e f4c0 13bf e7e9 cfbc 8204 113f
00000390: 5fe0 0cbe 223e 863f a593 d23d 4c33 4f3e
000003a0: 6d9b 47bf 1534 a63e da3d 103e b264 9cbe
000003b0: 5e01 d73e fc3c c9be cf2c f73d c565 55be
000003c0: 2ce4 0f3f ac92 2dbf 11d6 1c3f 281b c03e
000003d0: 1fff 8e3e d4a8 1b3e 2d53 f9bd 867a 53be
000003e0: dc92 dbbd 1cfa d23e 8a6e 2cbf 25d8 383f
000003f0: b13f f33e 0297 0d3f 5dc8 343e 9480 aa3e

lstm.weight_hh_l0 f4 [32, 8]
-0.18962769 -0.2866701 -0.17604882 -0.30227208 -0.09982443 -0.29628903 0.329461 -0.040632963
-0.20150816 0.27243617 -0.16341838 0.0018465519 -0.059556365 0.014178634 0.20426527 0.03563568
-0.06536096 0.14605623 -0.13575533 0.2861714 0.27594838 0.05001086 -0.16788004 0.21424434
-0.21403712 -0.16026124 -0.27695668 0.24084434 0.34818658 0.3279926 -0.2720185 0.061050385
0.2214928 -0.22723204 0.1146251 -0.045223385 0.17556801 0.29086706 0.1923314 0.16795668
-0.07874486 0.2590606 -0.07199162 -0.13300428 -0.31198993 -0.09713709 -0.22031797 -0.26726902
-0.27700615 -0.15246555 -0.12821417 -0.03845492 0.00090277195 -0.04509434 0.19970867 -0.3122392
0.011173874 0.058992296 0.04561293 -0.18012518 -0.045891345 -0.022041947 0.0067977905 0.33434
0.07788226 -0.27815032 -0.090938956 -0.20642485 0.17212793 -0.20229489 0.09282467 0.14448383
-0.107346 0.32523403 -0.024984568 0.004249066 -0.25852075 -0.05429223 -0.14509326 -0.07207167
-0.06091976 -0.07216787 -0.17136516 -0.22024728 0.10055253 0.029265672 -0.1473386 -0.17646202
-0.077352524 0.33520785 -0.3057784 -0.15203051 0.26213238 -0.33833075 0.13279545 0.28903726
-0.083692044 0.014784783 0.081558496 0.3416054 -0.04288885 0.3093063 0.35054687 0.1341685
-0.30376485 -0.34623992 0.30559316 0.019995064 -0.148604 0.27685592 -0.25352585 0.16314623
-0.117754295 -0.17087592 0.25258765 -0.05770421 0.15356174 -0.08725652 0.27601174 -0.20334467
0.25546297 -0.1492121 0.2868779 -0.13367939 -0.0038875043 -0.24884245 0.11984241 0.16164944
0.04101789 0.21452501 0.17753127 0.08252761 -0.029597908 0.2279757 -0.20069557 -0.17523184
-0.050241053 -0.33339563 -0.24004185 -0.15886404 0.26902702 0.23502281 0.014411181 -0.2306013
0.19112554 0.050713897 0.28738162 -0.29185888 -0.35149008 0.14199352 0.27764663 -0.15568198
0.009950757 0.122504145 -0.068495005 -0.09325248 -0.058559895 0.18859354 0.22201541 0.031389296
-0.024256676 -0.20412607 0.013537049 -0.22791527 -0.040510297 -0.002113074 -0.12669401 -0.33639705
-0.099163234 -0.31443796 -0.07809815 -0.100774854 -0.009889752 -0.12334722 0.31539956 0.1603348
-0.3189843 -0.15159188 -0.15515608 -0.2628585 0.014075607 0.118784904 0.13419825 0.04975629
0.18391159 0.20962313 -0.35076052 -0.2907256 0.17942414 -0.31404063 0.30290422 -0.026520401
0.0057852566 -0.24202494 -0.23458728 0.082803845 -0.0023902655 -0.020234168 0.3386828 -0.08237326
0.009247988 0.24339864 -0.013533592 -0.24033624 -0.26447904 0.2274836 -0.2372645 -0.3338005
0.13439348 -0.2261017 0.1982558 0.12563115 0.012731761 -0.23803861 0.20114252 -0.09346214
-0.27231702 -0.008869976 -0.02084276 -0.31321138 0.2643524 0.08054638 0.086444944 0.14392179
0.14325485 0.2740682 0.30681613 0.27118203 -0.19461054 0.01287505 0.26972744 0.2887884
-0.31053182 -0.15278451 -0.16929415 -0.07443762 0.1722978 -0.26564416 -0.24755545 0.28903922
0.31545803 -0.26089877 0.35322127 -0.10088986 -0.15284684 0.2396541 -0.24661566 0.17777357
0.35018423 -0.09051424 0.3373796 0.2801725 -0.14798626 0.00040200353 0.30959007 -0.25249666
00000000: c32d 42be 6cc6 92be 2446 34be 68c3 9abe
00000010: c070 ccbd 32b3 97be 1daf a83e c06e 26bd
00000020: 2858 4ebe c17c 8b3e 2657 27be 0008 f23a
00000030: 60f1 73bd 804d 683c ea2a 513e b8f6 113d
00000040: f8db 85bd c48f 153e 7203 0bbe 0f85 923e
00000050: 1b49 8d3e 30d8 4c3d bfe8 2bbe de62 5b3e
00000060: 8c2c 5bbe 861b 24be 44cd 8dbe e69f 763e
00000070: 8345 b23e a5ee a73e 0246 8bbe f80f 7a3d
00000080: 02cf 623e 84af 68be 90c0 ea3d 283c 39bd
00000090: 1ac8 333e 87ec 943e 86f2 443e d6fc 2b3e
000000a0: fc44 a1bd 97a3 843e 5870 93bd 4632 08be
000000b0: 25bd 9fbe d0ef c6bd 099b 61be 7cd7 88be
000000c0: c0d3 8dbe ee1f 1cbe 934a 03be e882 1dbd
000000d0: 00a8 6c3a d8b4 38bd 6e80 4c3e d1dd 9fbe
000000e0: a012 373c e8a1 713d a0d4 3a3d bc72 38be
000000f0: 90f8 3bbd 5091 b4bc 00c0 de3b 9d2e ab3e
00000100: bc80 9f3d b869 8ebe 343e babd 0961 53be
00000110: 4e42 303e 6426 4fbe dc1a be3d 92f3 133e
00000120: 38d8 dbbd 1385 a63e 70ac ccbc c03b 8b3b
00000130: d55c 84be 8861 5ebd 5493 14be 509a 93bd
00000140: 0087 79bd c0cc 93bd 597a 2fbe 8188 61be
00000150: 7cee cd3d 90be ef3c eedf 16be 76b2 34be
00000160: 006b 9ebd 5da0 ab3e fd8e 9cbe e3ad 1bbe
00000170: 3736 863e b039 adbe 88fb 073e b1fc 933e
00000180: bc66 abbd e03b 723c 2408 a73d e7e6 ae3e
00000190: 38ac 2fbd 655d 9e3e e17a b33e 7863 093e
000001a0: 1187 9bbe 5c46 b1be b576 9c3e b0cc a33c
000001b0: a62b 18be 0fc0 8d3e 24ce 81be ce0f 273e
000001c0: 2a29 f1bd 19fa 2ebe 2b53 813e 405b 6cbd
000001d0: 4a3f 1d3e 8cb3 b2bd 6951 8d3e 9639 50be
000001e0: 0bcc 823e 0fcb 18be a9e1 923e 40e3 08be
000001f0: 80c5 7ebb 8ed0 7ebe f06f f53d 6e87 253e
00000200: 6002 283d 72ac 5b3e c2ca 353e 3c04 a93d
00000210: 5077 f2bc 7672 693e 2483 4dbe fa6f 33be
00000220: 90c9 4dbd d5b2 aabe 88cd 75be 41ad 22be
00000230: e9bd 893e d2a9 703e e01c 6c3c bf22 6cbe
00000240: 6ab6 433e 60b9 4f3d af23 933e 876e 95be
00000250: 82f6 b3be c066 113e b327 8e3e 196b 1fbe
00000260: 8008 233c 74e3 fa3d 1c47 8cbd 28fb bebd
00000270: 80dc 6fbd aa1e 413e 0258 633e 1092 003d
00000280: f0b5 c6bc 6d06 51be 80ca 5d3c 9f62 69be
00000290: 20ee 25bd 807b 0abb 13bc 01be 3c3c acbe
000002a0: 1816 cbbd 03fe a0be ecf1 9fbd 0c63 cebd
000002b0: a008 22bc 789d fcbd 0d7c a13e ce2e 243e
000002c0: e951 a3be e73a 1bbe 3ce1 1ebe 6495 86be
000002d0: 609d 663c 8045 f33d 446b 093e 40cd 4b3d
000002e0: 5253 3c3e 72a7 563e e296 b3be fcd9 94be
000002f0: f6ba 373e efc9 a0be 4316 9b3e 5041 d9bc
00000300: 4092 bd3b 63d5 77be a637 70be 1095 a93d
00000310: 00a6 1cbb 20c2 a5bc d567 ad3e 50b3 a8bd
00000320: e084 173c 7e3d 793e 00bc 5dbc b41a 76be
00000330: cc69 87be 76f1 683e 77f5 72be e6e7 aabe
00000340: 729e 093e 3487 67be 9203 4b3e 74a5 003e
00000350: e098 503c 65c0 73be 4ef8 4d3e 1469 bfbd
00000360: 236d 8bbe 6053 11bc 70be aabc 3e5d a0be
00000370: 3359 873e 80f5 a43d 0c0a b13d 3c60 133e
00000380: 66b1 123e ab52 8c3e 0117 9d3e 5fd8 8a3e
00000390: fc47 47be e0f1 523c b719 8a3e 13dc 933e
000003a0: 07fe 9ebe 8b73 1cbe 725b 2dbe c072 98bd
000003b0: d66e 303e 8302 88be 2d7f 7dbe f3fc 933e
000003c0: b783 a13e 8694 85be 6bd9 b43e 589f cebd
000003d0: e283 1cbe e267 753e d188 7cbe 460a 363e
000003e0: 594b b33e 885f b9bd 05bd ac3e c572 8f3e
000003f0: b689 17be 00c4 d239 9782 9e3e 3e47 81be

lstm.bias_ih_l0 f4 [32]
0.2683037 0.43159407 0.2939527 0.28231466 0.029738745 1.0289239 -0.15350807 0.3075647
-0.08169255 -0.10167825 -0.14327323 -0.32085177 -0.13160379 -0.058366418 0.1986672 -0.334469
0.4801189 -0.2701806 -0.28076872 -0.22065695 0.3014912 -0.6839135 -0.26178622 0.024206877
0.5866171 0.47020897 0.626757 0.3967348 0.14544815 0.7950375 -0.07270078 0.7911752
00000000: 1a5f 893e e6f9 dc3e f880 963e 8c8b 903e
00000010: ab9e f33c c7b3 833f 3831 1dbe 1f79 9d3e
00000020: 6c4e a7bd b03c d0bd 38b6 12be af46 a4be
00000030: 25c3 06be a011 6fbd 6a6f 4b3e 853f abbe
00000040: 25d2 f53e 1d55 8abe ebc0 8fbe e5f3 61be
00000050: 0e5d 9a3e f514 2fbf d808 86be 804d c63c
00000060: 8a2c 163f 3bbf f03e 2673 203f d320 cb3e
00000070: 5cf0 143e 9487 4b3f 26e4 94bd 758a 4a3f

lstm.bias_hh_l0 f4 [32]
0.5898651 0.9457681 0.51729417 -0.15460426 -0.09254934 0.6781941 0.06464283 0.85554206
-0.05364892 0.15492639 0.09501216 0.22571126 0.30530336 -0.17449246 -0.006115794 -0.26336694
0.3216176 -0.45791116 -0.60743463 -0.057684965 0.3426785 -0.63077325 0.009221601 0.5520283
0.73800653 0.92837256 0.34677866 -0.052364204 0.30094084 0.9907343 -0.012168442 0.4495175
00000000: 6601 173f dc1d 723f 646d 043f 9450 1ebe
00000010: 828a bdbd 219e 2d3f 7663 843d ce04 5b3f
00000020: f8be 5bbd 06a5 1e3e bc95 c23d da20 673e
00000030: b950 9c3e 27ae 32be 0067 c8bb 08d8 86be
00000040: 10ab a43e 5573 eabe d680 1bbf 1247 6cbd
00000050: 8e73 af3e 5b7a 21bf 3316 173c ba51 0d3f
00000060: ffed 3c3f d3a9 6d3f f98c b13e d97b 56bd
00000070: eb14 9a3e c3a0 7d3f 255e 47bc 2827 e63e

lstm.weight_ih_l1 f4 [32, 8]
-0.31046095 0.6540706 0.272683 0.12589389 0.49977836 0.3793796 -0.12861273 -0.6873423
-0.12005225 0.49536425 -0.12107156 0.33618528 0.684194 -0.15113659 -0.5123541 -0.26750594
-0.059993125 -0.027012952 -0.16494147 -0.0722846 0.028798142 0.06507608 -0.34190914 -0.19816647
0.15466958 -0.27551624 -0.08243315 -0.21287778 0.25476852 -0.93259937 0.39027056 0.06245626
0.40334174 -0.15840144 0.1365286 -0.046762515 0.6114769 -0.5128341 -0.17838529 0.51210415
-0.39258194 -0.08318121 0.17831504 0.29750347 0.2921395 -0.021378709 -0.45769864 -0.28174084
0.4316093 -0.7406825 -0.5480365 -0.24234582 -0.29087332 -0.92495525 -0.31451133 0.5170936
-0.14873387 0.22547421 0.23211013 0.78809744 0.5382905 0.1657309 -0.67361677 0.13937776
0.10106152 0.3171582 -0.21320148 0.18222222 0.2392073 0.16538897 0.13455835 0.058684945
0.20434174 -0.0210478 0.24020085 -0.04227385 0.29607055 -0.074005604 0.08810732 -0.26812392
0.15601549 0.046249688 -0.19283882 -0.011330217 -0.14113188 0.2265208 0.3350381 0.039868444
-0.2334632 -0.15055427 -0.31986558 0.15007433 0.14360648 -0.12028399 0.34240356 0.1934267
-0.07998937 0.28747228 0.014197886 -0.04090482 0.029237598 -0.11749239 -0.09512788 0.33114675
0.2253662 0.10071844 -0.035207838 0.22052696 -0.021680087 -0.031962484 0.17862722 -0.09560588
-0.28706965 0.029975861 0.09022832 0.12453681 -0.16513842 -0.29282653 0.19079879 0.00788033
0.33078393 0.04922545 0.29793718 0.30249622 0.24498025 -0.31901926 0.23099855 -0.27764934
-0.5717327 0.7091633 0.9183284 0.30180198 0.044070635 1.3451952 -0.538577 -0.5650365
1.0581037 -0.892354 -0.6780248 -0.69258 -0.47402984 -1.1788058 0.26993605 1.0529794
0.51869005 -0.5661907 -1.0101047 -0.3330349 -0.6424051 -1.3567563 0.5153991 0.5130336
-0.9013859 0.8171835 0.48731133 0.13677861 -0.107995525 0.7857217 -0.33969674 -0.29165065
-0.50973773 0.71861124 0.69761276 0.56529593 0.1621386 1.0033908 -0.32459348 -0.74991953
-0.8361442 0.44367927 0.5023493 0.6191016 0.39352444 1.0808355 -0.081972085 -0.34300756
0.71598935 -0.65317076 -0.27727994 -0.31781918 -0.5748735 -1.1551481 0.11722118 0.96120083
1.079795 -0.851994 -0.72715104 -0.8836843 -0.21911034 -1.283363 -0.010052231 0.75489753
-0.25137126 0.727525 0.60826826 0.5645636 0.58476955 0.27267715 -0.33064845 -0.6402751
-0.0257241 0.5518387 0.15553583 0.6514599 0.30023295 0.06269784 -0.551138 0.07898712
0.12112247 -0.15630105 0.12529165 0.07878835 0.4373932 0.06616135 -0.017828666 0.0087657
0.59077775 -0.07354259 -0.055305835 -0.37421787 0.07911475 -0.92525154 0.06547329 0.6367033
0.5063326 -0.004893408 -0.10402884 0.005769996 0.60022086 -0.59123653 -0.38970685 0.5130289
-0.46569243 0.29214665 0.26813933 0.10452803 0.14769655 0.0023422418 0.0011914917 -0.095611125
0.54794645 -0.37770665 -0.68293613 -0.5145657 -0.16369408 -0.85917634 0.022219257 0.8440794
-0.6858896 0.40345976 0.2608071 0.65137476 0.7080216 -0.12118348 -0.18448584 0.060429927
00000000: bdf4 9ebe 2c71 273f 1b9d 8b3e 54ea 003e
00000010: f3e2 ff3e 0b3e c23e 0eb3 03be aaf5 2fbf
00000020: f4dd f5bd 62a0 fd3e 5ef4 f7bd 7a20 ac3e
00000030: 5727 2f3f 8dc3 1abe a329 03bf 8af6 88be
00000040: 5abb 75bd 444a ddbc 6be6 28be f309 94bd
00000050: 15ea eb3c 9c46 853d b70e afbe 27ec 4abe
00000060: b461 1e3e 7710 8dbe b6d2 a8bd a2fc 59be
00000070: 0571 823e d5be 6ebf 8bd1 c73e 23d2 7f3d
00000080: cf82 ce3e fd33 22be 27ce 0b3e 0d8a 3fbd
00000090: c089 1c3f 1849 03bf a2aa 36be 4219 033f
000000a0: 8000 c9be e95a aabd 3898 363e 6052 983e
000000b0: 4f93 953e 6722 afbc 7a57 eabe 5640 90be
000000c0: e5fb dc3e 5e9d 3dbf 1f4c 0cbf 8129 78be
000000d0: 59ed 94be dec9 6cbf a107 a1be 3f60 043f
000000e0: b14d 18be b6e2 663e 47ae 6d3e c1c0 493f
000000f0: 68cd 093f 5cb5 293e 2672 2cbf 0bb9 0e3e
00000100: 58f9 ce3d 8f62 a23e 7d51 5abe 7698 3a3e
00000110: c2f2 743e ba5b 293e aac9 093e a05f 703d
00000120: f63e 513e 706c acbc 36f7 753e 5827 2dbd
00000130: 8f96 973e 4090 97bd 9c71 b43d 8a47 89be
00000140: 86c2 1f3e 5070 3d3d 8a77 45be 60a2 39bc
00000150: e084 10be 12f5 673e 1d8a ab3e 184d 233d
00000160: fa10 6fbe e62a 1abe 6cc5 a3be 16ad 193e
00000170: 940d 133e 7457 f6bd 854f af3e a611 463e
00000180: 78d1 a3bd 912f 933e 409e 683c d08b 27bd
00000190: b083 ef3c da9f f0bd 68d2 c2bd 118c a93e
000001a0: 66c6 663e 7845 ce3d 1836 10bd d2d1 613e
000001b0: 709a b1bc 18eb 02bd 0eea 363e 04cd c3bd
000001c0: cbfa 92be f08f f53c a0c9 b83d 280d ff3d
000001d0: 0c1a 29be 5ced 95be c260 433e 801c 013c
000001e0: 835c a93e a0a0 493d 398b 983e c9e0 9a3e
000001f0: 1adc 7a3e 7e56 a3be e28a 6c3e 0e28 8ebe
00000200: 135d 12bf ba8b 353f 9217 6b3f ca85 9a3e
00000210: 6983 343d 5b2f ac3f 2fe0 09bf 3ba6 10bf
00000220: f16f 873f 5071 64bf 0993 2dbf ec4c 31bf
00000230: 0ab4 f2be 1ce3 96bf 0f35 8a3e 07c8 863f
00000240: dfc8 043f e0f1 10bf 1c4b 81bf 8d83 aabe
00000250: a974 24bf 31aa adbf 32f1 033f 2c56 033f
00000260: 3ac1 66bf f032 513f df80 f93e b10f 0c3e
00000270: c22c ddbd 0f25 493f bbec adbe 3c53 95be
00000280: 2c7e 02bf e8f6 373f c096 323f 3cb7 103f
00000290: a907 263e 1c6f 803f 1e31 a6be bafa 3fbf
000002a0: 8c0d 56bf ee29 e33e f799 003f 717d 1e3f
000002b0: 097c c93e d158 8a3f fbe0 a7bd b09e afbe
000002c0: 144b 373f 3336 27bf a3f7 8dbe 32b9 a2be
000002d0: e92a 13bf e5db 93bf a811 f03d 4211 763f
000002e0: b936 8a3f 471c 5abf 9226 3abf 2239 62bf
000002f0: 765e 60be 3d45 a4bf 1db2 24bc f740 413f
00000300: bcb3 80be 143f 3a3f 78b7 1b3f 3d87 103f
00000310: 75b3 153f 579c 8b3e c14a a9be 12e9 23bf
00000320: 59bb d2bc 4d45 0d3f c944 1f3e 13c6 263f
00000330: 22b8 993e ba67 803d 6117 0dbf 00c4 a13d
00000340: 0f0f f83d 620d 20be 744c 003e c95b a13d
00000350: 00f2 df3e 9a7f 873d 6c0d 92bc 039e 0f3c
00000360: 363d 173f 7f9d 96bd 5f88 62bd 7c99 bfbe
00000370: ea06 a23d 49dd 6cbf dc16 863d fdfe 223f
00000380: 039f 013f e258 a0bb 130d d5bd 3c12 bd3b
00000390: 13a8 193f 475b 17bf a887 c7be dd55 033f
000003a0: 3d6f eebe 3f94 953e 8f49 893e cb12 d63d
000003b0: c43d 173e 4c80 193b d42b 9c3a c4cf c3bd
000003c0: 3846 0c3f c462 c1be e7d4 2ebf 94ba 03bf
000003d0: 6c9f 27be fbf2 5bbf 2905 b63c 9615 583f
000003e0: 7696 2fbf 4792 ce3e 8288 853e 7fc0 263f
000003f0: e740 353f 0b2f f8bd dbe9 3cbe 5f85 773d

lstm.weight_hh_l1 f4 [32, 8]
-0.20208192 -0.12440549 -0.22336763 0.20371458 -0.07933724 0.08552173 0.27495518 0.056359977
0.31680748 0.08841646 0.13569406 0.30374178 0.17206821 0.10934743 0.24878183 -0.13430785
0.07938889 -0.038095742 -0.057352632 0.33725545 -0.09960294 -0.34932095 0.05101037 -0.01929766
0.08667418 0.2551209 0.18791655 -0.2921597 0.2732047 0.09818888 -0.20109564 -0.063513726
-0.2827828 -0.1382833 0.30876788 -0.26183805 0.06091121 -0.24304697 0.2582067 -0.03382659
-0.11932856 0.2247397 -0.28171957 -0.33263177 -0.12479593 0.26750496 0.04794395 -0.005304992
0.21361652 0.26122513 0.09108865 -0.065087706 0.29681733 0.1629 0.07396388 0.04132232
0.2994099 -0.2620206 0.2855579 -0.081418425 -0.11712365 0.28905967 0.04406464 0.22000483
-0.25499475 -0.23992881 -0.29930916 -0.32495195 0.29866686 0.20865855 0.11097306 -0.117816746
-0.22353892 -0.28408206 0.16717014 0.33037886 0.05646497 -0.06725162 -0.2524297 -0.2671845
-0.2220754 0.21346954 0.05446455 0.20590898 0.045699477 -0.16291092 0.09719926 -0.28914922
0.32506344 0.1688917 -0.15811643 -0.05716738 0.05506295 0.112912625 0.12305224 0.23337188
0.2308698 -0.23440015 -0.181481 -0.061294824 0.15085897 -0.002388388 0.2062045 -0.26566142
0.013296485 0.15537235 0.19099495 0.08311397 0.12800652 0.113135874 -0.057479024 -0.3442417
0.116116375 0.00067189336 0.0593839 0.07189661 0.3067262 0.13389876 0.1201458 -0.14132488
-0.15075468 -0.24519768 0.21439078 0.17877159 -0.26004264 0.08606368 -0.14714532 0.11623657
0.030713588 -0.30141598 0.22076365 0.30243757 -0.3068057 0.32484993 0.20298585 -0.1105739
-0.052328438 -0.034462214 -0.025227934 0.3204656 -0.26347417 0.18278041 -0.23308855 -0.2441389
0.19792268 -0.082952976 -0.0012231767 0.27604285 0.08423668 0.011048287 0.10058877 0.27446792
-0.2272032 -0.10576102 0.3517492 -0.3032834 0.00204736 -0.29441988 0.022087097 0.12907198
0.32844993 -0.34300756 0.17495015 0.19161317 0.05988297 0.29556492 0.02861303 0.12563124
-0.3432674 -0.18463582 -0.11012997 0.19648859 0.11229268 -0.2200084 0.16659126 0.045040727
-0.001572907 0.22214934 -0.21106736 0.16955438 0.12931824 -0.052953184 0.13246328 -0.29676518
0.07660994 0.032108396 -0.3162341 0.2501841 -0.2275983 -0.18120198 0.13828334 0.2872248
0.08329642 0.24020776 0.16386238 -0.20283799 0.013355017 -0.1748457 -0.13315141 -0.26697782
0.054244608 -0.2079893 0.31841692 0.27446756 -0.04680875 -0.14626314 0.16135743 -0.1482294
0.12951195 0.2791902 0.16715291 0.23304966 -0.023619443 -0.0491668 -0.22649801 0.32155696
-0.28983378 0.28296086 0.30592844 -0.3156191 -0.00556919 0.18626103 0.19341859 0.1813707
-0.09369472 0.14215133 0.339331 -0.3515023 -0.34758508 -0.09382129 -0.12150207 -0.058980644
0.10010871 0.21944109 -0.254026 0.28261492 -0.20556228 0.031071573 0.053990155 -0.15126567
-0.21637104 0.1316942 -0.26741725 -0.20850766 0.026045501 0.24269333 0.22728959 -0.014916539
-0.004666716 -0.31377304 0.18154839 -0.22781914 0.020335227 0.013107806 0.0069639385 -0.34742588
00000000: 90ee 4ebe 4ec8 febd 7cba 64be 8e9a 503e
00000010: 907b a2bd 0426 af3d edc6 8c3e b8d9 663d
00000020: 9734 a23e b013 b53d 62f3 0a3e 0b84 9b3e
00000030: a632 303e 8cf1 df3d aac0 7e3e ff87 09be
00000040: a496 a23d 480a 1cbd 98ea 6abd bfac ac3e
00000050: a0fc cbbd 32da b2be 40f0 503d 2016 9ebc
00000060: 3c82 b13d 359f 823e 326d 403e f595 95be
00000070: 7de1 8b3e 4017 c93d 04ec 4dbe 7c13 82bd
00000080: e8c8 90be 239a 0dbe d316 9e3e a30f 86be
00000090: 087e 793d 4ee1 78be ab33 843e c08d 0abd
000000a0: 8862 f4bd 2a22 663e 8c3d 90be b64e aabe
000000b0: 0295 ffbd 69f6 883e e060 443d 80d5 adbb
000000c0: 4abe 5a3e 4dbf 853e b08c ba3d b44c 85bd
000000d0: 71f8 973e 42cf 263e 607a 973d 9841 293d
000000e0: 414c 993e 9027 86be a534 923e b4be a6bd
000000f0: 86de efbd a1ff 933e 207d 343d f248 613e
00000100: ac8e 82be e6af 75be 0d3f 99be 1a60 a6be
00000110: ddea 983e 96aa 553e d845 e33d e849 f1bd
00000120: 63e7 64be 3473 91be a62e 2b3e 6b27 a93e
00000130: d047 673d 38bb 89bd 773e 81be 68cc 88be
00000140: bc67 63be c297 5a3e 3816 5f3d ced9 523e
00000150: 602f 3b3d 1fd2 26be 6810 c73d 5e0b 94be
00000160: b76e a63e f2f1 2c3e 46e9 21be 5828 6abd
00000170: b089 613d bc3e e73d d002 fc3d 0af9 6e3e
00000180: 2269 6c3e 9806 70be 28d6 39be 4810 7bbd
00000190: c67a 1a3e 8086 1cbb 4627 533e c604 88be
000001a0: 80d9 593c ee19 1f3e 2e94 433e a837 aa3d
000001b0: 2414 033e c8b3 e73d 206f 6bbd 7340 b0be
000001c0: 6cce ed3d 0022 303a 883c 733d 883e 933d
000001d0: 370b 9d3e c21c 093e 000f f63d 78b7 10be
000001e0: 6f5f 1abe 1a15 7bbe 4289 5b3e e60f 373e
000001f0: 4f24 85be 2842 b03d 43ad 16be 700d ee3d
00000200: 109b fb3c 3253 9abe de0f 623e 19d9 9a3e
00000210: a315 9dbe bb52 a63e 86db 4f3e 9274 e2bd
00000220: 5856 56bd 4028 0dbd d0aa cebc 1114 a43e
00000230: 16e6 86be ca2a 3b3e c4ae 6ebe 8cff 79be
00000240: 3eac 4a3e 40e3 a9bd 0053 a0ba 7d55 8d3e
00000250: 4884 ac3d e003 353c 7c01 ce3d 0f87 8c3e
00000260: f5a7 68be 3c99 d8bd 7918 b43e f647 9bbe
00000270: 002d 063b 34be 96be 00f0 b43c 722b 043e
00000280: 972a a83e b09e afbe 2226 333e 3e36 443e
00000290: d847 753d 4954 973e e065 ea3c 7aa5 003e
000002a0: bfc0 afbe 2c11 3dbe d28b e1bd 4e34 493e
000002b0: b4f9 e53d e249 61be e696 2a3e a07c 383d
000002c0: 002a ceba 1e7b 633e 0b22 58be aa9f 2d3e
000002d0: 006c 043e 70e5 58bd 74a4 073e 9bf1 97be
000002e0: ace5 9c3d 1884 033d 70e9 a1be 2118 803e
000002f0: 870f 69be 038d 39be 269a 0d3e 210f 933e
00000300: 5097 aa3d 06f9 753e 8acb 273e c3b4 4fbe
00000310: 00cf 5a3c c00a 33be d858 08be 51b1 88be
00000320: 982f 5e3d 26fb 54be 8b07 a33e 0387 8c3e
00000330: 88ba 3fbd 01c6 15be e23a 253e 73c9 17be
00000340: c89e 043e 05f2 8e3e 222a 2b3e 92a4 6e3e
00000350: 907d c1bc 2063 49bd 18ef 67be 1da3 a43e
00000360: 1865 94be 3fe0 903e a7a2 9c3e d498 a1be
00000370: c07d b6bb 36bb 3e3e 860f 463e 3eb9 393e
00000380: 04e3 bfbd 1e90 113e cbbc ad3e 1cf8 b3be
00000390: acf6 b1be 6025 c0bd 14d6 f8bd b095 71bd
000003a0: cc05 cd3d 2ab5 603e b20f 82be e7b2 903e
000003b0: eb7e 52be d089 fe3c c824 5d3d 63e5 1abe
000003c0: 5f90 5dbe d8da 063e eaea 88be 0883 55be
000003d0: 605d d53c 9a84 783e 9abe 683e 8064 74bc
000003e0: 40eb 98bb dca6 a0be d2e7 393e 6c49 69be
000003f0: 1096 a63c 20c2 563c c031 e43b cee1 b1be

lstm.bias_ih_l1 f4 [32]
0.2975407 0.67844194 0.5697371 0.54140097 0.8423988 0.30166724 0.61015433 1.2493819
-0.3495854 0.032835633 0.045593023 -0.29531273 -0.086799204 0.3134621 -0.32444432 0.25893
-0.16309632 0.48617956 0.63750386 -0.8891111 -0.46180314 -0.44435075 0.581724 0.3313747
0.4727001 0.8621258 0.923618 0.6339165 0.7948215 0.16723035 0.55392164 0.76200926
00000000: 4157 983e 5fae 2d3f 4ada 113f 4199 0a3f
00000010: 73a7 573f 2174 9a3e 1333 1c3f bfeb 9f3f
00000020: dcfc b2be a87e 063d c0bf 3a3d 3b33 97be
00000030: c8c3 b1bd 1b7e a03e 911d a6be 7992 843e
00000040: b902 27be 87ec f83e 7433 233f c99c 63bf
00000050: 7671 ecbe f181 e3be ddeb 143f f2a9 a93e
00000060: bf05 f23e 47b4 5c3f 3b72 6c3f 5a48 223f
00000070: 6c79 4b3f 6f3e 2b3e cfcd 0d3f 0a13 433f

lstm.bias_hh_l1 f4 [32]
0.40464225 0.8107413 0.9923294 0.4493808 0.6489575 0.18121645 0.5774581 0.8745853
0.07394871 -0.28992462 -0.16608787 0.06747761 -0.30566314 0.10342258 0.244234 -0.121898174
-0.33042324 0.53768694 0.29179215 -0.22210355 -0.50609785 -0.28895786 0.7113047 0.5659503
0.27863333 1.0946933 0.9652546 0.28601587 0.7259398 0.29784992 0.8318884 0.82771355
00000000: 452d cf3e be8c 4f3f 4d09 7e3f 3d15 e63e
00000010: 1422 263f ce90 393e 4bd4 133f d2e4 5f3f
00000020: 6c72 973d 0071 94be f012 2abe b431 8a3d
00000030: e17f 9cbe 38cf d33d 7a18 7a3e c0a5 f9bd
00000040: 3c2d a9be daa5 093f c865 953e 1d6f 63be
00000050: a18f 01bf 49f2 93be 1118 363f 1ee2 103f
00000060: 07a9 8e3e e91e 8c3f ed1a 773f ac70 923e
00000070: 31d7 393f c97f 983e a3f6 543f 09e5 533f

lstm.weight_ih_l2 f4 [32, 8]
0.8327228 -0.37025204 -0.07771465 -0.06756504 0.41567445 0.29694474 0.2967583 -0.46284887
-0.00627698 0.5176729 0.49915683 -1.0166812 -0.66718966 -0.54582745 0.7541644 0.6606273
0.32895198 0.056918364 0.113504834 -0.36439893 -0.030276928 0.4989817 1.0512218 0.22824398
0.97898334 -0.17435622 0.03999733 -0.36143824 -0.37673053 0.26609677 0.6942024 -0.3522663
0.43987215 -0.3201112 -0.15634805 -0.34242505 -0.38888162 0.4369806 1.0010772 -0.37409487
0.14800037 0.16852874 0.5386485 -0.21863753 -0.3347767 -0.030682953 0.77110285 0.23837847
-0.07471656 0.9446832 0.6983956 -0.62606746 -0.42080766 -0.33588803 0.8696436 1.0025728
0.2938622 -0.7346745 -0.21587895 0.22544861 0.6365028 -0.051333368 -0.29853615 -0.8840179
0.29224232 0.09119287 0.23389462 0.22762397 0.021046191 0.26088306 0.19421616 0.11762759
-0.006616473 -0.025526732 -0.2805257 0.34514198 -0.030228764 -0.13099459 -0.30826077 0.1154075
0.3278912 -0.0060974658 -0.042881638 0.1805012 0.14570695 -0.040245175 -0.3389476 0.14353618
-0.1273912 0.035615176 0.06282452 -0.08890569 -0.093573004 -0.25176618 -0.3462645 -0.037932068
0.1657162 -0.24159956 0.022222936 -0.03644654 -0.33874807 -0.07321772 -0.2297796 -0.23386885
0.08350158 -0.13328418 -0.2796161 -0.098976314 0.20468673 0.05781141 0.07739535 0.21262315
-0.10133734 0.046736687 -0.09008786 -0.1356353 -0.088778794 -0.11025366 0.045341372 0.18332532
0.17479518 -0.073945165 0.07392773 -0.28373122 -0.13731144 -0.12564851 0.26675954 0.26833478
0.35547286 -1.2234985 -0.855313 0.57360214 0.92663294 0.6420927 -1.1352309 -1.0533175
0.56494427 -0.74586535 -0.8593536 0.9647733 0.80549926 0.5401278 -0.95873356 -0.83526254
0.7565324 -1.1855037 -0.38257253 0.91149294 0.5882594 0.55805224 -0.5066153 -1.1297578
0.83888227 -1.1386172 -0.44289392 0.75378084 0.6457342 0.38089043 -0.60121036 -1.0585098
0.7442102 -0.77688146 -0.7192376 0.8913547 1.004072 0.27228618 -0.69448256 -1.2075671
0.66647846 -0.8948619 -0.33402413 0.702694 0.7298999 0.11998541 -0.60668737 -1.0713818
0.49355152 -0.85409003 -0.7445563 0.53217524 1.2028229 0.17805679 -0.56016433 -1.0001849
-0.32142055 0.7589941 0.739469 -0.65951574 -0.6724436 -0.41810203 1.0184505 0.8060911
0.22544377 -0.69647676 -0.33786398 -0.19574086 0.020861845 0.59657264 0.16363776 -0.7742124
0.18186897 0.6873601 0.8797843 -0.8337706 -0.8105443 0.030831737 0.7520071 0.6628366
0.0939193 0.2866147 -0.07025061 -0.42608133 -0.34904337 0.4578261 1.0202132 0.003099898
0.39158836 -0.70136946 -0.14622286 -0.5730309 -0.16850486 0.31849635 0.7935627 -0.07798044
0.3529517 -0.12016537 0.05194936 -0.2847169 -0.13133684 0.25609323 0.45304957 -0.39558968
-0.024112903 0.26503414 0.56424373 -0.24212906 -0.76816696 -0.12072665 0.96091884 0.47443545
-0.09822677 1.1416245 0.5088746 -0.85934395 -1.0724586 -0.60767955 1.0321738 1.023695
0.27983817 -0.83201736 -0.38043597 0.49320248 0.38198286 0.17091556 -0.46445745 -0.76301825
00000000: 522d 553f ad91 bdbe dc28 9fbd 8a5f 8abd
00000010: 48d3 d43e 2409 983e b4f0 973e 87fa ecbe
00000020: 20af cdbb 3686 043f 7c91 ff3e 9c22 82bf
00000030: f1cc 2abf 59bb 0bbf eb10 413f df1e 293f
00000040: 656c a83e 3b23 693d 3975 e83d 7f92 babe
00000050: 5207 f8bc 887a ff3e 708e 863f cab8 693e
00000060: a79e 7a3f 708a 32be 3ed4 233d 6f0e b9be
00000070: d3e2 c0be d63d 883e 40b7 313f 405c b4be
00000080: ec36 e13e 9de5 a3be b419 20be 5652 afbe
00000090: 7e1b c7be ecbb df3e 4c23 803f 5d89 bfbe
000000a0: 698d 173e cc92 2c3e dee4 093f 84e2 5fbe
000000b0: da67 abbe d15a fbbc ff66 453f 7c19 743e
000000c0: ff04 99bd c2d6 713f 0eca 323f f545 20bf
000000d0: 1a74 d7be 84f9 abbe f7a0 5e3f 4e54 803f
000000e0: 1b75 963e a113 3cbf 5f0f 5dbe 00dc 663e
000000f0: d9f1 223f f042 52bd bbd9 98be ff4e 62bf
00000100: c9a0 953e 54c3 ba3d 1282 6f3e 4216 693e
00000110: 1069 ac3c 7792 853e 9ae0 463e bce6 f03d
00000120: 00cf d8bb 701d d1bc 11a1 8fbe 73b6 b03e
00000130: 50a2 f7bc 7223 06be 5bd4 9dbe c45a ec3d
00000140: 5be1 a73e 40cd c7bb a8a4 2fbd 4ed5 383e
00000150: 3434 153e 20d8 24bd 8a8a adbe 26fb 123e
00000160: d772 02be 38e1 113d 24aa 803d 3014 b6bd
00000170: 34a3 bfbd 7fe7 80be 9549 b1be a85e 1bbd
00000180: 82b1 293e e065 77be e00c b63c f848 15bd
00000190: 6370 adbe 2cf3 95bd 584b 6bbe 517b 6fbe
000001a0: e002 ab3d a67b 08be d729 8fbe 18b4 cabd
000001b0: 6699 513e a8cb 6c3d 7481 9e3d e2b9 593e
000001c0: f489 cfbd f86e 3f3d fc7f b8bd fbe3 0abe
000001d0: a8d1 b5bd accc e1bd e0b7 393d a2b9 3b3e
000001e0: 82fd 323e 9070 97bd 6c67 973d 3845 91be
000001f0: 5f9b 0cbe 01aa 00be b594 883e 2d63 893e
00000200: 8a00 b63e 999b 9cbf cbf5 5abf 97d7 123f
00000210: d137 6d3f 3060 243f 3f4f 91bf 1cd3 86bf
00000220: 30a0 103f 08f1 3ebf 99fe 5bbf 62fb 763f
00000230: 3335 4e3f d145 0a3f 906f 75bf c4d3 55bf
00000240: 1bac 413f 96be 97bf 8ce0 c3be 9a57 693f
00000250: 2b98 163f 83dc 0e3f 8ab1 01bf e79b 90bf
00000260: fdc0 563f 35be 91bf fec2 e2be c8f7 403f
00000270: d64e 253f 1204 c33e ece8 19bf 407d 87bf
00000280: 8f84 3e3f b4e1 46bf f51f 38bf d22f 643f
00000290: 6e85 803f 1869 8b3e 9cc9 31bf 8f91 9abf
000002a0: 559e 2a3f ab15 65bf 3605 abbe c1e3 333f
000002b0: b8da 3a3f e9ba f53d dd4f 1bbf 0a23 89bf
000002c0: c9b2 fc3e a5a5 5abf 3e9b 3ebf a33c 083f
000002d0: 1af6 993f 8554 363e ee66 0fbf 0f06 80bf
000002e0: 3c91 a4be 704d 423f d74d 3d3f 06d6 28bf
000002f0: 4425 2cbf 7811 d6be 965c 823f fd5b 4e3f
00000300: bbda 663e 4d4c 32bf 82fc acbe 4b70 48be
00000310: 76e6 aa3c fcb8 183f a890 273e c932 46bf
00000320: dc3b 3a3e d5f6 2f3f 8b39 613f fd71 55bf
00000330: d57f 4fbf d792 fc3c 8a83 403f a9af 293f
00000340: c358 c03d 29bf 923e 8ddf 8fbd 5527 dabe
00000350: d0b5 b2be 2f68 ea3e 5996 823f a927 4b3b
00000360: 457e c83e f38c 33bf 72bb 15be 27b2 12bf
00000370: 8a8c 2cbe f411 a33e ed26 4b3f 35b4 9fbd
00000380: 16b6 b43e 4319 f6bd dac8 543d 6ac6 91be
00000390: 2a7d 06be a71e 833e 1df6 e73e bb8a cabe
000003a0: 6c88 c5bc 8eb2 873e 4772 103f aef0 77be
000003b0: 97a6 44bf 893f f7bd c7fe 753f 34e9 f23e
000003c0: 1e2b c9bd c020 923f 9b45 023f f7fd 5bbf
000003d0: 5346 89bf e390 1bbf 451e 843f 7008 833f
000003e0: f346 8f3e 17ff 54bf 81c8 c2be 0985 fc3e
000003f0: 4293 c33e 7d04 2f3e 5ecd edbe 2a55 43bf

lstm.weight_hh_l2 f4 [32, 8]
-0.020963013 0.19639692 0.3088816 0.022082627 -0.17034525 -0.30337045 -0.25720507 0.009619921
0.26936892 0.046686202 0.22964421 0.16820142 -0.08834109 0.27084443 0.13025594 -0.31586435
-0.1909575 -0.20399053 0.25675866 0.0175955 -0.15065682 0.13166937 0.011836559 -0.30317003
0.062384784 0.12693024 -0.11482622 0.28720853 -0.29710722 -0.25924897 0.12648249 0.212289
-0.22570649 -0.29001364 0.13755623 0.16081545 0.03772521 -0.3301875 0.13073745 -0.22968405
-0.055012047 0.2807546 -0.055640787 -0.06514028 -0.14733104 0.19091496 0.33719012 -0.23516348
0.3269358 0.18457559 -0.21160032 -0.1416411 0.26582137 0.26357457 0.053148955 -0.24663438
0.24511501 -0.34945342 -0.2328107 0.3385541 -0.30407253 -0.024565846 -0.26543945 0.1732612
-0.13923456 0.081136346 -0.20306617 -0.017126083 -0.20774467 -0.1566586 -0.34301123 -0.18699802
-0.2555376 0.09487146 0.010197341 -0.28397426 -0.27773008 -0.004695505 0.072993755 -0.009064764
-0.020346671 0.2094135 -0.2861462 -0.03210938 0.058341384 0.010883778 0.14828375 -0.194475
-0.01262489 -0.23709697 -0.22313535 0.023320824 -0.082874686 -0.14136621 -0.25118136 0.034988582
-0.32516837 0.16640517 -0.19789083 -0.11019099 0.2683495 0.1293872 -0.23866293 -0.11862193
-0.19506784 0.22582772 0.29725942 0.3289067 0.098939925 -0.008412421 -0.3425259 -0.07824355
0.30647114 0.003380388 0.30559328 0.31398854 0.27083406 0.12286332 0.14527264 0.19251779
0.18078151 -0.13185865 -0.004909694 -0.3312328 0.32184073 -0.18006474 0.15590248 -0.084938794
-0.22790073 0.046387315 0.17189637 -0.015708983 -0.18289857 -0.2789444 0.30080852 -0.30901322
-0.34535444 0.15806875 0.15431598 -0.056201458 0.17212757 0.087803066 -0.055609465 0.15573767
0.17789719 0.032215714 0.23954508 -0.09207323 0.29794237 -0.054424047 -0.34240958 0.15073004
-0.29017726 -0.16378257 0.22370717 -0.13698728 -0.13984257 -0.04440245 -0.15490606 -0.05893314
-0.22513299 -0.28549564 0.07040936 -0.25859892 0.04952061 -0.051653564 -0.33425987 0.10604784
0.27180192 -0.18974587 0.30714628 -0.012015641 0.3465239 -0.079119414 0.140203 0.2774084
-0.18740912 0.27795932 0.30728588 0.30731407 -0.09986317 -0.17194936 0.0264436 -0.21902397
0.013953596 0.09796777 -0.32981205 0.332817 -0.039666623 0.1758447 0.29917887 -0.2827035
-0.3397445 -0.22264098 0.015630752 -0.15708855 -0.010029554 0.11712924 0.09908879 0.03300175
0.034862995 -0.31415397 0.010170281 -0.18951929 -0.24834153 -0.015906125 -0.1959098 0.060766935
-0.047438174 0.06212172 0.15991524 -0.10765822 -0.060430855 0.13316995 -0.34442 0.2815738
-0.2723742 -0.17490621 0.03405142 0.32611462 -0.24011695 0.008652449 0.27786067 -0.1173469
0.037566632 0.31594637 -0.17221649 0.13238755 -0.01848349 -0.25516805 0.016587496 -0.26755813
-0.037282974 -0.20540169 0.28420958 0.22347817 0.09064004 0.055327177 -0.23358634 0.13350567
-0.0549576 -0.0061802566 0.33837137 -0.09820485 0.14468512 -0.076987535 0.2862403 -0.018776625
0.16770568 0.21999553 0.3060504 -0.049269825 0.0521695 -0.24176052 0.008141458 0.23051003
00000000: a0ba abbc 461c 493e bb25 9e3e a0e6 b43c
00000010: fc6e 2ebe 5f53 9bbe 62b0 83be e09c 1d3c
00000020: b9ea 893e 083a 3f3d da27 6b3e fe3c 2c3e
00000030: 2cec b4bd 1fac 8a3e d061 053e f9b8 a1be
00000040: 5d8a 43be e5e2 50be df75 833e 7024 903c
00000050: c845 1abe 56d4 063e 20ee 413c 1a39 9bbe
00000060: 3087 7f3d 00fa 013e 022a ebbd ff0c 933e
00000070: 701e 98be 48bc 84be a084 013e 4a62 593e
00000080: 9a1f 67be ab7c 94be 8adb 0c3e ceac 243e
00000090: c085 1a3d 560e a9be 0ae0 053e 4c32 6bbe
000000a0: 5054 61bd 11bf 8f3e 98e7 63bd 4468 85bd
000000b0: f3dd 16be 367f 433e 2fa4 ac3e b2ce 70be
000000c0: 2164 a73e 6201 3d3e c1ad 58be 5d0a 11be
000000d0: bd19 883e 3ff3 863e b8b2 593d b98d 7cbe
000000e0: 6eff 7a3e 8feb b2be ee65 6ebe f756 ad3e
000000f0: 65af 9bbe 503e c9bc aee7 87be 626b 313e
00000100: 8193 0ebe d02a a63d 94f0 4fbe 004c 8cbc
00000110: 05bb 54be 1d6b 20be 2b9f afbe 697c 3fbe
00000120: d3d5 82be f84b c23d c012 273c 1365 91be
00000130: a332 8ebe c0dc 99bb c07d 953d 6084 14bc
00000140: 10ae a6bc 7e70 563e c181 92be 2085 03bd
00000150: 60f7 6e3d e051 323c b2d7 173e 7424 47be
00000160: a0d8 4ebc 8cc9 72be 987d 64be 500b bf3c
00000170: 34ba a9bd 4ec2 10be d89a 80be 3050 0f3d
00000180: 787c a6be 1e66 2a3e e5a3 4abe d0ab e1bd
00000190: 1b65 893e 147e 043e 0e64 74be 0ef0 f2bd
000001a0: ddbf 47be 623f 673e 6332 983e 7566 a83e
000001b0: 04a1 ca3d 40d4 09bc 8e5f afbe 283e a0bd
000001c0: c9e9 9c3e 8089 5d3b b976 9c3e 1bc3 a03e
000001d0: c3aa 8a3e c49f fb3d 5ac2 143e 6223 453e
000001e0: ca1e 393e f405 07be 80e1 a0bb 5897 a9be
000001f0: 4fc8 a43e e462 38be e6a4 1f3e 64f4 adbd
00000200: cf5e 69be a000 3e3d 9a05 303e 20b0 80bc
00000210: c349 3bbe cdd1 8ebe 9303 9a3e fb36 9ebe
00000220: 4cd2 b0be c6dc 213e 0205 1e3e 8033 66bd
00000230: 3642 303e 18d2 b33d c0c6 63bd b279 1f3e
00000240: ae2a 363e a0f4 033d 4e4b 753e e490 bcbd
00000250: e78b 983e c0eb 5ebd 4f50 afbe fa58 1a3e
00000260: 1d92 94be 9eb6 27be 7e13 653e 6546 0cbe
00000270: e432 0fbe 58df 35bd b29f 1ebe e063 71bd
00000280: 4389 66be 7c2c 92be c832 903d 1467 84be
00000290: 20d6 4a3d b092 53bd 1c24 abbe 9c2f d93d
000002a0: 9f29 8b3e be4c 42be 4742 9d3e 40dd 44bc
000002b0: 956b b13e 5c09 a2bd 6091 0f3e 7908 8e3e
000002c0: 2de8 3fbe af50 8e3e 9354 9d3e 4558 9d3e
000002d0: 1085 ccbd 7e13 30be 40a0 d83c d247 60be
000002e0: a09d 643c 54a3 c83d 20dd a8be fd66 aa3e
000002f0: 7879 22bd a210 343e f92d 993e 83be 90be
00000300: fef2 adbe fffb 63be 100c 803c d2db 20be
00000310: 0053 24bc 74e1 ef3d 10ef ca3d d82c 073d
00000320: 80cc 0e3d cad8 a0be 40a1 263c 5811 42be
00000330: 3e4d 7ebe 904d 82bc 949c 48be c0e6 783d
00000340: 884e 42bd 5873 7e3d d2c0 233e ea7b dcbd
00000350: 5886 77bd b45d 083e d157 b0be 712a 903e
00000360: a274 8bbe 9d1a 33be 8079 0b3d 7ff8 a63e
00000370: 38e1 75be 00c3 0d3c c143 8e3e 9253 f0bd
00000380: 78df 193d b9c3 a13e 8559 30be 9a90 073e
00000390: b06a 97bc 63a5 82be 80e2 873c 61fd 88be
000003a0: 08b6 18bd d254 52be eb83 913e 76d7 643e
000003b0: 7ca1 b93d c09e 623d 4231 6fbe b6b5 083e
000003c0: 381b 61bd c083 cabb 033f ad3e a01f c9bd
000003d0: 5628 143e a4ab 9dbd 178e 923e 70d1 99bc
000003e0: 0abb 2b3e 8246 613e a3b2 9c3e 28cf 49bd
000003f0: b0af 553d 1290 77be c063 053c d20a 6c3e

lstm.bias_ih_l2 f4 [32]
1.0022501 0.3542698 1.1331215 0.73853457 0.85050017 1.128338 0.72470933 0.32058364
0.0033695102 0.3175026 -0.24758777 -0.036751956 0.28373715 0.24972197 0.02520585 -0.08495164
-0.2169114 -0.4198932 -0.513054 -0.304027 -0.3929225 -0.35012853 -0.6153045 -0.06554596
1.0288091 0.87497926 0.93875474 0.9721888 1.3036909 0.66710156 0.7289063 0.16310625
00000000: bb49 803f da62 b53e 200a 913f 9a10 3d3f
00000010: 61ba 593f 616d 903f 8d86 393f 8a23 a43e
00000020: 00d3 5c3b b38f a23e a687 7dbe 3889 16bd
00000030: ff45 913e 1eb7 7f3e 807c ce3c 20fb adbd
00000040: 061e 5ebe 3efc d6be 8257 03bf 6da9 9bbe
00000050: 232d c9be 0c44 b3be 9984 1dbf f63c 86bd
00000060: 04b0 833f a4fe 5f3f 3b52 703f 5de1 783f
00000070: 58df a63f 2bc7 2a3f 9a99 3a3f 5305 273e

lstm.bias_hh_l2 f4 [32]
0.54940975 0.4063835 1.1813357 1.1138166 1.3666363 0.87903255 0.92697716 0.42707562
-0.060070634 0.22294351 -0.20136483 -0.10479295 0.09899762 0.048484355 -0.24915025 -0.09375709
-0.24202487 -0.35954112 -0.33470863 -0.47355878 -0.26017663 -0.7423478 -0.39604202 0.058343578
0.40296307 0.34139636 0.9104824 0.98431337 0.7836789 0.57494515 0.46334937 0.52280515
00000000: 1ea6 0c3f 8011 d03e 0236 973f 8b91 8e3f
00000010: f0ed ae3f 4708 613f 604e 6d3f a8a9 da3e
00000020: a00c 76bd 4e4b 643e 9532 4ebe b09d d6bd
00000030: 44bf ca3d 8897 463d 3e21 7fbe b803 c0bd
00000040: 5ed5 77be c615 b8be ee5e abbe 4c76 f2be
00000050: df35 85be 810a 3ebf 05c6 cabe adf9 6e3d
00000060: 2d51 ce3e 81cb ae3e 6015 693f f6fb 7b3f
00000070: 2e9f 483f 9b2f 133f 213c ed3e 8fd6 053f

lstm.weight_ih_l3 f4 [32, 8]
0.38573822 -0.47627884 -0.25022325 -0.2202969 0.09402574 -0.3615144 -0.6498226 -0.110715084
0.33508664 -0.7722865 -0.078982465 0.29606026 -0.1851403 -0.57341874 -0.3388649 0.07091609
0.2311344 -0.9190378 -0.4324485 0.024254262 -0.40537593 -0.70917684 -1.1899393 -0.08036057
-0.115086414 -0.413856 0.09730736 -0.19792302 -0.092306904 -0.19720538 -0.6442871 -0.48451585
-0.60021234 -0.50775975 -0.74404246 -0.7087558 -0.31306693 -0.7176886 -0.98436016 0.19679768
-0.34314546 -0.54366237 -0.659549 -0.20650764 -0.7724871 -1.0876398 -0.94068867 -0.27241603
-0.12712342 -0.9929152 -0.46043378 -0.114986904 -0.36254376 -0.74203175 -1.0286156 -0.09502934
0.43030986 0.26065403 0.42362973 0.40683302 0.6613061 0.7091258 0.2019235 -0.46260324
0.07304323 -0.18310471 -0.28629518 -0.29158837 0.23661014 0.011034757 -0.14017962 0.034956604
0.06862098 0.015433162 -0.032129377 0.16228351 -0.1496791 -0.030076504 -0.31034702 -0.28411055
-0.20106247 0.06728682 0.17093709 -0.2883779 0.33510897 0.25201812 -0.15753834 0.10808855
-0.2644209 0.31419381 0.15506658 0.15419069 0.16548899 -0.18542345 -0.11083558 -0.34281212
0.2264739 0.16770431 0.26749578 -0.31718832 0.339471 -0.21099614 -0.22562476 -0.035736322
-0.29447892 0.21127155 -0.14301905 -0.18953918 0.1386866 0.29942194 0.31502083 0.33871767
-0.12814921 -0.013997465 0.34824923 0.29138824 -0.3017924 0.1397692 -0.24348664 -0.086364925
-0.09904483 -0.08499944 -0.31832826 0.3321685 0.19514331 0.30411068 0.18523052 -0.13904257
1.0951605 0.6840217 1.2238228 0.7597257 1.0380293 0.7502437 0.9610885 -0.6832796
-0.5108707 -0.912066 -1.0550932 -1.1472956 -0.8816231 -0.6206414 -0.7409471 0.59252965
0.9886955 0.8260706 0.71040666 1.1389046 0.9065076 0.99909896 0.9377188 -0.5770284
0.50669366 0.9384495 1.0954436 1.065102 1.05801 0.55492294 0.7479595 -0.26977438
0.9241792 0.74975157 0.905188 1.0523603 0.9303031 0.4506356 0.86285037 -0.56721425
0.774491 0.8010668 0.63517845 0.77623975 1.1111157 0.67899317 0.9885036 -0.46493948
0.773919 0.61597383 1.0724401 0.866639 0.9425157 1.0734098 0.96672773 -0.29165775
0.53909916 0.8137348 0.8945247 0.24631524 0.8789428 0.94447553 0.34590635 -0.5014199
0.36108148 -0.9977354 -0.17865236 0.1691677 0.17092095 -0.71183056 -0.9391695 0.08618453
0.45968893 -0.6503374 -0.23064272 -0.12821656 0.189406 -0.6388769 -0.6753279 -0.52093244
-0.1653682 -0.56245816 -0.7366713 0.22406186 -0.61034644 -0.48821333 -1.2680553 -0.44436264
0.28786838 -0.5558099 -0.35694438 -0.017571323 0.027803151 -0.4403913 -0.733774 -0.19810638
-0.48786497 -1.0399209 -0.751722 -0.56708044 -0.89156735 -1.132952 -0.6060251 -0.24487203
-0.5906532 -0.6430721 -0.73081094 -0.43257827 -0.7916109 -0.44501483 -1.1189651 -0.21304156
-0.25962198 -0.80752856 -0.62450385 -0.6265298 -0.41188496 -0.6276007 -0.86787826 0.13169229
0.07297139 0.6292498 0.5531525 0.050847046 0.66525143 0.56323093 0.57124263 -0.2808323
00000000: 7b7f c53e d2da f3be 431d 80be 8395 61be
00000010: 9190 c03d 6a18 b9be c65a 26bf 97be e2bd
00000020: 7a90 ab3e 91b4 45bf 8fc1 a1bd 3695 973e
00000030: 6b95 3dbe 92cb 12bf b37f adbe 743c 913d
00000040: 7fae 6c3e 1046 6bbf e469 ddbe e0b0 c63c
00000050: 6f8d cfbe 9d8c 35bf ee4f 98bf 1594 a4bd
00000060: 6db2 ebbd efe4 d3be 1549 c73d 55ac 4abe
00000070: 670b bdbd 35f0 49be 00f0 24bf 7612 f8be
00000080: 84a7 19bf 8bfc 01bf 9179 3ebf 0571 35bf
00000090: 4f4a a0be 71ba 37bf 07ff 7bbf 5585 493e
000000a0: c3b0 afbe 752d 0bbf 34d8 28bf bd76 53be
000000b0: b7c1 45bf c837 8bbf f9d0 70bf 1d7a 8bbe
000000c0: a42c 02be b12f 7ebf fabd ebbe 417e ebbd
000000d0: 569f b9be cbf5 3dbf ada9 83bf be9e c2bd
000000e0: 9351 dc3e 7274 853e ffe5 d83e 6b4c d03e
000000f0: 5b4b 293f 4589 353f 09c5 4e3e 55da ecbe
00000100: b097 953d cd7f 3bbe 4895 92be 124b 95be
00000110: ee49 723e 20cb 343c 3f8b 0fbe a82e 0f3d
00000120: 2889 8c3d 60db 7c3c 189a 03bd a62d 263e
00000130: 7a45 19be 0063 f6bc cee5 9ebe f076 91be
00000140: 52e3 4dbe accd 893d 220a 2f3e 45a6 93be
00000150: 6793 ab3e 8508 813e bb51 21be 885d dd3d
00000160: 2d62 87be 03de a03e c6c9 1e3e 2ae4 1d3e
00000170: f275 293e a5df 3dbe c4fd e2bd 1285 afbe
00000180: c6e8 673e aeba 2b3e 35f5 883e 8266 a2be
00000190: 25cf ad3e 5f0f 58be 2d0a 67be 4060 12bd
000001a0: f1c5 96be 9257 583e 9673 12be 8f16 42be
000001b0: dc03 0e3e d54d 993e 694a a13e 676c ad3e
000001c0: 8c39 03be a055 65bc b94d b23e d730 953e
000001d0: 8984 9abe a81f 0f3e 9054 79be 18e0 b0bd
000001e0: 04d8 cabd 3014 aebd ecfb a2be fd11 aa3e
000001f0: a6d3 473e 65b4 9b3e 12ad 3d3e 2d61 0ebe
00000200: 382e 8c3f 0c1c 2f3f 3aa6 9c3f 627d 423f
00000210: 25de 843f f90f 403f e509 763f 69eb 2ebf
00000220: 6cc8 02bf 287d 69bf 4b0d 87bf 95da 92bf
00000230: 0db2 61bf 5be2 1ebf b6ae 3dbf 06b0 173f
00000240: 261b 7d3f 5d79 533f 36dd 353f a0c7 913f
00000250: e210 683f f3c4 7f3f 570e 703f 22b8 13bf
00000260: adb6 013f 3a3e 703f 7f37 8c3f 4355 883f
00000270: df6c 873f 6e0f 0e3f 467a 3f3f de1f 8abe
00000280: 0297 6c3f b8ef 3f3f 67ba 673f beb3 863f
00000290: 5828 6e3f b6b9 e63e c3e3 5c3f f434 11bf
000002a0: 0b45 463f b712 4d3f 0e9b 223f a6b7 463f
000002b0: 0a39 8e3f 7fd2 2d3f 920e 7d3f 8c0c eebe
000002c0: 8e1f 463f 76b0 1d3f b845 893f 0edc 5d3f
000002d0: b548 713f 7e65 893f 787b 773f 2a54 95be
000002e0: 6702 0a3f ed50 503f 92ff 643f 103a 7c3e
000002f0: 6502 613f 26c9 713f a31a b13e 0e5d 00bf
00000300: acdf b83e 966b 7fbf a5f0 36be 4c3a 2d3e
00000310: e705 2f3e 873a 36bf 6a6d 70bf 8481 b03d
00000320: 595c eb3e 837c 26bf 9b2d 6cbe 344b 03be
00000330: a5f3 413e 708d 23bf 4ae2 2cbf d45b 05bf
00000340: 4856 29be 42fd 0fbf 7e96 3cbf 7970 653e
00000350: aa3f 1cbf 19f7 f9be a34f a2bf 8083 e3be
00000360: 7c63 933e 8f49 0ebf 6ac1 b6be bcf1 8fbc
00000370: 6fc3 e33c f87a e1be 9dd8 3bbf 66dc 4abe
00000380: 70c9 f9be 211c 85bf da70 40bf 2f2c 11bf
00000390: c23d 64bf 9204 91bf 7624 1bbf bcbf 7abe
000003a0: 0c35 17bf 60a0 24bf 6d16 3bbf e67a ddbe
000003b0: 03a7 4abf fcd8 e3be 403a 8fbf 9127 5abe
000003c0: 2ced 84be 31ba 4ebf 7cdf 1fbf 4264 20bf
000003d0: 96e2 d2be 71aa 20bf 452d 5ebf 58da 063e
000003e0: 0672 953d 8416 213f 679b 0d3f fe44 503d
000003f0: eb4d 2a3f e72f 103f f53c 123f 40c9 8fbe
