ModelSave3.pt (torch_old, 18569 bytes, 41 tensors)

lstm.weight_ih_l0 f4 [24, 6]
0	0xbeec6378	-0.4616964
1	0xbef0dbf2	-0.47042805
2	0xbcb222a3	-0.021745032
3	0xbde56e00	-0.112026215
4	0x3deae104	0.114686996
5	0xbe5e9649	-0.21737017
6	0x3eac27e4	0.33624184
7	0xbf2c2dec	-0.6725757
8	0xbf13f8be	-0.57801425
9	0xbf7e8e24	-0.9943564
10	0x3f6a8dcb	0.9162261
11	0xbea5757b	-0.32316193
12	0xbe0a16f3	-0.13485317
13	0xbf2cfa1c	-0.67569137
14	0x3f7e530e	0.9934548
15	0xbe4f6681	-0.20253946
16	0xbf89a17b	-1.0752405
17	0x3fa5657a	1.2921593
18	0xbd90296d	-0.07039151
19	0xbe3d8042	-0.18505958
20	0x3dfe56bf	0.12418889
21	0xbf4a78e1	-0.79090697
22	0x3f760d78	0.961143
23	0x3f78f207	0.97244304
24	0xbd9021bb	-0.070376836
25	0xbe8f939f	-0.28042313
26	0x3ef8d59e	0.48600477
27	0xbe598186	-0.21240816
28	0x3fb82c3a	1.4388497
29	0xbf9404c7	-1.1563958
30	0x3da64c77	0.08120053
31	0xbeb5ef13	-0.35533962
32	0x3f5f8682	0.8731462
33	0x3f4351f7	0.76296943
34	0xbf9911f9	-1.195861
35	0xbf791e22	-0.97311604
36	0xbdb2a624	-0.08723095
37	0x3e8c7ca8	0.27438855
38	0x3ecadec2	0.39623076
39	0x3ea99d72	0.33127934
40	0xbe354252	-0.1770108
41	0xbd929880	-0.07157993
42	0x3e2f28bc	0.17105383
43	0x3eb8a3b2	0.3606239
44	0x3e334e98	0.1751045
45	0xbce47570	-0.02788803
46	0xbe1a04ee	-0.15040943
47	0xbe97402a	-0.2954114
48	0x3e99a6f8	0.300102
49	0x3e1d33e0	0.1535182
50	0xbe9ec0b8	-0.31006408
51	0xbebe802a	-0.37207156
52	0x3d180470	0.037113607
53	0x3d140910	0.036141455
54	0x3ec7e648	0.39042878
55	0x3eba4f94	0.36388838
56	0x3ed0a70a	0.4075244
57	0x3d76da70	0.060266912
58	0xbe904063	-0.28174123
59	0x3eb6a12c	0.3566984
60	0xbd965a5c	-0.073414534
61	0x3e889208	0.26673913
62	0x3c75f0e0	0.015011042
63	0xbb5c2500	-0.003359139
64	0xbcd14490	-0.025545388
65	0x3ece0fa8	0.4024632
66	0x3cfd4840	0.03091824
67	0xbe22263e	-0.158349
68	0x3e413f84	0.18871886
69	0x3e87fb28	0.26558805
70	0x3e9f76fc	0.31145465
71	0x3e5e3394	0.21699363
72	0x3e7fd670	0.24984145
73	0x3d8c25b6	0.0684313
74	0x3c066e5f	0.008205025
75	0x3e1e3659	0.1545042
76	0x3e33245a	0.17494336
77	0x3e298ac5	0.16556843
78	0xbe67a709	-0.22622313
79	0x3ebb6d8c	0.36607015
80	0xbf8cc303	-1.0997013
81	0xbf48dac3	-0.78458804
82	0x3ec5d38f	0.3863797
83	0xbf4938cd	-0.78602296
84	0x3c13f04e	0.009029461
85	0xbeb84be1	-0.3599539
86	0x3f57f6c4	0.8436091
87	0x3dcb33a9	0.09921963
88	0x3fe34a06	1.7756965
89	0xbfcaa216	-1.5830715
90	0x3d4b9251	0.049700085
91	0x3e446d80	0.19182396
92	0xbf9d8f65	-1.2309386
93	0xbea11d60	-0.31467724
94	0x3f1afcc0	0.60541916
95	0x3fa081f0	1.2539654
96	0xbd06d355	-0.032916386
97	0x3d192510	0.03738886
98	0x3f69d0b7	0.913341
99	0x3ed697e1	0.4191275
100	0xbe38fd9d	-0.18065496
101	0x3faea97a	1.364547
102	0xbdf8ce3a	-0.121487096
103	0xbcb7e902	-0.022449974
104	0xbf42c173	-0.7607643
105	0x3eb17690	0.34660769
106	0xbfa77298	-1.3081846
107	0xbf828694	-1.019732
108	0xbe0bb7a9	-0.1364428
109	0xbea25a73	-0.31709632
110	0x3eb850fd	0.3599929
111	0xbed300dd	-0.41211596
112	0xbf001d94	-0.5004513
113	0x3df8e012	0.12152113
114	0x3e9c7fc4	0.30566227
115	0xbf5217ff	-0.82067865
116	0xbf43dca2	-0.76508534
117	0xbf98b60b	-1.1930555
118	0x3ef3f6c0	0.47649193
119	0xbf739596	-0.95150125
120	0xbe41798b	-0.18894021
121	0xbf2e0ef5	-0.6799157
122	0x3f5be43d	0.8589514
123	0xbecac9d7	-0.39607117
124	0xbf81387f	-1.0095366
125	0x3fd54334	1.6661134
126	0xbda4d23c	-0.080479115
127	0x3ede0f71	0.43371156
128	0x3d8341e5	0.06409053
129	0xbf2a9d25	-0.66646034
130	0x3f2debfd	0.67938215
131	0x3f84b1f5	1.0366808
132	0xbd81cbbc	-0.063376874
133	0xbee59214	-0.4483801
134	0x3ef7ae79	0.483753
135	0xbf2d5f42	-0.67723477
136	0xbdf30d5a	-0.11867781
137	0xbfe8b958	-1.8181562
138	0x3f1295ad	0.5725964
139	0xbecd03b2	-0.40041882
140	0x3eba6cad	0.36411038
141	0x3e6bcbe6	0.23027
142	0xbf586217	-0.84524673
143	0xbfa90814	-1.320559

lstm.weight_hh_l0 f4 [24, 6]
0	0x3d8f1d88	0.069880545
1	0xbde1a30c	-0.11017427
2	0xbd1239a0	-0.035699487
3	0x3cc95780	0.024577856
4	0x3e3ea588	0.18617833
5	0xbe884762	-0.2661696
6	0x3ed03d64	0.40671837
7	0xbe1c8904	-0.15286642
8	0x3e9cc41c	0.3061837
9	0x3e074ff0	0.13214087
10	0x3ec42cf8	0.38315558
11	0xbe96a6f8	-0.29424262
12	0x3eb9960a	0.36247283
13	0xbeb61974	-0.35566294
14	0xbe5339a0	-0.20627451
15	0xbd92f2a0	-0.07175183
16	0x3e7def00	0.24798203
17	0x3e9643e2	0.29348665
18	0x3ebebb86	0.37252444
19	0xbd0095f8	-0.03139302
20	0xbeb6c88a	-0.35699874
21	0xbea0e557	-0.31424972
22	0x3db4c16c	0.08825955
23	0x3bf71240	0.0075400174
24	0x3eabb09e	0.33533186
25	0x3e217a74	0.15769368
26	0x3ea44648	0.3208487
27	0x3e1ae35c	0.15125793
28	0x3ec409ea	0.38288814
29	0xbde662f0	-0.112493396
30	0x3ebe6be6	0.37191695
31	0x3d941730	0.07230985
32	0xbde9151c	-0.113809794
33	0xbca08850	-0.019596249
34	0x3ea4513c	0.32093227
35	0x3e2239bc	0.15842336
36	0xbda6bf08	-0.08141905
37	0x3df5dc18	0.1200487
38	0xbe0288a8	-0.12747443
39	0x3e9b55c6	0.30338877
40	0x3d074510	0.033024848
41	0xbe66a1f4	-0.22522718
42	0x3d6afa10	0.057367384
43	0xbec62fc2	-0.3870831
44	0x3e1d9780	0.15389824
45	0x3dcd0ee0	0.10012603
46	0x3e58e644	0.2118159
47	0xbea88787	-0.329159
48	0xbe019c2e	-0.12657234
49	0xbeb24766	-0.34820098
50	0xbe34d60b	-0.17659776
51	0xbec7cd0a	-0.3902362
52	0xbe83f238	-0.25770736
53	0xbcdfc120	-0.027313769
54	0x3b97bdc0	0.0046307743
55	0xbe978dfe	-0.2960052
56	0xbd8c387c	-0.06846711
57	0x3e4e7148	0.20160401
58	0x3ec3697e	0.38166422
59	0xbe24311b	-0.16034357
60	0xbe334c61	-0.17509605
61	0xbe09a48a	-0.13441673
62	0x3e879f38	0.26488662
63	0x3e9ca086	0.3059122
64	0x3e64b8a0	0.22336054
65	0x3dbb6c9c	0.09151575
66	0xbdb3e9fc	-0.08784863
67	0x3d382280	0.044954777
68	0x3e95b47c	0.2923926
69	0x3e8ac910	0.27106524
70	0xbe7ad1b0	-0.24494052
71	0x3eb6d76e	0.35711235
72	0xbe496259	-0.19666423
73	0x3dbdb5d8	0.092631996
74	0x3d1065c0	0.035253286
75	0x3eca0630	0.39457846
76	0x3ea54b7a	0.32284147
77	0x3e2fdee8	0.17174876
78	0x3e3f23f0	0.18666053
79	0x3da6e634	0.081493765
80	0x3e249934	0.16074067
81	0xbec2d952	-0.38056427
82	0xbe7648b8	-0.24051178
83	0xbeabc5cf	-0.33549353
84	0xbe842a48	-0.25813508
85	0xbebad896	-0.36493367
86	0xbec6750e	-0.3876118
87	0x3ec66220	0.38746738
88	0x3ebe3b1c	0.37154472
89	0xbe5aca19	-0.21366157
90	0xbeb46d01	-0.35239413
91	0x3d820780	0.06349087
92	0x3e7570dc	0.23968834
93	0x3d48b468	0.049000174
94	0xbe32b726	-0.17452678
95	0xbecd59eb	-0.40107664
96	0xbeb211e3	-0.3477927
97	0xbd5c1ed0	-0.053740323
98	0x3be21280	0.006899178
99	0xbe48179b	-0.19540255
100	0x3db00674	0.08594981
101	0x3c037b00	0.008024931
102	0xbdc0ea64	-0.094197065
103	0x3da69288	0.08133417
104	0xbe8808e0	-0.2656927
105	0x3cd338d0	0.025783926
106	0x3ea24c32	0.31698757
107	0x3eab7594	0.33488142
108	0x3e9216a8	0.2853291
109	0xbdacc148	-0.08435303
110	0xbdf74a38	-0.12074703
111	0x3e11326c	0.1417939
112	0x3d979b24	0.074026376
113	0x3e7e8cc0	0.2485838
114	0xbec70e6d	-0.38878193
115	0x3ce38320	0.027772486
116	0xbeb39309	-0.35073116
117	0xbea71f9b	-0.326413
118	0xbe93d952	-0.2887674
119	0xbebbd997	-0.36689445
120	0x3e450e38	0.19243705
121	0xbe21476a	-0.15749899
122	0xbeafdecc	-0.34349668
123	0x3e8e5d42	0.27805525
124	0xbea088e0	-0.31354427
125	0x3d97ae50	0.07406294
126	0x3e89d750	0.26922083
127	0xbc8d3870	-0.017238826
128	0x3de18c20	0.11013055
129	0x3eb1c5a6	0.34721106
130	0xbe15fe0a	-0.1464769
131	0xbe994ab6	-0.29939812
132	0x3eaf262a	0.34208804
133	0x3e1db9f8	0.15402973
134	0xbeb8ec21	-0.36117652
135	0x3e982656	0.29716748
136	0x3d832ad0	0.0640465
137	0xbcf234a0	-0.02956611
138	0xbe901fec	-0.28149354
139	0xbd7f2260	-0.062288642
140	0xbe69fa31	-0.22849347
141	0x3e79e108	0.24402249
142	0x3e5d209c	0.2159447
143	0xbe4c0992	-0.19925526

lstm.bias_ih_l0 f4 [24]
0	0x3eee2357	0.46511337
1	0x3f5397b6	0.8265337
2	0x3ecbc1ef	0.39796397
3	0x3f8b8ccc	1.0902343
4	0x3f070c28	0.52752924
5	0x3e9fce71	0.3121219
6	0x3eb4a84a	0.35284644
7	0x3e3645f4	0.17800122
8	0xbe3c830f	-0.1840937
9	0xbb69cb80	-0.0035674274
10	0xbd4313a0	-0.047626138
11	0x3dd59ae8	0.10429937
12	0xbf0779ce	-0.52920234
13	0x3e3ed5b2	0.18636206
14	0x3b7775ad	0.003775935
15	0x3e9a302e	0.30114883
16	0xbe0a7cad	-0.13524123
17	0x3db6a6dd	0.089185454
18	0x3dfc979b	0.12333604
19	0x3f26900d	0.65063554
20	0x3ec9a38e	0.39382595
21	0x3f098591	0.5371943
22	0x3efa1dc9	0.4885085
23	0xbd2913aa	-0.04127852

lstm.bias_hh_l0 f4 [24]
0	0x3c0a9ca8	0.008460201
1	0x3f6167cb	0.88049
2	0x3e8c32ef	0.2738261
3	0x3f14503f	0.57934946
4	0x3e713a00	0.23557281
5	0x3dd0b7b9	0.10191292
6	0x3ec940ca	0.39307243
7	0x3e92affa	0.28649884
8	0x3e286e30	0.16448283
9	0x3e84da36	0.25947732
10	0xbecaf27a	-0.3963812
11	0xbea5f4ee	-0.3241343
12	0xbf46b993	-0.77626914
13	0x3f1e2ac4	0.61784005
14	0xbea639f8	-0.32466102
15	0x3ee0a9c9	0.43879536
16	0xbe2e2b53	-0.17008714
17	0x3d969e24	0.07354382
18	0xbdf24935	-0.118303694
19	0x3ecff204	0.4061433
20	0x3f01bac2	0.50675595
21	0x3ee89487	0.45425817
22	0x3e7d843c	0.24757475
23	0x3eacab8d	0.33724633

lstm.weight_ih_l1 f4 [24, 6]
0	0xbf17e860	-0.5933895
1	0xbe71aae5	-0.23600347
2	0x3f779b7b	0.9672162
3	0xbef15c36	-0.47140664
4	0x3f635c0d	0.88812333
5	0xbef7e0fa	-0.4841383
6	0x3d85d661	0.0653503
7	0xbf25b9f3	-0.6473686
8	0x3eaa8e61	0.3331175
9	0xbf12eb61	-0.5739041
10	0x3f4821f7	0.78176826
11	0xbe5039a9	-0.20334496
12	0xbf714236	-0.94241655
13	0x3f66e57d	0.9019392
14	0x3ee5c055	0.448733
15	0x3f09ea57	0.538732
16	0xbf394347	-0.7236828
17	0x3f24b2f2	0.6433555
18	0xbf88caac	-1.068685
19	0x3f11fff3	0.5703117
20	0x3f08ebee	0.53485
21	0x3e7d6344	0.24744898
22	0x3f4372bf	0.76346964
23	0xbf0f827f	-0.56058496
24	0xbf54f5dd	-0.8318766
25	0x3e37d723	0.17953162
26	0x3e353422	0.17695668
27	0x3e95d86d	0.29266682
28	0x3f27bd57	0.65523285
29	0xbf4b9c38	-0.79535246
30	0xbf52e825	-0.82385474
31	0x3f86e487	1.0538491
32	0xbe9e1701	-0.30876926
33	0x3eed8254	0.46388495
34	0xbf0365d5	-0.5132726
35	0x3db7e522	0.089792505
36	0xbd9e29d0	-0.07722819
37	0x3eb215ae	0.34782165
38	0xbc608ca0	-0.013705403
39	0xbe0122ee	-0.12610981
40	0xbeb2d168	-0.3492539
41	0xbda94b9c	-0.082663745
42	0x3c851c60	0.016248882
43	0xbe877a2b	-0.26460394
44	0x3e54dcec	0.207874
45	0xbea657f9	-0.32488993
46	0x3d995b68	0.074881375
47	0xbecf58c7	-0.4049742
48	0x3e55273c	0.20815748
49	0x3e436f04	0.19085318
50	0xbe8acd1c	-0.2710961
51	0x3ec7f78a	0.39056045
52	0xbe71f9d0	-0.23630452
53	0x3e86947a	0.26285154
54	0x3eb2f210	0.34950304
55	0xbdeee008	-0.11663824
56	0x3ebfb33c	0.37441432
57	0x3de8a310	0.11359227
58	0xbe4c4cc1	-0.19951154
59	0x3e86bd62	0.26316363
60	0xbebf9bbc	-0.37423503
61	0xbe638eda	-0.22222462
62	0xbda21e18	-0.07915896
63	0xbde55554	-0.11197916
64	0x3eb4c45e	0.35306066
65	0x3e9120c6	0.28345317
66	0x3e28a1c0	0.16467953
67	0xbe7c8d4a	-0.24663273
68	0xbda387ac	-0.07984862
69	0xbe51d7d3	-0.20492487
70	0x3e59d96c	0.21274346
71	0x3e60602c	0.21911687
72	0x3d982ac6	0.074300334
73	0xbf7393a5	-0.9514716
74	0x3f50d97f	0.8158187
75	0xbf9cbf01	-1.224579
76	0x3ed8e0cc	0.42359006
77	0xbe874d19	-0.26426008
78	0xbef43a0f	-0.47700545
79	0xbed9e6cc	-0.42558897
80	0x3f26aad2	0.651044
81	0xbe691485	-0.22761734
82	0x3f43b961	0.7645474
83	0xbf3f3af8	-0.74699354
84	0xbe15740f	-0.14595054
85	0xbf979d80	-1.184494
86	0x3ede3064	0.43396294
87	0xbedf2de2	-0.43589693
88	0x3f2e8fa8	0.6818795
89	0xbf8003e1	-1.0001184
90	0x3e65c483	0.22438245
91	0xbfb1ddba	-1.389579
92	0x3f658326	0.8965324
93	0xbfa6cb21	-1.303074
94	0x3f23e90f	0.64027494
95	0xbf87c846	-1.0607994
96	0xbe1aaa8b	-0.1510412
97	0xbf95ddd7	-1.1708325
98	0x3f79fdfc	0.97653174
99	0xbf922bbc	-1.1419597
100	0x3f0ad9d3	0.54238623
101	0xbf660cf5	-0.8986352
102	0x3d9c7f02	0.07641412
103	0xbf91573d	-1.1354748
104	0x3f684a19	0.90738064
105	0xbf2b25c2	-0.6685449
106	0x3f56d001	0.8391114
107	0xbf6391ff	-0.8889465
108	0xbefb2192	-0.4904905
109	0xbec3dc76	-0.38254136
110	0x3f61b3d1	0.88165003
111	0xbeb5c48c	-0.35501516
112	0x3f10df90	0.5659113
113	0xbf3946c6	-0.72373617
114	0xbe133875	-0.14377005
115	0xbf59ccae	-0.8507794
116	0x3f244c1c	0.64178634
117	0xbeb84895	-0.35992876
118	0x3eaa9031	0.33313134
119	0xbf28c1ae	-0.6592053
120	0xbee6ebe0	-0.45101833
121	0x3f15b05b	0.5847222
122	0x3ed5a8cc	0.41730344
123	0x3e4d615c	0.20056671
124	0xbf586512	-0.8452922
125	0x3edff3df	0.43740746
126	0xbfa1f22e	-1.2652032
127	0x3f0739a7	0.52822345
128	0x3ef7b945	0.48383537
129	0x3ecf743c	0.40518367
130	0x3f88ae1d	1.0678135
131	0xbeb35b38	-0.35030532
132	0xbf1faff6	-0.6237787
133	0x3ecafbec	0.39645326
134	0x3ed1b905	0.4096147
135	0x3e7d5df5	0.24742873
136	0x3ec86483	0.39139184
137	0xbea5eec7	-0.32408735
138	0xbf1a8a6b	-0.6036746
139	0x3f30ceb4	0.69065404
140	0xbf218548	-0.63093996
141	0x3eb68c33	0.3565384
142	0xbf2ff434	-0.68732
143	0x3e778aad	0.24173994

lstm.weight_hh_l1 f4 [24, 6]
0	0xbd001bf8	-0.031276673
1	0xbe1b2138	-0.1514939
2	0xbeb05d64	-0.3444625
3	0xbdb8d6f0	-0.09025371
4	0xbe392ad9	-0.18082751
5	0x3eb8eae2	0.361167
6	0xbec8393d	-0.3910617
7	0x3c1a3780	0.009412646
8	0x3e6b4628	0.22975981
9	0xbeab1e55	-0.3342158
10	0x3c971970	0.018444747
11	0x3e192e24	0.14959008
12	0x3e9ff072	0.31238133
13	0x3e764ad8	0.24051988
14	0x3ebe9ac0	0.3722744
15	0xbe86ab2a	-0.26302463
16	0xbe1f931c	-0.15583462
17	0xbea0c026	-0.31396598
18	0x3e2cc838	0.16873252
19	0xbebe7403	-0.37197885
20	0xbeb0240c	-0.34402502
21	0x3ece514a	0.40296394
22	0xbec3736e	-0.38174003
23	0x39a45800	0.00031346083
24	0x3e805b20	0.25069523
25	0x3ecae74a	0.39629585
26	0xbc97e090	-0.018539697
27	0x3d6e6f70	0.058211744
28	0xbda092cc	-0.07840499
29	0x3df41a50	0.11919081
30	0x3ea496e6	0.32146376
31	0x3e1d9d4c	0.15392035
32	0xbe43f74d	-0.19137307
33	0x3e5533a4	0.2082048
34	0x3e6ce634	0.2313469
35	0x3eb6b012	0.35681206
36	0xbe3641d5	-0.1779855
37	0x3d24e0d8	0.04025349
38	0x3db73f2c	0.08947596
39	0xbea18f56	-0.3155467
40	0xbe8120d6	-0.25220364
41	0x3dbfebc0	0.093711376
42	0xbe9a618c	-0.30152547
43	0xbdcb2a60	-0.09920192
44	0x3dbe9260	0.093052626
45	0xbdc4dbf4	-0.09612265
46	0xbe3b73a6	-0.18305835
47	0x3ea61f28	0.32445645
48	0x3e52ce34	0.20586473
49	0x3e15f8ec	0.14645737
50	0x3e949e5c	0.2902707
51	0xbe382c41	-0.17985632
52	0xbeb14506	-0.34622973
53	0x3e2ec3f0	0.17066932
54	0xbe06e832	-0.13174513
55	0xbcae1790	-0.02125147
56	0x3ebed264	0.3726989
57	0x3d9ce884	0.07661536
58	0x3ebf54da	0.37369424
59	0x3d4613d8	0.04835877
60	0xbeb85dc6	-0.36009043
61	0xbc3d2000	-0.011543274
62	0x3e4ad804	0.19808966
63	0xbb2ba200	-0.0026189089
64	0x3e5ae31c	0.21375698
65	0x3e321a20	0.17392778
66	0xbec00806	-0.3750612
67	0xbdedcd0c	-0.11611375
68	0xbd25dac0	-0.04049182
69	0xbe7d572b	-0.24740283
70	0xbe0f7a7e	-0.14011571
71	0xbe63a87f	-0.22232245
72	0x3dc7fdd8	0.09765214
73	0xbeb65450	-0.356112
74	0xbe5ad332	-0.21369627
75	0x3aa1e200	0.0012350678
76	0xbe3fd042	-0.18731788
77	0x3e6411f8	0.2227248
78	0x3e6e8c98	0.2329582
79	0x3ce20d80	0.027594328
80	0x3e4c2b58	0.1993841
81	0x3e78fe9c	0.24315876
82	0xbd9397b0	-0.072066665
83	0x3cfaeab0	0.030629486
84	0xbe739176	-0.23785958
85	0xbeb87dcd	-0.36033478
86	0x3e2ab18c	0.16669291
87	0xbdba8c74	-0.091088206
88	0xbeb23365	-0.34804836
89	0xbe5d08a8	-0.21585333
90	0x3e66d468	0.22541964
91	0xbe47b30c	-0.19501895
92	0x3e58613c	0.21130842
93	0xbd42cd88	-0.04755929
94	0x3e83e788	0.25762582
95	0xbebe1ae8	-0.37129903
96	0xbe62341f	-0.22090195
97	0xbe167d76	-0.14696297
98	0x3eb225a4	0.34794343
99	0x3dc4d858	0.09611577
100	0x3ddcfd60	0.10790515
101	0xbec1b61d	-0.37834254
102	0x3e332708	0.17495358
103	0x3e6f1280	0.23346901
104	0xbe5933a3	-0.21211104
105	0xbd650228	-0.05591026
106	0xbe5c140a	-0.2149202
107	0xbe2a8d67	-0.16655503
108	0xbd3201b0	-0.04345864
109	0xbeb2bae2	-0.34908205
110	0x3d795820	0.06087506
111	0xbd5b4c20	-0.053539395
112	0xbec36c4f	-0.3816857
113	0xbe5fa35d	-0.21839662
114	0xbb275900	-0.0025535226
115	0xbe92f304	-0.2870103
116	0x3e9f96da	0.31169778
117	0xbcdc5ff0	-0.026901215
118	0x3ea7bf7c	0.32763278
119	0xbe49323d	-0.1964807
120	0xbda8983c	-0.082321614
121	0xbe615dc1	-0.2200842
122	0x3e16e65c	0.14736313
123	0xbd483b00	-0.04888439
124	0xbe61aa50	-0.22037625
125	0x3e49aa70	0.19693923
126	0x3b720300	0.0036928058
127	0xbe6e2a99	-0.23258437
128	0x3ea0ffe0	0.31445217
129	0x3e5d0e14	0.21587402
130	0xbbeeb040	-0.007284194
131	0x3eb2514e	0.34827656
132	0x3cd71850	0.02625671
133	0xbe25d933	-0.16196136
134	0xbe5442c8	-0.207286
135	0xbe46218f	-0.19348739
136	0xbe15afba	-0.14617816
137	0xbc371fc0	-0.011177003
138	0xbe1095d6	-0.14119658
139	0x3eaa8726	0.33306235
140	0xbdea1b70	-0.114310145
141	0x3ec31e9e	0.38109297
142	0xbe13a80e	-0.14419577
143	0xbe802cba	-0.25034124

lstm.bias_ih_l1 f4 [24]
0	0x3ebffa8a	0.37495834
1	0x3c458696	0.012056014
2	0x3f56dbca	0.8392912
3	0x3f8d7ea7	1.1054276
4	0x3f43c6ca	0.76475203
5	0x3f37ba40	0.7176857
6	0xbdc7f720	-0.09763932
7	0xbeb0a3dc	-0.34500015
8	0x3e2587cc	0.16165084
9	0x3e48f288	0.19623768
10	0xbdab02a8	-0.08350116
11	0xbc8214d0	-0.015879065
12	0x3e01642e	0.12635872
13	0x3ebc7d2b	0.36814246
14	0xbeee48f7	-0.46540043
15	0xbee361a7	-0.4441044
16	0xbe329de9	-0.1744305
17	0xbe99a27e	-0.30006784
18	0x3e9f8bb4	0.31161273
19	0x3c8e2c89	0.01735522
20	0x3f1f28c1	0.6217156
21	0x3f8a5498	1.0807066
22	0x3fb40f29	1.4067127
23	0x3f6cb2e5	0.9246047

lstm.bias_hh_l1 f4 [24]
0	0x3ed98a6a	0.42488414
1	0x3f06baef	0.5262899
2	0x3e9af7b8	0.3026712
3	0x3fbf47b9	1.4943763
4	0x3f80c78f	1.00609
5	0x3f31f34e	0.6951188
6	0xba5e4800	-0.0008479357
7	0xbdf9d57c	-0.12198922
8	0x3e859d8e	0.26096767
9	0xbe8985de	-0.26859945
10	0x3e87d010	0.26525927
11	0x3e981fae	0.2971167
12	0xbd79f2ef	-0.061022695
13	0x3e4c2c3e	0.19938752
14	0xbc615541	-0.013753236
15	0xbd596978	-0.0530791
16	0xbec789f2	-0.3897243
17	0xbedbf778	-0.4296224
18	0x3e9fd262	0.31215197
19	0x3da94056	0.08264224
20	0x3f72149d	0.94562703
21	0x3fc608cc	1.5471435
22	0x3fb4b6db	1.4118303
23	0x3f774ff7	0.9660639

lstm.weight_ih_l2 f4 [24, 6]
0	0xbeed3787	-0.46331427
1	0x3ecd7526	0.4012844
2	0xbf2cf72a	-0.6756464
3	0xbf72c2c6	-0.9482845
4	0xbfa189bc	-1.2620158
5	0xbf3b025d	-0.7305048
6	0x3e47be04	0.19506079
7	0x3e8c2957	0.2737529
8	0xbf0c4397	-0.54790634
9	0xbfacee1d	-1.3510166
10	0xbf98efba	-1.1948159
11	0xbf5f6f1f	-0.8727893
12	0x3f04ce77	0.5187754
13	0x3f09283e	0.5357703
14	0xbef9a9a5	-0.4876224
15	0xbe032cd9	-0.12810077
16	0xbb296788	-0.0025849063
17	0xbf5e5973	-0.8685524
18	0x3f1da816	0.61584604
19	0x3f3f13fb	0.7463986
20	0xbf423595	-0.7586301
21	0x3e492d9d	0.19646306
22	0xbd9fb5fd	-0.077983834
23	0xbf160e51	-0.58615595
24	0x3da0620c	0.07831201
25	0x3ddfe64a	0.10932596
26	0xbf6857f8	-0.9075923
27	0xbf972105	-1.1806952
28	0xbf92ff37	-1.1484135
29	0xbf5fbac0	-0.8739433
30	0xbe3bddb7	-0.18346296
31	0x3e17c9ad	0.14823027
32	0xbf16fe10	-0.5898142
33	0xbf754644	-0.9581034
34	0xbf92234d	-1.1417023
35	0xbf8249a6	-1.0178726
36	0x3e689f30	0.22716975
37	0x3e5e792c	0.21725911
38	0xbec4d149	-0.38440922
39	0xbe188f58	-0.14898431
40	0xbeb40433	-0.35159454
41	0x3eaaeccc	0.33383787
42	0xbe673b88	-0.22581303
43	0xbea3c140	-0.31983376
44	0x3d296958	0.04136023
45	0xbd9a129c	-0.07523081
46	0xbd59bb90	-0.05315739
47	0xbdb4913c	-0.08816764
48	0x3ecd5f02	0.40111548
49	0xbec9aeaa	-0.3939107
50	0x3d8301c8	0.06396824
51	0x3e7f21a8	0.24915183
52	0x3cf2d180	0.029640913
53	0xbebefa56	-0.37300366
54	0xbe5147ca	-0.20437542
55	0xbea815de	-0.32829183
56	0xbcf79bd0	-0.030225664
57	0xbe8e3b62	-0.2777968
58	0xbebee69f	-0.37285325
59	0x3e7265f8	0.2367171
60	0xbe4b53a9	-0.19856133
61	0xbea15b92	-0.31515175
62	0xbdc88f9c	-0.09793016
63	0x3e2d85a0	0.16945505
64	0x3ec7949a	0.38980561
65	0xbe99eb76	-0.30062455
66	0x3e8bfea2	0.27342707
67	0xbe9b2bb5	-0.30306783
68	0x3e2e5468	0.17024386
69	0xbe877927	-0.2645962
70	0xbe9ed301	-0.31020358
71	0x3e0309f4	0.12796766
72	0x3f15ebb2	0.5856277
73	0x3f17a487	0.59235424
74	0x3f13a4a3	0.5767309
75	0x3f377cab	0.71674603
76	0x3f996943	1.1985248
77	0x3f7dc90c	0.991349
78	0xbf35d599	-0.7102905
79	0xbeb0721a	-0.34462053
80	0xbf727a11	-0.9471751
81	0xbfa5e3d2	-1.296015
82	0xbf34bfd4	-0.70605206
83	0xbf13187a	-0.57459223
84	0x3f186e18	0.5954299
85	0x3e8ac17f	0.2710075
86	0x3f056d80	0.5212021
87	0x3fd3277f	1.6496428
88	0x3f78d564	0.9720061
89	0x3f803591	1.0016347
90	0x3f2df713	0.6795513
91	0x3ea21c0b	0.3166202
92	0x3f6adf62	0.91747105
93	0x3fb66e9a	1.4252503
94	0x3f90a9ed	1.1301857
95	0x3f4c6fac	0.798579
96	0x3ed4ff64	0.41601098
97	0x3f0f78a4	0.5604346
98	0x3eee2a02	0.46516424
99	0x3f838a68	1.0276613
100	0x3f988e59	1.1918441
101	0x3f86cd8c	1.0531478
102	0x3eef2365	0.4670669
103	0x3e1ac8c0	0.15115643
104	0x3efcab5e	0.49349493
105	0x3fae7b1f	1.3631324
106	0x3fa7172b	1.3053945
107	0x3f194de8	0.598845
108	0x3d082a9b	0.033243757
109	0xbecbbbcd	-0.39791718
110	0xbe871216	-0.26380986
111	0xbf8faac5	-1.122399
112	0xbf3d38a8	-0.73914576
113	0xbfa06e57	-1.2533673
114	0xbe1cbd26	-0.1530653
115	0x3eb87a18	0.3603065
116	0xbf07b1ef	-0.5300588
117	0xbfa0b74a	-1.2555935
118	0xbf7414de	-0.9534434
119	0xbf2e65cb	-0.68124074
120	0x3ef9f315	0.4881827
121	0x3f392338	0.72319365
122	0xbe31ff3b	-0.17382519
123	0xbeeb4ce5	-0.45957103
124	0xbc272ca3	-0.010203513
125	0xbf681743	-0.90660495
126	0x3efb502c	0.49084604
127	0x3f6716d0	0.90269184
128	0xbf337468	-0.70099497
129	0x3ea8c4d6	0.32962674
130	0xbd089293	-0.03334291
131	0xbf8b6d60	-1.0892754
132	0xbe9c93ad	-0.30581418
133	0xbe636581	-0.2220669
134	0xbedc5bd0	-0.43038797
135	0xbfb32b90	-1.3997669
136	0xbf4fd405	-0.8118289
137	0xbf487532	-0.78303826
138	0x3cecc043	0.028900271
139	0x3dcb24d0	0.09919131
140	0xbedaedda	-0.4275959
141	0xbf92e2ac	-1.1475425
142	0xbf4f3b37	-0.8094973
143	0xbf9c62a8	-1.2217607

lstm.weight_hh_l2 f4 [24, 6]
0	0x3db310c4	0.08743432
1	0x3d9c44bc	0.076302975
2	0x3e52b500	0.20576859
3	0xbe9e7403	-0.30947885
4	0xbce44920	-0.0278669
5	0xbeb3e7f9	-0.3513792
6	0x3e7a21ec	0.24427003
7	0x3ea5d128	0.32386136
8	0xbcbf2f70	-0.02333805
9	0x3e85aef0	0.2611003
10	0x3e9bbfca	0.3041976
11	0xbe7be507	-0.24599086
12	0x3ec9e794	0.39434493
13	0x3e7a3bd0	0.24436879
14	0xbd9bf3d4	-0.07614866
15	0x3e580228	0.21094573
16	0x3e259740	0.16170979
17	0x3e824f28	0.25451016
18	0x3e902e68	0.28160405
19	0xbdd545fc	-0.10413739
20	0x3e366bec	0.17814606
21	0x3e61cce0	0.2205081
22	0xbc690b60	-0.014223903
23	0xbe7fe5bb	-0.24989979
24	0x3e94d290	0.29066896
25	0x3ecf4d30	0.40488577
26	0x3c382d60	0.011241287
27	0xbe576a25	-0.21036585
28	0x3e1161c4	0.14197451
29	0xbdce79cc	-0.10081825
30	0xbeadeb63	-0.33968648
31	0xbeac1250	-0.3360772
32	0x3ea9edec	0.33189332
33	0x3d9fd5a0	0.078044176
34	0x3ec52140	0.3850193
35	0x3ceeb630	0.029139608
36	0x3ebb048e	0.36526912
37	0xbde886ec	-0.11353859
38	0x3defa6a0	0.11701703
39	0xbea416fe	-0.32048792
40	0x3e9ca34e	0.30593342
41	0xbe39d6a8	-0.18148291
42	0xbec11f32	-0.37719113
43	0xbcdc4fd0	-0.026893526
44	0x3e9e4c72	0.30917698
45	0xbea8fafb	-0.33003983
46	0x3e3e6444	0.18592936
47	0xbe7fd9fb	-0.24985497
48	0x3ecd0ab4	0.40047228
49	0xbd43f408	-0.04784015
50	0xbe27118c	-0.16315287
51	0x3e9bf126	0.3045742
52	0xbe409bf0	-0.18809485
53	0x3e9322f0	0.28737593
54	0x3e8dc074	0.27685893
55	0xbe8aba7e	-0.27095407
56	0x3da1afc8	0.07894856
57	0x3e2cfe84	0.16893965
58	0xbd278390	-0.040896952
59	0xbebc013f	-0.367197
60	0xbe9bdf24	-0.3044368
61	0xbd0fb6a0	-0.035086274
62	0x3da990bc	0.08279559
63	0xbe888d3a	-0.26670247
64	0xbdafcd2c	-0.08584055
65	0x3dec3648	0.11533791
66	0xbbe41b80	-0.006961286
67	0x3cc66d80	0.024222136
68	0xbe21d102	-0.15802386
69	0x3e41318c	0.18866557
70	0x3e84ae86	0.259144
71	0xbd2e99c8	-0.042627126
72	0xbd459a00	-0.04824257
73	0x3eaa5a8c	0.33272207
74	0x3d527e30	0.051389873
75	0x3ec3281e	0.38116544
76	0xbe99d108	-0.3004229
77	0xbe191a50	-0.14951444
78	0x3e3a98b8	0.1822232
79	0x3eca7abc	0.39546764
80	0xbe68b8d9	-0.22726764
81	0x3e941d04	0.28928387
82	0xbe5f6199	-0.21814574
83	0x3ea91386	0.33022708
84	0xbe671001	-0.22564699
85	0xbcc74ca0	-0.02432853
86	0xbe56bb63	-0.2096992
87	0xbe58b171	-0.21161439
88	0xbebe4b31	-0.37166741
89	0x3e6e7fe4	0.23290974
90	0xbe2324e6	-0.15932044
91	0x3d12dfb8	0.035857886
92	0x3e6acde0	0.22930098
93	0xbe577b40	-0.2104311
94	0xbddaf1c4	-0.106906444
95	0xbecaaa7f	-0.39583203
96	0xbd97653c	-0.07392356
97	0x3ddf3208	0.108982146
98	0x3e359450	0.17732358
99	0xbdcbd1f4	-0.09952155
100	0x3e8327e2	0.25616366
101	0xbec71e7f	-0.38890454
102	0xbe90a840	-0.28253365
103	0x3ed0ce18	0.40782237
104	0xbe9c6f18	-0.30553508
105	0x3b0f3d80	0.0021856725
106	0x3e786d78	0.24260509
107	0xbceec050	-0.029144436
108	0x3ec82bda	0.39095956
109	0xbe2731f0	-0.16327643
110	0xbea27d3e	-0.31736177
111	0xbeafaf08	-0.34313226
112	0x3dd158a0	0.10221982
113	0x3e3b8cd0	0.18315434
114	0xbe2aa21f	-0.16663407
115	0xbcf9fcb0	-0.030515999
116	0xbd9c4868	-0.07630998
117	0x3ecd4a78	0.40095878
118	0x3ec2e0aa	0.3806203
119	0x3e1d39d4	0.15354091
120	0xbec33b69	-0.38131264
121	0x3df92460	0.12165141
122	0xbebec880	-0.37262344
123	0xbe1c338e	-0.15254042
124	0x3e7d8d7c	0.24761003
125	0x3de89250	0.11356032
126	0xbeaf80f0	-0.3427806
127	0xbeaa91cb	-0.33314356
128	0x3ec44350	0.38332605
129	0xbeaf2e9e	-0.34215254
130	0x3ea272e8	0.31728292
131	0x3dcb0360	0.09912753
132	0x3dedae40	0.11605501
133	0x3d201f90	0.0390926
134	0x3e644364	0.22291332
135	0xbec6fd7f	-0.38865277
136	0xbe18f3ac	-0.14936703
137	0xbec1bcd4	-0.37839377
138	0x3e3ef23c	0.18647093
139	0xbe3701a5	-0.17871721
140	0xbdc823d8	-0.09772462
141	0xbdea8048	-0.11450249
142	0xbe25a111	-0.16174723
143	0xbde56bfc	-0.11202237

lstm.bias_ih_l2 f4 [24]
0	0x3de3c80b	0.111221395
1	0x3f0968ba	0.53675425
2	0x3f682fed	0.9069813
3	0x3fa4236d	1.2823311
4	0x3f31b5a5	0.6941779
5	0x3f398d06	0.7248081
6	0xbca75150	-0.020424515
7	0x3dbfece8	0.09371358
8	0x3d0cfab8	0.03441879
9	0xbdc660fc	-0.09686467
10	0xbeb82a86	-0.35969943
11	0x3cba13f0	0.022714585
12	0xbeb62688	-0.35576272
13	0x3ef4249c	0.4768418
14	0xbe16ad23	-0.14714484
15	0xbd96d191	-0.0736419
16	0xbe446732	-0.19179991
17	0xbced6716	-0.02897982
18	0x3f49a0b9	0.7876087
19	0x3f0d5fe9	0.5522447
20	0x3f761a5f	0.9613399
21	0x3f3af887	0.7303547
22	0x3f541bb6	0.82854784
23	0x3f676a12	0.90396225

lstm.bias_hh_l2 f4 [24]
0	0x3ecc61d1	0.39918378
1	0x3e906628	0.2820294
2	0x3f497692	0.7869655
3	0x3f287c67	0.6581482
4	0x3e626d1e	0.22111937
5	0x3e520a1e	0.20511672
6	0x3e373bc8	0.17893898
7	0x3e2d79fc	0.16941065
8	0x3d8ea7d4	0.069656044
9	0x3e6d5308	0.23176205
10	0x3eb49072	0.35266453
11	0xbe362fde	-0.17791697
12	0xbe8413da	-0.25796396
13	0xbd4ead8f	-0.050458487
14	0x3d084040	0.0332644
15	0xbd824224	-0.063602716
16	0xbe7b5e0b	-0.24547593
17	0xbe90768e	-0.2821545
18	0x3ea9bb8d	0.33150902
19	0x3f4f2443	0.80914706
20	0x3f926607	1.1437386
21	0x3f541b4d	0.8285416
22	0x3e8abebf	0.27098653
23	0x3f3b7474	0.7322457

lstm.weight_ih_l3 f4 [24, 6]
0	0xbf5474d9	-0.82990795
1	0x3f66d786	0.9017261
2	0xbf9e77fc	-1.2380366
3	0xbf1937ee	-0.59850967
4	0xbf50c8cf	-0.8155641
5	0xbf0cb51c	-0.5496385
6	0xbf29cf38	-0.66331816
7	0x3f3f4749	0.7471815
8	0xbf5a6902	-0.8531648
9	0xbf8fabb7	-1.1224278
10	0xbf2fde4b	-0.6869857
11	0xbf43dc92	-0.7650844
12	0xbf47d222	-0.7805501
13	0x3f0bb530	0.54573345
14	0xbf1d7f10	-0.61522007
15	0xbeb44709	-0.35210446
16	0xbf28fef0	-0.66014004
17	0xbeef1767	-0.46697542
18	0xbed370f1	-0.41297105
19	0x3ec430bc	0.3831843
20	0x3e4b7049	0.19867052
21	0xbebd9634	-0.37028658
22	0xbf5cbb44	-0.86223245
23	0xbf00fb20	-0.50383186
24	0xbf385ce5	-0.72016746
25	0x3f60c5a4	0.87801576
26	0x3da27313	0.07932105
27	0xbedabd54	-0.4272257
28	0xbecbfde7	-0.3984215
29	0xbf028c40	-0.50995255
30	0xbf4a5972	-0.7904273
31	0x3e815855	0.25262704
32	0xbf8ce6ca	-1.1007931
33	0xbee9074d	-0.45513383
34	0xbf3728dd	-0.7154673
35	0xbe92fc91	-0.28708318
36	0xbe034de8	-0.12822688
37	0x3eaaf2f4	0.33388484
38	0x3e9e37ae	0.30901855
39	0xbe637a6d	-0.2221467
40	0xbe49860b	-0.1968004
41	0x3e01aa58	0.12662637
42	0xbe0a0cba	-0.13481417
43	0xbe64f806	-0.22360238
44	0xbe1e2616	-0.15444216
45	0xbeb30eb0	-0.34972143
46	0xbe950359	-0.29104117
47	0x3c9b4ba0	0.01895696
48	0xbcf27060	-0.0295946
49	0x3d413e58	0.047178596
50	0xbe259dc9	-0.16173472
51	0x3e9123fc	0.28347766
52	0xbe937b45	-0.28804985
53	0x3eca3134	0.39490664
54	0xbe3e9a14	-0.18613464
55	0xbe89987b	-0.26874146
56	0xbd0705e0	-0.032964587
57	0xbea05e15	-0.3132178
58	0xbeb24540	-0.3481846
59	0xbde1f9c0	-0.11033964
60	0xbca2df00	-0.019881725
61	0x3e132c70	0.1437242
62	0xbecceb69	-0.40023354
63	0x3ec7dfba	0.39037877
64	0xbe9868fb	-0.29767594
65	0x3cd6ae30	0.026206106
66	0x3e20fc68	0.15721285
67	0x3c85c440	0.01632893
68	0xbeac4420	-0.33645725
69	0x3e48fc54	0.19627506
70	0x3ebe14e0	0.371253
71	0xbeb9974b	-0.3624824
72	0x3ea7c581	0.3276787
73	0xbf39aaef	-0.7252645
74	0x3f936ec7	1.1518182
75	0x3f29d331	0.6633788
76	0x3f33863d	0.70126706
77	0x3f29a48c	0.66266704
78	0xbea32e1f	-0.31871125
79	0x3f4d60c1	0.8022576
80	0xbf8e68a8	-1.1125689
81	0xbf48e5fe	-0.7847594
82	0xbf5cf282	-0.8630754
83	0xbf5538d4	-0.8328984
84	0xbf19d156	-0.60085046
85	0x3f6bb78d	0.9207695
86	0xbf64bb0a	-0.893479
87	0xbf9bab59	-1.2161666
88	0xbf8e298e	-1.1106431
89	0xbed83357	-0.4222667
90	0x3f638341	0.8887215
91	0xbf6a0bfe	-0.9142455
92	0x3fa2452c	1.267736
93	0x3f5b2e3c	0.85617423
94	0x3f4b035a	0.7930199
95	0x3f32f7d3	0.699094
96	0xbf1568d0	-0.58363056
97	0x3f4216fd	0.7581633
98	0xbf98470e	-1.1896684
99	0xbfae4816	-1.3615749
100	0xbf7909db	-0.97280663
101	0xbf7fe7d2	-0.99963105
102	0xbf25f5bd	-0.6482809
103	0x3f7e545d	0.9934748
104	0xbf3526a1	-0.7076207
105	0xbf46e3db	-0.7769143
106	0xbeaf554e	-0.3424477
107	0xbf899652	-1.0748999
108	0xbf7dc64d	-0.9913071
109	0x3f70f133	0.9411804
110	0xbfb1b8c9	-1.3884517
111	0xbf4b18a0	-0.7933445
112	0xbf01e7a7	-0.507441
113	0xbf21a8e4	-0.6314833
114	0xbee3c8a0	-0.44489002
115	0x3f6b01c7	0.91799587
116	0xbf552883	-0.8326494
117	0xbfaeee9a	-1.3666565
118	0xbf960e55	-1.1723124
119	0xbf859cd7	-1.0438489
120	0xbf3981d1	-0.7246371
121	0x3ee7362f	0.45158526
122	0xbe09bb9f	-0.13450478
123	0xbe37413e	-0.17895982
124	0xbf71dbc1	-0.9447594
125	0xbf7eb280	-0.9949112
126	0xbf0f0991	-0.5587397
127	0x3f3b0d92	0.7306758
128	0xbe872edd	-0.2640294
129	0x3e8a0559	0.26957205
130	0xbf419148	-0.75612307
131	0xbf4838b2	-0.7821151
132	0xbf242fc3	-0.6413538
133	0x3f266b5b	0.6500756
134	0xbeabdb42	-0.33565718
135	0xbec8897c	-0.39167392
136	0xbf3201a0	-0.6953373
137	0xbec08c51	-0.37607053
138	0xbf046f03	-0.5173189
139	0x3e709c23	0.23497061
140	0xbf468e84	-0.7756121
141	0xbf60d662	-0.8782712
142	0xbf873fc2	-1.0566332
143	0xbf11f1c1	-0.5700951

lstm.weight_hh_l3 f4 [24, 6]
0	0x3e1d57b8	0.15365493
1	0xbcb3b630	-0.02193746
2	0xbc94c180	-0.018158674
3	0x3eb870a2	0.36023432
4	0xbe1b0fd2	-0.15142754
5	0xbea8c51c	-0.32962883
6	0x3dab4430	0.08362615
7	0x3eaeb1bc	0.34119976
8	0x3e1079bc	0.14108938
9	0xbbc250c0	-0.0059300363
10	0xbcd70350	-0.026246697
11	0xbe57bf81	-0.21069147
12	0xbecc083a	-0.39850026
13	0xbe5cbcda	-0.21556416
14	0x3eab2cb8	0.33432555
15	0x3e7a58ec	0.24447984
16	0x3c537e80	0.012908578
17	0x3e43bbb4	0.19114572
18	0xbe3be000	-0.18347168
19	0x3e1d302c	0.15350407
20	0xbe4373f2	-0.19087198
21	0xbe0fc9e4	-0.14041859
22	0xbe008db0	-0.1255405
23	0xbdc1a4b4	-0.09455243
24	0x3ea60696	0.324269
25	0xbc330ee0	-0.010928839
26	0xbebd78d0	-0.37006235
27	0xbe4eae24	-0.20183617
28	0xbea7074a	-0.3262275
29	0x3d503090	0.050827563
30	0xbe57ba77	-0.21067224
31	0xbebb00c1	-0.36524013
32	0x3d07eb68	0.033183485
33	0xbe6d47dd	-0.23171945
34	0x3e894570	0.2681079
35	0xbd6f6810	-0.05844885
36	0xbeb2f9f8	-0.34956336
37	0xbdc48bbc	-0.09596965
38	0xbd93f330	-0.07224119
39	0xbeae5c86	-0.34054965
40	0x3e7df808	0.24801648
41	0x3dfd0900	0.12355232
42	0x3cbde100	0.023178577
43	0x3ea79da4	0.32737458
44	0x3e5e846c	0.21730202
45	0xbe6f4bb6	-0.23368725
46	0x3e074784	0.13210875
47	0xbe1bc03c	-0.1521005
48	0x3e98c6e0	0.2983923
49	0xbe9fb4de	-0.31192678
50	0xbc9e1140	-0.019295335
51	0xbe152cbe	-0.14567849
52	0xbd6018b0	-0.054711044
53	0x3d946790	0.072463155
54	0x3dde73a8	0.108619034
55	0x3ebc8ad0	0.36824656
56	0x3deedd30	0.11663282
57	0xbd8ad5b0	-0.06779039
58	0xbd9b67e8	-0.07588178
59	0x3e909cb2	0.2824455
60	0xbd0e5890	-0.03475243
61	0xbbfd5300	-0.0077308416
62	0xbe5baada	-0.21451893
63	0xbe6e51ca	-0.23273388
64	0xbe0b9182	-0.13629726
65	0xbe908722	-0.28228098
66	0x3ea871ce	0.32899326
67	0xbeac05e1	-0.33598235
68	0x3d89721c	0.06711218
69	0x3d7f93b8	0.062396735
70	0xbd8c5c0c	-0.06853494
71	0xbe8d2e39	-0.27574328
72	0xbe841bb8	-0.25802398
73	0xbe9ba98a	-0.30402786
74	0xbc32aae0	-0.010904998
75	0x3e6fcfd4	0.23419124
76	0xbe101850	-0.14071774
77	0xbe9f9937	-0.3117158
78	0x3e6fb464	0.23408657
79	0x3d8a8eb4	0.067655
80	0x3e37f7fc	0.17965692
81	0x3e3ae68c	0.18252009
82	0xbe8ba1e8	-0.27271962
83	0xbe821001	-0.25402835
84	0xbe4fda17	-0.20298038
85	0x3dfdb938	0.12388843
86	0xbe93fae8	-0.28902364
87	0xbdc36bd8	-0.09542054
88	0xbeac8476	-0.3369481
89	0x3c1c3280	0.0095335245
90	0xbe90cac4	-0.28279698
91	0x3e8fe384	0.28103268
92	0xbe945281	-0.28969195
93	0x3dd5d2f8	0.1044063
94	0xbddcfa4c	-0.10789928
95	0xbd7b78b0	-0.061394393
96	0x3e5c5208	0.21515667
97	0xbd8e9658	-0.069622695
98	0xbe1430ec	-0.14471787
99	0xbebb18b1	-0.36542276
100	0xbe27faab	-0.16404216
101	0x3ed05ad4	0.40694296
102	0xbe87b674	-0.26506388
103	0xbe194ad2	-0.14969948
104	0xbe36eb20	-0.1786313
105	0x3ea16650	0.3152337
106	0xbe700d3f	-0.23442553
107	0xbe15036a	-0.14552084
108	0xbe081b88	-0.13291752
109	0xbea4a4be	-0.32156938
110	0x3eb11854	0.34588873
111	0xbdb9df40	-0.09075785
112	0x3e8e7afa	0.278282
113	0xbea8ed2e	-0.32993454
114	0x3e18c708	0.14919674
115	0xbe864ea9	-0.26231888
116	0x3e36abdc	0.17838997
117	0xbe9ce08a	-0.3064006
118	0x3ec72ce0	0.38901424
119	0x3e9b1d2e	0.302957
120	0xbcf6bf70	-0.030120581
121	0x3e68c57c	0.22731584
122	0xbeb03c84	-0.3442117
123	0x3e5c4ac0	0.2151289
124	0xbca8a6b0	-0.020587295
125	0x3e412850	0.18863034
126	0x3e9a724a	0.3016532
127	0xbe3e7835	-0.18600543
128	0x3e4d7ab8	0.20066345
129	0xbd6b2ba0	-0.05741465
130	0xbebe1e56	-0.3713252
131	0xbe744eea	-0.23858228
132	0x3e36441c	0.17799419
133	0xbe80de4a	-0.25169593
134	0x3eb217c4	0.34783757
135	0x3e2b009c	0.16699451
136	0x3eb95ce6	0.36203688
137	0x3ec85626	0.39128226
138	0x3ecca8e0	0.3997259
139	0x3dd6e098	0.104920566
140	0x3cd0e180	0.025498152
141	0xbebf7eb8	-0.37401366
142	0xbe793cb5	-0.24339564
143	0xbea5e0b3	-0.32397994

lstm.bias_ih_l3 f4 [24]
0	0x3d4d4b20	0.050120473
1	0x3efd6095	0.4948775
2	0x3f0a81d6	0.54104364
3	0x3f89a54b	1.0753568
4	0x3f6a477c	0.91515326
5	0x3ef54c06	0.47909564
6	0xbd24dbb0	-0.040248573
7	0xbe799436	-0.24372944
8	0x3ecbabaa	0.39779407
9	0xbe9fb57e	-0.31193155
10	0xbe3bdf32	-0.18346861
11	0x3e748d34	0.2388199
12	0xbe3344ac	-0.17506665
13	0x3e6de0fa	0.23230353
14	0xbea08495	-0.31351152
15	0x3a5158c1	0.00079859426
16	0x3e80952e	0.25113815
17	0x3dcba072	0.09942712
18	0x3e095a77	0.13413416
19	0x3cadbd96	0.021208566
20	0x3f2031fd	0.62576276
21	0x3f8c1323	1.094334
22	0x3f817e9f	1.0116767
23	0x3f03a307	0.51420635

lstm.bias_hh_l3 f4 [24]
0	0x3e6128b1	0.21988179
1	0x3e83714b	0.25672373
2	0x3f0d42a9	0.5517984
3	0x3f421f6d	0.758292
4	0x3eb1426f	0.34620997
5	0x3efdd25d	0.49574557
6	0xbe76945c	-0.24080032
7	0xbe805e62	-0.25072008
8	0x3e107ad8	0.14109361
9	0xbdac8a80	-0.08424854
10	0x3ebe9070	0.37219572
11	0x3e06bd60	0.13158178
12	0xbc36bfd3	-0.011154133
13	0x3d50911b	0.050919633
14	0x3e080eb1	0.13286854
15	0x3e8e849d	0.2783555
16	0xbea5f4b3	-0.32413253
17	0xbb9f03b8	-0.004852738
18	0x3e331b47	0.17490874
19	0x3da6706e	0.08126913
20	0x3f68cf32	0.90941155
21	0x3ef3d208	0.4762118
22	0x3f4eb87e	0.8075026
23	0x3f0c967b	0.54917115

lstm.weight_ih_l4 f4 [24, 6]
0	0xbedc277b	-0.4299887
1	0x3efe3e6e	0.49657005
2	0x3f6a2822	0.9146749
3	0xbf9e6fab	-1.2377828
4	0x3f831bb6	1.0242832
5	0x3f346e4b	0.70480794
6	0xbf721290	-0.94559574
7	0x3ebdb017	0.37048408
8	0x3f24a1b2	0.6430923
9	0xbf1c4373	-0.6104042
10	0x3ebf8448	0.3740561
11	0x3dd74c9a	0.105126575
12	0xbf2ed9e5	-0.6830123
13	0x3f595144	0.84889627
14	0x3f0e9656	0.55698144
15	0xbf6395b2	-0.8890029
16	0x3f05c744	0.5225718
17	0x3f274e38	0.6535373
18	0xbf0d4a0a	-0.551911
19	0x3f6e1ddd	0.9301432
20	0x3d37e93a	0.044900157
21	0xbe78c7fb	-0.24295036
22	0x3e58e62c	0.21181554
23	0x3f2466c8	0.6421933
24	0xbf4f6536	-0.8101381
25	0x3f2365f4	0.63827443
26	0x3ebfdb8c	0.37472188
27	0xbe9caa9e	-0.3059892
28	0x3f1e7540	0.6189766
29	0x3f384b85	0.71990234
30	0xbf3a7424	-0.72833467
31	0x3f15ee79	0.58567005
32	0x3f8284c2	1.0196764
33	0xbf527a14	-0.82217526
34	0x3f6c245f	0.92243
35	0x3f3b0f9d	0.730707
36	0xbe3a3a52	-0.1818631
37	0xbe5afaa1	-0.2138467
38	0x3e096ea4	0.13421112
39	0xbbf705c0	-0.0075385273
40	0x3ea5ceb0	0.32384253
41	0x3e2bd5e0	0.16780806
42	0x3cfe3690	0.031031877
43	0xbecb4fa2	-0.39709193
44	0xbd69f350	-0.057116807
45	0x3e610664	0.21975094
46	0xbe94e289	-0.29079083
47	0x3e3b4f50	0.18291974
48	0x3cdc2df0	0.026877373
49	0xbecb0121	-0.396493
50	0x3d4519b8	0.04812023
51	0x3e7c6420	0.2464757
52	0xbe940af6	-0.28914613
53	0x3d04f178	0.032456845
54	0xbe110be4	-0.14164692
55	0x3ec9cc5e	0.39413732
56	0x3eaa5280	0.33266068
57	0xbe888740	-0.26665688
58	0xbe2d022f	-0.16895364
59	0x3d289cd8	0.041165203
60	0x3e89fc00	0.26950073
61	0x3e4d152c	0.20027608
62	0x3e88ca80	0.26716995
63	0xbec9696e	-0.3933825
64	0x3e08e340	0.13367939
65	0x3dafc944	0.0858331
66	0x3e500d84	0.20317656
67	0x3e14e1f0	0.14539313
68	0xbc945b50	-0.018109947
69	0x3e88ee18	0.2674415
70	0xbeb084ee	-0.34476417
71	0x3e0d97a8	0.13827384
72	0xbec8e453	-0.39236698
73	0x3e912429	0.283479
74	0x3f1a7b59	0.60344464
75	0xbf4e7c37	-0.80658287
76	0x3efcaa1e	0.4934854
77	0x3e5a9779	0.21346845
78	0xbf33849b	-0.70124215
79	0x3f2e42ea	0.6807085
80	0x3f3cde40	0.73776627
81	0xbfa0c0b2	-1.2558806
82	0x3f840e9e	1.0316961
83	0x3e800353	0.25002536
84	0x3f53d6b2	0.82749474
85	0xbeb9e5a5	-0.36308017
86	0xbefe3e5f	-0.4965696
87	0x3eb6843b	0.3564776
88	0x3cabf5b8	0.020991191
89	0x3e096d37	0.13420568
90	0x3f3c07de	0.73449504
91	0xbe9547ff	-0.2915649
92	0xbf99b449	-1.2008144
93	0x3f957966	1.1677673
94	0xbf8a7d8f	-1.0819567
95	0xbf0e41b8	-0.5556903
96	0x3f696e75	0.9118417
97	0xbeb01661	-0.34392074
98	0xbf6d27ac	-0.9263866
99	0x3f9dbb87	1.2322854
100	0xbf844a14	-1.0335107
101	0xbe624637	-0.22097097
102	0x3f0fad67	0.56123966
103	0xbf460bac	-0.7736156
104	0xbf0d5c7f	-0.5521926
105	0x3f17f66d	0.5936039
106	0xbf46f98e	-0.7772454
107	0xbf1d2fe1	-0.6140118
108	0xbf83eb42	-1.030617
109	0x3f5b3ca8	0.8563943
110	0x3f83a558	1.0284834
111	0xbf45df55	-0.772939
112	0x3f5e0114	0.86720395
113	0x3ed5fd8b	0.41795
114	0xbf46c9a4	-0.7765143
115	0x3f443be8	0.7665391
116	0x3e49ae4b	0.19695394
117	0xbebf65bf	-0.37382314
118	0x3f4ee691	0.80820566
119	0x3ef6347b	0.48086914
120	0xbf010c19	-0.50409085
121	0x3f2572f4	0.6462853
122	0x3f412925	0.75453407
123	0xbf63562f	-0.8880338
124	0x3fa23c05	1.2674567
125	0x3f0e4820	0.55578804
126	0xbf7f581a	-0.9974381
127	0x3f48ed1a	0.7848679
128	0x3ee3d9ad	0.4450201
129	0xbe9394da	-0.28824502
130	0x3ed9e8e1	0.42560485
131	0x3db5246c	0.088448375
132	0xbf647657	-0.8924307
133	0x3ef3075b	0.4746655
134	0x3ee4f411	0.44717458
135	0xbf2314e8	-0.63703775
136	0x3f56e7c2	0.83947384
137	0x3f445030	0.76684856
138	0xbf4ff27f	-0.81229395
139	0x3f80a2b4	1.0049653
140	0x3f14588b	0.57947606
141	0xbf94972e	-1.1608636
142	0x3f90bade	1.1307027
143	0x3ef5fde1	0.48045257

lstm.weight_hh_l4 f4 [24, 6]
0	0x3e891e8c	0.26781118
1	0xbe34af12	-0.17644909
2	0x3ecded5a	0.40220147
3	0x3e4cede4	0.20012623
4	0xbe279151	-0.16364028
5	0xbd193870	-0.03740734
6	0x3ea68d4c	0.32529676
7	0xbe95e49e	-0.29275984
8	0x3e6c1f2c	0.23058766
9	0xbd2d5220	-0.04231465
10	0x3ea1edaa	0.31626636
11	0xbe84b17b	-0.25916657
12	0xbe974110	-0.29541826
13	0xbe80be84	-0.25145352
14	0x3d2eae98	0.042646974
15	0xbe296658	-0.16542947
16	0x3e8ccdae	0.2750067
17	0xbe93cc4b	-0.288668
18	0x3e37f9e8	0.17966425
19	0xbe40427e	-0.18775365
20	0xbdf39370	-0.11893356
21	0xbea3c9f0	-0.31990004
22	0x3e91ba32	0.28462368
23	0x3e27305c	0.16327041
24	0x3ab76000	0.0013990402
25	0xbea8ec4a	-0.32992774
26	0x3e20d658	0.15706766
27	0xbd2d5410	-0.042316496
28	0x3e367f68	0.17822039
29	0x3eab0414	0.3340155
30	0xbecd6296	-0.40114278
31	0x3ebcc9fc	0.36872852
32	0x3e371ab4	0.1788128
33	0x3d011730	0.031516254
34	0x3e03a900	0.12857437
35	0x3ebbe256	0.36696118
36	0xbdfc445c	-0.12317726
37	0xbe9bc943	-0.30426988
38	0x3de08ff0	0.10964954
39	0x3e3bd14c	0.18341559
40	0xbc77d960	-0.01512751
41	0x3e529fdc	0.20568794
42	0x3e226520	0.15858889
43	0x3e0c4740	0.13699055
44	0xbe5c2ac6	-0.21500692
45	0x3e853c48	0.26022553
46	0xbeacc014	-0.33740294
47	0x3eb3b5c2	0.35099608
48	0x3c2f4520	0.010697633
49	0x3e761b0c	0.24033755
50	0xbe6dc390	-0.23219132
51	0x3ea44ea4	0.32091248
52	0x3ea7de7c	0.3278693
53	0xbec10ce0	-0.37705135
54	0x3dedd690	0.1161319
55	0x3ea73bee	0.3266291
56	0xbe256e6e	-0.16155407
57	0x3e12fe8c	0.14354914
58	0x3dcb85e8	0.0993765
59	0x3d82620c	0.06366357
60	0x3ec9c7b0	0.39410162
61	0xbdbcb158	-0.09213513
62	0xbcf41d80	-0.029799223
63	0x3ecb40da	0.39697915
64	0x3e992612	0.29911858
65	0xbe8e8964	-0.27839196
66	0xbda24a0c	-0.079242796
67	0xbd258210	-0.04040724
68	0x3ebd3446	0.36953944
69	0x3e439a20	0.19101763
70	0x3ebce4f0	0.36893415
71	0x3dbdaa40	0.09260988
72	0xbe5c02a3	-0.21485381
73	0x3e34924c	0.17633933
74	0x3ec0023e	0.3750171
75	0x3e81006c	0.25195634
76	0x3ebd768e	0.37004513
77	0xbe1d393e	-0.15353867
78	0xbe0a55e8	-0.13509333
79	0x3ed0b8ec	0.40766084
80	0xbdd69588	-0.104777396
81	0x3e99a08c	0.300053
82	0x3ec032a0	0.37538624
83	0x3d830be8	0.06398755
84	0xbe2f3559	-0.17110194
85	0x3e421768	0.18954241
86	0xbd496dd8	-0.04917702
87	0xbc05c900	-0.008165598
88	0x3e734300	0.23756027
89	0x3dc13498	0.094338596
90	0x3e2c6edc	0.16839164
91	0x3e77ef98	0.24212492
92	0x3ec5b4a8	0.38614392
93	0xbeaeed2a	-0.34165317
94	0xbecef8f6	-0.40424317
95	0xbe920363	-0.2851821
96	0xbdc800f4	-0.09765807
97	0x3ec9210a	0.3928302
98	0xbd8418e4	-0.0645006
99	0x3ea5dea4	0.32396424
100	0xbcfab8a0	-0.030605614
101	0x3e512a20	0.20426226
102	0x3e839700	0.2570114
103	0x3e918434	0.28421175
104	0xbccc5130	-0.024941057
105	0x3d05f3c8	0.03270319
106	0x3e879cba	0.2648676
107	0xbe2887f9	-0.1645812
108	0xbe9b4aae	-0.30330414
109	0x3de3f5b8	0.111308515
110	0x3e050110	0.12988687
111	0x3df4b438	0.119484365
112	0x3e007670	0.1254518
113	0xbde4d9c8	-0.11174351
114	0xbeb359f7	-0.35029575
115	0x3e9fadc4	0.3118726
116	0x3d248f18	0.040175527
117	0x3e40bc60	0.1882186
118	0x3ea09524	0.31363785
119	0x3bbbbb00	0.0057290792
120	0x3e2575b8	0.16158187
121	0x3dd51828	0.10404998
122	0x3e99db0c	0.30049932
123	0x3eb3c0c6	0.35108012
124	0xbdbe6738	-0.09297031
125	0x3e027310	0.12739205
126	0x3e55c760	0.20876837
127	0xbe0d2098	-0.13781965
128	0xbeccdae2	-0.40010744
129	0xbe44065b	-0.1914305
130	0xbe378146	-0.17920408
131	0xbea6e7d9	-0.3259876
132	0xbec74229	-0.38917664
133	0x3e6b4d18	0.22978628
134	0xbe452754	-0.19253284
135	0x3e520b5c	0.20512146
136	0xbd5955e0	-0.053060412
137	0x3e4f0748	0.20217621
138	0x3e485f5c	0.19567627
139	0xbe5f2ee9	-0.21795239
140	0x3ea430ba	0.32068425
141	0x3e0eccfc	0.13945383
142	0x3d3e7478	0.046497792
143	0xbe007068	-0.1254288

lstm.bias_ih_l4 f4 [24]
0	0x3e2e3b2a	0.17014757
1	0x3f546a73	0.8297493
2	0x3e138435	0.14405902
3	0x3f6af324	0.91777253
4	0x3f35982c	0.7093532
5	0x3eac8a49	0.33699253
6	0x3ea596fa	0.32341748
7	0x3ec5d196	0.38636464
8	0xbeba7cf7	-0.36423466
9	0x3ecd1528	0.40055203
10	0xbe840c70	-0.2579074
11	0x3ca1a990	0.019734174
12	0x3eb5ec98	0.3553207
13	0xbe998bee	-0.2998957
14	0xbe863a3c	-0.26216304
15	0x3d6fa531	0.05850715
16	0xbe177aa1	-0.14792873
17	0xbc22702a	-0.009914437
18	0xbc573a69	-0.013136485
19	0x3f54fccc	0.8319824
20	0x3eaf3857	0.3422267
21	0x3f84a3e1	1.0362512
22	0x3f1a6f6c	0.60326266
23	0xbe20420a	-0.15650192

lstm.bias_hh_l4 f4 [24]
0	0xbe37e6c3	-0.17959122
1	0x3e79bcb4	0.24388391
2	0x3dbe280b	0.09284981
3	0x3f2c3565	0.67268974
4	0x3f17461e	0.59091365
5	0x3e855d70	0.2604785
6	0x3e4f4a88	0.20243275
7	0xbdee2e64	-0.11629942
8	0xbe8f5990	-0.27998018
9	0xbe805779	-0.25066736
10	0xbe9e4420	-0.3091135
11	0xbe86186d	-0.2619051
12	0x3ce1015b	0.027466467
13	0x3dda9dd3	0.10674634
14	0xbedb34a7	-0.42813608
15	0x3eafd4ed	0.34342137
16	0x3eb88baf	0.3604407
17	0xbdd180d8	-0.10229653
18	0x3dcd3474	0.1001977
19	0x3ed60f6c	0.4180864
20	0xbe0daf08	-0.138363
21	0x3eae7693	0.3407484
22	0x3ed389cd	0.4131607
23	0x3efaad9b	0.48960575

lstm.weight_ih_l5 f4 [24, 6]
0	0x3f413f03	0.75486773
1	0xbcdc03e4	-0.026857324
2	0xbee95f0b	-0.45580325
3	0xbf102f36	-0.5632204
4	0xbedd0e38	-0.4317491
5	0xbf254bb5	-0.64568645
6	0x3f4add20	0.7924366
7	0x3f207917	0.6268477
8	0xbf26754f	-0.6502275
9	0xbf286ca2	-0.6579076
10	0xbe4aa4d4	-0.1978944
11	0xbf094c9c	-0.5363252
12	0x3f2d2dbe	0.6764792
13	0x3e13f547	0.14449035
14	0xbf14ae9d	-0.5807894
15	0xbf259396	-0.64678323
16	0xbf79d636	-0.97592485
17	0xbf79a89d	-0.9752291
18	0x3f21948f	0.6311731
19	0x3ea94ced	0.33066502
20	0xbec31b27	-0.38106653
21	0xbf1f3a2c	-0.6219814
22	0xbf2aef58	-0.6677146
23	0xbf5f60e9	-0.8725725
24	0x3f4cfc97	0.8007292
25	0x3e4398b3	0.19101219
26	0xbe99d245	-0.30043235
27	0xbe6994cd	-0.22810669
28	0xbe9f5240	-0.3111744
29	0xbe508e5f	-0.2036681
30	0x3ee49b31	0.44649652
31	0x3da5b58e	0.080912694
32	0xbf3bcb1f	-0.73356813
33	0xbe6d328e	-0.23163816
34	0xbcf0e951	-0.029408129
35	0xbe7951f5	-0.2434767
36	0x3e1a2a10	0.15055108
37	0x3d0024d8	0.031285137
38	0x3e1b0d50	0.15141797
39	0x3e3adbac	0.1824786
40	0xbeb2096e	-0.3477282
41	0xbe6e0e25	-0.23247583
42	0xbe1fa252	-0.15589264
43	0xbe8ed5cc	-0.2789749
44	0xbe23903b	-0.15972988
45	0x3e2e004c	0.16992301
46	0x3ea53b16	0.32271641
47	0xbe35c6b8	-0.17751586
48	0x3e977010	0.29577684
49	0x3da144cc	0.0787445
50	0xbe7bca8b	-0.24588983
51	0x3ea80c58	0.32821918
52	0x3ebec276	0.37257737
53	0xbe5f82a1	-0.21827175
54	0xbe88dd3a	-0.26731282
55	0xbdd841dc	-0.10559437
56	0xbda49314	-0.080358654
57	0x3cef9eb0	0.029250473
58	0x3e4c55ec	0.19954652
59	0xbecdf45b	-0.4022549
60	0xbe369e33	-0.17833786
61	0x3e023aac	0.12717694
62	0x3eb0f0e6	0.3455879
63	0x3e324528	0.17409194
64	0xbd1f9198	-0.03895721
65	0xbe8ca6e2	-0.2747107
66	0x3e01fa0c	0.12693042
67	0x3e80eab4	0.25179064
68	0x3e92b46c	0.28653276
69	0xbd326798	-0.043555826
70	0xbda55f7c	-0.08074853
71	0x3e8316a2	0.25603205
72	0xbf345c2b	-0.7045314
73	0xbf72226c	-0.94583774
74	0x3f328ac9	0.6974302
75	0x3f8902ad	1.0703942
76	0x3f85506e	1.041517
77	0x3f16bb56	0.588796
78	0xbefbf06c	-0.49206865
79	0xbf8a1b49	-1.0789577
80	0x3de68625	0.11256055
81	0x3f3f9c31	0.74847704
82	0x3f4b1a62	0.7933713
83	0x3e7d0510	0.24708962
84	0x3f41ed5d	0.7575281
85	0x3f0c33e8	0.547667
86	0xbe8fea81	-0.281086
87	0xbf3d5b9c	-0.7396791
88	0xbee9c8b7	-0.45660946
89	0xbf573d08	-0.840775
90	0xbeb6ad92	-0.356793
91	0xbf31494e	-0.6925248
92	0x3f399eb5	0.7250779
93	0x3f6f2a94	0.93424344
94	0x3f07b53b	0.5301091
95	0x3f4f7e1d	0.8105181
96	0x3f2e3b31	0.6805907
97	0x3f334290	0.7002344
98	0xbe7ef139	-0.24896707
99	0xbf79d732	-0.97593987
100	0xbf8ab483	-1.0836338
101	0xbee2baea	-0.4428323
102	0xbf3ae114	-0.7299969
103	0xbf69b9f6	-0.9129938
104	0x3ef168cd	0.4715027
105	0x3f8c188e	1.0944993
106	0x3f8cb5d9	1.0992996
107	0x3f43f1dc	0.76540923
108	0x3f84aa0c	1.0364394
109	0x3f25a1ef	0.64700216
110	0xbe954aea	-0.29158717
111	0xbeb7813a	-0.3584078
112	0xbf076008	-0.5288091
113	0xbee0a634	-0.43876803
114	0x3f4629e0	0.77407646
115	0x3ebc693b	0.36799034
116	0xbf0d021b	-0.5508134
117	0xbf344088	-0.70410967
118	0xbec3a3a9	-0.382108
119	0xbf1aec9e	-0.605173
120	0x3f12252a	0.5708796
121	0x3f40a184	0.75246453
122	0xbf3176bc	-0.693218
123	0xbf78cc50	-0.97186756
124	0xbf28e43b	-0.6597325
125	0xbf50de41	-0.8158913
126	0x3eee9cae	0.46603912
127	0x3f285a67	0.65762943
128	0xbf8fd1db	-1.1235918
129	0xbe937200	-0.28797913
130	0xbf5138cb	-0.81727284
131	0xbf1b0fa8	-0.60570765
132	0x3e895353	0.26821384
133	0x3e2417f4	0.16024762
134	0xbf6ddec5	-0.92918044
135	0xbe11aaf5	-0.14225371
136	0xbeba13ee	-0.3634333
137	0xbf33af26	-0.7018913
138	0x3f1d51ec	0.6145313
139	0x3c11e93c	0.008905705
140	0xbf6a68ba	-0.9156605
141	0x3e03217c	0.12805742
142	0xbea681f6	-0.32521027
143	0xbeea3e32	-0.45750576
