ModelSave180.pt (torch_old, 30741 bytes, 45 tensors)

lstm.weight_ih_l0 f4 [32, 6]
0.9435137 0.29177165 -0.44441888 0.022819238 1.9554099 -2.2834573 0.40268224 -1.6153132
0.26559505 1.0926839 -1.2420043 -0.5967921 -1.130575 -0.15243122 0.45155996 0.6599279
-1.3135507 1.8238862 -0.15322715 0.005568466 1.067151 0.10537414 -1.7288966 1.5871726
-0.11543363 -0.24239361 -0.77438813 0.04751902 0.3573721 0.44318599 -0.30193576 0.46476647
-0.40921038 -0.570609 -0.6121477 -0.043371715 -0.6620294 0.1472844 1.7292007 0.10942228
0.5806703 2.285699 -0.22689217 -0.23426062 -0.45510882 -0.5308337 2.0316222 -2.5962224
0.20013061 -0.089346886 -0.33564806 -0.113769054 -0.05981666 0.104298055 0.019544154 0.10738596
0.33994034 0.21589419 -0.34386513 0.12961367 -0.2681027 -0.07028374 -0.060192615 -0.25779608
-0.18335952 -0.19541298 0.12708077 0.015264034 -0.11726716 0.016037583 0.31535223 -0.3032254
0.3414531 0.23229018 -0.33760244 -0.22071394 0.20420036 0.1264005 0.011411309 -0.017590612
0.15466568 0.14292592 0.21531585 0.010767847 0.2833039 -0.28081825 0.29201296 0.28033027
0.021956235 -0.34995034 -0.058374733 0.30406705 -0.119156554 -0.17987128 -0.33788112 -0.22283995
-0.231001 -0.17858043 0.7794442 0.1479139 -1.3194257 1.5092857 -0.41910952 -1.1585078
0.7549047 0.042065248 3.0031834 0.47990403 -0.19122781 0.5569283 -1.6777322 -0.5517547
0.1857841 1.8000163 0.12923133 -0.37445673 2.0056944 1.4388103 1.418772 -0.23264296
-0.37332776 -0.9926687 0.4788449 0.29715362 -0.49660566 -0.5595572 -0.6071596 -0.6074094
-0.40202385 -0.38498348 -0.12208836 0.09774732 0.17160988 -0.4396501 1.1683931 0.7265894
-1.0469873 -1.8320583 0.25357118 0.56359667 -1.374535 -0.64708126 0.9137331 -1.252391
0.6002652 0.37134054 -0.47953492 -0.29843584 2.3518298 -2.3809605 -0.42624846 -1.9608554
0.77226967 0.7601595 -1.3819878 0.80225414 -0.59797657 -0.10401927 0.5162362 0.3589243
1.0826579 1.9067626 -0.15621382 -0.020786706 1.0380732 -0.4072996 -1.7424232 1.2178968
-0.24965292 -0.21958761 -1.2214742 -0.1533252 0.68887186 0.7865185 -0.23589437 -0.057053182
-0.6367007 -0.71140474 -0.5562138 0.05183519 -0.22906174 0.15867692 1.0331839 -0.11054253
1.6810563 1.6493509 0.15116762 0.08366174 -0.9221921 -0.12489121 2.366524 -2.470417
00000000: 1d8a 713f 1863 953e df8a e3be 69ef ba3c
00000010: df4a fa3f 2a24 12c0 5e2c ce3e 95c2 cebf
00000020: 13fc 873e 11dd 8b3f fff9 9ebf 5ec7 18bf
00000030: aeb6 90bf ee16 1cbe de32 e73e 09f1 283f
00000040: 6e22 a8bf 1a75 e93f 94e7 1cbe ae77 b63b
00000050: 6798 883f 66ce d73d 7c4c ddbf 7928 cb3f
00000060: 7868 ecbd 0836 78be 4d3e 46bf 4ea3 423d
00000070: 7af9 b63e 46e9 e23e 5397 9abe dff5 ed3e
00000080: 0684 d1be 6e13 12bf b6b5 1cbf 8aa6 31bd
00000090: c27a 29bf b9d1 163e 7356 dd3f ca18 e03d
000000a0: cfa6 143f e448 1240 6c56 68be 04e2 6fbe
000000b0: 0604 e9be b8e4 07bf 1906 0240 8228 26c0
000000c0: 0aef 4c3e 80fb b6bd 10da abbe c0ff e8bd
000000d0: 5002 75bd 389a d53d 101b a03c 2ced db3d
000000e0: a90c ae3e 5e13 5d3e 170f b0be 72b9 043e
000000f0: c244 89be ecf0 8fbd 888c 76bd d9fd 83be
00000100: 99c2 3bbe 571a 48be 7621 023e 0016 7a3c
00000110: c429 f0bd 4061 833c d975 a13e 5c40 9bbe
00000120: f1d2 ae3e 7add 6d3e 3ada acbe d602 62be
00000130: e619 513e 226f 013e 80f6 3a3c 301a 90bc
00000140: ae60 1e3e 2c5b 123e c27b 5c3e a06b 303c
00000150: 350d 913e 69c7 8fbe b982 953e 7387 8f3e
00000160: 90dd b33c b12c b3be 581a 6fbd adae 9b3e
00000170: 5a08 f4bd 2d30 38be c1fe acbe 2830 64be
00000180: 878b 6cbe cadd 36be a889 473f be76 173e
00000190: f1e2 a8bf 4630 c13f 8695 d6be fc49 94bf
000001a0: 6f41 413f 9c4c 2c3d 2834 4040 fbb5 f53e
000001b0: 39d1 43be da92 0e3f eebf d6bf cc3f 0dbf
000001c0: 303e 3e3e ef66 e63f 3855 043e cbb8 bfbe
000001d0: 4c5d 0040 f02a b83f 529a b53f f539 6ebe
000001e0: d124 bfbe 891f 7ebf 292b f53e 8524 983e
000001f0: 1943 febe 243f 0fbf d06e 1bbf 2f7f 1bbf
00000200: 12d6 cdbe 8e1c c5be 7609 fabd bf2f c83d
00000210: 80ba 2f3e d119 e1be e88d 953f c301 3a3f
00000220: ae03 86bf e380 eabf 15d4 813e df47 103f
00000230: c3f0 afbf 1ea7 25bf 6aea 693f 594e a0bf
00000240: fbaa 193f 5920 be3e 9a85 f5be 95cc 98be
00000250: 6184 1640 a861 18c0 3d3d dabe 4ffd fabf
00000260: 77b3 453f d099 423f fae4 b0bf 8760 4d3f
00000270: fe14 19bf 0e08 d5bd 0e28 043f edc4 b73e
00000280: 8994 8a3f cc10 f43f 84f6 1fbe e248 aabc
00000290: 95df 843f 9389 d0be b907 dfbf 0be4 9b3f
000002a0: 04a5 7fbe 93db 60be 4459 9cbf 4801 1dbe
000002b0: e859 303f 4759 493f 4b8e 71be 99b0 69bd
000002c0: d1fe 22bf 9f1e 36bf 0764 0ebf 2351 543d
000002d0: 298f 6abe 347c 223e 5f3f 843f 1f64 e2bd
000002e0: da2c d73f ee1d d33f afcb 1a3e d956 ab3d
000002f0: c814 6cbf f6c6 ffbd 2175 1740 501b 1ec0

lstm.weight_hh_l0 f4 [32, 8]
-0.30728045 0.24084821 0.2516847 0.020474613 -0.17441612 -0.31845373 0.031274438 0.1658428
-0.30213654 -0.05384901 0.0028325617 -0.067849964 0.1952785 0.34838375 -0.19369599 -0.049354434
0.0058222115 -0.3046764 -0.024043143 -0.1602964 0.20590469 0.101368785 -0.34716895 -0.19435799
0.020920098 0.23202798 0.33693752 0.00686118 0.18674359 -0.16419758 -0.03172204 -0.1529765
-0.1449876 0.26783797 -0.16880023 -0.21892612 -0.20300838 -0.08695802 -0.17560986 0.32546374
0.29770032 -0.25931448 -0.23744144 -0.051834762 -0.2651158 -0.2627939 -0.29478562 0.08963013
0.34617743 0.29878476 0.00521785 -0.08767152 0.18077907 0.24921975 0.33734676 0.13586804
-0.047814876 0.2643247 0.08988404 0.03920558 -0.2611843 0.3070478 -0.10767242 -0.13331035
-0.27248496 0.31929412 -0.27792352 0.03080964 0.26296356 0.22410825 -0.05326903 0.19492105
0.3399171 -0.2186938 -0.3478341 0.16358086 -0.32520226 -0.034081876 0.15122852 0.21631959
0.0147437155 -0.09450811 0.23289469 -0.13132124 0.15571937 -0.15028402 -0.08581343 0.323575
-0.0150948465 -0.28458145 -0.24850489 0.34918252 0.12396589 -0.31614017 0.16288123 0.18254372
0.34778377 -0.24053791 0.05009398 0.25354108 0.11457595 -0.28815198 0.21615878 0.11296928
-0.20778918 0.29053786 -0.26749298 -0.2768812 0.021092713 -0.081242055 -0.18456593 0.17808154
-0.17745298 -0.1375542 -0.023823798 0.114712596 -0.20903812 0.32332 -0.09021744 -0.033499926
0.13838583 0.32203034 0.12890929 -0.053989142 0.10512975 -0.25138214 0.13825446 0.15611532
-0.10714917 -0.25276703 0.16781893 -0.09146911 -0.084855944 0.07382634 -0.2569325 -0.21073774
0.20830652 0.30154768 0.10024372 0.08761749 -0.30830133 0.082398385 0.15131846 -0.13715588
0.29473904 0.277988 -0.23421091 -0.1944004 -0.25934744 0.29080155 0.095468014 0.09483728
0.32205197 -0.12891646 -0.033252627 -0.0581702 0.0975118 -0.29974392 -0.32850373 0.09430674
0.25010595 0.29351607 -0.2844038 -0.12358071 -0.3114239 0.04936695 -0.09892452 -0.25124314
0.21603164 -0.002087146 -0.07297173 -0.058733076 -0.19513738 0.010721266 -0.013733387 0.35128948
0.0985581 0.023828566 0.0177522 -0.30131304 0.19037709 0.0617719 0.27498838 -0.14650257
0.34801796 -0.023816586 0.27574554 -0.13569856 0.0016391873 -0.316761 0.2661403 -0.253967
0.23290566 0.23011264 -0.27544752 0.22063008 -0.33029327 0.0576874 0.1574817 0.28664276
0.14658234 0.076265186 -0.027946144 0.06030214 0.20374861 0.25254652 -0.17315763 -0.13235353
-0.098217756 0.12312868 -0.10806885 0.11279991 0.27063623 0.32101443 -0.021616995 0.26788947
-0.30650097 -0.27118006 -0.016022265 -0.1535808 0.17827854 -0.31235474 0.000962466 0.14397341
-0.11487751 0.17219922 0.064053 -0.06560308 0.15385684 -0.14169854 -0.19771726 0.08066073
-0.06429353 -0.3134901 0.22858867 -0.28724357 0.041541845 -0.030591458 0.15596423 0.09975949
0.07055184 0.04488489 0.15280095 -0.09770617 -0.118472636 0.13063613 -0.21731576 -0.2337594
0.1791533 -0.2953488 -0.22707398 0.0060923398 -0.042013884 -0.042303056 0.2233229 -0.20857139
00000000: dd53 9dbe eaa0 763e d1dc 803e 60ba a73c
00000010: 249a 32be 5e0c a3be a019 003d b2d2 293e
00000020: a4b1 9abe c890 5cbd 80a2 393b ecf4 8abd
00000030: 16f7 473e 5b5f b23e 3e58 46be e027 4abd
00000040: 40c8 be3b 8cfe 9bbe 20f6 c4bc bd24 24be
00000050: aed8 523e 709a cf3d 21c0 b1be c805 47be
00000060: a060 ab3c be98 6d3e 1383 ac3e c0d3 e03b
00000070: b639 3f3e 6923 28be f8ee 01bd dfa5 1cbe
00000080: a177 14be 0f22 893e f8d9 2cbe 2b2e 60be
00000090: 6ee1 4fbe 0c17 b2bd 12d3 33be 2fa3 a63e
000000a0: 2d6c 983e dec4 84be d923 73be b050 54bd
000000b0: 42bd 87be ec8c 86be 24ee 96be 0090 b73d
000000c0: 2b3e b13e 51fa 983e 80fa aa3b 208d b3bd
000000d0: 261e 393e 7633 7f3e b7b8 ac3e fe20 0b3e
000000e0: 88d9 43bd 9155 873e 2015 b83d 0896 203d
000000f0: f3b9 85be 5f35 9d3e 5c83 dcbd 8282 08be
00000100: 2683 8bbe 857a a33e fe4b 8ebe 8064 fc3c
00000110: 29a3 863e a27c 653e a030 5abd 6299 473e
00000120: 9d09 ae3e 44f1 5fbe 5017 b2be be81 273e
00000130: e980 a6be 7099 0bbd a6db 1a3e e282 5d3e
00000140: a08f 713c 788d c1bd f27b 6e3e 1379 06be
00000150: e674 1f3e 0ee4 19be f4be afbd 9fab a53e
00000160: 6050 77bc a9b4 91be 1178 7ebe 0dc8 b23e
00000170: d4e1 fd3d 20dd a1be 56ca 263e beec 3a3e
00000180: b710 b23e 924f 76be 582f 4d3d 23d0 813e
00000190: cca6 ea3d a888 93be ba58 5d3e 705c e73d
000001a0: b0c6 54be 61c1 943e d7f4 88be 5fc3 8dbe
000001b0: a0ca ac3c 3c62 a6bd dafe 3cbe 025b 363e
000001c0: 3cb6 35be 02db 0cbe 202a c3bc 70ee ea3d
000001d0: 170e 56be 338a a53e ecc3 b8bd 3837 09bd
000001e0: 04b5 0d3e 29e1 a43e cc00 043e b823 5dbd
000001f0: 444e d73d 29b5 80be 9492 0d3e b2dc 1f3e
00000200: 0671 dbbd ae6a 81be bad8 2b3e 2854 bbbd
00000210: f4c8 adbd 4432 973d a88c 83be a2cb 57be
00000220: 4e4e 553e 7564 9a3e 944c cd3d cc70 b33d
00000230: acd9 9dbe 7cc0 a83d 3af3 1a3e 9772 0cbe
00000240: 09e8 963e 7154 8e3e fcd4 6fbe e610 47be
00000250: 30c9 84be f1e3 943e bc84 c33d 0c3a c23d
00000260: ffe3 a43e ad02 04be e833 08bd e043 6ebd
00000270: 44b4 c73d 0978 99be a431 a8be e423 c13d
00000280: e30d 803e bd47 963e 609d 91be e217 fdbd
00000290: f472 9fbe 0035 4a3d f098 cabd f1a2 80be
000002a0: 6637 5d3e 80c8 08bb 3472 95bd 1892 70bd
000002b0: 18d2 47be 40a8 2f3c 0002 61bc 37dc b33e
000002c0: d4d8 c93d 2034 c33c 106d 913c b445 9abe
000002d0: 36f2 423e 8804 7d3d 47cb 8c3e c504 16be
000002e0: 692f b23e 001b c3bc 852e 8d3e 90f4 0abe
000002f0: 00da d63a 7f2e a2be 8b43 883e f607 82be
00000300: d27e 6e3e a6a2 6b3e 7507 8dbe daec 613e
00000310: 331c a9be a049 6c3d e242 213e d7c2 923e
00000320: ae19 163e ec30 9c3d 50ef e4bc 60ff 763d
00000330: 7aa3 503e c74d 813e 3c50 31be af87 07be
00000340: 6426 c9bd e42a fc3d 3453 ddbd a403 e73d
00000350: d590 8a3e 015c a43e 2016 b1bc cf28 893e
00000360: b2ed 9cbe 1dd8 8abe 2041 83bc 4944 1dbe
00000370: a68e 363e f6ec 9fbe 004e 7c3a c46d 133e
00000380: e644 ebbd fe54 303e 382e 833d e85a 86bd
00000390: a68c 1d3e 6c19 11be 6576 4abe 7431 a53d
000003a0: 54ac 83bd c681 a0be 2613 6a3e 9711 93be
000003b0: c827 2a3d f09a fabc 16b5 1f3e b44e cc3d
000003c0: 7c7d 903d 38d9 373d da77 1c3e 2c1a c8bd
000003d0: c8a1 f2bd 7ac5 053e 0688 5ebe a05e 6fbe
000003e0: f673 373e f537 97be 1586 68be 40a2 c73b
000003f0: c016 2cbd f845 2dbd c2ae 643e bd93 55be

lstm.bias_ih_l0 f4 [32]
0.3915148 0.36357644 0.5069101 0.9025127 -0.19035175 -0.9877545 -0.39737394 0.9530478
0.32493916 0.2230899 0.32509312 0.28350464 -0.0036975145 -0.20961684 -0.13029335 0.13626873
-0.7969389 0.056791257 0.22850221 -0.090617664 0.10216262 -0.17799468 0.5279634 0.20202602
-0.011827641 -0.18171605 0.7331847 0.40356204 -0.4512389 -1.1259335 0.060991008 0.9334561
00000000: a174 c83e b126 ba3e dcc4 013f 130b 673f
00000010: 92eb 42be 7bdd 7cbf 9974 cbbe f1fa 733f
00000020: 6d5e a63e ae71 643e 9b72 a63e 8527 913e
00000030: 0052 72bb cca5 56be 9f6b 05be 088a 0b3e
00000040: 3004 4cbf f39d 683d 7cfc 693e c195 b9bd
00000050: a33a d13d 3d44 36be 9c28 073f e9df 4e3e
00000060: b9c8 41bc c613 3abe feb1 3b3f af9f ce3e
00000070: c908 e7be 971e 90bf b5d1 793d fbf6 6e3f

lstm.bias_hh_l0 f4 [32]
0.26053917 0.33505532 0.14944074 0.79926455 -0.8460176 -1.0389735 -0.26597956 0.7457535
0.14063674 0.013843089 -0.20579648 -0.055851877 -0.21224095 0.14170331 -0.2414088 -0.21218333
-0.689804 0.3013659 -0.14891843 -0.5645052 -0.43473098 0.06989649 0.20019996 0.5661572
0.24627829 -0.029502807 0.6114239 0.894644 -0.30357093 -0.95659244 -0.23388095 0.61810267
00000000: 6465 853e 5f8c ab3e fe06 193e 9a9c 4c3f
00000010: 9c94 58bf 15fd 84bf 792e 88be b4e9 3e3f
00000020: 1403 103e 20ce 623c 50bc 52be f0c4 64bd
00000030: b155 59be ac1a 113e de33 77be 9646 59be
00000040: ff96 30bf a24c 9a3e 137e 18be 6a83 10bf
00000050: 0f95 debe e425 8f3d 3801 4d3e aeef 103f
00000060: 6030 7c3e dfaf f1bc 4786 1c3f 6407 653f
00000070: a66d 9bbe 3ee3 74bf 7d7e 6fbe fa3b 1e3f

lstm.weight_ih_l1 f4 [32, 8]
0.52409506 0.01730537 -0.651573 0.15579331 0.30481943 0.5559391 0.62006366 -0.8528614
0.3597374 -0.5274449 1.0509564 -1.3806839 -0.059928782 0.50647974 -0.56498784 0.6798809
-0.006418847 -0.42645586 0.38847828 -0.8733116 -0.014034023 0.4134065 0.049184404 0.5408861
0.5484997 -0.6307272 0.123431 -0.81839615 0.4227612 -0.076749235 0.21817562 -0.6742144
0.7324728 0.4066461 -0.38982216 0.117128715 0.13988024 0.13955295 0.8740364 -0.43036202
-0.92188144 1.5951623 -0.6676144 1.7082173 -0.6438268 0.042067975 1.1409183 0.6824422
0.9811051 1.1443213 -0.8599163 0.17587468 -0.52727467 1.2455114 1.3103145 -0.8745793
-2.03744 0.83815926 0.22945629 0.18698585 -0.9619202 0.51398194 -0.6026966 1.3721687
0.25742105 -0.24360725 -0.23265654 0.27253214 0.27706167 0.24868742 -0.027686208 -0.04851839
0.047955602 0.28159192 -0.020335883 0.12223765 0.03706163 0.19765559 0.086398125 -0.0681667
-0.34699374 0.31079623 0.20298603 0.25912485 0.12755597 -0.14650299 -0.12539025 -0.22795199
0.31791654 0.03273326 0.33204922 -0.02693364 0.06930539 0.085292906 -0.005612135 0.26974598
0.30412957 0.18499371 0.09611449 -0.17799503 0.32304844 0.34661976 0.0018459857 -0.023028791
-0.13437161 0.30083677 0.12439498 -0.2774343 -0.16408603 0.30735853 -0.18837795 -0.007828027
-0.015177429 0.048040867 0.3013138 0.22066757 -0.35095596 0.08380172 0.3194166 0.32278642
-0.31462374 -0.18593487 0.14839926 -0.013916552 -0.23787302 0.22986004 0.13592878 0.17285922
0.5567527 1.0963753 -0.55183625 0.29788527 0.27113947 1.0914515 0.19556907 -0.6217295
-1.0185906 -0.6337672 0.7752018 -1.3270152 0.018550893 -0.64328694 -0.8249599 1.798036
0.031403407 0.11955708 -0.5978408 0.6705337 -0.34923023 0.08475573 0.6544059 -0.67000896
-0.43064174 -0.00398644 0.28001353 1.0503148 -0.17951141 -0.40096453 0.110749245 0.35653374
-0.7749917 -0.2942738 0.5809511 -1.1859767 0.019078843 -0.97166044 -0.3968965 1.2610252
-1.5485992 -0.9945344 1.173747 -1.3551412 -0.23830332 -0.39446113 -0.9186984 2.0843048
1.44808 0.6309975 -1.3170137 1.6050324 0.34323093 0.13009797 0.7812368 -1.753774
1.2579203 0.4445545 -0.85013616 0.7152852 0.019258691 0.5132253 0.81105083 -1.8585991
0.63005733 0.17371672 -0.0814909 0.43504226 -0.14181887 1.0005624 0.23232275 -0.9603361
0.047508936 -0.5621788 0.74131316 -1.8289566 0.06897115 0.1518255 -0.46150774 0.6868271
0.6048139 -0.66727 0.452902 -0.6625298 0.43077174 1.0939586 -0.30801287 0.31156254
0.37724596 0.009308976 -0.4504949 -0.773139 0.502917 -0.14415881 -0.16745985 0.19444928
1.429712 0.392844 -0.2022037 -0.4162327 -0.14703518 0.5593568 0.6336982 -0.64558315
-1.2493663 1.4021052 -0.4084246 1.3020582 -0.501016 0.7176535 1.0560302 0.58643544
1.2153283 1.4317644 -0.5506365 -0.33908382 -0.0168839 1.2807554 1.2925766 -1.3421669
-2.0257077 0.52563447 0.39937425 0.12505196 -0.39302516 0.5081663 -1.0315456 1.6509401
00000000: 182b 063f fec3 8d3c 7dcd 26bf 4888 1f3e
00000010: 4b11 9c3e 0652 0e3f 7ebc 1e3f 2055 5abf
00000020: 802f b83e a106 07bf bd85 863f 40ba b0bf
00000030: e277 75bd a8a8 013f 0ba3 10bf ad0c 2e3f
00000040: 3155 d2bb 6c58 dabe a0e6 c63e 5991 5fbf
00000050: f5ee 65bc 04aa d33e 9675 493d 8377 0a3f
00000060: 7a6a 0c3f 5677 21bf 64c9 fc3d 6982 51bf
00000070: 2874 d83e b42e 9dbd 6e69 5f3e 5199 2cbf
00000080: 5683 3b3f eb33 d03e c596 c7be 2ee1 ef3d
00000090: c43c 0f3e f8e6 0e3e d9c0 5f3f 6958 dcbe
000000a0: 6c00 6cbf 472e cc3f c7e8 2abf dda6 da3f
000000b0: d5d1 24bf 784f 2c3d 9c09 923f 88b4 2e3f
000000c0: b429 7b3f 1f79 923f 7a23 5cbf 7e18 343e
000000d0: 79fb 06bf eb6c 9f3f 63b8 a73f 6ee4 5fbf
000000e0: 6b65 02c0 9b91 563f 97f6 6a3e 3879 3f3e
000000f0: 6740 76bf 5294 033f 534a 1abf 39a3 af3f
00000100: b1cc 833e 2e74 79be 843d 6ebe 5589 8b3e
00000110: 07db 8d3e eaa7 7e3e 30ce e2bc 38bb 46bd
00000120: 186d 443d d12c 903e 7097 a6bc bc57 fa3d
00000130: f0cd 173d 3a66 4a3e 80f1 b03d fc9a 8bbd
00000140: 2aa9 b1be af20 9f3e 92db 4f3e 03ac 843e
00000150: 089e 023e e104 16be 4d66 00be 3f6c 69be
00000160: f5c5 a23e 5013 063d 5b02 aa3e f0a3 dcbc
00000170: fcef 8d3d 0cae ae3d 00e6 b7bb 251c 8a3e
00000180: dfb6 9b3e fe6e 3d3e acd7 c43d 5444 36be
00000190: 9b66 a53e 2578 b13e 00f5 f13a e0a6 bcbc
000001a0: b698 09be 4707 9a3e ccc2 fe3d de0b 8ebe
000001b0: 2b06 28be 195e 9d3e 26e6 40be 2041 00bc
000001c0: c0aa 78bc 80c6 443d cd45 9a3e aef6 613e
000001d0: 80b0 b3be 3ca0 ab3d 938a a33e 4344 a53e
000001e0: 5d16 a1be b665 3ebe faf5 173e 4002 64bc
000001f0: fc94 73be 6e60 6b3e ea30 0b3e 0202 313e
00000200: 5887 0e3f 0756 8c3f 2445 0dbf 6b84 983e
00000210: cbd2 8a3e afb4 8b3f 4243 483e aa29 1fbf
00000220: 2d61 82bf 913e 22bf a073 463f a2db a9bf
00000230: 0bf8 973c 74ae 24bf 9230 53bf 0b26 e63f
00000240: dca0 003d 58da f43d 180c 19bf 19a8 2b3f
00000250: 4ece b2be 6a94 ad3d 2587 273f b585 2bbf
00000260: 137d dcbe afa0 82bb ef5d 8f3e b770 863f
00000270: d7d1 37be 394b cdbe 80d0 e23d 978b b63e
00000280: db65 46bf 0eab 96be 36b9 143f 16ce 97bf
00000290: 3c4b 9c3c bdbe 78bf 0536 cbbe 4669 a13f
000002a0: 8038 c6bf ce99 7ebf 573d 963f 4475 adbf
000002b0: c905 74be cff6 c9be d12f 6bbf 4065 0540
000002c0: af5a b93f 0d89 213f e893 a8bf b471 cd3f
000002d0: f7bb af3e 6738 053e 23ff 473f ab7b e0bf
000002e0: 8803 a13f a69c e33e 86a2 59bf ee1c 373f
000002f0: 67c4 9d3c bc62 033f 07a1 4f3f 93e6 edbf
00000300: 704b 213f cce2 313e b3e4 a6bd dcbd de3e
00000310: f738 11be 6e12 803f 04e6 6d3e 96d8 75bf
00000320: bb98 423d f3ea 0fbf b3c6 3d3f 401b eabf
00000330: bf40 8d3d 2578 1b3e be4a ecbe e7d3 2f3f
00000340: 15d5 1a3f 35d2 2abf c5e2 e73e 8e9b 29bf
00000350: 1d8e dc3e d606 8c3f ddb3 9dbe 2085 9f3e
00000360: 6226 c13e ad84 183c 44a7 e6be 70ec 45bf
00000370: 2bbf 003f 5e9e 13be 987a 2bbe b61d 473e
00000380: ce00 b73f d922 c93e 7d0e 4fbe 741c d5be
00000390: 6490 16be 0232 0f3f 0c3a 223f f044 25bf
000003a0: 3ceb 9fbf 2f78 b33f 071d d1be d8a9 a63f
000003b0: 9642 00bf 24b8 373f ff2b 873f a220 163f
000003c0: e18f 9b3f 0e44 b73f 83f6 0cbf 659c adbe
000003d0: 1b50 8abc cbef a33f 2673 a53f 20cc abbf
000003e0: 32a5 01c0 fb8f 063f c87a cc3e 9f0d 003e
000003f0: 983a c9be 3017 023f b009 84bf 0152 d33f

lstm.weight_hh_l1 f4 [32, 8]
0.09717521 0.14283103 0.028244585 -0.27520707 -0.31539503 0.19339117 0.24723408 0.14123178
-0.115182534 -0.14701386 0.3008413 -0.11096178 0.096428186 0.27410808 0.1949844 0.17435297
0.35116503 0.056435883 0.1607202 -0.29333857 -0.17824727 -0.04396838 0.23769662 -0.27484697
-0.25284404 0.18744269 0.25039062 -0.23334774 0.056218237 0.03138566 -0.32006073 -0.15170603
-0.31430572 0.15996882 -0.28648052 0.20700338 -0.25777596 -0.20092735 -0.3459504 -0.1456909
-0.0283252 -0.030124545 0.25638375 -0.12946361 -0.28769216 -0.21197306 0.014506906 -0.031942934
0.015822649 -0.1131503 0.05788961 0.10576847 0.17914698 0.15721539 0.35201088 0.0043248236
-0.29797122 0.3060595 0.0015763342 -0.21569775 -0.14135139 -0.08767435 -0.24973378 0.25132045
-0.020266265 0.17375681 0.21623048 0.33662215 0.1595389 0.13382879 -0.1483052 -0.058505684
-0.022423923 -0.07986656 -0.27381325 0.05875507 -0.25202236 -0.31460482 -0.12675601 -0.10063091
0.061989546 0.2056655 0.061278194 0.19365105 -0.23341602 0.1998181 -0.2596433 -0.08937794
-0.14865054 0.29542688 -0.04450193 -0.31007445 -0.08456415 0.11932692 -0.04984346 -0.028825313
0.28533038 -0.19929461 0.07903713 0.049582005 0.33222368 0.01436761 0.01474604 0.16120127
0.005709201 -0.2813329 -0.29183063 0.010078818 0.22978309 -0.20022674 -0.04273942 0.05065036
-0.19127187 -0.09159109 -0.09957948 0.29506168 -0.14521149 0.17709544 -0.07922009 0.25250575
-0.0294528 0.18997458 -0.2498729 0.10979891 0.31960526 -0.21252148 0.26990405 -0.27267468
0.11186424 0.30866137 0.049403727 -0.08843273 0.04394701 0.12988862 -0.3129472 -0.29658312
-0.34212282 0.12597376 0.057646275 -0.34714857 -0.24186435 -0.19706956 -0.24125892 -0.31039542
0.3012471 -0.08649698 -0.12490712 -0.25916165 -0.069333196 0.12875298 0.22246596 0.24455854
0.30657324 0.15559408 -0.08154762 -0.015679061 0.22239587 0.2530211 -0.22631487 0.3355892
0.13099888 0.20106468 0.1585522 0.0062081814 0.09239903 0.32309029 -0.0770095 0.26890662
-0.13471663 -0.019187093 -0.2403113 0.29291728 -0.27712867 -0.28159758 -0.29519913 -0.100753516
0.33597705 -0.053329587 0.24864766 0.32304952 -0.16739109 -0.2989507 -0.17209072 0.09594986
0.10417411 0.2387276 -0.17185529 0.04965931 -0.3132324 -0.04420808 0.082520366 0.3386478
-0.002575159 0.22621903 -0.12710752 -0.06513879 0.14095658 -0.25342217 0.048941225 0.019299626
-0.2724411 0.014069289 -0.14027141 0.19170025 0.32909724 0.2787905 0.12367499 -0.27446508
0.25766304 -0.0856466 -0.17351769 0.09089878 -0.25737953 0.25247845 0.24681613 0.11010638
0.014980286 0.33080736 -0.34091046 -0.29231173 -0.24839582 -0.25683367 0.2325767 0.040957093
0.24251649 0.04292345 0.10675076 -0.21942163 -0.23782694 -0.3195885 0.1933246 0.02103293
-0.21943879 0.20191202 0.16499689 0.15232834 -0.34096467 -0.27058613 -0.18793145 -0.28831816
-0.13569473 0.12193552 -0.12424879 -0.09166968 -0.111839905 0.1752607 0.32042912 0.13383728
-0.24283522 -0.329638 0.08282691 -0.17093544 -0.18668596 -0.020212233 0.07338512 -0.21491423
00000000: cc03 c73d 4c42 123e 3061 e73c f1e7 8cbe
00000010: 757b a1be 5608 463e ee2a 7d3e 109f 103e
00000020: d2e4 ebbd cd8a 16be df07 9a3e ee3f e3bd
00000030: 247c c53d e557 8c3e fea9 473e 9689 323e
00000040: e7cb b33e 5029 673d d693 243e 7930 96be
00000050: 7486 36be 3018 34bd be66 733e beb8 8cbe
00000060: c674 81be faf0 3f3e 3333 803e b6f2 6ebe
00000070: 1845 663d 408e 003d 00df a3be d358 1bbe
00000080: aeec a0be dece 233e 93ad 92be b2f8 533e
00000090: 36fb 83be e6bf 4dbe 6920 b1be ff2f 15be
000000a0: 400a e8bc c0c7 f6bc bb44 833e 1c92 04be
000000b0: 634c 93be 770f 59be 60ae 6d3c 98d6 02bd
000000c0: 809e 813c 58bb e7bd a81d 6d3d 249d d83d
000000d0: 4e72 373e 12fd 203e c53a b43e 40b7 8d3b
000000e0: af8f 98be d5b3 9c3e 009d ce3a dfdf 5cbe
000000f0: 6bbe 10be 9c8e b3bd 36ba 7fbe 13ad 803e
00000100: 7005 a6bc 4eed 313e 866b 5d3e bd59 ac3e
00000110: 2a5e 233e 6a0a 093e 51dd 17be a8a3 6fbd
00000120: 60b2 b7bc 1491 a3bd 4031 8cbe 28a9 703d
00000130: 1309 81be e213 a1be 54cc 01be 9417 cebd
00000140: c0e8 7d3d fa99 523e d8fe 7a3d 764c 463e
00000150: 9c04 6fbe 1e9d 4c3e f7ef 84be c80b b7bd
00000160: d937 18be 3142 973e a847 36bd 14c2 9ebe
00000170: f82f adbd ac61 f43d a828 4cbd 1023 ecbc
00000180: d316 923e e313 4cbe 38de a13d 8016 4b3d
00000190: 3919 aa3e 2066 6b3c 6099 713c f211 253e
000001a0: 4014 bb3b de0a 90be d36a 95be a021 253c
000001b0: 424c 6b3e 3d08 4dbe 880f 2fbd c076 4f3d
000001c0: c6dc 43be 1c94 bbbd 54f0 cbbd 5312 973e
000001d0: 52b2 14be 8258 353e 243e a2bd 6f48 813e
000001e0: 0047 f1bc b288 423e aede 7fbe 40de e03d
000001f0: 4da3 a33e 3b9f 59be dd30 8a3e 049c 8bbe
00000200: 1419 e53d dd08 9e3e 905b 4a3d 381c b5bd
00000210: c801 343d 8601 053e 9e3a a0be bed9 97be
00000220: b92a afbe 44ff 003e 801e 6c3d 75bd b1be
00000230: 4aab 77be 9acc 49be 940c 77be 26ec 9ebe
00000240: 0f3d 9a3e 5425 b1bd 4ecf ffbd d6b0 84be
00000250: 90fe 8dbd d2d7 033e 1ece 633e 8e6d 7a3e
00000260: 2bf7 9c3e 0e54 1f3e 7002 a7bd 6071 80bc
00000270: bebb 633e fb8b 813e 16bf 67be 59d2 ab3e
00000280: 9224 063e e6e3 4d3e 825b 223e 006e cb3b
00000290: b43b bd3d 176c a53e 28b7 9dbd 21ae 893e
000002a0: 28f3 09be 402e 9dbc 2a14 76be 41f9 953e
000002b0: cfe3 8dbe 8f2d 90be 5724 97be dc57 cebd
000002c0: 2f05 ac3e 2070 5abd 7e9d 7e3e bf66 a53e
000002d0: 9268 2bbe 1110 99be 8d38 30be 5c81 c43d
000002e0: 3c59 d53d 0275 743e d5fa 2fbe 9067 4b3d
000002f0: ff5f a0be 8813 35bd 7000 a93d 3f63 ad3e
00000300: 00c4 28bb f6a5 673e 7928 02be 7c67 85bd
00000310: ec56 103e 8dc0 81be 9876 483d 401a 9e3c
00000320: 667d 8bbe e082 663c 4fa3 0fbe 124d 443e
00000330: 6f7f a83e a1bd 8e3e 5049 fd3d b086 8cbe
00000340: 69ec 833e 7c67 afbd 9fae 31be 2429 ba3d
00000350: 40c7 83be db44 813e 5ebd 7c3e 747f e13d
00000360: e06f 753c 955f a93e d18b aebe e2a9 95be
00000370: 795b 7ebe b47f 83be 9628 6e3e a0c2 273d
00000380: 3e56 783e 80d0 2f3d 24a0 da3d 10b0 60be
00000390: e888 73be 1ba1 a3be e2f6 453e 404d ac3c
000003a0: 90b4 60be 06c2 4e3e f2f4 283e f6fb 1b3e
000003b0: ec92 aebe 448a 8abe 1a71 40be 709e 93be
000003c0: 8ff3 0abe 54b9 f93d 2676 febd 50bd bbbd
000003d0: 520c e5bd 8a77 333e 490f a43e a40c 093e
000003e0: cca9 78be 50c6 a8be 28a1 a93d b309 2fbe
000003f0: 9b2a 3fbe 2094 a5bc f04a 963d 7a12 5cbe

lstm.bias_ih_l1 f4 [32]
-0.53868324 0.20514965 -0.93134135 -0.2841026 -0.5162289 2.3762841 1.1646483 0.85354865
-0.061446995 0.048421025 0.23270395 -0.05941108 -0.06887764 0.055658907 0.2923331 -0.059103757
-0.034642875 0.32581103 -0.10017071 -0.096627116 0.36857992 0.5564789 -0.57506526 -0.47172177
-0.26495284 0.38484424 -0.6913241 -0.17453848 -0.4569909 2.4601245 0.97646517 0.9661412
00000000: 25e7 09bf c012 523e 636c 6ebf e575 91be
00000010: 9427 04bf 0a15 1840 3213 953f 2a82 5a3f
00000020: d8af 7bbd 2055 463d f249 6e3e 0859 73bd
00000030: b80f 8dbd 98fa 633d afac 953e c816 72bd
00000040: b0e5 0dbd b4d0 a63e 4d26 cdbd 70e4 c5bd
00000050: 82b6 bc3e 6775 0e3f 7a37 13bf 8485 f1be
00000060: e6a7 87be 4e0a c53e 9efa 30bf 37ba 32be
00000070: b6fa e9be ae72 1d40 9ff9 793f 0855 773f

lstm.bias_hh_l1 f4 [32]
-0.42941758 0.4524552 -0.803246 -0.51859325 -0.22856376 2.8144784 1.3694199 1.0139328
0.3195561 -0.036386013 -0.001463592 -0.29636946 -0.30118573 -0.047924668 -0.26147124 0.13349667
-0.15847532 0.46523204 -0.08172383 0.027324958 -0.064814754 0.30309364 -0.2752081 -0.27524373
-0.030207584 0.5768189 -0.5762518 -0.056142557 -0.036561303 2.7347481 1.4628239 0.9002448
00000000: 9fdc dbbe 35a8 e73e 88a1 4dbf 87c2 04bf
00000010: 9e0c 6abe 6a20 3440 2749 af3f 8dc8 813f
00000020: db9c a33e 8009 15bd 00d6 bfba bdbd 97be
00000030: 0435 9abe a84c 44bd 8fdf 85be 5ab3 083e
00000040: 5b47 22be e532 ee3e d35e a7bd 97d8 df3c
00000050: 99bd 84bd 172f 9b3e 13e8 8cbe bfec 8cbe
00000060: e575 f7bc 67aa 133f 3d85 13bf bdf5 65bd
00000070: 4ec1 15bd 1d06 2f40 d03d bb3f 7176 663f

lstm.weight_ih_l2 f4 [32, 8]
1.552672 2.3445191 0.20017199 -1.162336 -1.0994325 0.2403063 0.37187883 -0.88374454
1.522351 0.9744825 -0.38932917 -0.7612865 -1.7790967 0.839443 0.1276568 -1.0295937
0.37375534 -1.0544229 -0.08360591 -0.031971194 -0.0027075203 1.0599123 -0.080537714 -0.41011572
2.3344088 2.596667 -0.8230858 -1.2825061 -1.7471633 0.704818 0.30064285 -1.6108866
0.20060961 -0.33541548 0.42654273 -0.16413428 -0.06114812 1.208985 -0.3694993 -0.93232185
-0.2312797 0.08708957 0.019384552 -0.037248705 0.29764894 1.9915357 -0.8072944 -1.0045826
0.5176137 -0.10223314 -0.7769464 -0.6866241 -0.59697807 -1.8488486 0.97016585 0.26093528
0.1508487 0.4020158 0.36641318 -0.0034204756 -0.42051035 2.372532 -1.0962242 -0.79173034
0.32715514 -0.3237925 0.038185716 0.16780058 0.17674342 0.11043978 0.21268001 0.26899114
0.088137835 0.26764664 0.12112683 -0.2550433 -0.051150262 -0.30095905 0.27251068 0.18744436
-0.22626308 0.16831091 -0.33851266 0.112151444 0.13724518 -0.34317094 -0.16405399 0.082214296
0.01919511 -0.013926864 -0.016066462 -0.29361638 0.25710097 -0.21651189 0.2810932 -0.34472686
0.19325861 0.13285187 0.19479653 0.03563437 0.16713044 -0.21394381 -0.007983625 -0.18464492
-0.010143518 -0.33509564 0.01797077 0.2568811 -0.20541863 0.15699598 -0.04796064 0.11696568
0.28279725 -0.3238677 -0.14678158 -0.03678441 -0.32760185 0.28309318 0.2149829 0.12032172
-0.07099113 0.30387786 -0.30899292 0.15491328 0.1001353 0.32542786 -0.029639512 0.30916855
-0.06004966 0.552068 0.2991055 0.39924744 -0.3041177 2.7320015 -1.4661942 -1.1129055
-0.019530956 -0.48213077 0.06412737 -0.4052578 -0.14790414 -3.085871 1.3832908 1.5287224
-0.398848 0.5642582 -0.11002751 0.54102117 -0.17463312 -0.8182805 -0.0054833116 0.17692994
-0.0060828603 -0.74058187 -0.0743706 -0.05757613 -0.024036389 -3.3189762 1.5010518 1.319158
-0.4489806 0.030273607 0.08108567 -0.26425952 0.003249991 2.6681957 -0.8461676 -0.965629
-0.25964615 0.12113019 0.020290378 0.4157236 -0.29060704 2.6283076 -1.1259292 -1.3004762
-0.26281863 0.56362325 0.014824109 0.34643024 0.1302396 3.2700255 -1.2684442 -1.105925
0.51919776 -0.20602778 0.2791067 -0.11933311 -0.17193392 -2.6628785 1.4397154 1.4035786
1.6678866 2.399866 -0.17782208 -0.8973442 -0.7315358 0.06678651 0.5894684 -0.7248691
1.9337763 1.0243543 -0.35455248 -1.0600308 -1.7310101 0.61650354 -0.11306648 -0.8409221
-0.15542911 -0.6405368 -0.29409108 -0.14325975 0.2773925 1.1270984 -0.17101622 -0.63170856
2.2635336 2.6545894 -0.84102505 -1.4176567 -1.6574042 0.42494604 0.15523028 -1.6020132
0.35306147 -0.6283246 0.291319 0.059641145 -0.119958565 1.8588663 -0.3485644 -0.60285604
0.17423756 -0.09428476 0.18686713 -0.54249376 -0.0044816197 1.9901749 -0.9633211 -1.1234682
0.7688543 0.47379658 -0.62973434 -0.45116988 -0.66168255 -1.8962575 0.51720226 0.6568906
0.065572836 0.38052887 -0.026521718 -0.5757156 -0.097788386 2.6624913 -1.0827577 -1.2011446
00000000: f5bd c63f 9a0c 1640 e3f9 4c3e 6dc7 94bf
00000010: 34ba 8cbf db12 763e e766 be3e 153d 62bf
00000020: 66dc c23f af77 793f 2756 c7be ace3 42bf
00000030: 71b9 e3bf bde5 563f 77b8 023e bac9 83bf
00000040: dc5c bf3e 54f7 86bf 9339 abbd 3af4 02bd
00000050: a770 31bb 35ab 873f f5f0 a4bd b0fa d1be
00000060: f466 1540 cb2f 2640 c0b5 52bf 2929 a4bf
00000070: 0ca3 dfbf f46e 343f dced 993e 8831 cebf
00000080: 9b6c 4d3e 94bb abbe cf63 da3e d112 28be
00000090: 7376 7abd 05c0 9a3f 032f bdbe a5ac 6ebf
000000a0: 96d4 6cbe 045c b23d 5acc 9e3c 1992 18bd
000000b0: 7165 983e a4ea fe3f d9aa 4ebf 2a96 80bf
000000c0: 5582 043f 9c5f d1bd f6e5 46bf 99c6 2fbf
000000d0: 8ed3 18bf 12a7 ecbf ca5c 783f 4f99 853e
000000e0: 1578 1a3e 04d5 cd3e 829a bb3e 0f2a 60bb
000000f0: 224d d7be 90d7 1740 1351 8cbf d7ae 4abf
00000100: e180 a73e 21c8 a5be a068 1c3d ead3 2b3e
00000110: 3afc 343e 402e e23d cac8 593e 35b9 893e
00000120: 9c81 b43d fb08 893e 5811 f83d 0995 82be
00000130: f082 51bd 4e17 9abe 8586 8b3e 6af1 3f3e
00000140: 82b1 67be b259 2c3e 8851 adbe a8af e53d
00000150: 008a 0c3e 1ab4 afbe c5fd 27be f85f a83d
00000160: 103f 9d3c 802d 64bc d09d 83bc e354 96be
00000170: bda2 833e 4bb5 5dbe 73eb 8f3e 0a80 b0be
00000180: 96e5 453e 520a 083e be78 473e 58f5 113d
00000190: 3e24 2b3e 1614 5bbe c0cd 02bc 8f13 3dbe
000001a0: 0031 26bc a891 abbe 7037 933c eb85 833e
000001b0: 4359 52be 8ec3 203e 6072 44bd b48b ef3d
000001c0: cdca 903e fdd1 a5be e94d 16be 40ab 16bd
000001d0: 6ebb a7be 97f1 903e 7a24 5c3e 3c6b f63d
000001e0: cc63 91bd e195 9b3e 5234 9ebe 96a1 1e3e
000001f0: bc13 cd3d 7b9e a63e 90ce f2bc 574b 9e3e
00000200: a2f6 75bd 5454 0d3f 5b24 993e 296a cc3e
00000210: 51b5 9bbe 1dd9 2e40 40ac bbbf b073 8ebf
00000220: 62ff 9fbc d8d9 f6be 3655 833d f37d cfbe
00000230: 2f74 17be e97e 45c0 ac0f b13f 2dad c33f
00000240: ce35 ccbe 3a73 103f 1a56 e1bd 5d80 0a3f
00000250: 06d3 32be d57a 51bf 5aad b3bb 1f2d 353e
00000260: bb52 c7bb c696 3dbf 9d4f 98bd f3d4 6bbd
00000270: f6e7 c4bc 1b6a 54c0 7722 c03f 2bda a83f
00000280: c9e0 e5be 5b00 f83c 3e10 a63d 064d 87be
00000290: cdfd 543b b8c3 2a40 719e 58bf 7633 77bf
000002a0: 57f0 84be 1b13 f83d 0238 a63c b9d9 d43e
000002b0: 72ca 94be 3136 2840 731e 90bf 0176 a6bf
000002c0: 2a90 86be 9d49 103f d2e0 723c 4e5f b13e
000002d0: 885d 053e 1948 5140 615c a2bf f38e 8dbf
000002e0: 25ea 043f f2f8 52be 13e7 8e3e eb64 f4bd
000002f0: 720f 30be 9a6c 2ac0 9848 b83f 77a8 b33f
00000300: 4f7d d53f 6897 1940 fe16 36be 59b8 65bf
00000310: ee45 3bbf 5ec7 883d 67e7 163f 0591 39bf
00000320: fb85 f73f 0b1e 833f e787 b5be 17af 87bf
00000330: bd91 ddbf 2dd3 1d3f 668f e7bd ac46 57bf
00000340: cf28 1fbe 38fa 23bf 1b93 96be afb2 12be
00000350: 6406 8e3e c344 903f e01e 2fbe a7b7 21bf
00000360: bcdd 1040 cbe4 2940 6b4d 57bf c675 b5bf
00000370: d225 d4bf 8792 d93e b0f4 1e3e c50e cdbf
00000380: 79c4 b43e e2d9 20bf c427 953e 464a 743d
00000390: d6ac f5bd 55ef ed3f 0877 b2be c654 1abf
000003a0: 556b 323e 5e18 c1bd 195a 3f3e dfe0 0abf
000003b0: 8dda 92bb 0dbe fe3f 369c 76bf cecd 8fbf
000003c0: a3d3 443f 7795 f23e 4536 21bf bdff e6be
000003d0: 0764 29bf 91b8 f2bf 5e67 043f fb29 283f
000003e0: 0d4b 863d aed4 c23e 1344 d9bc 1962 13bf
000003f0: 4745 c8bd 4266 2a40 ce97 8abf 1bbf 99bf

lstm.weight_hh_l2 f4 [32, 8]
0.04397741 0.27115354 0.24573919 -0.2619493 0.32610694 0.22431716 0.24934271 -0.22454555
-0.12609288 0.29392996 0.2787576 0.04200065 0.26070163 0.254895 -0.07254997 0.20387545
-0.16451925 -0.25222132 -0.19665012 -0.1068123 0.032968014 -0.047046095 0.11987734 0.24064311
0.014170706 0.026946306 -0.09378049 0.3377973 0.0006455183 0.023892373 -0.2901211 -0.045636177
-0.034564555 -0.052557796 -0.13036202 0.1803725 -0.29326785 0.35055372 -0.27791393 0.18743649
0.29160348 0.17159459 -0.20035532 0.041974753 0.3083845 -0.04374945 0.2651101 -0.15827511
0.02229935 -0.30336112 -0.35047644 0.13122067 0.20235619 0.14506632 0.2711518 0.18300429
-0.21251498 0.17279717 -0.052312165 -0.29557377 0.08162433 0.18895116 -0.29891077 0.2738786
0.17066297 0.088443756 -0.10133201 -0.2757068 0.16485032 -0.193415 0.21592972 0.33093676
-0.09255394 -0.3192843 -0.18391135 -0.008073062 -0.15857153 -0.3019953 0.039387494 0.19402364
-0.021097183 0.12696925 -0.3016234 0.3091794 -0.2784373 -0.099782795 0.27742633 -0.31063712
0.2553676 0.14577085 -0.30276233 -0.1762888 -0.2050375 -0.23138258 0.123238295 -0.07425475
0.33267203 -0.13923262 0.19628337 0.09441084 -0.1126264 -0.07903656 0.17467973 0.20822278
-0.2682523 0.27639863 0.26447216 0.34298643 0.34520492 -0.1759606 0.34388348 -0.0880515
0.08134982 0.25883898 -0.024476111 -0.089755535 0.17601076 0.33002236 0.13095704 0.011538386
0.27101675 0.20546785 -0.24593516 0.18242106 0.21849295 0.044510275 0.32466778 -0.1426766
-0.24087316 -0.069456875 0.19332138 -0.32251754 -0.011416525 -0.31811377 0.23140535 -0.06823295
0.13832486 -0.35277733 -0.2962443 -0.3358473 0.2871031 -0.082623124 -0.3002711 0.0024070442
-0.34786758 -0.07857007 0.09950867 -0.014659882 0.08678922 -0.03134179 0.3355823 0.023885548
-0.20190468 -0.0080935955 0.04778087 0.11068386 0.2098796 -0.05703312 -0.31467187 -0.114926025
-0.24796651 0.018067122 0.27461877 -0.31695735 -0.058456838 -0.1066547 0.18102548 0.018411756
0.2272555 -0.086642146 0.18224844 0.083492935 0.19864306 0.23479745 -0.12517214 0.14574018
0.17021587 0.06218493 0.31692407 0.09426656 -0.33016053 0.2246814 0.08442709 0.22242406
-0.2767431 0.14335766 -0.12730004 0.16486052 0.047027916 -0.34010622 -0.23966792 0.13701716
0.14709201 0.24286518 -0.12175593 0.2803463 -0.3503067 -0.34021658 0.14292353 -0.27784058
-0.036839932 0.044395834 -0.24032119 0.07297698 -0.27475122 -0.11913009 -0.21368106 -0.29699898
0.2631016 -0.23455994 0.28893682 0.062000245 0.2760714 0.027280599 -0.22051594 -0.13471742
0.3207818 -0.29254335 -0.17020836 -0.24777508 0.044445127 0.12136108 -0.08876312 -0.20505415
-0.3366721 0.32045856 0.35334727 -0.2874335 -0.23788485 -0.19702551 0.32126835 -0.07286611
0.30576786 -0.106790036 0.2981445 -0.061552107 0.19544807 0.21992609 -0.011326581 0.08399087
-0.2820066 0.04108271 0.10991287 -0.22407594 -0.020237565 -0.3135727 -0.10004738 0.2193906
0.06022975 -0.039337814 0.045899928 -0.04756239 -0.30133858 -0.3440905 -0.03283325 0.3248535
00000000: a821 343d a3d4 8a3e 0ea3 7b3e 381e 86be
00000010: 7df7 a63e 66b3 653e b253 7f3e 45ef 65be
00000020: 7e1e 01be fd7d 963e 51b9 8e3e e008 2c3d
00000030: af7a 853e 9981 823e 1495 94bd bac4 503e
00000040: bc77 28be 2723 81be a65e 49be 68c0 dabd
00000050: 7809 073d 68b3 40bd 4082 f53d 266b 763e
00000060: 402c 683c 80be dc3c fc0f c0bd c5f3 ac3e
00000070: 0038 293a f0b9 c33c c18a 94be 00ed 3abd
00000080: 9093 0dbd d846 57bd 9f7d 05be 92b3 383e
00000090: 3427 96be c77b b33e bc4a 8ebe 5aef 3f3e
000000a0: 0d4d 953e 7eb6 2f3e f229 4dbe b8ed 2b3d
000000b0: 93e4 9d3e a032 33bd 83bc 873e df12 22be
000000c0: 20ad b63c 2652 9bbe a671 b3be b65e 063e
000000d0: 7636 4f3e 448c 143e 69d4 8a3e 7a65 3b3e
000000e0: 879d 59be bef1 303e 4845 56bd 7255 97be
000000f0: a82a a73d 6a7c 413e d50a 99be d139 8c3e
00000100: 46c2 2e3e 0022 b53d 2887 cfbd 7129 8dbe
00000110: 86ce 283e 950e 46be ae1c 5d3e 8b70 a93e
00000120: ec8c bdbd 3b79 a3be 4253 3cbe e044 04bc
00000130: 9360 22be 219f 9abe c854 213d 22ae 463e
00000140: 00d4 acbc 3a04 023e 626e 9abe c34c 9e3e
00000150: 558f 8ebe ec5a ccbd d30a 8e3e d40b 9fbe
00000160: 8bbf 823e f444 153e aa03 9bbe 0d85 34be
00000170: 5af5 51be 8eef 6cbe 5c64 fc3d e012 98bd
00000180: fd53 aa3e ff92 0ebe 82fe 483e 785a c13d
00000190: aca8 e6bd ecdd a1bd 3edf 323e 5a38 553e
000001a0: 5e58 89be 1f84 8d3e e568 873e eb9b af3e
000001b0: b3be b03e 042f 34be 7f11 b03e 5854 b4bd
000001c0: bc9a a63d 8b86 843e 2082 c8bc c0d1 b7bd
000001d0: 2a3c 343e b1f8 a83e 9a19 063e 800b 3d3c
000001e0: b5c2 8a3e 2a66 523e 6dd6 7bbe 96cc 3a3e
000001f0: 9ebc 5f3e 6850 363d db3a a63e d119 12be
00000200: 74a7 76be 683f 8ebd 0af6 453e 0521 a5be
00000210: 600c 3bbc cfdf a2be 86f5 6c3e b8bd 8bbd
00000220: 08a5 0d3e 3b9f b4be 55ad 97be 2df4 abbe
00000230: 2dff 923e 5036 a9bd 22bd 99be 80bf 1d3b
00000240: b31b b2be 58e9 a0bd 34cb cb3d 0030 70bc
00000250: 8cbe b13d 4060 00bd 71d1 ab3e a0ab c33c
00000260: 1ac0 4ebe 009b 04bc e0b5 433d 38ae e23d
00000270: aeea 563e 909b 69bd ac1c a1be 565e ebbd
00000280: efea 7dbe 8001 943c d59a 8c3e 3c48 a2be
00000290: 7070 6fbd c86d dabd be5e 393e 40d4 963c
000002a0: aab5 683e 7071 b1bd 569f 3a3e 58fe aa3d
000002b0: 1669 4b3e be6e 703e 202d 00be ea3c 153e
000002c0: 124d 2e3e a0b5 7e3d df43 a23e d40e c13d
000002d0: cd0a a9be e212 663e 1ce8 ac3d 22c3 633e
000002e0: 46b1 8dbe 5acc 123e f15a 02be 32d1 283e
000002f0: 58a0 403d 6722 aebe 826b 75be 3a4e 0c3e
00000300: 4a9f 163e a6b1 783e 2c5b f9bd 8d89 8f3e
00000310: 665b b3be de30 aebe 8c5a 123e 1f41 8ebe
00000320: 78e5 16bd 68d8 353d c216 76be f474 953d
00000330: 31ac 8cbe 7afa f3bd 35cf 5abe 4010 98be
00000340: 41b5 863e 7b30 70be 87ef 933e f8f3 7d3d
00000350: 3b59 8d3e 907b df3c eece 61be 5df3 09be
00000360: 833d a43e 3ec8 95be 1a4b 2ebe c0b8 7dbe
00000370: 180c 363d 288c f83d 70c9 b5bd b7f9 51be
00000380: 4960 acbe 2513 a43e efe9 b43e 7c2a 93be
00000390: 1698 73be 0ec1 49be 497d a43e d43a 95bd
000003a0: 9b8d 9c3e bcb4 dabd 65a6 983e 101e 7cbd
000003b0: 8a23 483e 4e34 613e 2093 39bc 6803 ac3d
000003c0: 2b63 90be 5846 283d 001a e13d 2a74 65be
000003d0: 40c9 a5bc 9a8c a0be a4e5 ccbd eea7 603e
000003e0: 78b3 763d b020 21bd 9001 3c3d c8d0 42bd
000003f0: 0d49 9abe a12c b0be 287c 06bd 3353 a63e

lstm.bias_ih_l2 f4 [32]
0.997735 1.3731772 0.90997356 2.2391071 0.49674234 0.45435002 0.86551654 0.5346826
0.34899136 -0.28737402 -0.2516458 0.31039295 0.3478413 -0.18623301 -0.061606497 -0.09744066
-0.061115548 -0.39030108 -0.8381337 -0.14891446 0.29660496 0.39863917 0.20713684 -0.39069343
1.0996557 1.6338899 0.57787424 2.66844 0.6280509 0.3892383 0.34218293 0.36283308
00000000: 906b 7f3f 45c4 af3f 07f4 683f 884d 0f40
00000010: 0355 fe3e 91a0 e83e 7e92 5d3f f5e0 083f
00000020: ffae b23e b022 93be b8d7 80be d3eb 9e3e
00000030: 4118 b23e deb3 3ebe 1857 7cbd f88e c7bd
00000040: 4c54 7abd 8bd5 c7be ee8f 56bf 087d 18be
00000050: 9bdc 973e 6f1a cc3e ae1b 543e f808 c8be
00000060: 85c1 8c3f 4e23 d13f 91ef 133f b9c7 2a40
00000070: f2c7 203f 3e4a c73e 9a32 af3e 42c5 b93e

lstm.bias_hh_l2 f4 [32]
1.0224032 1.6456445 0.99986696 2.797215 0.9812826 0.80787694 0.33314946 0.75548494
0.057137936 -0.17949407 0.3340216 0.305199 0.2557111 0.09012672 -0.33040607 0.032354623
0.5594623 -0.16444226 -1.106684 -0.3631294 0.36160266 0.3560757 0.18894206 -0.38891414
0.8839829 1.7769773 0.65367687 2.1604521 0.42180988 0.48198435 0.59178865 0.8793031
00000000: 1cde 823f 7ba4 d23f 48f7 7f3f 9205 3340
00000010: 5635 7b3f 06d1 4e3f 9192 aa3e 7667 413f
00000020: 7809 6a3d 4bcd 37be e104 ab3e 0b43 9c3e
00000030: 91ec 823e 5c94 b83d fc2a a9be 4886 043d
00000040: ec38 0f3f 8d63 28be d2a7 8dbf 19ec b9be
00000050: fc23 b93e 8e4f b63e 077a 413e c11f c7be
00000060: b44c 623f fe73 e33f 5e57 273f d944 0a40
00000070: 77f7 d73e a7c6 f63e 767f 173f 021a 613f

lstm.weight_ih_l3 f4 [32, 8]
0.75915027 -0.73275566 0.026925635 -2.10314 0.4515956 0.22375265 0.8049625 -0.7792442
0.89202315 -0.7668957 -1.4776864 -1.1943811 -1.2026564 -0.62668395 0.09524849 0.55440193
-0.05230564 -1.0041938 -2.0705 -0.4820675 0.6687102 0.8438422 -0.66297114 -0.95852757
0.8628005 -1.1941203 -0.5677218 -1.8014798 0.30367833 0.6232358 0.76792365 -0.6376285
0.81175053 -0.44456545 -2.5989819 -1.4234921 -1.5405622 -0.66124296 -0.26117772 0.78275687
1.1256164 -0.8739501 -3.8063767 -1.1121948 -1.614158 -0.8751516 0.017655803 1.6567273
0.9526053 -0.851134 -3.4426854 -0.8477516 -1.206711 -1.1614677 -0.14644796 0.8005254
-0.7113329 0.21494962 0.30128315 0.86881936 0.38734335 0.1158075 -0.14716102 -0.23021165
-0.24291171 -0.10721648 0.3278276 -0.31710765 -0.009108931 0.1321305 0.22779283 0.21898642
-0.014660656 0.22129175 0.291037 -0.27922228 0.24019971 0.29268816 0.044647515 -0.3468869
0.23115209 0.021089762 -0.17784351 0.1301246 -0.16432078 0.023270845 -0.19442163 -0.2005847
-0.072962165 -0.260575 -0.106787756 -0.1704354 0.08374554 0.17028019 0.08334476 0.06443834
0.15380374 0.21422324 -0.2611946 0.33445618 -0.2471892 0.31378344 -0.0819377 0.2999778
0.21799359 -0.19344833 0.16450003 0.130795 -0.18278979 0.099056214 -0.16886501 0.33704165
0.14761487 -0.19421233 0.0999549 0.13702628 -0.033280075 1.1712313e-05 -0.087234735 -0.06457102
-0.027765334 -0.35078216 0.023703128 -0.26423192 0.34981993 -0.122397736 -0.33092225 0.058950573
1.4186131 -0.8244028 -0.69025445 -1.9526091 0.74744546 0.119143836 0.71418476 -0.34955946
-1.9707243 1.2754606 0.46627554 3.1864874 -0.481639 -0.68421644 -1.0485092 0.9282897
-1.7274185 1.8602688 0.39604113 2.9947822 -1.0793105 -0.6941328 -0.9141559 1.1756599
-1.9664488 1.4912944 0.06868611 2.940801 -0.5764531 -0.42532438 -0.6574389 0.92751116
1.7702217 -1.8778114 -0.6034066 -3.0179253 0.44261575 0.9554145 0.8232825 -0.6924283
-2.2051148 1.8855028 0.7326465 3.2746308 -0.9705681 -0.89354044 -0.6652426 0.93382853
2.1027744 -1.9050596 -0.2863409 -2.8916063 0.35125223 0.64545584 1.0438205 -1.0779738
-0.30553272 0.74335253 -0.23278522 1.0498908 0.28943694 0.14782254 0.0056154197 0.29336196
1.1942424 -0.8615244 -0.28605238 -1.6280124 0.18031952 0.5823002 0.61602306 -0.49679533
0.41561285 -0.3625997 -1.4716886 -1.3462632 -0.76031727 -0.06441065 0.041859273 -0.07951439
0.2805769 -0.88354844 -1.683103 -0.09548419 1.1465122 0.85187805 -0.9783271 -1.0440285
1.0788618 -1.0876871 -0.7188762 -1.858682 0.46963584 0.6288124 0.67296624 -1.0212629
0.7919906 -0.622081 -2.6028883 -1.2689927 -1.5588424 -0.85555094 -0.2111694 1.0482864
1.4574654 -1.19893 -4.396079 -1.2062519 -2.4701736 -1.9225309 0.46875072 2.07925
1.4336075 -0.6033429 -3.8600478 -1.1160764 -1.4280717 -1.2730116 0.21050197 1.8218535
-0.712342 0.2575472 0.14772831 0.7980489 0.57647026 0.36465934 -0.40801975 -0.10252174
00000000: ac57 423f e095 3bbf 2693 dc3c d999 06c0
00000010: 8a37 e73e 6a1f 653e 0612 4e3f 8c7c 47bf
00000020: a15b 643f 4753 44bf d424 bdbf 7be1 98bf
00000030: a5f0 99bf 5c6e 20bf a411 c33d 49ed 0d3f
00000040: 703e 56bd 6c89 80bf 1283 04c0 8dd1 f6be
00000050: 9730 2b3f 0b06 583f 7ab8 29bf 1062 75bf
00000060: 7ee0 5c3f efd8 98bf 3756 11bf e496 e6bf
00000070: ba7b 9b3e 628c 1f3f a596 443f 9f3b 23bf
00000080: e2ce 4f3f 159e e3be b855 26c0 fd34 b6bf
00000090: 2431 c5bf 3847 29bf 16b9 85be c162 483f
000000a0: 3314 903f 32bb 5fbf ad9b 73c0 665c 8ebf
000000b0: bb9c cebf ef09 60bf e7a2 903c a40f d43f
000000c0: f1dd 733f ebe3 59bf f554 5cc0 4006 59bf
000000d0: 8275 9abf f9aa 94bf 74f6 15be 3cef 4c3f
000000e0: ea19 36bf c11b 5c3e c941 9a3e f26a 5e3f
000000f0: de51 c63e 7c2c ed3d 61b1 16be 9abc 6bbe
00000100: d9bd 78be 5094 dbbd 05d9 a73e ef5b a2be
00000110: a03d 15bc 384d 073e 8642 693e fa3d 603e
00000120: 4033 70bc 4e9a 623e cd02 953e 39f6 8ebe
00000130: eaf6 753e 39db 953e 50e0 363d 299b b1be
00000140: 22b3 6c3e 70c4 ac3c 9c1c 36be 623f 053e
00000150: b543 28be 80a2 be3c 7716 47be 1366 4dbe
00000160: 306d 95bd 166a 85be 8ab3 dabd 9e86 2ebe
00000170: c882 ab3d ee5d 2e3e a8b0 aa3d 40f8 833d
00000180: ba7e 1d3e 565d 5b3e 4cbb 85be d73d ab3e
00000190: 2a1f 7dbe 39a8 a03e f4ce a7bd b196 993e
000001a0: b639 5f3e 5217 46be b272 283e 20ef 053e
000001b0: 3f2d 3bbe fcdd ca3d f3ea 2cbe b990 ac3e
000001c0: 5a28 173e 99df 46be 28b5 cc3d 9e50 0c3e
000001d0: b050 08bd 0080 4437 20a8 b2bd d03d 84bd
000001e0: 2074 e3bc b899 b3be 102d c23c 6849 87be
000001f0: 991b b33e aaab fabd a46e a9be 2876 713d
00000200: 1d95 b53f 100c 53bf 84b4 30bf 18ef f9bf
00000210: 9658 3f3f af01 f43d d0d4 363f 75f9 b2be
00000220: b240 fcbf 4b42 a33f abbb ee3e 69ef 4b40
00000230: 6399 f6be cf28 2fbf 8d35 86bf 65a4 6d3f
00000240: 0d1c ddbf 4a1d ee3f e7c5 ca3e 83aa 3f40
00000250: d926 8abf b0b2 31bf 1f06 6abf 067c 963f
00000260: 98b4 fbbf bce2 be3f 4eab 8c3d 1536 3c40
00000270: 6e92 13bf 1ec4 d9be ea4d 28bf 5f71 6d3f
00000280: a096 e23f 205c f0bf db78 1abf b025 41c0
00000290: 889e e23e 0b96 743f a4c2 523f fb42 31bf
000002a0: 9a20 0dc0 2858 f13f b98e 3b3f 8d93 5140
000002b0: 2777 78bf 11bf 64bf 574d 2abf 630f 6f3f
000002c0: db93 0640 fed8 f3bf 469b 92be 1410 39c0
000002d0: 55d7 b33e 983c 253f e99b 853f 0cfb 89bf
000002e0: c96e 9cbe 5a4c 3e3f 405f 6ebe d262 863f
000002f0: 1431 943e cb5e 173e 8e01 b83b 8a33 963e
00000300: efdc 983f dd8c 5cbf 7575 92be b662 d0bf
00000310: aea5 383e a011 153f b0b3 1d3f f55b febe
00000320: 35cb d43e aba6 b9be 4b60 bcbf 5a52 acbf
00000330: 27a4 42bf bbe9 83bd a174 2b3d 71d8 a2bd
00000340: c7a7 8f3e 3b30 62bf eb6f d7bf 378d c3bd
00000350: e9c0 923f ae14 5a3f a573 7abf baa2 85bf
00000360: 2518 8a3f 5539 8bbf 4508 38bf 4be9 edbf
00000370: 1c74 f03e d9f9 203f 8447 2c3f beb8 82bf
00000380: e5bf 4a3f b340 1fbf b995 26c0 5a6e a2bf
00000390: 2688 c7bf 6305 5bbf cb3c 58be 402e 863f
000003a0: 3a8e ba3f 8a76 99bf aeac 8cc0 7666 9abf
000003b0: 5317 1ec0 7e15 f6bf 1800 f03e 6f12 0540
000003c0: 7380 b73f ae74 1abf 060b 77c0 97db 8ebf
000003d0: 0ecb b6bf 0bf2 a2bf d48d 573e 7f32 e93f
000003e0: 0c5c 36bf 3add 833e 1746 173e ef4c 4c3f
000003f0: 8e93 133f a1b4 ba3e f7e7 d0be ebf6 d1bd
