ModelSave3.pt (torch_old, 30741 bytes, 45 tensors)

lstm.weight_ih_l0 f4 [32, 6]
00000000: eaef 703f a9ba 383e 5e53 67bf 337f 0d3e
00000010: b596 0140 d080 13c0 9a94 153f a6e2 dbbf
00000020: 1c8f 2e3e 057b a23f 16ed b4bf 59d2 42bf
00000030: c235 5ebf 6a73 17be 8eff 733f f449 2b3f
00000040: 3f26 b4bf 11fe c43f ec12 72be a052 273c
00000050: bb45 b13f a17e 543b 319e febf 4d7e c73f
00000060: ab2f 7a3e ab15 0dbd ca23 5abf 821f 28be
00000070: f42a 2a3f ded9 2a3f 5feb 1abf 47a3 ef3e
00000080: f10d 8fbe b28e 32bf 6959 dcbe 8715 243e
00000090: 801e 32bf 9daa 433e b212 0840 317e fd3d
000000a0: bb96 d03e 693b 0c40 3416 673e f1bb bbbd
000000b0: f915 12bf 8f55 27bf 3c1b 0440 4a9b 4ac0
000000c0: 0aef 4c3e 80fb b6bd 10da abbe c0ff e8bd
000000d0: 5002 75bd 389a d53d 101b a03c 2ced db3d
000000e0: a90c ae3e 5e13 5d3e 170f b0be 72b9 043e
000000f0: c244 89be ecf0 8fbd 888c 76bd d9fd 83be
00000100: 99c2 3bbe 571a 48be 7621 023e 0016 7a3c
00000110: c429 f0bd 4061 833c d975 a13e 5c40 9bbe
00000120: f1d2 ae3e 7add 6d3e 3ada acbe d602 62be
00000130: e619 513e 226f 013e 80f6 3a3c 301a 90bc
00000140: ae60 1e3e 2c5b 123e c27b 5c3e a06b 303c
00000150: 350d 913e 69c7 8fbe b982 953e 7387 8f3e
00000160: 90dd b33c b12c b3be 581a 6fbd adae 9b3e
00000170: 5a08 f4bd 2d30 38be c1fe acbe 2830 64be
00000180: 0189 60be 82c0 ddbd 1136 8e3f 3548 643e
00000190: 2254 cabf 0a1a bd3f 76ce 90be 77b0 82bf
000001a0: 811f 663f 129c 19be 7c46 5d40 7d48 eb3e
000001b0: fa74 8cbe d50d 033f 789d c8bf 0a71 09bf
000001c0: 445b b83e 89d8 f43f 6c32 d93d 5a05 9abe
000001d0: 1a6e 0840 8fc0 ac3f 08ad a93f 21e7 8bbe
000001e0: 9626 96be a335 68bf 379b c73e ec40 8a3e
000001f0: 9121 17bf 939c 4dbf 94da d1be 88d8 1dbf
00000200: a48c f5be 723b b8be 87b9 3fbe cb20 2e3e
00000210: b8f9 5d3e 7946 d6be 616b 823f 71fc 3d3f
00000220: 7c15 a0bf 1ac3 f8bf 5363 983d 3095 093f
00000230: 885b e4bf 08dd 14bf 492b 863f dd75 a0bf
00000240: 6c13 1d3f acfe 7b3e a948 6ebf e194 90be
00000250: 0d34 1f40 6cde 17c0 5110 dbbd 45fe 0ac0
00000260: 2435 463f dff1 713f 79cc c4bf 2b7a f13e
00000270: 272b b9be 5941 223d fd34 603f 1785 573e
00000280: fd81 a13f d18a ea3f e96d 7cbe 17fb 01bb
00000290: 0333 ae3f 5977 f2be d32b ffbf 0d23 9b3f
000002a0: a015 ed3d c121 8e3c d25f a8bf 782d c9be
000002b0: f83a 823f 8a2e 823f 8b68 06bf 200c 82bd
000002c0: 5be0 05bf 7cdd 53bf 6eb3 babe 8029 813e
000002d0: 5a68 64be fbe3 773e 45ae b73f 2233 e3bd
000002e0: fd3b c83f 57a5 ca3f a30a 1d3f 2962 5e3e
000002f0: d7c8 84bf 242d 58be c428 1c40 c763 3ac0
0.9411608 0.18039955 -0.90361583 0.13818054 2.0248234 -2.304737 0.58429873 -1.7178543
0.1704678 1.2693793 -1.4134853 -0.76102215 -0.8680078 -0.1479012 0.9531182 0.6690972
-1.4074172 1.5390035 -0.2364003 0.01021257 1.3849405 0.003242411 -1.9892026 1.5585419
0.24432246 -0.034444492 -0.8521086 -0.1641827 0.6647179 0.6673869 -0.605154 0.46804258
-0.27940324 -0.69748986 -0.43036965 0.16023837 -0.6957779 0.19108053 2.126141 0.12377585
0.40739998 2.191126 0.22567064 -0.09166706 -0.5706478 -0.6536493 2.0641623 -3.165728
0.20013061 -0.089346886 -0.33564806 -0.113769054 -0.05981666 0.104298055 0.019544154 0.10738596
0.33994034 0.21589419 -0.34386513 0.12961367 -0.2681027 -0.07028374 -0.060192615 -0.25779608
-0.18335952 -0.19541298 0.12708077 0.015264034 -0.11726716 0.016037583 0.31535223 -0.3032254
0.3414531 0.23229018 -0.33760244 -0.22071394 0.20420036 0.1264005 0.011411309 -0.017590612
0.15466568 0.14292592 0.21531585 0.010767847 0.2833039 -0.28081825 0.29201296 0.28033027
0.021956235 -0.34995034 -0.058374733 0.30406705 -0.119156554 -0.17987128 -0.33788112 -0.22283995
-0.21927263 -0.108277336 1.111025 0.2229317 -1.5806925 1.4773571 -0.28282517 -1.0210103
0.8989182 -0.15000942 3.457427 0.45953742 -0.27432996 0.5119298 -1.5673056 -0.5368811
0.3600713 1.9128581 0.1060532 -0.30082208 2.13172 1.3496264 1.325593 -0.27324775
-0.29326314 -0.90706843 0.38985607 0.27002656 -0.59035593 -0.8031704 -0.40987074 -0.61658525
-0.47958863 -0.35982853 -0.18723117 0.17004697 0.21677291 -0.4185064 1.018902 0.7421332
-1.2506557 -1.943454 0.074408196 0.5374327 -1.7840433 -0.58149767 1.048196 -1.2535969
0.6135776 0.24608868 -0.9307962 -0.28238586 2.487552 -2.3729506 -0.106964715 -2.1717694
0.77424836 0.9450969 -1.53749 0.4716352 -0.36165735 0.0396131 0.87580854 0.21046863
1.2617794 1.8323613 -0.24651302 -0.00198335 1.3609318 -0.4735668 -1.9935249 1.2120072
0.1157639 0.01735008 -1.3154242 -0.39292502 1.0174246 1.0170453 -0.5250327 -0.06349969
-0.52295464 -0.82759833 -0.3646502 0.25226974 -0.22305432 0.24208061 1.4350058 -0.11093737
1.5643307 1.5831708 0.61344355 0.21717133 -1.0373791 -0.2111097 2.4399881 -2.91234

lstm.weight_hh_l0 f4 [32, 8]
00000000: dd53 9dbe eaa0 763e d1dc 803e 60ba a73c
00000010: 249a 32be 5e0c a3be a019 003d b2d2 293e
00000020: a4b1 9abe c890 5cbd 80a2 393b ecf4 8abd
00000030: 16f7 473e 5b5f b23e 3e58 46be e027 4abd
00000040: 40c8 be3b 8cfe 9bbe 20f6 c4bc bd24 24be
00000050: aed8 523e 709a cf3d 21c0 b1be c805 47be
00000060: a060 ab3c be98 6d3e 1383 ac3e c0d3 e03b
00000070: b639 3f3e 6923 28be f8ee 01bd dfa5 1cbe
00000080: a177 14be 0f22 893e f8d9 2cbe 2b2e 60be
00000090: 6ee1 4fbe 0c17 b2bd 12d3 33be 2fa3 a63e
000000a0: 2d6c 983e dec4 84be d923 73be b050 54bd
000000b0: 42bd 87be ec8c 86be 24ee 96be 0090 b73d
000000c0: 2b3e b13e 51fa 983e 80fa aa3b 208d b3bd
000000d0: 261e 393e 7633 7f3e b7b8 ac3e fe20 0b3e
000000e0: 88d9 43bd 9155 873e 2015 b83d 0896 203d
000000f0: f3b9 85be 5f35 9d3e 5c83 dcbd 8282 08be
00000100: 2683 8bbe 857a a33e fe4b 8ebe 8064 fc3c
00000110: 29a3 863e a27c 653e a030 5abd 6299 473e
00000120: 9d09 ae3e 44f1 5fbe 5017 b2be be81 273e
00000130: e980 a6be 7099 0bbd a6db 1a3e e282 5d3e
00000140: a08f 713c 788d c1bd f27b 6e3e 1379 06be
00000150: e674 1f3e 0ee4 19be f4be afbd 9fab a53e
00000160: 6050 77bc a9b4 91be 1178 7ebe 0dc8 b23e
00000170: d4e1 fd3d 20dd a1be 56ca 263e beec 3a3e
00000180: b710 b23e 924f 76be 582f 4d3d 23d0 813e
00000190: cca6 ea3d a888 93be ba58 5d3e 705c e73d
000001a0: b0c6 54be 61c1 943e d7f4 88be 5fc3 8dbe
000001b0: a0ca ac3c 3c62 a6bd dafe 3cbe 025b 363e
000001c0: 3cb6 35be 02db 0cbe 202a c3bc 70ee ea3d
000001d0: 170e 56be 338a a53e ecc3 b8bd 3837 09bd
000001e0: 04b5 0d3e 29e1 a43e cc00 043e b823 5dbd
000001f0: 444e d73d 29b5 80be 9492 0d3e b2dc 1f3e
00000200: 0671 dbbd ae6a 81be bad8 2b3e 2854 bbbd
00000210: f4c8 adbd 4432 973d a88c 83be a2cb 57be
00000220: 4e4e 553e 7564 9a3e 944c cd3d cc70 b33d
00000230: acd9 9dbe 7cc0 a83d 3af3 1a3e 9772 0cbe
00000240: 09e8 963e 7154 8e3e fcd4 6fbe e610 47be
00000250: 30c9 84be f1e3 943e bc84 c33d 0c3a c23d
00000260: ffe3 a43e ad02 04be e833 08bd e043 6ebd
00000270: 44b4 c73d 0978 99be a431 a8be e423 c13d
00000280: e30d 803e bd47 963e 609d 91be e217 fdbd
00000290: f472 9fbe 0035 4a3d f098 cabd f1a2 80be
000002a0: 6637 5d3e 80c8 08bb 3472 95bd 1892 70bd
000002b0: 18d2 47be 40a8 2f3c 0002 61bc 37dc b33e
000002c0: d4d8 c93d 2034 c33c 106d 913c b445 9abe
000002d0: 36f2 423e 8804 7d3d 47cb 8c3e c504 16be
000002e0: 692f b23e 001b c3bc 852e 8d3e 90f4 0abe
000002f0: 00da d63a 7f2e a2be 8b43 883e f607 82be
00000300: d27e 6e3e a6a2 6b3e 7507 8dbe daec 613e
00000310: 331c a9be a049 6c3d e242 213e d7c2 923e
00000320: ae19 163e ec30 9c3d 50ef e4bc 60ff 763d
00000330: 7aa3 503e c74d 813e 3c50 31be af87 07be
00000340: 6426 c9bd e42a fc3d 3453 ddbd a403 e73d
00000350: d590 8a3e 015c a43e 2016 b1bc cf28 893e
00000360: b2ed 9cbe 1dd8 8abe 2041 83bc 4944 1dbe
00000370: a68e 363e f6ec 9fbe 004e 7c3a c46d 133e
00000380: e644 ebbd fe54 303e 382e 833d e85a 86bd
00000390: a68c 1d3e 6c19 11be 6576 4abe 7431 a53d
000003a0: 54ac 83bd c681 a0be 2613 6a3e 9711 93be
000003b0: c827 2a3d f09a fabc 16b5 1f3e b44e cc3d
000003c0: 7c7d 903d 38d9 373d da77 1c3e 2c1a c8bd
000003d0: c8a1 f2bd 7ac5 053e 0688 5ebe a05e 6fbe
000003e0: f673 373e f537 97be 1586 68be 40a2 c73b
000003f0: c016 2cbd f845 2dbd c2ae 643e bd93 55be
-0.30728045 0.24084821 0.2516847 0.020474613 -0.17441612 -0.31845373 0.031274438 0.1658428
-0.30213654 -0.05384901 0.0028325617 -0.067849964 0.1952785 0.34838375 -0.19369599 -0.049354434
0.0058222115 -0.3046764 -0.024043143 -0.1602964 0.20590469 0.101368785 -0.34716895 -0.19435799
0.020920098 0.23202798 0.33693752 0.00686118 0.18674359 -0.16419758 -0.03172204 -0.1529765
-0.1449876 0.26783797 -0.16880023 -0.21892612 -0.20300838 -0.08695802 -0.17560986 0.32546374
0.29770032 -0.25931448 -0.23744144 -0.051834762 -0.2651158 -0.2627939 -0.29478562 0.08963013
0.34617743 0.29878476 0.00521785 -0.08767152 0.18077907 0.24921975 0.33734676 0.13586804
-0.047814876 0.2643247 0.08988404 0.03920558 -0.2611843 0.3070478 -0.10767242 -0.13331035
-0.27248496 0.31929412 -0.27792352 0.03080964 0.26296356 0.22410825 -0.05326903 0.19492105
0.3399171 -0.2186938 -0.3478341 0.16358086 -0.32520226 -0.034081876 0.15122852 0.21631959
0.0147437155 -0.09450811 0.23289469 -0.13132124 0.15571937 -0.15028402 -0.08581343 0.323575
-0.0150948465 -0.28458145 -0.24850489 0.34918252 0.12396589 -0.31614017 0.16288123 0.18254372
0.34778377 -0.24053791 0.05009398 0.25354108 0.11457595 -0.28815198 0.21615878 0.11296928
-0.20778918 0.29053786 -0.26749298 -0.2768812 0.021092713 -0.081242055 -0.18456593 0.17808154
-0.17745298 -0.1375542 -0.023823798 0.114712596 -0.20903812 0.32332 -0.09021744 -0.033499926
0.13838583 0.32203034 0.12890929 -0.053989142 0.10512975 -0.25138214 0.13825446 0.15611532
-0.10714917 -0.25276703 0.16781893 -0.09146911 -0.084855944 0.07382634 -0.2569325 -0.21073774
0.20830652 0.30154768 0.10024372 0.08761749 -0.30830133 0.082398385 0.15131846 -0.13715588
0.29473904 0.277988 -0.23421091 -0.1944004 -0.25934744 0.29080155 0.095468014 0.09483728
0.32205197 -0.12891646 -0.033252627 -0.0581702 0.0975118 -0.29974392 -0.32850373 0.09430674
0.25010595 0.29351607 -0.2844038 -0.12358071 -0.3114239 0.04936695 -0.09892452 -0.25124314
0.21603164 -0.002087146 -0.07297173 -0.058733076 -0.19513738 0.010721266 -0.013733387 0.35128948
0.0985581 0.023828566 0.0177522 -0.30131304 0.19037709 0.0617719 0.27498838 -0.14650257
0.34801796 -0.023816586 0.27574554 -0.13569856 0.0016391873 -0.316761 0.2661403 -0.253967
0.23290566 0.23011264 -0.27544752 0.22063008 -0.33029327 0.0576874 0.1574817 0.28664276
0.14658234 0.076265186 -0.027946144 0.06030214 0.20374861 0.25254652 -0.17315763 -0.13235353
-0.098217756 0.12312868 -0.10806885 0.11279991 0.27063623 0.32101443 -0.021616995 0.26788947
-0.30650097 -0.27118006 -0.016022265 -0.1535808 0.17827854 -0.31235474 0.000962466 0.14397341
-0.11487751 0.17219922 0.064053 -0.06560308 0.15385684 -0.14169854 -0.19771726 0.08066073
-0.06429353 -0.3134901 0.22858867 -0.28724357 0.041541845 -0.030591458 0.15596423 0.09975949
0.07055184 0.04488489 0.15280095 -0.09770617 -0.118472636 0.13063613 -0.21731576 -0.2337594
0.1791533 -0.2953488 -0.22707398 0.0060923398 -0.042013884 -0.042303056 0.2233229 -0.20857139

lstm.bias_ih_l0 f4 [32]
00000000: 29de 033f d6a5 893e 1920 303f e851 393f
00000010: d748 6cbe 5e39 9fbf cae0 03bf 108a 993f
00000020: 6d5e a63e ae71 643e 9b72 a63e 8527 913e
00000030: 0052 72bb cca5 56be 9f6b 05be 088a 0b3e
00000040: 16c0 7cbf 75ae d1bd 5a4e ca3e 3101 afbe
00000050: e118 48bd 777c 7fbe a0ad a33e 5623 d73d
00000060: e034 193e 475e 1fbe 1ff6 413f 65c7 653e
00000070: 59ad 01bf dcd1 b0bf 2080 8e3c 7079 913f
0.51510864 0.26884335 0.6879898 0.72390604 -0.23074661 -1.2439382 -0.51514876 1.1995258
0.32493916 0.2230899 0.32509312 0.28350464 -0.0036975145 -0.20961684 -0.13029335 0.13626873
-0.987306 -0.10238353 0.39512902 -0.34180596 -0.04885185 -0.24949823 0.31968403 0.10504787
0.14961576 -0.15563308 0.75766176 0.22439344 -0.5065513 -1.3814044 0.01739508 1.1365185

lstm.bias_hh_l0 f4 [32]
00000000: 1ead c43e 0817 763e 043a a93e 6fe3 1e3f
00000010: e5eb 62bf b6c7 a5bf 737b c4be ed02 7e3f
00000020: 1403 103e 20ce 623c 50bc 52be f0c4 64bd
00000030: b155 59be ac1a 113e de33 77be 9646 59be
00000040: d852 61bf 8b9a 113e 4911 913c 4ad1 50bf
00000050: 65f3 15bf b4a4 d2ba 3e5f 04bc 3c38 f03e
00000060: e2c0 d03e 3921 60bb 68ca 223f 6129 373f
00000070: 8bbf b7be e424 9bbf 7211 8ebe de37 523f
0.38413328 0.24032223 0.33052075 0.62065786 -0.88641196 -1.2951572 -0.38375434 0.99223214
0.14063674 0.013843089 -0.20579648 -0.055851877 -0.21224095 0.14170331 -0.2414088 -0.21218333
-0.88017035 0.1421911 0.017708438 -0.8156935 -0.58574516 -0.0016070814 -0.008079348 0.46917903
0.40772158 -0.003419949 0.635901 0.71547514 -0.35888323 -1.2120633 -0.27747685 0.82116497

lstm.weight_ih_l1 f4 [32, 8]
00000000: 51f4 213f bc6f 18bd 3b3d 0ebf 1821 193e
00000010: b17d cf3e b690 0a3f e39f fe3e dfd9 31bf
00000020: 5508 a93e e33d 37be 8edf 6c3f b210 bfbf
00000030: 5c6c e63d 5a58 493f aa68 fcbe c8aa 963e
00000040: 31d0 2b3e 8ec9 09bf 53a6 c03e 8e14 77bf
00000050: d9c4 8dbd f0ea 003f b534 b13d 3c77 0a3f
00000060: 4646 7a3f d954 93bf 2711 0f3f a7dd 8cbf
00000070: 33f3 a03e fa60 98be 452f 73bc 4f05 51bd
00000080: cc16 853f 7a0d 9e3e bcf6 aebe dcc9 78bd
00000090: cd45 ae3b f5da ac3e 291d 5e3f ec26 f0be
000000a0: 25af 94bf 290b d73f 02a9 01bf c6cb fb3f
000000b0: 2ab8 39bf a353 5bbe 5ad1 8f3f 13e4 6d3f
000000c0: 70e5 843f c029 e53f 46ec 4fbf 0080 333d
000000d0: b173 f8be 655e bb3f 6aee aa3f 5966 8ebf
000000e0: 047a 09c0 5bee 3d3f bd44 033f 2328 d53e
000000f0: bc26 8dbf db22 863e 5f2c 25bf 19d5 dd3f
00000100: b1cc 833e 2e74 79be 843d 6ebe 5589 8b3e
00000110: 07db 8d3e eaa7 7e3e 30ce e2bc 38bb 46bd
00000120: 186d 443d d12c 903e 7097 a6bc bc57 fa3d
00000130: f0cd 173d 3a66 4a3e 80f1 b03d fc9a 8bbd
00000140: 2aa9 b1be af20 9f3e 92db 4f3e 03ac 843e
00000150: 089e 023e e104 16be 4d66 00be 3f6c 69be
00000160: f5c5 a23e 5013 063d 5b02 aa3e f0a3 dcbc
00000170: fcef 8d3d 0cae ae3d 00e6 b7bb 251c 8a3e
00000180: dfb6 9b3e fe6e 3d3e acd7 c43d 5444 36be
00000190: 9b66 a53e 2578 b13e 00f5 f13a e0a6 bcbc
000001a0: b698 09be 4707 9a3e ccc2 fe3d de0b 8ebe
000001b0: 2b06 28be 195e 9d3e 26e6 40be 2041 00bc
000001c0: c0aa 78bc 80c6 443d cd45 9a3e aef6 613e
000001d0: 80b0 b3be 3ca0 ab3d 938a a33e 4344 a53e
000001e0: 5d16 a1be b665 3ebe faf5 173e 4002 64bc
000001f0: fc94 73be 6e60 6b3e ea30 0b3e 0202 313e
00000200: ae6d 173f 5140 b73f 80dd f8be ef41 8c3e
00000210: 673a 973e 9a58 9b3f 9d39 873e da42 23bf
00000220: e419 a6bf 407e 03bf 3661 303f 7d6c 91bf
00000230: 7b8d 4b3d f042 52bf 2786 2abf 4ac4 ed3f
00000240: fdb4 063e f559 1e3e 438e 27bf 8c10 173f
00000250: 9e0c aabe 1e54 473e e96d 3b3f 4ac0 3dbf
00000260: aae0 1bbf 0638 abbe 9c3b aa3d c4ee 933f
00000270: 8517 4cbc 915a 08bf 85a6 0f3e 0e3c 793e
00000280: b4cd 7cbf 8e27 b7be 32f1 183f b039 81bf
00000290: 3b45 c63b 376e 99bf 3fdb e3be 437c af3f
000002a0: 3c25 d9bf dd4d a3bf 6bce 8f3f e7de 9abf
000002b0: 82a1 77be 5d99 13bf 2b73 60bf 1c81 0f40
000002c0: 740e d03f c0a2 3d3f efe9 a3bf c248 ba3f
000002d0: 52d2 bd3e ef90 9d3e 2d13 333f 821d f2bf
000002e0: b4d7 af3f d7a0 613f 8151 60bf 9c70 193f
000002f0: 7d9f 303d c8ce 313f c798 583f 4631 03c0
00000300: 635d 3d3f eb7c 063e fee9 a73b 0ce6 dd3e
00000310: c0ae 3bbd e4de 7b3f b9fb ec3d 9af1 4cbf
00000320: dc03 9d3c 7789 37be a032 1f3f 2233 f7bf
00000330: 7788 743e 9643 db3e 9c65 cabe 4f39 943e
00000340: 05cf 483f 0553 49bf bf36 e23e f670 42bf
00000350: f787 bf3e 5d84 983f 3e47 8cbe 983a 9f3e
00000360: d756 4b3f b292 05bf 90b8 c7bb 092a 86bf
00000370: 8036 c73e 2aae bdbe 10f6 cdbe 10a5 563f
00000380: 9306 df3f dcec 903e 42cb 14be 0060 1cbf
00000390: c6fd 95be 7731 423f 6f8a 1d3f f49e 2bbf
000003a0: bd57 c0bf 2a56 bf3f 08f0 82be 2ddb c73f
000003b0: d6f4 13bf 7bfe ed3e 8117 853f 0dec 513f
000003c0: 22c7 a03f cd4e 0440 d710 02bf 9c47 f6be
000003d0: 94f8 fe3b 82e9 be3f 6c23 a83f cd18 cdbf
000003e0: 7d2b 08c0 76c4 ca3e 549c 3b3f 1902 b03e
000003f0: 492a 0bbf 051a 833e 2b4a 8bbf 17ac 0140
0.6326342 -0.037215933 -0.5556218 0.1495403 0.40525582 0.5412706 0.4973136 -0.6947307
0.3301417 -0.17894702 0.9252862 -1.492697 0.11251137 0.7865044 -0.49298602 0.2942717
0.16778637 -0.53823173 0.37626895 -0.9651574 -0.06922311 0.50358486 0.08652631 0.5408819
0.9776348 -1.1510268 0.5588555 -1.1005143 0.31435546 -0.29761487 -0.014842813 -0.051030453
1.0397582 0.30869657 -0.34172618 -0.060739383 0.0053183795 0.337608 0.86763245 -0.46904695
-1.161595 1.6800281 -0.5064851 1.9671562 -0.7254664 -0.21418624 1.1235764 0.9292614
1.0382519 1.7903366 -0.812199 0.043823242 -0.48525766 1.4638182 1.3354008 -1.1124984
-2.1480722 0.74191827 0.5127676 0.41632184 -1.1027446 0.26198468 -0.6452083 1.7330657
0.25742105 -0.24360725 -0.23265654 0.27253214 0.27706167 0.24868742 -0.027686208 -0.04851839
0.047955602 0.28159192 -0.020335883 0.12223765 0.03706163 0.19765559 0.086398125 -0.0681667
-0.34699374 0.31079623 0.20298603 0.25912485 0.12755597 -0.14650299 -0.12539025 -0.22795199
0.31791654 0.03273326 0.33204922 -0.02693364 0.06930539 0.085292906 -0.005612135 0.26974598
0.30412957 0.18499371 0.09611449 -0.17799503 0.32304844 0.34661976 0.0018459857 -0.023028791
-0.13437161 0.30083677 0.12439498 -0.2774343 -0.16408603 0.30735853 -0.18837795 -0.007828027
-0.015177429 0.048040867 0.3013138 0.22066757 -0.35095596 0.08380172 0.3194166 0.32278642
-0.31462374 -0.18593487 0.14839926 -0.013916552 -0.23787302 0.22986004 0.13592878 0.17285922
0.5915173 1.4316503 -0.4860649 0.27394053 0.29536745 1.2136414 0.26411143 -0.6377388
-1.2976651 -0.5136452 0.6889833 -1.1361233 0.049695473 -0.8213339 -0.6661095 1.8575528
0.13154979 0.15464003 -0.6545145 0.59009624 -0.3321275 0.19465682 0.73214585 -0.74121535
-0.60889685 -0.3344118 0.08312151 1.155724 -0.012456779 -0.53263193 0.14028366 0.24339315
-0.9875138 -0.35772365 0.59743035 -1.009573 0.0060507334 -1.198676 -0.4450321 1.3709797
-1.6964488 -1.2758137 1.1234869 -1.2099274 -0.24182704 -0.5765589 -0.8767573 2.2422552
1.6254411 0.7407646 -1.2805766 1.4553454 0.37074524 0.30774638 0.69951135 -1.8915255
1.3737702 0.8813605 -0.87624365 0.59937453 0.04312085 0.6945615 0.8460812 -2.0498824
0.7397062 0.1313359 0.0051243296 0.43339574 -0.04582095 0.9838698 0.1157145 -0.80056155
0.01916688 -0.17923532 0.6218662 -1.931248 0.23880182 0.42825 -0.39530647 0.28949973
0.78440887 -0.786423 0.44182393 -0.75953615 0.3740842 1.1915394 -0.27398103 0.3109939
0.7942938 -0.52176964 -0.0060949996 -1.0481578 0.38908768 -0.3704694 -0.40226793 0.83845615
1.7423881 0.2830571 -0.14530662 -0.61083984 -0.29295176 0.7585673 0.6153936 -0.6703942
-1.5026776 1.494817 -0.25573754 1.5613762 -0.57795465 0.46483216 1.0397798 0.8200081
1.256077 2.0673096 -0.50806946 -0.4810151 0.0077810977 1.4915011 1.313581 -1.6023194
-2.1276543 0.39603013 0.7328541 0.343766 -0.543614 0.2560579 -1.0882009 2.0261285

lstm.weight_hh_l1 f4 [32, 8]
00000000: cc03 c73d 4c42 123e 3061 e73c f1e7 8cbe
00000010: 757b a1be 5608 463e ee2a 7d3e 109f 103e
00000020: d2e4 ebbd cd8a 16be df07 9a3e ee3f e3bd
00000030: 247c c53d e557 8c3e fea9 473e 9689 323e
00000040: e7cb b33e 5029 673d d693 243e 7930 96be
00000050: 7486 36be 3018 34bd be66 733e beb8 8cbe
00000060: c674 81be faf0 3f3e 3333 803e b6f2 6ebe
00000070: 1845 663d 408e 003d 00df a3be d358 1bbe
00000080: aeec a0be dece 233e 93ad 92be b2f8 533e
00000090: 36fb 83be e6bf 4dbe 6920 b1be ff2f 15be
000000a0: 400a e8bc c0c7 f6bc bb44 833e 1c92 04be
000000b0: 634c 93be 770f 59be 60ae 6d3c 98d6 02bd
000000c0: 809e 813c 58bb e7bd a81d 6d3d 249d d83d
000000d0: 4e72 373e 12fd 203e c53a b43e 40b7 8d3b
000000e0: af8f 98be d5b3 9c3e 009d ce3a dfdf 5cbe
000000f0: 6bbe 10be 9c8e b3bd 36ba 7fbe 13ad 803e
00000100: 7005 a6bc 4eed 313e 866b 5d3e bd59 ac3e
00000110: 2a5e 233e 6a0a 093e 51dd 17be a8a3 6fbd
00000120: 60b2 b7bc 1491 a3bd 4031 8cbe 28a9 703d
00000130: 1309 81be e213 a1be 54cc 01be 9417 cebd
00000140: c0e8 7d3d fa99 523e d8fe 7a3d 764c 463e
00000150: 9c04 6fbe 1e9d 4c3e f7ef 84be c80b b7bd
00000160: d937 18be 3142 973e a847 36bd 14c2 9ebe
00000170: f82f adbd ac61 f43d a828 4cbd 1023 ecbc
00000180: d316 923e e313 4cbe 38de a13d 8016 4b3d
00000190: 3919 aa3e 2066 6b3c 6099 713c f211 253e
000001a0: 4014 bb3b de0a 90be d36a 95be a021 253c
000001b0: 424c 6b3e 3d08 4dbe 880f 2fbd c076 4f3d
000001c0: c6dc 43be 1c94 bbbd 54f0 cbbd 5312 973e
000001d0: 52b2 14be 8258 353e 243e a2bd 6f48 813e
000001e0: 0047 f1bc b288 423e aede 7fbe 40de e03d
000001f0: 4da3 a33e 3b9f 59be dd30 8a3e 049c 8bbe
00000200: 1419 e53d dd08 9e3e 905b 4a3d 381c b5bd
00000210: c801 343d 8601 053e 9e3a a0be bed9 97be
00000220: b92a afbe 44ff 003e 801e 6c3d 75bd b1be
00000230: 4aab 77be 9acc 49be 940c 77be 26ec 9ebe
00000240: 0f3d 9a3e 5425 b1bd 4ecf ffbd d6b0 84be
00000250: 90fe 8dbd d2d7 033e 1ece 633e 8e6d 7a3e
00000260: 2bf7 9c3e 0e54 1f3e 7002 a7bd 6071 80bc
00000270: bebb 633e fb8b 813e 16bf 67be 59d2 ab3e
00000280: 9224 063e e6e3 4d3e 825b 223e 006e cb3b
00000290: b43b bd3d 176c a53e 28b7 9dbd 21ae 893e
000002a0: 28f3 09be 402e 9dbc 2a14 76be 41f9 953e
000002b0: cfe3 8dbe 8f2d 90be 5724 97be dc57 cebd
000002c0: 2f05 ac3e 2070 5abd 7e9d 7e3e bf66 a53e
000002d0: 9268 2bbe 1110 99be 8d38 30be 5c81 c43d
000002e0: 3c59 d53d 0275 743e d5fa 2fbe 9067 4b3d
000002f0: ff5f a0be 8813 35bd 7000 a93d 3f63 ad3e
00000300: 00c4 28bb f6a5 673e 7928 02be 7c67 85bd
00000310: ec56 103e 8dc0 81be 9876 483d 401a 9e3c
00000320: 667d 8bbe e082 663c 4fa3 0fbe 124d 443e
00000330: 6f7f a83e a1bd 8e3e 5049 fd3d b086 8cbe
00000340: 69ec 833e 7c67 afbd 9fae 31be 2429 ba3d
00000350: 40c7 83be db44 813e 5ebd 7c3e 747f e13d
00000360: e06f 753c 955f a93e d18b aebe e2a9 95be
00000370: 795b 7ebe b47f 83be 9628 6e3e a0c2 273d
00000380: 3e56 783e 80d0 2f3d 24a0 da3d 10b0 60be
00000390: e888 73be 1ba1 a3be e2f6 453e 404d ac3c
000003a0: 90b4 60be 06c2 4e3e f2f4 283e f6fb 1b3e
000003b0: ec92 aebe 448a 8abe 1a71 40be 709e 93be
000003c0: 8ff3 0abe 54b9 f93d 2676 febd 50bd bbbd
000003d0: 520c e5bd 8a77 333e 490f a43e a40c 093e
000003e0: cca9 78be 50c6 a8be 28a1 a93d b309 2fbe
000003f0: 9b2a 3fbe 2094 a5bc f04a 963d 7a12 5cbe
0.09717521 0.14283103 0.028244585 -0.27520707 -0.31539503 0.19339117 0.24723408 0.14123178
-0.115182534 -0.14701386 0.3008413 -0.11096178 0.096428186 0.27410808 0.1949844 0.17435297
0.35116503 0.056435883 0.1607202 -0.29333857 -0.17824727 -0.04396838 0.23769662 -0.27484697
-0.25284404 0.18744269 0.25039062 -0.23334774 0.056218237 0.03138566 -0.32006073 -0.15170603
-0.31430572 0.15996882 -0.28648052 0.20700338 -0.25777596 -0.20092735 -0.3459504 -0.1456909
-0.0283252 -0.030124545 0.25638375 -0.12946361 -0.28769216 -0.21197306 0.014506906 -0.031942934
0.015822649 -0.1131503 0.05788961 0.10576847 0.17914698 0.15721539 0.35201088 0.0043248236
-0.29797122 0.3060595 0.0015763342 -0.21569775 -0.14135139 -0.08767435 -0.24973378 0.25132045
-0.020266265 0.17375681 0.21623048 0.33662215 0.1595389 0.13382879 -0.1483052 -0.058505684
-0.022423923 -0.07986656 -0.27381325 0.05875507 -0.25202236 -0.31460482 -0.12675601 -0.10063091
0.061989546 0.2056655 0.061278194 0.19365105 -0.23341602 0.1998181 -0.2596433 -0.08937794
-0.14865054 0.29542688 -0.04450193 -0.31007445 -0.08456415 0.11932692 -0.04984346 -0.028825313
0.28533038 -0.19929461 0.07903713 0.049582005 0.33222368 0.01436761 0.01474604 0.16120127
0.005709201 -0.2813329 -0.29183063 0.010078818 0.22978309 -0.20022674 -0.04273942 0.05065036
-0.19127187 -0.09159109 -0.09957948 0.29506168 -0.14521149 0.17709544 -0.07922009 0.25250575
-0.0294528 0.18997458 -0.2498729 0.10979891 0.31960526 -0.21252148 0.26990405 -0.27267468
0.11186424 0.30866137 0.049403727 -0.08843273 0.04394701 0.12988862 -0.3129472 -0.29658312
-0.34212282 0.12597376 0.057646275 -0.34714857 -0.24186435 -0.19706956 -0.24125892 -0.31039542
0.3012471 -0.08649698 -0.12490712 -0.25916165 -0.069333196 0.12875298 0.22246596 0.24455854
0.30657324 0.15559408 -0.08154762 -0.015679061 0.22239587 0.2530211 -0.22631487 0.3355892
0.13099888 0.20106468 0.1585522 0.0062081814 0.09239903 0.32309029 -0.0770095 0.26890662
-0.13471663 -0.019187093 -0.2403113 0.29291728 -0.27712867 -0.28159758 -0.29519913 -0.100753516
0.33597705 -0.053329587 0.24864766 0.32304952 -0.16739109 -0.2989507 -0.17209072 0.09594986
0.10417411 0.2387276 -0.17185529 0.04965931 -0.3132324 -0.04420808 0.082520366 0.3386478
-0.002575159 0.22621903 -0.12710752 -0.06513879 0.14095658 -0.25342217 0.048941225 0.019299626
-0.2724411 0.014069289 -0.14027141 0.19170025 0.32909724 0.2787905 0.12367499 -0.27446508
0.25766304 -0.0856466 -0.17351769 0.09089878 -0.25737953 0.25247845 0.24681613 0.11010638
0.014980286 0.33080736 -0.34091046 -0.29231173 -0.24839582 -0.25683367 0.2325767 0.040957093
0.24251649 0.04292345 0.10675076 -0.21942163 -0.23782694 -0.3195885 0.1933246 0.02103293
-0.21943879 0.20191202 0.16499689 0.15232834 -0.34096467 -0.27058613 -0.18793145 -0.28831816
-0.13569473 0.12193552 -0.12424879 -0.09166968 -0.111839905 0.1752607 0.32042912 0.13383728
-0.24283522 -0.329638 0.08282691 -0.17093544 -0.18668596 -0.020212233 0.07338512 -0.21491423

lstm.bias_ih_l1 f4 [32]
00000000: 5dac 2ebf 2101 573e 8849 6ebf 53c3 0cbf
00000010: 9a5e 1fbf c2d0 1d40 e103 7e3f 2103 6f3f
00000020: d8af 7bbd 2055 463d f249 6e3e 0859 73bd
00000030: b80f 8dbd 98fa 633d afac 953e c816 72bd
00000040: b1a8 0abe 2194 1d3f 6509 64bd 5ed6 da3d
00000050: c5c0 ce3e dd5d 4a3f 1a1a 51bf fbe0 2bbf
00000060: 2ef8 cebe 6bf3 c63e bbd2 31bf 0eca e1be
00000070: 5b7a 15bf 44d7 2340 7b47 4d3f 55f9 833f
-0.68231755 0.20996524 -0.9308095 -0.5498554 -0.62253726 2.4658666 0.9922467 0.9336415
-0.061446995 0.048421025 0.23270395 -0.05941108 -0.06887764 0.055658907 0.2923331 -0.059103757
-0.13540913 0.6155415 -0.05567302 0.106854185 0.40381446 0.79049474 -0.8168045 -0.6714017
-0.4042372 0.38857588 -0.69462174 -0.44099468 -0.58389825 2.5600138 0.80187196 1.0310465

lstm.bias_hh_l1 f4 [32]
00000000: 89b3 12bf 631f ea3e ad7e 4dbf e8ca 48bf
00000010: 4474 abbe 22dc 3940 e137 993f 0709 8c3f
00000020: db9c a33e 8009 15bd 00d6 bfba bdbd 97be
00000030: 0435 9abe a84c 44bd 8fdf 85be 5ab3 083e
00000040: 59bb 84be 3845 413f 777a 18bd 7d58 6c3e
00000050: 1352 f2bc 0780 093f ae56 04bf 2d29 f3be
00000060: 468f 2dbe fa9e 143f 5b5d 14bf aa2b a5be
00000070: 6e64 27be b36a 3540 cae4 a43f 1c14 773f
-0.573052 0.4572707 -0.80271417 -0.7843461 -0.3348714 2.9040608 1.1970178 1.0940255
0.3195561 -0.036386013 -0.001463592 -0.29636946 -0.30118573 -0.047924668 -0.26147124 0.13349667
-0.25924185 0.75496244 -0.037226167 0.2308063 -0.029580152 0.5371098 -0.5169476 -0.47492352
-0.16949186 0.5805508 -0.5795495 -0.32259876 -0.16346905 2.8346374 1.2882321 0.9651506

lstm.weight_ih_l2 f4 [32, 8]
00000000: c2ce bd3f a732 0b40 10e5 523e 035a 72bf
00000010: ef10 95bf 220c a03e e353 023f bcb3 95bf
00000020: 449f b53f f755 443f 78bf c3be 2831 22bf
00000030: 0d39 eabf 288e 7c3f 7f5f 933e 2bd0 a7bf
00000040: 3e6d f63e 88e3 6fbf 0972 19bc df87 06be
00000050: 35e6 f0bc ce6f 8c3f 8e51 a3bd cd3a a3be
00000060: c4a9 1140 eab0 1940 4937 50bf 47ec 90bf
00000070: dbab e9bf b9c5 533f dc27 f13e 7d73 f8bf
00000080: f619 883e 6896 9fbe 7ea6 003f 9cd1 39be
00000090: 5881 f3bd a2ae ad3f 4f0c 96be 1246 7ebf
000000a0: f76c 1fbe 7bd3 c83d 8285 cc3d 569c 9bbd
000000b0: f1a7 593e 6d07 1040 43e0 31bf 95bf 86bf
000000c0: d9da cf3e 6346 3ebe f780 57bf e6f1 1fbf
000000d0: 3877 0dbf 0dfa 06c0 9d85 6d3f 4d0e 5d3e
000000e0: 9e0f 853e 5781 c73e 93c2 e93e 7a27 60bc
000000f0: a228 07bf d8a9 2640 bd0b 75bf 487b 5ebf
00000100: e180 a73e 21c8 a5be a068 1c3d ead3 2b3e
00000110: 3afc 343e 402e e23d cac8 593e 35b9 893e
00000120: 9c81 b43d fb08 893e 5811 f83d 0995 82be
00000130: f082 51bd 4e17 9abe 8586 8b3e 6af1 3f3e
00000140: 82b1 67be b259 2c3e 8851 adbe a8af e53d
00000150: 008a 0c3e 1ab4 afbe c5fd 27be f85f a83d
00000160: 103f 9d3c 802d 64bc d09d 83bc e354 96be
00000170: bda2 833e 4bb5 5dbe 73eb 8f3e 0a80 b0be
00000180: 96e5 453e 520a 083e be78 473e 58f5 113d
00000190: 3e24 2b3e 1614 5bbe c0cd 02bc 8f13 3dbe
000001a0: 0031 26bc a891 abbe 7037 933c eb85 833e
000001b0: 4359 52be 8ec3 203e 6072 44bd b48b ef3d
000001c0: cdca 903e fdd1 a5be e94d 16be 40ab 16bd
000001d0: 6ebb a7be 97f1 903e 7a24 5c3e 3c6b f63d
000001e0: cc63 91bd e195 9b3e 5234 9ebe 96a1 1e3e
000001f0: bc13 cd3d 7b9e a63e 90ce f2bc 574b 9e3e
00000200: 5547 533d 0e32 123f f24e c43e d4a9 af3e
00000210: f5b6 d2be e87f 3c40 1d1e a9bf b239 94bf
00000220: db46 02be e387 f9be 331d ccbc 94f4 b5be
00000230: d043 f9bc f258 54c0 3e37 9d3f 5623 cb3f
00000240: bf47 0bbf 22d3 e13e 0836 2fbe a2b7 183f
00000250: af04 21be 7bce 4bbf 5af1 8e3c 8d07 953d
00000260: 7995 03be 95fd 3cbf 017e 29be 11c0 f6bc
00000270: 5f28 d03d c12f 62c0 2741 ab3f 5aa0 b23f
00000280: 63da d4be 9b11 663d d7e9 313e 7562 cdbe
00000290: 31f0 c9bd 08ff 3d40 3aac 36bf 8df8 74bf
000002a0: c1e3 46be 5553 0f3e a1a3 e73d f072 a23e
000002b0: c183 cdbe 3254 3940 ee6b 7bbf b560 a9bf
000002c0: b163 f9bd e984 0e3f 2bec d83d b680 b13e
000002d0: c6bc 82ba 4f14 5e40 15a8 8cbf ca6d 99bf
000002e0: f0f2 dd3e fa1d 6abe 23bf 423e bc38 34bd
000002f0: d7f2 77bd 1e2b 3ac0 f270 a53f 3047 b83f
00000300: 78be cc3f 8dea 0e40 f274 2abe 9315 29bf
00000310: 852d 4cbf 60b3 0d3e 03a3 393f b09f 80bf
00000320: ec05 ec3f b5c7 533f dead aabe eb87 6cbf
00000330: 3102 e4bf df11 413f 4668 283d b0e9 8ebf
00000340: 89cf 8abd 5093 06bf 0169 5ebe dc56 8abe
00000350: e5bf 773e c7a6 9a3f c959 19be b719 0dbf
00000360: 1d41 0d40 c30a 1e40 8d71 53bf 4eab 9fbf
00000370: 781d ddbf b3cb 083f a845 a03e db63 f5bf
00000380: b795 d13e e983 1abf d18e bb3e d664 f93c
00000390: 487c 34be 7cb8 0140 1e50 8bbe 97ef 29bf
000003a0: ee14 7d3e fb88 b1bd e0a6 883e d606 15bf
000003b0: d152 b9bd 2223 1040 3d31 59bf a17f 96bf
000003c0: 9a6f 2b3f c6f1 c83e 7105 31bf 4092 c3be
000003d0: 89e8 1fbf f754 0bc0 37df f53e 2e1d 1d3f
000003e0: 5368 313e 842c bf3e 1c77 7e3d 37be 17bf
000003f0: c243 50be 7855 3940 792f 72bf 0112 a3bf
1.4828722 2.1749666 0.20595193 -0.94668597 -1.1645793 0.31259257 0.5090925 -1.1695476
1.4189229 0.7669367 -0.38232017 -0.63356256 -1.829866 0.98654413 0.28783795 -1.3110403
0.4813022 -0.9370656 -0.009365567 -0.13137768 -0.029406646 1.097162 -0.0797454 -0.318808
2.2759867 2.401423 -0.8133436 -1.1322106 -1.8255571 0.82723576 0.47100723 -1.9410244
0.26582307 -0.31169438 0.50254047 -0.18146366 -0.11889905 1.3568919 -0.29306266 -0.9932567
-0.1556891 0.09805962 0.09986402 -0.07598178 0.21255471 2.2504532 -0.6948282 -1.0527216
0.40596655 -0.18581538 -0.8418116 -0.6247848 -0.5526004 -2.109012 0.92782 0.21587487
0.25988477 0.38965866 0.4565626 -0.013681287 -0.52796376 2.6041164 -0.95721036 -0.8690686
0.32715514 -0.3237925 0.038185716 0.16780058 0.17674342 0.11043978 0.21268001 0.26899114
0.088137835 0.26764664 0.12112683 -0.2550433 -0.051150262 -0.30095905 0.27251068 0.18744436
-0.22626308 0.16831091 -0.33851266 0.112151444 0.13724518 -0.34317094 -0.16405399 0.082214296
0.01919511 -0.013926864 -0.016066462 -0.29361638 0.25710097 -0.21651189 0.2810932 -0.34472686
0.19325861 0.13285187 0.19479653 0.03563437 0.16713044 -0.21394381 -0.007983625 -0.18464492
-0.010143518 -0.33509564 0.01797077 0.2568811 -0.20541863 0.15699598 -0.04796064 0.11696568
0.28279725 -0.3238677 -0.14678158 -0.03678441 -0.32760185 0.28309318 0.2149829 0.12032172
-0.07099113 0.30387786 -0.30899292 0.15491328 0.1001353 0.32542786 -0.029639512 0.30916855
0.0515817 0.5710763 0.3834148 0.34309256 -0.4115521 2.9453068 -1.3212315 -1.1580107
-0.12722342 -0.48736486 -0.024916267 -0.3553816 -0.030427843 -3.3179288 1.2282484 1.5870159
-0.5440635 0.44106394 -0.17110455 0.596552 -0.15724443 -0.7961194 0.01744907 0.07276831
-0.12849988 -0.73824435 -0.16551973 -0.030120881 0.1016395 -3.5341647 1.3379258 1.3955185
-0.41572866 0.056169134 0.17374359 -0.4011418 -0.09860266 2.9686909 -0.71356547 -0.9569176
-0.19422819 0.13996632 0.113105066 0.31728315 -0.40139583 2.8957639 -0.9821156 -1.3232638
-0.12177218 0.55671555 0.105919205 0.3466851 -0.0009974472 3.4699895 -1.0988795 -1.198663
0.4334941 -0.22862998 0.19018225 -0.04399942 -0.060534324 -2.9088817 1.2925093 1.4396725
1.5995626 2.2330658 -0.16646174 -0.66048545 -0.7975696 0.13837957 0.7251436 -1.0048733
1.8439307 0.82726604 -0.33335775 -0.92394894 -1.7813169 0.75417894 0.041115068 -1.1165066
-0.067778654 -0.5256853 -0.21719743 -0.27019393 0.24194296 1.2082146 -0.14975657 -0.5511736
2.2070992 2.4694068 -0.8259514 -1.2474153 -1.7274618 0.5343582 0.31303144 -1.9171098
0.40934536 -0.6035753 0.36632398 0.03044359 -0.17625535 2.026885 -0.27209562 -0.6638121
0.24715015 -0.08668705 0.26689816 -0.58213556 -0.09048999 2.2521443 -0.84840757 -1.1757699
0.66967165 0.39246958 -0.6914893 -0.38197517 -0.62464195 -2.1770608 0.48021862 0.6137265
0.17324953 0.3733865 0.06212531 -0.5927462 -0.20338348 2.8958416 -0.9460369 -1.2739869

lstm.weight_hh_l2 f4 [32, 8]
00000000: a821 343d a3d4 8a3e 0ea3 7b3e 381e 86be
00000010: 7df7 a63e 66b3 653e b253 7f3e 45ef 65be
00000020: 7e1e 01be fd7d 963e 51b9 8e3e e008 2c3d
00000030: af7a 853e 9981 823e 1495 94bd bac4 503e
00000040: bc77 28be 2723 81be a65e 49be 68c0 dabd
00000050: 7809 073d 68b3 40bd 4082 f53d 266b 763e
00000060: 402c 683c 80be dc3c fc0f c0bd c5f3 ac3e
00000070: 0038 293a f0b9 c33c c18a 94be 00ed 3abd
00000080: 9093 0dbd d846 57bd 9f7d 05be 92b3 383e
00000090: 3427 96be c77b b33e bc4a 8ebe 5aef 3f3e
000000a0: 0d4d 953e 7eb6 2f3e f229 4dbe b8ed 2b3d
000000b0: 93e4 9d3e a032 33bd 83bc 873e df12 22be
000000c0: 20ad b63c 2652 9bbe a671 b3be b65e 063e
000000d0: 7636 4f3e 448c 143e 69d4 8a3e 7a65 3b3e
000000e0: 879d 59be bef1 303e 4845 56bd 7255 97be
000000f0: a82a a73d 6a7c 413e d50a 99be d139 8c3e
00000100: 46c2 2e3e 0022 b53d 2887 cfbd 7129 8dbe
00000110: 86ce 283e 950e 46be ae1c 5d3e 8b70 a93e
00000120: ec8c bdbd 3b79 a3be 4253 3cbe e044 04bc
00000130: 9360 22be 219f 9abe c854 213d 22ae 463e
00000140: 00d4 acbc 3a04 023e 626e 9abe c34c 9e3e
00000150: 558f 8ebe ec5a ccbd d30a 8e3e d40b 9fbe
00000160: 8bbf 823e f444 153e aa03 9bbe 0d85 34be
00000170: 5af5 51be 8eef 6cbe 5c64 fc3d e012 98bd
00000180: fd53 aa3e ff92 0ebe 82fe 483e 785a c13d
00000190: aca8 e6bd ecdd a1bd 3edf 323e 5a38 553e
000001a0: 5e58 89be 1f84 8d3e e568 873e eb9b af3e
000001b0: b3be b03e 042f 34be 7f11 b03e 5854 b4bd
000001c0: bc9a a63d 8b86 843e 2082 c8bc c0d1 b7bd
000001d0: 2a3c 343e b1f8 a83e 9a19 063e 800b 3d3c
000001e0: b5c2 8a3e 2a66 523e 6dd6 7bbe 96cc 3a3e
000001f0: 9ebc 5f3e 6850 363d db3a a63e d119 12be
00000200: 74a7 76be 683f 8ebd 0af6 453e 0521 a5be
00000210: 600c 3bbc cfdf a2be 86f5 6c3e b8bd 8bbd
00000220: 08a5 0d3e 3b9f b4be 55ad 97be 2df4 abbe
00000230: 2dff 923e 5036 a9bd 22bd 99be 80bf 1d3b
00000240: b31b b2be 58e9 a0bd 34cb cb3d 0030 70bc
00000250: 8cbe b13d 4060 00bd 71d1 ab3e a0ab c33c
00000260: 1ac0 4ebe 009b 04bc e0b5 433d 38ae e23d
00000270: aeea 563e 909b 69bd ac1c a1be 565e ebbd
00000280: efea 7dbe 8001 943c d59a 8c3e 3c48 a2be
00000290: 7070 6fbd c86d dabd be5e 393e 40d4 963c
000002a0: aab5 683e 7071 b1bd 569f 3a3e 58fe aa3d
000002b0: 1669 4b3e be6e 703e 202d 00be ea3c 153e
000002c0: 124d 2e3e a0b5 7e3d df43 a23e d40e c13d
000002d0: cd0a a9be e212 663e 1ce8 ac3d 22c3 633e
000002e0: 46b1 8dbe 5acc 123e f15a 02be 32d1 283e
000002f0: 58a0 403d 6722 aebe 826b 75be 3a4e 0c3e
00000300: 4a9f 163e a6b1 783e 2c5b f9bd 8d89 8f3e
00000310: 665b b3be de30 aebe 8c5a 123e 1f41 8ebe
00000320: 78e5 16bd 68d8 353d c216 76be f474 953d
00000330: 31ac 8cbe 7afa f3bd 35cf 5abe 4010 98be
00000340: 41b5 863e 7b30 70be 87ef 933e f8f3 7d3d
00000350: 3b59 8d3e 907b df3c eece 61be 5df3 09be
00000360: 833d a43e 3ec8 95be 1a4b 2ebe c0b8 7dbe
00000370: 180c 363d 288c f83d 70c9 b5bd b7f9 51be
00000380: 4960 acbe 2513 a43e efe9 b43e 7c2a 93be
00000390: 1698 73be 0ec1 49be 497d a43e d43a 95bd
000003a0: 9b8d 9c3e bcb4 dabd 65a6 983e 101e 7cbd
000003b0: 8a23 483e 4e34 613e 2093 39bc 6803 ac3d
000003c0: 2b63 90be 5846 283d 001a e13d 2a74 65be
000003d0: 40c9 a5bc 9a8c a0be a4e5 ccbd eea7 603e
000003e0: 78b3 763d b020 21bd 9001 3c3d c8d0 42bd
000003f0: 0d49 9abe a12c b0be 287c 06bd 3353 a63e
0.04397741 0.27115354 0.24573919 -0.2619493 0.32610694 0.22431716 0.24934271 -0.22454555
-0.12609288 0.29392996 0.2787576 0.04200065 0.26070163 0.254895 -0.07254997 0.20387545
-0.16451925 -0.25222132 -0.19665012 -0.1068123 0.032968014 -0.047046095 0.11987734 0.24064311
0.014170706 0.026946306 -0.09378049 0.3377973 0.0006455183 0.023892373 -0.2901211 -0.045636177
-0.034564555 -0.052557796 -0.13036202 0.1803725 -0.29326785 0.35055372 -0.27791393 0.18743649
0.29160348 0.17159459 -0.20035532 0.041974753 0.3083845 -0.04374945 0.2651101 -0.15827511
0.02229935 -0.30336112 -0.35047644 0.13122067 0.20235619 0.14506632 0.2711518 0.18300429
-0.21251498 0.17279717 -0.052312165 -0.29557377 0.08162433 0.18895116 -0.29891077 0.2738786
0.17066297 0.088443756 -0.10133201 -0.2757068 0.16485032 -0.193415 0.21592972 0.33093676
-0.09255394 -0.3192843 -0.18391135 -0.008073062 -0.15857153 -0.3019953 0.039387494 0.19402364
-0.021097183 0.12696925 -0.3016234 0.3091794 -0.2784373 -0.099782795 0.27742633 -0.31063712
0.2553676 0.14577085 -0.30276233 -0.1762888 -0.2050375 -0.23138258 0.123238295 -0.07425475
0.33267203 -0.13923262 0.19628337 0.09441084 -0.1126264 -0.07903656 0.17467973 0.20822278
-0.2682523 0.27639863 0.26447216 0.34298643 0.34520492 -0.1759606 0.34388348 -0.0880515
0.08134982 0.25883898 -0.024476111 -0.089755535 0.17601076 0.33002236 0.13095704 0.011538386
0.27101675 0.20546785 -0.24593516 0.18242106 0.21849295 0.044510275 0.32466778 -0.1426766
-0.24087316 -0.069456875 0.19332138 -0.32251754 -0.011416525 -0.31811377 0.23140535 -0.06823295
0.13832486 -0.35277733 -0.2962443 -0.3358473 0.2871031 -0.082623124 -0.3002711 0.0024070442
-0.34786758 -0.07857007 0.09950867 -0.014659882 0.08678922 -0.03134179 0.3355823 0.023885548
-0.20190468 -0.0080935955 0.04778087 0.11068386 0.2098796 -0.05703312 -0.31467187 -0.114926025
-0.24796651 0.018067122 0.27461877 -0.31695735 -0.058456838 -0.1066547 0.18102548 0.018411756
0.2272555 -0.086642146 0.18224844 0.083492935 0.19864306 0.23479745 -0.12517214 0.14574018
0.17021587 0.06218493 0.31692407 0.09426656 -0.33016053 0.2246814 0.08442709 0.22242406
-0.2767431 0.14335766 -0.12730004 0.16486052 0.047027916 -0.34010622 -0.23966792 0.13701716
0.14709201 0.24286518 -0.12175593 0.2803463 -0.3503067 -0.34021658 0.14292353 -0.27784058
-0.036839932 0.044395834 -0.24032119 0.07297698 -0.27475122 -0.11913009 -0.21368106 -0.29699898
0.2631016 -0.23455994 0.28893682 0.062000245 0.2760714 0.027280599 -0.22051594 -0.13471742
0.3207818 -0.29254335 -0.17020836 -0.24777508 0.044445127 0.12136108 -0.08876312 -0.20505415
-0.3366721 0.32045856 0.35334727 -0.2874335 -0.23788485 -0.19702551 0.32126835 -0.07286611
0.30576786 -0.106790036 0.2981445 -0.061552107 0.19544807 0.21992609 -0.011326581 0.08399087
-0.2820066 0.04108271 0.10991287 -0.22407594 -0.020237565 -0.3135727 -0.10004738 0.2193906
0.06022975 -0.039337814 0.045899928 -0.04756239 -0.30133858 -0.3440905 -0.03283325 0.3248535

lstm.bias_ih_l2 f4 [32]
00000000: 8dbe 983f 580a c53f 21dc 843f f2be 1a40
00000010: 95cf 283f 1105 213f cb15 3e3f 0516 3d3f
00000020: ffae b23e b022 93be b8d7 80be d3eb 9e3e
00000030: 4118 b23e deb3 3ebe 1857 7cbd f88e c7bd
00000040: 0c18 173e 4331 1cbf 4b21 66bf d8e6 c0be
00000050: 7582 fd3e c26e 1b3f 7009 e23e c5e7 19bf
00000060: 4da7 a63f c7d6 e73f 743f 3b3f 7adf 3640
00000070: 7058 493f de5f 103f 79de 663e ceb1 103f
1.1933151 1.5393782 1.0379678 2.4179044 0.65941745 0.62898356 0.74252003 0.73861724
0.34899136 -0.28737402 -0.2516458 0.31039295 0.3478413 -0.18623301 -0.061606497 -0.09744066
0.14755267 -0.6101267 -0.8989455 -0.3767612 0.49513593 0.6071588 0.44147825 -0.6011928
1.3019806 1.811242 0.73143697 2.85739 0.7865057 0.5639628 0.22545804 0.5652131

lstm.bias_hh_l2 f4 [32]
00000000: e1e6 9b3f 8eea e73f c15d 903f fc76 3e40
00000010: 416d 923f d085 7b3f 6132 573e 879c 753f
00000020: 7809 6a3d 4bcd 37be e104 ab3e 0b43 9c3e
00000030: 91ec 823e 5c94 b83d fc2a a9be 4886 043d
00000040: 3ca4 443f c3be c4be 7e70 95bf 3c4a 17bf
00000050: ed64 0f3f 5389 103f 9cb8 d83e 2a73 19bf
00000060: 220c 8b3f 7827 fa3f 41a7 4e3f 9a5c 1640
00000070: 3a8c 143f 131e 283f 883b f33e 9774 8a3f
1.2179834 1.8118455 1.1278611 2.9760122 1.1439592 0.98251057 0.21015312 0.95941967
0.057137936 -0.17949407 0.3340216 0.305199 0.2557111 0.09012672 -0.33040607 0.032354623
0.768131 -0.3842679 -1.1674955 -0.5909765 0.56013376 0.5645954 0.42328346 -0.5994135
1.0863078 1.9543295 0.8072396 2.349402 0.5802647 0.6567089 0.47506356 1.081683

lstm.weight_ih_l3 f4 [32, 8]
00000000: 422b 6a3f bb02 59bf 2f47 fcbd 9d8c 13c0
00000010: 45ea 103f ff1e a43e bbbd 4d3f d8bd 6abf
00000020: 1b7c 4b3f fdf1 26bf f324 d1bf 6db1 88bf
00000030: 0aa7 8dbf 992c 03bf cc1b 22bd 3dd1 e03e
00000040: 53c3 a7bd e4b3 82bf e405 11c0 522f f4be
00000050: 755e 5e3f ab34 833f 8efe 2cbf ba63 91bf
00000060: b6e0 513f cb70 90bf ec50 21bf 438d dfbf
00000070: 38b7 ab3e cf8a 2c3f b90e 343f 585b 34bf
00000080: 9fdb 4d3f 68e3 e7be eaa4 25c0 b493 b6bf
00000090: 41a0 c4bf db1b 2abf d3d8 80be e952 4b3f
000000a0: 71dc 8e3f 0c97 62bf 6726 77c0 8847 8fbf
000000b0: d0bd cabf c023 54bf 6c18 053d 4c88 cd3f
000000c0: f199 703f 5f5b 5bbf ddde 5dc0 558e 58bf
000000d0: c444 98bf d00e 92bf facf 0fbe 4f9e 483f
000000e0: 7366 32bf 2c8b 743e fc36 f13e bfbe 5f3f
000000f0: 877c 713e f442 88bc a9bd 09be 7909 bebd
00000100: d9bd 78be 5094 dbbd 05d9 a73e ef5b a2be
00000110: a03d 15bc 384d 073e 8642 693e fa3d 603e
00000120: 4033 70bc 4e9a 623e cd02 953e 39f6 8ebe
00000130: eaf6 753e 39db 953e 50e0 363d 299b b1be
00000140: 22b3 6c3e 70c4 ac3c 9c1c 36be 623f 053e
00000150: b543 28be 80a2 be3c 7716 47be 1366 4dbe
00000160: 306d 95bd 166a 85be 8ab3 dabd 9e86 2ebe
00000170: c882 ab3d ee5d 2e3e a8b0 aa3d 40f8 833d
00000180: ba7e 1d3e 565d 5b3e 4cbb 85be d73d ab3e
00000190: 2a1f 7dbe 39a8 a03e f4ce a7bd b196 993e
000001a0: b639 5f3e 5217 46be b272 283e 20ef 053e
000001b0: 3f2d 3bbe fcdd ca3d f3ea 2cbe b990 ac3e
000001c0: 5a28 173e 99df 46be 28b5 cc3d 9e50 0c3e
000001d0: b050 08bd 0080 4437 20a8 b2bd d03d 84bd
000001e0: 2074 e3bc b899 b3be 102d c23c 6849 87be
000001f0: 991b b33e aaab fabd a46e a9be 2876 713d
00000200: 20db cc3f 233e 77bf 552a 62bf c922 0ac0
00000210: dd61 673f 1c33 873e 802e 2e3f dbdb 07bf
00000220: f4d5 0ac0 f201 b93f 98e1 343f c0a1 5840
00000230: f54c 2fbf 4632 64bf 541d 6fbf 0f8e 943f
00000240: d754 f4bf 7ac5 0040 30f8 1c3f 7eec 4b40
00000250: 1f35 a1bf ad50 5ebf c9ec 58bf 4083 b03f
00000260: cd1c 0bc0 d15a d63f bfc9 9a3e ab27 4940
00000270: 11fc 46bf 3d4a 21bf 1230 0abf 7dea 933f
00000280: 2721 fb3f 1dd7 02c0 9286 57bf f197 4dc0
00000290: f008 253f be71 943f 4991 363f a7f8 6bbf
000002a0: 5de3 18c0 ee9b 0240 22a6 743f 6ebd 5d40
000002b0: a01b 94bf e5bd 89bf 8b40 16bf b76e 923f
000002c0: 99a9 1240 1d51 04c0 fac6 04bf 3279 45c0
000002d0: 23fe 0b3f da24 573f b608 733f 4b52 a6bf
000002e0: 30c8 adbe 2607 633f c46c 68bd b54b 903f
000002f0: d19a ea3d 0275 d6ba e568 d23c 9c08 e13e
00000300: a9d6 a93f fb32 79bf 4866 e2be d27b e8bf
00000310: 8fd9 993e 2d71 2f3f 86b2 1b3f c0fd 23bf
00000320: 3498 a13e 042f 7bbe be85 d0bf 75c2 9bbf
00000330: 14cb 28bf 36fe 5a3d ff9a c3bd a0fa 4abe
00000340: 85f2 803e fee3 66bf cd54 f0bf 0c20 bcbd
00000350: 336e ac3f ea56 843f ef22 7dbf fe5e 9cbf
00000360: c08f 843f fde2 82bf d6c1 47bf a4f3 e6bf
00000370: 7c17 003f 73d8 2d3f a9da 1b3f d644 8bbf
00000380: 2c67 483f 09ba 20bf b5b3 25c0 16e6 a2bf
00000390: b4c0 c6bf e54c 5bbf 7fdc 4ebe 1228 873f
000003a0: f048 b93f 28ab 9abf a559 8dc0 9bf3 9abf
000003b0: 5002 1dc0 6959 f3bf 016d f63e 50bd 0340
000003c0: 08d6 b53f 6a98 1bbf 8ed8 77c0 8588 8ebf
000003d0: 42fd b4bf 5531 a1bf 4ecc 5c3e 2cfd e73f
000003e0: aa3f 32bf 857a 8d3e 1e48 9f3e 7403 4d3f
000003f0: 279d dd3e 76fd 733e cef3 cabe 9730 ed3c
0.91472256 -0.8476979 -0.12318265 -2.3054574 0.56607467 0.32054898 0.8036763 -0.9169593
0.79486245 -0.65212995 -1.6339401 -1.0679146 -1.1066601 -0.51239926 -0.03957729 0.43909636
-0.08191552 -1.0211148 -2.2659845 -0.47692353 0.8686288 1.0250448 -0.6757592 -1.1358559
0.81983507 -1.1284422 -0.630141 -1.7464985 0.33538222 0.67399305 0.70334965 -0.7045188
0.8041324 -0.45290685 -2.5881906 -1.4263825 -1.5361406 -0.66448754 -0.25165424 0.79423386
1.1161023 -0.8851173 -3.861719 -1.1193705 -1.5839176 -0.8286705 0.032493994 1.605722
0.93984896 -0.85686296 -3.4667275 -0.8459218 -1.1895986 -1.141077 -0.1404418 0.7836656
-0.69687575 0.23881215 0.47112262 0.8740043 0.2358266 -0.016633488 -0.13451256 -0.092791505
-0.24291171 -0.10721648 0.3278276 -0.31710765 -0.009108931 0.1321305 0.22779283 0.21898642
-0.014660656 0.22129175 0.291037 -0.27922228 0.24019971 0.29268816 0.044647515 -0.3468869
0.23115209 0.021089762 -0.17784351 0.1301246 -0.16432078 0.023270845 -0.19442163 -0.2005847
-0.072962165 -0.260575 -0.106787756 -0.1704354 0.08374554 0.17028019 0.08334476 0.06443834
0.15380374 0.21422324 -0.2611946 0.33445618 -0.2471892 0.31378344 -0.0819377 0.2999778
0.21799359 -0.19344833 0.16450003 0.130795 -0.18278979 0.099056214 -0.16886501 0.33704165
0.14761487 -0.19421233 0.0999549 0.13702628 -0.033280075 1.1712313e-05 -0.087234735 -0.06457102
-0.027765334 -0.35078216 0.023703128 -0.26423192 0.34981993 -0.122397736 -0.33092225 0.058950573
1.6004372 -0.9657919 -0.88345844 -2.158373 0.903837 0.2640618 0.68039703 -0.5306985
-2.1693087 1.4453719 0.7065673 3.3848724 -0.684768 -0.8913921 -0.93404126 1.1605853
-1.9088391 2.012053 0.61316204 3.1863093 -1.2594336 -0.8684185 -0.84736305 1.3790054
-2.1736329 1.6746465 0.30232045 3.1430461 -0.7772837 -0.63003904 -0.539796 1.1555935
1.9619492 -2.0443795 -0.84189713 -3.2123988 0.6446676 1.1597211 0.7131544 -0.9217629
-2.3888772 2.0407672 0.95566 3.4646869 -1.157093 -1.0761076 -0.58692235 1.1440037
2.2916014 -2.0674508 -0.51866114 -3.0855222 0.54684657 0.84040606 0.94935167 -1.2993864
-0.33941793 0.8868278 -0.056744352 1.1273104 0.1145531 -0.0016361775 0.025684783 0.4395188
1.3268634 -0.97343415 -0.4421866 -1.8162787 0.30048797 0.6853207 0.6081928 -0.64059067
0.31561434 -0.24529654 -1.6290815 -1.2168719 -0.6593487 0.05346509 -0.095510475 -0.19822168
0.25185028 -0.9019164 -1.8775879 -0.091858 1.347113 1.0339024 -0.9888143 -1.2216489
1.0356369 -1.0225521 -0.78030145 -1.8043103 0.50035834 0.679084 0.60880524 -1.0880382
0.7828243 -0.6278387 -2.5890934 -1.2726467 -1.5527558 -0.85664207 -0.202013 1.0559103
1.4475384 -1.2083483 -4.417193 -1.2105592 -2.4532661 -1.9011661 0.48130038 2.0584297
1.4205942 -0.6077944 -3.8725924 -1.1135412 -1.4139788 -1.259318 0.21562311 1.8124137
-0.69628394 0.27632537 0.3110971 0.80083394 0.4328396 0.23827156 -0.39639133 0.028953834
