ModelSave120.pt (torch_old, 30998 bytes, 45 tensors)

lstm.weight_ih_l0 f4 [32, 8]
000000 00 5c 6c 3d ba 30 b3 bf 97 e9 0e 3f e3 1c 3c be
       0.057704926 -1.3999245 0.5582518 -0.18370394
000010 aa 58 bf 3d 01 7b c5 3e 0b dd c5 3c 36 d0 e8 be
       0.09343083 0.38570407 0.024153253 -0.45471352
000020 0c 00 13 3e f9 e0 50 bf d5 b4 02 3e e4 dd b4 3e
       0.14355487 -0.8159328 0.12764294 0.3532554
000030 b1 d5 0d 3e e1 f5 1a 3f ed ee b2 3e 15 49 db bc
       0.13851048 0.6053143 0.3494791 -0.026768247
000040 09 b6 2d bd 5e ac 0c bf f5 e2 16 3f 69 fc 56 be
       -0.04240993 -0.5495051 0.5894006 -0.20994724
000050 22 e2 60 be 55 0a 16 be cb a0 26 bf e8 c7 87 3e
       -0.21961263 -0.14652379 -0.650891 0.26519704
000060 bf b4 e8 3d a7 43 27 bf 9b 2e 2d be 3b d0 3d 3f
       0.113625996 -0.65337604 -0.1691231 0.7414586
000070 46 cb e9 bd 15 e2 94 3f 4e bf 09 3f 25 11 5a be
       -0.114157245 1.1631495 0.5380753 -0.21295603
000080 12 74 4e 3d 79 cf a1 bf 7a d1 91 3e 69 4a b2 3e
       0.050403662 -1.2641441 0.2848013 0.34822395
000090 3a 33 a1 3d 6d e1 81 3f 8f f7 bf 3e 83 cc 46 bb
       0.07871099 1.014692 0.3749356 -0.00303343
0000a0 da 6b ce be 98 0b e3 3e 69 2f 85 3e 84 fd 03 bf
       -0.4031666 0.44344783 0.26012734 -0.5155871
0000b0 eb 81 0f 3f 7d 34 65 be 89 e5 66 3e 2b d0 2a 3e
       0.56057614 -0.22383304 0.22548498 0.16680972
0000c0 42 19 ed 3e 3b e4 a4 bf c5 dc 2a 3f 8c 6c ef 3e
       0.46308333 -1.288215 0.6674312 0.46762502
0000d0 4d a5 c1 3a d5 bf c4 3e fd b3 be 3c e5 0e 27 be
       0.0014773995 0.38427606 0.023279184 -0.16314276
0000e0 6e 00 d6 be e1 c9 f2 bd c7 fe b7 be 47 b3 15 3f
       -0.41797203 -0.118549116 -0.35936567 0.5847668
0000f0 86 60 fc 3e 41 fe d4 3e 99 5b 16 3f ba 61 a7 3c
       0.49292392 0.4160023 0.58733517 0.020432342
000100 da c3 58 be 09 07 09 be a8 ee 7f 3d 04 5d 9e be
       -0.21168461 -0.1338159 0.06248346 -0.3093034
000110 9d d6 82 3e de 30 78 3e 10 b6 24 bd 6d 4f ad 3e
       0.25554362 0.24237391 -0.04021269 0.3384966
000120 8e 6e fc bd cc 21 b2 bd e6 5a 91 be 01 77 22 be
       -0.12325774 -0.086978525 -0.28389663 -0.15865709
000130 1e f8 ed bd 90 21 53 3d 42 23 ed bd 91 99 90 3e
       -0.1161959 0.05154568 -0.115789905 0.28242162
000140 c6 eb a0 be 8f 6b 90 3e f9 c0 4c be a0 37 70 bd
       -0.3142988 0.2820706 -0.19995488 -0.058646798
000150 14 f7 85 bd 44 11 d1 3d 5b 5b b0 3e 21 f8 80 3e
       -0.06541267 0.10208371 0.344447 0.25189307
000160 3c 76 77 be 20 25 cb bd 58 2b 1a 3d 07 58 8f 3e
       -0.24166197 -0.099191904 0.037638992 0.27996847
000170 2e 35 86 be ac 57 fd 3d d8 41 a2 3d 59 17 a6 3e
       -0.26212448 0.12370238 0.07922715 0.32439688
000180 2e 03 df bd bd 43 b3 3e 46 20 6b be 40 83 01 3d
       -0.10889278 0.35012618 -0.2296153 0.03161931
000190 de 06 46 3e bc c3 87 3d 94 e9 89 3d c6 ec 04 3e
       0.19338557 0.0662913 0.067340046 0.12980947
0001a0 66 37 e7 bd 46 72 9b be 8c 11 54 be 06 a4 5f 3e
       -0.11289863 -0.3036062 -0.20709819 0.21839914
0001b0 18 1a 33 bd 1a b3 44 3e 5f f4 80 3e 65 3d 9c 3e
       -0.043726057 0.19208947 0.2518644 0.3051559
0001c0 36 82 23 3e 66 d3 8f be 11 c8 aa 3e 74 9a a0 3d
       0.1596764 -0.28090972 0.33355764 0.078419596
0001d0 4a c1 27 be 60 23 07 3c 30 29 08 3d 2b 59 a0 3e
       -0.16382328 0.00824818 0.033242404 0.3131803
0001e0 0f e6 86 3e 20 f2 39 bc 82 06 60 3e 0d e7 2e be
       0.26347396 -0.011349231 0.21877483 -0.17080326
0001f0 8f fc 8f 3e 90 95 aa bc b0 ad a0 bd ab 3c 86 3e
       0.28122374 -0.02082327 -0.07845628 0.2621816
000200 b9 c6 fc bc 60 f5 a5 3f 63 7e 66 bd a2 93 52 bf
       -0.030856477 1.2965508 -0.056272876 -0.8225652
000210 b5 82 bd bd 16 ee 75 bf 9d e0 59 be b8 e0 0d 3e
       -0.09253446 -0.96066415 -0.2127709 0.13855255
000220 8e b2 0f 3e 1e 28 b0 bf 2d bb 00 3f 1b 4f 3f 3f
       0.14032957 -1.3762243 0.5028561 0.7473008
000230 39 f1 bb 3d f0 c4 92 3f a8 05 ba 3d ec 30 15 bb
       0.09176869 1.146635 0.0908311 -0.0022764755
000240 ba af c9 be d4 5e 6a bf c3 a9 d7 3e 14 66 75 3f
       -0.3939188 -0.91550946 0.42121705 0.95858884
000250 61 ae 09 3e f1 47 4f 3f 83 2d 16 3e 6c bf d2 3d
       0.13445427 0.8096915 0.14665799 0.10290417
000260 c5 fa 35 3e d6 e3 a4 bf e3 98 3f 3f 90 46 f9 3e
       0.17771442 -1.288203 0.7484266 0.48686647
000270 2f f0 83 3c fb fc 93 3f 99 30 d0 3c 40 dc 94 bd
       0.01610574 1.1561579 0.025413798 -0.07268572
000280 f5 3e 91 be 86 33 03 bf 8f 29 b4 3e 8d ea 1a 3f
       -0.28368345 -0.51250494 0.35187957 0.60514146
000290 04 1e 17 3e d3 2b 4f 3f 76 4b 10 3f 47 63 0d bd
       0.14757544 0.80926245 0.56365144 -0.034518506
0002a0 8b eb 3f 3e 0e 22 94 bf 5f f3 23 3d 3b e1 95 3f
       0.18742196 -1.1572893 0.04002702 1.170936
0002b0 8a f6 ec 3e 62 18 3b 3f 22 96 dc bd cc d4 c2 bd
       0.46281844 0.7308408 -0.10770823 -0.09513244
0002c0 50 24 48 3e f3 2a d2 3e c9 32 08 3f 42 2f 8a bf
       0.19545102 0.41048393 0.5320249 -1.0795672
0002d0 23 69 91 be d8 21 20 bf 49 d0 01 bf 5b b3 b4 bd
       -0.28400525 -0.6255164 -0.5070844 -0.08823272
0002e0 fb c2 56 bd a4 48 d3 3f cd 47 19 bf 89 f2 b2 be
       -0.05243204 1.6506543 -0.59875184 -0.34950665
0002f0 8e 86 d7 bd d1 e0 7c bf 0d 6d ad bc 1a f1 8a bd
       -0.10523711 -0.9878054 -0.021170164 -0.06784268
000300 5d f3 e3 3b 9a f3 b9 bf 67 98 ff 3e 44 e7 64 3e
       0.0069565014 -1.4527466 0.4992096 0.22353846
000310 a4 9f 85 3e 36 4d 7b 3e 3f 3c ee bc 47 eb cd be
       0.2609836 0.24541172 -0.029081462 -0.40218565
000320 35 62 27 bc 49 67 69 bf 20 42 c0 bd 54 7d aa 3e
       -0.0102162855 -0.91173226 -0.09387612 0.33298743
000330 3c 4b b0 3e f1 04 18 3f 3e 7a 05 3f d1 2c 7b bd
       0.344324 0.5938254 0.5213965 -0.061322037
000340 92 a6 58 3d 4e 9f 61 bf c1 4b be 3d 51 da 85 3d
       0.05289323 -0.88133705 0.09291793 0.06535781
000350 30 48 6f be 9f ea 96 be a6 04 3a bf 91 dd 3d 3e
       -0.23367381 -0.29475877 -0.7266334 0.18541552
000360 58 80 34 be b1 f1 72 bf 82 56 64 be b1 9f 7d 3f
       -0.17627084 -0.9490004 -0.22298625 0.99071795
000370 ff 82 8e 3c 8c 49 43 3f 3e af 45 3f 42 b2 93 be
       0.017396448 0.762841 0.77220523 -0.28846937
000380 6a bd c2 3e 5d b1 5f bf 9b 3e 8e 3b ed a7 37 3f
       0.38035136 -0.8738001 0.0043409592 0.7174061
000390 91 33 30 be a6 67 a5 3f 5c 20 54 3e 6f 07 28 bd
       -0.17207171 1.2922256 0.20715469 -0.041022714
0003a0 40 5a f2 be 27 28 aa 3e 50 5e cc 3d b3 9a 8c be
       -0.4733448 0.3323376 0.09978926 -0.27461776
0003b0 67 2e 12 3f d9 77 9e be aa 40 91 3e 4d 50 3a be
       0.57102054 -0.30950812 0.28369647 -0.18194695
0003c0 0f c0 04 3f a6 a7 6c bf 8d 84 3e 3f 61 81 0e 3f
       0.5185556 -0.9244331 0.74421006 0.55666167
0003d0 80 f6 7f 3e 09 67 9e 3e 9c e5 04 bd cf f9 de be
       0.24996376 0.30937985 -0.032445535 -0.43549964
0003e0 70 92 9f be f8 e2 98 3e 2e 9e 24 bf f7 ba 43 3f
       -0.3116641 0.29860663 -0.64303863 0.7645716
0003f0 69 d4 dc 3e 6f e2 2c 3f d9 ef 43 3e 37 2e 3a 3e
       0.43130806 0.6753301 0.19134463 0.18181692

lstm.weight_hh_l0 f4 [32, 8]
000000 c3 2d 42 be 6c c6 92 be 24 46 34 be 68 c3 9a be
       -0.18962769 -0.2866701 -0.17604882 -0.30227208
000010 c0 70 cc bd 32 b3 97 be 1d af a8 3e c0 6e 26 bd
       -0.09982443 -0.29628903 0.329461 -0.040632963
000020 28 58 4e be c1 7c 8b 3e 26 57 27 be 00 08 f2 3a
       -0.20150816 0.27243617 -0.16341838 0.0018465519
000030 60 f1 73 bd 80 4d 68 3c ea 2a 51 3e b8 f6 11 3d
       -0.059556365 0.014178634 0.20426527 0.03563568
000040 f8 db 85 bd c4 8f 15 3e 72 03 0b be 0f 85 92 3e
       -0.06536096 0.14605623 -0.13575533 0.2861714
000050 1b 49 8d 3e 30 d8 4c 3d bf e8 2b be de 62 5b 3e
       0.27594838 0.05001086 -0.16788004 0.21424434
000060 8c 2c 5b be 86 1b 24 be 44 cd 8d be e6 9f 76 3e
       -0.21403712 -0.16026124 -0.27695668 0.24084434
000070 83 45 b2 3e a5 ee a7 3e 02 46 8b be f8 0f 7a 3d
       0.34818658 0.3279926 -0.2720185 0.061050385
000080 02 cf 62 3e 84 af 68 be 90 c0 ea 3d 28 3c 39 bd
       0.2214928 -0.22723204 0.1146251 -0.045223385
000090 1a c8 33 3e 87 ec 94 3e 86 f2 44 3e d6 fc 2b 3e
       0.17556801 0.29086706 0.1923314 0.16795668
0000a0 fc 44 a1 bd 97 a3 84 3e 58 70 93 bd 46 32 08 be
       -0.07874486 0.2590606 -0.07199162 -0.13300428
0000b0 25 bd 9f be d0 ef c6 bd 09 9b 61 be 7c d7 88 be
       -0.31198993 -0.09713709 -0.22031797 -0.26726902
0000c0 c0 d3 8d be ee 1f 1c be 93 4a 03 be e8 82 1d bd
       -0.27700615 -0.15246555 -0.12821417 -0.03845492
0000d0 00 a8 6c 3a d8 b4 38 bd 6e 80 4c 3e d1 dd 9f be
       0.00090277195 -0.04509434 0.19970867 -0.3122392
0000e0 a0 12 37 3c e8 a1 71 3d a0 d4 3a 3d bc 72 38 be
       0.011173874 0.058992296 0.04561293 -0.18012518
0000f0 90 f8 3b bd 50 91 b4 bc 00 c0 de 3b 9d 2e ab 3e
       -0.045891345 -0.022041947 0.0067977905 0.33434
000100 bc 80 9f 3d b8 69 8e be 34 3e ba bd 09 61 53 be
       0.07788226 -0.27815032 -0.090938956 -0.20642485
000110 4e 42 30 3e 64 26 4f be dc 1a be 3d 92 f3 13 3e
       0.17212793 -0.20229489 0.09282467 0.14448383
000120 38 d8 db bd 13 85 a6 3e 70 ac cc bc c0 3b 8b 3b
       -0.107346 0.32523403 -0.024984568 0.004249066
000130 d5 5c 84 be 88 61 5e bd 54 93 14 be 50 9a 93 bd
       -0.25852075 -0.05429223 -0.14509326 -0.07207167
000140 00 87 79 bd c0 cc 93 bd 59 7a 2f be 81 88 61 be
       -0.06091976 -0.07216787 -0.17136516 -0.22024728
000150 7c ee cd 3d 90 be ef 3c ee df 16 be 76 b2 34 be
       0.10055253 0.029265672 -0.1473386 -0.17646202
000160 00 6b 9e bd 5d a0 ab 3e fd 8e 9c be e3 ad 1b be
       -0.077352524 0.33520785 -0.3057784 -0.15203051
000170 37 36 86 3e b0 39 ad be 88 fb 07 3e b1 fc 93 3e
       0.26213238 -0.33833075 0.13279545 0.28903726
000180 bc 66 ab bd e0 3b 72 3c 24 08 a7 3d e7 e6 ae 3e
       -0.083692044 0.014784783 0.081558496 0.3416054
000190 38 ac 2f bd 65 5d 9e 3e e1 7a b3 3e 78 63 09 3e
       -0.04288885 0.3093063 0.35054687 0.1341685
0001a0 11 87 9b be 5c 46 b1 be b5 76 9c 3e b0 cc a3 3c
       -0.30376485 -0.34623992 0.30559316 0.019995064
0001b0 a6 2b 18 be 0f c0 8d 3e 24 ce 81 be ce 0f 27 3e
       -0.148604 0.27685592 -0.25352585 0.16314623
0001c0 2a 29 f1 bd 19 fa 2e be 2b 53 81 3e 40 5b 6c bd
       -0.117754295 -0.17087592 0.25258765 -0.05770421
0001d0 4a 3f 1d 3e 8c b3 b2 bd 69 51 8d 3e 96 39 50 be
       0.15356174 -0.08725652 0.27601174 -0.20334467
0001e0 0b cc 82 3e 0f cb 18 be a9 e1 92 3e 40 e3 08 be
       0.25546297 -0.1492121 0.2868779 -0.13367939
0001f0 80 c5 7e bb 8e d0 7e be f0 6f f5 3d 6e 87 25 3e
       -0.0038875043 -0.24884245 0.11984241 0.16164944
000200 60 02 28 3d 72 ac 5b 3e c2 ca 35 3e 3c 04 a9 3d
       0.04101789 0.21452501 0.17753127 0.08252761
000210 50 77 f2 bc 76 72 69 3e 24 83 4d be fa 6f 33 be
       -0.029597908 0.2279757 -0.20069557 -0.17523184
000220 90 c9 4d bd d5 b2 aa be 88 cd 75 be 41 ad 22 be
       -0.050241053 -0.33339563 -0.24004185 -0.15886404
000230 e9 bd 89 3e d2 a9 70 3e e0 1c 6c 3c bf 22 6c be
       0.26902702 0.23502281 0.014411181 -0.2306013
000240 6a b6 43 3e 60 b9 4f 3d af 23 93 3e 87 6e 95 be
       0.19112554 0.050713897 0.28738162 -0.29185888
000250 82 f6 b3 be c0 66 11 3e b3 27 8e 3e 19 6b 1f be
       -0.35149008 0.14199352 0.27764663 -0.15568198
000260 80 08 23 3c 74 e3 fa 3d 1c 47 8c bd 28 fb be bd
       0.009950757 0.122504145 -0.068495005 -0.09325248
000270 80 dc 6f bd aa 1e 41 3e 02 58 63 3e 10 92 00 3d
       -0.058559895 0.18859354 0.22201541 0.031389296
000280 f0 b5 c6 bc 6d 06 51 be 80 ca 5d 3c 9f 62 69 be
       -0.024256676 -0.20412607 0.013537049 -0.22791527
000290 20 ee 25 bd 80 7b 0a bb 13 bc 01 be 3c 3c ac be
       -0.040510297 -0.002113074 -0.12669401 -0.33639705
0002a0 18 16 cb bd 03 fe a0 be ec f1 9f bd 0c 63 ce bd
       -0.099163234 -0.31443796 -0.07809815 -0.100774854
0002b0 a0 08 22 bc 78 9d fc bd 0d 7c a1 3e ce 2e 24 3e
       -0.009889752 -0.12334722 0.31539956 0.1603348
0002c0 e9 51 a3 be e7 3a 1b be 3c e1 1e be 64 95 86 be
       -0.3189843 -0.15159188 -0.15515608 -0.2628585
0002d0 60 9d 66 3c 80 45 f3 3d 44 6b 09 3e 40 cd 4b 3d
       0.014075607 0.118784904 0.13419825 0.04975629
0002e0 52 53 3c 3e 72 a7 56 3e e2 96 b3 be fc d9 94 be
       0.18391159 0.20962313 -0.35076052 -0.2907256
0002f0 f6 ba 37 3e ef c9 a0 be 43 16 9b 3e 50 41 d9 bc
       0.17942414 -0.31404063 0.30290422 -0.026520401
000300 40 92 bd 3b 63 d5 77 be a6 37 70 be 10 95 a9 3d
       0.0057852566 -0.24202494 -0.23458728 0.082803845
000310 00 a6 1c bb 20 c2 a5 bc d5 67 ad 3e 50 b3 a8 bd
       -0.0023902655 -0.020234168 0.3386828 -0.08237326
000320 e0 84 17 3c 7e 3d 79 3e 00 bc 5d bc b4 1a 76 be
       0.009247988 0.24339864 -0.013533592 -0.24033624
000330 cc 69 87 be 76 f1 68 3e 77 f5 72 be e6 e7 aa be
       -0.26447904 0.2274836 -0.2372645 -0.3338005
000340 72 9e 09 3e 34 87 67 be 92 03 4b 3e 74 a5 00 3e
       0.13439348 -0.2261017 0.1982558 0.12563115
000350 e0 98 50 3c 65 c0 73 be 4e f8 4d 3e 14 69 bf bd
       0.012731761 -0.23803861 0.20114252 -0.09346214
000360 23 6d 8b be 60 53 11 bc 70 be aa bc 3e 5d a0 be
       -0.27231702 -0.008869976 -0.02084276 -0.31321138
000370 33 59 87 3e 80 f5 a4 3d 0c 0a b1 3d 3c 60 13 3e
       0.2643524 0.08054638 0.086444944 0.14392179
000380 66 b1 12 3e ab 52 8c 3e 01 17 9d 3e 5f d8 8a 3e
       0.14325485 0.2740682 0.30681613 0.27118203
000390 fc 47 47 be e0 f1 52 3c b7 19 8a 3e 13 dc 93 3e
       -0.19461054 0.01287505 0.26972744 0.2887884
0003a0 07 fe 9e be 8b 73 1c be 72 5b 2d be c0 72 98 bd
       -0.31053182 -0.15278451 -0.16929415 -0.07443762
0003b0 d6 6e 30 3e 83 02 88 be 2d 7f 7d be f3 fc 93 3e
       0.1722978 -0.26564416 -0.24755545 0.28903922
0003c0 b7 83 a1 3e 86 94 85 be 6b d9 b4 3e 58 9f ce bd
       0.31545803 -0.26089877 0.35322127 -0.10088986
0003d0 e2 83 1c be e2 67 75 3e d1 88 7c be 46 0a 36 3e
       -0.15284684 0.2396541 -0.24661566 0.17777357
0003e0 59 4b b3 3e 88 5f b9 bd 05 bd ac 3e c5 72 8f 3e
       0.35018423 -0.09051424 0.3373796 0.2801725
0003f0 b6 89 17 be 00 c4 d2 39 97 82 9e 3e 3e 47 81 be
       -0.14798626 0.00040200353 0.30959007 -0.25249666

lstm.bias_ih_l0 f4 [32]
000000 e8 ea d7 3e e6 13 1f 3f 30 52 cd 3e 80 55 d6 3e
       0.42171407 0.6213974 0.40101767 0.41862106
000010 bd cf 26 3e 04 f8 8c 3f 31 fc 77 bd 7d 76 c7 3e
       0.16290183 1.1013188 -0.060543243 0.38957587
000020 6c 4e a7 bd b0 3c d0 bd 38 b6 12 be af 46 a4 be
       -0.08169255 -0.10167825 -0.14327323 -0.32085177
000030 25 c3 06 be a0 11 6f bd 6a 6f 4b 3e 85 3f ab be
       -0.13160379 -0.058366418 0.1986672 -0.334469
000040 b1 0e b4 3e 87 42 1b be a3 11 43 be ad 3f e2 bd
       0.3516746 -0.15162097 -0.19049697 -0.110473014
000050 bb d3 bb 3e f8 ef 0a bf e0 a5 a6 be fd 87 90 bd
       0.36684975 -0.54272413 -0.32548428 -0.07057188
000060 67 38 43 3f 21 4f 13 3f f3 09 31 3f f8 95 ff 3e
       0.7625794 0.57542616 0.69155806 0.49919105
000070 fa 73 73 3e 26 86 63 3f c2 fb 92 3c f2 29 5a 3f
       0.2377471 0.8887657 0.017942313 0.85220253

lstm.bias_hh_l0 f4 [32]
000000 50 47 3e 3f 75 5a 91 3f ef d5 1f 3f b3 e5 95 bc
       0.74327564 1.135573 0.6243581 -0.018298006
000010 74 5a 26 3d b1 26 40 3f e4 63 21 3e 8b 03 70 3f
       0.040613607 0.7505904 0.15760761 0.93755406
000020 f8 be 5b bd 06 a5 1e 3e bc 95 c2 3d da 20 67 3e
       -0.05364892 0.15492639 0.09501216 0.22571126
000030 b9 50 9c 3e 27 ae 32 be 00 67 c8 bb 08 d8 86 be
       0.30530336 -0.17449246 -0.006115794 -0.26336694
000040 3e cf 45 3e 71 bf ad be c5 64 04 bf 22 09 57 3d
       0.19317338 -0.3393512 -0.5171626 0.052498944
000050 3b ea d0 3e b1 aa fa be 68 22 5f bd 9f 1c ea 3e
       0.40803704 -0.48958352 -0.05447617 0.4572496
000060 dc f9 69 3f 9d 4c 84 3f 95 ba d2 3e 58 2e 4d 3d
       0.9139688 1.033588 0.41157976 0.050093025
000070 b5 56 c9 3e aa cf 8a 3f 53 b7 a0 3d 1b b3 02 3f
       0.39323965 1.0844624 0.07847466 0.51054543

lstm.weight_ih_l1 f4 [32, 8]
000000 78 58 f5 be 98 79 63 3f c8 e1 6f 3e ed d0 8d 3e
       -0.4791906 0.8885741 0.23425972 0.2769846
000010 30 c3 26 3f 61 0c a1 3e f6 3f 7c be 59 d4 41 bf
       0.6514158 0.31454757 -0.24633774 -0.7571464
000020 e6 26 a6 be b0 8d 27 3f d3 46 64 bd f6 8e e9 3e
       -0.32451552 0.6545057 -0.055731606 0.45616883
000030 22 53 5d 3f 94 23 64 be 60 98 26 bf 25 9f d5 be
       0.86454976 -0.22279197 -0.65076256 -0.4172298
000040 6a 19 02 be 20 0c 40 3e 2c 79 58 be 19 f8 e6 ba
       -0.12705007 0.18754625 -0.21139973 -0.0017621546
000050 65 a1 dd 3d 51 3d 5e 3c 51 e5 ca be a7 3a 53 be
       0.10821799 0.013564424 -0.3962808 -0.20627843
000060 75 36 b3 3e 93 ad e2 be 7e ad 6f bd fc 88 ad be
       0.35002485 -0.44273052 -0.058515064 -0.33893573
000070 90 66 e6 3d c4 cb 63 bf 3a b0 04 3f 04 3c 28 3e
       0.11250031 -0.88982797 0.518314 0.16429144
000080 5e e8 95 3e 75 b4 93 bd 85 a9 cd 3d 3f 3c b9 3d
       0.29278845 -0.07212154 0.10042099 0.09044694
000090 3e cb 34 3f 1b d1 03 bf f8 8f 94 be 67 0d d8 3e
       0.7062262 -0.51490945 -0.2901609 0.42197725
0000a0 a8 20 0f bf 52 e5 11 3e 0a c4 73 3e 98 4e ef 3e
       -0.55909204 0.14247635 0.23805252 0.4673965
0000b0 c2 fc ea 3e af 8f 0b be f9 f7 15 bf 80 57 cd be
       0.45895964 -0.1362903 -0.585815 -0.4010582
0000c0 1d eb 1c 3f 77 7c 65 bf 6c dc ef be 48 7e d4 be
       0.61296254 -0.89643043 -0.46847856 -0.41502595
0000d0 0f 95 d4 be 18 8c 63 bf 32 f7 2a be 15 88 0c 3f
       -0.41519973 -0.8888564 -0.1669586 0.54895145
0000e0 b5 4f af be 6e e3 b7 3e d8 a5 97 3e 8c 95 6d 3f
       -0.342405 0.35915703 0.29618716 0.92806315
0000f0 f3 a0 36 3f 39 86 7d 3d 4c 08 57 bf 9a 25 04 bd
       0.7133934 0.061895583 -0.83997035 -0.032262422
000100 58 f9 ce 3d 8f 62 a2 3e 7d 51 5a be 76 98 3a 3e
       0.10106152 0.3171582 -0.21320148 0.18222222
000110 c2 f2 74 3e ba 5b 29 3e aa c9 09 3e a0 5f 70 3d
       0.2392073 0.16538897 0.13455835 0.058684945
000120 f6 3e 51 3e 70 6c ac bc 36 f7 75 3e 58 27 2d bd
       0.20434174 -0.0210478 0.24020085 -0.04227385
000130 8f 96 97 3e 40 90 97 bd 9c 71 b4 3d 8a 47 89 be
       0.29607055 -0.074005604 0.08810732 -0.26812392
000140 86 c2 1f 3e 50 70 3d 3d 8a 77 45 be 60 a2 39 bc
       0.15601549 0.046249688 -0.19283882 -0.011330217
000150 e0 84 10 be 12 f5 67 3e 1d 8a ab 3e 18 4d 23 3d
       -0.14113188 0.2265208 0.3350381 0.039868444
000160 fa 10 6f be e6 2a 1a be 6c c5 a3 be 16 ad 19 3e
       -0.2334632 -0.15055427 -0.31986558 0.15007433
000170 94 0d 13 3e 74 57 f6 bd 85 4f af 3e a6 11 46 3e
       0.14360648 -0.12028399 0.34240356 0.1934267
000180 78 d1 a3 bd 91 2f 93 3e 40 9e 68 3c d0 8b 27 bd
       -0.07998937 0.28747228 0.014197886 -0.04090482
000190 b0 83 ef 3c da 9f f0 bd 68 d2 c2 bd 11 8c a9 3e
       0.029237598 -0.11749239 -0.09512788 0.33114675
0001a0 66 c6 66 3e 78 45 ce 3d 18 36 10 bd d2 d1 61 3e
       0.2253662 0.10071844 -0.035207838 0.22052696
0001b0 70 9a b1 bc 18 eb 02 bd 0e ea 36 3e 04 cd c3 bd
       -0.021680087 -0.031962484 0.17862722 -0.09560588
0001c0 cb fa 92 be f0 8f f5 3c a0 c9 b8 3d 28 0d ff 3d
       -0.28706965 0.029975861 0.09022832 0.12453681
0001d0 0c 1a 29 be 5c ed 95 be c2 60 43 3e 80 1c 01 3c
       -0.16513842 -0.29282653 0.19079879 0.00788033
0001e0 83 5c a9 3e a0 a0 49 3d 39 8b 98 3e c9 e0 9a 3e
       0.33078393 0.04922545 0.29793718 0.30249622
0001f0 1a dc 7a 3e 7e 56 a3 be e2 8a 6c 3e 0e 28 8e be
       0.24498025 -0.31901926 0.23099855 -0.27764934
000200 bb 20 4c bf c3 5e 68 3f 2d b1 5f 3f 2d c5 e7 3e
       -0.7973744 0.90769595 0.87379724 0.4526762
000210 4a 22 63 3e 96 0b a3 3f a3 f6 34 bf 75 5f 2e bf
       0.22181049 1.2737911 -0.7068884 -0.68114406
000220 be e6 a2 3f 8a ad 8f bf 58 23 22 bf f0 e7 59 bf
       1.2726667 -1.1224835 -0.6333518 -0.85119534
000230 05 a4 26 bf a9 03 8f bf 30 84 d3 3e 8b 98 91 3f
       -0.65094024 -1.1172992 0.4131179 1.1374677
000240 f9 ea 39 3f a9 59 43 bf 18 99 73 bf 07 51 f8 be
       0.72624165 -0.76308686 -0.9515548 -0.4849932
000250 e7 8f 4d bf 18 b3 a5 bf 8a 14 2a 3f d8 00 1e 3f
       -0.802977 -1.294528 0.6643759 0.6172004
000260 43 28 8e bf ad a7 81 3f 2c 0c f2 3e 4b c0 8f 3e
       -1.1106037 1.0129296 0.4727491 0.28076395
000270 d2 2a a3 3d 37 e5 39 3f 97 07 02 bf b5 7c ce be
       0.07967152 0.7261538 -0.5079283 -0.4032952
000280 3f 94 3d bf b9 8f 71 3f 30 1e 2e 3f 04 55 37 3f
       -0.7405433 0.9435993 0.6801481 0.716141
000290 76 a4 b8 3e dc 30 70 3f a8 ed f8 be 97 b4 59 bf
       0.36062974 0.93824553 -0.48618817 -0.85041183
0002a0 49 89 86 bf 1f 4f 28 3f 5a 30 dd 3e 45 74 46 3f
       -1.0510646 0.6574573 0.43200952 0.77521163
0002b0 17 a8 0d 3f b9 c1 81 3f 94 3d 63 be 33 42 e6 be
       0.5533461 1.0137244 -0.22191459 -0.4497238
0002c0 fc a9 6e 3f 1e 18 61 bf 90 50 8d be 8f 69 f3 be
       0.93228126 -0.87927425 -0.27600527 -0.47541472
0002d0 20 84 45 bf ea a5 89 bf 77 31 8d 3e 51 e8 88 3f
       -0.7715473 -1.0753758 0.275768 1.0695897
0002e0 8f 21 a6 3f 2e b6 8a bf 4d f8 2c bf b2 02 85 bf
       1.2978991 -1.0836847 -0.67566377 -1.0391448
0002f0 e6 1e cc be bc f6 9b bf 85 fb 09 3e 8c 9a 58 3f
       -0.39867324 -1.2184672 0.13474853 0.8461082
000300 7a f2 c7 be 02 02 7b 3f 78 4d 16 3f d5 8b 32 3f
       -0.39052182 0.9804994 0.5871196 0.69744617
000310 90 ce 38 3f 72 e1 3e 3e da b6 d6 be a6 f1 3a bf
       0.7219019 0.18640688 -0.4193638 -0.73024976
000320 6c 50 6c be 1c 7d 38 3f 24 86 63 3e 09 09 45 3f
       -0.23077554 0.720659 0.2221914 0.7696691
000330 a2 7a f9 3e 52 e3 af bc c1 e3 2f bf c3 cb b0 bd
       0.48726374 -0.0214707 -0.687069 -0.086326145
000340 3a bc 7c 3d 08 ae 8c 3d 78 e7 ab 3d 8f c9 1a 3e
       0.061702944 0.06869131 0.083937585 0.15115951
000350 e2 ad 03 3f d3 a3 95 ba 67 dd 88 bd 9e 88 60 bb
       0.514372 -0.0011416621 -0.06682854 -0.0034261118
000360 e9 59 4a 3f 19 f9 6c be 65 39 27 bd c3 13 fd be
       0.7904344 -0.23141898 -0.04082622 -0.4942914
000370 38 95 82 bd bf 1c 61 bf 83 fc 45 3e 59 49 41 3f
       -0.063761175 -0.8793449 0.19334607 0.75502545
000380 8e c2 c9 3e 07 9f 9b 3d da 57 0e be e6 ec 13 3e
       0.39406246 0.075986914 -0.139007 0.14445838
000390 96 48 32 3f 71 68 14 bf b9 29 02 bf 61 ae df 3e
       0.6964201 -0.57971865 -0.50844914 0.43687728
0003a0 58 22 22 bf 23 89 07 3f 18 66 a9 3e c0 a7 91 3e
       -0.63333654 0.5294363 0.33085704 0.28448296
0003b0 e3 41 a1 3e ac 45 e7 bd 3c 1f 02 be 24 82 4d be
       0.3149558 -0.11292586 -0.12707227 -0.20069176
0003c0 4c 24 3c 3f 1c a6 07 bf b1 ba 1a bf 78 44 2f bf
       0.73492885 -0.5298784 -0.6044112 -0.6846385
0003d0 b6 da 92 be 85 45 53 bf a1 a8 2b 3e a7 62 5f 3f
       -0.28682488 -0.82527953 0.16763546 0.87259907
0003e0 9a 12 61 bf 7a fa 0c 3f b8 2c ae 3e ac df 4c 3f
       -0.8791901 0.55069697 0.34018493 0.80028796
0003f0 8a 3b 62 3f de b4 69 be 91 59 ad be 49 a0 da bd
       0.883721 -0.22822902 -0.33857396 -0.10675103

lstm.weight_hh_l1 f4 [32, 8]
000000 90 ee 4e be 4e c8 fe bd 7c ba 64 be 8e 9a 50 3e
       -0.20208192 -0.12440549 -0.22336763 0.20371458
000010 90 7b a2 bd 04 26 af 3d ed c6 8c 3e b8 d9 66 3d
       -0.07933724 0.08552173 0.27495518 0.056359977
000020 97 34 a2 3e b0 13 b5 3d 62 f3 0a 3e 0b 84 9b 3e
       0.31680748 0.08841646 0.13569406 0.30374178
000030 a6 32 30 3e 8c f1 df 3d aa c0 7e 3e ff 87 09 be
       0.17206821 0.10934743 0.24878183 -0.13430785
000040 a4 96 a2 3d 48 0a 1c bd 98 ea 6a bd bf ac ac 3e
       0.07938889 -0.038095742 -0.057352632 0.33725545
000050 a0 fc cb bd 32 da b2 be 40 f0 50 3d 20 16 9e bc
       -0.09960294 -0.34932095 0.05101037 -0.01929766
000060 3c 82 b1 3d 35 9f 82 3e 32 6d 40 3e f5 95 95 be
       0.08667418 0.2551209 0.18791655 -0.2921597
000070 7d e1 8b 3e 40 17 c9 3d 04 ec 4d be 7c 13 82 bd
       0.2732047 0.09818888 -0.20109564 -0.063513726
000080 e8 c8 90 be 23 9a 0d be d3 16 9e 3e a3 0f 86 be
       -0.2827828 -0.1382833 0.30876788 -0.26183805
000090 08 7e 79 3d 4e e1 78 be ab 33 84 3e c0 8d 0a bd
       0.06091121 -0.24304697 0.2582067 -0.03382659
0000a0 88 62 f4 bd 2a 22 66 3e 8c 3d 90 be b6 4e aa be
       -0.11932856 0.2247397 -0.28171957 -0.33263177
0000b0 02 95 ff bd 69 f6 88 3e e0 60 44 3d 80 d5 ad bb
       -0.12479593 0.26750496 0.04794395 -0.005304992
0000c0 4a be 5a 3e 4d bf 85 3e b0 8c ba 3d b4 4c 85 bd
       0.21361652 0.26122513 0.09108865 -0.065087706
0000d0 71 f8 97 3e 42 cf 26 3e 60 7a 97 3d 98 41 29 3d
       0.29681733 0.1629 0.07396388 0.04132232
0000e0 41 4c 99 3e 90 27 86 be a5 34 92 3e b4 be a6 bd
       0.2994099 -0.2620206 0.2855579 -0.081418425
0000f0 86 de ef bd a1 ff 93 3e 20 7d 34 3d f2 48 61 3e
       -0.11712365 0.28905967 0.04406464 0.22000483
000100 ac 8e 82 be e6 af 75 be 0d 3f 99 be 1a 60 a6 be
       -0.25499475 -0.23992881 -0.29930916 -0.32495195
000110 dd ea 98 3e 96 aa 55 3e d8 45 e3 3d e8 49 f1 bd
       0.29866686 0.20865855 0.11097306 -0.117816746
000120 63 e7 64 be 34 73 91 be a6 2e 2b 3e 6b 27 a9 3e
       -0.22353892 -0.28408206 0.16717014 0.33037886
000130 d0 47 67 3d 38 bb 89 bd 77 3e 81 be 68 cc 88 be
       0.05646497 -0.06725162 -0.2524297 -0.2671845
000140 bc 67 63 be c2 97 5a 3e 38 16 5f 3d ce d9 52 3e
       -0.2220754 0.21346954 0.05446455 0.20590898
000150 60 2f 3b 3d 1f d2 26 be 68 10 c7 3d 5e 0b 94 be
       0.045699477 -0.16291092 0.09719926 -0.28914922
000160 b7 6e a6 3e f2 f1 2c 3e 46 e9 21 be 58 28 6a bd
       0.32506344 0.1688917 -0.15811643 -0.05716738
000170 b0 89 61 3d bc 3e e7 3d d0 02 fc 3d 0a f9 6e 3e
       0.05506295 0.112912625 0.12305224 0.23337188
000180 22 69 6c 3e 98 06 70 be 28 d6 39 be 48 10 7b bd
       0.2308698 -0.23440015 -0.181481 -0.061294824
000190 c6 7a 1a 3e 80 86 1c bb 46 27 53 3e c6 04 88 be
       0.15085897 -0.002388388 0.2062045 -0.26566142
0001a0 80 d9 59 3c ee 19 1f 3e 2e 94 43 3e a8 37 aa 3d
       0.013296485 0.15537235 0.19099495 0.08311397
0001b0 24 14 03 3e c8 b3 e7 3d 20 6f 6b bd 73 40 b0 be
       0.12800652 0.113135874 -0.057479024 -0.3442417
0001c0 6c ce ed 3d 00 22 30 3a 88 3c 73 3d 88 3e 93 3d
       0.116116375 0.00067189336 0.0593839 0.07189661
0001d0 37 0b 9d 3e c2 1c 09 3e 00 0f f6 3d 78 b7 10 be
       0.3067262 0.13389876 0.1201458 -0.14132488
0001e0 6f 5f 1a be 1a 15 7b be 42 89 5b 3e e6 0f 37 3e
       -0.15075468 -0.24519768 0.21439078 0.17877159
0001f0 4f 24 85 be 28 42 b0 3d 43 ad 16 be 70 0d ee 3d
       -0.26004264 0.08606368 -0.14714532 0.11623657
000200 10 9b fb 3c 32 53 9a be de 0f 62 3e 19 d9 9a 3e
       0.030713588 -0.30141598 0.22076365 0.30243757
000210 a3 15 9d be bb 52 a6 3e 86 db 4f 3e 92 74 e2 bd
       -0.3068057 0.32484993 0.20298585 -0.1105739
000220 58 56 56 bd 40 28 0d bd d0 aa ce bc 11 14 a4 3e
       -0.052328438 -0.034462214 -0.025227934 0.3204656
000230 16 e6 86 be ca 2a 3b 3e c4 ae 6e be 8c ff 79 be
       -0.26347417 0.18278041 -0.23308855 -0.2441389
000240 3e ac 4a 3e 40 e3 a9 bd 00 53 a0 ba 7d 55 8d 3e
       0.19792268 -0.082952976 -0.0012231767 0.27604285
000250 48 84 ac 3d e0 03 35 3c 7c 01 ce 3d 0f 87 8c 3e
       0.08423668 0.011048287 0.10058877 0.27446792
000260 f5 a7 68 be 3c 99 d8 bd 79 18 b4 3e f6 47 9b be
       -0.2272032 -0.10576102 0.3517492 -0.3032834
000270 00 2d 06 3b 34 be 96 be 00 f0 b4 3c 72 2b 04 3e
       0.00204736 -0.29441988 0.022087097 0.12907198
000280 97 2a a8 3e b0 9e af be 22 26 33 3e 3e 36 44 3e
       0.32844993 -0.34300756 0.17495015 0.19161317
000290 d8 47 75 3d 49 54 97 3e e0 65 ea 3c 7a a5 00 3e
       0.05988297 0.29556492 0.02861303 0.12563124
0002a0 bf c0 af be 2c 11 3d be d2 8b e1 bd 4e 34 49 3e
       -0.3432674 -0.18463582 -0.11012997 0.19648859
0002b0 b4 f9 e5 3d e2 49 61 be e6 96 2a 3e a0 7c 38 3d
       0.11229268 -0.2200084 0.16659126 0.045040727
0002c0 00 2a ce ba 1e 7b 63 3e 0b 22 58 be aa 9f 2d 3e
       -0.001572907 0.22214934 -0.21106736 0.16955438
0002d0 00 6c 04 3e 70 e5 58 bd 74 a4 07 3e 9b f1 97 be
       0.12931824 -0.052953184 0.13246328 -0.29676518
0002e0 ac e5 9c 3d 18 84 03 3d 70 e9 a1 be 21 18 80 3e
       0.07660994 0.032108396 -0.3162341 0.2501841
0002f0 87 0f 69 be 03 8d 39 be 26 9a 0d 3e 21 0f 93 3e
       -0.2275983 -0.18120198 0.13828334 0.2872248
000300 50 97 aa 3d 06 f9 75 3e 8a cb 27 3e c3 b4 4f be
       0.08329642 0.24020776 0.16386238 -0.20283799
000310 00 cf 5a 3c c0 0a 33 be d8 58 08 be 51 b1 88 be
       0.013355017 -0.1748457 -0.13315141 -0.26697782
000320 98 2f 5e 3d 26 fb 54 be 8b 07 a3 3e 03 87 8c 3e
       0.054244608 -0.2079893 0.31841692 0.27446756
000330 88 ba 3f bd 01 c6 15 be e2 3a 25 3e 73 c9 17 be
       -0.04680875 -0.14626314 0.16135743 -0.1482294
000340 c8 9e 04 3e 05 f2 8e 3e 22 2a 2b 3e 92 a4 6e 3e
       0.12951195 0.2791902 0.16715291 0.23304966
000350 90 7d c1 bc 20 63 49 bd 18 ef 67 be 1d a3 a4 3e
       -0.023619443 -0.0491668 -0.22649801 0.32155696
000360 18 65 94 be 3f e0 90 3e a7 a2 9c 3e d4 98 a1 be
       -0.28983378 0.28296086 0.30592844 -0.3156191
000370 c0 7d b6 bb 36 bb 3e 3e 86 0f 46 3e 3e b9 39 3e
       -0.00556919 0.18626103 0.19341859 0.1813707
000380 04 e3 bf bd 1e 90 11 3e cb bc ad 3e 1c f8 b3 be
       -0.09369472 0.14215133 0.339331 -0.3515023
000390 ac f6 b1 be 60 25 c0 bd 14 d6 f8 bd b0 95 71 bd
       -0.34758508 -0.09382129 -0.12150207 -0.058980644
0003a0 cc 05 cd 3d 2a b5 60 3e b2 0f 82 be e7 b2 90 3e
       0.10010871 0.21944109 -0.254026 0.28261492
0003b0 eb 7e 52 be d0 89 fe 3c c8 24 5d 3d 63 e5 1a be
       -0.20556228 0.031071573 0.053990155 -0.15126567
0003c0 5f 90 5d be d8 da 06 3e ea ea 88 be 08 83 55 be
       -0.21637104 0.1316942 -0.26741725 -0.20850766
0003d0 60 5d d5 3c 9a 84 78 3e 9a be 68 3e 80 64 74 bc
       0.026045501 0.24269333 0.22728959 -0.014916539
0003e0 40 eb 98 bb dc a6 a0 be d2 e7 39 3e 6c 49 69 be
       -0.004666716 -0.31377304 0.18154839 -0.22781914
0003f0 10 96 a6 3c 20 c2 56 3c c0 31 e4 3b ce e1 b1 be
       0.020335227 0.013107806 0.0069639385 -0.34742588

lstm.bias_ih_l1 f4 [32]
000000 29 56 db 3e 2c da 5a 3f 92 2b 22 3f b5 46 d2 3e
       0.42839172 0.85489154 0.63347733 0.4106957
000010 17 f4 7a 3f 15 0c e9 3e f3 f8 ff 3e 1a 00 b6 3f
       0.980287 0.4551703 0.4999462 1.4218781
000020 dc fc b2 be a8 7e 06 3d c0 bf 3a 3d 3b 33 97 be
       -0.3495854 0.032835633 0.045593023 -0.29531273
000030 c8 c3 b1 bd 1b 7e a0 3e 91 1d a6 be 79 92 84 3e
       -0.086799204 0.3134621 -0.32444432 0.25893
000040 62 3c 58 bb 62 fc aa 3e 83 20 fe 3e c8 67 37 bf
       -0.0032994975 0.33395678 0.4963418 -0.7164273
000050 46 89 91 be 99 f2 9d be 4f 17 ce 3e 32 2f 34 3e
       -0.28425044 -0.3084915 0.40252158 0.17596129
000060 9a 8b 16 3f 2f c8 85 3f 17 1a 7c 3f bd 0b 00 3f
       0.58806765 1.0451716 0.9847731 0.5001791
000070 99 d2 6e 3f b4 4a a4 3e 45 0c e3 3e 46 97 6f 3f
       0.93290097 0.32088244 0.44345298 0.935902

lstm.bias_hh_l1 f4 [32]
000000 14 16 09 3f 8a b8 7c 3f 48 2d 87 3f 6a 29 a3 3e
       0.53549314 0.98719084 1.0560694 0.31867534
000010 c5 6e 49 3f 54 60 ab 3e 5f 3b ef 3e cd 06 86 3f
       0.78684646 0.3347193 0.46724984 1.0470825
000020 6c 72 97 3d 00 71 94 be f0 12 2a be b4 31 8a 3d
       0.07394871 -0.28992462 -0.16608787 0.06747761
000030 e1 7f 9c be 38 cf d3 3d 7a 18 7a 3e c0 a5 f9 bd
       -0.30566314 0.10342258 0.244234 -0.121898174
000040 ac b8 2e be 90 5b c5 3e a3 3e 1a 3e 73 6c 4a bd
       -0.17062634 0.3854642 0.15062957 -0.04941983
000050 0b 37 a8 be f2 c5 1c be df 37 08 3f ee 31 d2 3e
       -0.32854494 -0.15309885 0.5321025 0.41053718
000060 86 ba c9 3e 01 8d a3 3f 65 61 83 3f e3 ee 1b 3e
       0.3940012 1.2777406 1.0264097 0.15227847
000070 5b 30 5d 3f 4a 2b e7 3e fa ae 38 3f a3 34 80 3f
       0.8640191 0.45150214 0.72141993 1.0016063

lstm.weight_ih_l2 f4 [32, 8]
000000 0b 9c 7b 3f 7a 3c 09 bf 23 38 0e be 20 71 59 be
       0.9828498 -0.53607905 -0.13888602 -0.2123456
000010 4b d8 fb 3e 50 0f ea 3e 56 16 dd 3e da 03 1f bf
       0.49188456 0.45714808 0.43181103 -0.6211525
000020 00 de 06 be 24 f5 31 3f 91 7d 0d 3f 93 31 6a bf
       -0.13170624 0.6951468 0.55269724 -0.91481894
000030 88 60 45 bf 9c f2 34 bf e8 fe 27 3f 73 49 55 3f
       -0.7710042 -0.7068269 0.6562333 0.833152
000040 0a 35 f2 3e 35 b8 38 3d 17 74 3c bd b6 ea fe be
       0.4730609 0.04509755 -0.04600915 -0.49788445
000050 bd fe 1b 3d 8c 62 17 3f 5c 16 9c 3f 17 c3 5c 3e
       0.038084734 0.59134746 1.2194324 0.21558796
000060 95 3f 93 3f 54 fb 8b be 72 fc 22 bd 15 20 0c bf
       1.1503779 -0.27340186 -0.03979153 -0.54736453
000070 aa 5e 98 be 4b 07 cb 3e 04 b8 62 3f a6 83 e6 be
       -0.29759723 0.39654002 0.88562036 -0.45022315
000080 50 91 18 3f 92 bc e5 be df ce 60 be 1f f5 00 bf
       0.5959673 -0.4487043 -0.21953915 -0.50374025
000090 c7 da b1 be fd 7e 19 3f ba ff 95 3f f6 f1 02 bf
       -0.34737226 0.59959394 1.1718667 -0.51150453
0000a0 a6 11 0c 3d fa 38 b0 3e 1f 6f 10 3f b1 51 dd bd
       0.03419652 0.3441847 0.5641956 -0.10806597
0000b0 9f 5b d8 be bc 6a 2b be 34 4f 2d 3f 6b 0c d5 3e
       -0.422574 -0.16739935 0.6769898 0.41611037
0000c0 5c 3e 55 be 74 7b 91 3f f5 e9 3c 3f 1f 8d ff be
       -0.2082457 1.13658 0.7379449 -0.49912354
0000d0 c8 ee 09 bf 79 83 f8 be 90 f9 41 3f 10 9b 98 3f
       -0.53879976 -0.48537806 0.7577143 1.1922321
0000e0 99 e2 d3 3e bc 74 6b bf 4e f9 7d be 0d 59 e4 3d
       0.41383818 -0.91975 -0.24802133 0.111497976
0000f0 88 b3 3d 3f 94 c0 bb 3d b0 0f 4f be e2 1f 89 bf
       0.7410207 0.09167591 -0.20220828 -1.0712855
000100 c9 a0 95 3e 54 c3 ba 3d 12 82 6f 3e 42 16 69 3e
       0.29224232 0.09119287 0.23389462 0.22762397
000110 10 69 ac 3c 77 92 85 3e 9a e0 46 3e bc e6 f0 3d
       0.021046191 0.26088306 0.19421616 0.11762759
000120 00 cf d8 bb 70 1d d1 bc 11 a1 8f be 73 b6 b0 3e
       -0.006616473 -0.025526732 -0.2805257 0.34514198
000130 50 a2 f7 bc 72 23 06 be 5b d4 9d be c4 5a ec 3d
       -0.030228764 -0.13099459 -0.30826077 0.1154075
000140 5b e1 a7 3e 40 cd c7 bb a8 a4 2f bd 4e d5 38 3e
       0.3278912 -0.0060974658 -0.042881638 0.1805012
000150 34 34 15 3e 20 d8 24 bd 8a 8a ad be 26 fb 12 3e
       0.14570695 -0.040245175 -0.3389476 0.14353618
000160 d7 72 02 be 38 e1 11 3d 24 aa 80 3d 30 14 b6 bd
       -0.1273912 0.035615176 0.06282452 -0.08890569
000170 34 a3 bf bd 7f e7 80 be 95 49 b1 be a8 5e 1b bd
       -0.093573004 -0.25176618 -0.3462645 -0.037932068
000180 82 b1 29 3e e0 65 77 be e0 0c b6 3c f8 48 15 bd
       0.1657162 -0.24159956 0.022222936 -0.03644654
000190 63 70 ad be 2c f3 95 bd 58 4b 6b be 51 7b 6f be
       -0.33874807 -0.07321772 -0.2297796 -0.23386885
0001a0 e0 02 ab 3d a6 7b 08 be d7 29 8f be 18 b4 ca bd
       0.08350158 -0.13328418 -0.2796161 -0.098976314
0001b0 66 99 51 3e a8 cb 6c 3d 74 81 9e 3d e2 b9 59 3e
       0.20468673 0.05781141 0.07739535 0.21262315
0001c0 f4 89 cf bd f8 6e 3f 3d fc 7f b8 bd fb e3 0a be
       -0.10133734 0.046736687 -0.09008786 -0.1356353
0001d0 a8 d1 b5 bd ac cc e1 bd e0 b7 39 3d a2 b9 3b 3e
       -0.088778794 -0.11025366 0.045341372 0.18332532
0001e0 82 fd 32 3e 90 70 97 bd 6c 67 97 3d 38 45 91 be
       0.17479518 -0.073945165 0.07392773 -0.28373122
0001f0 5f 9b 0c be 01 aa 00 be b5 94 88 3e 2d 63 89 3e
       -0.13731144 -0.12564851 0.26675954 0.26833478
000200 ed 0c f5 3e 75 c8 b4 bf 86 6b 64 bf 15 93 ec 3e
       0.47861424 -1.4123675 -0.8922657 0.46205965
000210 f3 01 84 3f 92 d5 4b 3f 88 76 84 bf 85 78 9f bf
       1.0313095 0.7962276 -1.0348673 -1.2458655
000220 e4 26 32 3f d0 4a 6a bf 74 8f 68 bf 24 c1 58 3f
       0.6959059 -0.91520405 -0.9084389 0.8466971
000230 66 b6 63 3f 09 01 33 3f 58 68 58 bf 18 9e 80 bf
       0.8895019 0.69923455 -0.84534216 -1.0048246
000240 b6 35 65 3f c0 e6 af bf de 8b dc be fd b2 47 3f
       0.8953508 -1.3742294 -0.4307546 0.7800749
000250 6d 9c 2f 3f 78 e6 38 3f a9 a0 c5 be 89 f7 a8 bf
       0.6859806 0.7222667 -0.38599136 -1.3200542
000260 11 ff 79 3f c9 cd a9 bf b5 9f fb be cd 19 20 3f
       0.97654825 -1.3265926 -0.49145284 0.6253937
000270 d0 9e 3c 3f 33 c5 0b 3f 1e 7d f7 be d7 c0 9f bf
       0.7367983 0.5459778 -0.48337644 -1.2480725
000280 eb 4b 5f 3f 2f 03 76 bf 81 da 42 bf 05 71 46 3f
       0.87225217 -0.9609861 -0.7611466 0.77516204
000290 3a bb 8c 3f ef 57 dc 3e 32 a7 16 bf f2 40 b2 bf
       1.0994637 0.43035838 -0.5884887 -1.392607
0002a0 4f 67 51 3f e4 bc 88 bf d5 14 ce be 75 75 11 3f
       0.8179826 -1.0682645 -0.4025027 0.5681985
0002b0 dd 07 4f 3f 3d 66 96 3e 56 aa f2 be 79 17 9f bf
       0.80871373 0.29374877 -0.4739558 -1.2429038
0002c0 18 ad 20 3f e0 34 83 bf f1 d2 4b bf ba a1 d2 3e
       0.6276412 -1.0250511 -0.79618746 0.41139013
0002d0 10 d4 a3 3f 5c ff ad 3e 63 28 e4 be f1 27 96 bf
       1.2799091 0.33983886 -0.44562063 -1.1730939
0002e0 65 bb e3 be a9 e9 71 3f d6 a7 47 3f 85 6c 0d bf
       -0.44478908 0.9449716 0.7799047 -0.5524371
0002f0 ef de 45 bf fb 7f 13 bf ec 47 6b 3f 9c 7b 7e 3f
       -0.77293295 -0.5761716 0.9190662 0.9940736
000300 94 da bd 3e 1a 17 5d bf 70 b3 ca be 31 fd ac be
       0.37080824 -0.86363375 -0.39590025 -0.3378692
000310 cf e2 c2 3d fc a0 41 3f 09 c0 96 3e 12 a5 6f bf
       0.095159166 0.7563627 0.29443386 -0.9361125
000320 82 dc 6f 3d 5e fe 5c 3f 97 92 6e 3f 0d c1 3b bf
       0.058559902 0.86325634 0.9319243 -0.7334145
000330 ba 0f 68 bf dd a4 04 be b4 62 28 3f c5 70 55 3f
       -0.90648997 -0.12953515 0.6577561 0.833752
000340 d8 ff 7c 3e 8d 68 88 3e 00 86 76 be 23 71 0f bf
       0.24706972 0.26642266 -0.24074554 -0.5603201
000350 3d 2f 83 be 2c 78 10 3f a0 c3 98 3f df 8b 93 bc
       -0.25621977 0.5643337 1.19347 -0.018011032
000360 5e 7d 10 3f a1 e8 4d bf 08 ba 68 be 5e 5d 44 bf
       0.56441295 -0.8043309 -0.22727215 -0.7670497
000370 df 22 c4 bd ad 11 ea 3e 3b 0f 7e 3f 7e f4 36 be
       -0.09576964 0.4571661 0.9924199 -0.17866704
000380 3d e8 01 3f ec a6 7f be 19 7d 27 bc 85 9d e3 be
       0.5074499 -0.2496602 -0.010222697 -0.44456115
000390 21 bf aa bd 1e 76 d7 3e cb 60 1f 3f 20 a2 08 bf
       -0.08337236 0.42082304 0.6225707 -0.53372383
0003a0 e2 e7 0e be 3f 28 e0 3e 31 47 17 3f 61 ce 04 be
       -0.13955644 0.43780705 0.59093004 -0.12969352
0003b0 4b b7 59 bf c3 56 84 be 8b 03 5d 3f cd 28 26 3f
       -0.8504531 -0.25847444 0.8633353 0.6490601
0003c0 06 fd 70 be 1c d4 aa 3f db 88 0d 3f 75 00 3b bf
       -0.23534021 1.3345981 0.5528695 -0.7304757
0003d0 b8 83 98 bf dd e5 42 bf 86 b1 6a 3f 3b 6a 9b 3f
       -1.1915197 -0.76131994 0.9167713 1.2141794
0003e0 b7 0b cd 3e 0c fe 81 bf b7 63 d4 be 97 09 c3 3e
       0.40048 -1.0155654 -0.41482326 0.38093254
0003f0 04 ab f7 3e 1d 25 a2 3e e2 95 bc be 64 c5 72 bf
       0.48372662 0.3166894 -0.36833102 -0.94832444

lstm.weight_hh_l2 f4 [32, 8]
000000 a0 ba ab bc 46 1c 49 3e bb 25 9e 3e a0 e6 b4 3c
       -0.020963013 0.19639692 0.3088816 0.022082627
000010 fc 6e 2e be 5f 53 9b be 62 b0 83 be e0 9c 1d 3c
       -0.17034525 -0.30337045 -0.25720507 0.009619921
000020 b9 ea 89 3e 08 3a 3f 3d da 27 6b 3e fe 3c 2c 3e
       0.26936892 0.046686202 0.22964421 0.16820142
000030 2c ec b4 bd 1f ac 8a 3e d0 61 05 3e f9 b8 a1 be
       -0.08834109 0.27084443 0.13025594 -0.31586435
000040 5d 8a 43 be e5 e2 50 be df 75 83 3e 70 24 90 3c
       -0.1909575 -0.20399053 0.25675866 0.0175955
000050 c8 45 1a be 56 d4 06 3e 20 ee 41 3c 1a 39 9b be
       -0.15065682 0.13166937 0.011836559 -0.30317003
000060 30 87 7f 3d 00 fa 01 3e 02 2a eb bd ff 0c 93 3e
       0.062384784 0.12693024 -0.11482622 0.28720853
000070 70 1e 98 be 48 bc 84 be a0 84 01 3e 4a 62 59 3e
       -0.29710722 -0.25924897 0.12648249 0.212289
000080 9a 1f 67 be ab 7c 94 be 8a db 0c 3e ce ac 24 3e
       -0.22570649 -0.29001364 0.13755623 0.16081545
000090 c0 85 1a 3d 56 0e a9 be 0a e0 05 3e 4c 32 6b be
       0.03772521 -0.3301875 0.13073745 -0.22968405
0000a0 50 54 61 bd 11 bf 8f 3e 98 e7 63 bd 44 68 85 bd
       -0.055012047 0.2807546 -0.055640787 -0.06514028
0000b0 f3 dd 16 be 36 7f 43 3e 2f a4 ac 3e b2 ce 70 be
       -0.14733104 0.19091496 0.33719012 -0.23516348
0000c0 21 64 a7 3e 62 01 3d 3e c1 ad 58 be 5d 0a 11 be
       0.3269358 0.18457559 -0.21160032 -0.1416411
0000d0 bd 19 88 3e 3f f3 86 3e b8 b2 59 3d b9 8d 7c be
       0.26582137 0.26357457 0.053148955 -0.24663438
0000e0 6e ff 7a 3e 8f eb b2 be ee 65 6e be f7 56 ad 3e
       0.24511501 -0.34945342 -0.2328107 0.3385541
0000f0 65 af 9b be 50 3e c9 bc ae e7 87 be 62 6b 31 3e
       -0.30407253 -0.024565846 -0.26543945 0.1732612
000100 81 93 0e be d0 2a a6 3d 94 f0 4f be 00 4c 8c bc
       -0.13923456 0.081136346 -0.20306617 -0.017126083
000110 05 bb 54 be 1d 6b 20 be 2b 9f af be 69 7c 3f be
       -0.20774467 -0.1566586 -0.34301123 -0.18699802
000120 d3 d5 82 be f8 4b c2 3d c0 12 27 3c 13 65 91 be
       -0.2555376 0.09487146 0.010197341 -0.28397426
000130 a3 32 8e be c0 dc 99 bb c0 7d 95 3d 60 84 14 bc
       -0.27773008 -0.004695505 0.072993755 -0.009064764
000140 10 ae a6 bc 7e 70 56 3e c1 81 92 be 20 85 03 bd
       -0.020346671 0.2094135 -0.2861462 -0.03210938
000150 60 f7 6e 3d e0 51 32 3c b2 d7 17 3e 74 24 47 be
       0.058341384 0.010883778 0.14828375 -0.194475
000160 a0 d8 4e bc 8c c9 72 be 98 7d 64 be 50 0b bf 3c
       -0.01262489 -0.23709697 -0.22313535 0.023320824
000170 34 ba a9 bd 4e c2 10 be d8 9a 80 be 30 50 0f 3d
       -0.082874686 -0.14136621 -0.25118136 0.034988582
000180 78 7c a6 be 1e 66 2a 3e e5 a3 4a be d0 ab e1 bd
       -0.32516837 0.16640517 -0.19789083 -0.11019099
000190 1b 65 89 3e 14 7e 04 3e 0e 64 74 be 0e f0 f2 bd
       0.2683495 0.1293872 -0.23866293 -0.11862193
0001a0 dd bf 47 be 62 3f 67 3e 63 32 98 3e 75 66 a8 3e
       -0.19506784 0.22582772 0.29725942 0.3289067
0001b0 04 a1 ca 3d 40 d4 09 bc 8e 5f af be 28 3e a0 bd
       0.098939925 -0.008412421 -0.3425259 -0.07824355
0001c0 c9 e9 9c 3e 80 89 5d 3b b9 76 9c 3e 1b c3 a0 3e
       0.30647114 0.003380388 0.30559328 0.31398854
0001d0 c3 aa 8a 3e c4 9f fb 3d 5a c2 14 3e 62 23 45 3e
       0.27083406 0.12286332 0.14527264 0.19251779
0001e0 ca 1e 39 3e f4 05 07 be 80 e1 a0 bb 58 97 a9 be
       0.18078151 -0.13185865 -0.004909694 -0.3312328
0001f0 4f c8 a4 3e e4 62 38 be e6 a4 1f 3e 64 f4 ad bd
       0.32184073 -0.18006474 0.15590248 -0.084938794
000200 cf 5e 69 be a0 00 3e 3d 9a 05 30 3e 20 b0 80 bc
       -0.22790073 0.046387315 0.17189637 -0.015708983
000210 c3 49 3b be cd d1 8e be 93 03 9a 3e fb 36 9e be
       -0.18289857 -0.2789444 0.30080852 -0.30901322
000220 4c d2 b0 be c6 dc 21 3e 02 05 1e 3e 80 33 66 bd
       -0.34535444 0.15806875 0.15431598 -0.056201458
000230 36 42 30 3e 18 d2 b3 3d c0 c6 63 bd b2 79 1f 3e
       0.17212757 0.087803066 -0.055609465 0.15573767
000240 ae 2a 36 3e a0 f4 03 3d 4e 4b 75 3e e4 90 bc bd
       0.17789719 0.032215714 0.23954508 -0.09207323
000250 e7 8b 98 3e c0 eb 5e bd 4f 50 af be fa 58 1a 3e
       0.29794237 -0.054424047 -0.34240958 0.15073004
000260 1d 92 94 be 9e b6 27 be 7e 13 65 3e 65 46 0c be
       -0.29017726 -0.16378257 0.22370717 -0.13698728
000270 e4 32 0f be 58 df 35 bd b2 9f 1e be e0 63 71 bd
       -0.13984257 -0.04440245 -0.15490606 -0.05893314
000280 43 89 66 be 7c 2c 92 be c8 32 90 3d 14 67 84 be
       -0.22513299 -0.28549564 0.07040936 -0.25859892
000290 20 d6 4a 3d b0 92 53 bd 1c 24 ab be 9c 2f d9 3d
       0.04952061 -0.051653564 -0.33425987 0.10604784
0002a0 9f 29 8b 3e be 4c 42 be 47 42 9d 3e 40 dd 44 bc
       0.27180192 -0.18974587 0.30714628 -0.012015641
0002b0 95 6b b1 3e 5c 09 a2 bd 60 91 0f 3e 79 08 8e 3e
       0.3465239 -0.079119414 0.140203 0.2774084
0002c0 2d e8 3f be af 50 8e 3e 93 54 9d 3e 45 58 9d 3e
       -0.18740912 0.27795932 0.30728588 0.30731407
0002d0 10 85 cc bd 7e 13 30 be 40 a0 d8 3c d2 47 60 be
       -0.09986317 -0.17194936 0.0264436 -0.21902397
0002e0 a0 9d 64 3c 54 a3 c8 3d 20 dd a8 be fd 66 aa 3e
       0.013953596 0.09796777 -0.32981205 0.332817
0002f0 78 79 22 bd a2 10 34 3e f9 2d 99 3e 83 be 90 be
       -0.039666623 0.1758447 0.29917887 -0.2827035
000300 fe f2 ad be ff fb 63 be 10 0c 80 3c d2 db 20 be
       -0.3397445 -0.22264098 0.015630752 -0.15708855
000310 00 53 24 bc 74 e1 ef 3d 10 ef ca 3d d8 2c 07 3d
       -0.010029554 0.11712924 0.09908879 0.03300175
000320 80 cc 0e 3d ca d8 a0 be 40 a1 26 3c 58 11 42 be
       0.034862995 -0.31415397 0.010170281 -0.18951929
000330 3e 4d 7e be 90 4d 82 bc 94 9c 48 be c0 e6 78 3d
       -0.24834153 -0.015906125 -0.1959098 0.060766935
000340 88 4e 42 bd 58 73 7e 3d d2 c0 23 3e ea 7b dc bd
       -0.047438174 0.06212172 0.15991524 -0.10765822
000350 58 86 77 bd b4 5d 08 3e d1 57 b0 be 71 2a 90 3e
       -0.060430855 0.13316995 -0.34442 0.2815738
000360 a2 74 8b be 9d 1a 33 be 80 79 0b 3d 7f f8 a6 3e
       -0.2723742 -0.17490621 0.03405142 0.32611462
000370 38 e1 75 be 00 c3 0d 3c c1 43 8e 3e 92 53 f0 bd
       -0.24011695 0.008652449 0.27786067 -0.1173469
000380 78 df 19 3d b9 c3 a1 3e 85 59 30 be 9a 90 07 3e
       0.037566632 0.31594637 -0.17221649 0.13238755
000390 b0 6a 97 bc 63 a5 82 be 80 e2 87 3c 61 fd 88 be
       -0.01848349 -0.25516805 0.016587496 -0.26755813
0003a0 08 b6 18 bd d2 54 52 be eb 83 91 3e 76 d7 64 3e
       -0.037282974 -0.20540169 0.28420958 0.22347817
0003b0 7c a1 b9 3d c0 9e 62 3d 42 31 6f be b6 b5 08 3e
       0.09064004 0.055327177 -0.23358634 0.13350567
0003c0 38 1b 61 bd c0 83 ca bb 03 3f ad 3e a0 1f c9 bd
       -0.0549576 -0.0061802566 0.33837137 -0.09820485
0003d0 56 28 14 3e a4 ab 9d bd 17 8e 92 3e 70 d1 99 bc
       0.14468512 -0.076987535 0.2862403 -0.018776625
0003e0 0a bb 2b 3e 82 46 61 3e a3 b2 9c 3e 28 cf 49 bd
       0.16770568 0.21999553 0.3060504 -0.049269825
0003f0 b0 af 55 3d 12 90 77 be c0 63 05 3c d2 0a 6c 3e
       0.0521695 -0.24176052 0.008141458 0.23051003

lstm.bias_ih_l2 f4 [32]
000000 10 9a 96 3f fc ac 54 3e 8c 37 9e 3f f4 cc 68 3f
       1.1765766 0.20769113 1.2360702 0.90937734
000010 26 38 83 3f 31 bb 7b 3f ac 07 10 3f ed e8 f0 3e
       1.025151 0.98332506 0.56261706 0.47052708
000020 00 d3 5c 3b b3 8f a2 3e a6 87 7d be 38 89 16 bd
       0.0033695102 0.3175026 -0.24758777 -0.036751956
000030 ff 45 91 3e 1e b7 7f 3e 80 7c ce 3c 20 fb ad bd
       0.28373715 0.24972197 0.02520585 -0.08495164
000040 c3 06 85 bd 1e c8 87 be 30 dc b0 be f7 ef 0c be
       -0.0649543 -0.26519865 -0.3454299 -0.13763414
000050 cf 8d 72 be 65 79 36 be e5 2f ea be 15 5e 5d be
       -0.23686908 -0.17819746 -0.45739666 -0.2161792
000060 29 99 99 3f 5b d8 3a 3f 4a bc 85 3f 9d 24 93 3f
       1.1999866 0.7298638 1.0448086 1.1495548
000070 68 01 bd 3f f6 56 05 3f 7f 60 10 3f a3 21 a0 3e
       1.4766054 0.52085817 0.5639724 0.31275663

lstm.bias_hh_l2 f4 [32]
000000 a4 46 39 3f 26 05 85 3e 6e 63 a4 3f b1 6f a4 3f
       0.72373414 0.2598049 1.2842844 1.2846586
000010 ed 48 c5 3f c0 e8 3b 3f 7f cf 43 3f 93 b7 13 3f
       1.541288 0.73402023 0.7648849 0.5770199
000020 a0 0c 76 bd 4e 4b 64 3e 95 32 4e be b0 9d d6 bd
       -0.060070634 0.22294351 -0.20136483 -0.10479295
000030 44 bf ca 3d 88 97 46 3d 3e 21 7f be b8 03 c0 bd
       0.09899762 0.048484355 -0.24915025 -0.09375709
000040 73 75 b8 bd 41 c3 51 be 28 18 2b be ce 44 9d be
       -0.09006777 -0.2048464 -0.16708434 -0.30716556
000050 73 3e d5 bd ce 06 12 bf 94 d9 73 be 71 02 bd bd
       -0.10412302 -0.57041633 -0.23813468 -0.09228981
000060 f1 fa 12 3f d7 fd 48 3e d9 1d 82 3f e9 b1 94 3f
       0.57414156 0.19628082 1.0165359 1.1616794
000070 64 e3 74 3f ce 7e db 3e 01 ca 98 3e 07 26 2c 3f
       0.9565947 0.42870182 0.29841617 0.67245525
