ModelSave40.pt (torch_old, 30998 bytes, 45 tensors)

lstm.weight_ih_l0 f4 [32, 8]
0.0058065895 -1.1792687 0.66824937 -0.26478356 0.057874147 0.24492793 -0.08816798 -0.35514292
0.114055425 -0.7840836 0.22878622 0.25366616 0.06673403 0.5167682 0.16915096 0.010558585
0.15933907 -0.4283875 0.7398232 -0.062273175 -0.11570926 -0.2636194 -0.47461346 0.39528
0.085032895 -0.6653395 -0.09659887 0.6593799 -0.16326769 1.1210368 0.40533167 -0.07938932
-0.09318983 -1.0934452 0.3704649 0.19415227 0.027741779 0.8789592 0.11847662 0.21616
-0.75582105 0.49315777 0.2387469 -0.66497666 0.39973736 -0.32181934 0.07850639 0.17895657
0.35749242 -1.0673012 0.6443252 0.36511382 0.019178314 0.29851463 -0.065907404 0.08005353
-0.21811572 -0.17208143 -0.2135152 0.6669062 0.41898513 0.36358017 0.5533661 0.033728078
-0.21168461 -0.1338159 0.06248346 -0.3093034 0.25554362 0.24237391 -0.04021269 0.3384966
-0.12325774 -0.086978525 -0.28389663 -0.15865709 -0.1161959 0.05154568 -0.115789905 0.28242162
-0.3142988 0.2820706 -0.19995488 -0.058646798 -0.06541267 0.10208371 0.344447 0.25189307
-0.24166197 -0.099191904 0.037638992 0.27996847 -0.26212448 0.12370238 0.07922715 0.32439688
-0.10889278 0.35012618 -0.2296153 0.03161931 0.19338557 0.0662913 0.067340046 0.12980947
-0.11289863 -0.3036062 -0.20709819 0.21839914 -0.043726057 0.19208947 0.2518644 0.3051559
0.1596764 -0.28090972 0.33355764 0.078419596 -0.16382328 0.00824818 0.033242404 0.3131803
0.26347396 -0.011349231 0.21877483 -0.17080326 0.28122374 -0.02082327 -0.07845628 0.2621816
0.09429579 1.1808099 -0.13555913 -0.6869279 -0.05096856 -0.843024 -0.0096083535 -0.08257204
0.0009573552 -1.1623827 0.5731911 0.5973246 0.047786508 1.0184427 -0.09164968 0.22019564
-0.34232804 -0.879466 0.4894491 0.94475883 0.10816081 0.7535622 0.0063694417 0.22237238
0.016800795 -1.0510757 0.81893355 0.31986883 -0.047692005 1.0021946 -0.15567978 0.114800274
-0.3001365 -0.52307206 0.48088804 0.5673792 0.039206084 0.7273768 0.32194915 0.038255546
0.1961643 -0.99719334 0.09264781 1.0306301 0.46076152 0.7066973 -0.1409771 0.03858584
0.1290977 0.45146456 0.4400812 -1.0756315 -0.20749591 -0.6160102 -0.43187383 -0.07135611
0.062572435 1.4292495 -0.65702087 -0.19416235 -0.050064426 -0.8675155 0.15014449 -0.25654596
0.011317902 -1.2127224 0.5935602 0.11567321 0.2247643 0.12445166 -0.13254264 -0.31181574
-0.074136 -0.94025266 -1.717758e-05 0.2678299 0.24534413 0.5279554 0.26586354 -0.031068655
0.20324023 -0.7898377 0.2877769 0.24530903 -0.10372478 -0.45158383 -0.5199465 0.34338245
-0.15356144 -0.9841128 -0.10790332 0.92682433 -0.08442475 0.7038272 0.5769132 -0.17661703
0.32344413 -0.71041864 0.12867495 0.672627 -0.13634294 1.1806688 0.11747725 0.13650128
-0.7927015 0.38487986 0.06577788 -0.43161625 0.4147664 -0.41087046 0.13019809 -0.15999924
0.41783828 -0.73329145 0.7278919 0.43870017 0.2805364 0.24823475 -0.10938139 -0.20846072
-0.113833755 0.27344403 -0.54251784 0.87025183 0.43594825 0.60505223 0.19804598 0.21688367
00000000: 3445 be3b 47f2 96bf 6412 2b3f b691 87be
00000010: 710d 6d3d 63ce 7a3e 6a91 b4bd 4bd5 b5be
00000020: e495 e93d b4b9 48bf ef46 6a3e 88e0 813e
00000030: daab 883d ec4a 043f e935 2d3e eafd 2c3c
00000040: c829 233e 9b55 dbbe 0e65 3d3f 2812 7fbd
00000050: faf8 ecbd 1ff9 86be 8900 f3be 2462 ca3e
00000060: ba25 ae3d b153 2abf a1d5 c5bd 1fcd 283f
00000070: a52f 27be 227e 8f3f a287 cf3e de96 a2bd
00000080: 4fda bebd 03f6 8bbf 93ad bd3e dacf 463e
00000090: ba42 e33c 7803 613f dfa3 f23d 0c59 5d3e
000000a0: 7d7d 41bf 2d7f fc3e 117a 743e e93b 2abf
000000b0: 60aa cc3e 81c5 a4be f5c7 a03d 6440 373e
000000c0: 3f09 b73e 539d 88bf 7ff2 243f 33f0 ba3e
000000d0: d71b 9d3c e9d6 983e 76fa 86bd 1bf3 a33d
000000e0: ba59 5fbe 1d36 30be bba3 5abe 5dba 2a3f
000000f0: 3885 d63e 2e27 ba3e 67a9 0d3f 7426 0a3d
00000100: dac3 58be 0907 09be a8ee 7f3d 045d 9ebe
00000110: 9dd6 823e de30 783e 10b6 24bd 6d4f ad3e
00000120: 8e6e fcbd cc21 b2bd e65a 91be 0177 22be
00000130: 1ef8 edbd 9021 533d 4223 edbd 9199 903e
00000140: c6eb a0be 8f6b 903e f9c0 4cbe a037 70bd
00000150: 14f7 85bd 4411 d13d 5b5b b03e 21f8 803e
00000160: 3c76 77be 2025 cbbd 582b 1a3d 0758 8f3e
00000170: 2e35 86be ac57 fd3d d841 a23d 5917 a63e
00000180: 2e03 dfbd bd43 b33e 4620 6bbe 4083 013d
00000190: de06 463e bcc3 873d 94e9 893d c6ec 043e
000001a0: 6637 e7bd 4672 9bbe 8c11 54be 06a4 5f3e
000001b0: 181a 33bd 1ab3 443e 5ff4 803e 653d 9c3e
000001c0: 3682 233e 66d3 8fbe 11c8 aa3e 749a a03d
000001d0: 4ac1 27be 6023 073c 3029 083d 2b59 a03e
000001e0: 0fe6 863e 20f2 39bc 8206 603e 0de7 2ebe
000001f0: 8ffc 8f3e 9095 aabc b0ad a0bd ab3c 863e
00000200: 271e c13d c724 973f 03d0 0abe 82da 2fbf
00000210: 69c4 50bd 6cd0 57bf 5b6c 1dbc 881b a9bd
00000220: 05f7 7a3a f5c8 94bf a7bc 123f 44ea 183f
00000230: c9bb 433d 555c 823f d4b2 bbbd f77a 613e
00000240: 9f45 afbe af24 61bf 1399 fa3e b7db 713f
00000250: 6a83 dd3d 74e9 403f c0b6 d03b 96b5 633e
00000260: d2a1 893c a689 86bf a1a5 513f d9c5 a33e
00000270: b158 43bd ea47 803f 856a 1fbe 681c eb3d
00000280: 7eab 99be 0de8 05bf f536 f63e c33f 113f
00000290: 8f96 203d 5e35 3a3f 85d6 a43e d9b1 1c3d
000002a0: 4bdf 483e 1048 7fbf 23be bd3d b0eb 833f
000002b0: efe8 eb3e 1dea 343f 4d5c 10be 300c 1e3d
000002c0: 3032 043e 5d26 e73e 5352 e13e 4bae 89bf
000002d0: cf79 54be d8b2 1dbf 911e ddbe 2723 92bd
000002e0: fa25 803d a6f1 b63f 8532 28bf 7fd2 46be
000002f0: 5b10 4dbd 7f15 5ebf 7abf 193e fe59 83be
00000300: b96e 393c 7d3a 9bbf 90f3 173f 13e6 ec3d
00000310: 9d28 663e 83e0 fe3d 42b9 07be 50a6 9fbe
00000320: 9dd4 97bd 66b4 70bf 9218 90b7 0021 893e
00000330: 7e3b 7b3e 1628 073f 441f 883e b183 febc
00000340: 351e 503e ce32 4abf 7e57 933e 4a32 7b3e
00000350: a86d d4bd ff35 e7be 371b 05bf d3cf af3e
00000360: 363f 1dbe d1ee 7bbf 6afc dcbd 5c44 6d3f
00000370: e2e6 acbd 052e 343f 95b0 133f 18db 34be
00000380: 789a a53e ffdd 35bf 5ec3 033e 4831 2c3f
00000390: 7c9d 0bbe 2820 973f ea97 f03d fec6 0b3e
000003a0: 7cee 4abf f90e c53e 8eb6 863d cefc dcbe
000003b0: 435c d43e 9d5d d2be a652 053e d7d6 23be
000003c0: e6ee d53e fdb8 3bbf 2057 3a3f 4f9d e03e
000003d0: 78a2 8f3e 4031 7e3e 5a03 e0bd ba76 55be
000003e0: ac21 e9bd db00 8c3e 73e2 0abf d3c8 5e3f
000003f0: 9c34 df3e b4e4 1a3f 91cc 4a3e c116 5e3e

lstm.weight_hh_l0 f4 [32, 8]
-0.18962769 -0.2866701 -0.17604882 -0.30227208 -0.09982443 -0.29628903 0.329461 -0.040632963
-0.20150816 0.27243617 -0.16341838 0.0018465519 -0.059556365 0.014178634 0.20426527 0.03563568
-0.06536096 0.14605623 -0.13575533 0.2861714 0.27594838 0.05001086 -0.16788004 0.21424434
-0.21403712 -0.16026124 -0.27695668 0.24084434 0.34818658 0.3279926 -0.2720185 0.061050385
0.2214928 -0.22723204 0.1146251 -0.045223385 0.17556801 0.29086706 0.1923314 0.16795668
-0.07874486 0.2590606 -0.07199162 -0.13300428 -0.31198993 -0.09713709 -0.22031797 -0.26726902
-0.27700615 -0.15246555 -0.12821417 -0.03845492 0.00090277195 -0.04509434 0.19970867 -0.3122392
0.011173874 0.058992296 0.04561293 -0.18012518 -0.045891345 -0.022041947 0.0067977905 0.33434
0.07788226 -0.27815032 -0.090938956 -0.20642485 0.17212793 -0.20229489 0.09282467 0.14448383
-0.107346 0.32523403 -0.024984568 0.004249066 -0.25852075 -0.05429223 -0.14509326 -0.07207167
-0.06091976 -0.07216787 -0.17136516 -0.22024728 0.10055253 0.029265672 -0.1473386 -0.17646202
-0.077352524 0.33520785 -0.3057784 -0.15203051 0.26213238 -0.33833075 0.13279545 0.28903726
-0.083692044 0.014784783 0.081558496 0.3416054 -0.04288885 0.3093063 0.35054687 0.1341685
-0.30376485 -0.34623992 0.30559316 0.019995064 -0.148604 0.27685592 -0.25352585 0.16314623
-0.117754295 -0.17087592 0.25258765 -0.05770421 0.15356174 -0.08725652 0.27601174 -0.20334467
0.25546297 -0.1492121 0.2868779 -0.13367939 -0.0038875043 -0.24884245 0.11984241 0.16164944
0.04101789 0.21452501 0.17753127 0.08252761 -0.029597908 0.2279757 -0.20069557 -0.17523184
-0.050241053 -0.33339563 -0.24004185 -0.15886404 0.26902702 0.23502281 0.014411181 -0.2306013
0.19112554 0.050713897 0.28738162 -0.29185888 -0.35149008 0.14199352 0.27764663 -0.15568198
0.009950757 0.122504145 -0.068495005 -0.09325248 -0.058559895 0.18859354 0.22201541 0.031389296
-0.024256676 -0.20412607 0.013537049 -0.22791527 -0.040510297 -0.002113074 -0.12669401 -0.33639705
-0.099163234 -0.31443796 -0.07809815 -0.100774854 -0.009889752 -0.12334722 0.31539956 0.1603348
-0.3189843 -0.15159188 -0.15515608 -0.2628585 0.014075607 0.118784904 0.13419825 0.04975629
0.18391159 0.20962313 -0.35076052 -0.2907256 0.17942414 -0.31404063 0.30290422 -0.026520401
0.0057852566 -0.24202494 -0.23458728 0.082803845 -0.0023902655 -0.020234168 0.3386828 -0.08237326
0.009247988 0.24339864 -0.013533592 -0.24033624 -0.26447904 0.2274836 -0.2372645 -0.3338005
0.13439348 -0.2261017 0.1982558 0.12563115 0.012731761 -0.23803861 0.20114252 -0.09346214
-0.27231702 -0.008869976 -0.02084276 -0.31321138 0.2643524 0.08054638 0.086444944 0.14392179
0.14325485 0.2740682 0.30681613 0.27118203 -0.19461054 0.01287505 0.26972744 0.2887884
-0.31053182 -0.15278451 -0.16929415 -0.07443762 0.1722978 -0.26564416 -0.24755545 0.28903922
0.31545803 -0.26089877 0.35322127 -0.10088986 -0.15284684 0.2396541 -0.24661566 0.17777357
0.35018423 -0.09051424 0.3373796 0.2801725 -0.14798626 0.00040200353 0.30959007 -0.25249666
00000000: c32d 42be 6cc6 92be 2446 34be 68c3 9abe
00000010: c070 ccbd 32b3 97be 1daf a83e c06e 26bd
00000020: 2858 4ebe c17c 8b3e 2657 27be 0008 f23a
00000030: 60f1 73bd 804d 683c ea2a 513e b8f6 113d
00000040: f8db 85bd c48f 153e 7203 0bbe 0f85 923e
00000050: 1b49 8d3e 30d8 4c3d bfe8 2bbe de62 5b3e
00000060: 8c2c 5bbe 861b 24be 44cd 8dbe e69f 763e
00000070: 8345 b23e a5ee a73e 0246 8bbe f80f 7a3d
00000080: 02cf 623e 84af 68be 90c0 ea3d 283c 39bd
00000090: 1ac8 333e 87ec 943e 86f2 443e d6fc 2b3e
000000a0: fc44 a1bd 97a3 843e 5870 93bd 4632 08be
000000b0: 25bd 9fbe d0ef c6bd 099b 61be 7cd7 88be
000000c0: c0d3 8dbe ee1f 1cbe 934a 03be e882 1dbd
000000d0: 00a8 6c3a d8b4 38bd 6e80 4c3e d1dd 9fbe
000000e0: a012 373c e8a1 713d a0d4 3a3d bc72 38be
000000f0: 90f8 3bbd 5091 b4bc 00c0 de3b 9d2e ab3e
00000100: bc80 9f3d b869 8ebe 343e babd 0961 53be
00000110: 4e42 303e 6426 4fbe dc1a be3d 92f3 133e
00000120: 38d8 dbbd 1385 a63e 70ac ccbc c03b 8b3b
00000130: d55c 84be 8861 5ebd 5493 14be 509a 93bd
00000140: 0087 79bd c0cc 93bd 597a 2fbe 8188 61be
00000150: 7cee cd3d 90be ef3c eedf 16be 76b2 34be
00000160: 006b 9ebd 5da0 ab3e fd8e 9cbe e3ad 1bbe
00000170: 3736 863e b039 adbe 88fb 073e b1fc 933e
00000180: bc66 abbd e03b 723c 2408 a73d e7e6 ae3e
00000190: 38ac 2fbd 655d 9e3e e17a b33e 7863 093e
000001a0: 1187 9bbe 5c46 b1be b576 9c3e b0cc a33c
000001b0: a62b 18be 0fc0 8d3e 24ce 81be ce0f 273e
000001c0: 2a29 f1bd 19fa 2ebe 2b53 813e 405b 6cbd
000001d0: 4a3f 1d3e 8cb3 b2bd 6951 8d3e 9639 50be
000001e0: 0bcc 823e 0fcb 18be a9e1 923e 40e3 08be
000001f0: 80c5 7ebb 8ed0 7ebe f06f f53d 6e87 253e
00000200: 6002 283d 72ac 5b3e c2ca 353e 3c04 a93d
00000210: 5077 f2bc 7672 693e 2483 4dbe fa6f 33be
00000220: 90c9 4dbd d5b2 aabe 88cd 75be 41ad 22be
00000230: e9bd 893e d2a9 703e e01c 6c3c bf22 6cbe
00000240: 6ab6 433e 60b9 4f3d af23 933e 876e 95be
00000250: 82f6 b3be c066 113e b327 8e3e 196b 1fbe
00000260: 8008 233c 74e3 fa3d 1c47 8cbd 28fb bebd
00000270: 80dc 6fbd aa1e 413e 0258 633e 1092 003d
00000280: f0b5 c6bc 6d06 51be 80ca 5d3c 9f62 69be
00000290: 20ee 25bd 807b 0abb 13bc 01be 3c3c acbe
000002a0: 1816 cbbd 03fe a0be ecf1 9fbd 0c63 cebd
000002b0: a008 22bc 789d fcbd 0d7c a13e ce2e 243e
000002c0: e951 a3be e73a 1bbe 3ce1 1ebe 6495 86be
000002d0: 609d 663c 8045 f33d 446b 093e 40cd 4b3d
000002e0: 5253 3c3e 72a7 563e e296 b3be fcd9 94be
000002f0: f6ba 373e efc9 a0be 4316 9b3e 5041 d9bc
00000300: 4092 bd3b 63d5 77be a637 70be 1095 a93d
00000310: 00a6 1cbb 20c2 a5bc d567 ad3e 50b3 a8bd
00000320: e084 173c 7e3d 793e 00bc 5dbc b41a 76be
00000330: cc69 87be 76f1 683e 77f5 72be e6e7 aabe
00000340: 729e 093e 3487 67be 9203 4b3e 74a5 003e
00000350: e098 503c 65c0 73be 4ef8 4d3e 1469 bfbd
00000360: 236d 8bbe 6053 11bc 70be aabc 3e5d a0be
00000370: 3359 873e 80f5 a43d 0c0a b13d 3c60 133e
00000380: 66b1 123e ab52 8c3e 0117 9d3e 5fd8 8a3e
00000390: fc47 47be e0f1 523c b719 8a3e 13dc 933e
000003a0: 07fe 9ebe 8b73 1cbe 725b 2dbe c072 98bd
000003b0: d66e 303e 8302 88be 2d7f 7dbe f3fc 933e
000003c0: b783 a13e 8694 85be 6bd9 b43e 589f cebd
000003d0: e283 1cbe e267 753e d188 7cbe 460a 363e
000003e0: 594b b33e 885f b9bd 05bd ac3e c572 8f3e
000003f0: b689 17be 00c4 d239 9782 9e3e 3e47 81be

lstm.bias_ih_l0 f4 [32]
0.33133632 0.60214686 0.4419756 0.4316096 0.09968861 0.9674227 -0.121609546 0.4891191
-0.08169255 -0.10167825 -0.14327323 -0.32085177 -0.13160379 -0.058366418 0.1986672 -0.334469
0.3903465 -0.2364939 -0.17874545 -0.22234082 0.38089153 -0.54867536 -0.41331866 0.022392051
0.6510858 0.6087766 0.7726967 0.5435939 0.2529546 0.73891133 -0.037933823 0.94328535
00000000: eaa4 a93e 4c26 1a3f a04a e23e effb dc3e
00000010: 8b29 cc3d 04a9 773f 6d0e f9bd d26d fa3e
00000020: 6c4e a7bd b03c d0bd 38b6 12be af46 a4be
00000030: 25c3 06be a011 6fbd 6a6f 4b3e 853f abbe
00000040: 7fdb c73e 752b 72be 0c09 37be 50ad 63be
00000050: 3704 c33e fd75 0cbf 819e d3be 896f b73c
00000060: 8fad 263f c9d8 1b3f 73cf 453f f828 0b3f
00000070: 4483 813e 4b29 3d3f 7f60 1bbd 267b 713f

lstm.bias_hh_l0 f4 [32]
0.652898 1.1163211 0.665317 -0.0053095235 -0.022599466 0.616693 0.09654125 1.0370972
-0.05364892 0.15492639 0.09501216 0.22571126 0.30530336 -0.17449246 -0.006115794 -0.26336694
0.23184519 -0.42422438 -0.50541145 -0.05936887 0.42207882 -0.49553505 -0.14231066 0.55021346
0.8024752 1.066939 0.492718 0.09449496 0.40844715 0.9346079 0.02259851 0.6016276
00000000: 5324 273f 9ce3 8e3f 3752 2a3f 83fb adbb
00000010: 8422 b9bc 98df 1d3f 6bb7 c53d 9abf 843f
00000020: f8be 5bbd 06a5 1e3e bc95 c23d da20 673e
00000030: b950 9c3e 27ae 32be 0067 c8bb 08d8 86be
00000040: d368 6d3e f033 d9be a562 01bf c62c 73bd
00000050: b71a d83e c5b6 fdbe e3b9 11be cada 0c3f
00000060: 046f 4d3f 7591 883f 8945 fc3e 9386 c13d
00000070: fc1f d13e 7742 6f3f 8320 b93c 4404 1a3f

lstm.weight_ih_l1 f4 [32, 8]
-0.36660314 0.79195726 0.33281055 0.21773061 0.5444825 0.2232492 -0.11748963 -0.85174316
-0.22612289 0.6237124 -0.06429003 0.4362966 0.7835222 -0.24107361 -0.5706088 -0.42413914
-0.034926496 0.042464767 -0.14358597 -0.04417453 -0.008294408 -0.07374745 -0.28359106 -0.2995124
0.23984127 -0.39952335 -0.14939345 -0.30152583 0.18165354 -0.82817584 0.40912557 0.225867
0.23190477 -0.017167546 0.17759201 0.09197244 0.78196615 -0.49444818 -0.3384092 0.4166373
-0.4311651 0.029410454 0.27480796 0.36263108 0.32550424 -0.18808118 -0.43227637 -0.4853418
0.48423758 -0.8404704 -0.6019943 -0.31264913 -0.33220777 -0.8173708 -0.32462907 0.6683103
-0.24978161 0.35223752 0.2947754 0.8959439 0.64777106 0.065134466 -0.7481745 -0.038514376
0.10106152 0.3171582 -0.21320148 0.18222222 0.2392073 0.16538897 0.13455835 0.058684945
0.20434174 -0.0210478 0.24020085 -0.04227385 0.29607055 -0.074005604 0.08810732 -0.26812392
0.15601549 0.046249688 -0.19283882 -0.011330217 -0.14113188 0.2265208 0.3350381 0.039868444
-0.2334632 -0.15055427 -0.31986558 0.15007433 0.14360648 -0.12028399 0.34240356 0.1934267
-0.07998937 0.28747228 0.014197886 -0.04090482 0.029237598 -0.11749239 -0.09512788 0.33114675
0.2253662 0.10071844 -0.035207838 0.22052696 -0.021680087 -0.031962484 0.17862722 -0.09560588
-0.28706965 0.029975861 0.09022832 0.12453681 -0.16513842 -0.29282653 0.19079879 0.00788033
0.33078393 0.04922545 0.29793718 0.30249622 0.24498025 -0.31901926 0.23099855 -0.27764934
-0.6687379 0.8365214 0.9840005 0.39233696 0.13043396 1.2377533 -0.5684028 -0.74067473
1.1311055 -1.0271673 -0.7502504 -0.7790781 -0.5355247 -1.0402163 0.260797 1.2288399
0.6119518 -0.69657624 -1.0689317 -0.42845327 -0.7233605 -1.2368753 0.53626245 0.68286395
-0.9923807 0.9403651 0.5523679 0.22445236 -0.024983298 0.67930865 -0.37398642 -0.45674878
-0.5990578 0.85145336 0.7714622 0.6510339 0.23933847 0.8773879 -0.34072736 -0.9275325
-0.92683834 0.5817813 0.5660827 0.71572393 0.471748 0.9531589 -0.09104862 -0.5179491
0.8033966 -0.7875613 -0.34823942 -0.40629828 -0.6515241 -1.024402 0.1341474 1.1374732
1.1592222 -0.98716396 -0.7869801 -0.96935713 -0.28482038 -1.1511912 -0.011332902 0.9261779
-0.287785 0.8708009 0.67005783 0.6577194 0.6156173 0.10627261 -0.3056496 -0.8040864
-0.13763484 0.68236566 0.20952132 0.7524291 0.40555614 -0.025210245 -0.61533684 -0.077890016
0.14972499 -0.0822433 0.14463659 0.110291794 0.39895135 -0.07826477 0.040445488 -0.094300956
0.68222743 -0.19812484 -0.12247825 -0.46521175 -0.00235055 -0.828468 0.094873026 0.8009377
0.33379868 0.13402262 -0.06411754 0.14355347 0.77197653 -0.5632991 -0.5529216 0.4227983
-0.4983641 0.4021742 0.3665037 0.16394417 0.17178889 -0.16415718 0.033946082 -0.29604667
0.60292095 -0.4760864 -0.73262167 -0.5838642 -0.20501812 -0.758191 0.015697112 0.98870003
-0.78479856 0.53827876 0.3378333 0.7617298 0.81342596 -0.22939064 -0.24840868 -0.12163524
00000000: 68b3 bbbe b6bd 4a3f 2566 aa3e c6f4 5e3e
00000010: 3563 0b3f 709b 643e 679e f0bd d70b 5abf
00000020: c28c 67be 9eab 1f3f 7eaa 83bd 4562 df3e
00000030: e994 483f 00dc 76be 6b13 12bf c428 d9be
00000040: 160f 0fbd 89ef 2d3d 3308 13be 5af0 34bd
00000050: 45e5 07bc e708 97bd d932 91be b059 99be
00000060: f398 753e 538e ccbe 99fa 18be 9861 9abe
00000070: 6303 3a3e 5503 54bf e878 d13e ae49 673e
00000080: 7278 6d3e f4a2 8cbc aeda 353e 0c5c bc3d
00000090: ef2e 483f 5028 fdbe f843 adbe 7c51 d53e
000000a0: acc1 dcbe 31ee f03c a1b3 8c3e c8aa b93e
000000b0: 7ea8 a63e 5a98 40be 5453 ddbe b87e f8be
000000c0: fded f73e 1129 57bf 4c1c 1abf 8c13 a0be
000000d0: 2317 aabe 363f 51bf c835 a6be 6216 2b3f
000000e0: c0c6 7fbe 7a58 b43e cdec 963e 945c 653f
000000f0: 53d4 253f 3865 853d 5d88 3fbf 40c1 1dbd
00000100: 58f9 ce3d 8f62 a23e 7d51 5abe 7698 3a3e
00000110: c2f2 743e ba5b 293e aac9 093e a05f 703d
00000120: f63e 513e 706c acbc 36f7 753e 5827 2dbd
00000130: 8f96 973e 4090 97bd 9c71 b43d 8a47 89be
00000140: 86c2 1f3e 5070 3d3d 8a77 45be 60a2 39bc
00000150: e084 10be 12f5 673e 1d8a ab3e 184d 233d
00000160: fa10 6fbe e62a 1abe 6cc5 a3be 16ad 193e
00000170: 940d 133e 7457 f6bd 854f af3e a611 463e
00000180: 78d1 a3bd 912f 933e 409e 683c d08b 27bd
00000190: b083 ef3c da9f f0bd 68d2 c2bd 118c a93e
000001a0: 66c6 663e 7845 ce3d 1836 10bd d2d1 613e
000001b0: 709a b1bc 18eb 02bd 0eea 363e 04cd c3bd
000001c0: cbfa 92be f08f f53c a0c9 b83d 280d ff3d
000001d0: 0c1a 29be 5ced 95be c260 433e 801c 013c
000001e0: 835c a93e a0a0 493d 398b 983e c9e0 9a3e
000001f0: 1adc 7a3e 7e56 a3be e28a 6c3e 0e28 8ebe
00000200: 6832 2bbf 4426 563f 75e7 7b3f 64e0 c83e
00000210: 7b90 053e b36e 9e3f d982 11bf dc9c 3dbf
00000220: 11c8 903f 387a 83bf 6910 40bf aa71 47bf
00000230: 2618 09bf cf25 85bf 2f87 853e a04a 9d3f
00000240: e0a8 1c3f d252 32bf c1d2 88bf 3a5e dbbe
00000250: 272e 39bf ee51 9ebf 7f48 093f 2cd0 2e3f
00000260: a90c 7ebf c4bb 703f fc67 0d3f d7d6 653e
00000270: c6a9 ccbc 2ce7 2d3f 267b bfbe fada e9be
00000280: da5b 19bf d9f8 593f 8c7e 453f 28aa 263f
00000290: 2515 753e 7e9c 603f d173 aebe c572 6dbf
000002a0: 4745 6dbf 9fef 143f ccea 103f af39 373f
000002b0: f488 f13e 3902 743f b377 babd 5098 04bf
000002c0: 66ab 4d3f 9e9d 49bf 704c b2be 5406 d0be
000002d0: 49ca 26bf 9b1f 83bf f05d 093e b998 913f
000002e0: 6561 943f c7b6 7cbf 8777 49bf ca27 78bf
000002f0: fad3 91be 3c5a 93bf a3ad 39bc ff19 6d3f
00000300: 8e58 93be cfec 5e3f e988 2b3f 4c60 283f
00000310: 1899 1d3f 74a5 d93d 1b7e 9cbe 9bd8 4dbf
00000320: 26f0 0cbe 84af 2e3f c28c 563e 329f 403f
00000330: 0ea5 cf3e b785 cebc b786 1dbf cd84 9fbd
00000340: 8251 193e 2d6f a8bd 9d1b 143e aae0 e13d
00000350: 5a43 cc3e 4849 a0bd 2baa 253d dc20 c1bd
00000360: 75a6 2e3f 3de1 4abe e0d5 fabd 3c30 eebe
00000370: af0b 1abb 7b16 54bf ca4c c23d 410a 4d3f
00000380: a9e7 aa3e 3a3d 093e 0f50 83bd aeff 123e
00000390: 41a0 453f 5f34 10bf 458c 0dbf 0579 d83e
000003a0: 9429 ffbe c7e9 cd3e 5fa6 bb3e fbe0 273e
000003b0: 6de9 2f3e d218 28be 0c0b 0b3d 6e93 97be
000003c0: 0759 1a3f 99c1 f3be 188d 3bbf 2078 15bf
000003d0: 45f0 51be ce18 42bf 3b97 803c 721b 7d3f
000003e0: 8fe8 48bf a3cc 093f 7cf8 ac3e b900 433f
000003f0: af3c 503f 61e5 6abe d85e 7ebe e61b f9bd

lstm.weight_hh_l1 f4 [32, 8]
-0.20208192 -0.12440549 -0.22336763 0.20371458 -0.07933724 0.08552173 0.27495518 0.056359977
0.31680748 0.08841646 0.13569406 0.30374178 0.17206821 0.10934743 0.24878183 -0.13430785
0.07938889 -0.038095742 -0.057352632 0.33725545 -0.09960294 -0.34932095 0.05101037 -0.01929766
0.08667418 0.2551209 0.18791655 -0.2921597 0.2732047 0.09818888 -0.20109564 -0.063513726
-0.2827828 -0.1382833 0.30876788 -0.26183805 0.06091121 -0.24304697 0.2582067 -0.03382659
-0.11932856 0.2247397 -0.28171957 -0.33263177 -0.12479593 0.26750496 0.04794395 -0.005304992
0.21361652 0.26122513 0.09108865 -0.065087706 0.29681733 0.1629 0.07396388 0.04132232
0.2994099 -0.2620206 0.2855579 -0.081418425 -0.11712365 0.28905967 0.04406464 0.22000483
-0.25499475 -0.23992881 -0.29930916 -0.32495195 0.29866686 0.20865855 0.11097306 -0.117816746
-0.22353892 -0.28408206 0.16717014 0.33037886 0.05646497 -0.06725162 -0.2524297 -0.2671845
-0.2220754 0.21346954 0.05446455 0.20590898 0.045699477 -0.16291092 0.09719926 -0.28914922
0.32506344 0.1688917 -0.15811643 -0.05716738 0.05506295 0.112912625 0.12305224 0.23337188
0.2308698 -0.23440015 -0.181481 -0.061294824 0.15085897 -0.002388388 0.2062045 -0.26566142
0.013296485 0.15537235 0.19099495 0.08311397 0.12800652 0.113135874 -0.057479024 -0.3442417
0.116116375 0.00067189336 0.0593839 0.07189661 0.3067262 0.13389876 0.1201458 -0.14132488
-0.15075468 -0.24519768 0.21439078 0.17877159 -0.26004264 0.08606368 -0.14714532 0.11623657
0.030713588 -0.30141598 0.22076365 0.30243757 -0.3068057 0.32484993 0.20298585 -0.1105739
-0.052328438 -0.034462214 -0.025227934 0.3204656 -0.26347417 0.18278041 -0.23308855 -0.2441389
0.19792268 -0.082952976 -0.0012231767 0.27604285 0.08423668 0.011048287 0.10058877 0.27446792
-0.2272032 -0.10576102 0.3517492 -0.3032834 0.00204736 -0.29441988 0.022087097 0.12907198
0.32844993 -0.34300756 0.17495015 0.19161317 0.05988297 0.29556492 0.02861303 0.12563124
-0.3432674 -0.18463582 -0.11012997 0.19648859 0.11229268 -0.2200084 0.16659126 0.045040727
-0.001572907 0.22214934 -0.21106736 0.16955438 0.12931824 -0.052953184 0.13246328 -0.29676518
0.07660994 0.032108396 -0.3162341 0.2501841 -0.2275983 -0.18120198 0.13828334 0.2872248
0.08329642 0.24020776 0.16386238 -0.20283799 0.013355017 -0.1748457 -0.13315141 -0.26697782
0.054244608 -0.2079893 0.31841692 0.27446756 -0.04680875 -0.14626314 0.16135743 -0.1482294
0.12951195 0.2791902 0.16715291 0.23304966 -0.023619443 -0.0491668 -0.22649801 0.32155696
-0.28983378 0.28296086 0.30592844 -0.3156191 -0.00556919 0.18626103 0.19341859 0.1813707
-0.09369472 0.14215133 0.339331 -0.3515023 -0.34758508 -0.09382129 -0.12150207 -0.058980644
0.10010871 0.21944109 -0.254026 0.28261492 -0.20556228 0.031071573 0.053990155 -0.15126567
-0.21637104 0.1316942 -0.26741725 -0.20850766 0.026045501 0.24269333 0.22728959 -0.014916539
-0.004666716 -0.31377304 0.18154839 -0.22781914 0.020335227 0.013107806 0.0069639385 -0.34742588
00000000: 90ee 4ebe 4ec8 febd 7cba 64be 8e9a 503e
00000010: 907b a2bd 0426 af3d edc6 8c3e b8d9 663d
00000020: 9734 a23e b013 b53d 62f3 0a3e 0b84 9b3e
00000030: a632 303e 8cf1 df3d aac0 7e3e ff87 09be
00000040: a496 a23d 480a 1cbd 98ea 6abd bfac ac3e
00000050: a0fc cbbd 32da b2be 40f0 503d 2016 9ebc
00000060: 3c82 b13d 359f 823e 326d 403e f595 95be
00000070: 7de1 8b3e 4017 c93d 04ec 4dbe 7c13 82bd
00000080: e8c8 90be 239a 0dbe d316 9e3e a30f 86be
00000090: 087e 793d 4ee1 78be ab33 843e c08d 0abd
000000a0: 8862 f4bd 2a22 663e 8c3d 90be b64e aabe
000000b0: 0295 ffbd 69f6 883e e060 443d 80d5 adbb
000000c0: 4abe 5a3e 4dbf 853e b08c ba3d b44c 85bd
000000d0: 71f8 973e 42cf 263e 607a 973d 9841 293d
000000e0: 414c 993e 9027 86be a534 923e b4be a6bd
000000f0: 86de efbd a1ff 933e 207d 343d f248 613e
00000100: ac8e 82be e6af 75be 0d3f 99be 1a60 a6be
00000110: ddea 983e 96aa 553e d845 e33d e849 f1bd
00000120: 63e7 64be 3473 91be a62e 2b3e 6b27 a93e
00000130: d047 673d 38bb 89bd 773e 81be 68cc 88be
00000140: bc67 63be c297 5a3e 3816 5f3d ced9 523e
00000150: 602f 3b3d 1fd2 26be 6810 c73d 5e0b 94be
00000160: b76e a63e f2f1 2c3e 46e9 21be 5828 6abd
00000170: b089 613d bc3e e73d d002 fc3d 0af9 6e3e
00000180: 2269 6c3e 9806 70be 28d6 39be 4810 7bbd
00000190: c67a 1a3e 8086 1cbb 4627 533e c604 88be
000001a0: 80d9 593c ee19 1f3e 2e94 433e a837 aa3d
000001b0: 2414 033e c8b3 e73d 206f 6bbd 7340 b0be
000001c0: 6cce ed3d 0022 303a 883c 733d 883e 933d
000001d0: 370b 9d3e c21c 093e 000f f63d 78b7 10be
000001e0: 6f5f 1abe 1a15 7bbe 4289 5b3e e60f 373e
000001f0: 4f24 85be 2842 b03d 43ad 16be 700d ee3d
00000200: 109b fb3c 3253 9abe de0f 623e 19d9 9a3e
00000210: a315 9dbe bb52 a63e 86db 4f3e 9274 e2bd
00000220: 5856 56bd 4028 0dbd d0aa cebc 1114 a43e
00000230: 16e6 86be ca2a 3b3e c4ae 6ebe 8cff 79be
00000240: 3eac 4a3e 40e3 a9bd 0053 a0ba 7d55 8d3e
00000250: 4884 ac3d e003 353c 7c01 ce3d 0f87 8c3e
00000260: f5a7 68be 3c99 d8bd 7918 b43e f647 9bbe
00000270: 002d 063b 34be 96be 00f0 b43c 722b 043e
00000280: 972a a83e b09e afbe 2226 333e 3e36 443e
00000290: d847 753d 4954 973e e065 ea3c 7aa5 003e
000002a0: bfc0 afbe 2c11 3dbe d28b e1bd 4e34 493e
000002b0: b4f9 e53d e249 61be e696 2a3e a07c 383d
000002c0: 002a ceba 1e7b 633e 0b22 58be aa9f 2d3e
000002d0: 006c 043e 70e5 58bd 74a4 073e 9bf1 97be
000002e0: ace5 9c3d 1884 033d 70e9 a1be 2118 803e
000002f0: 870f 69be 038d 39be 269a 0d3e 210f 933e
00000300: 5097 aa3d 06f9 753e 8acb 273e c3b4 4fbe
00000310: 00cf 5a3c c00a 33be d858 08be 51b1 88be
00000320: 982f 5e3d 26fb 54be 8b07 a33e 0387 8c3e
00000330: 88ba 3fbd 01c6 15be e23a 253e 73c9 17be
00000340: c89e 043e 05f2 8e3e 222a 2b3e 92a4 6e3e
00000350: 907d c1bc 2063 49bd 18ef 67be 1da3 a43e
00000360: 1865 94be 3fe0 903e a7a2 9c3e d498 a1be
00000370: c07d b6bb 36bb 3e3e 860f 463e 3eb9 393e
00000380: 04e3 bfbd 1e90 113e cbbc ad3e 1cf8 b3be
00000390: acf6 b1be 6025 c0bd 14d6 f8bd b095 71bd
000003a0: cc05 cd3d 2ab5 603e b20f 82be e7b2 903e
000003b0: eb7e 52be d089 fe3c c824 5d3d 63e5 1abe
000003c0: 5f90 5dbe d8da 063e eaea 88be 0883 55be
000003d0: 605d d53c 9a84 783e 9abe 683e 8064 74bc
000003e0: 40eb 98bb dca6 a0be d2e7 393e 6c49 69be
000003f0: 1096 a63c 20c2 563c c031 e43b cee1 b1be

lstm.bias_ih_l1 f4 [32]
0.35306826 0.78790164 0.5431887 0.45229125 1.0389647 0.3467878 0.55130666 1.3701891
-0.3495854 0.032835633 0.045593023 -0.29531273 -0.086799204 0.3134621 -0.32444432 0.25893
-0.06073974 0.4116528 0.544387 -0.79296124 -0.37007308 -0.35393876 0.49247214 0.25311264
0.51192945 0.9774539 0.8951909 0.53608894 0.9918129 0.20282902 0.49511006 0.8806779
00000000: 5dc5 b43e ecb3 493f 6a0e 0b3f b892 e73e
00000010: ccfc 843f 2c8e b13e 6f22 0d3f 5b62 af3f
00000020: dcfc b2be a87e 063d c0bf 3a3d 3b33 97be
00000030: c8c3 b1bd 1b7e a03e 911d a6be 7992 843e
00000040: 3cca 78bd 28c4 d23e f25c 0b3f 82ff 4abf
00000050: 387a bdbe 7637 b5be 4f25 fc3e fb97 813e
00000060: cf0d 033f 6b3a 7a3f 3b2b 653f 203d 093f
00000070: 73e7 7d3f 69b2 4f3e 117f fd3e 1b74 613f

lstm.bias_hh_l1 f4 [32]
0.46016982 0.920201 0.9657803 0.3602709 0.8455241 0.22633693 0.5186104 0.995393
0.07394871 -0.28992462 -0.16608787 0.06747761 -0.30566314 0.10342258 0.244234 -0.121898174
-0.22806668 0.46316022 0.19867449 -0.12595335 -0.41436777 -0.19854575 0.622053 0.48768866
0.31786254 1.2100228 0.93682754 0.18818858 0.9229314 0.3334487 0.7730768 0.94638216
00000000: 619b eb3e 4b92 6b3f 613d 773f 6d75 b83e
00000010: 4474 583f dec4 673e a7c3 043f 13d2 7e3f
00000020: 6c72 973d 0071 94be f012 2abe b431 8a3d
00000030: e17f 9cbe 38cf d33d 7a18 7a3e c0a5 f9bd
00000040: 508a 69be 5623 ed3e 5371 4b3e eaf9 00be
00000050: 0328 d4be 944f 4bbe de3e 1f3f 54b2 f93e
00000060: e1be a23e 07e2 9a3f eed3 6f3f 82b4 403e
00000070: 3b45 6c3f cab9 aa3e 5ce8 453f 1a46 723f

lstm.weight_ih_l2 f4 [32, 8]
0.9079982 -0.47625694 -0.058378678 -0.16168948 0.57384646 0.35511258 0.3547046 -0.56902254
-0.11160985 0.6363094 0.49724203 -0.9025018 -0.8213636 -0.6230007 0.67327315 0.7775675
0.48132333 -0.0098592965 -0.09848908 -0.43526068 -0.0142676355 0.63407284 1.1723812 0.16685097
1.0985051 -0.2786314 -0.0330625 -0.46408296 -0.2878134 0.37336782 0.79141974 -0.45553884
0.51461715 -0.4313646 -0.14799419 -0.4385662 -0.2596686 0.5095753 1.0689307 -0.49039057
0.098782 0.27204055 0.48246366 -0.13228571 -0.5065557 -0.06190293 0.733873 0.3442926
-0.13771138 1.0580858 0.6496914 -0.5287343 -0.6200069 -0.37415215 0.82228905 1.1148286
0.3465863 -0.8423039 -0.16293035 0.13652831 0.82554007 -0.017117167 -0.2598867 -0.9940979
0.29224232 0.09119287 0.23389462 0.22762397 0.021046191 0.26088306 0.19421616 0.11762759
-0.006616473 -0.025526732 -0.2805257 0.34514198 -0.030228764 -0.13099459 -0.30826077 0.1154075
0.3278912 -0.0060974658 -0.042881638 0.1805012 0.14570695 -0.040245175 -0.3389476 0.14353618
-0.1273912 0.035615176 0.06282452 -0.08890569 -0.093573004 -0.25176618 -0.3462645 -0.037932068
0.1657162 -0.24159956 0.022222936 -0.03644654 -0.33874807 -0.07321772 -0.2297796 -0.23386885
0.08350158 -0.13328418 -0.2796161 -0.098976314 0.20468673 0.05781141 0.07739535 0.21262315
-0.10133734 0.046736687 -0.09008786 -0.1356353 -0.088778794 -0.11025366 0.045341372 0.18332532
0.17479518 -0.073945165 0.07392773 -0.28373122 -0.13731144 -0.12564851 0.26675954 0.26833478
0.41567346 -1.335259 -0.8072836 0.47956714 1.1180011 0.68325925 -1.0897555 -1.1674995
0.6318437 -0.85345787 -0.8274924 0.87195456 0.96982384 0.5935507 -0.9051821 -0.9447426
0.82181805 -1.2978688 -0.34221235 0.8152918 0.77789456 0.60400164 -0.45700058 -1.2441074
0.90254086 -1.2495799 -0.40081453 0.6592009 0.8319055 0.42602825 -0.55287814 -1.1716827
0.8074005 -0.8871897 -0.6763433 0.7973054 1.1863672 0.31817856 -0.6462421 -1.319724
0.7479691 -1.0066372 -0.317606 0.6024476 0.8961175 0.18339083 -0.5421237 -1.1839969
0.56097406 -0.9617115 -0.7135455 0.43951675 1.3696055 0.2306762 -0.50712085 -1.1107836
-0.3893811 0.8717477 0.69938064 -0.56231457 -0.8553939 -0.4669848 0.9664702 0.9207001
0.2979256 -0.8036065 -0.3166091 -0.28959405 0.1787423 0.6546359 0.22047828 -0.8830832
0.07772396 0.80535084 0.8771513 -0.7203012 -0.95914334 -0.04658557 0.6718476 0.7795761
0.25330162 0.21427594 -0.29240236 -0.49482605 -0.31511143 0.6046991 1.1427196 -0.064252146
0.51254505 -0.8084192 -0.22042967 -0.677409 -0.0808317 0.42955607 0.89310515 -0.18388775
0.42581207 -0.23066656 0.061185237 -0.3780644 0.004484849 0.3288433 0.5183417 -0.5115669
-0.074966595 0.3681403 0.5096815 -0.15464558 -0.9351901 -0.1534823 0.9209965 0.5798329
-0.16595556 1.2567164 0.46519017 -0.7594134 -1.272062 -0.6502244 0.98090094 1.1376776
0.33656615 -0.94072473 -0.33161893 0.40217578 0.567895 0.2095663 -0.42201385 -0.8742968
00000000: 9272 683f f3d7 f3be 7b1e 6fbd ed91 25be
00000010: 9ae7 123f 51d1 b53e d79b b53e 76ab 11bf
00000020: b493 e4bd 2ce5 223f 8296 fe3e 5c0a 67bf
00000030: e344 52bf f97c 1fbf a15b 2c3f aa0e 473f
00000040: 0370 f63e e388 21bc a5b4 c9bd 7dda debe
00000050: cdc2 69bc 9952 223f 9610 963f fbda 2a3e
00000060: d19b 8c3f c6a8 8ebe 8b6c 07bd 489c edbe
00000070: 475c 93be 112a bf3e 7c9a 4a3f 633c e9be
00000080: f3bd 033f d2db dcbe ca8b 17be c08b e0be
00000090: 48f3 84be 8773 023f b9d2 883f 7914 fbbe
000000a0: 384e ca3d e648 8b3e 7a05 f73e e875 07be
000000b0: a2ad 01bf ed8d 7dbd 1adf 3b3f 1f47 b03e
000000c0: 3604 0dbe 5b6f 873f 2d52 263f 225b 07bf
000000d0: c6b8 1ebf df90 bfbe 8981 523f b4b2 8e3f
000000e0: c273 b13e 3aa1 57bf 37d7 26be 14ce 0b3e
000000f0: 9856 533f 4d39 8cbc df0f 85be 337d 7ebf
00000100: c9a0 953e 54c3 ba3d 1282 6f3e 4216 693e
00000110: 1069 ac3c 7792 853e 9ae0 463e bce6 f03d
00000120: 00cf d8bb 701d d1bc 11a1 8fbe 73b6 b03e
00000130: 50a2 f7bc 7223 06be 5bd4 9dbe c45a ec3d
00000140: 5be1 a73e 40cd c7bb a8a4 2fbd 4ed5 383e
00000150: 3434 153e 20d8 24bd 8a8a adbe 26fb 123e
00000160: d772 02be 38e1 113d 24aa 803d 3014 b6bd
00000170: 34a3 bfbd 7fe7 80be 9549 b1be a85e 1bbd
00000180: 82b1 293e e065 77be e00c b63c f848 15bd
00000190: 6370 adbe 2cf3 95bd 584b 6bbe 517b 6fbe
000001a0: e002 ab3d a67b 08be d729 8fbe 18b4 cabd
000001b0: 6699 513e a8cb 6c3d 7481 9e3d e2b9 593e
000001c0: f489 cfbd f86e 3f3d fc7f b8bd fbe3 0abe
000001d0: a8d1 b5bd accc e1bd e0b7 393d a2b9 3b3e
000001e0: 82fd 323e 9070 97bd 6c67 973d 3845 91be
000001f0: 5f9b 0cbe 01aa 00be b594 883e 2d63 893e
00000200: 27d3 d43e c4e9 aabf 23aa 4ebf d389 f53e
00000210: a91a 8f3f 14ea 2e3f 1c7d 8bbf a070 95bf
00000220: 82c0 213f 377c 5abf 8bd6 53bf 6a38 5f3f
00000230: 6046 783f f0f2 173f 04ba 67bf a7da 71bf
00000240: ab62 523f 9120 a6bf 7536 afbe f7b6 503f
00000250: 1924 473f da9f 1a3f fbfb e9be e93e 9fbf
00000260: eb0c 673f 3cf2 9fbf 9037 cdbe 64c1 283f
00000270: c2f7 543f 6020 da3e 6c89 0dbf b3f9 95bf
00000280: cdb1 4e3f dd1e 63bf d624 2dbf 351c 4c3f
00000290: e1da 973f 4de8 a23e 1f70 25bf b7ec a8bf
000002a0: e77a 3f3f 7dd9 80bf 419d a2be 023a 1a3f
000002b0: f567 653f ceca 3b3e 9ec8 0abf 368d 97bf
000002c0: ff9b 0f3f ba32 76bf ebaa 36bf 5708 e13e
000002d0: 3c4f af3f 6236 6c3e acd2 01bf 282e 8ebf
000002e0: f65c c7be db2a 5f3f 9c0a 333f d9f3 0fbf
000002f0: 18fb 5abf a218 efbe 976a 773f 00b3 6b3f
00000300: b489 983e 28b9 4dbf 971a a2be ac45 94be
00000310: 3908 373e 3896 273f 0fc5 613e be11 62bf
00000320: bd2d 9f3d 792b 4e3f fd8c 603f a965 38bf
00000330: 6b8a 75bf 83d0 3ebd 34fe 2b3f 4d92 473f
00000340: c0b0 813e 276b 5b3e c3b5 95be d759 fdbe
00000350: 4956 a1be 8fcd 1a3f a344 923f a196 83bd
00000360: 2736 033f 90f4 4ebf 51b8 61be ad6a 2dbf
00000370: 178b a5bd c6ee db3e 8aa2 643f 124d 3cbe
00000380: 0a04 da3e db33 6cbe 5f9d 7a3d a891 c1be
00000390: a4f5 923b 265e a83e 0bb2 043f 0cf6 02bf
000003a0: 1688 99bd e37c bc3e 7d7a 023f 695b 1ebe
000003b0: 9e68 6fbf 772a 1dbe 6dc6 6b3f ee6f 143f
000003c0: 41f0 29be 15dc a03f 682d ee3e eb68 42bf
000003d0: edd2 a2bf 1b75 26bf 531c 7b3f 6b9f 913f
000003e0: 6652 ac3e 56d3 70bf f5c9 a9be fce9 cd3e
000003f0: 9161 113f 8c98 563e 3312 d8be ead1 5fbf

lstm.weight_hh_l2 f4 [32, 8]
-0.020963013 0.19639692 0.3088816 0.022082627 -0.17034525 -0.30337045 -0.25720507 0.009619921
0.26936892 0.046686202 0.22964421 0.16820142 -0.08834109 0.27084443 0.13025594 -0.31586435
-0.1909575 -0.20399053 0.25675866 0.0175955 -0.15065682 0.13166937 0.011836559 -0.30317003
0.062384784 0.12693024 -0.11482622 0.28720853 -0.29710722 -0.25924897 0.12648249 0.212289
-0.22570649 -0.29001364 0.13755623 0.16081545 0.03772521 -0.3301875 0.13073745 -0.22968405
-0.055012047 0.2807546 -0.055640787 -0.06514028 -0.14733104 0.19091496 0.33719012 -0.23516348
0.3269358 0.18457559 -0.21160032 -0.1416411 0.26582137 0.26357457 0.053148955 -0.24663438
0.24511501 -0.34945342 -0.2328107 0.3385541 -0.30407253 -0.024565846 -0.26543945 0.1732612
-0.13923456 0.081136346 -0.20306617 -0.017126083 -0.20774467 -0.1566586 -0.34301123 -0.18699802
-0.2555376 0.09487146 0.010197341 -0.28397426 -0.27773008 -0.004695505 0.072993755 -0.009064764
-0.020346671 0.2094135 -0.2861462 -0.03210938 0.058341384 0.010883778 0.14828375 -0.194475
-0.01262489 -0.23709697 -0.22313535 0.023320824 -0.082874686 -0.14136621 -0.25118136 0.034988582
-0.32516837 0.16640517 -0.19789083 -0.11019099 0.2683495 0.1293872 -0.23866293 -0.11862193
-0.19506784 0.22582772 0.29725942 0.3289067 0.098939925 -0.008412421 -0.3425259 -0.07824355
0.30647114 0.003380388 0.30559328 0.31398854 0.27083406 0.12286332 0.14527264 0.19251779
0.18078151 -0.13185865 -0.004909694 -0.3312328 0.32184073 -0.18006474 0.15590248 -0.084938794
-0.22790073 0.046387315 0.17189637 -0.015708983 -0.18289857 -0.2789444 0.30080852 -0.30901322
-0.34535444 0.15806875 0.15431598 -0.056201458 0.17212757 0.087803066 -0.055609465 0.15573767
0.17789719 0.032215714 0.23954508 -0.09207323 0.29794237 -0.054424047 -0.34240958 0.15073004
-0.29017726 -0.16378257 0.22370717 -0.13698728 -0.13984257 -0.04440245 -0.15490606 -0.05893314
-0.22513299 -0.28549564 0.07040936 -0.25859892 0.04952061 -0.051653564 -0.33425987 0.10604784
0.27180192 -0.18974587 0.30714628 -0.012015641 0.3465239 -0.079119414 0.140203 0.2774084
-0.18740912 0.27795932 0.30728588 0.30731407 -0.09986317 -0.17194936 0.0264436 -0.21902397
0.013953596 0.09796777 -0.32981205 0.332817 -0.039666623 0.1758447 0.29917887 -0.2827035
-0.3397445 -0.22264098 0.015630752 -0.15708855 -0.010029554 0.11712924 0.09908879 0.03300175
0.034862995 -0.31415397 0.010170281 -0.18951929 -0.24834153 -0.015906125 -0.1959098 0.060766935
-0.047438174 0.06212172 0.15991524 -0.10765822 -0.060430855 0.13316995 -0.34442 0.2815738
-0.2723742 -0.17490621 0.03405142 0.32611462 -0.24011695 0.008652449 0.27786067 -0.1173469
0.037566632 0.31594637 -0.17221649 0.13238755 -0.01848349 -0.25516805 0.016587496 -0.26755813
-0.037282974 -0.20540169 0.28420958 0.22347817 0.09064004 0.055327177 -0.23358634 0.13350567
-0.0549576 -0.0061802566 0.33837137 -0.09820485 0.14468512 -0.076987535 0.2862403 -0.018776625
0.16770568 0.21999553 0.3060504 -0.049269825 0.0521695 -0.24176052 0.008141458 0.23051003
00000000: a0ba abbc 461c 493e bb25 9e3e a0e6 b43c
00000010: fc6e 2ebe 5f53 9bbe 62b0 83be e09c 1d3c
00000020: b9ea 893e 083a 3f3d da27 6b3e fe3c 2c3e
00000030: 2cec b4bd 1fac 8a3e d061 053e f9b8 a1be
00000040: 5d8a 43be e5e2 50be df75 833e 7024 903c
00000050: c845 1abe 56d4 063e 20ee 413c 1a39 9bbe
00000060: 3087 7f3d 00fa 013e 022a ebbd ff0c 933e
00000070: 701e 98be 48bc 84be a084 013e 4a62 593e
00000080: 9a1f 67be ab7c 94be 8adb 0c3e ceac 243e
00000090: c085 1a3d 560e a9be 0ae0 053e 4c32 6bbe
000000a0: 5054 61bd 11bf 8f3e 98e7 63bd 4468 85bd
000000b0: f3dd 16be 367f 433e 2fa4 ac3e b2ce 70be
000000c0: 2164 a73e 6201 3d3e c1ad 58be 5d0a 11be
000000d0: bd19 883e 3ff3 863e b8b2 593d b98d 7cbe
000000e0: 6eff 7a3e 8feb b2be ee65 6ebe f756 ad3e
000000f0: 65af 9bbe 503e c9bc aee7 87be 626b 313e
00000100: 8193 0ebe d02a a63d 94f0 4fbe 004c 8cbc
00000110: 05bb 54be 1d6b 20be 2b9f afbe 697c 3fbe
00000120: d3d5 82be f84b c23d c012 273c 1365 91be
00000130: a332 8ebe c0dc 99bb c07d 953d 6084 14bc
00000140: 10ae a6bc 7e70 563e c181 92be 2085 03bd
00000150: 60f7 6e3d e051 323c b2d7 173e 7424 47be
00000160: a0d8 4ebc 8cc9 72be 987d 64be 500b bf3c
00000170: 34ba a9bd 4ec2 10be d89a 80be 3050 0f3d
00000180: 787c a6be 1e66 2a3e e5a3 4abe d0ab e1bd
00000190: 1b65 893e 147e 043e 0e64 74be 0ef0 f2bd
000001a0: ddbf 47be 623f 673e 6332 983e 7566 a83e
000001b0: 04a1 ca3d 40d4 09bc 8e5f afbe 283e a0bd
000001c0: c9e9 9c3e 8089 5d3b b976 9c3e 1bc3 a03e
000001d0: c3aa 8a3e c49f fb3d 5ac2 143e 6223 453e
000001e0: ca1e 393e f405 07be 80e1 a0bb 5897 a9be
000001f0: 4fc8 a43e e462 38be e6a4 1f3e 64f4 adbd
00000200: cf5e 69be a000 3e3d 9a05 303e 20b0 80bc
00000210: c349 3bbe cdd1 8ebe 9303 9a3e fb36 9ebe
00000220: 4cd2 b0be c6dc 213e 0205 1e3e 8033 66bd
00000230: 3642 303e 18d2 b33d c0c6 63bd b279 1f3e
00000240: ae2a 363e a0f4 033d 4e4b 753e e490 bcbd
00000250: e78b 983e c0eb 5ebd 4f50 afbe fa58 1a3e
00000260: 1d92 94be 9eb6 27be 7e13 653e 6546 0cbe
00000270: e432 0fbe 58df 35bd b29f 1ebe e063 71bd
00000280: 4389 66be 7c2c 92be c832 903d 1467 84be
00000290: 20d6 4a3d b092 53bd 1c24 abbe 9c2f d93d
000002a0: 9f29 8b3e be4c 42be 4742 9d3e 40dd 44bc
000002b0: 956b b13e 5c09 a2bd 6091 0f3e 7908 8e3e
000002c0: 2de8 3fbe af50 8e3e 9354 9d3e 4558 9d3e
000002d0: 1085 ccbd 7e13 30be 40a0 d83c d247 60be
000002e0: a09d 643c 54a3 c83d 20dd a8be fd66 aa3e
000002f0: 7879 22bd a210 343e f92d 993e 83be 90be
00000300: fef2 adbe fffb 63be 100c 803c d2db 20be
00000310: 0053 24bc 74e1 ef3d 10ef ca3d d82c 073d
00000320: 80cc 0e3d cad8 a0be 40a1 263c 5811 42be
00000330: 3e4d 7ebe 904d 82bc 949c 48be c0e6 783d
00000340: 884e 42bd 5873 7e3d d2c0 233e ea7b dcbd
00000350: 5886 77bd b45d 083e d157 b0be 712a 903e
00000360: a274 8bbe 9d1a 33be 8079 0b3d 7ff8 a63e
00000370: 38e1 75be 00c3 0d3c c143 8e3e 9253 f0bd
00000380: 78df 193d b9c3 a13e 8559 30be 9a90 073e
00000390: b06a 97bc 63a5 82be 80e2 873c 61fd 88be
000003a0: 08b6 18bd d254 52be eb83 913e 76d7 643e
000003b0: 7ca1 b93d c09e 623d 4231 6fbe b6b5 083e
000003c0: 381b 61bd c083 cabb 033f ad3e a01f c9bd
000003d0: 5628 143e a4ab 9dbd 178e 923e 70d1 99bc
000003e0: 0abb 2b3e 8246 613e a3b2 9c3e 28cf 49bd
000003f0: b0af 553d 1290 77be c063 053c d20a 6c3e

lstm.bias_ih_l2 f4 [32]
1.0947236 0.23887767 1.2358228 0.85416067 0.9472358 1.051948 0.63733196 0.39956626
0.0033695102 0.3175026 -0.24758777 -0.036751956 0.28373715 0.24972197 0.02520585 -0.08495164
-0.13180104 -0.33203664 -0.4243076 -0.21674277 -0.30596262 -0.251923 -0.52721894 -0.15621816
1.1201841 0.7600119 1.0427308 1.0902721 1.3976425 0.5893092 0.6379939 0.2452665
00000000: e71f 8c3f 599c 743e 712f 9e3f 46aa 5a3f
00000010: 0c7e 723f 3ba6 863f 3028 233f f393 cc3e
00000020: 00d3 5c3b b38f a23e a687 7dbe 3889 16bd
00000030: ff45 913e 1eb7 7f3e 807c ce3c 20fb adbd
00000040: daf6 06be b500 aabe d93e d9be d1f1 5dbe
00000050: 22a7 9cbe 0dfc 80be d2f7 06bf a7f7 1fbe
00000060: 3162 8f3f 2490 423f 3478 853f 098e 8b3f
00000070: f3e5 b23f f8dc 163f 9153 233f 2427 7b3e

lstm.bias_hh_l2 f4 [32]
0.641883 0.29099151 1.284037 1.2294428 1.4633709 0.802643 0.8395998 0.5060583
-0.060070634 0.22294351 -0.20136483 -0.10479295 0.09899762 0.048484355 -0.24915025 -0.09375709
-0.15691455 -0.27168456 -0.24596205 -0.38627446 -0.17321664 -0.6441421 -0.30795684 -0.032328658
0.49433792 0.22642867 1.0144587 1.1023966 0.8776313 0.49715286 0.3724369 0.60496557
00000000: 7252 243f d7fc 943e 535b a43f 625e 9d3f
00000010: bd4f bb3f 037a 4d3f 03f0 563f 098d 013f
00000020: a00c 76bd 4e4b 643e 9532 4ebe b09d d6bd
00000030: 44bf ca3d 8897 463d 3e21 7fbe b803 c0bd
00000040: 35ae 20be 3d1a 8bbe 7add 7bbe c4c5 c5be
00000050: b45f 31be 7fe6 24bf 85ac 9dbe 0e6b 04bd
00000060: dc19 fd3e ebdc 673e c8d9 813f 551b 8d3f
00000070: 72ac 603f d28a fe3e 0db0 be3e 06df 1a3f

lstm.weight_ih_l3 f4 [32, 8]
0.47354594 -0.5812554 -0.1937948 -0.13392815 0.17488363 -0.44875097 -0.74112743 -0.19907917
0.42059517 -0.8795286 -0.019481955 0.3810617 -0.112428255 -0.65684503 -0.42502627 -0.013320204
0.20086557 -0.862812 -0.54353166 -0.09227431 -0.44923192 -0.7412911 -1.1982527 -0.060682546
-0.028917078 -0.51844096 0.16737163 -0.108326666 -0.015026157 -0.2795637 -0.730157 -0.5696343
-0.6898098 -0.39178094 -0.86863357 -0.8411366 -0.40330487 -0.6509946 -0.90944284 0.28041244
-0.43885517 -0.4262532 -0.7841182 -0.34174442 -0.87411004 -1.0138719 -0.85872304 -0.18120804
-0.20979825 -0.88469267 -0.5983493 -0.25336906 -0.4478979 -0.69100153 -0.9677834 -0.02058635
0.51485956 0.14915618 0.53942376 0.524611 0.7423768 0.6414184 0.12873943 -0.54153043
0.07304323 -0.18310471 -0.28629518 -0.29158837 0.23661014 0.011034757 -0.14017962 0.034956604
0.06862098 0.015433162 -0.032129377 0.16228351 -0.1496791 -0.030076504 -0.31034702 -0.28411055
-0.20106247 0.06728682 0.17093709 -0.2883779 0.33510897 0.25201812 -0.15753834 0.10808855
-0.2644209 0.31419381 0.15506658 0.15419069 0.16548899 -0.18542345 -0.11083558 -0.34281212
0.2264739 0.16770431 0.26749578 -0.31718832 0.339471 -0.21099614 -0.22562476 -0.035736322
-0.29447892 0.21127155 -0.14301905 -0.18953918 0.1386866 0.29942194 0.31502083 0.33871767
-0.12814921 -0.013997465 0.34824923 0.29138824 -0.3017924 0.1397692 -0.24348664 -0.086364925
-0.09904483 -0.08499944 -0.31832826 0.3321685 0.19514331 0.30411068 0.18523052 -0.13904257
1.1824714 0.5686069 1.3397199 0.8808456 1.123636 0.6789391 0.8846758 -0.76497287
-0.59811133 -0.7970662 -1.1698767 -1.2674756 -0.9673338 -0.54906976 -0.66422683 0.67437094
1.0837129 0.70768684 0.814803 1.2565696 1.0031114 0.91590047 0.84892666 -0.6687876
0.5937235 0.82331926 1.2107286 1.1856331 1.1429439 0.48379275 0.67166203 -0.35126123
1.0159916 0.63561577 1.0084721 1.1659273 1.0247636 0.37005323 0.7767606 -0.6561342
0.86557305 0.6877325 0.7387048 0.8889228 1.2048652 0.59900486 0.90292645 -0.5531581
0.867656 0.50131595 1.1714606 0.97932345 1.0398555 0.9895702 0.8772241 -0.38327146
0.625059 0.6998539 1.0089116 0.36540186 0.9621053 0.8744388 0.27070758 -0.58181304
0.4473066 -1.1025178 -0.13006638 0.24994703 0.24638152 -0.7991229 -1.0299355 -0.0005417714
0.5443389 -0.75368476 -0.1798917 -0.0505929 0.25704473 -0.72384703 -0.7618426 -0.6050866
-0.20623489 -0.50383806 -0.8559589 0.09940996 -0.6694411 -0.5244513 -1.2748274 -0.41452977
0.37309924 -0.6623051 -0.29589716 0.06669095 0.0999881 -0.5242432 -0.82082194 -0.28248033
-0.5769628 -0.92401236 -0.8760241 -0.6991541 -0.9801503 -1.0682138 -0.53236604 -0.16203839
-0.68603975 -0.52619743 -0.8557642 -0.5676993 -0.8933203 -0.37198606 -1.0374484 -0.12211968
-0.3469145 -0.69693285 -0.7641545 -0.7700246 -0.50404376 -0.5764906 -0.8046159 0.2108407
0.15963848 0.5155596 0.6779703 0.17566273 0.75147575 0.4956063 0.4966172 -0.3618983
00000000: 9d74 f23e 27cd 14bf 2572 46be 7624 09be
00000010: b214 333e b0c2 e5be 87ba 3dbf 69db 4bbe
00000020: 4058 d73e c928 61bf 9f98 9fbc 851a c33e
00000030: c940 e6bd ff26 28bf 0b9d d9be fc3c 5abc
00000040: b4af 4d3e 3fe1 5cbf e424 0bbf 50fa bcbd
00000050: ba01 e6be 41c5 3dbf 5860 99bf 438e 78bd
00000060: 82e3 ecbc 8cb8 04bf 7863 2b3e 5fda ddbd
00000070: 4530 76bc f922 8fbe 92eb 3abf 8ed3 11bf
00000080: 6097 30bf 8397 c8be c55e 5ebf ba54 57bf
00000090: fa7d cebe 95a7 26bf 3fd1 68bf 3892 8f3e
000000a0: a0b1 e0be dc3d dabe f8bb 48bf 20f9 aebe
000000b0: adc5 5fbf 8ec6 81bf 46d5 5bbf 9a8e 39be
000000c0: 5ad5 56be 387b 62bf 6b2d 19bf 97b9 81be
000000d0: e052 e5be 7ae5 30bf a7c0 77bf b4a4 a8bc
000000e0: d6cd 033f 66bc 183e ad17 0a3f e84c 063f
000000f0: 680c 3e3f ff33 243f 45d4 033e bda1 0abf
00000100: b097 953d cd7f 3bbe 4895 92be 124b 95be
00000110: ee49 723e 20cb 343c 3f8b 0fbe a82e 0f3d
00000120: 2889 8c3d 60db 7c3c 189a 03bd a62d 263e
00000130: 7a45 19be 0063 f6bc cee5 9ebe f076 91be
00000140: 52e3 4dbe accd 893d 220a 2f3e 45a6 93be
00000150: 6793 ab3e 8508 813e bb51 21be 885d dd3d
00000160: 2d62 87be 03de a03e c6c9 1e3e 2ae4 1d3e
00000170: f275 293e a5df 3dbe c4fd e2bd 1285 afbe
00000180: c6e8 673e aeba 2b3e 35f5 883e 8266 a2be
00000190: 25cf ad3e 5f0f 58be 2d0a 67be 4060 12bd
000001a0: f1c5 96be 9257 583e 9673 12be 8f16 42be
000001b0: dc03 0e3e d54d 993e 694a a13e 676c ad3e
000001c0: 8c39 03be a055 65bc b94d b23e d730 953e
000001d0: 8984 9abe a81f 0f3e 9054 79be 18e0 b0bd
000001e0: 04d8 cabd 3014 aebd ecfb a2be fd11 aa3e
000001f0: a6d3 473e 65b4 9b3e 12ad 3d3e 2d61 0ebe
00000200: 395b 973f 3990 113f f17b ab3f 197f 613f
00000210: 4ed3 8f3f f4ce 2d3f 1d7a 623f 43d5 43bf
00000220: d31d 19bf 880c 4cbf 85be 95bf a43c a2bf
00000230: 30a3 77bf d68f 0cbf c50a 2abf 93a3 2c3f
00000240: 1bb7 8a3f f72a 353f ee96 503f 46d7 a03f
00000250: f465 803f 7478 6a3f 4253 593f aa35 2bbf
00000260: 43fe 173f 0dc5 523f 28f9 9a3f d3c2 973f
00000270: fc4b 923f afb3 f73e 0bf2 2b3f 83d8 b3be
00000280: 030c 823f b7b7 223f 9d15 813f 1b3d 953f
00000290: 742b 833f 9e77 bd3e c8d9 463f 69f8 27bf
000002a0: 3296 5d3f 3d0f 303f c21b 3d3f 7290 633f
000002b0: 0639 9a3f 6258 193f 3026 673f c59b 0dbf
000002c0: b41e 5e3f 3e56 003f 6cf2 953f f1b4 7a3f
000002d0: fc19 853f 7954 7d3f c291 603f 283c c4be
000002e0: de03 203f a029 333f 0424 813f f415 bb3e
000002f0: 884c 763f 39db 5f3f 2f9a 8a3e b3f1 14bf
00000300: 5f05 e53e 4e1f 8dbf 1f30 05be 1df2 7f3e
00000310: 704b 7c3e 5293 4cbf edd4 83bf aa05 0eba
00000320: cb59 0b3f 7cf1 40bf 8835 38be 803a 4fbd
00000330: 5e9b 833e 0a4e 39bf 1e08 43bf f5e6 1abf
00000340: 3d2f 53be 88fb 00bf 1f20 5bbf 7397 cb3d
00000350: 7e60 2bbf 7142 06bf 8b2d a3bf 3f3d d4be
00000360: dd06 bf3e d48c 29bf d57f 97be 4495 883d
00000370: 90c6 cc3d cd34 06bf 6321 52bf 43a1 90be
00000380: d6b3 13bf 138c 6cbf 1e43 60bf c3fb 32bf
00000390: 21eb 7abf 3bbb 88bf 2449 08bf 64ed 25be
000003a0: 4da0 2fbf e0b4 06bf 5d13 5bbf be54 11bf
000003b0: a4b0 64bf f574 bebe 1ccb 84bf e219 fabd
000003c0: c79e b1be 316a 32bf a19f 43bf 5520 45bf
000003d0: 0309 01bf e394 13bf 4ffb 4dbf a0e6 573e
000003e0: 4578 233e b7fb 033f 768f 2d3f eee0 333e
000003f0: b760 403f 1cc0 fd3e 9c44 fe3e bc4a b9be
