ModelSave20.pt (torch_old, 30741 bytes, 45 tensors)

lstm.weight_ih_l0 f4 [32, 6]
1.0019885 0.30987892 -0.790955 0.15449364 1.8297111 -2.494246 0.63750523 -1.5889982
0.31034553 1.3449951 -1.2583877 -0.61240965 -0.9156024 -0.22317007 0.83717984 0.6136999
-1.2597837 1.8196517 -0.2666192 -0.04511474 1.3279828 0.0066938074 -1.8375533 1.7957445
0.07329345 -0.09223501 -0.9119571 -0.14851429 0.44120517 0.40028656 -0.67230785 0.57113546
-0.17216015 -0.5779888 -0.5765134 0.037888862 -0.7332396 0.09771428 2.0382822 0.11703483
0.5717963 2.41685 0.18409577 -0.2488672 -0.73619574 -0.7124663 2.2697225 -2.8687596
0.20013061 -0.089346886 -0.33564806 -0.113769054 -0.05981666 0.104298055 0.019544154 0.10738596
0.33994034 0.21589419 -0.34386513 0.12961367 -0.2681027 -0.07028374 -0.060192615 -0.25779608
-0.18335952 -0.19541298 0.12708077 0.015264034 -0.11726716 0.016037583 0.31535223 -0.3032254
0.3414531 0.23229018 -0.33760244 -0.22071394 0.20420036 0.1264005 0.011411309 -0.017590612
0.15466568 0.14292592 0.21531585 0.010767847 0.2833039 -0.28081825 0.29201296 0.28033027
0.021956235 -0.34995034 -0.058374733 0.30406705 -0.119156554 -0.17987128 -0.33788112 -0.22283995
-0.3000819 -0.23924991 0.95306736 0.15553993 -1.3615844 1.7238446 -0.40440372 -0.96122
0.841463 -0.1829428 3.423728 0.5510448 -0.3339148 0.6114566 -1.5763668 -0.5502672
0.18057863 1.7923863 0.07159373 -0.3978474 2.0723848 1.3599701 1.423637 -0.14667426
-0.30756846 -0.9665385 0.4724853 0.29509807 -0.46390963 -0.6064404 -0.36724705 -0.6658805
-0.5214364 -0.3811565 -0.12747657 0.21468076 0.31177196 -0.51013494 1.0540127 0.77846503
-1.0713934 -1.7484717 0.093287155 0.6442605 -1.724339 -0.60443884 0.88788104 -1.4077269
0.68139786 0.36984655 -0.7928345 -0.24362844 2.2833438 -2.6358054 -0.041640818 -2.0029325
0.89442503 0.9833668 -1.3984902 0.6982068 -0.4958751 -0.088997155 0.6845747 0.14795184
1.3788973 1.9980496 -0.26926136 -0.064147145 1.2996836 -0.49177894 -1.8343228 1.4212174
-0.056151833 -0.041803654 -1.3744467 -0.37620407 0.79254085 0.7495138 -0.61435765 0.056625996
-0.40168947 -0.72830737 -0.52411795 0.11826233 -0.26629147 0.11001035 1.3014731 -0.13695292
1.7134566 1.7353458 0.5676994 0.090734966 -1.1769199 -0.26767462 2.5748718 -2.6756868
00000000: 2941 803f 73a8 9e3e 077c 4abf 9533 1e3e
00000010: f933 ea3f baa1 1fc0 8b33 233f 4b64 cbbf
00000020: 9ce5 9e3e cd28 ac3f d912 a1bf e1c6 1cbf
00000030: eb64 6abf b286 64be 6b51 563f 701b 1d3f
00000040: 9840 a1bf 59ea e83f 5082 88be 3cca 38bd
00000050: 57fb a93f ba57 db3b f234 ebbf f5da e53f
00000060: e01a 963d b5e5 bcbd 0576 69bf 2114 18be
00000070: a5e5 e13e 5cf2 cc3e 5e1c 2cbf ef35 123f
00000080: c04a 30be 13f7 13bf 6296 13bf 5a31 1b3d
00000090: 97b5 3bbf 6d1e c83d 3773 0240 f5af ef3d
000000a0: 3e61 123f acad 1a40 9a83 3c3e 0bd7 7ebe
000000b0: 5377 3cbf 3164 36bf 2243 1140 c299 37c0
000000c0: 0aef 4c3e 80fb b6bd 10da abbe c0ff e8bd
000000d0: 5002 75bd 389a d53d 101b a03c 2ced db3d
000000e0: a90c ae3e 5e13 5d3e 170f b0be 72b9 043e
000000f0: c244 89be ecf0 8fbd 888c 76bd d9fd 83be
00000100: 99c2 3bbe 571a 48be 7621 023e 0016 7a3c
00000110: c429 f0bd 4061 833c d975 a13e 5c40 9bbe
00000120: f1d2 ae3e 7add 6d3e 3ada acbe d602 62be
00000130: e619 513e 226f 013e 80f6 3a3c 301a 90bc
00000140: ae60 1e3e 2c5b 123e c27b 5c3e a06b 303c
00000150: 350d 913e 69c7 8fbe b982 953e 7387 8f3e
00000160: 90dd b33c b12c b3be 581a 6fbd adae 9b3e
00000170: 5a08 f4bd 2d30 38be c1fe acbe 2830 64be
00000180: 56a4 99be eefd 74be 39fc 733f dc45 1f3e
00000190: 6648 aebf f1a6 dc3f 010e cfbe 8412 76bf
000001a0: 1f6a 573f 5b55 3bbe 5c1e 5b40 4611 0d3f
000001b0: e1f6 aabe 6b88 1c3f 63c6 c9bf 50de 0cbf
000001c0: 9be9 383e ea6c e53f bc9f 923d a8b2 cbbe
000001d0: f4a1 0440 8013 ae3f bd39 b63f c731 16be
000001e0: 9d79 9dbe 116f 77bf 98e9 f13e 1817 973e
000001f0: 9085 edbe ae3f 1bbf ce07 bcbe 2577 2abf
00000200: db7c 05bf f226 c3be 3889 02be 46d5 5b3e
00000210: 93a0 9f3e 3498 02bf e3e9 863f 7c49 473f
00000220: 6b23 89bf eccd dfbf 560d bf3d 42ee 243f
00000230: 24b7 dcbf 81bc 1abf 2c4c 633f 6530 b4bf
00000240: 1770 2e3f 875c bd3e 34f7 4abf bc79 79be
00000250: 4e22 1240 09b1 28c0 908f 2abd 0c30 00c0
00000260: 0af9 643f edbd 7b3f ba01 b3bf aebd 323f
00000270: 57e3 fdbe 2444 b6bd 4a40 2f3f b080 173e
00000280: b57f b03f 17c0 ff3f a0dc 89be 945f 83bd
00000290: 085c a63f 73ca fbbe 17cb eabf 74ea b53f
000002a0: 77ff 65bd 4f3a 2bbd dfed afbf d29d c0be
000002b0: f5e3 4a3f 23e0 3f3f 8b46 1dbf a9f0 673d
000002c0: 3eaa cdbe 5a72 3abf 982c 06bf 8533 f23d
000002d0: 5b57 88be 1b4d e13d ac96 a63f 633d 0cbe
000002e0: 8c52 db3f d01f de3f bf54 113f 41d3 b93d
000002f0: 50a5 96bf a60c 89be b3ca 2440 743e 2bc0

lstm.weight_hh_l0 f4 [32, 8]
-0.30728045 0.24084821 0.2516847 0.020474613 -0.17441612 -0.31845373 0.031274438 0.1658428
-0.30213654 -0.05384901 0.0028325617 -0.067849964 0.1952785 0.34838375 -0.19369599 -0.049354434
0.0058222115 -0.3046764 -0.024043143 -0.1602964 0.20590469 0.101368785 -0.34716895 -0.19435799
0.020920098 0.23202798 0.33693752 0.00686118 0.18674359 -0.16419758 -0.03172204 -0.1529765
-0.1449876 0.26783797 -0.16880023 -0.21892612 -0.20300838 -0.08695802 -0.17560986 0.32546374
0.29770032 -0.25931448 -0.23744144 -0.051834762 -0.2651158 -0.2627939 -0.29478562 0.08963013
0.34617743 0.29878476 0.00521785 -0.08767152 0.18077907 0.24921975 0.33734676 0.13586804
-0.047814876 0.2643247 0.08988404 0.03920558 -0.2611843 0.3070478 -0.10767242 -0.13331035
-0.27248496 0.31929412 -0.27792352 0.03080964 0.26296356 0.22410825 -0.05326903 0.19492105
0.3399171 -0.2186938 -0.3478341 0.16358086 -0.32520226 -0.034081876 0.15122852 0.21631959
0.0147437155 -0.09450811 0.23289469 -0.13132124 0.15571937 -0.15028402 -0.08581343 0.323575
-0.0150948465 -0.28458145 -0.24850489 0.34918252 0.12396589 -0.31614017 0.16288123 0.18254372
0.34778377 -0.24053791 0.05009398 0.25354108 0.11457595 -0.28815198 0.21615878 0.11296928
-0.20778918 0.29053786 -0.26749298 -0.2768812 0.021092713 -0.081242055 -0.18456593 0.17808154
-0.17745298 -0.1375542 -0.023823798 0.114712596 -0.20903812 0.32332 -0.09021744 -0.033499926
0.13838583 0.32203034 0.12890929 -0.053989142 0.10512975 -0.25138214 0.13825446 0.15611532
-0.10714917 -0.25276703 0.16781893 -0.09146911 -0.084855944 0.07382634 -0.2569325 -0.21073774
0.20830652 0.30154768 0.10024372 0.08761749 -0.30830133 0.082398385 0.15131846 -0.13715588
0.29473904 0.277988 -0.23421091 -0.1944004 -0.25934744 0.29080155 0.095468014 0.09483728
0.32205197 -0.12891646 -0.033252627 -0.0581702 0.0975118 -0.29974392 -0.32850373 0.09430674
0.25010595 0.29351607 -0.2844038 -0.12358071 -0.3114239 0.04936695 -0.09892452 -0.25124314
0.21603164 -0.002087146 -0.07297173 -0.058733076 -0.19513738 0.010721266 -0.013733387 0.35128948
0.0985581 0.023828566 0.0177522 -0.30131304 0.19037709 0.0617719 0.27498838 -0.14650257
0.34801796 -0.023816586 0.27574554 -0.13569856 0.0016391873 -0.316761 0.2661403 -0.253967
0.23290566 0.23011264 -0.27544752 0.22063008 -0.33029327 0.0576874 0.1574817 0.28664276
0.14658234 0.076265186 -0.027946144 0.06030214 0.20374861 0.25254652 -0.17315763 -0.13235353
-0.098217756 0.12312868 -0.10806885 0.11279991 0.27063623 0.32101443 -0.021616995 0.26788947
-0.30650097 -0.27118006 -0.016022265 -0.1535808 0.17827854 -0.31235474 0.000962466 0.14397341
-0.11487751 0.17219922 0.064053 -0.06560308 0.15385684 -0.14169854 -0.19771726 0.08066073
-0.06429353 -0.3134901 0.22858867 -0.28724357 0.041541845 -0.030591458 0.15596423 0.09975949
0.07055184 0.04488489 0.15280095 -0.09770617 -0.118472636 0.13063613 -0.21731576 -0.2337594
0.1791533 -0.2953488 -0.22707398 0.0060923398 -0.042013884 -0.042303056 0.2233229 -0.20857139
00000000: dd53 9dbe eaa0 763e d1dc 803e 60ba a73c
00000010: 249a 32be 5e0c a3be a019 003d b2d2 293e
00000020: a4b1 9abe c890 5cbd 80a2 393b ecf4 8abd
00000030: 16f7 473e 5b5f b23e 3e58 46be e027 4abd
00000040: 40c8 be3b 8cfe 9bbe 20f6 c4bc bd24 24be
00000050: aed8 523e 709a cf3d 21c0 b1be c805 47be
00000060: a060 ab3c be98 6d3e 1383 ac3e c0d3 e03b
00000070: b639 3f3e 6923 28be f8ee 01bd dfa5 1cbe
00000080: a177 14be 0f22 893e f8d9 2cbe 2b2e 60be
00000090: 6ee1 4fbe 0c17 b2bd 12d3 33be 2fa3 a63e
000000a0: 2d6c 983e dec4 84be d923 73be b050 54bd
000000b0: 42bd 87be ec8c 86be 24ee 96be 0090 b73d
000000c0: 2b3e b13e 51fa 983e 80fa aa3b 208d b3bd
000000d0: 261e 393e 7633 7f3e b7b8 ac3e fe20 0b3e
000000e0: 88d9 43bd 9155 873e 2015 b83d 0896 203d
000000f0: f3b9 85be 5f35 9d3e 5c83 dcbd 8282 08be
00000100: 2683 8bbe 857a a33e fe4b 8ebe 8064 fc3c
00000110: 29a3 863e a27c 653e a030 5abd 6299 473e
00000120: 9d09 ae3e 44f1 5fbe 5017 b2be be81 273e
00000130: e980 a6be 7099 0bbd a6db 1a3e e282 5d3e
00000140: a08f 713c 788d c1bd f27b 6e3e 1379 06be
00000150: e674 1f3e 0ee4 19be f4be afbd 9fab a53e
00000160: 6050 77bc a9b4 91be 1178 7ebe 0dc8 b23e
00000170: d4e1 fd3d 20dd a1be 56ca 263e beec 3a3e
00000180: b710 b23e 924f 76be 582f 4d3d 23d0 813e
00000190: cca6 ea3d a888 93be ba58 5d3e 705c e73d
000001a0: b0c6 54be 61c1 943e d7f4 88be 5fc3 8dbe
000001b0: a0ca ac3c 3c62 a6bd dafe 3cbe 025b 363e
000001c0: 3cb6 35be 02db 0cbe 202a c3bc 70ee ea3d
000001d0: 170e 56be 338a a53e ecc3 b8bd 3837 09bd
000001e0: 04b5 0d3e 29e1 a43e cc00 043e b823 5dbd
000001f0: 444e d73d 29b5 80be 9492 0d3e b2dc 1f3e
00000200: 0671 dbbd ae6a 81be bad8 2b3e 2854 bbbd
00000210: f4c8 adbd 4432 973d a88c 83be a2cb 57be
00000220: 4e4e 553e 7564 9a3e 944c cd3d cc70 b33d
00000230: acd9 9dbe 7cc0 a83d 3af3 1a3e 9772 0cbe
00000240: 09e8 963e 7154 8e3e fcd4 6fbe e610 47be
00000250: 30c9 84be f1e3 943e bc84 c33d 0c3a c23d
00000260: ffe3 a43e ad02 04be e833 08bd e043 6ebd
00000270: 44b4 c73d 0978 99be a431 a8be e423 c13d
00000280: e30d 803e bd47 963e 609d 91be e217 fdbd
00000290: f472 9fbe 0035 4a3d f098 cabd f1a2 80be
000002a0: 6637 5d3e 80c8 08bb 3472 95bd 1892 70bd
000002b0: 18d2 47be 40a8 2f3c 0002 61bc 37dc b33e
000002c0: d4d8 c93d 2034 c33c 106d 913c b445 9abe
000002d0: 36f2 423e 8804 7d3d 47cb 8c3e c504 16be
000002e0: 692f b23e 001b c3bc 852e 8d3e 90f4 0abe
000002f0: 00da d63a 7f2e a2be 8b43 883e f607 82be
00000300: d27e 6e3e a6a2 6b3e 7507 8dbe daec 613e
00000310: 331c a9be a049 6c3d e242 213e d7c2 923e
00000320: ae19 163e ec30 9c3d 50ef e4bc 60ff 763d
00000330: 7aa3 503e c74d 813e 3c50 31be af87 07be
00000340: 6426 c9bd e42a fc3d 3453 ddbd a403 e73d
00000350: d590 8a3e 015c a43e 2016 b1bc cf28 893e
00000360: b2ed 9cbe 1dd8 8abe 2041 83bc 4944 1dbe
00000370: a68e 363e f6ec 9fbe 004e 7c3a c46d 133e
00000380: e644 ebbd fe54 303e 382e 833d e85a 86bd
00000390: a68c 1d3e 6c19 11be 6576 4abe 7431 a53d
000003a0: 54ac 83bd c681 a0be 2613 6a3e 9711 93be
000003b0: c827 2a3d f09a fabc 16b5 1f3e b44e cc3d
000003c0: 7c7d 903d 38d9 373d da77 1c3e 2c1a c8bd
000003d0: c8a1 f2bd 7ac5 053e 0688 5ebe a05e 6fbe
000003e0: f673 373e f537 97be 1586 68be 40a2 c73b
000003f0: c016 2cbd f845 2dbd c2ae 643e bd93 55be

lstm.bias_ih_l0 f4 [32]
0.54434806 0.4104992 0.636569 0.72727937 -0.28517902 -1.1464963 -0.5303502 1.1193165
0.32493916 0.2230899 0.32509312 0.28350464 -0.0036975145 -0.20961684 -0.13029335 0.13626873
-1.070361 -0.13052899 0.32482573 -0.33114964 0.07226719 -0.27228996 0.4207815 0.08934683
0.20095196 -0.032356698 0.6465514 0.22592308 -0.5602728 -1.2731706 -0.038955025 1.0730497
00000000: 655a 0b3f f32c d23e 30f6 223f fb2e 3a3f
00000010: fc02 92be 64c0 92bf 08c5 07bf c345 8f3f
00000020: 6d5e a63e ae71 643e 9b72 a63e 8527 913e
00000030: 0052 72bb cca5 56be 9f6b 05be 088a 0b3e
00000040: 9701 89bf 64a9 05be 8f4f a63e 728c a9be
00000050: d200 943d 9769 8bbe ac70 d73e 79fb b63d
00000060: 5ac6 4d3e 7588 04bd 6484 253f 6158 673e
00000070: 0a6e 0fbf 41f7 a2bf 4e8f 1fbd b159 893f

lstm.bias_hh_l0 f4 [32]
0.4133724 0.38197806 0.27909964 0.6240312 -0.94084454 -1.1977153 -0.39895615 0.91202235
0.14063674 0.013843089 -0.20579648 -0.055851877 -0.21224095 0.14170331 -0.2414088 -0.21218333
-0.9632259 0.11404565 -0.052594986 -0.8050371 -0.46462634 -0.02439879 0.09301811 0.45347795
0.45905793 0.119856514 0.5247906 0.7170051 -0.41260493 -1.1038295 -0.3338268 0.7576965
00000000: 8ca5 d33e a192 c33e 26e6 8e3e 82c0 1f3f
00000010: 30db 70bf bc4e 99bf fb43 ccbe 4c7a 693f
00000020: 1403 103e 20ce 623c 50bc 52be f0c4 64bd
00000030: b155 59be ac1a 113e de33 77be 9646 59be
00000040: f995 76bf c490 e93d d76d 57bd e916 4ebf
00000050: 81e3 edbe f9df c7bc 4780 be3d 432e e83e
00000060: a409 eb3e 5577 f53d ad58 063f a58d 373f
00000070: f440 d3be 494a 8dbf 59eb aabe 66f8 413f

lstm.weight_ih_l1 f4 [32, 8]
0.5126023 0.061971053 -0.6476616 0.25251788 0.24829689 0.47010916 0.60238165 -0.8067724
0.5225149 -0.2809025 1.0505463 -1.6251884 0.022413624 0.85502595 -0.60547274 0.44579834
0.05766693 -0.52053624 0.27691388 -0.86198276 -0.015484137 0.4197993 0.1494388 0.4518715
0.8664609 -1.149302 0.47605053 -1.0077506 0.3261918 -0.3945708 0.043353826 -0.12745382
0.9236128 0.34176555 -0.45389926 0.05015842 0.09730081 0.2524708 0.9367011 -0.5682851
-1.1132697 1.7055732 -0.48041195 1.9143661 -0.7107864 -0.13953173 1.1063384 0.9422521
1.1728127 1.7822533 -0.6941085 -0.08503776 -0.5566712 1.5793347 1.2360765 -0.9900055
-2.1958206 0.77757275 0.48955184 0.42897335 -1.0916784 0.2724899 -0.6157475 1.7006203
0.25742105 -0.24360725 -0.23265654 0.27253214 0.27706167 0.24868742 -0.027686208 -0.04851839
0.047955602 0.28159192 -0.020335883 0.12223765 0.03706163 0.19765559 0.086398125 -0.0681667
-0.34699374 0.31079623 0.20298603 0.25912485 0.12755597 -0.14650299 -0.12539025 -0.22795199
0.31791654 0.03273326 0.33204922 -0.02693364 0.06930539 0.085292906 -0.005612135 0.26974598
0.30412957 0.18499371 0.09611449 -0.17799503 0.32304844 0.34661976 0.0018459857 -0.023028791
-0.13437161 0.30083677 0.12439498 -0.2774343 -0.16408603 0.30735853 -0.18837795 -0.007828027
-0.015177429 0.048040867 0.3013138 0.22066757 -0.35095596 0.08380172 0.3194166 0.32278642
-0.31462374 -0.18593487 0.14839926 -0.013916552 -0.23787302 0.22986004 0.13592878 0.17285922
0.6435318 1.4612242 -0.4044123 0.17985973 0.16630171 1.3459179 0.18758737 -0.57438564
-1.2567253 -0.60628843 0.7060701 -1.1431459 0.053999353 -0.8980077 -0.69528854 1.9078417
0.08575959 0.115839615 -0.6903454 0.6395027 -0.31770363 0.11371963 0.75137204 -0.758023
-0.63645357 -0.3524573 0.07640705 1.1803484 -0.020277835 -0.6052543 0.14755777 0.2444646
-0.93683845 -0.32759792 0.6507994 -1.0728909 -0.02514972 -1.1143416 -0.4737979 1.4040985
-1.7411923 -1.3286014 1.0620201 -1.1352991 -0.1646685 -0.6800277 -0.83533597 2.2077723
1.647467 0.79923403 -1.2393911 1.4015428 0.29509643 0.40497577 0.67984635 -1.8795302
1.412985 0.93050826 -0.81147635 0.5253285 -0.061696704 0.80439043 0.80457944 -2.0141647
0.61936635 0.2303247 -0.08580883 0.5386161 -0.19868906 0.91566545 0.21866088 -0.9131776
0.21116035 -0.28876203 0.7537151 -2.0648491 0.1497706 0.49835747 -0.5096729 0.45273584
0.6746152 -0.7686971 0.34151885 -0.6553189 0.42933756 1.1075026 -0.21018334 0.22165008
0.6823388 -0.5203329 -0.09104573 -0.95415705 0.40371707 -0.4673715 -0.34312335 0.7600859
1.621918 0.32173598 -0.26181448 -0.49606746 -0.19805916 0.6728601 0.6886426 -0.77496225
-1.4458221 1.5201949 -0.2208857 1.5013158 -0.564551 0.54428536 1.01618 0.8405807
1.4088342 2.0651517 -0.3842991 -0.61264145 -0.049596492 1.6142727 1.2072235 -1.4605594
-2.1709073 0.43395767 0.7105819 0.35649452 -0.5358222 0.26673907 -1.056962 1.9941838
00000000: e839 033f 5cd5 7d3d 27cd 25bf 064a 813e
00000010: 8a41 7e3e 26b2 f03e af35 1a3f a388 4ebf
00000020: 89c3 053f 74d2 8fbe 4d78 863f 2c06 d0bf
00000030: c79c b73c fbe2 5a3f 4300 1bbf ae3f e43e
00000040: 2934 6c3d dd41 05bf a8c7 8d3e e7aa 5cbf
00000050: 2eb1 7dbc efef d63e 7c06 193e b45b e73e
00000060: 62d0 5d3f 541c 93bf e5bc f33e f9fd 80bf
00000070: 9d02 a73e 2f05 cabe c893 313d 4183 02be
00000080: e371 6c3f e5fb ae3e 7c65 e8be ea72 4d3d
00000090: a645 c73d da43 813e a5cb 6f3f 227b 11bf
000000a0: 9f7f 8ebf 3950 da3f 8ef8 f5be f309 f53f
000000b0: 19f6 35bf 68e1 0ebe 7f9c 8d3f 6f37 713f
000000c0: ba1e 963f e020 e43f 18b1 31bf 4728 aebd
000000d0: 0182 0ebf a427 ca3f c137 9e3f 0071 7dbf
000000e0: 5388 0cc0 020f 473f 8aa6 fa3e 65a2 db3e
000000f0: 1ebc 8bbf cc83 8b3e a1a1 1dbf edad d93f
00000100: b1cc 833e 2e74 79be 843d 6ebe 5589 8b3e
00000110: 07db 8d3e eaa7 7e3e 30ce e2bc 38bb 46bd
00000120: 186d 443d d12c 903e 7097 a6bc bc57 fa3d
00000130: f0cd 173d 3a66 4a3e 80f1 b03d fc9a 8bbd
00000140: 2aa9 b1be af20 9f3e 92db 4f3e 03ac 843e
00000150: 089e 023e e104 16be 4d66 00be 3f6c 69be
00000160: f5c5 a23e 5013 063d 5b02 aa3e f0a3 dcbc
00000170: fcef 8d3d 0cae ae3d 00e6 b7bb 251c 8a3e
00000180: dfb6 9b3e fe6e 3d3e acd7 c43d 5444 36be
00000190: 9b66 a53e 2578 b13e 00f5 f13a e0a6 bcbc
000001a0: b698 09be 4707 9a3e ccc2 fe3d de0b 8ebe
000001b0: 2b06 28be 195e 9d3e 26e6 40be 2041 00bc
000001c0: c0aa 78bc 80c6 443d cd45 9a3e aef6 613e
000001d0: 80b0 b3be 3ca0 ab3d 938a a33e 4344 a53e
000001e0: 5d16 a1be b665 3ebe faf5 173e 4002 64bc
000001f0: fc94 73be 6e60 6b3e ea30 0b3e 0202 313e
00000200: 80be 243f 6509 bb3f 210f cfbe 262d 383e
00000210: ff4a 2a3e 0a47 ac3f e716 403e f00a 13bf
00000220: 60dc a0bf b835 1bbf 03c1 343f 9b52 92bf
00000230: 6d2e 5d3d d5e3 65bf 6efe 31bf 2834 f43f
00000240: b9a2 af3d 523d ed3d 7aba 30bf 73b6 233f
00000250: 0daa a2be d6e5 e83d eb59 403f cc0d 42bf
00000260: 9fee 22bf 4975 b4be 4d7b 9c3d a815 973f
00000270: b41d a6bc f2f1 1abf 6219 173e ee54 7a3e
00000280: a5d4 6fbf eaba a7be ca9a 263f 7d54 89bf
00000290: c906 cebc bfa2 8ebf a395 f2be 80b9 b33f
000002a0: 64df debf 9c0f aabf 46f0 873f 7b51 91bf
000002b0: dc9e 28be 4c16 2ebf 94d8 55bf 244c 0d40
000002c0: 33e0 d23f 9a9a 4c3f 5ea4 9ebf c165 b33f
000002d0: e116 973e fc58 cf3e 690a 2e3f 7294 f0bf
000002e0: b1dc b43f ca35 6e3f eabc 4fbf ee7b 063f
000002f0: afb5 7cbd 88ec 4d3f ebf8 4d3f 13e8 00c0
00000300: cb8e 1e3f 3dda 6b3e 8abc afbd bfe2 093f
00000310: 2575 4bbe 0d69 6a3f a3e8 5f3e 02c6 69bf
00000320: 6b3a 583e 9ed8 93be 79f3 403f 7d26 04c0
00000330: 775d 193e b628 ff3e ec79 02bf fecc e73e
00000340: 95b3 2c3f 55c9 44bf 8fdb ae3e fbc2 27bf
00000350: 22d2 db3e a5c2 8d3f 4d3a 57be 3df8 623e
00000360: c1ad 2e3f 8934 05bf 2f76 babd a343 74bf
00000370: 01b4 ce3e 514b efbe ddad afbe fd94 423f
00000380: 029b cf3f 94ba a43e 8c0c 86be 8efc fdbe
00000390: 05d0 4abe 8f40 2c3f e24a 303f ed63 46bf
000003a0: b310 b9bf bf95 c23f dc2f 62be 1e2b c03f
000003b0: 6a86 10bf 4956 0b3f 3012 823f 4c30 573f
000003c0: ae54 b43f 722b 0440 dac2 c4be 12d6 1cbf
000003d0: b125 4bbd 7da0 ce3f 4d86 9a3f 9cf3 babf
000003e0: 25f0 0ac0 b32f de3e b2e8 353f 7386 b63e
000003f0: a52b 09bf 0692 883e 884a 87bf 6a41 ff3f

lstm.weight_hh_l1 f4 [32, 8]
0.09717521 0.14283103 0.028244585 -0.27520707 -0.31539503 0.19339117 0.24723408 0.14123178
-0.115182534 -0.14701386 0.3008413 -0.11096178 0.096428186 0.27410808 0.1949844 0.17435297
0.35116503 0.056435883 0.1607202 -0.29333857 -0.17824727 -0.04396838 0.23769662 -0.27484697
-0.25284404 0.18744269 0.25039062 -0.23334774 0.056218237 0.03138566 -0.32006073 -0.15170603
-0.31430572 0.15996882 -0.28648052 0.20700338 -0.25777596 -0.20092735 -0.3459504 -0.1456909
-0.0283252 -0.030124545 0.25638375 -0.12946361 -0.28769216 -0.21197306 0.014506906 -0.031942934
0.015822649 -0.1131503 0.05788961 0.10576847 0.17914698 0.15721539 0.35201088 0.0043248236
-0.29797122 0.3060595 0.0015763342 -0.21569775 -0.14135139 -0.08767435 -0.24973378 0.25132045
-0.020266265 0.17375681 0.21623048 0.33662215 0.1595389 0.13382879 -0.1483052 -0.058505684
-0.022423923 -0.07986656 -0.27381325 0.05875507 -0.25202236 -0.31460482 -0.12675601 -0.10063091
0.061989546 0.2056655 0.061278194 0.19365105 -0.23341602 0.1998181 -0.2596433 -0.08937794
-0.14865054 0.29542688 -0.04450193 -0.31007445 -0.08456415 0.11932692 -0.04984346 -0.028825313
0.28533038 -0.19929461 0.07903713 0.049582005 0.33222368 0.01436761 0.01474604 0.16120127
0.005709201 -0.2813329 -0.29183063 0.010078818 0.22978309 -0.20022674 -0.04273942 0.05065036
-0.19127187 -0.09159109 -0.09957948 0.29506168 -0.14521149 0.17709544 -0.07922009 0.25250575
-0.0294528 0.18997458 -0.2498729 0.10979891 0.31960526 -0.21252148 0.26990405 -0.27267468
0.11186424 0.30866137 0.049403727 -0.08843273 0.04394701 0.12988862 -0.3129472 -0.29658312
-0.34212282 0.12597376 0.057646275 -0.34714857 -0.24186435 -0.19706956 -0.24125892 -0.31039542
0.3012471 -0.08649698 -0.12490712 -0.25916165 -0.069333196 0.12875298 0.22246596 0.24455854
0.30657324 0.15559408 -0.08154762 -0.015679061 0.22239587 0.2530211 -0.22631487 0.3355892
0.13099888 0.20106468 0.1585522 0.0062081814 0.09239903 0.32309029 -0.0770095 0.26890662
-0.13471663 -0.019187093 -0.2403113 0.29291728 -0.27712867 -0.28159758 -0.29519913 -0.100753516
0.33597705 -0.053329587 0.24864766 0.32304952 -0.16739109 -0.2989507 -0.17209072 0.09594986
0.10417411 0.2387276 -0.17185529 0.04965931 -0.3132324 -0.04420808 0.082520366 0.3386478
-0.002575159 0.22621903 -0.12710752 -0.06513879 0.14095658 -0.25342217 0.048941225 0.019299626
-0.2724411 0.014069289 -0.14027141 0.19170025 0.32909724 0.2787905 0.12367499 -0.27446508
0.25766304 -0.0856466 -0.17351769 0.09089878 -0.25737953 0.25247845 0.24681613 0.11010638
0.014980286 0.33080736 -0.34091046 -0.29231173 -0.24839582 -0.25683367 0.2325767 0.040957093
0.24251649 0.04292345 0.10675076 -0.21942163 -0.23782694 -0.3195885 0.1933246 0.02103293
-0.21943879 0.20191202 0.16499689 0.15232834 -0.34096467 -0.27058613 -0.18793145 -0.28831816
-0.13569473 0.12193552 -0.12424879 -0.09166968 -0.111839905 0.1752607 0.32042912 0.13383728
-0.24283522 -0.329638 0.08282691 -0.17093544 -0.18668596 -0.020212233 0.07338512 -0.21491423
00000000: cc03 c73d 4c42 123e 3061 e73c f1e7 8cbe
00000010: 757b a1be 5608 463e ee2a 7d3e 109f 103e
00000020: d2e4 ebbd cd8a 16be df07 9a3e ee3f e3bd
00000030: 247c c53d e557 8c3e fea9 473e 9689 323e
00000040: e7cb b33e 5029 673d d693 243e 7930 96be
00000050: 7486 36be 3018 34bd be66 733e beb8 8cbe
00000060: c674 81be faf0 3f3e 3333 803e b6f2 6ebe
00000070: 1845 663d 408e 003d 00df a3be d358 1bbe
00000080: aeec a0be dece 233e 93ad 92be b2f8 533e
00000090: 36fb 83be e6bf 4dbe 6920 b1be ff2f 15be
000000a0: 400a e8bc c0c7 f6bc bb44 833e 1c92 04be
000000b0: 634c 93be 770f 59be 60ae 6d3c 98d6 02bd
000000c0: 809e 813c 58bb e7bd a81d 6d3d 249d d83d
000000d0: 4e72 373e 12fd 203e c53a b43e 40b7 8d3b
000000e0: af8f 98be d5b3 9c3e 009d ce3a dfdf 5cbe
000000f0: 6bbe 10be 9c8e b3bd 36ba 7fbe 13ad 803e
00000100: 7005 a6bc 4eed 313e 866b 5d3e bd59 ac3e
00000110: 2a5e 233e 6a0a 093e 51dd 17be a8a3 6fbd
00000120: 60b2 b7bc 1491 a3bd 4031 8cbe 28a9 703d
00000130: 1309 81be e213 a1be 54cc 01be 9417 cebd
00000140: c0e8 7d3d fa99 523e d8fe 7a3d 764c 463e
00000150: 9c04 6fbe 1e9d 4c3e f7ef 84be c80b b7bd
00000160: d937 18be 3142 973e a847 36bd 14c2 9ebe
00000170: f82f adbd ac61 f43d a828 4cbd 1023 ecbc
00000180: d316 923e e313 4cbe 38de a13d 8016 4b3d
00000190: 3919 aa3e 2066 6b3c 6099 713c f211 253e
000001a0: 4014 bb3b de0a 90be d36a 95be a021 253c
000001b0: 424c 6b3e 3d08 4dbe 880f 2fbd c076 4f3d
000001c0: c6dc 43be 1c94 bbbd 54f0 cbbd 5312 973e
000001d0: 52b2 14be 8258 353e 243e a2bd 6f48 813e
000001e0: 0047 f1bc b288 423e aede 7fbe 40de e03d
000001f0: 4da3 a33e 3b9f 59be dd30 8a3e 049c 8bbe
00000200: 1419 e53d dd08 9e3e 905b 4a3d 381c b5bd
00000210: c801 343d 8601 053e 9e3a a0be bed9 97be
00000220: b92a afbe 44ff 003e 801e 6c3d 75bd b1be
00000230: 4aab 77be 9acc 49be 940c 77be 26ec 9ebe
00000240: 0f3d 9a3e 5425 b1bd 4ecf ffbd d6b0 84be
00000250: 90fe 8dbd d2d7 033e 1ece 633e 8e6d 7a3e
00000260: 2bf7 9c3e 0e54 1f3e 7002 a7bd 6071 80bc
00000270: bebb 633e fb8b 813e 16bf 67be 59d2 ab3e
00000280: 9224 063e e6e3 4d3e 825b 223e 006e cb3b
00000290: b43b bd3d 176c a53e 28b7 9dbd 21ae 893e
000002a0: 28f3 09be 402e 9dbc 2a14 76be 41f9 953e
000002b0: cfe3 8dbe 8f2d 90be 5724 97be dc57 cebd
000002c0: 2f05 ac3e 2070 5abd 7e9d 7e3e bf66 a53e
000002d0: 9268 2bbe 1110 99be 8d38 30be 5c81 c43d
000002e0: 3c59 d53d 0275 743e d5fa 2fbe 9067 4b3d
000002f0: ff5f a0be 8813 35bd 7000 a93d 3f63 ad3e
00000300: 00c4 28bb f6a5 673e 7928 02be 7c67 85bd
00000310: ec56 103e 8dc0 81be 9876 483d 401a 9e3c
00000320: 667d 8bbe e082 663c 4fa3 0fbe 124d 443e
00000330: 6f7f a83e a1bd 8e3e 5049 fd3d b086 8cbe
00000340: 69ec 833e 7c67 afbd 9fae 31be 2429 ba3d
00000350: 40c7 83be db44 813e 5ebd 7c3e 747f e13d
00000360: e06f 753c 955f a93e d18b aebe e2a9 95be
00000370: 795b 7ebe b47f 83be 9628 6e3e a0c2 273d
00000380: 3e56 783e 80d0 2f3d 24a0 da3d 10b0 60be
00000390: e888 73be 1ba1 a3be e2f6 453e 404d ac3c
000003a0: 90b4 60be 06c2 4e3e f2f4 283e f6fb 1b3e
000003b0: ec92 aebe 448a 8abe 1a71 40be 709e 93be
000003c0: 8ff3 0abe 54b9 f93d 2676 febd 50bd bbbd
000003d0: 520c e5bd 8a77 333e 490f a43e a40c 093e
000003e0: cca9 78be 50c6 a8be 28a1 a93d b309 2fbe
000003f0: 9b2a 3fbe 2094 a5bc f04a 963d 7a12 5cbe

lstm.bias_ih_l1 f4 [32]
-0.56961507 0.07243007 -0.8560517 -0.48679325 -0.5376074 2.4608693 0.887266 0.9691361
-0.061446995 0.048421025 0.23270395 -0.05941108 -0.06887764 0.055658907 0.2923331 -0.059103757
-0.20289034 0.56402963 -0.04579494 0.10401964 0.3787546 0.8206162 -0.823475 -0.7024888
-0.29229212 0.2448024 -0.61911404 -0.37638977 -0.49342954 2.5476213 0.6869717 1.0666847
00000000: 4bd2 11bf 3756 943d 3426 5bbf f73c f9be
00000010: a3a0 09bf e27e 1d40 dd23 633f 4e19 783f
00000020: d8af 7bbd 2055 463d f249 6e3e 0859 73bd
00000030: b80f 8dbd 98fa 633d afac 953e c816 72bd
00000040: 7cc2 4fbe 3f64 103f 7a93 3bbd 4008 d53d
00000050: 1fec c13e e713 523f 42cf 52bf 4ed6 33bf
00000060: 50a7 95be 7bad 7a3e 427e 1ebf 29b6 c0be
00000070: cca2 fcbe 3a0c 2340 61dd 2f3f 2089 883f

lstm.bias_hh_l1 f4 [32]
-0.46034935 0.31973562 -0.72795635 -0.72128403 -0.24994202 2.8990636 1.0920374 1.12952
0.3195561 -0.036386013 -0.001463592 -0.29636946 -0.30118573 -0.047924668 -0.26147124 0.13349667
-0.32672292 0.70345056 -0.027348084 0.22797172 -0.054640107 0.56723124 -0.5236178 -0.5060106
-0.05754689 0.43677709 -0.5040418 -0.25799385 -0.073000066 2.822245 1.1733316 1.0007886
00000000: e9b2 ebbe 63b4 a33e 595b 3abf 12a6 38bf
00000010: cdf0 7fbe 428a 3940 e2c7 8b3f 1d94 903f
00000020: db9c a33e 8009 15bd 00d6 bfba bdbd 97be
00000030: 0435 9abe a84c 44bd 8fdf 85be 5ab3 083e
00000040: 3a48 a7be 5615 343f 1709 e0bc 6b71 693e
00000050: 4ece 5fbd 1136 113f d10b 06bf e989 01bf
00000060: 4ab6 6bbd 3fa1 df3e e208 01bf c517 84be
00000070: 0f81 95bd a99f 3440 bb2f 963f d719 803f

lstm.weight_ih_l2 f4 [32, 8]
1.5500066 2.2948668 0.13059491 -1.0143338 -1.0781455 0.37976035 0.40324593 -1.1350371
1.4859806 0.87516165 -0.4407821 -0.68422693 -1.7583817 1.0321587 0.18895188 -1.2721632
0.38898495 -1.0528672 0.046208505 -0.084468305 -0.097382054 1.0648023 0.010928546 -0.37466952
2.3429732 2.5102036 -0.8704845 -1.1852671 -1.751546 0.8792986 0.37126788 -1.9019525
0.2038763 -0.4147488 0.5729733 -0.11848427 -0.19841643 1.2879405 -0.1951484 -1.022095
-0.23394091 -0.023571093 0.16324766 -0.020033302 0.13944425 2.2002172 -0.600236 -1.0984793
0.49556032 -0.07339462 -0.8935161 -0.66814834 -0.4877591 -2.0815184 0.83942586 0.27099812
0.17241254 0.2769907 0.51358247 0.03503473 -0.59654224 2.5671742 -0.8691578 -0.9217402
0.32715514 -0.3237925 0.038185716 0.16780058 0.17674342 0.11043978 0.21268001 0.26899114
0.088137835 0.26764664 0.12112683 -0.2550433 -0.051150262 -0.30095905 0.27251068 0.18744436
-0.22626308 0.16831091 -0.33851266 0.112151444 0.13724518 -0.34317094 -0.16405399 0.082214296
0.01919511 -0.013926864 -0.016066462 -0.29361638 0.25710097 -0.21651189 0.2810932 -0.34472686
0.19325861 0.13285187 0.19479653 0.03563437 0.16713044 -0.21394381 -0.007983625 -0.18464492
-0.010143518 -0.33509564 0.01797077 0.2568811 -0.20541863 0.15699598 -0.04796064 0.11696568
0.28279725 -0.3238677 -0.14678158 -0.03678441 -0.32760185 0.28309318 0.2149829 0.12032172
-0.07099113 0.30387786 -0.30899292 0.15491328 0.1001353 0.32542786 -0.029639512 0.30916855
-0.045053978 0.4537331 0.43884945 0.38934433 -0.47890034 2.9151735 -1.2326773 -1.2167495
-0.031035773 -0.37112048 -0.081031434 -0.4022313 0.037543062 -3.2870178 1.1396724 1.6450524
-0.44792613 0.55110496 -0.22107346 0.55496293 -0.0942592 -0.7700452 -0.06575866 0.1308078
-0.03179248 -0.622778 -0.2206939 -0.07594569 0.1689007 -3.5047343 1.2496964 1.4538444
-0.5007339 -0.06445045 0.23689009 -0.34671667 -0.17210588 2.9272442 -0.6171331 -1.0070724
-0.28237155 0.02074803 0.17428765 0.36934295 -0.47361383 2.8576443 -0.88697004 -1.3759083
-0.22147605 0.4425122 0.1604142 0.39179853 -0.067891635 3.441858 -1.0123528 -1.2582315
0.52320534 -0.108063325 0.13012165 -0.095137715 0.010519107 -2.871441 1.1983217 1.4937354
1.6663891 2.352387 -0.24106681 -0.7274944 -0.7118975 0.20507488 0.6198967 -0.97049046
1.9075111 0.9364229 -0.39320022 -0.9771407 -1.7077346 0.8058752 -0.059471656 -1.0804732
-0.15899897 -0.6439574 -0.15994829 -0.22175889 0.17304097 1.1745298 -0.057642885 -0.60659546
2.2725847 2.5809457 -0.8858597 -1.3028166 -1.6521431 0.5893875 0.21227023 -1.8797108
0.35079357 -0.707814 0.4383651 0.09466701 -0.2563399 1.9559219 -0.17332244 -0.6898486
0.1703335 -0.20863275 0.3314407 -0.52518004 -0.1642738 2.1997612 -0.75331324 -1.2201666
0.75598747 0.50951964 -0.74852294 -0.43080378 -0.55574733 -2.1415303 0.38855782 0.66647214
0.08611387 0.2606615 0.1185923 -0.54454434 -0.27125555 2.8596303 -0.8581612 -1.3265158
00000000: 9e66 c63f 19df 1240 acba 053e b1d5 81bf
00000010: ac00 8abf f36f c23e 4076 ce3e e548 91bf
00000020: 9d34 be3f 980a 603f 31ae e1be 7f29 2fbf
00000030: a712 e1bf c71d 843f 9a7c 413e 3ed6 a2bf
00000040: 0929 c73e 5ac4 86bf 2145 3d3d b8fd acbd
00000050: 3e70 c7bd 714b 883f a50d 333c afd4 bfbe
00000060: 46f3 1540 2da7 2040 12d8 5ebf d5b6 97bf
00000070: a932 e0bf b719 613f d316 be3e 2e73 f3bf
00000080: f3c4 503e f459 d4be 61ae 123f e2a7 f2bd
00000090: ad2d 4bbe 3cdb a43f fbd4 47be 02d4 82bf
000000a0: 358e 6fbe 2a18 c1bc 652a 273e e11c a4bc
000000b0: 79ca 0e3e 5cd0 0c40 11a9 19bf f89a 8cbf
000000c0: 15ba fd3e eb4f 96bd 79bd 64bf c50b 2bbf
000000d0: 90bb f9be 9937 05c0 9de4 563f 44c0 8a3e
000000e0: ea8c 303e bad1 8d3e 247a 033f 9480 0f3d
000000f0: feb6 18bf 954c 2440 2081 5ebf 2af7 6bbf
00000100: e180 a73e 21c8 a5be a068 1c3d ead3 2b3e
00000110: 3afc 343e 402e e23d cac8 593e 35b9 893e
00000120: 9c81 b43d fb08 893e 5811 f83d 0995 82be
00000130: f082 51bd 4e17 9abe 8586 8b3e 6af1 3f3e
00000140: 82b1 67be b259 2c3e 8851 adbe a8af e53d
00000150: 008a 0c3e 1ab4 afbe c5fd 27be f85f a83d
00000160: 103f 9d3c 802d 64bc d09d 83bc e354 96be
00000170: bda2 833e 4bb5 5dbe 73eb 8f3e 0a80 b0be
00000180: 96e5 453e 520a 083e be78 473e 58f5 113d
00000190: 3e24 2b3e 1614 5bbe c0cd 02bc 8f13 3dbe
000001a0: 0031 26bc a891 abbe 7037 933c eb85 833e
000001b0: 4359 52be 8ec3 203e 6072 44bd b48b ef3d
000001c0: cdca 903e fdd1 a5be e94d 16be 40ab 16bd
000001d0: 6ebb a7be 97f1 903e 7a24 5c3e 3c6b f63d
000001e0: cc63 91bd e195 9b3e 5234 9ebe 96a1 1e3e
000001f0: bc13 cd3d 7b9e a63e 90ce f2bc 574b 9e3e
00000200: 858a 38bd b44f e83e e0b0 e03e 2458 c73e
00000210: 6d32 f5be 3492 3a40 5fc8 9dbf 73be 9bbf
00000220: bc3e febc 8103 bebe cff3 a5bd 43f1 cdbe
00000230: c1c6 193d 805e 52c0 c9e0 913f 1491 d23f
00000240: 9356 e5be 3715 0d3f 1561 62be 0d12 0e3f
00000250: f80a c1bd af21 45bf 7aac 86bd 7bf2 053e
00000260: d538 02bd 616e 1fbf 95fd 61be 6a89 9bbd
00000270: 4ef4 2c3e 914d 60c0 0df6 9f3f 9317 ba3f
00000280: 1930 00bf 99fe 83bd 5193 723e d984 b1be
00000290: 863c 30be f857 3b40 6ffc 1dbf c0e7 80bf
000002a0: 0193 90be c6f7 a93c 7678 323e 851a bd3e
000002b0: 837d f2be a5e3 3640 7810 63bf c31d b0bf
000002c0: 9eca 62be f690 e23e 9f43 243e d199 c83e
000002d0: c50a 8bbd 6747 5c40 c794 81bf bb0d a1bf
000002e0: c9f0 053f 4e50 ddbd 9c3e 053e 90d7 c2bd
000002f0: 5558 2c3c b0c5 37c0 9b62 993f b932 bf3f
00000300: 3d4c d53f 828d 1640 38da 76be 133d 3abf
00000310: ea3e 36bf 26ff 513e 8db1 1e3f 1072 78bf
00000320: 5329 f43f 69b9 6f3f 8a51 c9be e525 7abf
00000330: 0c97 dabf d64d 4e3f 8d98 73bd f24c 8abf
00000340: a0d0 22be 64da 24bf 7cc9 23be c314 63be
00000350: a731 313e fe56 963f f21a 6cbd d749 1bbf
00000360: 0772 1140 372e 2540 b4c7 62bf b2c2 a6bf
00000370: 6d79 d3bf 19e2 163f 5e5d 593e 5d9a f0bf
00000380: 379b b33e 4c33 35bf 6471 e03e c7e0 c13d
00000390: fc3e 83be a65b fa3f 707b 31be eb99 30bf
000003a0: e86b 2e3e d3a3 55be 98b2 a93e 3372 06bf
000003b0: 6437 28be e3c8 0c40 23d9 40bf 6b2e 9cbf
000003c0: 6588 413f e16f 023f 339f 3fbf 5092 dcbe
000003d0: 7545 0ebf d50e 09c0 0df1 c63e eb9d 2a3f
000003e0: 785c b03d 6d75 853e 85e0 f23d 4267 0bbf
000003f0: 02e2 8abe 2f04 3740 74b0 5bbf 45cb a9bf

lstm.weight_hh_l2 f4 [32, 8]
0.04397741 0.27115354 0.24573919 -0.2619493 0.32610694 0.22431716 0.24934271 -0.22454555
-0.12609288 0.29392996 0.2787576 0.04200065 0.26070163 0.254895 -0.07254997 0.20387545
-0.16451925 -0.25222132 -0.19665012 -0.1068123 0.032968014 -0.047046095 0.11987734 0.24064311
0.014170706 0.026946306 -0.09378049 0.3377973 0.0006455183 0.023892373 -0.2901211 -0.045636177
-0.034564555 -0.052557796 -0.13036202 0.1803725 -0.29326785 0.35055372 -0.27791393 0.18743649
0.29160348 0.17159459 -0.20035532 0.041974753 0.3083845 -0.04374945 0.2651101 -0.15827511
0.02229935 -0.30336112 -0.35047644 0.13122067 0.20235619 0.14506632 0.2711518 0.18300429
-0.21251498 0.17279717 -0.052312165 -0.29557377 0.08162433 0.18895116 -0.29891077 0.2738786
0.17066297 0.088443756 -0.10133201 -0.2757068 0.16485032 -0.193415 0.21592972 0.33093676
-0.09255394 -0.3192843 -0.18391135 -0.008073062 -0.15857153 -0.3019953 0.039387494 0.19402364
-0.021097183 0.12696925 -0.3016234 0.3091794 -0.2784373 -0.099782795 0.27742633 -0.31063712
0.2553676 0.14577085 -0.30276233 -0.1762888 -0.2050375 -0.23138258 0.123238295 -0.07425475
0.33267203 -0.13923262 0.19628337 0.09441084 -0.1126264 -0.07903656 0.17467973 0.20822278
-0.2682523 0.27639863 0.26447216 0.34298643 0.34520492 -0.1759606 0.34388348 -0.0880515
0.08134982 0.25883898 -0.024476111 -0.089755535 0.17601076 0.33002236 0.13095704 0.011538386
0.27101675 0.20546785 -0.24593516 0.18242106 0.21849295 0.044510275 0.32466778 -0.1426766
-0.24087316 -0.069456875 0.19332138 -0.32251754 -0.011416525 -0.31811377 0.23140535 -0.06823295
0.13832486 -0.35277733 -0.2962443 -0.3358473 0.2871031 -0.082623124 -0.3002711 0.0024070442
-0.34786758 -0.07857007 0.09950867 -0.014659882 0.08678922 -0.03134179 0.3355823 0.023885548
-0.20190468 -0.0080935955 0.04778087 0.11068386 0.2098796 -0.05703312 -0.31467187 -0.114926025
-0.24796651 0.018067122 0.27461877 -0.31695735 -0.058456838 -0.1066547 0.18102548 0.018411756
0.2272555 -0.086642146 0.18224844 0.083492935 0.19864306 0.23479745 -0.12517214 0.14574018
0.17021587 0.06218493 0.31692407 0.09426656 -0.33016053 0.2246814 0.08442709 0.22242406
-0.2767431 0.14335766 -0.12730004 0.16486052 0.047027916 -0.34010622 -0.23966792 0.13701716
0.14709201 0.24286518 -0.12175593 0.2803463 -0.3503067 -0.34021658 0.14292353 -0.27784058
-0.036839932 0.044395834 -0.24032119 0.07297698 -0.27475122 -0.11913009 -0.21368106 -0.29699898
0.2631016 -0.23455994 0.28893682 0.062000245 0.2760714 0.027280599 -0.22051594 -0.13471742
0.3207818 -0.29254335 -0.17020836 -0.24777508 0.044445127 0.12136108 -0.08876312 -0.20505415
-0.3366721 0.32045856 0.35334727 -0.2874335 -0.23788485 -0.19702551 0.32126835 -0.07286611
0.30576786 -0.106790036 0.2981445 -0.061552107 0.19544807 0.21992609 -0.011326581 0.08399087
-0.2820066 0.04108271 0.10991287 -0.22407594 -0.020237565 -0.3135727 -0.10004738 0.2193906
0.06022975 -0.039337814 0.045899928 -0.04756239 -0.30133858 -0.3440905 -0.03283325 0.3248535
00000000: a821 343d a3d4 8a3e 0ea3 7b3e 381e 86be
00000010: 7df7 a63e 66b3 653e b253 7f3e 45ef 65be
00000020: 7e1e 01be fd7d 963e 51b9 8e3e e008 2c3d
00000030: af7a 853e 9981 823e 1495 94bd bac4 503e
00000040: bc77 28be 2723 81be a65e 49be 68c0 dabd
00000050: 7809 073d 68b3 40bd 4082 f53d 266b 763e
00000060: 402c 683c 80be dc3c fc0f c0bd c5f3 ac3e
00000070: 0038 293a f0b9 c33c c18a 94be 00ed 3abd
00000080: 9093 0dbd d846 57bd 9f7d 05be 92b3 383e
00000090: 3427 96be c77b b33e bc4a 8ebe 5aef 3f3e
000000a0: 0d4d 953e 7eb6 2f3e f229 4dbe b8ed 2b3d
000000b0: 93e4 9d3e a032 33bd 83bc 873e df12 22be
000000c0: 20ad b63c 2652 9bbe a671 b3be b65e 063e
000000d0: 7636 4f3e 448c 143e 69d4 8a3e 7a65 3b3e
000000e0: 879d 59be bef1 303e 4845 56bd 7255 97be
000000f0: a82a a73d 6a7c 413e d50a 99be d139 8c3e
00000100: 46c2 2e3e 0022 b53d 2887 cfbd 7129 8dbe
00000110: 86ce 283e 950e 46be ae1c 5d3e 8b70 a93e
00000120: ec8c bdbd 3b79 a3be 4253 3cbe e044 04bc
00000130: 9360 22be 219f 9abe c854 213d 22ae 463e
00000140: 00d4 acbc 3a04 023e 626e 9abe c34c 9e3e
00000150: 558f 8ebe ec5a ccbd d30a 8e3e d40b 9fbe
00000160: 8bbf 823e f444 153e aa03 9bbe 0d85 34be
00000170: 5af5 51be 8eef 6cbe 5c64 fc3d e012 98bd
00000180: fd53 aa3e ff92 0ebe 82fe 483e 785a c13d
00000190: aca8 e6bd ecdd a1bd 3edf 323e 5a38 553e
000001a0: 5e58 89be 1f84 8d3e e568 873e eb9b af3e
000001b0: b3be b03e 042f 34be 7f11 b03e 5854 b4bd
000001c0: bc9a a63d 8b86 843e 2082 c8bc c0d1 b7bd
000001d0: 2a3c 343e b1f8 a83e 9a19 063e 800b 3d3c
000001e0: b5c2 8a3e 2a66 523e 6dd6 7bbe 96cc 3a3e
000001f0: 9ebc 5f3e 6850 363d db3a a63e d119 12be
00000200: 74a7 76be 683f 8ebd 0af6 453e 0521 a5be
00000210: 600c 3bbc cfdf a2be 86f5 6c3e b8bd 8bbd
00000220: 08a5 0d3e 3b9f b4be 55ad 97be 2df4 abbe
00000230: 2dff 923e 5036 a9bd 22bd 99be 80bf 1d3b
00000240: b31b b2be 58e9 a0bd 34cb cb3d 0030 70bc
00000250: 8cbe b13d 4060 00bd 71d1 ab3e a0ab c33c
00000260: 1ac0 4ebe 009b 04bc e0b5 433d 38ae e23d
00000270: aeea 563e 909b 69bd ac1c a1be 565e ebbd
00000280: efea 7dbe 8001 943c d59a 8c3e 3c48 a2be
00000290: 7070 6fbd c86d dabd be5e 393e 40d4 963c
000002a0: aab5 683e 7071 b1bd 569f 3a3e 58fe aa3d
000002b0: 1669 4b3e be6e 703e 202d 00be ea3c 153e
000002c0: 124d 2e3e a0b5 7e3d df43 a23e d40e c13d
000002d0: cd0a a9be e212 663e 1ce8 ac3d 22c3 633e
000002e0: 46b1 8dbe 5acc 123e f15a 02be 32d1 283e
000002f0: 58a0 403d 6722 aebe 826b 75be 3a4e 0c3e
00000300: 4a9f 163e a6b1 783e 2c5b f9bd 8d89 8f3e
00000310: 665b b3be de30 aebe 8c5a 123e 1f41 8ebe
00000320: 78e5 16bd 68d8 353d c216 76be f474 953d
00000330: 31ac 8cbe 7afa f3bd 35cf 5abe 4010 98be
00000340: 41b5 863e 7b30 70be 87ef 933e f8f3 7d3d
00000350: 3b59 8d3e 907b df3c eece 61be 5df3 09be
00000360: 833d a43e 3ec8 95be 1a4b 2ebe c0b8 7dbe
00000370: 180c 363d 288c f83d 70c9 b5bd b7f9 51be
00000380: 4960 acbe 2513 a43e efe9 b43e 7c2a 93be
00000390: 1698 73be 0ec1 49be 497d a43e d43a 95bd
000003a0: 9b8d 9c3e bcb4 dabd 65a6 983e 101e 7cbd
000003b0: 8a23 483e 4e34 613e 2093 39bc 6803 ac3d
000003c0: 2b63 90be 5846 283d 001a e13d 2a74 65be
000003d0: 40c9 a5bc 9a8c a0be a4e5 ccbd eea7 603e
000003e0: 78b3 763d b020 21bd 9001 3c3d c8d0 42bd
000003f0: 0d49 9abe a12c b0be 287c 06bd 3353 a63e

lstm.bias_ih_l2 f4 [32]
1.1271662 1.4941204 1.0704098 2.365844 0.72646636 0.67890555 0.715249 0.775278
0.34899136 -0.28737402 -0.2516458 0.31039295 0.3478413 -0.18623301 -0.061606497 -0.09744066
0.17767087 -0.6409355 -0.9249517 -0.40612993 0.53643936 0.6452039 0.46949866 -0.638655
1.2362701 1.7597073 0.7651666 2.802371 0.85564333 0.61598974 0.1900944 0.60117394
00000000: fb46 903f 563f bf3f 3003 893f fd69 1740
00000010: b3f9 393f c1cc 2d3f 8f1a 373f 9e78 463f
00000020: ffae b23e b022 93be b8d7 80be d3eb 9e3e
00000030: 4118 b23e deb3 3ebe 1857 7cbd f88e c7bd
00000040: 5aef 353e 5914 24bf a2c9 6cbf 43f0 cfbe
00000050: 1754 093f 152c 253f 2162 f03e e57e 23bf
00000060: 193e 9e3f 173e e13f f5e1 433f 0c5a 3340
00000070: 710b 5b3f 81b1 1d3f 1ba8 423e 89e6 193f

lstm.bias_hh_l2 f4 [32]
1.1518344 1.7665877 1.1603031 2.9239519 1.2110076 1.0324326 0.182882 0.9960804
0.057137936 -0.17949407 0.3340216 0.305199 0.2557111 0.09012672 -0.33040607 0.032354623
0.7982491 -0.41507655 -1.1935023 -0.6203453 0.60143715 0.6026405 0.45130387 -0.63687575
1.0205972 1.9027948 0.8409692 2.294383 0.6494023 0.7087358 0.4396997 1.1176429
00000000: 4f6f 933f 8c1f e23f d084 943f 0722 3b40
00000010: 4c02 9b3f c026 843f 6b45 3b3e 20ff 7e3f
00000020: 7809 6a3d 4bcd 37be e104 ab3e 0b43 9c3e
00000030: 91ec 823e 5c94 b83d fc2a a9be 4886 043d
00000040: 0e5a 4c3f ea84 d4be afc4 98bf f3ce 1ebf
00000050: c9f7 193f a646 1a3f 4d11 e73e 4a0a 23bf
00000060: eea2 823f c88e f33f c249 573f 2cd7 1240
00000070: 3b3f 263f b66f 353f 5220 e13e ec0e 8f3f

lstm.weight_ih_l3 f4 [32, 8]
0.8386618 -0.79008603 -0.17539632 -2.242387 0.64495796 0.38304108 0.75524116 -0.96480244
0.88729244 -0.74813646 -1.5181519 -1.1726671 -1.1899966 -0.60696787 0.06720403 0.5313271
-0.039661154 -1.053654 -2.2386534 -0.5149221 0.82091916 0.9909162 -0.65061784 -1.1157441
0.78384095 -1.1110601 -0.63974094 -1.7231174 0.38144717 0.69787455 0.69695294 -0.7111957
0.88925403 -0.5271276 -2.5144532 -1.5052038 -1.6182851 -0.7396068 -0.18149945 0.8598942
1.1957637 -0.9518852 -3.7957225 -1.1923895 -1.6638205 -0.8978299 0.09327811 1.6619228
1.0285524 -0.93386513 -3.3902733 -0.92798525 -1.2759547 -1.2192398 -0.06828186 0.8513832
-0.79105425 0.32198045 0.38831577 0.96084815 0.3254479 0.066989176 -0.21399845 -0.1686898
-0.24291171 -0.10721648 0.3278276 -0.31710765 -0.009108931 0.1321305 0.22779283 0.21898642
-0.014660656 0.22129175 0.291037 -0.27922228 0.24019971 0.29268816 0.044647515 -0.3468869
0.23115209 0.021089762 -0.17784351 0.1301246 -0.16432078 0.023270845 -0.19442163 -0.2005847
-0.072962165 -0.260575 -0.106787756 -0.1704354 0.08374554 0.17028019 0.08334476 0.06443834
0.15380374 0.21422324 -0.2611946 0.33445618 -0.2471892 0.31378344 -0.0819377 0.2999778
0.21799359 -0.19344833 0.16450003 0.130795 -0.18278979 0.099056214 -0.16886501 0.33704165
0.14761487 -0.19421233 0.0999549 0.13702628 -0.033280075 1.1712313e-05 -0.087234735 -0.06457102
-0.027765334 -0.35078216 0.023703128 -0.26423192 0.34981993 -0.122397736 -0.33092225 0.058950573
1.530279 -0.91466844 -0.92850846 -2.1015496 0.9783879 0.32059413 0.6392743 -0.5715915
-2.1053162 1.4036511 0.7422003 3.3363295 -0.75528777 -0.9407299 -0.90330666 1.1927383
-1.8425542 1.9655203 0.6532508 3.1337647 -1.3313624 -0.9209917 -0.8114051 1.4152004
-2.1028554 1.6238508 0.34724587 3.08624 -0.8520966 -0.6867184 -0.49901542 1.1965263
1.9022322 -2.0042286 -0.875135 -3.166081 0.71075547 1.2059927 0.6840329 -0.95119584
-2.3247654 1.9959489 0.9938204 3.4139295 -1.2267922 -1.1267122 -0.5527402 1.1782331
2.2296753 -2.0250995 -0.5542396 -3.0370905 0.61478704 0.8887901 0.9178399 -1.3311222
-0.41687363 0.94971406 -0.11502323 1.194674 0.19306466 0.06383462 -0.029281829 0.3867675
1.2515812 -0.9165101 -0.4937432 -1.7538028 0.3787223 0.74713135 0.5604787 -0.6876242
0.4096643 -0.34244817 -1.5119644 -1.3232485 -0.7442717 -0.042825233 0.012463056 -0.104653485
0.2932642 -0.9330436 -1.8522089 -0.1283382 1.2996941 1.0008845 -0.96539825 -1.2028267
0.9994219 -1.005242 -0.7897664 -1.7809905 0.5467457 0.7030156 0.6025499 -1.0946479
0.86448705 -0.7003096 -2.5156085 -1.3503693 -1.6319478 -0.9295435 -0.13293041 1.1189516
1.5312243 -1.2793092 -4.3469663 -1.2872678 -2.5362449 -1.9742802 0.54668546 2.119618
1.5093137 -0.68550694 -3.7949376 -1.196333 -1.5003482 -1.3379842 0.2888385 1.8808821
-0.79021764 0.35934067 0.22833914 0.88760066 0.5223003 0.32173273 -0.47574803 -0.0466833
00000000: 8ab2 563f 1443 4abf 189b 33be 4583 0fc0
00000010: f71b 253f f61d c43e 7c57 413f 4bfd 76bf
00000020: 9925 633f df85 3fbf cd52 c2bf f519 96bf
00000030: cf51 98bf 3f62 1bbf 44a2 893d 0e05 083f
00000040: bc73 22bd 22de 86bf 1946 0fc0 efd1 03bf
00000050: c227 523f afac 7d3f e48e 26bf b4d0 8ebf
00000060: cda9 483f 3837 8ebf 10c6 23bf 1c8f dcbf
00000070: 0b4d c33e e8a7 323f 826b 323f ec10 36bf
00000080: 27a6 633f d6f1 06bf cdec 20c0 85aa c0bf
00000090: f723 cfbf df56 3dbf feda 39be 0722 5c3f
000000a0: c90e 993f c0ae 73bf 1eed 72c0 38a0 98bf
000000b0: 12f8 d4bf 2ed8 65bf 9808 bf3d e3b9 d43f
000000c0: 9ba7 833f c911 6fbf 3dfa 58c0 7190 6dbf
000000d0: 7c52 a3bf 0d10 9cbf 5cd7 8bbd 40f4 593f
000000e0: 8882 4abf 9fda a43e 53d1 c63e 25fa 753f
000000f0: 1ba1 a63e 9f31 893d 6922 5bbe 05bd 2cbe
00000100: d9bd 78be 5094 dbbd 05d9 a73e ef5b a2be
00000110: a03d 15bc 384d 073e 8642 693e fa3d 603e
00000120: 4033 70bc 4e9a 623e cd02 953e 39f6 8ebe
00000130: eaf6 753e 39db 953e 50e0 363d 299b b1be
00000140: 22b3 6c3e 70c4 ac3c 9c1c 36be 623f 053e
00000150: b543 28be 80a2 be3c 7716 47be 1366 4dbe
00000160: 306d 95bd 166a 85be 8ab3 dabd 9e86 2ebe
00000170: c882 ab3d ee5d 2e3e a8b0 aa3d 40f8 833d
00000180: ba7e 1d3e 565d 5b3e 4cbb 85be d73d ab3e
00000190: 2a1f 7dbe 39a8 a03e f4ce a7bd b196 993e
000001a0: b639 5f3e 5217 46be b272 283e 20ef 053e
000001b0: 3f2d 3bbe fcdd ca3d f3ea 2cbe b990 ac3e
000001c0: 5a28 173e 99df 46be 28b5 cc3d 9e50 0c3e
000001d0: b050 08bd 0080 4437 20a8 b2bd d03d 84bd
000001e0: 2074 e3bc b899 b3be 102d c23c 6849 87be
000001f0: 991b b33e aaab fabd a46e a9be 2876 713d
00000200: 2fe0 c33f b627 6abf bbb2 6dbf ca7f 06c0
00000210: a177 7a3f ea24 a43e 7ba7 233f d253 12bf
00000220: 80bd 06c0 d7aa b33f d700 3e3f 6c86 5540
00000230: 8a5a 41bf add3 70bf 1b3f 67bf a6ab 983f
00000240: d1d8 ebbf 2b96 fb3f 723b 273f 9a8f 4840
00000250: 156a aabf 1dc6 6bbf 3fb8 4fbf 4925 b53f
00000260: 2f95 06c0 58da cf3f 36ca b13e f584 4540
00000270: 0123 5abf c7cc 2fbf f37e ffbe c627 993f
00000280: 587c f33f 4845 00c0 d908 60bf 12a1 4ac0
00000290: 12f4 353f f85d 9a3f c81c 2f3f 9281 73bf
000002a0: f5c8 14c0 417b ff3f 046b 7e3f d27d 5a40
000002b0: 8707 9dbf 1b38 90bf 6280 0dbf 58d0 963f
000002c0: 00b3 0e40 3b9b 01c0 a5e2 0dbf b15f 42c0
000002d0: af62 1d3f bf87 633f 8ef7 6a3f 3662 aabf
000002e0: 7670 d5be 7620 733f 4d91 ebbd 14eb 983f
000002f0: beb2 453e babb 823d 72e0 efbc 6406 c63e
00000300: d033 a03f 68a0 6abf e9cb fcbe 9c7c e0bf
00000310: e4e7 c13e 0044 3f3f 887b 0f3f 2408 30bf
00000320: 85bf d13e 5e55 afbe 0d88 c1bf 3560 a9bf
00000330: 9788 3ebf 8369 2fbd d831 4c3c 9154 d6bd
00000340: ba26 963e f2db 6ebf 2e15 edbf 176b 03be
00000350: 605c a63f fc1c 803f 5724 77bf 3af6 99bf
00000360: 1dda 7f3f c5ab 80bf 212e 4abf 7ff7 e3bf
00000370: 87f7 0b3f d5f8 333f b640 1a3f 6c1d 8cbf
00000380: 064f 5d3f 7d47 33bf bbff 20c0 e7d8 acbf
00000390: aae3 d0bf 90f6 6dbf e91e 08be ce39 8f3f
000003a0: 28ff c33f 67c0 a3bf 591a 8bc0 31c5 a4bf
000003b0: d651 22c0 37b5 fcbf 94f3 0b3f d2a7 0740
000003c0: 3131 c13f 627d 2fbf 42e0 72c0 7121 99bf
000003d0: 690b c0bf 1143 abbf a4e2 933e bfc0 f03f
000003e0: b44b 4abf 80fb b73e bcd1 693e cc39 633f
000003f0: 79b5 053f 27ba a43e 3f95 f3be fd36 3fbd
