ModelSave120.pt (torch_old, 30741 bytes, 45 tensors)

lstm.weight_ih_l0 f4 [32, 6]
00000000: a068 003f 7c32 4a3e ad50 7cbe 8348 303e
00000010: b545 f23f 4183 05c0 e1e8 ad3e bc6b b6bf
00000020: e043 7a3e 6c7b a03f 741d 9fbf 26e5 22bf
00000030: f25a 58bf 2393 95be 19e9 d33e c5aa 173f
00000040: 9f12 a0bf 8054 e33f ab4e 873e 7505 85bc
00000050: 4973 3f3f d884 143d 3eee d1bf b7fe a13f
00000060: ae41 dcbe 4265 33be 9d40 26bf 737a 983d
00000070: 442e a23e dc56 023f 7f04 053e d7f1 133f
00000080: a516 3cbf 810f d8be 807f 1ebf 1cc5 a1be
00000090: 01e5 85be 18c0 293e 22ed af3f c9b7 abbd
000000a0: 5f11 283f 4cc4 ef3f 2d13 2abf b62d 6fbe
000000b0: d2f9 16be 64bc e4be 6c5c ea3f 7581 0cc0
000000c0: 0aef 4c3e 80fb b6bd 10da abbe c0ff e8bd
000000d0: 5002 75bd 389a d53d 101b a03c 2ced db3d
000000e0: a90c ae3e 5e13 5d3e 170f b0be 72b9 043e
000000f0: c244 89be ecf0 8fbd 888c 76bd d9fd 83be
00000100: 99c2 3bbe 571a 48be 7621 023e 0016 7a3c
00000110: c429 f0bd 4061 833c d975 a13e 5c40 9bbe
00000120: f1d2 ae3e 7add 6d3e 3ada acbe d602 62be
00000130: e619 513e 226f 013e 80f6 3a3c 301a 90bc
00000140: ae60 1e3e 2c5b 123e c27b 5c3e a06b 303c
00000150: 350d 913e 69c7 8fbe b982 953e 7387 8f3e
00000160: 90dd b33c b12c b3be 581a 6fbd adae 9b3e
00000170: 5a08 f4bd 2d30 38be c1fe acbe 2830 64be
00000180: dbd1 023e 0f8c 84be 017f d93e 8086 5b3d
00000190: 9e7b 9dbf 1f38 913f f317 92be 1672 91bf
000001a0: 98df 3c3f 3b76 7f3d 0eb3 4240 075c bf3e
000001b0: e9b0 5cbe e6e4 083f 36ba d5bf 46e1 efbe
000001c0: ca5f 1c3e aaba eb3f 785c d63e a2dd b2be
000001d0: 8da8 e23f 2a6d 8b3f 030a cf3f 01d7 d6be
000001e0: 6efa 93be 568c 5fbf 3ae1 ea3e a748 983e
000001f0: 4a45 f5be 25d6 15bf 0155 30bf 7869 18bf
00000200: 7326 c9be 6363 cdbe 7895 f2bd 019c c33d
00000210: cc30 4f3e 7eb0 d2be 8087 963f f7aa 343f
00000220: 91cd 83bf 8748 edbf f4d1 eb3c 1911 093f
00000230: 1fd6 a2bf f8a4 15bf de3f 603f c662 96bf
00000240: dbf8 053e f844 b83e 8598 39be 8ad7 14be
00000250: c714 0d40 52eb fbbf 488d c1be c78c b9bf
00000260: ef21 523f 04b0 943f 0055 c2bf 76d6 3d3f
00000270: d14c e4be d773 65be 0003 ec3e 07ad 013d
00000280: 46a5 b03f 0359 f63f ccad 773e bb62 61bd
00000290: c402 3c3f d032 02bf ffb5 d0bf 4b2b 6f3f
000002a0: 0abd 13bf 0458 09be a487 8abf 3f23 e8bd
000002b0: 2941 243f 8521 5e3f 6ed5 4e3e adee 663c
000002c0: 9a9c 73bf c370 09bf 33be 12bf fa83 5cbe
000002d0: f541 373e bb5b 233e 32fb 373f 0d27 7fbe
000002e0: e0ff e23f 6baa a73f 46ed 9ebe ce2e b83d
000002f0: 2163 1dbf e521 83bd 8903 1040 8dbf 08c0
0.50159645 0.19745821 -0.2464015 0.17215161 1.8927523 -2.086136 0.33966735 -1.4251628
0.24439955 1.2537665 -1.2430863 -0.636309 -0.8451377 -0.2921382 0.41388777 0.5924495
-1.2505683 1.7760162 0.26427206 -0.016237954 0.74785286 0.036259502 -1.6400831 1.2655858
-0.4301886 -0.17519096 -0.6494234 0.0744523 0.31675923 0.50913787 0.12989996 0.57790893
-0.7347205 -0.4219933 -0.619133 -0.31595695 -0.2615128 0.16577184 1.3744242 -0.083846636
0.65651506 1.873178 -0.6643551 -0.23357281 -0.14743736 -0.4467498 1.8309455 -2.1954014
0.20013061 -0.089346886 -0.33564806 -0.113769054 -0.05981666 0.104298055 0.019544154 0.10738596
0.33994034 0.21589419 -0.34386513 0.12961367 -0.2681027 -0.07028374 -0.060192615 -0.25779608
-0.18335952 -0.19541298 0.12708077 0.015264034 -0.11726716 0.016037583 0.31535223 -0.3032254
0.3414531 0.23229018 -0.33760244 -0.22071394 0.20420036 0.1264005 0.011411309 -0.017590612
0.15466568 0.14292592 0.21531585 0.010767847 0.2833039 -0.28081825 0.29201296 0.28033027
0.021956235 -0.34995034 -0.058374733 0.30406705 -0.119156554 -0.17987128 -0.33788112 -0.22283995
0.12775366 -0.25888106 0.4247971 0.053595066 -1.230335 1.1345252 -0.28533897 -1.1362941
0.73778677 0.062368613 3.0421786 0.373749 -0.21551861 0.5347427 -1.6697452 -0.46851557
0.15270916 1.841634 0.41867423 -0.34934717 1.7707688 1.0892689 1.617493 -0.4196091
-0.28902 -0.8732351 0.4587496 0.2974293 -0.47904426 -0.58529884 -0.68879706 -0.5953593
-0.39287147 -0.4011489 -0.11844915 0.0955124 0.20233458 -0.41150278 1.1760101 0.7057337
-1.0297109 -1.8537759 0.028786637 0.53541714 -1.2721595 -0.5845485 0.87597454 -1.1748893
0.13083212 0.3599012 -0.18124588 -0.14535347 2.2043931 -1.9681189 -0.37803102 -1.4496087
0.8208303 1.1616216 -1.518219 0.74155366 -0.44589856 -0.2240747 0.4609604 0.031659152
1.3800437 1.9245914 0.24187392 -0.055025797 0.7344172 -0.50858784 -1.6305541 0.93425435
-0.57710326 -0.13412482 -1.0822644 -0.11334848 0.64161927 0.86769897 0.20198604 0.014094991
-0.9516083 -0.53687686 -0.5732147 -0.2153472 0.17896254 0.15952961 0.7186767 -0.2491724
1.7734337 1.3098882 -0.310404 0.08993302 -0.61479384 -0.06402949 2.2502158 -2.1366913

lstm.weight_hh_l0 f4 [32, 8]
00000000: dd53 9dbe eaa0 763e d1dc 803e 60ba a73c
00000010: 249a 32be 5e0c a3be a019 003d b2d2 293e
00000020: a4b1 9abe c890 5cbd 80a2 393b ecf4 8abd
00000030: 16f7 473e 5b5f b23e 3e58 46be e027 4abd
00000040: 40c8 be3b 8cfe 9bbe 20f6 c4bc bd24 24be
00000050: aed8 523e 709a cf3d 21c0 b1be c805 47be
00000060: a060 ab3c be98 6d3e 1383 ac3e c0d3 e03b
00000070: b639 3f3e 6923 28be f8ee 01bd dfa5 1cbe
00000080: a177 14be 0f22 893e f8d9 2cbe 2b2e 60be
00000090: 6ee1 4fbe 0c17 b2bd 12d3 33be 2fa3 a63e
000000a0: 2d6c 983e dec4 84be d923 73be b050 54bd
000000b0: 42bd 87be ec8c 86be 24ee 96be 0090 b73d
000000c0: 2b3e b13e 51fa 983e 80fa aa3b 208d b3bd
000000d0: 261e 393e 7633 7f3e b7b8 ac3e fe20 0b3e
000000e0: 88d9 43bd 9155 873e 2015 b83d 0896 203d
000000f0: f3b9 85be 5f35 9d3e 5c83 dcbd 8282 08be
00000100: 2683 8bbe 857a a33e fe4b 8ebe 8064 fc3c
00000110: 29a3 863e a27c 653e a030 5abd 6299 473e
00000120: 9d09 ae3e 44f1 5fbe 5017 b2be be81 273e
00000130: e980 a6be 7099 0bbd a6db 1a3e e282 5d3e
00000140: a08f 713c 788d c1bd f27b 6e3e 1379 06be
00000150: e674 1f3e 0ee4 19be f4be afbd 9fab a53e
00000160: 6050 77bc a9b4 91be 1178 7ebe 0dc8 b23e
00000170: d4e1 fd3d 20dd a1be 56ca 263e beec 3a3e
00000180: b710 b23e 924f 76be 582f 4d3d 23d0 813e
00000190: cca6 ea3d a888 93be ba58 5d3e 705c e73d
000001a0: b0c6 54be 61c1 943e d7f4 88be 5fc3 8dbe
000001b0: a0ca ac3c 3c62 a6bd dafe 3cbe 025b 363e
000001c0: 3cb6 35be 02db 0cbe 202a c3bc 70ee ea3d
000001d0: 170e 56be 338a a53e ecc3 b8bd 3837 09bd
000001e0: 04b5 0d3e 29e1 a43e cc00 043e b823 5dbd
000001f0: 444e d73d 29b5 80be 9492 0d3e b2dc 1f3e
00000200: 0671 dbbd ae6a 81be bad8 2b3e 2854 bbbd
00000210: f4c8 adbd 4432 973d a88c 83be a2cb 57be
00000220: 4e4e 553e 7564 9a3e 944c cd3d cc70 b33d
00000230: acd9 9dbe 7cc0 a83d 3af3 1a3e 9772 0cbe
00000240: 09e8 963e 7154 8e3e fcd4 6fbe e610 47be
00000250: 30c9 84be f1e3 943e bc84 c33d 0c3a c23d
00000260: ffe3 a43e ad02 04be e833 08bd e043 6ebd
00000270: 44b4 c73d 0978 99be a431 a8be e423 c13d
00000280: e30d 803e bd47 963e 609d 91be e217 fdbd
00000290: f472 9fbe 0035 4a3d f098 cabd f1a2 80be
000002a0: 6637 5d3e 80c8 08bb 3472 95bd 1892 70bd
000002b0: 18d2 47be 40a8 2f3c 0002 61bc 37dc b33e
000002c0: d4d8 c93d 2034 c33c 106d 913c b445 9abe
000002d0: 36f2 423e 8804 7d3d 47cb 8c3e c504 16be
000002e0: 692f b23e 001b c3bc 852e 8d3e 90f4 0abe
000002f0: 00da d63a 7f2e a2be 8b43 883e f607 82be
00000300: d27e 6e3e a6a2 6b3e 7507 8dbe daec 613e
00000310: 331c a9be a049 6c3d e242 213e d7c2 923e
00000320: ae19 163e ec30 9c3d 50ef e4bc 60ff 763d
00000330: 7aa3 503e c74d 813e 3c50 31be af87 07be
00000340: 6426 c9bd e42a fc3d 3453 ddbd a403 e73d
00000350: d590 8a3e 015c a43e 2016 b1bc cf28 893e
00000360: b2ed 9cbe 1dd8 8abe 2041 83bc 4944 1dbe
00000370: a68e 363e f6ec 9fbe 004e 7c3a c46d 133e
00000380: e644 ebbd fe54 303e 382e 833d e85a 86bd
00000390: a68c 1d3e 6c19 11be 6576 4abe 7431 a53d
000003a0: 54ac 83bd c681 a0be 2613 6a3e 9711 93be
000003b0: c827 2a3d f09a fabc 16b5 1f3e b44e cc3d
000003c0: 7c7d 903d 38d9 373d da77 1c3e 2c1a c8bd
000003d0: c8a1 f2bd 7ac5 053e 0688 5ebe a05e 6fbe
000003e0: f673 373e f537 97be 1586 68be 40a2 c73b
000003f0: c016 2cbd f845 2dbd c2ae 643e bd93 55be
-0.30728045 0.24084821 0.2516847 0.020474613 -0.17441612 -0.31845373 0.031274438 0.1658428
-0.30213654 -0.05384901 0.0028325617 -0.067849964 0.1952785 0.34838375 -0.19369599 -0.049354434
0.0058222115 -0.3046764 -0.024043143 -0.1602964 0.20590469 0.101368785 -0.34716895 -0.19435799
0.020920098 0.23202798 0.33693752 0.00686118 0.18674359 -0.16419758 -0.03172204 -0.1529765
-0.1449876 0.26783797 -0.16880023 -0.21892612 -0.20300838 -0.08695802 -0.17560986 0.32546374
0.29770032 -0.25931448 -0.23744144 -0.051834762 -0.2651158 -0.2627939 -0.29478562 0.08963013
0.34617743 0.29878476 0.00521785 -0.08767152 0.18077907 0.24921975 0.33734676 0.13586804
-0.047814876 0.2643247 0.08988404 0.03920558 -0.2611843 0.3070478 -0.10767242 -0.13331035
-0.27248496 0.31929412 -0.27792352 0.03080964 0.26296356 0.22410825 -0.05326903 0.19492105
0.3399171 -0.2186938 -0.3478341 0.16358086 -0.32520226 -0.034081876 0.15122852 0.21631959
0.0147437155 -0.09450811 0.23289469 -0.13132124 0.15571937 -0.15028402 -0.08581343 0.323575
-0.0150948465 -0.28458145 -0.24850489 0.34918252 0.12396589 -0.31614017 0.16288123 0.18254372
0.34778377 -0.24053791 0.05009398 0.25354108 0.11457595 -0.28815198 0.21615878 0.11296928
-0.20778918 0.29053786 -0.26749298 -0.2768812 0.021092713 -0.081242055 -0.18456593 0.17808154
-0.17745298 -0.1375542 -0.023823798 0.114712596 -0.20903812 0.32332 -0.09021744 -0.033499926
0.13838583 0.32203034 0.12890929 -0.053989142 0.10512975 -0.25138214 0.13825446 0.15611532
-0.10714917 -0.25276703 0.16781893 -0.09146911 -0.084855944 0.07382634 -0.2569325 -0.21073774
0.20830652 0.30154768 0.10024372 0.08761749 -0.30830133 0.082398385 0.15131846 -0.13715588
0.29473904 0.277988 -0.23421091 -0.1944004 -0.25934744 0.29080155 0.095468014 0.09483728
0.32205197 -0.12891646 -0.033252627 -0.0581702 0.0975118 -0.29974392 -0.32850373 0.09430674
0.25010595 0.29351607 -0.2844038 -0.12358071 -0.3114239 0.04936695 -0.09892452 -0.25124314
0.21603164 -0.002087146 -0.07297173 -0.058733076 -0.19513738 0.010721266 -0.013733387 0.35128948
0.0985581 0.023828566 0.0177522 -0.30131304 0.19037709 0.0617719 0.27498838 -0.14650257
0.34801796 -0.023816586 0.27574554 -0.13569856 0.0016391873 -0.316761 0.2661403 -0.253967
0.23290566 0.23011264 -0.27544752 0.22063008 -0.33029327 0.0576874 0.1574817 0.28664276
0.14658234 0.076265186 -0.027946144 0.06030214 0.20374861 0.25254652 -0.17315763 -0.13235353
-0.098217756 0.12312868 -0.10806885 0.11279991 0.27063623 0.32101443 -0.021616995 0.26788947
-0.30650097 -0.27118006 -0.016022265 -0.1535808 0.17827854 -0.31235474 0.000962466 0.14397341
-0.11487751 0.17219922 0.064053 -0.06560308 0.15385684 -0.14169854 -0.19771726 0.08066073
-0.06429353 -0.3134901 0.22858867 -0.28724357 0.041541845 -0.030591458 0.15596423 0.09975949
0.07055184 0.04488489 0.15280095 -0.09770617 -0.118472636 0.13063613 -0.21731576 -0.2337594
0.1791533 -0.2953488 -0.22707398 0.0060923398 -0.042013884 -0.042303056 0.2233229 -0.20857139

lstm.bias_ih_l0 f4 [32]
00000000: 43d4 203e 8d21 a23e af27 1d3f 0475 a13f
00000010: c5da 97be d85e 17bf ce57 3bbe 4114 083f
00000020: 6d5e a63e ae71 643e 9b72 a63e 8527 913e
00000030: 0052 72bb cca5 56be 9f6b 05be 088a 0b3e
00000040: 6e8b f1be dbb2 8e3d eb9f 933e 855f 193c
00000050: 5ef0 1e3d 106f 56be 2259 093f d17c 533e
00000060: 51c5 c6be ffd1 43be e594 383f 510c 443f
00000070: 8142 13bf ab2d 39bf ef70 333e 50b5 0a3f
0.15705971 0.31666222 0.6138868 1.2613835 -0.29659095 -0.59129095 -0.18295214 0.53155905
0.32493916 0.2230899 0.32509312 0.28350464 -0.0036975145 -0.20961684 -0.13029335 0.13626873
-0.4717669 0.06967708 0.28832945 0.009361153 0.03880345 -0.20940804 0.5365163 0.20653082
-0.38822415 -0.19123076 0.72102195 0.76581293 -0.5752335 -0.7233531 0.1752355 0.5418291

lstm.bias_hh_l0 f4 [32]
00000000: 57ae d53c 3b87 933e 3049 833e c73d 943f
00000010: 1bc7 73bf 887b 24bf 4c2e 53bd 0106 a63e
00000020: 1403 103e 20ce 623c 50bc 52be f0c4 64bd
00000030: b155 59be ac1a 113e de33 77be 9646 59be
00000040: 0cb1 babe a0e5 a03e 7f75 b6bd 6ad6 edbe
00000050: aa05 ffbe 8ea0 1d3d 4fc3 553e f216 123f
00000060: b23d 05be d8d0 1fbd 2e69 193f f5e1 a03f
00000070: f4e9 dabe bcd3 0dbf f003 f5bd 46e9 673e
0.026084108 0.2881411 0.25641775 1.1581353 -0.95225686 -0.64250994 -0.051557824 0.32426456
0.14063674 0.013843089 -0.20579648 -0.055851877 -0.21224095 0.14170331 -0.2414088 -0.21218333
-0.364632 0.3142519 -0.08909129 -0.46452647 -0.4980901 0.038483195 0.20875286 0.5706626
-0.13011816 -0.03901753 0.59926116 1.2568957 -0.42756617 -0.55401206 -0.11963642 0.2264758

lstm.weight_ih_l1 f4 [32, 8]
00000000: 5274 033f 84d4 84bd 936d 29bf 4cb4 353e
00000010: 1d3a 9b3e a4bc 003f b71c 1c3f 66d0 58bf
00000020: 96e0 1cbd 042c 0abf a762 823f 62b1 81bf
00000030: dba1 1ebe 448e ec3d 6912 ddbe b526 813f
00000040: aad0 b6bd 5a3b d7be 3c8a c63e be1e 54bf
00000050: e57f 6fbc e629 8b3e 5c64 613d 1024 143f
00000060: e9c8 5e3f e4f7 1cbf 5397 1a3e 0b32 88bf
00000070: 4fee de3e 08ae 6a3e 0a8e 2c3e 87ef 64bf
00000080: 21e4 ee3e a8ae eb3e 99c3 c6be f568 943e
00000090: 1c7f 063e 745f 31be 1a2e 683f 90e2 79be
000000a0: f2dd 0ebf 7bd3 a83f 62f8 38bf 6f3c b93f
000000b0: ba65 21bf 66f6 923e 1faa 863f a41e ce3e
000000c0: 45d4 0f3f 4b90 b23f fb12 5fbf df59 fb3e
000000d0: 3d7a 14bf 79b7 6f3f 1cfc b63f f098 febe
000000e0: 528a cbbf 3dcb 783f 49e1 8c3e 0f61 54be
000000f0: 3c22 63bf 85ff 783f 8334 3abf 2d5a 7e3f
00000100: b1cc 833e 2e74 79be 843d 6ebe 5589 8b3e
00000110: 07db 8d3e eaa7 7e3e 30ce e2bc 38bb 46bd
00000120: 186d 443d d12c 903e 7097 a6bc bc57 fa3d
00000130: f0cd 173d 3a66 4a3e 80f1 b03d fc9a 8bbd
00000140: 2aa9 b1be af20 9f3e 92db 4f3e 03ac 843e
00000150: 089e 023e e104 16be 4d66 00be 3f6c 69be
00000160: f5c5 a23e 5013 063d 5b02 aa3e f0a3 dcbc
00000170: fcef 8d3d 0cae ae3d 00e6 b7bb 251c 8a3e
00000180: dfb6 9b3e fe6e 3d3e acd7 c43d 5444 36be
00000190: 9b66 a53e 2578 b13e 00f5 f13a e0a6 bcbc
000001a0: b698 09be 4707 9a3e ccc2 fe3d de0b 8ebe
000001b0: 2b06 28be 195e 9d3e 26e6 40be 2041 00bc
000001c0: c0aa 78bc 80c6 443d cd45 9a3e aef6 613e
000001d0: 80b0 b3be 3ca0 ab3d 938a a33e 4344 a53e
000001e0: 5d16 a1be b665 3ebe faf5 173e 4002 64bc
000001f0: fc94 73be 6e60 6b3e ea30 0b3e 0202 313e
00000200: 534e 923e a10e 8f3f a3a6 0cbf 5ccb f63e
00000210: 304c 873e d2b6 4e3f 439e 553e 4693 f7be
00000220: e696 24bf 176c 1ebf 7e66 473f 1752 d4bf
00000230: f042 4f3d 875c b0be 517d 5ebf 9b89 c23f
00000240: b20a babd 63a1 ff3d 9db5 18bf 975a 3c3f
00000250: 8571 b3be 1f79 29bd 016c 283f 7638 1fbf
00000260: 4334 bbbd 206b 52bd ff8c 8a3e 7995 5e3f
00000270: e592 35be 3ac9 29be 44c1 cf3d bde3 163e
00000280: cb70 fcbe a1c7 86be 1a5d 153f ad25 b1bf
00000290: 9e24 d43c 8266 2bbf 446c ccbe 829f 8a3f
000002a0: 2868 92bf 1a31 76bf 38b4 973f 9a9a dcbf
000002b0: d5cd 3dbe deed dfbd b70e 80bf 4bb6 df3f
000002c0: 40a1 873f 332f 173f b506 aabf e5a5 fb3f
000002d0: e533 983e 1972 26be c517 593f 22f8 b9bf
000002e0: e7e2 563f 913d c03e 34a8 5ebf 4369 8c3f
000002f0: 6bdc 0ebd 081e 2f3e 528c 6b3f ba0b c0bf
00000300: f36c 1e3f 1a82 a93d 930b bfbd c3cf eb3e
00000310: f44a 13be 5671 713f 24e7 623e f649 74bf
00000320: f5ce b2be 9e20 14bf 7e69 353f 4cd2 bcbf
00000330: 079e 80bc daa8 6cbe 7694 abbe 928a 813f
00000340: 3136 043f 8e43 29bf b679 e73e e9e9 1cbf
00000350: b436 dc3e bfdd 703f 6d62 9abe 711b b43e
00000360: 0561 353f c319 f73c 5782 d7be 80ac 83bf
00000370: 0a32 043f a762 2f3e afdc 60be cf18 20bd
00000380: 1b4d 953f 6d94 e23e c20e 4fbe bed7 61be
00000390: 60ad 20be f89a 763e aa5f 2c3f f029 ebbe
000003a0: 6d3d 62bf 216d 903f 5e21 ecbe 5d14 843f
000003b0: 4f40 f9be f817 7a3f 6d70 773f 97d5 9b3e
000003c0: 112c 4c3f 49af d23f 677c 10bf bf6e 86ba
000003d0: 9bf8 bdbd 0309 753f b770 b63f fa47 77bf
000003e0: 3362 cabf f4b1 233f 106c e33e 48b3 8dbe
000003f0: 81a0 a1be 08af 773f 049a 96bf a98f a33f
0.51349366 -0.06485847 -0.6618282 0.17744559 0.30317774 0.5028784 0.60981315 -0.8469299
-0.03830012 -0.5397341 1.0186356 -1.0132258 -0.1549143 0.115505725 -0.43178108 1.0089937
-0.08926518 -0.4203747 0.3877734 -0.8285941 -0.014617895 0.27180403 0.05502735 0.57867527
0.87025315 -0.6131575 0.15096788 -1.0640272 0.4354119 0.2291795 0.16851059 -0.8942799
0.46658424 0.4603169 -0.38821104 0.28986326 0.13134426 -0.17321569 0.90695345 -0.24402833
-0.5580741 1.3189539 -0.72254 1.4471568 -0.6304585 0.28703612 1.0520667 0.40257752
0.5618327 1.3950285 -0.87138337 0.49092004 -0.5799902 0.9363933 1.4295688 -0.49726057
-1.5901587 0.97185117 0.2751563 -0.2074015 -0.8872411 0.9726489 -0.72736377 0.9935635
0.25742105 -0.24360725 -0.23265654 0.27253214 0.27706167 0.24868742 -0.027686208 -0.04851839
0.047955602 0.28159192 -0.020335883 0.12223765 0.03706163 0.19765559 0.086398125 -0.0681667
-0.34699374 0.31079623 0.20298603 0.25912485 0.12755597 -0.14650299 -0.12539025 -0.22795199
0.31791654 0.03273326 0.33204922 -0.02693364 0.06930539 0.085292906 -0.005612135 0.26974598
0.30412957 0.18499371 0.09611449 -0.17799503 0.32304844 0.34661976 0.0018459857 -0.023028791
-0.13437161 0.30083677 0.12439498 -0.2774343 -0.16408603 0.30735853 -0.18837795 -0.007828027
-0.015177429 0.048040867 0.3013138 0.22066757 -0.35095596 0.08380172 0.3194166 0.32278642
-0.31462374 -0.18593487 0.14839926 -0.013916552 -0.23787302 0.22986004 0.13592878 0.17285922
0.28575382 1.1176339 -0.5494177 0.48202026 0.26425314 0.8074771 0.20861153 -0.48354548
-0.6429275 -0.6188368 0.77890766 -1.6587552 0.050600946 -0.34445593 -0.8690997 1.5198244
-0.09084071 0.12481954 -0.5965212 0.7357573 -0.35047546 -0.041375276 0.657898 -0.6219553
-0.091408275 -0.051371694 0.27060696 0.8694683 -0.17731817 -0.16580668 0.10144284 0.14735313
-0.49304804 -0.2632418 0.58345187 -1.3839623 0.025896367 -0.6695329 -0.3992635 1.0829928
-1.1438036 -0.96168673 1.1851873 -1.7234681 -0.1853555 -0.109340414 -1.0004491 1.7477506
1.0596085 0.59056395 -1.3283297 1.9660002 0.29727092 -0.16254462 0.84801894 -1.4528849
0.83939976 0.3754697 -0.8697541 1.0969623 -0.034878176 0.171013 0.92010987 -1.5003579
0.61884993 0.08276768 -0.093283795 0.46056947 -0.14384061 0.9431356 0.22158486 -0.95425355
-0.3492352 -0.5786227 0.70864093 -1.4751678 -0.015700353 -0.23111287 -0.33511704 1.0120413
0.5164519 -0.66118705 0.45210046 -0.6129442 0.43010485 0.9408836 -0.30153218 0.35177186
0.70851165 0.030163651 -0.4209163 -1.0287018 0.51638854 0.17127477 -0.21959184 -0.03908616
1.1664156 0.44253865 -0.20220473 -0.22054955 -0.15691137 0.24082553 0.6733347 -0.45930433
-0.8837498 1.1283303 -0.46119207 1.0318714 -0.48681876 0.97692823 0.96655923 0.30436394
0.7975474 1.6459743 -0.5643982 -0.0010256394 -0.09275933 0.95716876 1.4253148 -0.965942
-1.5811218 0.6394341 0.44418383 -0.27675843 -0.31567767 0.9675145 -1.1765752 1.2778217

lstm.weight_hh_l1 f4 [32, 8]
00000000: cc03 c73d 4c42 123e 3061 e73c f1e7 8cbe
00000010: 757b a1be 5608 463e ee2a 7d3e 109f 103e
00000020: d2e4 ebbd cd8a 16be df07 9a3e ee3f e3bd
00000030: 247c c53d e557 8c3e fea9 473e 9689 323e
00000040: e7cb b33e 5029 673d d693 243e 7930 96be
00000050: 7486 36be 3018 34bd be66 733e beb8 8cbe
00000060: c674 81be faf0 3f3e 3333 803e b6f2 6ebe
00000070: 1845 663d 408e 003d 00df a3be d358 1bbe
00000080: aeec a0be dece 233e 93ad 92be b2f8 533e
00000090: 36fb 83be e6bf 4dbe 6920 b1be ff2f 15be
000000a0: 400a e8bc c0c7 f6bc bb44 833e 1c92 04be
000000b0: 634c 93be 770f 59be 60ae 6d3c 98d6 02bd
000000c0: 809e 813c 58bb e7bd a81d 6d3d 249d d83d
000000d0: 4e72 373e 12fd 203e c53a b43e 40b7 8d3b
000000e0: af8f 98be d5b3 9c3e 009d ce3a dfdf 5cbe
000000f0: 6bbe 10be 9c8e b3bd 36ba 7fbe 13ad 803e
00000100: 7005 a6bc 4eed 313e 866b 5d3e bd59 ac3e
00000110: 2a5e 233e 6a0a 093e 51dd 17be a8a3 6fbd
00000120: 60b2 b7bc 1491 a3bd 4031 8cbe 28a9 703d
00000130: 1309 81be e213 a1be 54cc 01be 9417 cebd
00000140: c0e8 7d3d fa99 523e d8fe 7a3d 764c 463e
00000150: 9c04 6fbe 1e9d 4c3e f7ef 84be c80b b7bd
00000160: d937 18be 3142 973e a847 36bd 14c2 9ebe
00000170: f82f adbd ac61 f43d a828 4cbd 1023 ecbc
00000180: d316 923e e313 4cbe 38de a13d 8016 4b3d
00000190: 3919 aa3e 2066 6b3c 6099 713c f211 253e
000001a0: 4014 bb3b de0a 90be d36a 95be a021 253c
000001b0: 424c 6b3e 3d08 4dbe 880f 2fbd c076 4f3d
000001c0: c6dc 43be 1c94 bbbd 54f0 cbbd 5312 973e
000001d0: 52b2 14be 8258 353e 243e a2bd 6f48 813e
000001e0: 0047 f1bc b288 423e aede 7fbe 40de e03d
000001f0: 4da3 a33e 3b9f 59be dd30 8a3e 049c 8bbe
00000200: 1419 e53d dd08 9e3e 905b 4a3d 381c b5bd
00000210: c801 343d 8601 053e 9e3a a0be bed9 97be
00000220: b92a afbe 44ff 003e 801e 6c3d 75bd b1be
00000230: 4aab 77be 9acc 49be 940c 77be 26ec 9ebe
00000240: 0f3d 9a3e 5425 b1bd 4ecf ffbd d6b0 84be
00000250: 90fe 8dbd d2d7 033e 1ece 633e 8e6d 7a3e
00000260: 2bf7 9c3e 0e54 1f3e 7002 a7bd 6071 80bc
00000270: bebb 633e fb8b 813e 16bf 67be 59d2 ab3e
00000280: 9224 063e e6e3 4d3e 825b 223e 006e cb3b
00000290: b43b bd3d 176c a53e 28b7 9dbd 21ae 893e
000002a0: 28f3 09be 402e 9dbc 2a14 76be 41f9 953e
000002b0: cfe3 8dbe 8f2d 90be 5724 97be dc57 cebd
000002c0: 2f05 ac3e 2070 5abd 7e9d 7e3e bf66 a53e
000002d0: 9268 2bbe 1110 99be 8d38 30be 5c81 c43d
000002e0: 3c59 d53d 0275 743e d5fa 2fbe 9067 4b3d
000002f0: ff5f a0be 8813 35bd 7000 a93d 3f63 ad3e
00000300: 00c4 28bb f6a5 673e 7928 02be 7c67 85bd
00000310: ec56 103e 8dc0 81be 9876 483d 401a 9e3c
00000320: 667d 8bbe e082 663c 4fa3 0fbe 124d 443e
00000330: 6f7f a83e a1bd 8e3e 5049 fd3d b086 8cbe
00000340: 69ec 833e 7c67 afbd 9fae 31be 2429 ba3d
00000350: 40c7 83be db44 813e 5ebd 7c3e 747f e13d
00000360: e06f 753c 955f a93e d18b aebe e2a9 95be
00000370: 795b 7ebe b47f 83be 9628 6e3e a0c2 273d
00000380: 3e56 783e 80d0 2f3d 24a0 da3d 10b0 60be
00000390: e888 73be 1ba1 a3be e2f6 453e 404d ac3c
000003a0: 90b4 60be 06c2 4e3e f2f4 283e f6fb 1b3e
000003b0: ec92 aebe 448a 8abe 1a71 40be 709e 93be
000003c0: 8ff3 0abe 54b9 f93d 2676 febd 50bd bbbd
000003d0: 520c e5bd 8a77 333e 490f a43e a40c 093e
000003e0: cca9 78be 50c6 a8be 28a1 a93d b309 2fbe
000003f0: 9b2a 3fbe 2094 a5bc f04a 963d 7a12 5cbe
0.09717521 0.14283103 0.028244585 -0.27520707 -0.31539503 0.19339117 0.24723408 0.14123178
-0.115182534 -0.14701386 0.3008413 -0.11096178 0.096428186 0.27410808 0.1949844 0.17435297
0.35116503 0.056435883 0.1607202 -0.29333857 -0.17824727 -0.04396838 0.23769662 -0.27484697
-0.25284404 0.18744269 0.25039062 -0.23334774 0.056218237 0.03138566 -0.32006073 -0.15170603
-0.31430572 0.15996882 -0.28648052 0.20700338 -0.25777596 -0.20092735 -0.3459504 -0.1456909
-0.0283252 -0.030124545 0.25638375 -0.12946361 -0.28769216 -0.21197306 0.014506906 -0.031942934
0.015822649 -0.1131503 0.05788961 0.10576847 0.17914698 0.15721539 0.35201088 0.0043248236
-0.29797122 0.3060595 0.0015763342 -0.21569775 -0.14135139 -0.08767435 -0.24973378 0.25132045
-0.020266265 0.17375681 0.21623048 0.33662215 0.1595389 0.13382879 -0.1483052 -0.058505684
-0.022423923 -0.07986656 -0.27381325 0.05875507 -0.25202236 -0.31460482 -0.12675601 -0.10063091
0.061989546 0.2056655 0.061278194 0.19365105 -0.23341602 0.1998181 -0.2596433 -0.08937794
-0.14865054 0.29542688 -0.04450193 -0.31007445 -0.08456415 0.11932692 -0.04984346 -0.028825313
0.28533038 -0.19929461 0.07903713 0.049582005 0.33222368 0.01436761 0.01474604 0.16120127
0.005709201 -0.2813329 -0.29183063 0.010078818 0.22978309 -0.20022674 -0.04273942 0.05065036
-0.19127187 -0.09159109 -0.09957948 0.29506168 -0.14521149 0.17709544 -0.07922009 0.25250575
-0.0294528 0.18997458 -0.2498729 0.10979891 0.31960526 -0.21252148 0.26990405 -0.27267468
0.11186424 0.30866137 0.049403727 -0.08843273 0.04394701 0.12988862 -0.3129472 -0.29658312
-0.34212282 0.12597376 0.057646275 -0.34714857 -0.24186435 -0.19706956 -0.24125892 -0.31039542
0.3012471 -0.08649698 -0.12490712 -0.25916165 -0.069333196 0.12875298 0.22246596 0.24455854
0.30657324 0.15559408 -0.08154762 -0.015679061 0.22239587 0.2530211 -0.22631487 0.3355892
0.13099888 0.20106468 0.1585522 0.0062081814 0.09239903 0.32309029 -0.0770095 0.26890662
-0.13471663 -0.019187093 -0.2403113 0.29291728 -0.27712867 -0.28159758 -0.29519913 -0.100753516
0.33597705 -0.053329587 0.24864766 0.32304952 -0.16739109 -0.2989507 -0.17209072 0.09594986
0.10417411 0.2387276 -0.17185529 0.04965931 -0.3132324 -0.04420808 0.082520366 0.3386478
-0.002575159 0.22621903 -0.12710752 -0.06513879 0.14095658 -0.25342217 0.048941225 0.019299626
-0.2724411 0.014069289 -0.14027141 0.19170025 0.32909724 0.2787905 0.12367499 -0.27446508
0.25766304 -0.0856466 -0.17351769 0.09089878 -0.25737953 0.25247845 0.24681613 0.11010638
0.014980286 0.33080736 -0.34091046 -0.29231173 -0.24839582 -0.25683367 0.2325767 0.040957093
0.24251649 0.04292345 0.10675076 -0.21942163 -0.23782694 -0.3195885 0.1933246 0.02103293
-0.21943879 0.20191202 0.16499689 0.15232834 -0.34096467 -0.27058613 -0.18793145 -0.28831816
-0.13569473 0.12193552 -0.12424879 -0.09166968 -0.111839905 0.1752607 0.32042912 0.13383728
-0.24283522 -0.329638 0.08282691 -0.17093544 -0.18668596 -0.020212233 0.07338512 -0.21491423

lstm.bias_ih_l1 f4 [32]
00000000: 0171 08bf a8f6 0d3f bb4f 66bf ac19 e5be
00000010: 7632 c0be dbbd 0940 866d bc3f 9a78 d83e
00000020: d8af 7bbd 2055 463d f249 6e3e 0859 73bd
00000030: b80f 8dbd 98fa 633d afac 953e c816 72bd
00000040: fa3c 9c3d 3aa8 c83d 8d04 7cbd 9424 35be
00000050: 8689 853e 08b5 983e 3c7b a4be 1b14 34be
00000060: 1313 84be 92ac 3c3f 4903 28bf 0f52 b2be
00000070: d275 98be 1077 0e40 cc16 a63f 8e9d 073f
-0.5329743 0.5545449 -0.8996541 -0.4474615 -0.375385 2.1522129 1.4720924 0.42279512
-0.061446995 0.048421025 0.23270395 -0.05941108 -0.06887764 0.055658907 0.2923331 -0.059103757
0.07628818 0.09797712 -0.061527777 -0.17689735 0.26081485 0.29825616 -0.3212527 -0.17585795
-0.25795802 0.7370082 -0.6563001 -0.3482823 -0.2977739 2.226017 1.2975707 0.52974784

lstm.bias_hh_l1 f4 [32]
00000000: 57f0 d8be 1546 4d3f e084 45bf 5e94 2ebf
00000010: 64a6 b3bd 3bc9 2540 7ba3 d63f 3a4b 153f
00000020: db9c a33e 8009 15bd 00d6 bfba bdbd 97be
00000030: 0435 9abe a84c 44bd 8fdf 85be 5ab3 083e
00000040: d2bd 42bd 8018 733e 9875 30bd 02dd 58bd
00000050: cdb8 30be 77ca 373d 9545 afbc 76eb a83c
00000060: b028 bebc d3d1 6d3f e88d 0abf 6867 6bbe
00000070: ec32 fb3d 7f0a 2040 cd57 e43f ed7d ed3e
-0.42370865 0.8018506 -0.77155876 -0.6819514 -0.08771971 2.5904071 1.676864 0.5831791
0.3195561 -0.036386013 -0.001463592 -0.29636946 -0.30118573 -0.047924668 -0.26147124 0.13349667
-0.047544308 0.23739815 -0.043080896 -0.052945144 -0.17257996 0.04487082 -0.021395484 0.020620089
-0.02321276 0.9289829 -0.5412278 -0.22988665 0.12265572 2.5006406 1.7839295 0.46385136

lstm.weight_ih_l2 f4 [32, 8]
00000000: 0f64 c73f 97c3 1d40 2979 1e3e 9271 b5bf
00000010: db86 81bf 2a49 a33d 0882 513e 64c6 12bf
00000020: 39e5 c13f 26de 903f 8749 edbe 68d1 6cbf
00000030: 85f7 d4bf 3f2e 213f a5fe b8bd 0ca9 30bf
00000040: b514 c13e 5744 80bf 92cc f5bd 125c ddbd
00000050: 4234 f73c 09c5 7e3f ab04 1abe 1b13 86be
00000060: d296 1440 775b 3040 cc16 60bf 3153 b6bf
00000070: fe9c cebf 97c5 fd3e af0d ab3d 1a2a a0bf
00000080: 603e 433e cf79 46be 938a b93e 5a06 85be
00000090: 5449 173d 562c 823f 7805 0fbf e170 1abf
000000a0: 5edc 6ebe b455 b33e 3186 42bd b7ca 25be
000000b0: 7f8b ea3e 90df d43f 8f0f 8ebf 6c36 1dbf
000000c0: 0da8 003f ff5a 7abe 2d5b 3fbf 0a40 1ebf
000000d0: a095 2fbf 7139 c2bf 301b 983f d434 c7bc
000000e0: 265c 1a3e fc14 383f b21e 943e c42f 33be
000000f0: 87d2 6dbe b09d 0140 39c6 b8bf 21d7 bdbe
00000100: e180 a73e 21c8 a5be a068 1c3d ead3 2b3e
00000110: 3afc 343e 402e e23d cac8 593e 35b9 893e
00000120: 9c81 b43d fb08 893e 5811 f83d 0995 82be
00000130: f082 51bd 4e17 9abe 8586 8b3e 6af1 3f3e
00000140: 82b1 67be b259 2c3e 8851 adbe a8af e53d
00000150: 008a 0c3e 1ab4 afbe c5fd 27be f85f a83d
00000160: 103f 9d3c 802d 64bc d09d 83bc e354 96be
00000170: bda2 833e 4bb5 5dbe 73eb 8f3e 0a80 b0be
00000180: 96e5 453e 520a 083e be78 473e 58f5 113d
00000190: 3e24 2b3e 1614 5bbe c0cd 02bc 8f13 3dbe
000001a0: 0031 26bc a891 abbe 7037 933c eb85 833e
000001b0: 4359 52be 8ec3 203e 6072 44bd b48b ef3d
000001c0: cdca 903e fdd1 a5be e94d 16be 40ab 16bd
000001d0: 6ebb a7be 97f1 903e 7a24 5c3e 3c6b f63d
000001e0: cc63 91bd e195 9b3e 5234 9ebe 96a1 1e3e
000001f0: bc13 cd3d 7b9e a63e 90ce f2bc 574b 9e3e
00000200: 66f1 72bd e44f 593f 87fd 643e d0be 713e
00000210: 9dad 0abe f357 1a40 cc3c e6bf 9afc 32bf
00000220: 1018 91bc 94e2 4ebf 5472 183e 812c 60be
00000230: d42b acbe 6646 2fc0 904e de3f 2463 8b3f
00000240: 26d6 ccbe 0b90 0d3f fe42 c7bd c566 103f
00000250: 1af0 38be 5286 4ebf a7f5 033c 4ebb 173e
00000260: 601b 6cbb 562b 8abf ac4e 633c 48b4 183e
00000270: 669f 60be e63c 3ec0 587a ee3f 60b8 5f3f
00000280: ba5a e6be 5f78 b23e 1c43 1dbc 6074 dbbe
00000290: c5f2 413e 3ecb 1340 ad67 98bf 820e 07bf
000002a0: c716 84be 06a7 df3e a0bf 8cbd a68d 7a3e
000002b0: 574f d9bd 10af 1140 0995 bcbf b7ab 5cbf
000002c0: efa3 88be 485f 653f 62fe 91bd edd9 0d3e
000002d0: 8f84 a83e 1131 3b40 0f05 d1bf 050e 28bf
000002e0: d313 053f 2862 01bf ed2e b93e 0f35 193d
000002f0: 4f6f b2be d57a 14c0 5c89 e33f 0d3e 793f
00000300: 5c27 d63f 3f0b 2140 3318 6fbe 9c2d 99bf
00000310: fb3e 24bf 950a b5bd b6f0 d93e 4e0a d5be
00000320: f050 f63f 1bfa 953f 336c e3be 4194 9fbf
00000330: 9a45 cfbf 2fb7 d53e 2cac a3be 9389 01bf
00000340: 8af7 1abe 870a 0fbf 6f27 afbe fc07 7bbe
00000350: cba4 a93e 57a2 823f e019 91be c8ce d0be
00000360: 29ec 0f40 9cb7 3240 72b4 67bf 46ed cabf
00000370: a703 c5bf a8a6 743e e6ed 1fbd c3f2 a0bf
00000380: 650b b03e bed0 f5be 084f 663e 6adb 15bd
00000390: 4357 82bc b9b0 d33f cf13 0cbf 920b 88be
000003a0: 9c6f 2f3e 0985 333e d1ec f13d e477 2bbf
000003b0: 4c6f 213e 6582 d43f 5d33 a2bf f010 3bbf
000003c0: 4479 413f e6d6 a43e 07c3 18bf 9478 c3be
000003d0: 691d 41bf feae c8bf a68d 3c3f cf58 bb3e
000003e0: 558a 883d 5cc9 313f bda2 ccbd 81e3 3ebf
000003f0: efa3 b03d e536 1440 99b3 b6bf 5818 48bf
1.557741 2.4650629 0.15475906 -1.4175284 -1.011928 0.07972939 0.20459759 -0.5733397
1.5148078 1.1317794 -0.4634516 -0.9250703 -1.6638037 0.6296119 -0.090329446 -0.69007945
0.3771111 -1.0020856 -0.12001909 -0.10808577 0.030176286 0.995194 -0.15040843 -0.2618645
2.3217053 2.7555826 -0.87534785 -1.4244138 -1.614166 0.49564812 0.08352219 -1.2512848
0.19066763 -0.19382404 0.36238536 -0.25981408 0.036935166 1.016978 -0.5586772 -0.6032849
-0.23326251 0.35026324 -0.047491256 -0.16190611 0.45809552 1.6630726 -1.1098498 -0.61411166
0.50256425 -0.24448775 -0.747485 -0.61816466 -0.68587685 -1.517378 1.1883297 -0.024317183
0.15074214 0.7190702 0.2892967 -0.1749869 -0.23224841 2.0252495 -1.4435493 -0.37078193
0.32715514 -0.3237925 0.038185716 0.16780058 0.17674342 0.11043978 0.21268001 0.26899114
0.088137835 0.26764664 0.12112683 -0.2550433 -0.051150262 -0.30095905 0.27251068 0.18744436
-0.22626308 0.16831091 -0.33851266 0.112151444 0.13724518 -0.34317094 -0.16405399 0.082214296
0.01919511 -0.013926864 -0.016066462 -0.29361638 0.25710097 -0.21651189 0.2810932 -0.34472686
0.19325861 0.13285187 0.19479653 0.03563437 0.16713044 -0.21394381 -0.007983625 -0.18464492
-0.010143518 -0.33509564 0.01797077 0.2568811 -0.20541863 0.15699598 -0.04796064 0.11696568
0.28279725 -0.3238677 -0.14678158 -0.03678441 -0.32760185 0.28309318 0.2149829 0.12032172
-0.07099113 0.30387786 -0.30899292 0.15491328 0.1001353 0.32542786 -0.029639512 0.30916855
-0.059312247 0.8488753 0.22362338 0.23607945 -0.1354279 2.411618 -1.7987304 -0.6991669
-0.01771167 -0.8081448 0.14887363 -0.21891977 -0.33627188 -2.7386718 1.7367725 1.088963
-0.40007132 0.5529792 -0.097295746 0.56406814 -0.18060341 -0.80673707 0.008054174 0.14817545
-0.003602706 -1.0794475 0.013873737 0.14912522 -0.21935806 -2.972467 1.8631086 0.8739071
-0.44991094 0.3485746 -0.00959852 -0.42862225 0.18940265 2.30928 -1.1906639 -0.5275651
-0.25798628 0.43682116 -0.06872487 0.24468097 -0.10610836 2.27631 -1.4732982 -0.86199516
-0.2668757 0.8959851 -0.07128598 0.13852663 0.32913634 2.9248698 -1.6329669 -0.6564639
0.51983374 -0.505404 0.36168614 0.037404116 -0.34850547 -2.319997 1.7776294 0.97360307
1.6730762 2.5163114 -0.23349075 -1.1967044 -0.641586 -0.08839909 0.4256646 -0.41609424
1.924345 1.1716951 -0.44418487 -1.2467119 -1.6193116 0.4174132 -0.31967294 -0.50600547
-0.15133491 -0.5587544 -0.34209773 -0.24514765 0.3313354 1.0205792 -0.28340054 -0.40782762
2.248789 2.7924566 -0.9050971 -1.585366 -1.539174 0.238917 -0.039045237 -1.2574085
0.34383693 -0.4801082 0.22491086 -0.036586203 -0.01591075 1.6538306 -0.54717726 -0.26571327
0.1713242 0.17531218 0.11812747 -0.66979814 0.15765113 1.6602293 -1.2671925 -0.7307272
0.7557566 0.32195204 -0.5967259 -0.3817793 -0.754355 -1.5678403 0.7365364 0.36591193
0.0666701 0.69447875 -0.09991977 -0.74565893 0.08625018 2.3158505 -1.4273559 -0.78162146

lstm.weight_hh_l2 f4 [32, 8]
00000000: a821 343d a3d4 8a3e 0ea3 7b3e 381e 86be
00000010: 7df7 a63e 66b3 653e b253 7f3e 45ef 65be
00000020: 7e1e 01be fd7d 963e 51b9 8e3e e008 2c3d
00000030: af7a 853e 9981 823e 1495 94bd bac4 503e
00000040: bc77 28be 2723 81be a65e 49be 68c0 dabd
00000050: 7809 073d 68b3 40bd 4082 f53d 266b 763e
00000060: 402c 683c 80be dc3c fc0f c0bd c5f3 ac3e
00000070: 0038 293a f0b9 c33c c18a 94be 00ed 3abd
00000080: 9093 0dbd d846 57bd 9f7d 05be 92b3 383e
00000090: 3427 96be c77b b33e bc4a 8ebe 5aef 3f3e
000000a0: 0d4d 953e 7eb6 2f3e f229 4dbe b8ed 2b3d
000000b0: 93e4 9d3e a032 33bd 83bc 873e df12 22be
000000c0: 20ad b63c 2652 9bbe a671 b3be b65e 063e
000000d0: 7636 4f3e 448c 143e 69d4 8a3e 7a65 3b3e
000000e0: 879d 59be bef1 303e 4845 56bd 7255 97be
000000f0: a82a a73d 6a7c 413e d50a 99be d139 8c3e
00000100: 46c2 2e3e 0022 b53d 2887 cfbd 7129 8dbe
00000110: 86ce 283e 950e 46be ae1c 5d3e 8b70 a93e
00000120: ec8c bdbd 3b79 a3be 4253 3cbe e044 04bc
00000130: 9360 22be 219f 9abe c854 213d 22ae 463e
00000140: 00d4 acbc 3a04 023e 626e 9abe c34c 9e3e
00000150: 558f 8ebe ec5a ccbd d30a 8e3e d40b 9fbe
00000160: 8bbf 823e f444 153e aa03 9bbe 0d85 34be
00000170: 5af5 51be 8eef 6cbe 5c64 fc3d e012 98bd
00000180: fd53 aa3e ff92 0ebe 82fe 483e 785a c13d
00000190: aca8 e6bd ecdd a1bd 3edf 323e 5a38 553e
000001a0: 5e58 89be 1f84 8d3e e568 873e eb9b af3e
000001b0: b3be b03e 042f 34be 7f11 b03e 5854 b4bd
000001c0: bc9a a63d 8b86 843e 2082 c8bc c0d1 b7bd
000001d0: 2a3c 343e b1f8 a83e 9a19 063e 800b 3d3c
000001e0: b5c2 8a3e 2a66 523e 6dd6 7bbe 96cc 3a3e
000001f0: 9ebc 5f3e 6850 363d db3a a63e d119 12be
00000200: 74a7 76be 683f 8ebd 0af6 453e 0521 a5be
00000210: 600c 3bbc cfdf a2be 86f5 6c3e b8bd 8bbd
00000220: 08a5 0d3e 3b9f b4be 55ad 97be 2df4 abbe
00000230: 2dff 923e 5036 a9bd 22bd 99be 80bf 1d3b
00000240: b31b b2be 58e9 a0bd 34cb cb3d 0030 70bc
00000250: 8cbe b13d 4060 00bd 71d1 ab3e a0ab c33c
00000260: 1ac0 4ebe 009b 04bc e0b5 433d 38ae e23d
00000270: aeea 563e 909b 69bd ac1c a1be 565e ebbd
00000280: efea 7dbe 8001 943c d59a 8c3e 3c48 a2be
00000290: 7070 6fbd c86d dabd be5e 393e 40d4 963c
000002a0: aab5 683e 7071 b1bd 569f 3a3e 58fe aa3d
000002b0: 1669 4b3e be6e 703e 202d 00be ea3c 153e
000002c0: 124d 2e3e a0b5 7e3d df43 a23e d40e c13d
000002d0: cd0a a9be e212 663e 1ce8 ac3d 22c3 633e
000002e0: 46b1 8dbe 5acc 123e f15a 02be 32d1 283e
000002f0: 58a0 403d 6722 aebe 826b 75be 3a4e 0c3e
00000300: 4a9f 163e a6b1 783e 2c5b f9bd 8d89 8f3e
00000310: 665b b3be de30 aebe 8c5a 123e 1f41 8ebe
00000320: 78e5 16bd 68d8 353d c216 76be f474 953d
00000330: 31ac 8cbe 7afa f3bd 35cf 5abe 4010 98be
00000340: 41b5 863e 7b30 70be 87ef 933e f8f3 7d3d
00000350: 3b59 8d3e 907b df3c eece 61be 5df3 09be
00000360: 833d a43e 3ec8 95be 1a4b 2ebe c0b8 7dbe
00000370: 180c 363d 288c f83d 70c9 b5bd b7f9 51be
00000380: 4960 acbe 2513 a43e efe9 b43e 7c2a 93be
00000390: 1698 73be 0ec1 49be 497d a43e d43a 95bd
000003a0: 9b8d 9c3e bcb4 dabd 65a6 983e 101e 7cbd
000003b0: 8a23 483e 4e34 613e 2093 39bc 6803 ac3d
000003c0: 2b63 90be 5846 283d 001a e13d 2a74 65be
000003d0: 40c9 a5bc 9a8c a0be a4e5 ccbd eea7 603e
000003e0: 78b3 763d b020 21bd 9001 3c3d c8d0 42bd
000003f0: 0d49 9abe a12c b0be 287c 06bd 3353 a63e
0.04397741 0.27115354 0.24573919 -0.2619493 0.32610694 0.22431716 0.24934271 -0.22454555
-0.12609288 0.29392996 0.2787576 0.04200065 0.26070163 0.254895 -0.07254997 0.20387545
-0.16451925 -0.25222132 -0.19665012 -0.1068123 0.032968014 -0.047046095 0.11987734 0.24064311
0.014170706 0.026946306 -0.09378049 0.3377973 0.0006455183 0.023892373 -0.2901211 -0.045636177
-0.034564555 -0.052557796 -0.13036202 0.1803725 -0.29326785 0.35055372 -0.27791393 0.18743649
0.29160348 0.17159459 -0.20035532 0.041974753 0.3083845 -0.04374945 0.2651101 -0.15827511
0.02229935 -0.30336112 -0.35047644 0.13122067 0.20235619 0.14506632 0.2711518 0.18300429
-0.21251498 0.17279717 -0.052312165 -0.29557377 0.08162433 0.18895116 -0.29891077 0.2738786
0.17066297 0.088443756 -0.10133201 -0.2757068 0.16485032 -0.193415 0.21592972 0.33093676
-0.09255394 -0.3192843 -0.18391135 -0.008073062 -0.15857153 -0.3019953 0.039387494 0.19402364
-0.021097183 0.12696925 -0.3016234 0.3091794 -0.2784373 -0.099782795 0.27742633 -0.31063712
0.2553676 0.14577085 -0.30276233 -0.1762888 -0.2050375 -0.23138258 0.123238295 -0.07425475
0.33267203 -0.13923262 0.19628337 0.09441084 -0.1126264 -0.07903656 0.17467973 0.20822278
-0.2682523 0.27639863 0.26447216 0.34298643 0.34520492 -0.1759606 0.34388348 -0.0880515
0.08134982 0.25883898 -0.024476111 -0.089755535 0.17601076 0.33002236 0.13095704 0.011538386
0.27101675 0.20546785 -0.24593516 0.18242106 0.21849295 0.044510275 0.32466778 -0.1426766
-0.24087316 -0.069456875 0.19332138 -0.32251754 -0.011416525 -0.31811377 0.23140535 -0.06823295
0.13832486 -0.35277733 -0.2962443 -0.3358473 0.2871031 -0.082623124 -0.3002711 0.0024070442
-0.34786758 -0.07857007 0.09950867 -0.014659882 0.08678922 -0.03134179 0.3355823 0.023885548
-0.20190468 -0.0080935955 0.04778087 0.11068386 0.2098796 -0.05703312 -0.31467187 -0.114926025
-0.24796651 0.018067122 0.27461877 -0.31695735 -0.058456838 -0.1066547 0.18102548 0.018411756
0.2272555 -0.086642146 0.18224844 0.083492935 0.19864306 0.23479745 -0.12517214 0.14574018
0.17021587 0.06218493 0.31692407 0.09426656 -0.33016053 0.2246814 0.08442709 0.22242406
-0.2767431 0.14335766 -0.12730004 0.16486052 0.047027916 -0.34010622 -0.23966792 0.13701716
0.14709201 0.24286518 -0.12175593 0.2803463 -0.3503067 -0.34021658 0.14292353 -0.27784058
-0.036839932 0.044395834 -0.24032119 0.07297698 -0.27475122 -0.11913009 -0.21368106 -0.29699898
0.2631016 -0.23455994 0.28893682 0.062000245 0.2760714 0.027280599 -0.22051594 -0.13471742
0.3207818 -0.29254335 -0.17020836 -0.24777508 0.044445127 0.12136108 -0.08876312 -0.20505415
-0.3366721 0.32045856 0.35334727 -0.2874335 -0.23788485 -0.19702551 0.32126835 -0.07286611
0.30576786 -0.106790036 0.2981445 -0.061552107 0.19544807 0.21992609 -0.011326581 0.08399087
-0.2820066 0.04108271 0.10991287 -0.22407594 -0.020237565 -0.3135727 -0.10004738 0.2193906
0.06022975 -0.039337814 0.045899928 -0.04756239 -0.30133858 -0.3440905 -0.03283325 0.3248535

lstm.bias_ih_l2 f4 [32]
00000000: 53b0 423f b2cf 893f e219 443f 18ea fb3f
00000010: 57a1 823e eb5f 4f3e 042e 823f 43bd 8b3e
00000020: ffae b23e b022 93be b8d7 80be d3eb 9e3e
00000030: 4118 b23e deb3 3ebe 1857 7cbd f88e c7bd
00000040: f4d2 9cbe 3809 08be 8a9e 4cbf 5864 e23d
00000050: e41c 0f3d 84bd 183e fd18 60bd 8da0 0fbe
00000060: 8ab6 5b3f 56b5 a93f ec17 ca3e cdd5 1840
00000070: edc8 c43e 14a7 0a3e ad4c 023f 69d7 da3d
0.760503 1.0766509 0.76601994 1.9680815 0.25513718 0.20251434 1.0170293 0.27292833
0.34899136 -0.28737402 -0.2516458 0.31039295 0.3478413 -0.18623301 -0.061606497 -0.09744066
-0.30629694 -0.13284767 -0.7992941 0.11054295 0.03493966 0.14916044 -0.05471133 -0.14026089
0.8582541 1.3258464 0.39471376 2.3880494 0.38434544 0.13540298 0.5089825 0.106856175

lstm.bias_hh_l2 f4 [32]
00000000: fc00 493f e8af ac3f 231d 5b3f 15ad 2140
00000010: 895b 3d3f b458 0e3f c025 f83e 4aca fc3e
00000020: 7809 6a3d 4bcd 37be e104 ab3e 0b43 9c3e
00000030: 91ec 823e 5c94 b83d fc2a a9be 4886 043d
00000040: 70e9 a03e b27c be3d 1faf 88bf 0552 d4bd
00000050: feab cc3d 894f da3d c64f 95bd 1fce 0dbe
00000060: 3480 243f 0606 bc3f 8ae7 f03e e8a5 f03f
00000070: f560 363e e29f 693e d632 423f 5592 1f3f
0.7851713 1.3491182 0.85591334 2.526189 0.73967797 0.556041 0.484663 0.49373084
0.057137936 -0.17949407 0.3340216 0.305199 0.2557111 0.09012672 -0.33040607 0.032354623
0.314281 0.093011275 -1.0678443 -0.103672065 0.099937424 0.106597014 -0.07290606 -0.1384816
0.6425812 1.4689338 0.4705165 1.880063 0.17810424 0.22814897 0.7585882 0.6233266

lstm.weight_ih_l3 f4 [32, 8]
00000000: 135c 1b3f 0492 ffbe c4bc 833e 9136 f3bf
00000010: 8baa 823e 06d0 4f3d b896 5a3f 0730 14bf
00000020: 197d 643f 8986 44bf ce7a bebf 37f9 98bf
00000030: d531 99bf 3f66 1ebf e1c5 c33d c32a 0b3f
00000040: 812b 7abd 7bc3 75bf b64b e6bf 4ea6 ebbe
00000050: 73e4 dc3e d936 1b3f 5db6 26bf b1ec 35bf
00000060: 658f 5f3f 1866 99bf de9d 13bf 618a e7bf
00000070: 3442 9e3e 9ac0 203f b91a 443f 2c1c 25bf
00000080: e0ea 4f3f 67e8 e3be db0f 26c0 f347 b6bf
00000090: 4a1b c5bf e96f 29bf ff6a 85be 01c9 483f
000000a0: 290b 903f 4707 5fbf d088 6cc0 e837 8ebf
000000b0: c168 d3bf 13ee 73bf f0a6 9a3c 3f95 e03f
000000c0: 4ee8 733f 3bb7 59bf feb7 59c0 4701 59bf
000000d0: 651b 9cbf 5d35 98bf 1432 15be d6ee 553f
000000e0: a373 33bf 0ba8 273e 2f0d 8abc 555e 583f
000000f0: c03d 243f ceb7 b33e 9e8f 28be 8eee f7be
00000100: d9bd 78be 5094 dbbd 05d9 a73e ef5b a2be
00000110: a03d 15bc 384d 073e 8642 693e fa3d 603e
00000120: 4033 70bc 4e9a 623e cd02 953e 39f6 8ebe
00000130: eaf6 753e 39db 953e 50e0 363d 299b b1be
00000140: 22b3 6c3e 70c4 ac3c 9c1c 36be 623f 053e
00000150: b543 28be 80a2 be3c 7716 47be 1366 4dbe
00000160: 306d 95bd 166a 85be 8ab3 dabd 9e86 2ebe
00000170: c882 ab3d ee5d 2e3e a8b0 aa3d 40f8 833d
00000180: ba7e 1d3e 565d 5b3e 4cbb 85be d73d ab3e
00000190: 2a1f 7dbe 39a8 a03e f4ce a7bd b196 993e
000001a0: b639 5f3e 5217 46be b272 283e 20ef 053e
000001b0: 3f2d 3bbe fcdd ca3d f3ea 2cbe b990 ac3e
000001c0: 5a28 173e 99df 46be 28b5 cc3d 9e50 0c3e
000001d0: b050 08bd 0080 4437 20a8 b2bd d03d 84bd
000001e0: 2074 e3bc b899 b3be 102d c23c 6849 87be
000001f0: 991b b33e aaab fabd a46e a9be 2876 713d
00000200: 610b 9c3f ef5f 0dbf 3318 dabe b042 dabf
00000210: ba10 fe3e e845 e3bd f07c 4c3f 5dcb d4bd
00000220: 4526 e0bf 228f 793f 9404 803e d906 3a40
00000230: 21f1 68be 6e1b dcbe 3e21 98bf 2f77 2f3f
00000240: bf06 c1bf 272f c83f af7f c43d ff1c 2f40
00000250: 7fca 49bf 8f7f d6be 1438 86bf b3cf 643f
00000260: 8c0a dfbf 8d1c 983f 93a4 17be 5d10 2a40
00000270: 2a64 a4be 0d4d 2dbe 3257 4cbf 31d7 2e3f
00000280: aa24 c63f 8abf c9bf 1dcf bcbe 7b69 2fc0
00000290: 7564 373e fdb5 313f d365 773f 57e4 e0be
000002a0: 4958 febf afb9 cb3f 8972 ea3e 68e2 4040
000002b0: 4c03 31bf 4c5d 20bf db7c 4cbf 8135 2a3f
000002c0: 79c3 f03f fa81 cdbf 3d02 0bbd eea6 27c0
000002d0: 8495 a43d ac32 c33e dd11 973f 4636 51bf
000002e0: ae6d 80be 9185 083f 75be 18bf a862 6f3f
000002f0: ca79 1c3f 62fd df3e 69de 7dbd f603 4cbc
00000300: 3324 873f d4ac 20bf d676 5dbd c70a b7bf
00000310: 3fee 93bc af62 d03e a851 2a3f 43c7 96be
00000320: 730e d53e f70e babe 9db5 bdbf 516a acbf
00000330: d12c 41bf 9275 69bd 49ca 2c3d 345e b7bd
00000340: cf3b 8b3e 8014 57bf 1660 b4bf 96b1 97bd
00000350: 3d72 683f bb69 1c3f ba7a 77bf 9afa 4abf
00000360: ff7f 8b3f 99c1 8bbf 003c 3abf 79da eebf
00000370: ff22 f33e af23 223f 35cc 2b3f caa0 83bf
00000380: 2cdb 4a3f 4563 1fbf 895d 26c0 1f80 a2bf
00000390: 0670 c7bf d414 5bbf c1ac 57be 9d4f 863f
000003a0: 2292 ba3f eb58 99bf 6a0d 8bc0 2160 9abf
000003b0: c01b 1fc0 3dc9 fabf dc67 f03e ba32 0840
000003c0: c789 b73f 2d6c 1abf 1695 75c0 25e2 8ebf
000003d0: d49c b7bf c5ef a4bf a330 583e eadc eb3f
000003e0: b121 34bf 4b46 5b3e 4684 21be 5e32 473f
000003f0: 05af 503f 8982 163f 5c91 d8be a267 b0be
0.6068737 -0.4991609 0.25729954 -1.9001027 0.2552074 0.050735496 0.8538623 -0.57885784
0.89253384 -0.76767784 -1.4881227 -1.1951054 -1.1968333 -0.61874765 0.09559227 0.54362124
-0.061076645 -0.96001405 -1.7991855 -0.46025318 0.43143043 0.60630566 -0.65122014 -0.7106429
0.8732818 -1.1984282 -0.5766276 -1.8089105 0.30909884 0.62793887 0.76603276 -0.6449611
0.81217766 -0.44513246 -2.5947177 -1.4240707 -1.5398953 -0.66186386 -0.26058194 0.7843171
1.1253406 -0.8712048 -3.6958504 -1.1110811 -1.6516343 -0.9528515 0.01887843 1.7545546
0.95276344 -0.8504521 -3.401855 -0.84767574 -1.219586 -1.1891285 -0.14569885 0.8356756
-0.7009832 0.16372697 -0.01685199 0.8451894 0.64156723 0.3510117 -0.16461036 -0.4842419
-0.24291171 -0.10721648 0.3278276 -0.31710765 -0.009108931 0.1321305 0.22779283 0.21898642
-0.014660656 0.22129175 0.291037 -0.27922228 0.24019971 0.29268816 0.044647515 -0.3468869
0.23115209 0.021089762 -0.17784351 0.1301246 -0.16432078 0.023270845 -0.19442163 -0.2005847
-0.072962165 -0.260575 -0.106787756 -0.1704354 0.08374554 0.17028019 0.08334476 0.06443834
0.15380374 0.21422324 -0.2611946 0.33445618 -0.2471892 0.31378344 -0.0819377 0.2999778
0.21799359 -0.19344833 0.16450003 0.130795 -0.18278979 0.099056214 -0.16886501 0.33704165
0.14761487 -0.19421233 0.0999549 0.13702628 -0.033280075 1.1712313e-05 -0.087234735 -0.06457102
-0.027765334 -0.35078216 0.023703128 -0.26423192 0.34981993 -0.122397736 -0.33092225 0.058950573
1.2190973 -0.5522451 -0.42596588 -1.7051601 0.49622136 -0.11097318 0.7987814 -0.10390351
-1.7511679 0.9748403 0.25003493 2.906668 -0.22748233 -0.42989677 -1.1885145 0.68541235
-1.5080184 1.563939 0.09594666 2.7361448 -0.7882461 -0.41894194 -1.0485864 0.89379424
-1.7425094 1.1883713 -0.14808874 2.6572487 -0.3210767 -0.16923924 -0.7982055 0.68297106
1.5479939 -1.5761578 -0.36876765 -2.740813 0.17909415 0.6941832 0.96639746 -0.4392421
-1.9870692 1.5916041 0.45790508 3.0138187 -0.69145656 -0.6264236 -0.79878014 0.6648789
1.8809654 -1.6055291 -0.03393768 -2.6195636 0.0803633 0.38124597 1.1802326 -0.8172344
-0.2508368 0.53328806 -0.59665614 0.9350991 0.61123335 0.43748003 -0.061979685 -0.012452116
1.0557922 -0.62763715 -0.05406841 -1.4300164 -0.01805794 0.4070029 0.6653085 -0.294489
0.41612586 -0.36339542 -1.4821049 -1.3469945 -0.7545901 -0.05699689 0.0421851 -0.08953515
0.27194068 -0.84015656 -1.4091823 -0.07406919 0.90799314 0.6109883 -0.9667164 -0.7928864
1.0898436 -1.0918456 -0.727478 -1.8660423 0.47487637 0.633357 0.6710847 -1.0283444
0.7924068 -0.6226085 -2.599459 -1.269535 -1.5581062 -0.85578656 -0.21061994 1.0493046
1.4575846 -1.1980261 -4.3453875 -1.2060586 -2.4860687 -1.9592663 0.46954238 2.128096
1.4338921 -0.60321313 -3.8372245 -1.1162764 -1.4344735 -1.2885672 0.21112303 1.8426793
-0.7036391 0.21413533 -0.15773115 0.7781123 0.8151706 0.5879293 -0.422984 -0.34454066
