ModelSave0.pt (torch_old, 30998 bytes, 45 tensors)

lstm.weight_ih_l0 f4 [32, 8]
0	0xbd9e49e6	-0.07728939
1	0xbeb3a058	-0.3508327
2	0x3ea5d89e	0.32391828
3	0xbe95e6cb	-0.29277644
4	0x3e07ade3	0.13249926
5	0x3e673ec8	0.22582543
6	0x3cf87430	0.03032884
7	0xbce8172c	-0.028331362
8	0x3e6534f3	0.2238348
9	0xbe2f21bd	-0.17102714
10	0x3e8ec65a	0.27885705
11	0xbda22481	-0.07917119
12	0xbd442876	-0.04789015
13	0x3e406e30	0.18792033
14	0x3c8cceaa	0.017188389
15	0x3e668c4b	0.22514455
16	0x3ea3c533	0.3198639
17	0x3df7fcb7	0.121087484
18	0x3e562b66	0.20914993
19	0xbe7e365a	-0.24825421
20	0x3e99be96	0.30028218
21	0x3ce98618	0.028506324
22	0xbe053236	-0.13007435
23	0x3e02a283	0.12757306
24	0x3e39b195	0.18134148
25	0xbda79ca8	-0.08184177
26	0xbe49c9e0	-0.19705915
27	0xbcd7e1c0	-0.026352763
28	0xbd8f6c76	-0.07003109
29	0x3eb47a29	0.3524945
30	0x3e9d0961	0.30671218
31	0x3e1a769c	0.15084308
32	0xbdde017a	-0.108401254
33	0xbe193abe	-0.14963815
34	0xbe370420	-0.17872667
35	0xbead0bf5	-0.33798185
36	0x3de7a7d0	0.113113046
37	0x3d843d32	0.064569846
38	0x3da846a0	0.08216596
39	0x3e544f5a	0.20733395
40	0xbe18c200	-0.14917755
41	0x3e39da34	0.18149644
42	0x3ea0330d	0.3128895
43	0xbea43a4f	-0.32075736
44	0x3e4e05d7	0.20119415
45	0xbcee28b2	-0.02907214
46	0xbd355823	-0.044273507
47	0x3e7babf5	0.24577315
48	0x3eaaae37	0.3333604
49	0xbe9460ae	-0.2898001
50	0x3e9be766	0.3044998
51	0x3ea5b798	0.32366633
52	0x3b7e9dd5	0.00388514
53	0xbe1bdc44	-0.15220743
54	0x3d4a8f68	0.04945317
55	0x3ea93db3	0.33054885
56	0xbeb0e401	-0.34548953
57	0xbe3aae26	-0.18230495
58	0x3eac0f33	0.33605346
59	0xbdf69df7	-0.12041848
60	0x3d15e860	0.036598563
61	0xbe6c08aa	-0.2305018
62	0x3e97094b	0.29499277
63	0xbe7c8603	-0.24660496
64	0xbe58c3da	-0.21168461
65	0xbe090709	-0.1338159
66	0x3d7feea8	0.06248346
67	0xbe9e5d04	-0.3093034
68	0x3e82d69d	0.25554362
69	0x3e7830de	0.24237391
70	0xbd24b610	-0.04021269
71	0x3ead4f6d	0.3384966
72	0xbdfc6e8e	-0.12325774
73	0xbdb221cc	-0.086978525
74	0xbe915ae6	-0.28389663
75	0xbe227701	-0.15865709
76	0xbdedf81e	-0.1161959
77	0x3d532190	0.05154568
78	0xbded2342	-0.115789905
79	0x3e909991	0.28242162
80	0xbea0ebc6	-0.3142988
81	0x3e906b8f	0.2820706
82	0xbe4cc0f9	-0.19995488
83	0xbd7037a0	-0.058646798
84	0xbd85f714	-0.06541267
85	0x3dd11144	0.10208371
86	0x3eb05b5b	0.344447
87	0x3e80f821	0.25189307
88	0xbe77763c	-0.24166197
89	0xbdcb2520	-0.099191904
90	0x3d1a2b58	0.037638992
91	0x3e8f5807	0.27996847
92	0xbe86352e	-0.26212448
93	0x3dfd57ac	0.12370238
94	0x3da241d8	0.07922715
95	0x3ea61759	0.32439688
96	0xbddf032e	-0.10889278
97	0x3eb343bd	0.35012618
98	0xbe6b2046	-0.2296153
99	0x3d018340	0.03161931
100	0x3e4606de	0.19338557
101	0x3d87c3bc	0.0662913
102	0x3d89e994	0.067340046
103	0x3e04ecc6	0.12980947
104	0xbde73766	-0.11289863
105	0xbe9b7246	-0.3036062
106	0xbe54118c	-0.20709819
107	0x3e5fa406	0.21839914
108	0xbd331a18	-0.043726057
109	0x3e44b31a	0.19208947
110	0x3e80f45f	0.2518644
111	0x3e9c3d65	0.3051559
112	0x3e238236	0.1596764
113	0xbe8fd366	-0.28090972
114	0x3eaac811	0.33355764
115	0x3da09a74	0.078419596
116	0xbe27c14a	-0.16382328
117	0x3c072360	0.00824818
118	0x3d082930	0.033242404
119	0x3ea0592b	0.3131803
120	0x3e86e60f	0.26347396
121	0xbc39f220	-0.011349231
122	0x3e600682	0.21877483
123	0xbe2ee70d	-0.17080326
124	0x3e8ffc8f	0.28122374
125	0xbcaa9590	-0.02082327
126	0xbda0adb0	-0.07845628
127	0x3e863cab	0.2621816
128	0x3dff0e1d	0.12453864
129	0x3e6bbfc0	0.23022366
130	0x3e681e71	0.22667862
131	0x3d0ad41f	0.0338937
132	0xbe600d19	-0.21879996
133	0x3de5a3d8	0.11212891
134	0xbcc293be	-0.02375209
135	0xbdc5ac68	-0.096520245
136	0x3eb10a72	0.34578282
137	0xbe3123cd	-0.17298813
138	0x3e42bf82	0.19018367
139	0x3e0c9455	0.13728459
140	0x3c839aec	0.016065083
141	0x3e825420	0.25454807
142	0xbdbc411d	-0.09192107
143	0x3eafbfa4	0.34325898
144	0x3e3afdd8	0.18260896
145	0x3cb6620a	0.022263546
146	0x3e8400f3	0.25781974
147	0x3ea55b3e	0.32296175
148	0x3e9815e7	0.2970421
149	0xbe0c67aa	-0.1371142
150	0x3e3cdf81	0.18444635
151	0x3eab5448	0.3346274
152	0x3e4c807f	0.19970892
153	0x3d8bebbc	0.06832072
154	0x3e89e4e6	0.26932448
155	0x3ce756fd	0.028239721
156	0xbe9954cb	-0.29947504
157	0x3e9df3ae	0.30849975
158	0xbe95834e	-0.2920174
159	0xbd9aff60	-0.0756824
160	0xbe0b6a02	-0.13614658
161	0x3eab362a	0.3343976
162	0x3daa090c	0.08302507
163	0x3d93eb7f	0.07222652
164	0xbd98bfde	-0.07458471
165	0x3e34af48	0.1764499
166	0x3e8481eb	0.2588037
167	0x3e9fcd91	0.31211522
168	0x3e8b4f3c	0.2720889
169	0xbcaf74ba	-0.021417964
170	0xbeab8fdb	-0.3350819
171	0x3eb29551	0.34879544
172	0x3eaacc4d	0.33358994
173	0xbe625ee5	-0.22106512
174	0x3db88aeb	0.090108715
175	0xbdaa700e	-0.08322154
176	0x3e3f47d8	0.1867975
177	0x3d4a1826	0.049339436
178	0x3ea96850	0.33087397
179	0xbe9477e2	-0.28997713
180	0xbeb452bf	-0.3521938
181	0x3d83b841	0.06431628
182	0xbe729066	-0.23687896
183	0x3e25ce0e	0.16191885
184	0x3de8e418	0.113716304
185	0x3e867e68	0.26268315
186	0xbdbc8e37	-0.09206813
187	0x3eada9a6	0.33918494
188	0x3e0d7e94	0.13817817
189	0xbdcaeb32	-0.09908141
190	0x3e603b09	0.2189752
191	0xbe6f7e89	-0.23388113
192	0xbe018b37	-0.12650762
193	0xbe2484ab	-0.16066234
194	0x3d850101	0.06494332
195	0xbe052e19	-0.13005866
196	0x3e099368	0.13435137
197	0xbe372cda	-0.17888203
198	0xbe1f219b	-0.15540163
199	0xbe9b7d50	-0.30369043
200	0xbe76bbfe	-0.24095151
201	0xbe661dee	-0.22472355
202	0xbe1fef87	-0.15618716
203	0xbe96f2f3	-0.2948223
204	0x3ea6e75b	0.32598385
205	0x3d098f7e	0.03358411
206	0x3d818e22	0.06325938
207	0xbe03fcf3	-0.12889461
208	0x3e9451e3	0.28968725
209	0xbea4da8e	-0.32197994
210	0xbe221137	-0.1582688
211	0x3e85bf72	0.26122624
212	0x3e8f004f	0.27929923
213	0xbe4fde24	-0.20299584
214	0xbe855248	-0.26039338
215	0x3d93bf2c	0.072141975
216	0x3caef944	0.021359093
217	0xbea424de	-0.32059377
218	0xbe09a54f	-0.13441966
219	0x3e62d3ed	0.22151156
220	0xbdfd7e7b	-0.1237764
221	0xbe44a6cd	-0.19204254
222	0x3ea5546d	0.32290974
223	0xbce8991a	-0.028393317
224	0x3eac58a1	0.33661368
225	0x3e1ed352	0.155103
226	0xbe9cf5bd	-0.30656233
227	0x3e42176d	0.18954249
228	0xbeabd958	-0.33564258
229	0x3eb37480	0.3504982
230	0x3e203dc2	0.15648559
231	0xbe38c549	-0.18044008
232	0xbe8e32cf	-0.2777314
233	0x3e97226f	0.29518458
234	0xbe074cfc	-0.13212961
235	0xbe823ec0	-0.254385
236	0x3dada1e1	0.084781416
237	0xbe106db7	-0.14104353
238	0xbb202c35	-0.0024440412
239	0xbe89dc78	-0.26926017
240	0x3e996099	0.2995651
241	0x3e1c9e2a	0.1529471
242	0x3e866dff	0.26255795
243	0x3e8f0ea9	0.27940872
244	0x3e143b66	0.14475784
245	0xbe8a407d	-0.27002326
246	0xbdebc4f7	-0.115121774
247	0xbe08459b	-0.13307802
248	0xbe5fbc66	-0.21849212
249	0x3e167e58	0.14696634
250	0xbd159fe8	-0.03652945
251	0x3e746669	0.23867191
252	0x3e9e497f	0.30915448
253	0xbdb186cc	-0.086682886
254	0xbdd8a3fd	-0.10578153
255	0xbe189c09	-0.14903273

lstm.weight_hh_l0 f4 [32, 8]
0	0xbe422dc3	-0.18962769
1	0xbe92c66c	-0.2866701
2	0xbe344624	-0.17604882
3	0xbe9ac368	-0.30227208
4	0xbdcc70c0	-0.09982443
5	0xbe97b332	-0.29628903
6	0x3ea8af1d	0.329461
7	0xbd266ec0	-0.040632963
8	0xbe4e5828	-0.20150816
9	0x3e8b7cc1	0.27243617
10	0xbe275726	-0.16341838
11	0x3af20800	0.0018465519
12	0xbd73f160	-0.059556365
13	0x3c684d80	0.014178634
14	0x3e512aea	0.20426527
15	0x3d11f6b8	0.03563568
16	0xbd85dbf8	-0.06536096
17	0x3e158fc4	0.14605623
18	0xbe0b0372	-0.13575533
19	0x3e92850f	0.2861714
20	0x3e8d491b	0.27594838
21	0x3d4cd830	0.05001086
22	0xbe2be8bf	-0.16788004
23	0x3e5b62de	0.21424434
24	0xbe5b2c8c	-0.21403712
25	0xbe241b86	-0.16026124
26	0xbe8dcd44	-0.27695668
27	0x3e769fe6	0.24084434
28	0x3eb24583	0.34818658
29	0x3ea7eea5	0.3279926
30	0xbe8b4602	-0.2720185
31	0x3d7a0ff8	0.061050385
32	0x3e62cf02	0.2214928
33	0xbe68af84	-0.22723204
34	0x3deac090	0.1146251
35	0xbd393c28	-0.045223385
36	0x3e33c81a	0.17556801
37	0x3e94ec87	0.29086706
38	0x3e44f286	0.1923314
39	0x3e2bfcd6	0.16795668
40	0xbda144fc	-0.07874486
41	0x3e84a397	0.2590606
42	0xbd937058	-0.07199162
43	0xbe083246	-0.13300428
44	0xbe9fbd25	-0.31198993
45	0xbdc6efd0	-0.09713709
46	0xbe619b09	-0.22031797
47	0xbe88d77c	-0.26726902
48	0xbe8dd3c0	-0.27700615
49	0xbe1c1fee	-0.15246555
50	0xbe034a93	-0.12821417
51	0xbd1d82e8	-0.03845492
52	0x3a6ca800	0.00090277195
53	0xbd38b4d8	-0.04509434
54	0x3e4c806e	0.19970867
55	0xbe9fddd1	-0.3122392
56	0x3c3712a0	0.011173874
57	0x3d71a1e8	0.058992296
58	0x3d3ad4a0	0.04561293
59	0xbe3872bc	-0.18012518
60	0xbd3bf890	-0.045891345
61	0xbcb49150	-0.022041947
62	0x3bdec000	0.0067977905
63	0x3eab2e9d	0.33434
64	0x3d9f80bc	0.07788226
65	0xbe8e69b8	-0.27815032
66	0xbdba3e34	-0.090938956
67	0xbe536109	-0.20642485
68	0x3e30424e	0.17212793
69	0xbe4f2664	-0.20229489
70	0x3dbe1adc	0.09282467
71	0x3e13f392	0.14448383
72	0xbddbd838	-0.107346
73	0x3ea68513	0.32523403
74	0xbcccac70	-0.024984568
75	0x3b8b3bc0	0.004249066
76	0xbe845cd5	-0.25852075
77	0xbd5e6188	-0.05429223
78	0xbe149354	-0.14509326
79	0xbd939a50	-0.07207167
80	0xbd798700	-0.06091976
81	0xbd93ccc0	-0.07216787
82	0xbe2f7a59	-0.17136516
83	0xbe618881	-0.22024728
84	0x3dcdee7c	0.10055253
85	0x3cefbe90	0.029265672
86	0xbe16dfee	-0.1473386
87	0xbe34b276	-0.17646202
88	0xbd9e6b00	-0.077352524
89	0x3eaba05d	0.33520785
90	0xbe9c8efd	-0.3057784
91	0xbe1bade3	-0.15203051
92	0x3e863637	0.26213238
93	0xbead39b0	-0.33833075
94	0x3e07fb88	0.13279545
95	0x3e93fcb1	0.28903726
96	0xbdab66bc	-0.083692044
97	0x3c723be0	0.014784783
98	0x3da70824	0.081558496
99	0x3eaee6e7	0.3416054
100	0xbd2fac38	-0.04288885
101	0x3e9e5d65	0.3093063
102	0x3eb37ae1	0.35054687
103	0x3e096378	0.1341685
104	0xbe9b8711	-0.30376485
105	0xbeb1465c	-0.34623992
106	0x3e9c76b5	0.30559316
107	0x3ca3ccb0	0.019995064
108	0xbe182ba6	-0.148604
109	0x3e8dc00f	0.27685592
110	0xbe81ce24	-0.25352585
111	0x3e270fce	0.16314623
112	0xbdf1292a	-0.117754295
113	0xbe2efa19	-0.17087592
114	0x3e81532b	0.25258765
115	0xbd6c5b40	-0.05770421
116	0x3e1d3f4a	0.15356174
117	0xbdb2b38c	-0.08725652
118	0x3e8d5169	0.27601174
119	0xbe503996	-0.20334467
120	0x3e82cc0b	0.25546297
121	0xbe18cb0f	-0.1492121
122	0x3e92e1a9	0.2868779
123	0xbe08e340	-0.13367939
124	0xbb7ec580	-0.0038875043
125	0xbe7ed08e	-0.24884245
126	0x3df56ff0	0.11984241
127	0x3e25876e	0.16164944
128	0x3d280260	0.04101789
129	0x3e5bac72	0.21452501
130	0x3e35cac2	0.17753127
131	0x3da9043c	0.08252761
132	0xbcf27750	-0.029597908
133	0x3e697276	0.2279757
134	0xbe4d8324	-0.20069557
135	0xbe336ffa	-0.17523184
136	0xbd4dc990	-0.050241053
137	0xbeaab2d5	-0.33339563
138	0xbe75cd88	-0.24004185
139	0xbe22ad41	-0.15886404
140	0x3e89bde9	0.26902702
141	0x3e70a9d2	0.23502281
142	0x3c6c1ce0	0.014411181
143	0xbe6c22bf	-0.2306013
144	0x3e43b66a	0.19112554
145	0x3d4fb960	0.050713897
146	0x3e9323af	0.28738162
147	0xbe956e87	-0.29185888
148	0xbeb3f682	-0.35149008
149	0x3e1166c0	0.14199352
150	0x3e8e27b3	0.27764663
151	0xbe1f6b19	-0.15568198
152	0x3c230880	0.009950757
153	0x3dfae374	0.122504145
154	0xbd8c471c	-0.068495005
155	0xbdbefb28	-0.09325248
156	0xbd6fdc80	-0.058559895
157	0x3e411eaa	0.18859354
158	0x3e635802	0.22201541
159	0x3d009210	0.031389296
160	0xbcc6b5f0	-0.024256676
161	0xbe51066d	-0.20412607
162	0x3c5dca80	0.013537049
163	0xbe69629f	-0.22791527
164	0xbd25ee20	-0.040510297
165	0xbb0a7b80	-0.002113074
166	0xbe01bc13	-0.12669401
167	0xbeac3c3c	-0.33639705
168	0xbdcb1618	-0.099163234
169	0xbea0fe03	-0.31443796
170	0xbd9ff1ec	-0.07809815
171	0xbdce630c	-0.100774854
172	0xbc2208a0	-0.009889752
173	0xbdfc9d78	-0.12334722
174	0x3ea17c0d	0.31539956
175	0x3e242ece	0.1603348
176	0xbea351e9	-0.3189843
177	0xbe1b3ae7	-0.15159188
178	0xbe1ee13c	-0.15515608
179	0xbe869564	-0.2628585
180	0x3c669d60	0.014075607
181	0x3df34580	0.118784904
182	0x3e096b44	0.13419825
183	0x3d4bcd40	0.04975629
184	0x3e3c5352	0.18391159
185	0x3e56a772	0.20962313
186	0xbeb396e2	-0.35076052
187	0xbe94d9fc	-0.2907256
188	0x3e37baf6	0.17942414
189	0xbea0c9ef	-0.31404063
190	0x3e9b1643	0.30290422
191	0xbcd94150	-0.026520401
192	0x3bbd9240	0.0057852566
193	0xbe77d563	-0.24202494
194	0xbe7037a6	-0.23458728
195	0x3da99510	0.082803845
196	0xbb1ca600	-0.0023902655
197	0xbca5c220	-0.020234168
198	0x3ead67d5	0.3386828
199	0xbda8b350	-0.08237326
200	0x3c1784e0	0.009247988
201	0x3e793d7e	0.24339864
202	0xbc5dbc00	-0.013533592
203	0xbe761ab4	-0.24033624
204	0xbe8769cc	-0.26447904
205	0x3e68f176	0.2274836
206	0xbe72f577	-0.2372645
207	0xbeaae7e6	-0.3338005
208	0x3e099e72	0.13439348
209	0xbe678734	-0.2261017
210	0x3e4b0392	0.1982558
211	0x3e00a574	0.12563115
212	0x3c5098e0	0.012731761
213	0xbe73c065	-0.23803861
214	0x3e4df84e	0.20114252
215	0xbdbf6914	-0.09346214
216	0xbe8b6d23	-0.27231702
217	0xbc115360	-0.008869976
218	0xbcaabe70	-0.02084276
219	0xbea05d3e	-0.31321138
220	0x3e875933	0.2643524
221	0x3da4f580	0.08054638
222	0x3db10a0c	0.086444944
223	0x3e13603c	0.14392179
224	0x3e12b166	0.14325485
225	0x3e8c52ab	0.2740682
226	0x3e9d1701	0.30681613
227	0x3e8ad85f	0.27118203
228	0xbe4747fc	-0.19461054
229	0x3c52f1e0	0.01287505
230	0x3e8a19b7	0.26972744
231	0x3e93dc13	0.2887884
232	0xbe9efe07	-0.31053182
233	0xbe1c738b	-0.15278451
234	0xbe2d5b72	-0.16929415
235	0xbd9872c0	-0.07443762
236	0x3e306ed6	0.1722978
237	0xbe880283	-0.26564416
238	0xbe7d7f2d	-0.24755545
239	0x3e93fcf3	0.28903922
240	0x3ea183b7	0.31545803
241	0xbe859486	-0.26089877
242	0x3eb4d96b	0.35322127
243	0xbdce9f58	-0.10088986
244	0xbe1c83e2	-0.15284684
245	0x3e7567e2	0.2396541
246	0xbe7c88d1	-0.24661566
247	0x3e360a46	0.17777357
248	0x3eb34b59	0.35018423
249	0xbdb95f88	-0.09051424
250	0x3eacbd05	0.3373796
251	0x3e8f72c5	0.2801725
252	0xbe1789b6	-0.14798626
253	0x39d2c400	0.00040200353
254	0x3e9e8297	0.30959007
255	0xbe81473e	-0.25249666

lstm.bias_ih_l0 f4 [32]
0	0xbea6c0ce	-0.32568973
1	0xbe349234	-0.17633897
2	0xbdfa9f87	-0.12237459
3	0x3dadc631	0.08485068
4	0xbdf69ba0	-0.12041402
5	0x3d33a2c6	0.043856405
6	0xbe299944	-0.16562372
7	0xbeae8240	-0.34083748
8	0xbda74e6c	-0.08169255
9	0xbdd03cb0	-0.10167825
10	0xbe12b638	-0.14327323
11	0xbea446af	-0.32085177
12	0xbe06c325	-0.13160379
13	0xbd6f11a0	-0.058366418
14	0x3e4b6f6a	0.1986672
15	0xbeab3f85	-0.334469
16	0x3dec9ef2	0.11553754
17	0xbd109814	-0.035301283
18	0x3e5374d6	0.20650038
19	0x3d272de1	0.040815238
20	0x3de3c4af	0.11121499
21	0x3b3d0f49	0.0028848222
22	0xbe67f6dd	-0.22652765
23	0xbe82ef90	-0.25573397
24	0xbd77a73c	-0.06046222
25	0xbe0bdcce	-0.13658449
26	0x3e4c8bbd	0.19975181
27	0x3e010333	0.12598877
28	0x3e03f8cf	0.12887882
29	0xbe74660c	-0.23867053
30	0xbe4c8dd0	-0.19975972
31	0x3e9b1cb5	0.3029534

lstm.bias_hh_l0 f4 [32]
0	0xbb8748af	-0.0041285376
1	0x3eacf8b1	0.33783486
2	0x3dcec793	0.100966595
3	0xbeb44250	-0.35206842
4	0xbe7886e5	-0.24270208
5	0xbe9d1e8a	-0.30687362
6	0x3d5726b5	0.05252715
7	0x3e541c46	0.2071391
8	0xbd5bbef8	-0.05364892
9	0x3e1ea506	0.15492639
10	0x3dc295bc	0.09501216
11	0x3e6720da	0.22571126
12	0x3e9c50b9	0.30530336
13	0xbe32ae27	-0.17449246
14	0xbbc86700	-0.006115794
15	0xbe86d808	-0.26336694
16	0xbd2ffaa0	-0.042963624
17	0xbe64627d	-0.22303195
18	0xbdf61961	-0.120165594
19	0x3e50ad96	0.20378718
20	0x3e1c0f57	0.15240227
21	0x3d657a8d	0.056025077
22	0x3d3630c9	0.04448012
23	0x3e8b4f0d	0.27208748
24	0x3dba3817	0.090927295
25	0x3ea4a5f6	0.32157868
26	0xbda44dcd	-0.08022652
27	0xbea56eab	-0.32310995
28	0x3e919914	0.28437102
29	0xbd300523	-0.04297365
30	0xbe0e919e	-0.13922736
31	0xbd1e8861	-0.03870428

lstm.weight_ih_l1 f4 [32, 8]
0	0x3dfa390e	0.122179136
1	0x3e4b9710	0.19881845
2	0xbd998643	-0.074963115
3	0xbea17548	-0.3153479
4	0x3e613288	0.21991932
5	0xbd30be82	-0.043150432
6	0x3e176978	0.14786327
7	0xbe423b63	-0.18967967
8	0x3e30fad2	0.1728318
9	0x3e975f7d	0.2956504
10	0xbe28c8ce	-0.16482851
11	0xbde40c57	-0.11135166
12	0x3e8e8e99	0.27843168
13	0xbda18a78	-0.07887739
14	0xbe01cb48	-0.12675202
15	0xbe8215dc	-0.25407302
16	0xbe175a89	-0.1478063
17	0xbd38bfc2	-0.04510475
18	0xbea25551	-0.31705716
19	0xbe55087f	-0.20804022
20	0xbdc68c82	-0.096947685
21	0x3e9c374b	0.30510935
22	0xbe700615	-0.2343982
23	0x3e38da06	0.1805192
24	0xbe9727a5	-0.29522434
25	0x3cc9c9cc	0.024632357
26	0x3e2f4d4a	0.17119327
27	0xbda2403e	-0.079224095
28	0x3e8328ef	0.25617167
29	0x3d19f11d	0.03758346
30	0x3eadcecf	0.33946845
31	0xbe9e4d3f	-0.3091831
32	0x3e7167ca	0.23574749
33	0xbdc378bc	-0.09544513
34	0x3d98a682	0.07453634
35	0xbe36a8d1	-0.17837836
36	0x3e99e29b	0.300557
37	0x3eb4dbdd	0.35323992
38	0x3c6bdd99	0.014396095
39	0x3e76a146	0.24084958
40	0xbdd3b160	-0.10336566
41	0xbe9ae812	-0.3025518
42	0x3d95c518	0.07312983
43	0xbd520a4c	-0.05127935
44	0x3e21a7fc	0.15786737
45	0xbe886d36	-0.2664582
46	0xbea6eac3	-0.32600984
47	0x3c4d97b9	0.0125483805
48	0xbdc301e4	-0.09521845
49	0xbe7d5f63	-0.24743418
50	0xbd9d0410	-0.076667905
51	0xbd200da0	-0.039075494
52	0xbe9a6164	-0.30152428
53	0x3db85d10	0.09002125
54	0xbe83d724	-0.25750077
55	0xbd17ecf1	-0.0370912
56	0x3e6ca572	0.23109987
57	0xbd27a1a8	-0.04092565
58	0x3e000237	0.12500845
59	0x3e9086d3	0.28227863
60	0x3db75e0b	0.08953484
61	0x3e611ef6	0.21984467
62	0xbe89fb90	-0.2694974
63	0x3e03e3ac	0.12879819
64	0x3dcef958	0.10106152
65	0x3ea2628f	0.3171582
66	0xbe5a517d	-0.21320148
67	0x3e3a9876	0.18222222
68	0x3e74f2c2	0.2392073
69	0x3e295bba	0.16538897
70	0x3e09c9aa	0.13455835
71	0x3d705fa0	0.058684945
72	0x3e513ef6	0.20434174
73	0xbcac6c70	-0.0210478
74	0x3e75f736	0.24020085
75	0xbd2d2758	-0.04227385
76	0x3e97968f	0.29607055
77	0xbd979040	-0.074005604
78	0x3db4719c	0.08810732
79	0xbe89478a	-0.26812392
80	0x3e1fc286	0.15601549
81	0x3d3d7050	0.046249688
82	0xbe45778a	-0.19283882
83	0xbc39a260	-0.011330217
84	0xbe1084e0	-0.14113188
85	0x3e67f512	0.2265208
86	0x3eab8a1d	0.3350381
87	0x3d234d18	0.039868444
88	0xbe6f10fa	-0.2334632
89	0xbe1a2ae6	-0.15055427
90	0xbea3c56c	-0.31986558
91	0x3e19ad16	0.15007433
92	0x3e130d94	0.14360648
93	0xbdf65774	-0.12028399
94	0x3eaf4f85	0.34240356
95	0x3e4611a6	0.1934267
96	0xbda3d178	-0.07998937
97	0x3e932f91	0.28747228
98	0x3c689e40	0.014197886
99	0xbd278bd0	-0.04090482
100	0x3cef83b0	0.029237598
101	0xbdf09fda	-0.11749239
102	0xbdc2d268	-0.09512788
103	0x3ea98c11	0.33114675
104	0x3e66c666	0.2253662
105	0x3dce4578	0.10071844
106	0xbd103618	-0.035207838
107	0x3e61d1d2	0.22052696
108	0xbcb19a70	-0.021680087
109	0xbd02eb18	-0.031962484
110	0x3e36ea0e	0.17862722
111	0xbdc3cd04	-0.09560588
112	0xbe92facb	-0.28706965
113	0x3cf58ff0	0.029975861
114	0x3db8c9a0	0.09022832
115	0x3dff0d28	0.12453681
116	0xbe291a0c	-0.16513842
117	0xbe95ed5c	-0.29282653
118	0x3e4360c2	0.19079879
119	0x3c011c80	0.00788033
120	0x3ea95c83	0.33078393
121	0x3d49a0a0	0.04922545
122	0x3e988b39	0.29793718
123	0x3e9ae0c9	0.30249622
124	0x3e7adc1a	0.24498025
125	0xbea3567e	-0.31901926
126	0x3e6c8ae2	0.23099855
127	0xbe8e280e	-0.27764934
128	0x3e20e4d9	0.15712298
129	0x3d011392	0.031512804
130	0x3e9a480b	0.3013309
131	0xbe841bf1	-0.25802568
132	0xbe93d0b4	-0.28870165
133	0x3e73b3a9	0.23799004
134	0xbeb2c56c	-0.34916246
135	0x3dae3364	0.08505896
136	0x3e946d4a	0.2898963
137	0xbe0df119	-0.13861503
138	0xbc8a5ed3	-0.016890919
139	0xbd9cf317	-0.07663553
140	0xbddd02b5	-0.10791532
141	0xbb83ac18	-0.004018318
142	0x3d80747d	0.062722184
143	0x3e8fe25a	0.2810238
144	0xbe8bc684	-0.27299893
145	0x3e67ace6	0.2262455
146	0xbeab15b5	-0.33415
147	0x3ea6b97d	0.3256339
148	0xbe6fd7c8	-0.23422158
149	0xbe3458f5	-0.1761206
150	0x3e7574cc	0.23970336
151	0xbe86180a	-0.26190215
152	0xbea89bb0	-0.3293128
153	0x3e9f0890	0.3106122
154	0x3d703f66	0.05865421
155	0xbe3fe578	-0.18739879
156	0xbe928034	-0.28613436
157	0xbe505698	-0.20345533
158	0xbe88d6cf	-0.26726386
159	0x3e9f4b2d	0.31112042
160	0x3e6d05df	0.23146771
161	0xbcfb0587	-0.030642284
162	0x3daf133a	0.08548589
163	0x3cc72bd5	0.024312893
164	0xbe57d9be	-0.21079156
165	0xbd9dde35	-0.07708398
166	0xbda904c8	-0.08252865
167	0xbcb37ff0	-0.021911591
168	0xbead7a74	-0.33882487
169	0x3d56c0ab	0.052429836
170	0x3df9b9cf	0.12193643
171	0x3e9f2c96	0.31088704
172	0x3e976761	0.2957106
173	0x3de71d97	0.11284941
174	0x3c108dc3	0.008822861
175	0x3e1bc2d6	0.15211043
176	0x3d55db6f	0.05221122
177	0x3cda9918	0.026684329
178	0x3e730162	0.23730996
179	0x3e1e5845	0.1546336
180	0xbe8d9115	-0.2764975
181	0xbdd21b2f	-0.10259091
182	0xbda96f5f	-0.082731955
183	0x3ea1af9b	0.3157929
184	0x3e83e182	0.25757986
185	0xbcfe5f61	-0.03105134
186	0xbcc04b0d	-0.023473287
187	0xbe6d1920	-0.23154116
188	0x3e613dd5	0.21996243
189	0xbd2ca50b	-0.042149585
190	0xbe92c1aa	-0.2866338
191	0xbdac1d2e	-0.08404003
192	0x3df4ea7a	0.11958785
193	0x3ea20f84	0.31652462
194	0x3e97fe05	0.2968599
195	0x3e24caf9	0.16093053
196	0x3eaec62b	0.34135565
197	0xbd7e78c1	-0.06212688
198	0xbda05d2e	-0.078302726
199	0xbe31d292	-0.17365482
200	0x3e94dce6	0.29074782
201	0x3eab412f	0.3344817
202	0x3dc997d7	0.09843414
203	0x3e66fe04	0.22557837
204	0xbde336ea	-0.110944584
205	0x3de7887f	0.113053314
206	0xbe1fd6a5	-0.15609224
207	0x3ddfdee0	0.10931182
208	0xbcd7d77c	-0.026347868
209	0xbde91374	-0.113806635
210	0x3cc7ced2	0.024390612
211	0xbcf81f19	-0.030288266
212	0x3ea9ff7b	0.3320273
213	0x3eb1cf2d	0.34728375
214	0x3da78a6e	0.081807
215	0x3e988494	0.2978865
216	0x3e01da16	0.1268085
217	0x3e5a1dde	0.21300456
218	0x3e4ea97a	0.20181838
219	0xbe83cd5b	-0.2574261
220	0x3dae1c40	0.08501482
221	0x3d64d67d	0.055868614
222	0x3b19e9ea	0.002348537
223	0x3ea08faf	0.31359622
224	0x3eade575	0.33964124
225	0x3d4f556e	0.05061858
226	0xbe1711a0	-0.14752817
227	0xbe0c197b	-0.13681595
228	0x3e8e880d	0.27838174
229	0x3e928807	0.28619406
230	0xbe4204df	-0.1894717
231	0x3e7eab5a	0.24870053
232	0xbe1b4307	-0.15162288
233	0x3d04d453	0.03242905
234	0x3e1f42a9	0.15552773
235	0xbe906cc5	-0.28207985
236	0xbbe9f9b3	-0.007140362
237	0xbe81f564	-0.2538253
238	0x3e19d1fa	0.15021506
239	0x3e72d6d6	0.23714766
240	0x3cca210c	0.024673961
241	0x3de19c4f	0.110161416
242	0xbe62a2ae	-0.2213237
243	0xbea3b263	-0.31972036
244	0xbe3649e2	-0.17801622
245	0x3e342633	0.17592697
246	0x3da34bdf	0.07973456
247	0x3e9c842f	0.30569598
248	0xbe9ddf0a	-0.30834228
249	0x3de79245	0.113071956
250	0x3e1e164a	0.1543819
251	0x3d9437d3	0.0723721
252	0x3e478da3	0.19487624
253	0x3ab086c6	0.00134679
254	0x3e986c59	0.29770163
255	0x3d9e067a	0.07716079

lstm.weight_hh_l1 f4 [32, 8]
0	0xbe4eee90	-0.20208192
1	0xbdfec84e	-0.12440549
2	0xbe64ba7c	-0.22336763
3	0x3e509a8e	0.20371458
4	0xbda27b90	-0.07933724
5	0x3daf2604	0.08552173
6	0x3e8cc6ed	0.27495518
7	0x3d66d9b8	0.056359977
8	0x3ea23497	0.31680748
9	0x3db513b0	0.08841646
10	0x3e0af362	0.13569406
11	0x3e9b840b	0.30374178
12	0x3e3032a6	0.17206821
13	0x3ddff18c	0.10934743
14	0x3e7ec0aa	0.24878183
15	0xbe0987ff	-0.13430785
16	0x3da296a4	0.07938889
17	0xbd1c0a48	-0.038095742
18	0xbd6aea98	-0.057352632
19	0x3eacacbf	0.33725545
20	0xbdcbfca0	-0.09960294
21	0xbeb2da32	-0.34932095
22	0x3d50f040	0.05101037
23	0xbc9e1620	-0.01929766
24	0x3db1823c	0.08667418
25	0x3e829f35	0.2551209
26	0x3e406d32	0.18791655
27	0xbe9595f5	-0.2921597
28	0x3e8be17d	0.2732047
29	0x3dc91740	0.09818888
30	0xbe4dec04	-0.20109564
31	0xbd82137c	-0.063513726
32	0xbe90c8e8	-0.2827828
33	0xbe0d9a23	-0.1382833
34	0x3e9e16d3	0.30876788
35	0xbe860fa3	-0.26183805
36	0x3d797e08	0.06091121
37	0xbe78e14e	-0.24304697
38	0x3e8433ab	0.2582067
39	0xbd0a8dc0	-0.03382659
40	0xbdf46288	-0.11932856
41	0x3e66222a	0.2247397
42	0xbe903d8c	-0.28171957
43	0xbeaa4eb6	-0.33263177
44	0xbdff9502	-0.12479593
45	0x3e88f669	0.26750496
46	0x3d4460e0	0.04794395
47	0xbbadd580	-0.005304992
48	0x3e5abe4a	0.21361652
49	0x3e85bf4d	0.26122513
50	0x3dba8cb0	0.09108865
51	0xbd854cb4	-0.065087706
52	0x3e97f871	0.29681733
53	0x3e26cf42	0.1629
54	0x3d977a60	0.07396388
55	0x3d294198	0.04132232
56	0x3e994c41	0.2994099
57	0xbe862790	-0.2620206
58	0x3e9234a5	0.2855579
59	0xbda6beb4	-0.081418425
60	0xbdefde86	-0.11712365
61	0x3e93ffa1	0.28905967
62	0x3d347d20	0.04406464
63	0x3e6148f2	0.22000483
64	0xbe828eac	-0.25499475
65	0xbe75afe6	-0.23992881
66	0xbe993f0d	-0.29930916
67	0xbea6601a	-0.32495195
68	0x3e98eadd	0.29866686
69	0x3e55aa96	0.20865855
70	0x3de345d8	0.11097306
71	0xbdf149e8	-0.117816746
72	0xbe64e763	-0.22353892
73	0xbe917334	-0.28408206
74	0x3e2b2ea6	0.16717014
75	0x3ea9276b	0.33037886
76	0x3d6747d0	0.05646497
77	0xbd89bb38	-0.06725162
78	0xbe813e77	-0.2524297
79	0xbe88cc68	-0.2671845
80	0xbe6367bc	-0.2220754
81	0x3e5a97c2	0.21346954
82	0x3d5f1638	0.05446455
83	0x3e52d9ce	0.20590898
84	0x3d3b2f60	0.045699477
85	0xbe26d21f	-0.16291092
86	0x3dc71068	0.09719926
87	0xbe940b5e	-0.28914922
88	0x3ea66eb7	0.32506344
89	0x3e2cf1f2	0.1688917
90	0xbe21e946	-0.15811643
91	0xbd6a2858	-0.05716738
92	0x3d6189b0	0.05506295
93	0x3de73ebc	0.112912625
94	0x3dfc02d0	0.12305224
95	0x3e6ef90a	0.23337188
96	0x3e6c6922	0.2308698
97	0xbe700698	-0.23440015
98	0xbe39d628	-0.181481
99	0xbd7b1048	-0.061294824
100	0x3e1a7ac6	0.15085897
101	0xbb1c8680	-0.002388388
102	0x3e532746	0.2062045
103	0xbe8804c6	-0.26566142
104	0x3c59d980	0.013296485
105	0x3e1f19ee	0.15537235
106	0x3e43942e	0.19099495
107	0x3daa37a8	0.08311397
108	0x3e031424	0.12800652
109	0x3de7b3c8	0.113135874
110	0xbd6b6f20	-0.057479024
111	0xbeb04073	-0.3442417
112	0x3dedce6c	0.116116375
113	0x3a302200	0.00067189336
114	0x3d733c88	0.0593839
115	0x3d933e88	0.07189661
116	0x3e9d0b37	0.3067262
117	0x3e091cc2	0.13389876
118	0x3df60f00	0.1201458
119	0xbe10b778	-0.14132488
120	0xbe1a5f6f	-0.15075468
121	0xbe7b151a	-0.24519768
122	0x3e5b8942	0.21439078
123	0x3e370fe6	0.17877159
124	0xbe85244f	-0.26004264
125	0x3db04228	0.08606368
126	0xbe16ad43	-0.14714532
127	0x3dee0d70	0.11623657
128	0x3cfb9b10	0.030713588
129	0xbe9a5332	-0.30141598
130	0x3e620fde	0.22076365
131	0x3e9ad919	0.30243757
132	0xbe9d15a3	-0.3068057
133	0x3ea652bb	0.32484993
134	0x3e4fdb86	0.20298585
135	0xbde27492	-0.1105739
136	0xbd565658	-0.052328438
137	0xbd0d2840	-0.034462214
138	0xbcceaad0	-0.025227934
139	0x3ea41411	0.3204656
140	0xbe86e616	-0.26347417
141	0x3e3b2aca	0.18278041
142	0xbe6eaec4	-0.23308855
143	0xbe79ff8c	-0.2441389
144	0x3e4aac3e	0.19792268
145	0xbda9e340	-0.082952976
146	0xbaa05300	-0.0012231767
147	0x3e8d557d	0.27604285
148	0x3dac8448	0.08423668
149	0x3c3503e0	0.011048287
150	0x3dce017c	0.10058877
151	0x3e8c870f	0.27446792
152	0xbe68a7f5	-0.2272032
153	0xbdd8993c	-0.10576102
154	0x3eb41879	0.3517492
155	0xbe9b47f6	-0.3032834
156	0x3b062d00	0.00204736
157	0xbe96be34	-0.29441988
158	0x3cb4f000	0.022087097
159	0x3e042b72	0.12907198
160	0x3ea82a97	0.32844993
161	0xbeaf9eb0	-0.34300756
162	0x3e332622	0.17495015
163	0x3e44363e	0.19161317
164	0x3d7547d8	0.05988297
165	0x3e975449	0.29556492
166	0x3cea65e0	0.02861303
167	0x3e00a57a	0.12563124
168	0xbeafc0bf	-0.3432674
169	0xbe3d112c	-0.18463582
170	0xbde18bd2	-0.11012997
171	0x3e49344e	0.19648859
172	0x3de5f9b4	0.11229268
173	0xbe6149e2	-0.2200084
174	0x3e2a96e6	0.16659126
175	0x3d387ca0	0.045040727
176	0xbace2a00	-0.001572907
177	0x3e637b1e	0.22214934
178	0xbe58220b	-0.21106736
179	0x3e2d9faa	0.16955438
180	0x3e046c00	0.12931824
181	0xbd58e570	-0.052953184
182	0x3e07a474	0.13246328
183	0xbe97f19b	-0.29676518
184	0x3d9ce5ac	0.07660994
185	0x3d038418	0.032108396
186	0xbea1e970	-0.3162341
187	0x3e801821	0.2501841
188	0xbe690f87	-0.2275983
189	0xbe398d03	-0.18120198
190	0x3e0d9a26	0.13828334
191	0x3e930f21	0.2872248
192	0x3daa9750	0.08329642
193	0x3e75f906	0.24020776
194	0x3e27cb8a	0.16386238
195	0xbe4fb4c3	-0.20283799
196	0x3c5acf00	0.013355017
197	0xbe330ac0	-0.1748457
198	0xbe0858d8	-0.13315141
199	0xbe88b151	-0.26697782
200	0x3d5e2f98	0.054244608
201	0xbe54fb26	-0.2079893
202	0x3ea3078b	0.31841692
203	0x3e8c8703	0.27446756
204	0xbd3fba88	-0.04680875
205	0xbe15c601	-0.14626314
206	0x3e253ae2	0.16135743
207	0xbe17c973	-0.1482294
208	0x3e049ec8	0.12951195
209	0x3e8ef205	0.2791902
210	0x3e2b2a22	0.16715291
211	0x3e6ea492	0.23304966
212	0xbcc17d90	-0.023619443
213	0xbd496320	-0.0491668
214	0xbe67ef18	-0.22649801
215	0x3ea4a31d	0.32155696
216	0xbe946518	-0.28983378
217	0x3e90e03f	0.28296086
218	0x3e9ca2a7	0.30592844
219	0xbea198d4	-0.3156191
220	0xbbb67dc0	-0.00556919
221	0x3e3ebb36	0.18626103
222	0x3e460f86	0.19341859
223	0x3e39b93e	0.1813707
224	0xbdbfe304	-0.09369472
225	0x3e11901e	0.14215133
226	0x3eadbccb	0.339331
227	0xbeb3f81c	-0.3515023
228	0xbeb1f6ac	-0.34758508
229	0xbdc02560	-0.09382129
230	0xbdf8d614	-0.12150207
231	0xbd7195b0	-0.058980644
232	0x3dcd05cc	0.10010871
233	0x3e60b52a	0.21944109
234	0xbe820fb2	-0.254026
235	0x3e90b2e7	0.28261492
236	0xbe527eeb	-0.20556228
237	0x3cfe89d0	0.031071573
238	0x3d5d24c8	0.053990155
239	0xbe1ae563	-0.15126567
240	0xbe5d905f	-0.21637104
241	0x3e06dad8	0.1316942
242	0xbe88eaea	-0.26741725
243	0xbe558308	-0.20850766
244	0x3cd55d60	0.026045501
245	0x3e78849a	0.24269333
246	0x3e68be9a	0.22728959
247	0xbc746480	-0.014916539
248	0xbb98eb40	-0.004666716
249	0xbea0a6dc	-0.31377304
250	0x3e39e7d2	0.18154839
251	0xbe69496c	-0.22781914
252	0x3ca69610	0.020335227
253	0x3c56c220	0.013107806
254	0x3be431c0	0.0069639385
255	0xbeb1e1ce	-0.34742588

lstm.bias_ih_l1 f4 [32]
0	0xbe5dd13c	-0.21661848
1	0xbea05797	-0.31316826
2	0xbde6fdd5	-0.11278883
3	0xbd9303ee	-0.07178484
4	0x3ccfc439	0.025362121
5	0xbdc6437b	-0.0968084
6	0xbdaf4345	-0.085577525
7	0x3e943391	0.28945592
8	0xbeb2fcdc	-0.3495854
9	0x3d067ea8	0.032835633
10	0x3d3abfc0	0.045593023
11	0xbe97333b	-0.29531273
12	0xbdb1c3c8	-0.086799204
13	0x3ea07e1b	0.3134621
14	0xbea61d91	-0.32444432
15	0x3e849279	0.25893
16	0x3e8f2692	0.27959114
17	0x3d20e015	0.0392762
18	0x3e917419	0.28408888
19	0xbeb15385	-0.34634033
20	0x3c97fd96	0.018553536
21	0x3d736386	0.059421085
22	0x3dc384d2	0.09546818
23	0xbe008f60	-0.12554693
24	0xbc910c31	-0.017706009
25	0xbde72d75	-0.11287967
26	0x3e57862d	0.21047278
27	0x3d38e937	0.045144286
28	0xbd07ed6d	-0.03318541
29	0xbe74fcb7	-0.23924528
30	0xbe016be4	-0.12638813
31	0xbe904d46	-0.28183955

lstm.bias_hh_l1 f4 [32]
0	0xbde04aa1	-0.10951734
1	0xbe3935b2	-0.1808689
2	0x3e9e9ea6	0.30980414
3	0xbe27bc88	-0.16380513
4	0xbe2c1cf4	-0.1680792
5	0xbe5e7933	-0.21725921
6	0xbdf2396f	-0.11827361
7	0xbdaec767	-0.08534127
8	0x3d97726c	0.07394871
9	0xbe947100	-0.28992462
10	0xbe2a12f0	-0.16608787
11	0x3d8a31b4	0.06747761
12	0xbe9c7fe1	-0.30566314
13	0x3dd3cf38	0.10342258
14	0x3e7a187a	0.244234
15	0xbdf9a5c0	-0.121898174
16	0x3de5eab4	0.11226407
17	0x3db9ecc3	0.09078362
18	0xbd7c683e	-0.06162285
19	0x3ea42e84	0.3206674
20	0xbcd2df1a	-0.025741149
21	0x3e5bf82d	0.2148139
22	0x3e667335	0.22504885
23	0x3ddf4a65	0.109028615
24	0xbe58db0f	-0.21177314
25	0x3df51f09	0.1196881
26	0x3e81147e	0.25210947
27	0xbe9b02e6	-0.3027565
28	0xbdd1088e	-0.1020671
29	0xbdde7728	-0.10862571
30	0x3e1b3784	0.15157896
31	0xbe5d5297	-0.21613537

lstm.weight_ih_l2 f4 [32, 8]
0	0x3e9a41a4	0.30128205
1	0x3d859fdf	0.065246336
2	0xbde49a7d	-0.11162279
3	0xbe2f781b	-0.1713566
4	0x3e9ac392	0.30227333
5	0xbd2eb788	-0.042655498
6	0xbe0b2c90	-0.13591218
7	0x3d0fe622	0.03513158
8	0x3db17f25	0.08666829
9	0xbe6991ee	-0.22809574
10	0xbe12d8ff	-0.1434059
11	0xbea2d44f	-0.31802604
12	0x3d876bf6	0.06612389
13	0xbea1cf7e	-0.31603616
14	0xbd9f6cc4	-0.07784417
15	0xbd96a9e4	-0.07356623
16	0xbe261a6d	-0.16221018
17	0x3e01c3f6	0.1267241
18	0xbb436e7f	-0.00298205
19	0x3d793936	0.060845576
20	0x3e81fa12	0.253861
21	0x3e0426a9	0.12905373
22	0x3e764309	0.2404901
23	0x3e9e4a8e	0.30916256
24	0x3ead0c5c	0.33798492
25	0x3e95ea45	0.29280296
26	0x3e25b07a	0.16180602
27	0xbe2406f0	-0.16018271
28	0xbe57fc89	-0.21092428
29	0xbe4dd5ea	-0.20101133
30	0x3c41944d	0.011815143
31	0x3dfac94c	0.122454256
32	0xbe320fab	-0.1738879
33	0xbe66cf23	-0.22539954
34	0xbe979c9c	-0.2961167
35	0x3d050340	0.032473803
36	0xbdcb4628	-0.099254906
37	0x3d939fa5	0.07208184
38	0x3e681dce	0.2266762
39	0xbe963c6c	-0.29342973
40	0x3db6de7d	0.08929155
41	0xbe10a05b	-0.14123671
42	0x3e722aad	0.23649092
43	0x3e4fad83	0.20281033
44	0x3dcaa3c6	0.098945186
45	0x3bf1f47f	0.0073838825
46	0x3e02fd1d	0.12791868
47	0xbda873af	-0.0822519
48	0x3c91f6d5	0.017817894
49	0x3e70290a	0.23453155
50	0x3dd5d828	0.10441619
51	0xbc29d18b	-0.0103649
52	0x3e8ccf06	0.27501696
53	0xbe146258	-0.1449064
54	0x3d967f6a	0.07348521
55	0x3e9a4ae7	0.3013527
56	0xbd5a11c3	-0.053239595
57	0xbe814ec5	-0.2525541
58	0x3dd30f0c	0.10305604
59	0xbea6cc9f	-0.32577989
60	0x3da24d5c	0.079249114
61	0xbe9cb0c5	-0.30603614
62	0x3dbb2de8	0.09139615
63	0xbeb44c22	-0.35214335
64	0x3e95a0c9	0.29224232
65	0x3dbac354	0.09119287
66	0x3e6f8212	0.23389462
67	0x3e691642	0.22762397
68	0x3cac6910	0.021046191
69	0x3e859277	0.26088306
70	0x3e46e09a	0.19421616
71	0x3df0e6bc	0.11762759
72	0xbbd8cf00	-0.006616473
73	0xbcd11d70	-0.025526732
74	0xbe8fa111	-0.2805257
75	0x3eb0b673	0.34514198
76	0xbcf7a250	-0.030228764
77	0xbe062372	-0.13099459
78	0xbe9dd45b	-0.30826077
79	0x3dec5ac4	0.1154075
80	0x3ea7e15b	0.3278912
81	0xbbc7cd40	-0.0060974658
82	0xbd2fa4a8	-0.042881638
83	0x3e38d54e	0.1805012
84	0x3e153434	0.14570695
85	0xbd24d820	-0.040245175
86	0xbead8a8a	-0.3389476
87	0x3e12fb26	0.14353618
88	0xbe0272d7	-0.1273912
89	0x3d11e138	0.035615176
90	0x3d80aa24	0.06282452
91	0xbdb61430	-0.08890569
92	0xbdbfa334	-0.093573004
93	0xbe80e77f	-0.25176618
94	0xbeb14995	-0.3462645
95	0xbd1b5ea8	-0.037932068
96	0x3e29b182	0.1657162
97	0xbe7765e0	-0.24159956
98	0x3cb60ce0	0.022222936
99	0xbd1548f8	-0.03644654
100	0xbead7063	-0.33874807
101	0xbd95f32c	-0.07321772
102	0xbe6b4b58	-0.2297796
103	0xbe6f7b51	-0.23386885
104	0x3dab02e0	0.08350158
105	0xbe087ba6	-0.13328418
106	0xbe8f29d7	-0.2796161
107	0xbdcab418	-0.098976314
108	0x3e519966	0.20468673
109	0x3d6ccba8	0.05781141
110	0x3d9e8174	0.07739535
111	0x3e59b9e2	0.21262315
112	0xbdcf89f4	-0.10133734
113	0x3d3f6ef8	0.046736687
114	0xbdb87ffc	-0.09008786
115	0xbe0ae3fb	-0.1356353
116	0xbdb5d1a8	-0.088778794
117	0xbde1ccac	-0.11025366
118	0x3d39b7e0	0.045341372
119	0x3e3bb9a2	0.18332532
120	0x3e32fd82	0.17479518
121	0xbd977090	-0.073945165
122	0x3d97676c	0.07392773
123	0xbe914538	-0.28373122
124	0xbe0c9b5f	-0.13731144
125	0xbe00aa01	-0.12564851
126	0x3e8894b5	0.26675954
127	0x3e89632d	0.26833478
128	0xbe070467	-0.13185273
129	0xbea26f50	-0.3172555
130	0xbe4bcf0b	-0.199032
131	0xbe84f066	-0.2596466
132	0xbbf1e6d0	-0.0073822513
133	0x3e4e7457	0.20161568
134	0xbeaa8cbf	-0.33310506
135	0xbe138a17	-0.14408146
136	0x3d9657ba	0.07340951
137	0x3da71875	0.08158962
138	0xbe8d7c21	-0.27633765
139	0x3e93ded2	0.28880936
140	0x3c24d36f	0.010060175
141	0x3dfa0537	0.12208026
142	0xbea34b90	-0.31893587
143	0xbb791b5c	-0.0038010692
144	0x3e69f133	0.22845916
145	0xbea2fd2d	-0.31833783
146	0x3e8a133a	0.26967794
147	0x3e24eebd	0.16106696
148	0xbe93e07e	-0.2888221
149	0x3d9e8053	0.0773932
150	0x3e6da4c0	0.23207378
151	0xbe81a054	-0.25317633
152	0x3eae8d8b	0.34092364
153	0xbea3bd6b	-0.31980452
154	0x3e5d7eab	0.21630351
155	0xbba5829c	-0.0050509702
156	0xbe6beca9	-0.23039497
157	0xbd8a55fc	-0.067546815
158	0x3e634d0c	0.2219736
159	0xbe59e86a	-0.21280065
160	0x3e2f03d1	0.170913
161	0x3e4e4ba4	0.20146042
162	0xbc7f45f9	-0.015580648
163	0x3d341462	0.04396475
164	0x3d6e08d0	0.058113873
165	0xbe885344	-0.26626027
166	0x3da837d1	0.08213771
167	0xbe6fd5be	-0.2342138
168	0x3e7debe9	0.24797024
169	0xbe376d15	-0.17912705
170	0x3e99c955	0.30036417
171	0x3d2b38f1	0.04180235
172	0xbc3f79bb	-0.011686738
173	0xbe958fe5	-0.29211345
174	0x3e10229e	0.14075705
175	0xbeae3926	-0.34027976
176	0x3ceb4c90	0.028723031
177	0x3de0ea0a	0.109821394
178	0xbd7ad077	-0.061233964
179	0xbea15241	-0.31508067
180	0x3e800828	0.25006223
181	0xbe6bff63	-0.23046641
182	0x3e478fe7	0.19488488
183	0xbd5a198b	-0.053247016
184	0x3e1118c5	0.14169605
185	0x3d3433a9	0.04399458
186	0x3e32292a	0.17398515
187	0x3bf9c777	0.007622655
188	0x3db39bcc	0.0876995
189	0x3b1c6433	0.0023863434
190	0x3e9d6499	0.30740812
191	0x3d63a3ab	0.055576008
192	0xbead30dc	-0.3382634
193	0xbe62640e	-0.2210848
194	0xbe9ddee0	-0.30834103
195	0xbeb2832b	-0.34865698
196	0xbe1e7db8	-0.15477645
197	0x3e5e0a84	0.21683699
198	0xbe8b6945	-0.27228752
199	0xbe787ffb	-0.2426757
200	0x3e82d748	0.25554872
201	0xbc04d742	-0.008107962
202	0x3e843c7a	0.2582739
203	0xbe21ef0a	-0.15813842
204	0xbde3814c	-0.11108646
205	0x3e7337a2	0.23751691
206	0xbd9255a1	-0.07145239
207	0xbca4def8	-0.020125851
208	0xbea41e04	-0.3205415
209	0x3e217787	0.15768252
210	0xbeaef85b	-0.34173855
211	0x3e0341bc	0.12818044
212	0x3d070715	0.03296574
213	0x3e5204fc	0.20509714
214	0x3db392be	0.08768223
215	0xbdb9f731	-0.09080351
216	0xbe608d06	-0.21928796
217	0xbe9f85a8	-0.3115666
218	0xbe06e624	-0.13173729
219	0xbe8bbbde	-0.2729177
220	0x3db42f50	0.08798087
221	0xbda87e2d	-0.08227191
222	0x3d86da8a	0.06584652
223	0x3ea7bcbb	0.32761177
224	0xbea71aa8	-0.32637525
225	0x3e4fed66	0.20305404
226	0x3e244b3b	0.16044323
227	0xbe216259	-0.15760173
228	0xbe1c7167	-0.15277635
229	0xbe883aae	-0.2660727
230	0xbe8c548f	-0.27408263
231	0xbdae2b30	-0.08504331
232	0xbd8f214f	-0.06988775
233	0xbd9c12b8	-0.07620758
234	0x3e63a197	0.2222961
235	0x3e460f01	0.19341661
236	0xbea067f6	-0.31329316
237	0xbd518704	-0.05115415
238	0x3e93367b	0.28752503
239	0x3e047dc6	0.12938604
240	0x3d8f0e2d	0.06985126
241	0x3e9a8ba0	0.3018465
242	0xbe37afcd	-0.17938156
243	0xbe0a7fdb	-0.13525335
244	0xbe8781cf	-0.26466224
245	0xbea7d3f0	-0.32778883
246	0x3e3606af	0.17775987
247	0x3e45d9b2	0.19321325
248	0xbd93dcbe	-0.072198376
249	0xbeb14d96	-0.34629506
250	0xbd4157b4	-0.04720278
251	0xbd96d4ac	-0.07364783
252	0xbe385dc3	-0.18004517
253	0xbdbbaf2e	-0.09164272
254	0xbd2d9ada	-0.042384006
255	0xbe6ae7c8	-0.2293998

lstm.weight_hh_l2 f4 [32, 8]
0	0xbcabbaa0	-0.020963013
1	0x3e491c46	0.19639692
2	0x3e9e25bb	0.3088816
3	0x3cb4e6a0	0.022082627
4	0xbe2e6efc	-0.17034525
5	0xbe9b535f	-0.30337045
6	0xbe83b062	-0.25720507
7	0x3c1d9ce0	0.009619921
8	0x3e89eab9	0.26936892
9	0x3d3f3a08	0.046686202
10	0x3e6b27da	0.22964421
11	0x3e2c3cfe	0.16820142
12	0xbdb4ec2c	-0.08834109
13	0x3e8aac1f	0.27084443
14	0x3e0561d0	0.13025594
15	0xbea1b8f9	-0.31586435
16	0xbe438a5d	-0.1909575
17	0xbe50e2e5	-0.20399053
18	0x3e8375df	0.25675866
19	0x3c902470	0.0175955
20	0xbe1a45c8	-0.15065682
21	0x3e06d456	0.13166937
22	0x3c41ee20	0.011836559
23	0xbe9b391a	-0.30317003
24	0x3d7f8730	0.062384784
25	0x3e01fa00	0.12693024
26	0xbdeb2a02	-0.11482622
27	0x3e930cff	0.28720853
28	0xbe981e70	-0.29710722
29	0xbe84bc48	-0.25924897
30	0x3e0184a0	0.12648249
31	0x3e59624a	0.212289
32	0xbe671f9a	-0.22570649
33	0xbe947cab	-0.29001364
34	0x3e0cdb8a	0.13755623
35	0x3e24acce	0.16081545
36	0x3d1a85c0	0.03772521
37	0xbea90e56	-0.3301875
38	0x3e05e00a	0.13073745
39	0xbe6b324c	-0.22968405
40	0xbd615450	-0.055012047
41	0x3e8fbf11	0.2807546
42	0xbd63e798	-0.055640787
43	0xbd856844	-0.06514028
44	0xbe16ddf3	-0.14733104
45	0x3e437f36	0.19091496
46	0x3eaca42f	0.33719012
47	0xbe70ceb2	-0.23516348
48	0x3ea76421	0.3269358
49	0x3e3d0162	0.18457559
50	0xbe58adc1	-0.21160032
51	0xbe110a5d	-0.1416411
52	0x3e8819bd	0.26582137
53	0x3e86f33f	0.26357457
54	0x3d59b2b8	0.053148955
55	0xbe7c8db9	-0.24663438
56	0x3e7aff6e	0.24511501
57	0xbeb2eb8f	-0.34945342
58	0xbe6e65ee	-0.2328107
59	0x3ead56f7	0.3385541
60	0xbe9baf65	-0.30407253
61	0xbcc93e50	-0.024565846
62	0xbe87e7ae	-0.26543945
63	0x3e316b62	0.1732612
64	0xbe0e9381	-0.13923456
65	0x3da62ad0	0.081136346
66	0xbe4ff094	-0.20306617
67	0xbc8c4c00	-0.017126083
68	0xbe54bb05	-0.20774467
69	0xbe206b1d	-0.1566586
70	0xbeaf9f2b	-0.34301123
71	0xbe3f7c69	-0.18699802
72	0xbe82d5d3	-0.2555376
73	0x3dc24bf8	0.09487146
74	0x3c2712c0	0.010197341
75	0xbe916513	-0.28397426
76	0xbe8e32a3	-0.27773008
77	0xbb99dcc0	-0.004695505
78	0x3d957dc0	0.072993755
79	0xbc148460	-0.009064764
80	0xbca6ae10	-0.020346671
81	0x3e56707e	0.2094135
82	0xbe9281c1	-0.2861462
83	0xbd038520	-0.03210938
84	0x3d6ef760	0.058341384
85	0x3c3251e0	0.010883778
86	0x3e17d7b2	0.14828375
87	0xbe472474	-0.194475
88	0xbc4ed8a0	-0.01262489
89	0xbe72c98c	-0.23709697
90	0xbe647d98	-0.22313535
91	0x3cbf0b50	0.023320824
92	0xbda9ba34	-0.082874686
93	0xbe10c24e	-0.14136621
94	0xbe809ad8	-0.25118136
95	0x3d0f5030	0.034988582
96	0xbea67c78	-0.32516837
97	0x3e2a661e	0.16640517
98	0xbe4aa3e5	-0.19789083
99	0xbde1abd0	-0.11019099
100	0x3e89651b	0.2683495
101	0x3e047e14	0.1293872
102	0xbe74640e	-0.23866293
103	0xbdf2f00e	-0.11862193
104	0xbe47bfdd	-0.19506784
105	0x3e673f62	0.22582772
106	0x3e983263	0.29725942
107	0x3ea86675	0.3289067
108	0x3dcaa104	0.098939925
109	0xbc09d440	-0.008412421
110	0xbeaf5f8e	-0.3425259
111	0xbda03e28	-0.07824355
112	0x3e9ce9c9	0.30647114
113	0x3b5d8980	0.003380388
114	0x3e9c76b9	0.30559328
115	0x3ea0c31b	0.31398854
116	0x3e8aaac3	0.27083406
117	0x3dfb9fc4	0.12286332
118	0x3e14c25a	0.14527264
119	0x3e452362	0.19251779
120	0x3e391eca	0.18078151
121	0xbe0705f4	-0.13185865
122	0xbba0e180	-0.004909694
123	0xbea99758	-0.3312328
124	0x3ea4c84f	0.32184073
125	0xbe3862e4	-0.18006474
126	0x3e1fa4e6	0.15590248
127	0xbdadf464	-0.084938794
128	0xbe695ecf	-0.22790073
129	0x3d3e00a0	0.046387315
130	0x3e30059a	0.17189637
131	0xbc80b020	-0.015708983
132	0xbe3b49c3	-0.18289857
133	0xbe8ed1cd	-0.2789444
134	0x3e9a0393	0.30080852
135	0xbe9e36fb	-0.30901322
136	0xbeb0d24c	-0.34535444
137	0x3e21dcc6	0.15806875
138	0x3e1e0502	0.15431598
139	0xbd663380	-0.056201458
140	0x3e304236	0.17212757
141	0x3db3d218	0.087803066
142	0xbd63c6c0	-0.055609465
143	0x3e1f79b2	0.15573767
144	0x3e362aae	0.17789719
145	0x3d03f4a0	0.032215714
146	0x3e754b4e	0.23954508
147	0xbdbc90e4	-0.09207323
148	0x3e988be7	0.29794237
149	0xbd5eebc0	-0.054424047
150	0xbeaf504f	-0.34240958
151	0x3e1a58fa	0.15073004
152	0xbe94921d	-0.29017726
153	0xbe27b69e	-0.16378257
154	0x3e65137e	0.22370717
155	0xbe0c4665	-0.13698728
156	0xbe0f32e4	-0.13984257
157	0xbd35df58	-0.04440245
158	0xbe1e9fb2	-0.15490606
159	0xbd7163e0	-0.05893314
160	0xbe668943	-0.22513299
161	0xbe922c7c	-0.28549564
162	0x3d9032c8	0.07040936
163	0xbe846714	-0.25859892
164	0x3d4ad620	0.04952061
165	0xbd5392b0	-0.051653564
166	0xbeab241c	-0.33425987
167	0x3dd92f9c	0.10604784
168	0x3e8b299f	0.27180192
169	0xbe424cbe	-0.18974587
170	0x3e9d4247	0.30714628
171	0xbc44dd40	-0.012015641
172	0x3eb16b95	0.3465239
173	0xbda2095c	-0.079119414
174	0x3e0f9160	0.140203
175	0x3e8e0879	0.2774084
176	0xbe3fe82d	-0.18740912
177	0x3e8e50af	0.27795932
178	0x3e9d5493	0.30728588
179	0x3e9d5845	0.30731407
180	0xbdcc8510	-0.09986317
181	0xbe30137e	-0.17194936
182	0x3cd8a040	0.0264436
183	0xbe6047d2	-0.21902397
184	0x3c649da0	0.013953596
185	0x3dc8a354	0.09796777
186	0xbea8dd20	-0.32981205
187	0x3eaa66fd	0.332817
188	0xbd227978	-0.039666623
189	0x3e3410a2	0.1758447
190	0x3e992df9	0.29917887
191	0xbe90be83	-0.2827035
192	0xbeadf2fe	-0.3397445
193	0xbe63fbff	-0.22264098
194	0x3c800c10	0.015630752
195	0xbe20dbd2	-0.15708855
196	0xbc245300	-0.010029554
197	0x3defe174	0.11712924
198	0x3dcaef10	0.09908879
199	0x3d072cd8	0.03300175
200	0x3d0ecc80	0.034862995
201	0xbea0d8ca	-0.31415397
202	0x3c26a140	0.010170281
203	0xbe421158	-0.18951929
204	0xbe7e4d3e	-0.24834153
205	0xbc824d90	-0.015906125
206	0xbe489c94	-0.1959098
207	0x3d78e6c0	0.060766935
208	0xbd424e88	-0.047438174
209	0x3d7e7358	0.06212172
210	0x3e23c0d2	0.15991524
211	0xbddc7bea	-0.10765822
212	0xbd778658	-0.060430855
213	0x3e085db4	0.13316995
214	0xbeb057d1	-0.34442
215	0x3e902a71	0.2815738
216	0xbe8b74a2	-0.2723742
217	0xbe331a9d	-0.17490621
218	0x3d0b7980	0.03405142
219	0x3ea6f87f	0.32611462
220	0xbe75e138	-0.24011695
221	0x3c0dc300	0.008652449
222	0x3e8e43c1	0.27786067
223	0xbdf05392	-0.1173469
224	0x3d19df78	0.037566632
225	0x3ea1c3b9	0.31594637
226	0xbe305985	-0.17221649
227	0x3e07909a	0.13238755
228	0xbc976ab0	-0.01848349
229	0xbe82a563	-0.25516805
230	0x3c87e280	0.016587496
231	0xbe88fd61	-0.26755813
232	0xbd18b608	-0.037282974
233	0xbe5254d2	-0.20540169
234	0x3e9183eb	0.28420958
235	0x3e64d776	0.22347817
236	0x3db9a17c	0.09064004
237	0x3d629ec0	0.055327177
238	0xbe6f3142	-0.23358634
239	0x3e08b5b6	0.13350567
240	0xbd611b38	-0.0549576
241	0xbbca83c0	-0.0061802566
242	0x3ead3f03	0.33837137
243	0xbdc91fa0	-0.09820485
244	0x3e142856	0.14468512
245	0xbd9daba4	-0.076987535
246	0x3e928e17	0.2862403
247	0xbc99d170	-0.018776625
248	0x3e2bbb0a	0.16770568
249	0x3e614682	0.21999553
250	0x3e9cb2a3	0.3060504
251	0xbd49cf28	-0.049269825
252	0x3d55afb0	0.0521695
253	0xbe779012	-0.24176052
254	0x3c0563c0	0.008141458
255	0x3e6c0ad2	0.23051003

lstm.bias_ih_l2 f4 [32]
0	0x3e85f6d5	0.2616488
1	0xbeac0b5a	-0.3360241
2	0x3de959ba	0.11394067
3	0xbe70d5b7	-0.23519026
4	0xbe30862d	-0.17238684
5	0x3e9e5a74	0.30928385
6	0x3d3c75a2	0.04601062
7	0xbc29265e	-0.010324089
8	0x3b5cd300	0.0033695102
9	0x3ea28fb3	0.3175026
10	0xbe7d87a6	-0.24758777
11	0xbd168938	-0.036751956
12	0x3e9145ff	0.28373715
13	0x3e7fb71e	0.24972197
14	0x3cce7c80	0.02520585
15	0xbdadfb20	-0.08495164
16	0x3e4682bb	0.19385807
17	0xbeb3a5d2	-0.35087448
18	0xbeb32b75	-0.34994093
19	0x3e0c1ce2	0.13682893
20	0xbdc03fe7	-0.093871884
21	0x3de94d0e	0.1139165
22	0xbea051fa	-0.31312543
23	0xbe864242	-0.26222426
24	0x3e8efafd	0.27925864
25	0x3e38610c	0.1800577
26	0xbdeb1a3e	-0.11479615
27	0xbc6d55fa	-0.01448583
28	0x3e8a9985	0.2707025
29	0xbe03a232	-0.12854841
30	0x3bb8410b	0.005622988
31	0xbe2acd03	-0.16679768

lstm.bias_hh_l2 f4 [32]
0	0xbe43c7cc	-0.19119185
1	0xbe915cb1	-0.2839103
2	0x3e260bef	0.1621549
3	0x3e0f744a	0.14009205
4	0x3eafffe0	0.34374905
5	0x3d75aba2	0.059978135
6	0x3e7e3ca8	0.24827826
7	0x3dc4f3bc	0.09616801
8	0xbd760ca0	-0.060070634
9	0x3e644b4e	0.22294351
10	0xbe4e3295	-0.20136483
11	0xbdd69db0	-0.10479295
12	0x3dcabf44	0.09899762
13	0x3d469788	0.048484355
14	0xbe7f213e	-0.24915025
15	0xbdc003b8	-0.09375709
16	0x3e2ccb63	0.16874461
17	0xbe94bf5b	-0.29052243
18	0xbe2fb6af	-0.17159532
19	0xbd05f393	-0.032702994
20	0x3d1f3a2c	0.038873836
21	0xbe8e7dba	-0.27830297
22	0xbdc03b35	-0.09386293
23	0xbe0da79b	-0.13833468
24	0xbeb173df	-0.34658715
25	0xbeb5013c	-0.35352504
26	0xbe12808c	-0.14306849
27	0xbb1abde7	-0.0023611726
28	0xbe7f4b25	-0.24931009
29	0xbe62007a	-0.22070494
30	0xbe851604	-0.2599336
31	0x3e4587f7	0.19290148
