ModelSave160.pt (torch_old, 30741 bytes, 45 tensors)

lstm.weight_ih_l0 f4 [32, 6]
000000 b1 d3 0d 3f 10 8b 21 3e 88 e9 95 be f5 3f 1c 3e
       0.5540114 0.15775704 -0.29279733 0.15258773
000010 15 12 f5 3f 3a 11 04 c0 e7 c1 a7 3e bf 84 c3 bf
       1.9146143 -2.0635514 0.32765123 -1.5274886
000020 28 ca 85 3e 3d 4b a2 3f 64 44 a0 bf 52 7a 1a bf
       0.26130795 1.2679211 -1.2520871 -0.60342896
000030 8f 9c 5e bf 30 07 8f be a3 ca c9 3e d7 1d 1f 3f
       -0.8695764 -0.2793517 0.39412412 0.62154907
000040 38 13 a4 bf e4 e3 d9 3f b4 37 84 3e 8f 99 89 bc
       -1.2818365 1.7022672 0.25823748 -0.016796855
000050 a3 3d 3c 3f 68 c9 bb 3d 3d 29 d4 bf 35 0d 9d 3f
       0.7353155 0.091692746 -1.6575085 1.2269655
000060 e1 c6 e7 be 19 e9 40 be cf e0 24 bf 16 6d 70 3d
       -0.4526892 -0.1883892 -0.6440553 0.058697782
000070 62 d8 a4 3e 50 f8 f5 3e 70 07 f9 3d ed 9c 0f 3f
       0.32196337 0.4804101 0.12159622 0.56098825
000080 96 7e 3c bf 20 64 dd be f0 50 1d bf 67 f9 9e be
       -0.73630655 -0.43240452 -0.61451626 -0.31049654
000090 8d b3 8e be 6b bb c6 3d 13 e9 b3 3f 40 0a 9a bc
       -0.2787136 0.09703716 1.4055504 -0.018803716
0000a0 5d 5e 25 3f 7f 83 f3 3f 29 27 27 bf 17 4f 84 be
       0.6459711 1.9024504 -0.6529413 -0.2584159
0000b0 df 12 0a be 73 b6 e5 be 89 3b ec 3f 0e 1a 0b c0
       -0.13483761 -0.4486576 1.8455669 -2.1734653
0000c0 0a ef 4c 3e 80 fb b6 bd 10 da ab be c0 ff e8 bd
       0.20013061 -0.089346886 -0.33564806 -0.113769054
0000d0 50 02 75 bd 38 9a d5 3d 10 1b a0 3c 2c ed db 3d
       -0.05981666 0.104298055 0.019544154 0.10738596
0000e0 a9 0c ae 3e 5e 13 5d 3e 17 0f b0 be 72 b9 04 3e
       0.33994034 0.21589419 -0.34386513 0.12961367
0000f0 c2 44 89 be ec f0 8f bd 88 8c 76 bd d9 fd 83 be
       -0.2681027 -0.07028374 -0.060192615 -0.25779608
000100 99 c2 3b be 57 1a 48 be 76 21 02 3e 00 16 7a 3c
       -0.18335952 -0.19541298 0.12708077 0.015264034
000110 c4 29 f0 bd 40 61 83 3c d9 75 a1 3e 5c 40 9b be
       -0.11726716 0.016037583 0.31535223 -0.3032254
000120 f1 d2 ae 3e 7a dd 6d 3e 3a da ac be d6 02 62 be
       0.3414531 0.23229018 -0.33760244 -0.22071394
000130 e6 19 51 3e 22 6f 01 3e 80 f6 3a 3c 30 1a 90 bc
       0.20420036 0.1264005 0.011411309 -0.017590612
000140 ae 60 1e 3e 2c 5b 12 3e c2 7b 5c 3e a0 6b 30 3c
       0.15466568 0.14292592 0.21531585 0.010767847
000150 35 0d 91 3e 69 c7 8f be b9 82 95 3e 73 87 8f 3e
       0.2833039 -0.28081825 0.29201296 0.28033027
000160 90 dd b3 3c b1 2c b3 be 58 1a 6f bd ad ae 9b 3e
       0.021956235 -0.34995034 -0.058374733 0.30406705
000170 5a 08 f4 bd 2d 30 38 be c1 fe ac be 28 30 64 be
       -0.119156554 -0.17987128 -0.33788112 -0.22283995
000180 ba 1e 07 3e a0 dc 8b be 45 e9 de 3e 66 73 83 3d
       0.13195315 -0.2731676 0.43537346 0.06418495
000190 cc ed 9d bf 36 7a 92 3f 56 ae 95 be 88 9e 93 bf
       -1.2338195 1.1443546 -0.2923457 -1.1532755
0001a0 6f a0 40 3f f1 5e e1 3d 58 10 42 40 3b 54 c5 3e
       0.752448 0.11004437 3.0322475 0.38540825
0001b0 07 8e 57 be 34 be 0b 3f ce f5 d6 bf 3c bc f3 be
       -0.21050273 0.545871 -1.6793764 -0.4760455
0001c0 e4 40 29 3e 50 34 e8 3f 3a 11 d5 3e de e3 bb be
       0.1652866 1.8140965 0.41614705 -0.36697286
0001d0 d0 11 e8 3f 9b c3 8e 3f 63 19 cc 3f 28 56 c3 be
       1.8130436 1.1153444 1.5945247 -0.3815167
0001e0 9b a6 97 be b6 51 79 bf 0a 3c ef 3e cd f1 9d 3e
       -0.29619297 -0.97390306 0.46725494 0.30848542
0001f0 f0 c8 f9 be 53 83 10 bf ed dc 30 bf 71 a2 1b bf
       -0.48786116 -0.56450385 -0.69087106 -0.6079474
000200 07 b6 c6 be d0 14 ca be f1 62 f7 bd ee 03 cb 3d
       -0.3881075 -0.39469004 -0.120794185 0.09912859
000210 f4 ac 51 3e 17 43 d4 be 10 82 96 3f 57 68 33 3f
       0.20476133 -0.41457435 1.1758442 0.70081085
000220 f6 12 86 bf 6c e9 eb bf 7c bc 14 3d 11 a3 13 3f
       -1.0474536 -1.843061 0.036312565 0.57670695
000230 7e a8 a5 bf 23 a4 1f bf a2 a2 66 3f 2c cf 93 bf
       -1.2942045 -0.6235983 0.9009191 -1.1547599
000240 8f 7d 21 3e 96 c9 b8 3e 8e d5 40 be b7 69 65 be
       0.15770553 0.36091298 -0.18831465 -0.22403608
000250 08 80 0e 40 17 b2 f6 bf d5 d3 d7 be c2 de cd bf
       2.2265644 -1.9273099 -0.42153803 -1.6083605
000260 c2 03 58 3f d8 17 97 3f 4b eb c1 bf 55 4c 48 3f
       0.84380734 1.1804152 -1.5149931 0.78241473
000270 3c a0 ea be db 31 4b be 9b 68 f8 3e c7 27 10 3e
       -0.45825374 -0.19843237 0.48517308 0.14077674
000280 d6 87 aa 3f 7e e5 ea 3f 46 49 75 3e 38 4d 67 bd
       1.3322704 1.8351285 0.23953733 -0.056470126
000290 99 11 39 3f 89 1b dd be 6a 24 d3 bf 12 dd 67 3f
       0.72292477 -0.4318507 -1.6495488 0.905717
0002a0 1c 9e 1a bf c9 d2 19 be d9 bb 89 bf e8 05 03 be
       -0.60397506 -0.15021814 -1.0760452 -0.12795222
0002b0 89 fe 25 3f f2 49 56 3f df c0 46 3e 3d 41 f1 3a
       0.64841515 0.8370658 0.19409512 0.0018406283
0002c0 c7 50 74 bf cb 26 0c bf 90 6e 11 bf d4 a7 56 be
       -0.95435756 -0.54746693 -0.5680933 -0.20962459
0002d0 70 a2 12 3e ad e6 06 3e fc 58 47 3f 17 af 57 be
       0.14319777 0.13173933 0.77870154 -0.21062885
0002e0 2a 5a e1 3f 89 b4 ad 3f b8 00 91 be 31 cd 0e 3d
       1.7605641 1.357072 -0.2832086 0.034863655
0002f0 70 1e 1e bf 68 d4 6d bd 43 f9 10 40 f3 00 07 c0
       -0.61765194 -0.058063895 2.2652137 -2.109433

lstm.weight_hh_l0 f4 [32, 8]
000000 dd 53 9d be ea a0 76 3e d1 dc 80 3e 60 ba a7 3c
       -0.30728045 0.24084821 0.2516847 0.020474613
000010 24 9a 32 be 5e 0c a3 be a0 19 00 3d b2 d2 29 3e
       -0.17441612 -0.31845373 0.031274438 0.1658428
000020 a4 b1 9a be c8 90 5c bd 80 a2 39 3b ec f4 8a bd
       -0.30213654 -0.05384901 0.0028325617 -0.067849964
000030 16 f7 47 3e 5b 5f b2 3e 3e 58 46 be e0 27 4a bd
       0.1952785 0.34838375 -0.19369599 -0.049354434
000040 40 c8 be 3b 8c fe 9b be 20 f6 c4 bc bd 24 24 be
       0.0058222115 -0.3046764 -0.024043143 -0.1602964
000050 ae d8 52 3e 70 9a cf 3d 21 c0 b1 be c8 05 47 be
       0.20590469 0.101368785 -0.34716895 -0.19435799
000060 a0 60 ab 3c be 98 6d 3e 13 83 ac 3e c0 d3 e0 3b
       0.020920098 0.23202798 0.33693752 0.00686118
000070 b6 39 3f 3e 69 23 28 be f8 ee 01 bd df a5 1c be
       0.18674359 -0.16419758 -0.03172204 -0.1529765
000080 a1 77 14 be 0f 22 89 3e f8 d9 2c be 2b 2e 60 be
       -0.1449876 0.26783797 -0.16880023 -0.21892612
000090 6e e1 4f be 0c 17 b2 bd 12 d3 33 be 2f a3 a6 3e
       -0.20300838 -0.08695802 -0.17560986 0.32546374
0000a0 2d 6c 98 3e de c4 84 be d9 23 73 be b0 50 54 bd
       0.29770032 -0.25931448 -0.23744144 -0.051834762
0000b0 42 bd 87 be ec 8c 86 be 24 ee 96 be 00 90 b7 3d
       -0.2651158 -0.2627939 -0.29478562 0.08963013
0000c0 2b 3e b1 3e 51 fa 98 3e 80 fa aa 3b 20 8d b3 bd
       0.34617743 0.29878476 0.00521785 -0.08767152
0000d0 26 1e 39 3e 76 33 7f 3e b7 b8 ac 3e fe 20 0b 3e
       0.18077907 0.24921975 0.33734676 0.13586804
0000e0 88 d9 43 bd 91 55 87 3e 20 15 b8 3d 08 96 20 3d
       -0.047814876 0.2643247 0.08988404 0.03920558
0000f0 f3 b9 85 be 5f 35 9d 3e 5c 83 dc bd 82 82 08 be
       -0.2611843 0.3070478 -0.10767242 -0.13331035
000100 26 83 8b be 85 7a a3 3e fe 4b 8e be 80 64 fc 3c
       -0.27248496 0.31929412 -0.27792352 0.03080964
000110 29 a3 86 3e a2 7c 65 3e a0 30 5a bd 62 99 47 3e
       0.26296356 0.22410825 -0.05326903 0.19492105
000120 9d 09 ae 3e 44 f1 5f be 50 17 b2 be be 81 27 3e
       0.3399171 -0.2186938 -0.3478341 0.16358086
000130 e9 80 a6 be 70 99 0b bd a6 db 1a 3e e2 82 5d 3e
       -0.32520226 -0.034081876 0.15122852 0.21631959
000140 a0 8f 71 3c 78 8d c1 bd f2 7b 6e 3e 13 79 06 be
       0.0147437155 -0.09450811 0.23289469 -0.13132124
000150 e6 74 1f 3e 0e e4 19 be f4 be af bd 9f ab a5 3e
       0.15571937 -0.15028402 -0.08581343 0.323575
000160 60 50 77 bc a9 b4 91 be 11 78 7e be 0d c8 b2 3e
       -0.0150948465 -0.28458145 -0.24850489 0.34918252
000170 d4 e1 fd 3d 20 dd a1 be 56 ca 26 3e be ec 3a 3e
       0.12396589 -0.31614017 0.16288123 0.18254372
000180 b7 10 b2 3e 92 4f 76 be 58 2f 4d 3d 23 d0 81 3e
       0.34778377 -0.24053791 0.05009398 0.25354108
000190 cc a6 ea 3d a8 88 93 be ba 58 5d 3e 70 5c e7 3d
       0.11457595 -0.28815198 0.21615878 0.11296928
0001a0 b0 c6 54 be 61 c1 94 3e d7 f4 88 be 5f c3 8d be
       -0.20778918 0.29053786 -0.26749298 -0.2768812
0001b0 a0 ca ac 3c 3c 62 a6 bd da fe 3c be 02 5b 36 3e
       0.021092713 -0.081242055 -0.18456593 0.17808154
0001c0 3c b6 35 be 02 db 0c be 20 2a c3 bc 70 ee ea 3d
       -0.17745298 -0.1375542 -0.023823798 0.114712596
0001d0 17 0e 56 be 33 8a a5 3e ec c3 b8 bd 38 37 09 bd
       -0.20903812 0.32332 -0.09021744 -0.033499926
0001e0 04 b5 0d 3e 29 e1 a4 3e cc 00 04 3e b8 23 5d bd
       0.13838583 0.32203034 0.12890929 -0.053989142
0001f0 44 4e d7 3d 29 b5 80 be 94 92 0d 3e b2 dc 1f 3e
       0.10512975 -0.25138214 0.13825446 0.15611532
000200 06 71 db bd ae 6a 81 be ba d8 2b 3e 28 54 bb bd
       -0.10714917 -0.25276703 0.16781893 -0.09146911
000210 f4 c8 ad bd 44 32 97 3d a8 8c 83 be a2 cb 57 be
       -0.084855944 0.07382634 -0.2569325 -0.21073774
000220 4e 4e 55 3e 75 64 9a 3e 94 4c cd 3d cc 70 b3 3d
       0.20830652 0.30154768 0.10024372 0.08761749
000230 ac d9 9d be 7c c0 a8 3d 3a f3 1a 3e 97 72 0c be
       -0.30830133 0.082398385 0.15131846 -0.13715588
000240 09 e8 96 3e 71 54 8e 3e fc d4 6f be e6 10 47 be
       0.29473904 0.277988 -0.23421091 -0.1944004
000250 30 c9 84 be f1 e3 94 3e bc 84 c3 3d 0c 3a c2 3d
       -0.25934744 0.29080155 0.095468014 0.09483728
000260 ff e3 a4 3e ad 02 04 be e8 33 08 bd e0 43 6e bd
       0.32205197 -0.12891646 -0.033252627 -0.0581702
000270 44 b4 c7 3d 09 78 99 be a4 31 a8 be e4 23 c1 3d
       0.0975118 -0.29974392 -0.32850373 0.09430674
000280 e3 0d 80 3e bd 47 96 3e 60 9d 91 be e2 17 fd bd
       0.25010595 0.29351607 -0.2844038 -0.12358071
000290 f4 72 9f be 00 35 4a 3d f0 98 ca bd f1 a2 80 be
       -0.3114239 0.04936695 -0.09892452 -0.25124314
0002a0 66 37 5d 3e 80 c8 08 bb 34 72 95 bd 18 92 70 bd
       0.21603164 -0.002087146 -0.07297173 -0.058733076
0002b0 18 d2 47 be 40 a8 2f 3c 00 02 61 bc 37 dc b3 3e
       -0.19513738 0.010721266 -0.013733387 0.35128948
0002c0 d4 d8 c9 3d 20 34 c3 3c 10 6d 91 3c b4 45 9a be
       0.0985581 0.023828566 0.0177522 -0.30131304
0002d0 36 f2 42 3e 88 04 7d 3d 47 cb 8c 3e c5 04 16 be
       0.19037709 0.0617719 0.27498838 -0.14650257
0002e0 69 2f b2 3e 00 1b c3 bc 85 2e 8d 3e 90 f4 0a be
       0.34801796 -0.023816586 0.27574554 -0.13569856
0002f0 00 da d6 3a 7f 2e a2 be 8b 43 88 3e f6 07 82 be
       0.0016391873 -0.316761 0.2661403 -0.253967
000300 d2 7e 6e 3e a6 a2 6b 3e 75 07 8d be da ec 61 3e
       0.23290566 0.23011264 -0.27544752 0.22063008
000310 33 1c a9 be a0 49 6c 3d e2 42 21 3e d7 c2 92 3e
       -0.33029327 0.0576874 0.1574817 0.28664276
000320 ae 19 16 3e ec 30 9c 3d 50 ef e4 bc 60 ff 76 3d
       0.14658234 0.076265186 -0.027946144 0.06030214
000330 7a a3 50 3e c7 4d 81 3e 3c 50 31 be af 87 07 be
       0.20374861 0.25254652 -0.17315763 -0.13235353
000340 64 26 c9 bd e4 2a fc 3d 34 53 dd bd a4 03 e7 3d
       -0.098217756 0.12312868 -0.10806885 0.11279991
000350 d5 90 8a 3e 01 5c a4 3e 20 16 b1 bc cf 28 89 3e
       0.27063623 0.32101443 -0.021616995 0.26788947
000360 b2 ed 9c be 1d d8 8a be 20 41 83 bc 49 44 1d be
       -0.30650097 -0.27118006 -0.016022265 -0.1535808
000370 a6 8e 36 3e f6 ec 9f be 00 4e 7c 3a c4 6d 13 3e
       0.17827854 -0.31235474 0.000962466 0.14397341
000380 e6 44 eb bd fe 54 30 3e 38 2e 83 3d e8 5a 86 bd
       -0.11487751 0.17219922 0.064053 -0.06560308
000390 a6 8c 1d 3e 6c 19 11 be 65 76 4a be 74 31 a5 3d
       0.15385684 -0.14169854 -0.19771726 0.08066073
0003a0 54 ac 83 bd c6 81 a0 be 26 13 6a 3e 97 11 93 be
       -0.06429353 -0.3134901 0.22858867 -0.28724357
0003b0 c8 27 2a 3d f0 9a fa bc 16 b5 1f 3e b4 4e cc 3d
       0.041541845 -0.030591458 0.15596423 0.09975949
0003c0 7c 7d 90 3d 38 d9 37 3d da 77 1c 3e 2c 1a c8 bd
       0.07055184 0.04488489 0.15280095 -0.09770617
0003d0 c8 a1 f2 bd 7a c5 05 3e 06 88 5e be a0 5e 6f be
       -0.118472636 0.13063613 -0.21731576 -0.2337594
0003e0 f6 73 37 3e f5 37 97 be 15 86 68 be 40 a2 c7 3b
       0.1791533 -0.2953488 -0.22707398 0.0060923398
0003f0 c0 16 2c bd f8 45 2d bd c2 ae 64 3e bd 93 55 be
       -0.042013884 -0.042303056 0.2233229 -0.20857139

lstm.bias_ih_l0 f4 [32]
000000 71 03 0b 3e c7 4a b9 3e 8c 17 18 3f 0c f0 a0 3f
       0.13575532 0.36189863 0.5941093 1.2573256
000010 6b 2e 95 be c7 a9 18 bf e2 83 0a be 33 d8 0b 3f
       -0.29136977 -0.5963406 -0.13526872 0.5462677
000020 6d 5e a6 3e ae 71 64 3e 9b 72 a6 3e 85 27 91 3e
       0.32493916 0.2230899 0.32509312 0.28350464
000030 00 52 72 bb cc a5 56 be 9f 6b 05 be 08 8a 0b 3e
       -0.0036975145 -0.20961684 -0.13029335 0.13626873
000040 3d 5e e1 be d7 0b cd 3d c7 5f 78 3e 96 d0 bd 3d
       -0.4401721 0.10012024 0.24255286 0.092683
000050 44 5a c4 3d 14 00 4a be 83 47 0b 3f 5d 15 1c 3e
       0.09587529 -0.19726592 0.54405993 0.15242524
000060 b1 7f cd be 1c 20 17 be 84 1a 3f 3f 63 12 44 3f
       -0.40136483 -0.14758343 0.74649835 0.76590556
000070 2b ad 11 bf 5d f1 3a bf bb 69 82 3e 9d ca 0d 3f
       -0.5690486 -0.7302454 0.2547129 0.5538729

lstm.bias_hh_l0 f4 [32]
000000 a9 9e 9c 3b 75 b0 aa 3e c0 51 72 3e cf b8 93 3f
       0.004779656 0.3333775 0.23663998 1.1540774
000010 ec 70 72 bf 77 c6 25 bf 53 e8 7d bb e4 8d ad 3e
       -0.94703555 -0.6475596 -0.0038743212 0.33897316
000020 14 03 10 3e 20 ce 62 3c 50 bc 52 be f0 c4 64 bd
       0.14063674 0.013843089 -0.20579648 -0.055851877
000030 b1 55 59 be ac 1a 11 3e de 33 77 be 96 46 59 be
       -0.21224095 0.14170331 -0.2414088 -0.21218333
000040 db 83 aa be da 7b b0 3e c8 1a 0a be 3a 2d c3 be
       -0.33303723 0.3446949 -0.13486779 -0.38120443
000050 25 cd e1 be 62 5c 4f 3d d9 7c 5d 3e 0f 3d 04 3f
       -0.44101825 0.050625212 0.21629657 0.5165567
000060 7a b2 12 be c9 b5 97 3b cd ee 1f 3f fb e4 a0 3f
       -0.14325896 0.004629825 0.62473756 1.2569879
000070 3b bf d7 be 6e 97 0f bf c7 7d 24 bd 61 3e 74 3e
       -0.42138085 -0.5609044 -0.040159013 0.2385192

lstm.weight_ih_l1 f4 [32, 8]
000000 8b 2c 03 3f e2 30 c0 bc 27 20 28 bf f9 73 32 3e
       0.5123984 -0.02346081 -0.6567406 0.17427053
000010 d2 67 9b 3e e6 dd 01 3f b1 80 1e 3f 8a d5 58 bf
       0.30352646 0.50729215 0.6191512 -0.84700835
000020 a4 1c fa bb ad cc 18 bf 7f 53 84 3f 2a 8f 81 bf
       -0.0076328088 -0.5968731 1.0337981 -1.0121815
000030 db 67 32 be a1 ba ec 3d 85 e1 f8 be 74 88 7b 3f
       -0.1742243 0.11559034 -0.48609558 0.98255086
000040 a3 04 b5 bd 88 42 d8 be 68 60 c6 3e 17 2b 54 bf
       -0.08838775 -0.4223826 0.38745427 -0.8287825
000050 0e fb 6c bc 92 dc 8a 3e 0a 62 61 3d 4a 0b 14 3f
       -0.014464153 0.27121407 0.055025138 0.57829726
000060 44 61 5e 3f 1a df 17 bf d9 f4 1b 3e dd c2 88 bf
       0.86867166 -0.593248 0.1523012 -1.0684468
000070 34 43 df 3e 48 f5 6b 3e 9e 1e 37 3e cf 5f 65 bf
       0.4360596 0.23042786 0.17882773 -0.8959932
000080 8b 7e f0 3e 8f d1 e4 3e 56 2c c6 be 40 49 96 3e
       0.46971545 0.4469113 -0.387057 0.2935276
000090 8c 7e 05 3e fd 19 3a be 2e 52 66 3f e2 4f 7c be
       0.13036555 -0.18173976 0.89969146 -0.24639848
0000a0 4b ce 0e bf 94 18 b4 3f a0 1f 34 bf 30 eb b6 3f
       -0.5578353 1.4070001 -0.70360756 1.4290524
0000b0 53 55 21 bf 6a c1 99 3e 42 0c 89 3f 8a 22 cd 3e
       -0.6302082 0.30030376 1.0706866 0.40065414
0000c0 e0 d7 10 3f 8f af a1 3f 4d 04 63 bf 55 95 00 3f
       0.565794 1.2631701 -0.8867844 0.5022786
0000d0 fc 41 13 bf 24 f6 6c 3f 21 00 b5 3f e3 65 ff be
       -0.5752256 0.9256308 1.4140664 -0.4988242
0000e0 ee 75 cc bf 2f 02 7a 3f 36 24 8b 3e 70 36 56 be
       -1.5973489 0.9765958 0.27176064 -0.20919204
0000f0 0e 3d 62 bf 72 1c 77 3f 85 45 34 bf 62 99 7d 3f
       -0.8837441 0.9652778 -0.7041858 0.9906217
000100 b1 cc 83 3e 2e 74 79 be 84 3d 6e be 55 89 8b 3e
       0.25742105 -0.24360725 -0.23265654 0.27253214
000110 07 db 8d 3e ea a7 7e 3e 30 ce e2 bc 38 bb 46 bd
       0.27706167 0.24868742 -0.027686208 -0.04851839
000120 18 6d 44 3d d1 2c 90 3e 70 97 a6 bc bc 57 fa 3d
       0.047955602 0.28159192 -0.020335883 0.12223765
000130 f0 cd 17 3d 3a 66 4a 3e 80 f1 b0 3d fc 9a 8b bd
       0.03706163 0.19765559 0.086398125 -0.0681667
000140 2a a9 b1 be af 20 9f 3e 92 db 4f 3e 03 ac 84 3e
       -0.34699374 0.31079623 0.20298603 0.25912485
000150 08 9e 02 3e e1 04 16 be 4d 66 00 be 3f 6c 69 be
       0.12755597 -0.14650299 -0.12539025 -0.22795199
000160 f5 c5 a2 3e 50 13 06 3d 5b 02 aa 3e f0 a3 dc bc
       0.31791654 0.03273326 0.33204922 -0.02693364
000170 fc ef 8d 3d 0c ae ae 3d 00 e6 b7 bb 25 1c 8a 3e
       0.06930539 0.085292906 -0.005612135 0.26974598
000180 df b6 9b 3e fe 6e 3d 3e ac d7 c4 3d 54 44 36 be
       0.30412957 0.18499371 0.09611449 -0.17799503
000190 9b 66 a5 3e 25 78 b1 3e 00 f5 f1 3a e0 a6 bc bc
       0.32304844 0.34661976 0.0018459857 -0.023028791
0001a0 b6 98 09 be 47 07 9a 3e cc c2 fe 3d de 0b 8e be
       -0.13437161 0.30083677 0.12439498 -0.2774343
0001b0 2b 06 28 be 19 5e 9d 3e 26 e6 40 be 20 41 00 bc
       -0.16408603 0.30735853 -0.18837795 -0.007828027
0001c0 c0 aa 78 bc 80 c6 44 3d cd 45 9a 3e ae f6 61 3e
       -0.015177429 0.048040867 0.3013138 0.22066757
0001d0 80 b0 b3 be 3c a0 ab 3d 93 8a a3 3e 43 44 a5 3e
       -0.35095596 0.08380172 0.3194166 0.32278642
0001e0 5d 16 a1 be b6 65 3e be fa f5 17 3e 40 02 64 bc
       -0.31462374 -0.18593487 0.14839926 -0.013916552
0001f0 fc 94 73 be 6e 60 6b 3e ea 30 0b 3e 02 02 31 3e
       -0.23787302 0.22986004 0.13592878 0.17285922
000200 da 79 92 3e 18 ff 91 3f 56 d6 0b bf 34 ce f6 3e
       0.2860859 1.1405973 -0.54623926 0.48204195
000210 03 9d 87 3e ed db 4d 3f 7f 8f 5f 3e a2 4e f8 be
       0.26486978 0.80413705 0.21832083 -0.48497492
000220 15 91 24 bf 5d cb 31 bf c1 94 44 3f f6 43 d4 bf
       -0.6428388 -0.6945093 0.7678948 -1.658324
000230 ce 9e 47 3d 67 55 ac be 1e 6e 66 bf 05 ec c2 3f
       0.048735432 -0.33658907 -0.90011775 1.5228277
000240 be 19 ba bd 3d cd 04 3e 89 76 18 bf 0f 57 3c 3f
       -0.09086941 0.12968917 -0.5955587 0.7357034
000250 f4 67 b3 be 29 6c 2b bd 17 01 29 3f b5 53 1f bf
       -0.35040247 -0.041851196 0.6601729 -0.622371
000260 0c f8 af bd 30 e3 83 bd 53 01 8a 3e 4a 5c 5e 3f
       -0.08592233 -0.06439817 0.26954135 0.8685957
000270 6b 5a 35 be d6 2e 28 be 55 d0 be 3d 00 a7 16 3e
       -0.17710273 -0.16424116 0.0931708 0.14712143
000280 ca 82 fb be 60 97 9e be 30 38 14 3f 49 dc b0 bf
       -0.49123222 -0.30974865 0.57898235 -1.3817226
000290 1a 39 cb 3c a2 21 2b bf 60 f9 d6 be 5e cb 8a 3f
       0.024807502 -0.66848195 -0.41987133 1.0843313
0002a0 52 57 92 bf f1 ea 87 bf 01 d1 95 3f 9f a4 dc bf
       -1.1432898 -1.0618573 1.1704408 -1.7237738
0002b0 c9 83 40 be 93 1d cb bd 17 be 84 bf ab 19 e0 3f
       -0.18800272 -0.0991775 -1.0370511 1.7507833
0002c0 1c 8d 87 3f 1a 52 2f 3f 01 35 a8 bf a5 96 fb 3f
       1.0589938 0.6848465 -1.3141176 1.9655348
0002d0 73 92 99 3e 14 03 30 be 46 fe 61 3f 85 43 ba bf
       0.29994544 -0.17188674 0.88278615 -1.4551855
0002e0 e0 46 57 3f 62 f5 ec 3e 7e 61 5b bf 7f 31 8c 3f
       0.8409252 0.46280962 -0.85695636 1.0952605
0002f0 c2 23 05 bd 51 b1 2b 3e 52 16 72 3f c5 76 c0 bf
       -0.032504804 0.1676686 0.9456531 -1.5036246
000300 d0 1b 1e 3f 7c 2c 03 3e 6f 13 b4 bd ce ec e9 3e
       0.6176119 0.12809938 -0.08792769 0.4568848
000310 f6 a0 12 be 3d a5 72 3f ad 83 6d 3e 20 42 74 bf
       -0.14319214 0.94783384 0.23194762 -0.954134
000320 f4 43 a4 be d9 7c 21 bf 60 82 3a 3f 0b e2 bb bf
       -0.32083094 -0.6308113 0.72855186 -1.4678358
000330 1a d0 2c bd bd 2e 6d be e7 f6 c7 be 92 c6 7c 3f
       -0.04219065 -0.2316236 -0.3905556 0.98740494
000340 f2 76 04 3f 18 ca 29 bf 86 4e e7 3e 48 fa 1c bf
       0.51743996 -0.66323996 0.45177096 -0.613194
000350 ee 4c dc 3e ee b6 70 3f 65 67 9a be ef e4 b3 3e
       0.43027443 0.9402913 -0.3015701 0.351356
000360 14 f8 34 3f c7 6c 4e 3d 58 eb d6 be d5 44 84 bf
       0.7069104 0.050396707 -0.41976428 -1.0333506
000370 24 5f 04 3f 86 b7 30 3e fc 05 56 be 7a 12 27 bd
       0.51707673 0.17257509 -0.2090072 -0.040789105
000380 16 c4 95 3f 84 37 dc 3e 03 a8 4d be 3a bd 5e be
       1.1700466 0.43011105 -0.20083623 -0.21751872
000390 26 68 21 be 5d af 6d 3e d6 5c 2a 3f dc b3 ec be
       -0.15762386 0.23211427 0.66547906 -0.46230972
0003a0 91 48 62 bf b4 5c 9b 3f ad d5 e2 be e7 14 82 3f
       -0.8839198 1.2137666 -0.44303647 1.0162629
0003b0 e5 33 f9 be 9f f7 7c 3f fd 90 7b 3f 07 1b 9b 3e
       -0.48672405 0.9881534 0.9826811 0.30294058
0003c0 0d 9e 4d 3f 59 50 c5 3f 78 0f 13 bf 5a 6a f7 3b
       0.8031929 1.5415145 -0.5744548 0.00755052
0003d0 8a 14 ae bd 93 e7 72 3f 4a cf b4 3f 3f 86 78 bf
       -0.08500011 0.94884604 1.412576 -0.97079843
0003e0 9b 44 cb bf f5 c5 27 3f d7 6a e3 3e 4a fc 8e be
       -1.5880312 0.65536433 0.4441745 -0.27926856
0003f0 dc 25 a0 be 9c e0 75 3f 61 e5 92 bf ff 16 a3 3f
       -0.31278884 0.9604585 -1.1476251 1.2741393

lstm.weight_hh_l1 f4 [32, 8]
000000 cc 03 c7 3d 4c 42 12 3e 30 61 e7 3c f1 e7 8c be
       0.09717521 0.14283103 0.028244585 -0.27520707
000010 75 7b a1 be 56 08 46 3e ee 2a 7d 3e 10 9f 10 3e
       -0.31539503 0.19339117 0.24723408 0.14123178
000020 d2 e4 eb bd cd 8a 16 be df 07 9a 3e ee 3f e3 bd
       -0.115182534 -0.14701386 0.3008413 -0.11096178
000030 24 7c c5 3d e5 57 8c 3e fe a9 47 3e 96 89 32 3e
       0.096428186 0.27410808 0.1949844 0.17435297
000040 e7 cb b3 3e 50 29 67 3d d6 93 24 3e 79 30 96 be
       0.35116503 0.056435883 0.1607202 -0.29333857
000050 74 86 36 be 30 18 34 bd be 66 73 3e be b8 8c be
       -0.17824727 -0.04396838 0.23769662 -0.27484697
000060 c6 74 81 be fa f0 3f 3e 33 33 80 3e b6 f2 6e be
       -0.25284404 0.18744269 0.25039062 -0.23334774
000070 18 45 66 3d 40 8e 00 3d 00 df a3 be d3 58 1b be
       0.056218237 0.03138566 -0.32006073 -0.15170603
000080 ae ec a0 be de ce 23 3e 93 ad 92 be b2 f8 53 3e
       -0.31430572 0.15996882 -0.28648052 0.20700338
000090 36 fb 83 be e6 bf 4d be 69 20 b1 be ff 2f 15 be
       -0.25777596 -0.20092735 -0.3459504 -0.1456909
0000a0 40 0a e8 bc c0 c7 f6 bc bb 44 83 3e 1c 92 04 be
       -0.0283252 -0.030124545 0.25638375 -0.12946361
0000b0 63 4c 93 be 77 0f 59 be 60 ae 6d 3c 98 d6 02 bd
       -0.28769216 -0.21197306 0.014506906 -0.031942934
0000c0 80 9e 81 3c 58 bb e7 bd a8 1d 6d 3d 24 9d d8 3d
       0.015822649 -0.1131503 0.05788961 0.10576847
0000d0 4e 72 37 3e 12 fd 20 3e c5 3a b4 3e 40 b7 8d 3b
       0.17914698 0.15721539 0.35201088 0.0043248236
0000e0 af 8f 98 be d5 b3 9c 3e 00 9d ce 3a df df 5c be
       -0.29797122 0.3060595 0.0015763342 -0.21569775
0000f0 6b be 10 be 9c 8e b3 bd 36 ba 7f be 13 ad 80 3e
       -0.14135139 -0.08767435 -0.24973378 0.25132045
000100 70 05 a6 bc 4e ed 31 3e 86 6b 5d 3e bd 59 ac 3e
       -0.020266265 0.17375681 0.21623048 0.33662215
000110 2a 5e 23 3e 6a 0a 09 3e 51 dd 17 be a8 a3 6f bd
       0.1595389 0.13382879 -0.1483052 -0.058505684
000120 60 b2 b7 bc 14 91 a3 bd 40 31 8c be 28 a9 70 3d
       -0.022423923 -0.07986656 -0.27381325 0.05875507
000130 13 09 81 be e2 13 a1 be 54 cc 01 be 94 17 ce bd
       -0.25202236 -0.31460482 -0.12675601 -0.10063091
000140 c0 e8 7d 3d fa 99 52 3e d8 fe 7a 3d 76 4c 46 3e
       0.061989546 0.2056655 0.061278194 0.19365105
000150 9c 04 6f be 1e 9d 4c 3e f7 ef 84 be c8 0b b7 bd
       -0.23341602 0.1998181 -0.2596433 -0.08937794
000160 d9 37 18 be 31 42 97 3e a8 47 36 bd 14 c2 9e be
       -0.14865054 0.29542688 -0.04450193 -0.31007445
000170 f8 2f ad bd ac 61 f4 3d a8 28 4c bd 10 23 ec bc
       -0.08456415 0.11932692 -0.04984346 -0.028825313
000180 d3 16 92 3e e3 13 4c be 38 de a1 3d 80 16 4b 3d
       0.28533038 -0.19929461 0.07903713 0.049582005
000190 39 19 aa 3e 20 66 6b 3c 60 99 71 3c f2 11 25 3e
       0.33222368 0.01436761 0.01474604 0.16120127
0001a0 40 14 bb 3b de 0a 90 be d3 6a 95 be a0 21 25 3c
       0.005709201 -0.2813329 -0.29183063 0.010078818
0001b0 42 4c 6b 3e 3d 08 4d be 88 0f 2f bd c0 76 4f 3d
       0.22978309 -0.20022674 -0.04273942 0.05065036
0001c0 c6 dc 43 be 1c 94 bb bd 54 f0 cb bd 53 12 97 3e
       -0.19127187 -0.09159109 -0.09957948 0.29506168
0001d0 52 b2 14 be 82 58 35 3e 24 3e a2 bd 6f 48 81 3e
       -0.14521149 0.17709544 -0.07922009 0.25250575
0001e0 00 47 f1 bc b2 88 42 3e ae de 7f be 40 de e0 3d
       -0.0294528 0.18997458 -0.2498729 0.10979891
0001f0 4d a3 a3 3e 3b 9f 59 be dd 30 8a 3e 04 9c 8b be
       0.31960526 -0.21252148 0.26990405 -0.27267468
000200 14 19 e5 3d dd 08 9e 3e 90 5b 4a 3d 38 1c b5 bd
       0.11186424 0.30866137 0.049403727 -0.08843273
000210 c8 01 34 3d 86 01 05 3e 9e 3a a0 be be d9 97 be
       0.04394701 0.12988862 -0.3129472 -0.29658312
000220 b9 2a af be 44 ff 00 3e 80 1e 6c 3d 75 bd b1 be
       -0.34212282 0.12597376 0.057646275 -0.34714857
000230 4a ab 77 be 9a cc 49 be 94 0c 77 be 26 ec 9e be
       -0.24186435 -0.19706956 -0.24125892 -0.31039542
000240 0f 3d 9a 3e 54 25 b1 bd 4e cf ff bd d6 b0 84 be
       0.3012471 -0.08649698 -0.12490712 -0.25916165
000250 90 fe 8d bd d2 d7 03 3e 1e ce 63 3e 8e 6d 7a 3e
       -0.069333196 0.12875298 0.22246596 0.24455854
000260 2b f7 9c 3e 0e 54 1f 3e 70 02 a7 bd 60 71 80 bc
       0.30657324 0.15559408 -0.08154762 -0.015679061
000270 be bb 63 3e fb 8b 81 3e 16 bf 67 be 59 d2 ab 3e
       0.22239587 0.2530211 -0.22631487 0.3355892
000280 92 24 06 3e e6 e3 4d 3e 82 5b 22 3e 00 6e cb 3b
       0.13099888 0.20106468 0.1585522 0.0062081814
000290 b4 3b bd 3d 17 6c a5 3e 28 b7 9d bd 21 ae 89 3e
       0.09239903 0.32309029 -0.0770095 0.26890662
0002a0 28 f3 09 be 40 2e 9d bc 2a 14 76 be 41 f9 95 3e
       -0.13471663 -0.019187093 -0.2403113 0.29291728
0002b0 cf e3 8d be 8f 2d 90 be 57 24 97 be dc 57 ce bd
       -0.27712867 -0.28159758 -0.29519913 -0.100753516
0002c0 2f 05 ac 3e 20 70 5a bd 7e 9d 7e 3e bf 66 a5 3e
       0.33597705 -0.053329587 0.24864766 0.32304952
0002d0 92 68 2b be 11 10 99 be 8d 38 30 be 5c 81 c4 3d
       -0.16739109 -0.2989507 -0.17209072 0.09594986
0002e0 3c 59 d5 3d 02 75 74 3e d5 fa 2f be 90 67 4b 3d
       0.10417411 0.2387276 -0.17185529 0.04965931
0002f0 ff 5f a0 be 88 13 35 bd 70 00 a9 3d 3f 63 ad 3e
       -0.3132324 -0.04420808 0.082520366 0.3386478
000300 00 c4 28 bb f6 a5 67 3e 79 28 02 be 7c 67 85 bd
       -0.002575159 0.22621903 -0.12710752 -0.06513879
000310 ec 56 10 3e 8d c0 81 be 98 76 48 3d 40 1a 9e 3c
       0.14095658 -0.25342217 0.048941225 0.019299626
000320 66 7d 8b be e0 82 66 3c 4f a3 0f be 12 4d 44 3e
       -0.2724411 0.014069289 -0.14027141 0.19170025
000330 6f 7f a8 3e a1 bd 8e 3e 50 49 fd 3d b0 86 8c be
       0.32909724 0.2787905 0.12367499 -0.27446508
000340 69 ec 83 3e 7c 67 af bd 9f ae 31 be 24 29 ba 3d
       0.25766304 -0.0856466 -0.17351769 0.09089878
000350 40 c7 83 be db 44 81 3e 5e bd 7c 3e 74 7f e1 3d
       -0.25737953 0.25247845 0.24681613 0.11010638
000360 e0 6f 75 3c 95 5f a9 3e d1 8b ae be e2 a9 95 be
       0.014980286 0.33080736 -0.34091046 -0.29231173
000370 79 5b 7e be b4 7f 83 be 96 28 6e 3e a0 c2 27 3d
       -0.24839582 -0.25683367 0.2325767 0.040957093
000380 3e 56 78 3e 80 d0 2f 3d 24 a0 da 3d 10 b0 60 be
       0.24251649 0.04292345 0.10675076 -0.21942163
000390 e8 88 73 be 1b a1 a3 be e2 f6 45 3e 40 4d ac 3c
       -0.23782694 -0.3195885 0.1933246 0.02103293
0003a0 90 b4 60 be 06 c2 4e 3e f2 f4 28 3e f6 fb 1b 3e
       -0.21943879 0.20191202 0.16499689 0.15232834
0003b0 ec 92 ae be 44 8a 8a be 1a 71 40 be 70 9e 93 be
       -0.34096467 -0.27058613 -0.18793145 -0.28831816
0003c0 8f f3 0a be 54 b9 f9 3d 26 76 fe bd 50 bd bb bd
       -0.13569473 0.12193552 -0.12424879 -0.09166968
0003d0 52 0c e5 bd 8a 77 33 3e 49 0f a4 3e a4 0c 09 3e
       -0.111839905 0.1752607 0.32042912 0.13383728
0003e0 cc a9 78 be 50 c6 a8 be 28 a1 a9 3d b3 09 2f be
       -0.24283522 -0.329638 0.08282691 -0.17093544
0003f0 9b 2a 3f be 20 94 a5 bc f0 4a 96 3d 7a 12 5c be
       -0.18668596 -0.020212233 0.07338512 -0.21491423

lstm.bias_ih_l1 f4 [32]
000000 e6 ca 05 bf 7f 41 06 3f 71 49 66 bf 3a d3 e0 be
       -0.52262723 0.5244369 -0.8995581 -0.43911153
000010 4d ae bf be 5f 5f 0a 40 5e 67 bb 3f 54 9c e3 3e
       -0.37437668 2.162071 1.464092 0.44455206
000020 d8 af 7b bd 20 55 46 3d f2 49 6e 3e 08 59 73 bd
       -0.061446995 0.048421025 0.23270395 -0.05941108
000030 b8 0f 8d bd 98 fa 63 3d af ac 95 3e c8 16 72 bd
       -0.06887764 0.055658907 0.2923331 -0.059103757
000040 58 bd b9 3d bb eb 69 3d e0 52 6e bd f5 62 3e be
       0.090693176 0.057109576 -0.058184505 -0.18592437
000050 94 37 75 3e 93 8c 7a 3e a9 65 8b be f3 da 0c be
       0.23946983 0.24467687 -0.27225998 -0.13755397
000060 f1 93 7c be 8c 0c 36 3f dd fe 27 bf b2 03 ae be
       -0.2466581 0.71112895 -0.65623266 -0.33987194
000070 d2 fe 97 be b1 fd 0e 40 aa ee a5 3f d7 1e 0e 3f
       -0.296866 2.234234 1.296346 0.5551581

lstm.bias_hh_l1 f4 [32]
000000 23 a4 d3 be ec 90 45 3f 96 7e 45 bf 2d 71 2c bf
       -0.41336164 0.7717426 -0.7714628 -0.6736019
000010 ba 95 b1 bd bf 6a 26 40 53 9d d5 3f 1d dd 1a 3f
       -0.08671136 2.6002653 1.6688637 0.6049364
000020 db 9c a3 3e 80 09 15 bd 00 d6 bf ba bd bd 97 be
       0.3195561 -0.036386013 -0.001463592 -0.29636946
000030 04 35 9a be a8 4c 44 bd 8f df 85 be 5a b3 08 3e
       -0.30118573 -0.047924668 -0.26147124 0.13349667
000040 13 bd 07 bd 4e 3f 49 3e eb c3 22 bd a2 d6 7d bd
       -0.0331393 0.19653055 -0.039737623 -0.061972268
000050 40 94 46 be c3 ad 0e bc 87 13 e2 3c 64 5a 71 3d
       -0.1939249 -0.00870842 0.027597202 0.058924094
000060 31 2e 43 bc cd 31 67 3f 7c 89 0a bf a5 ca 62 be
       -0.011912868 0.90310365 -0.54116035 -0.22147615
000070 e8 0e fd 3d 20 91 20 40 ab 2f e4 3f 80 80 fa 3e
       0.12356359 2.5088577 1.7827047 0.48926163

lstm.weight_ih_l2 f4 [32, 8]
000000 41 b0 c4 3f 06 34 1d 40 b0 62 1e 3e ce 7b ac bf
       1.5366288 2.4563003 0.15467334 -1.3475282
000010 fc bb 81 bf d4 b9 b9 3d 6b c7 63 3e 17 10 15 bf
       -1.0135493 0.09068647 0.2224404 -0.58227676
000020 07 ec c0 3f 95 37 90 3f 29 56 ed be cd 73 68 bf
       1.507203 1.1266962 -0.46354797 -0.908017
000030 27 f8 d4 bf 90 63 22 3f 1d 8c a9 bd 75 1e 31 bf
       -1.663823 0.6343317 -0.082786776 -0.691871
000040 a6 a2 bc 3e e0 29 81 bf 79 b5 f6 bd b1 8a b2 bd
       0.3684284 -1.0090904 -0.12046332 -0.087178595
000050 c9 ee f2 3c be 72 7f 3f 82 36 12 be 78 5d 87 be
       0.029654877 0.9978446 -0.14278606 -0.26438498
000060 4e 1e 14 40 a0 f7 2f 40 a5 2f 60 bf 9f 33 b4 bf
       2.3143497 2.7494888 -0.875727 -1.4078254
000070 2d aa ce bf 34 53 00 3f 3a 46 bc 3d cd fa a0 bf
       -1.6145684 0.5012696 0.09193082 -1.2576538
000080 c0 48 3d 3e ca 76 50 be 93 73 b9 3e 33 33 7d be
       0.18484783 -0.20357814 0.3622099 -0.24726562
000090 55 49 13 3d c1 a1 82 3f d4 98 0c bf 27 c3 1b bf
       0.035958607 1.0205613 -0.549207 -0.60844654
0000a0 8c 25 7c be b7 d6 a9 3e 48 81 45 bd 6c 99 0f be
       -0.24623698 0.33171627 -0.048218995 -0.1402337
0000b0 3c 1d eb 3e e5 f9 d6 3f 56 21 8b bf 42 e3 1e bf
       0.45920742 1.6795012 -1.0869548 -0.6206552
0000c0 a1 db 04 3f 94 f8 67 be 23 4b 3f bf ab 2e 24 bf
       0.5189763 -0.22653419 -0.74724025 -0.6413371
0000d0 6b 74 2f bf 00 b3 c6 bf df 0e 94 3f f1 fe 96 bc
       -0.68537015 -1.5523376 1.1567038 -0.018432112
0000e0 1e a7 07 3e 8a 75 31 3f fd d3 93 3e 67 90 11 be
       0.13247344 0.69319975 0.28872672 -0.14215241
0000f0 7c fa 6d be 42 1d 03 40 e0 41 b4 bf d5 e8 c2 be
       -0.23240083 2.0486608 -1.4082603 -0.38068262
000100 e1 80 a7 3e 21 c8 a5 be a0 68 1c 3d ea d3 2b 3e
       0.32715514 -0.3237925 0.038185716 0.16780058
000110 3a fc 34 3e 40 2e e2 3d ca c8 59 3e 35 b9 89 3e
       0.17674342 0.11043978 0.21268001 0.26899114
000120 9c 81 b4 3d fb 08 89 3e 58 11 f8 3d 09 95 82 be
       0.088137835 0.26764664 0.12112683 -0.2550433
000130 f0 82 51 bd 4e 17 9a be 85 86 8b 3e 6a f1 3f 3e
       -0.051150262 -0.30095905 0.27251068 0.18744436
000140 82 b1 67 be b2 59 2c 3e 88 51 ad be a8 af e5 3d
       -0.22626308 0.16831091 -0.33851266 0.112151444
000150 00 8a 0c 3e 1a b4 af be c5 fd 27 be f8 5f a8 3d
       0.13724518 -0.34317094 -0.16405399 0.082214296
000160 10 3f 9d 3c 80 2d 64 bc d0 9d 83 bc e3 54 96 be
       0.01919511 -0.013926864 -0.016066462 -0.29361638
000170 bd a2 83 3e 4b b5 5d be 73 eb 8f 3e 0a 80 b0 be
       0.25710097 -0.21651189 0.2810932 -0.34472686
000180 96 e5 45 3e 52 0a 08 3e be 78 47 3e 58 f5 11 3d
       0.19325861 0.13285187 0.19479653 0.03563437
000190 3e 24 2b 3e 16 14 5b be c0 cd 02 bc 8f 13 3d be
       0.16713044 -0.21394381 -0.007983625 -0.18464492
0001a0 00 31 26 bc a8 91 ab be 70 37 93 3c eb 85 83 3e
       -0.010143518 -0.33509564 0.01797077 0.2568811
0001b0 43 59 52 be 8e c3 20 3e 60 72 44 bd b4 8b ef 3d
       -0.20541863 0.15699598 -0.04796064 0.11696568
0001c0 cd ca 90 3e fd d1 a5 be e9 4d 16 be 40 ab 16 bd
       0.28279725 -0.3238677 -0.14678158 -0.03678441
0001d0 6e bb a7 be 97 f1 90 3e 7a 24 5c 3e 3c 6b f6 3d
       -0.32760185 0.28309318 0.2149829 0.12032172
0001e0 cc 63 91 bd e1 95 9b 3e 52 34 9e be 96 a1 1e 3e
       -0.07099113 0.30387786 -0.30899292 0.15491328
0001f0 bc 13 cd 3d 7b 9e a6 3e 90 ce f2 bc 57 4b 9e 3e
       0.1001353 0.32542786 -0.029639512 0.30916855
000200 3e 70 9f bd 48 c4 52 3f 1f ca 63 3e 42 d5 89 3e
       -0.077850804 0.8233075 0.22245072 0.26920515
000210 82 c8 09 be 02 8e 1b 40 8f 0e e2 bf 16 9f 35 bf
       -0.13455394 2.4305425 -1.7660693 -0.7094587
000220 16 07 16 3b 50 d0 47 bf 43 7f 19 3e 1a 98 82 be
       0.0022892407 -0.78052235 0.14989953 -0.2550667
000230 6a 5e ac be 2e de 30 c0 11 91 d9 3f 63 05 8d 3f
       -0.33665782 -2.7635608 1.6997396 1.1017269
000240 ed b7 cb be b7 33 0e 3f a0 97 c7 bd db 8f 0e 3f
       -0.39788762 0.5554766 -0.09745717 0.55688256
000250 1d b7 38 be d6 8f 4e bf df 89 c4 3b dc 04 18 3e
       -0.18038602 -0.80688226 0.005997881 0.14845604
000260 5c 7d 8e 3c 42 8f 86 bf 8b a6 76 3c 34 ed df 3d
       0.01739376 -1.0512469 0.015054355 0.10933915
000270 88 9e 61 be 9b c4 3f c0 39 88 e9 3f 4a f6 62 3f
       -0.22033131 -2.9963748 1.8244697 0.8865706
000280 3d 36 f0 be f7 30 a2 3e d1 8e 1b bc e0 9d ca be
       -0.4691638 0.31677982 -0.009494499 -0.39573574
000290 c7 2e 3e 3e 2a d0 15 40 39 88 93 bf 87 fa 0a bf
       0.18572532 2.3408303 -1.1525947 -0.54288524
0002a0 6d 5b 8f be 86 5f d1 3e 26 9c 8f bd 6f 9e 8f 3e
       -0.2799944 0.4089319 -0.07012205 0.28050563
0002b0 4d 1f d7 bd a6 75 13 40 07 c3 b7 bf cf 19 60 bf
       -0.10504017 2.3040557 -1.4356393 -0.8753938
0002c0 ec 36 93 be b3 b8 5e 3f 7f 7c 94 bd f5 68 35 3e
       -0.2875284 0.8700058 -0.07250308 0.17715819
0002d0 9b 37 a9 3e 1c a7 3c 40 6d 21 cc bf 39 28 2b bf
       0.33050236 2.9476995 -1.5947701 -0.6685825
0002e0 72 f8 09 3f 09 60 f5 be 69 be b9 3e e2 44 c3 3b
       0.5389472 -0.47924832 0.36278084 0.005959139
0002f0 c6 92 b2 be c4 0f 16 c0 a8 21 df 3f 78 8e 7c 3f
       -0.34877604 -2.3447123 1.7432146 0.9865489
000300 df 32 d3 3f 11 86 20 40 44 36 6f be a2 8e 8e bf
       1.64999 2.5081828 -0.23360544 -1.1137278
000310 6e a2 24 bf 99 a6 9f bd 1c 9f e2 3e 74 84 d9 be
       -0.6431035 -0.07795448 0.44262016 -0.42483866
000320 7c 70 f5 3f 52 7b 95 3f be 7e e3 be 7d 66 9d bf
       1.9174953 1.1678259 -0.44432634 -1.2296902
000330 30 3f cf bf b6 b9 d7 3e 68 c1 a0 be da ea 01 bf
       -1.6191158 0.42133874 -0.31397557 -0.5074898
000340 78 61 27 be b6 92 11 bf 86 76 af be 9c 95 5f be
       -0.16345775 -0.5686449 -0.34270114 -0.21834415
000350 ed 4e a9 3e 95 36 83 3f 6b 40 8b be 2f ec d2 be
       0.33068028 1.0251032 -0.27197585 -0.4119582
000360 e5 72 0f 40 af 6d 32 40 cf d4 67 bf 7c 92 c8 bf
       2.2413876 2.7879446 -0.90559095 -1.5669703
000370 41 05 c5 bf fc 63 79 3e 1d 89 06 bd cc aa a1 bf
       -1.5392228 0.24354547 -0.032845605 -1.2630248
000380 7e bf ac 3e c5 23 fb be cb 26 66 3e 6e c5 c0 bc
       0.33739847 -0.49050727 0.22475736 -0.023531642
000390 7f a1 8b bc 95 3b d4 3f 08 66 09 bf 77 c3 8a be
       -0.01704478 1.6580683 -0.5367131 -0.27102253
0003a0 3a 73 22 3e 18 77 20 3e 2b 4f f0 3d be f8 25 bf
       0.15864268 0.1567043 0.1173385 -0.64832675
0003b0 5a c1 22 3e b4 92 d6 3f 3f 5d 9f bf 4c c0 3c bf
       0.1589407 1.676352 -1.2450331 -0.7373092
0003c0 83 4f 45 3f d7 60 ad 3e c4 b3 18 bf b7 3a ce be
       0.7707445 0.33862945 -0.596493 -0.4027917
0003d0 2c 1b 41 bf b9 72 cc bf a8 93 35 3f f9 63 bd 3e
       -0.75432086 -1.597251 0.7092843 0.36990336
0003e0 83 a9 43 3d 3b ee 2a 3f 9a d3 cd bd 78 16 36 bf
       0.04776908 0.6676976 -0.100501254 -0.71128035
0003f0 18 f8 af 3d b4 cd 15 40 c7 fd b1 bf d8 d6 4a bf
       0.08592242 2.3406801 -1.3905572 -0.79234076

lstm.weight_hh_l2 f4 [32, 8]
000000 a8 21 34 3d a3 d4 8a 3e 0e a3 7b 3e 38 1e 86 be
       0.04397741 0.27115354 0.24573919 -0.2619493
000010 7d f7 a6 3e 66 b3 65 3e b2 53 7f 3e 45 ef 65 be
       0.32610694 0.22431716 0.24934271 -0.22454555
000020 7e 1e 01 be fd 7d 96 3e 51 b9 8e 3e e0 08 2c 3d
       -0.12609288 0.29392996 0.2787576 0.04200065
000030 af 7a 85 3e 99 81 82 3e 14 95 94 bd ba c4 50 3e
       0.26070163 0.254895 -0.07254997 0.20387545
000040 bc 77 28 be 27 23 81 be a6 5e 49 be 68 c0 da bd
       -0.16451925 -0.25222132 -0.19665012 -0.1068123
000050 78 09 07 3d 68 b3 40 bd 40 82 f5 3d 26 6b 76 3e
       0.032968014 -0.047046095 0.11987734 0.24064311
000060 40 2c 68 3c 80 be dc 3c fc 0f c0 bd c5 f3 ac 3e
       0.014170706 0.026946306 -0.09378049 0.3377973
000070 00 38 29 3a f0 b9 c3 3c c1 8a 94 be 00 ed 3a bd
       0.0006455183 0.023892373 -0.2901211 -0.045636177
000080 90 93 0d bd d8 46 57 bd 9f 7d 05 be 92 b3 38 3e
       -0.034564555 -0.052557796 -0.13036202 0.1803725
000090 34 27 96 be c7 7b b3 3e bc 4a 8e be 5a ef 3f 3e
       -0.29326785 0.35055372 -0.27791393 0.18743649
0000a0 0d 4d 95 3e 7e b6 2f 3e f2 29 4d be b8 ed 2b 3d
       0.29160348 0.17159459 -0.20035532 0.041974753
0000b0 93 e4 9d 3e a0 32 33 bd 83 bc 87 3e df 12 22 be
       0.3083845 -0.04374945 0.2651101 -0.15827511
0000c0 20 ad b6 3c 26 52 9b be a6 71 b3 be b6 5e 06 3e
       0.02229935 -0.30336112 -0.35047644 0.13122067
0000d0 76 36 4f 3e 44 8c 14 3e 69 d4 8a 3e 7a 65 3b 3e
       0.20235619 0.14506632 0.2711518 0.18300429
0000e0 87 9d 59 be be f1 30 3e 48 45 56 bd 72 55 97 be
       -0.21251498 0.17279717 -0.052312165 -0.29557377
0000f0 a8 2a a7 3d 6a 7c 41 3e d5 0a 99 be d1 39 8c 3e
       0.08162433 0.18895116 -0.29891077 0.2738786
000100 46 c2 2e 3e 00 22 b5 3d 28 87 cf bd 71 29 8d be
       0.17066297 0.088443756 -0.10133201 -0.2757068
000110 86 ce 28 3e 95 0e 46 be ae 1c 5d 3e 8b 70 a9 3e
       0.16485032 -0.193415 0.21592972 0.33093676
000120 ec 8c bd bd 3b 79 a3 be 42 53 3c be e0 44 04 bc
       -0.09255394 -0.3192843 -0.18391135 -0.008073062
000130 93 60 22 be 21 9f 9a be c8 54 21 3d 22 ae 46 3e
       -0.15857153 -0.3019953 0.039387494 0.19402364
000140 00 d4 ac bc 3a 04 02 3e 62 6e 9a be c3 4c 9e 3e
       -0.021097183 0.12696925 -0.3016234 0.3091794
000150 55 8f 8e be ec 5a cc bd d3 0a 8e 3e d4 0b 9f be
       -0.2784373 -0.099782795 0.27742633 -0.31063712
000160 8b bf 82 3e f4 44 15 3e aa 03 9b be 0d 85 34 be
       0.2553676 0.14577085 -0.30276233 -0.1762888
000170 5a f5 51 be 8e ef 6c be 5c 64 fc 3d e0 12 98 bd
       -0.2050375 -0.23138258 0.123238295 -0.07425475
000180 fd 53 aa 3e ff 92 0e be 82 fe 48 3e 78 5a c1 3d
       0.33267203 -0.13923262 0.19628337 0.09441084
000190 ac a8 e6 bd ec dd a1 bd 3e df 32 3e 5a 38 55 3e
       -0.1126264 -0.07903656 0.17467973 0.20822278
0001a0 5e 58 89 be 1f 84 8d 3e e5 68 87 3e eb 9b af 3e
       -0.2682523 0.27639863 0.26447216 0.34298643
0001b0 b3 be b0 3e 04 2f 34 be 7f 11 b0 3e 58 54 b4 bd
       0.34520492 -0.1759606 0.34388348 -0.0880515
0001c0 bc 9a a6 3d 8b 86 84 3e 20 82 c8 bc c0 d1 b7 bd
       0.08134982 0.25883898 -0.024476111 -0.089755535
0001d0 2a 3c 34 3e b1 f8 a8 3e 9a 19 06 3e 80 0b 3d 3c
       0.17601076 0.33002236 0.13095704 0.011538386
0001e0 b5 c2 8a 3e 2a 66 52 3e 6d d6 7b be 96 cc 3a 3e
       0.27101675 0.20546785 -0.24593516 0.18242106
0001f0 9e bc 5f 3e 68 50 36 3d db 3a a6 3e d1 19 12 be
       0.21849295 0.044510275 0.32466778 -0.1426766
000200 74 a7 76 be 68 3f 8e bd 0a f6 45 3e 05 21 a5 be
       -0.24087316 -0.069456875 0.19332138 -0.32251754
000210 60 0c 3b bc cf df a2 be 86 f5 6c 3e b8 bd 8b bd
       -0.011416525 -0.31811377 0.23140535 -0.06823295
000220 08 a5 0d 3e 3b 9f b4 be 55 ad 97 be 2d f4 ab be
       0.13832486 -0.35277733 -0.2962443 -0.3358473
000230 2d ff 92 3e 50 36 a9 bd 22 bd 99 be 80 bf 1d 3b
       0.2871031 -0.082623124 -0.3002711 0.0024070442
000240 b3 1b b2 be 58 e9 a0 bd 34 cb cb 3d 00 30 70 bc
       -0.34786758 -0.07857007 0.09950867 -0.014659882
000250 8c be b1 3d 40 60 00 bd 71 d1 ab 3e a0 ab c3 3c
       0.08678922 -0.03134179 0.3355823 0.023885548
000260 1a c0 4e be 00 9b 04 bc e0 b5 43 3d 38 ae e2 3d
       -0.20190468 -0.0080935955 0.04778087 0.11068386
000270 ae ea 56 3e 90 9b 69 bd ac 1c a1 be 56 5e eb bd
       0.2098796 -0.05703312 -0.31467187 -0.114926025
000280 ef ea 7d be 80 01 94 3c d5 9a 8c 3e 3c 48 a2 be
       -0.24796651 0.018067122 0.27461877 -0.31695735
000290 70 70 6f bd c8 6d da bd be 5e 39 3e 40 d4 96 3c
       -0.058456838 -0.1066547 0.18102548 0.018411756
0002a0 aa b5 68 3e 70 71 b1 bd 56 9f 3a 3e 58 fe aa 3d
       0.2272555 -0.086642146 0.18224844 0.083492935
0002b0 16 69 4b 3e be 6e 70 3e 20 2d 00 be ea 3c 15 3e
       0.19864306 0.23479745 -0.12517214 0.14574018
0002c0 12 4d 2e 3e a0 b5 7e 3d df 43 a2 3e d4 0e c1 3d
       0.17021587 0.06218493 0.31692407 0.09426656
0002d0 cd 0a a9 be e2 12 66 3e 1c e8 ac 3d 22 c3 63 3e
       -0.33016053 0.2246814 0.08442709 0.22242406
0002e0 46 b1 8d be 5a cc 12 3e f1 5a 02 be 32 d1 28 3e
       -0.2767431 0.14335766 -0.12730004 0.16486052
0002f0 58 a0 40 3d 67 22 ae be 82 6b 75 be 3a 4e 0c 3e
       0.047027916 -0.34010622 -0.23966792 0.13701716
000300 4a 9f 16 3e a6 b1 78 3e 2c 5b f9 bd 8d 89 8f 3e
       0.14709201 0.24286518 -0.12175593 0.2803463
000310 66 5b b3 be de 30 ae be 8c 5a 12 3e 1f 41 8e be
       -0.3503067 -0.34021658 0.14292353 -0.27784058
000320 78 e5 16 bd 68 d8 35 3d c2 16 76 be f4 74 95 3d
       -0.036839932 0.044395834 -0.24032119 0.07297698
000330 31 ac 8c be 7a fa f3 bd 35 cf 5a be 40 10 98 be
       -0.27475122 -0.11913009 -0.21368106 -0.29699898
000340 41 b5 86 3e 7b 30 70 be 87 ef 93 3e f8 f3 7d 3d
       0.2631016 -0.23455994 0.28893682 0.062000245
000350 3b 59 8d 3e 90 7b df 3c ee ce 61 be 5d f3 09 be
       0.2760714 0.027280599 -0.22051594 -0.13471742
000360 83 3d a4 3e 3e c8 95 be 1a 4b 2e be c0 b8 7d be
       0.3207818 -0.29254335 -0.17020836 -0.24777508
000370 18 0c 36 3d 28 8c f8 3d 70 c9 b5 bd b7 f9 51 be
       0.044445127 0.12136108 -0.08876312 -0.20505415
000380 49 60 ac be 25 13 a4 3e ef e9 b4 3e 7c 2a 93 be
       -0.3366721 0.32045856 0.35334727 -0.2874335
000390 16 98 73 be 0e c1 49 be 49 7d a4 3e d4 3a 95 bd
       -0.23788485 -0.19702551 0.32126835 -0.07286611
0003a0 9b 8d 9c 3e bc b4 da bd 65 a6 98 3e 10 1e 7c bd
       0.30576786 -0.106790036 0.2981445 -0.061552107
0003b0 8a 23 48 3e 4e 34 61 3e 20 93 39 bc 68 03 ac 3d
       0.19544807 0.21992609 -0.011326581 0.08399087
0003c0 2b 63 90 be 58 46 28 3d 00 1a e1 3d 2a 74 65 be
       -0.2820066 0.04108271 0.10991287 -0.22407594
0003d0 40 c9 a5 bc 9a 8c a0 be a4 e5 cc bd ee a7 60 3e
       -0.020237565 -0.3135727 -0.10004738 0.2193906
0003e0 78 b3 76 3d b0 20 21 bd 90 01 3c 3d c8 d0 42 bd
       0.06022975 -0.039337814 0.045899928 -0.04756239
0003f0 0d 49 9a be a1 2c b0 be 28 7c 06 bd 33 53 a6 3e
       -0.30133858 -0.3440905 -0.03283325 0.3248535

lstm.bias_ih_l2 f4 [32]
000000 db c9 35 3f 4b 4d 87 3f c2 16 3e 3f ed 87 f9 3f
       0.7101113 1.0570463 0.74253476 1.9494606
000010 0b f4 73 3e 31 f8 2e 3e c4 8a 86 3f 2d cc 6e 3e
       0.23823564 0.17086865 1.0511098 0.23320074
000020 ff ae b2 3e b0 22 93 be b8 d7 80 be d3 eb 9e 3e
       0.34899136 -0.28737402 -0.2516458 0.31039295
000030 41 18 b2 3e de b3 3e be 18 57 7c bd f8 8e c7 bd
       0.3478413 -0.18623301 -0.061606497 -0.09744066
000040 75 64 b1 be 64 6f b4 bd 17 11 4b bf c7 94 21 3e
       -0.34646955 -0.088103086 -0.7932295 0.1577941
000050 31 31 71 bb 0a cf ca 3d a9 87 d2 bd 81 d1 c5 bd
       -0.0036803002 0.09902771 -0.10279781 -0.096591
000060 92 66 4d 3f c8 3a a7 3f a4 06 ba 3e 19 93 17 40
       0.80234635 1.3064814 0.3633319 2.3683531
000070 f8 a6 bb 3e a6 f9 d4 3d 5c 60 0a 3f 9c ef 86 3d
       0.36650825 0.10399179 0.5405328 0.065886706

lstm.bias_hh_l2 f4 [32]
000000 84 1a 3c 3f 81 2d aa 3f 03 1a 55 3f ff 7b 20 40
       0.7347796 1.3295137 0.83242816 2.5075681
000010 dc 07 39 3f c8 3e 06 3f 56 cc 04 3f 1d 73 e8 3e
       0.7227762 0.52439547 0.5187429 0.45400324
000020 78 09 6a 3d 4b cd 37 be e1 04 ab 3e 0b 43 9c 3e
       0.057137936 -0.17949407 0.3340216 0.305199
000030 91 ec 82 3e 5c 94 b8 3d fc 2a a9 be 48 86 04 3d
       0.2557111 0.09012672 -0.33040607 0.032354623
000040 ef 57 8c 3e e0 0f 0d 3e 67 e8 87 bf a7 19 67 bd
       0.27410838 0.13775587 -1.0617799 -0.05642095
000050 ff 27 7b 3d 0c 47 67 3d f7 ca f7 bd a5 2c c2 bd
       0.06131744 0.05646424 -0.12099259 -0.094811715
000060 3c 30 16 3f 78 8b b9 3f 42 d6 e0 3e 6c 20 ee 3f
       0.5866735 1.4495687 0.43913466 1.8603644
000070 0f 1d 24 3e a1 75 49 3e 85 46 4a 3f 58 15 15 3f
       0.1602671 0.19673778 0.79013854 0.5823569
