ModelSave100.pt (torch_old, 30741 bytes, 45 tensors)

lstm.weight_ih_l0 f4 [32, 6]
0	0x3f0275fd	0.50961286
1	0x3e3f7b77	0.18699442
2	0xbe7bc2a8	-0.24585974
3	0x3e250475	0.16114981
4	0x3ff1a6e6	1.8879058
5	0xc00701ca	-2.1094842
6	0x3eb31964	0.3498031
7	0xbfb673eb	-1.4254125
8	0x3e77aa89	0.24186148
9	0x3fa278da	1.2693131
10	0xbf9e3daf	-1.2362574
11	0xbf2125f5	-0.6294854
12	0xbf5b2eec	-0.8561847
13	0xbe8ff77f	-0.28118512
14	0x3ec7b1da	0.39002877
15	0x3f1504b9	0.5821033
16	0xbfa14810	-1.2600117
17	0x3fe530fb	1.7905573
18	0x3e82ed43	0.2557164
19	0xbc70af08	-0.014690168
20	0x3f3d789c	0.7401216
21	0x3d016f87	0.0316005
22	0xbfd1fe24	-1.6405683
23	0x3fa4b59a	1.286792
24	0xbed7f064	-0.4217559
25	0xbe320701	-0.17385484
26	0xbf263bea	-0.6493517
27	0x3d56b847	0.052421834
28	0x3e9db4f8	0.3080213
29	0x3f00102a	0.50024664
30	0x3e0d12d3	0.13776712
31	0x3f13d75a	0.57750475
32	0xbf3acf72	-0.72972786
33	0xbed53f78	-0.41649985
34	0xbf1f9735	-0.623401
35	0xbea4b34b	-0.3216804
36	0xbe8be08c	-0.27319753
37	0x3e254b83	0.16142087
38	0x3facbd29	1.3495227
39	0xbdf22523	-0.118234895
40	0x3f26eb56	0.65202844
41	0x3ff02907	1.876252
42	0xbf2a0c16	-0.6642469
43	0xbe78fc5f	-0.24315022
44	0xbe13d762	-0.14437631
45	0xbed0b4e8	-0.4076302
46	0x3fed0b7d	1.8519131
47	0xc00baf8d	-2.1825898
48	0x3e4cef0a	0.20013061
49	0xbdb6fb80	-0.089346886
50	0xbeabda10	-0.33564806
51	0xbde8ffc0	-0.113769054
52	0xbd750250	-0.05981666
53	0x3dd59a38	0.104298055
54	0x3ca01b10	0.019544154
55	0x3ddbed2c	0.10738596
56	0x3eae0ca9	0.33994034
57	0x3e5d135e	0.21589419
58	0xbeb00f17	-0.34386513
59	0x3e04b972	0.12961367
60	0xbe8944c2	-0.2681027
61	0xbd8ff0ec	-0.07028374
62	0xbd768c88	-0.060192615
63	0xbe83fdd9	-0.25779608
64	0xbe3bc299	-0.18335952
65	0xbe481a57	-0.19541298
66	0x3e022176	0.12708077
67	0x3c7a1600	0.015264034
68	0xbdf029c4	-0.11726716
69	0x3c836140	0.016037583
70	0x3ea175d9	0.31535223
71	0xbe9b405c	-0.3032254
72	0x3eaed2f1	0.3414531
73	0x3e6ddd7a	0.23229018
74	0xbeacda3a	-0.33760244
75	0xbe6202d6	-0.22071394
76	0x3e5119e6	0.20420036
77	0x3e016f22	0.1264005
78	0x3c3af680	0.011411309
79	0xbc901a30	-0.017590612
80	0x3e1e60ae	0.15466568
81	0x3e125b2c	0.14292592
82	0x3e5c7bc2	0.21531585
83	0x3c306ba0	0.010767847
84	0x3e910d35	0.2833039
85	0xbe8fc769	-0.28081825
86	0x3e9582b9	0.29201296
87	0x3e8f8773	0.28033027
88	0x3cb3dd90	0.021956235
89	0xbeb32cb1	-0.34995034
90	0xbd6f1a58	-0.058374733
91	0x3e9baead	0.30406705
92	0xbdf4085a	-0.119156554
93	0xbe38302d	-0.17987128
94	0xbeacfec1	-0.33788112
95	0xbe643028	-0.22283995
96	0x3dfb5bd2	0.12273373
97	0xbe830f85	-0.25597778
98	0x3ed75c6c	0.420627
99	0x3d548b5b	0.051890712
100	0xbf9d17ec	-1.2272925
101	0x3f931316	1.14902
102	0xbe8f750f	-0.28018996
103	0xbf9110ca	-1.1333249
104	0x3f3ad18a	0.7297598
105	0x3d43943f	0.0477488
106	0x404375b3	3.0540588
107	0x3ebf14de	0.37320608
108	0xbe5e44f3	-0.2170599
109	0x3f08cc75	0.53436977
110	0xbfd55047	-1.6665124
111	0xbeef0e8e	-0.46690792
112	0x3e1823f2	0.14857462
113	0x3fec3e9a	1.8456604
114	0x3ed3956c	0.41324937
115	0xbeb17ff6	-0.3466794
116	0x3fe0b286	1.7554481
117	0x3f86e946	1.0539939
118	0x3fd1a0e6	1.6377227
119	0xbedba040	-0.428957
120	0xbe90ede1	-0.28306487
121	0xbf5f721c	-0.8728349
122	0x3ee98404	0.45608532
123	0x3e9b5d31	0.30344537
124	0xbeefef94	-0.4686247
125	0xbf151991	-0.58242136
126	0xbf308da2	-0.68966115
127	0xbf17dd90	-0.5932245
128	0xbecae92d	-0.39631024
129	0xbecf2bd5	-0.4046313
130	0xbdefa572	-0.11701478
131	0x3dc4444f	0.09583341
132	0x3e4fa3da	0.20277348
133	0xbed24ede	-0.41075796
134	0x3f966f06	1.1752632
135	0x3f34d5ab	0.7063853
136	0xbf838dc1	-1.0277635
137	0xbfed7b7b	-1.8553308
138	0x3cdf6a84	0.02727247
139	0x3f0893d2	0.53350556
140	0xbf9fb0cf	-1.2475833
141	0xbf119f72	-0.5688392
142	0x3f5fc305	0.8740695
143	0xbf9a4b12	-1.205416
144	0x3e19b845	0.150117
145	0x3eba12e2	0.3634253
146	0xbe298c26	-0.16557369
147	0xbdf8c843	-0.12147572
148	0x400ce141	2.2012484
149	0xc000452c	-2.004222
150	0xbeb7ac31	-0.3587356
151	0xbfb86bd3	-1.4407905
152	0x3f52ddbc	0.8236959
153	0x3f95c85d	1.1701771
154	0xbfc37e16	-1.5272853
155	0x3f3d227c	0.73880744
156	0xbeec6c08	-0.4617617
157	0xbe5cd180	-0.21564293
158	0x3ee2de7c	0.44310367
159	0x3be77097	0.0070629823
160	0x3fb69ae5	1.426602
161	0x3ff8ebd4	1.9446969
162	0x3e67c96d	0.22635432
163	0xbd611e45	-0.054960508
164	0x3f3ae053	0.7299854
165	0xbefd2b84	-0.49447262
166	0xbfcf8c30	-1.6214657
167	0x3f79ba29	0.9754968
168	0xbf11b899	-0.569223
169	0xbe07dd91	-0.13268115
170	0xbf8a5562	-1.0807307
171	0xbe05f835	-0.13082965
172	0x3f2243c9	0.6338468
173	0x3f5caaf2	0.8619834
174	0x3e5ac0f5	0.2136267
175	0x3ce20d6c	0.02759429
176	0xbf724d16	-0.94648874
177	0xbf064cd0	-0.52460957
178	0xbf143089	-0.5788656
179	0xbe64e5fc	-0.22353357
180	0x3e328e79	0.17437162
181	0x3e23727f	0.15961646
182	0x3f2ffac6	0.68742025
183	0xbe8d44d4	-0.27591574
184	0x3fe3919d	1.7778813
185	0x3fa53606	1.2907112
186	0xbe9ceccb	-0.3064941
187	0x3da3cee8	0.079984486
188	0xbf1d0d38	-0.61348295
189	0xbd0211d8	-0.0317553
190	0x40112cb6	2.268354
191	0xc008513f	-2.1299589

lstm.weight_hh_l0 f4 [32, 8]
0	0xbe9d53dd	-0.30728045
1	0x3e76a0ea	0.24084821
2	0x3e80dcd1	0.2516847
3	0x3ca7ba60	0.020474613
4	0xbe329a24	-0.17441612
5	0xbea30c5e	-0.31845373
6	0x3d0019a0	0.031274438
7	0x3e29d2b2	0.1658428
8	0xbe9ab1a4	-0.30213654
9	0xbd5c90c8	-0.05384901
10	0x3b39a280	0.0028325617
11	0xbd8af4ec	-0.067849964
12	0x3e47f716	0.1952785
13	0x3eb25f5b	0.34838375
14	0xbe46583e	-0.19369599
15	0xbd4a27e0	-0.049354434
16	0x3bbec840	0.0058222115
17	0xbe9bfe8c	-0.3046764
18	0xbcc4f620	-0.024043143
19	0xbe2424bd	-0.1602964
20	0x3e52d8ae	0.20590469
21	0x3dcf9a70	0.101368785
22	0xbeb1c021	-0.34716895
23	0xbe4705c8	-0.19435799
24	0x3cab60a0	0.020920098
25	0x3e6d98be	0.23202798
26	0x3eac8313	0.33693752
27	0x3be0d3c0	0.00686118
28	0x3e3f39b6	0.18674359
29	0xbe282369	-0.16419758
30	0xbd01eef8	-0.03172204
31	0xbe1ca5df	-0.1529765
32	0xbe1477a1	-0.1449876
33	0x3e89220f	0.26783797
34	0xbe2cd9f8	-0.16880023
35	0xbe602e2b	-0.21892612
36	0xbe4fe16e	-0.20300838
37	0xbdb2170c	-0.08695802
38	0xbe33d312	-0.17560986
39	0x3ea6a32f	0.32546374
40	0x3e986c2d	0.29770032
41	0xbe84c4de	-0.25931448
42	0xbe7323d9	-0.23744144
43	0xbd5450b0	-0.051834762
44	0xbe87bd42	-0.2651158
45	0xbe868cec	-0.2627939
46	0xbe96ee24	-0.29478562
47	0x3db79000	0.08963013
48	0x3eb13e2b	0.34617743
49	0x3e98fa51	0.29878476
50	0x3baafa80	0.00521785
51	0xbdb38d20	-0.08767152
52	0x3e391e26	0.18077907
53	0x3e7f3376	0.24921975
54	0x3eacb8b7	0.33734676
55	0x3e0b20fe	0.13586804
56	0xbd43d988	-0.047814876
57	0x3e875591	0.2643247
58	0x3db81520	0.08988404
59	0x3d209608	0.03920558
60	0xbe85b9f3	-0.2611843
61	0x3e9d355f	0.3070478
62	0xbddc835c	-0.10767242
63	0xbe088282	-0.13331035
64	0xbe8b8326	-0.27248496
65	0x3ea37a85	0.31929412
66	0xbe8e4bfe	-0.27792352
67	0x3cfc6480	0.03080964
68	0x3e86a329	0.26296356
69	0x3e657ca2	0.22410825
70	0xbd5a30a0	-0.05326903
71	0x3e479962	0.19492105
72	0x3eae099d	0.3399171
73	0xbe5ff144	-0.2186938
74	0xbeb21750	-0.3478341
75	0x3e2781be	0.16358086
76	0xbea680e9	-0.32520226
77	0xbd0b9970	-0.034081876
78	0x3e1adba6	0.15122852
79	0x3e5d82e2	0.21631959
80	0x3c718fa0	0.0147437155
81	0xbdc18d78	-0.09450811
82	0x3e6e7bf2	0.23289469
83	0xbe067913	-0.13132124
84	0x3e1f74e6	0.15571937
85	0xbe19e40e	-0.15028402
86	0xbdafbef4	-0.08581343
87	0x3ea5ab9f	0.323575
88	0xbc775060	-0.0150948465
89	0xbe91b4a9	-0.28458145
90	0xbe7e7811	-0.24850489
91	0x3eb2c80d	0.34918252
92	0x3dfde1d4	0.12396589
93	0xbea1dd20	-0.31614017
94	0x3e26ca56	0.16288123
95	0x3e3aecbe	0.18254372
96	0x3eb210b7	0.34778377
97	0xbe764f92	-0.24053791
98	0x3d4d2f58	0.05009398
99	0x3e81d023	0.25354108
100	0x3deaa6cc	0.11457595
101	0xbe9388a8	-0.28815198
102	0x3e5d58ba	0.21615878
103	0x3de75c70	0.11296928
104	0xbe54c6b0	-0.20778918
105	0x3e94c161	0.29053786
106	0xbe88f4d7	-0.26749298
107	0xbe8dc35f	-0.2768812
108	0x3caccaa0	0.021092713
109	0xbda6623c	-0.081242055
110	0xbe3cfeda	-0.18456593
111	0x3e365b02	0.17808154
112	0xbe35b63c	-0.17745298
113	0xbe0cdb02	-0.1375542
114	0xbcc32a20	-0.023823798
115	0x3deaee70	0.114712596
116	0xbe560e17	-0.20903812
117	0x3ea58a33	0.32332
118	0xbdb8c3ec	-0.09021744
119	0xbd093738	-0.033499926
120	0x3e0db504	0.13838583
121	0x3ea4e129	0.32203034
122	0x3e0400cc	0.12890929
123	0xbd5d23b8	-0.053989142
124	0x3dd74e44	0.10512975
125	0xbe80b529	-0.25138214
126	0x3e0d9294	0.13825446
127	0x3e1fdcb2	0.15611532
128	0xbddb7106	-0.10714917
129	0xbe816aae	-0.25276703
130	0x3e2bd8ba	0.16781893
131	0xbdbb5428	-0.09146911
132	0xbdadc8f4	-0.084855944
133	0x3d973244	0.07382634
134	0xbe838ca8	-0.2569325
135	0xbe57cba2	-0.21073774
136	0x3e554e4e	0.20830652
137	0x3e9a6475	0.30154768
138	0x3dcd4c94	0.10024372
139	0x3db370cc	0.08761749
140	0xbe9dd9ac	-0.30830133
141	0x3da8c07c	0.082398385
142	0x3e1af33a	0.15131846
143	0xbe0c7297	-0.13715588
144	0x3e96e809	0.29473904
145	0x3e8e5471	0.277988
146	0xbe6fd4fc	-0.23421091
147	0xbe4710e6	-0.1944004
148	0xbe84c930	-0.25934744
149	0x3e94e3f1	0.29080155
150	0x3dc384bc	0.095468014
151	0x3dc23a0c	0.09483728
152	0x3ea4e3ff	0.32205197
153	0xbe0402ad	-0.12891646
154	0xbd0833e8	-0.033252627
155	0xbd6e43e0	-0.0581702
156	0x3dc7b444	0.0975118
157	0xbe997809	-0.29974392
158	0xbea831a4	-0.32850373
159	0x3dc123e4	0.09430674
160	0x3e800de3	0.25010595
161	0x3e9647bd	0.29351607
162	0xbe919d60	-0.2844038
163	0xbdfd17e2	-0.12358071
164	0xbe9f72f4	-0.3114239
165	0x3d4a3500	0.04936695
166	0xbdca98f0	-0.09892452
167	0xbe80a2f1	-0.25124314
168	0x3e5d3766	0.21603164
169	0xbb08c880	-0.002087146
170	0xbd957234	-0.07297173
171	0xbd709218	-0.058733076
172	0xbe47d218	-0.19513738
173	0x3c2fa840	0.010721266
174	0xbc610200	-0.013733387
175	0x3eb3dc37	0.35128948
176	0x3dc9d8d4	0.0985581
177	0x3cc33420	0.023828566
178	0x3c916d10	0.0177522
179	0xbe9a45b4	-0.30131304
180	0x3e42f236	0.19037709
181	0x3d7d0488	0.0617719
182	0x3e8ccb47	0.27498838
183	0xbe1604c5	-0.14650257
184	0x3eb22f69	0.34801796
185	0xbcc31b00	-0.023816586
186	0x3e8d2e85	0.27574554
187	0xbe0af490	-0.13569856
188	0x3ad6da00	0.0016391873
189	0xbea22e7f	-0.316761
190	0x3e88438b	0.2661403
191	0xbe8207f6	-0.253967
192	0x3e6e7ed2	0.23290566
193	0x3e6ba2a6	0.23011264
194	0xbe8d0775	-0.27544752
195	0x3e61ecda	0.22063008
196	0xbea91c33	-0.33029327
197	0x3d6c49a0	0.0576874
198	0x3e2142e2	0.1574817
199	0x3e92c2d7	0.28664276
200	0x3e1619ae	0.14658234
201	0x3d9c30ec	0.076265186
202	0xbce4ef50	-0.027946144
203	0x3d76ff60	0.06030214
204	0x3e50a37a	0.20374861
205	0x3e814dc7	0.25254652
206	0xbe31503c	-0.17315763
207	0xbe0787af	-0.13235353
208	0xbdc92664	-0.098217756
209	0x3dfc2ae4	0.12312868
210	0xbddd5334	-0.10806885
211	0x3de703a4	0.11279991
212	0x3e8a90d5	0.27063623
213	0x3ea45c01	0.32101443
214	0xbcb11620	-0.021616995
215	0x3e8928cf	0.26788947
216	0xbe9cedb2	-0.30650097
217	0xbe8ad81d	-0.27118006
218	0xbc834120	-0.016022265
219	0xbe1d4449	-0.1535808
220	0x3e368ea6	0.17827854
221	0xbe9fecf6	-0.31235474
222	0x3a7c4e00	0.000962466
223	0x3e136dc4	0.14397341
224	0xbdeb44e6	-0.11487751
225	0x3e3054fe	0.17219922
226	0x3d832e38	0.064053
227	0xbd865ae8	-0.06560308
228	0x3e1d8ca6	0.15385684
229	0xbe11196c	-0.14169854
230	0xbe4a7665	-0.19771726
231	0x3da53174	0.08066073
232	0xbd83ac54	-0.06429353
233	0xbea081c6	-0.3134901
234	0x3e6a1326	0.22858867
235	0xbe931197	-0.28724357
236	0x3d2a27c8	0.041541845
237	0xbcfa9af0	-0.030591458
238	0x3e1fb516	0.15596423
239	0x3dcc4eb4	0.09975949
240	0x3d907d7c	0.07055184
241	0x3d37d938	0.04488489
242	0x3e1c77da	0.15280095
243	0xbdc81a2c	-0.09770617
244	0xbdf2a1c8	-0.118472636
245	0x3e05c57a	0.13063613
246	0xbe5e8806	-0.21731576
247	0xbe6f5ea0	-0.2337594
248	0x3e3773f6	0.1791533
249	0xbe9737f5	-0.2953488
250	0xbe688615	-0.22707398
251	0x3bc7a240	0.0060923398
252	0xbd2c16c0	-0.042013884
253	0xbd2d45f8	-0.042303056
254	0x3e64aec2	0.2233229
255	0xbe5593bd	-0.20857139

lstm.bias_ih_l0 f4 [32]
0	0x3e268ddb	0.16265051
1	0x3e9f04da	0.3105839
2	0x3f17d997	0.5931639
3	0x3fa09a54	1.2547097
4	0xbe9847d6	-0.29742306
5	0xbf157902	-0.5838777
6	0xbe4aa154	-0.19788104
7	0x3f0a78db	0.5409066
8	0x3ea65e6d	0.32493916
9	0x3e6471ae	0.2230899
10	0x3ea6729b	0.32509312
11	0x3e912785	0.28350464
12	0xbb725200	-0.0036975145
13	0xbe56a5cc	-0.20961684
14	0xbe056b9f	-0.13029335
15	0x3e0b8a08	0.13626873
16	0xbef61df9	-0.48069742
17	0x3d6ac034	0.057312205
18	0x3e973923	0.2953578
19	0xbc3d3f95	-0.011550804
20	0x3d02bec6	0.031920217
21	0xbe5b2efc	-0.21404642
22	0x3f0893c8	0.53350496
23	0x3e69555b	0.22786467
24	0xbec1b36b	-0.37832198
25	0xbe4930c7	-0.19647513
26	0x3f331f86	0.69969976
27	0x3f4303e7	0.7617783
28	0xbf1304e8	-0.5742936
29	0xbf36b257	-0.71365875
30	0x3e1c1ca0	0.15245295
31	0x3f0c4c6f	0.5480413

lstm.bias_hh_l0 f4 [32]
0	0x3d01bd8d	0.03167491
1	0x3e906a88	0.28206277
2	0x3e7159ec	0.23569459
3	0x3f936317	1.1514615
4	0xbf73fda9	-0.9530893
5	0xbf2295b2	-0.63509667
6	0xbd882a36	-0.06648676
7	0x3eaacf31	0.333612
8	0x3e100314	0.14063674
9	0x3c62ce20	0.013843089
10	0xbe52bc50	-0.20579648
11	0xbd64c4f0	-0.055851877
12	0xbe5955b1	-0.21224095
13	0x3e111aac	0.14170331
14	0xbe7733de	-0.2414088
15	0xbe594696	-0.21218333
16	0xbebf4397	-0.37356254
17	0x3e9a90f1	0.30188707
18	0xbda8109a	-0.082062915
19	0xbef88b66	-0.48543853
20	0xbf0145ef	-0.50497335
21	0x3d0aa0d7	0.033844795
22	0x3e52adda	0.20574132
23	0x3f178d19	0.5919967
24	0xbdf633cb	-0.120215975
25	0xbd354bfa	-0.04426191
26	0x3f13f3cf	0.577939
27	0x3fa05dc1	1.2528611
28	0xbeda6eb9	-0.426626
29	0xbf0b5868	-0.5443177
30	0xbe11d64a	-0.14241901
31	0x3e6e45d1	0.2326882

lstm.weight_ih_l1 f4 [32, 8]
0	0x3f02e180	0.51125336
1	0xbdbf038a	-0.09326847
2	0xbf238c6a	-0.6388613
3	0x3e368ea1	0.17827846
4	0x3e994085	0.29932037
5	0x3efe477c	0.49663913
6	0x3f1d7e6e	0.6152104
7	0xbf57dfd6	-0.8432592
8	0xbc579991	-0.013159172
9	0xbef816d8	-0.48454928
10	0x3f7f524a	0.9973494
11	0xbf863967	-1.0486268
12	0xbe0f99a9	-0.1402346
13	0x3e028a0a	0.1274797
14	0xbef35894	-0.47528517
15	0x3f7c8007	0.98632854
16	0xbdb98fbf	-0.090606205
17	0xbed89c40	-0.4230671
18	0x3ec6c903	0.38825235
19	0xbf53aa36	-0.82681596
20	0xbc72bcbf	-0.014815508
21	0x3e8a703c	0.27038753
22	0x3d6be90a	0.05759529
23	0x3f147b76	0.58000886
24	0x3f5e4677	0.8682627
25	0xbf1f1ed1	-0.621564
26	0x3e1f8880	0.15579414
27	0xbf8787b2	-1.0588286
28	0x3ede8877	0.4346349
29	0x3e694766	0.22781143
30	0x3e289546	0.16463193
31	0xbf63edca	-0.8903471
32	0x3eeb768b	0.4598888
33	0x3ebec54f	0.3725991
34	0xbeadbb73	-0.33932075
35	0x3e952e30	0.291368
36	0x3def1cd1	0.11675418
37	0xbe4cf4db	-0.2001528
38	0x3f6d1294	0.9260647
39	0xbe5f36de	-0.21798274
40	0xbf11d98c	-0.56972575
41	0x3fa42d60	1.2826347
42	0xbf3a4504	-0.7276156
43	0x3fbccf60	1.4750786
44	0xbf21faa3	-0.63273066
45	0x3e8d8493	0.2764021
46	0x3f881162	1.0630305
47	0x3ecd7e6a	0.4013551
48	0x3f13694a	0.57582533
49	0x3fb9384e	1.4470308
50	0xbf5f7051	-0.87280756
51	0x3ef6652a	0.48124057
52	0xbf124043	-0.57129306
53	0x3f71ae18	0.9440627
54	0x3fb80ad9	1.437831
55	0xbefe010f	-0.49610183
56	0xbfcd13ad	-1.602163
57	0x3f7cc854	0.98743176
58	0x3e8fb806	0.28070086
59	0xbe4f37a0	-0.20236063
60	0xbf6372aa	-0.8884684
61	0x3f79152e	0.9729794
62	0xbf38f55a	-0.72249377
63	0x3f812e0c	1.0092177
64	0x3e83ccb1	0.25742105
65	0xbe79742e	-0.24360725
66	0xbe6e3d84	-0.23265654
67	0x3e8b8955	0.27253214
68	0x3e8ddb07	0.27706167
69	0x3e7ea7ea	0.24868742
70	0xbce2ce30	-0.027686208
71	0xbd46bb38	-0.04851839
72	0x3d446d18	0.047955602
73	0x3e902cd1	0.28159192
74	0xbca69770	-0.020335883
75	0x3dfa57bc	0.12223765
76	0x3d17cdf0	0.03706163
77	0x3e4a663a	0.19765559
78	0x3db0f180	0.086398125
79	0xbd8b9afc	-0.0681667
80	0xbeb1a92a	-0.34699374
81	0x3e9f20af	0.31079623
82	0x3e4fdb92	0.20298603
83	0x3e84ac03	0.25912485
84	0x3e029e08	0.12755597
85	0xbe1604e1	-0.14650299
86	0xbe00664d	-0.12539025
87	0xbe696c3f	-0.22795199
88	0x3ea2c5f5	0.31791654
89	0x3d061350	0.03273326
90	0x3eaa025b	0.33204922
91	0xbcdca3f0	-0.02693364
92	0x3d8deffc	0.06930539
93	0x3daeae0c	0.085292906
94	0xbbb7e600	-0.005612135
95	0x3e8a1c25	0.26974598
96	0x3e9bb6df	0.30412957
97	0x3e3d6efe	0.18499371
98	0x3dc4d7ac	0.09611449
99	0xbe364454	-0.17799503
100	0x3ea5669b	0.32304844
101	0x3eb17825	0.34661976
102	0x3af1f500	0.0018459857
103	0xbcbca6e0	-0.023028791
104	0xbe0998b6	-0.13437161
105	0x3e9a0747	0.30083677
106	0x3dfec2cc	0.12439498
107	0xbe8e0bde	-0.2774343
108	0xbe28062b	-0.16408603
109	0x3e9d5e19	0.30735853
110	0xbe40e626	-0.18837795
111	0xbc004120	-0.007828027
112	0xbc78aac0	-0.015177429
113	0x3d44c680	0.048040867
114	0x3e9a45cd	0.3013138
115	0x3e61f6ae	0.22066757
116	0xbeb3b080	-0.35095596
117	0x3daba03c	0.08380172
118	0x3ea38a93	0.3194166
119	0x3ea54443	0.32278642
120	0xbea1165d	-0.31462374
121	0xbe3e65b6	-0.18593487
122	0x3e17f5fa	0.14839926
123	0xbc640240	-0.013916552
124	0xbe7394fc	-0.23787302
125	0x3e6b606e	0.22986004
126	0x3e0b30ea	0.13592878
127	0x3e310202	0.17285922
128	0x3e905735	0.28191534
129	0x3f8f66f0	1.1203289
130	0xbf0d2c0a	-0.55145323
131	0x3efd32a4	0.49452698
132	0x3e864433	0.26223907
133	0x3f4e4759	0.8057762
134	0x3e5f2292	0.21790531
135	0xbef85d9c	-0.48508918
136	0xbf274e96	-0.6535429
137	0xbf1f393d	-0.62196714
138	0x3f45aa5c	0.7721307
139	0xbfd2fc7e	-1.6483305
140	0x3d5543a0	0.052066445
141	0xbeb6e09e	-0.35718244
142	0xbf58d88a	-0.8470541
143	0x3fc357f5	1.5261217
144	0xbdbbf4b3	-0.09177532
145	0x3e01f161	0.12689735
146	0xbf18c788	-0.5967946
147	0x3f3cc671	0.737403
148	0xbeb3910c	-0.350716
149	0xbd2a33a3	-0.04155315
150	0x3f28a82d	0.65881616
151	0xbf1f35ad	-0.6219128
152	0xbdc51a30	-0.096241355
153	0xbd5ae71c	-0.05344306
154	0x3e8a78a3	0.27045164
155	0x3f5f201b	0.87158364
156	0xbe36d2fa	-0.17853919
157	0xbe2bf913	-0.16794233
158	0x3dd9f9ee	0.106433734
159	0x3e1923f0	0.14955115
160	0xbefb62a3	-0.4909869
161	0xbe8a0b88	-0.26961923
162	0x3f152ec3	0.5827448
163	0xbfb20d7a	-1.3910363
164	0x3cdde4c2	0.02708662
165	0xbf2b3c46	-0.66888845
166	0xbecfbba5	-0.4057285
167	0x3f8ad706	1.084687
168	0xbf93f577	-1.1559285
169	0xbf782df3	-0.9694511
170	0x3f969e65	1.1767088
171	0xbfdb6b65	-1.7142149
172	0xbe3b0be7	-0.18266259
173	0xbdfea157	-0.12433117
174	0xbf7a28c4	-0.97718453
175	0x3fe0cd87	1.7562722
176	0x3f88f751	1.0700475
177	0x3f185759	0.5950828
178	0xbfa8f88d	-1.3200852
179	0x3ffa8447	1.9571618
180	0x3e972712	0.29521996
181	0xbe1743bb	-0.14771931
182	0x3f53973e	0.8265265
183	0xbfbae1a3	-1.4600109
184	0x3f5a134f	0.8518571
185	0x3ebfe2f5	0.37477842
186	0xbf5c8d8f	-0.861535
187	0x3f8b9cdc	1.0907245
188	0xbd1bb994	-0.038018778
189	0x3e38419f	0.17993782
190	0x3f6693a7	0.9006905
191	0xbfc14c04	-1.5101323
192	0x3f1dee04	0.6169131
193	0x3d3ed9e5	0.04659452
194	0xbd8657e8	-0.065597355
195	0x3eeb2654	0.4592768
196	0xbe1848a3	-0.14871459
197	0x3f6fc1e5	0.93655235
198	0x3e681d1e	0.22667357
199	0xbf733067	-0.9499573
200	0xbea540ee	-0.322761
201	0xbf02c8d6	-0.510877
202	0x3f2eaac0	0.68229294
203	0xbfc1ce11	-1.5141011
204	0x3a81f9ed	0.0009916403
205	0xbe5f36a8	-0.21798193
206	0xbec85fdd	-0.39135638
207	0x3f7bf2d6	0.98417413
208	0x3f03d6d2	0.51499665
209	0xbf2a061e	-0.66415584
210	0x3ee7ce1e	0.45274442
211	0xbf1c6dff	-0.6110534
212	0x3edc19ca	0.42988425
213	0x3f70793f	0.93935007
214	0xbe98f1f7	-0.29872105
215	0x3eb4d751	0.35320523
216	0x3f34cd1b	0.70625466
217	0x3cb035d6	0.021510046
218	0xbed5084d	-0.41607895
219	0xbf82f2bf	-1.023033
220	0x3f03ff23	0.5156118
221	0x3e2dd5e2	0.16976121
222	0xbe64b279	-0.22333707
223	0xbd0f9478	-0.0350537
224	0x3f94958f	1.1608142
225	0x3e9841ac	0.29737604
226	0xbe09639a	-0.13416901
227	0xbe6bdbb3	-0.23033027
228	0xbe3517e1	-0.1768489
229	0x3e4fca15	0.20291932
230	0x3f30c601	0.6905213
231	0xbed90fe1	-0.42394927
232	0xbf65182d	-0.89490014
233	0x3f8ae66d	1.085157
234	0xbeecbba0	-0.46236897
235	0x3f87a401	1.0596925
236	0xbefad525	-0.4899074
237	0x3f77638d	0.9663628
238	0x3f7b112d	0.98073083
239	0x3e9c1728	0.30486417
240	0x3f4ef039	0.808353
241	0x3fd872bc	1.6910014
242	0xbf1097f0	-0.5648184
243	0xbc08d9f1	-0.0083527425
244	0xbdb32b01	-0.08748437
245	0x3f769762	0.9632474
246	0x3fb764a3	1.4327587
247	0xbf775a03	-0.9662172
248	0xbfcc1613	-1.5944237
249	0x3f21ecae	0.6325177
250	0x3eedae7e	0.4642219
251	0xbe8c4aad	-0.27400723
252	0xbea400d4	-0.32031882
253	0x3f774b44	0.9659922
254	0xbf95e3a1	-1.1710092
255	0x3fa61cdb	1.2977556

lstm.weight_hh_l1 f4 [32, 8]
0	0x3dc703cc	0.09717521
1	0x3e12424c	0.14283103
2	0x3ce76130	0.028244585
3	0xbe8ce7f1	-0.27520707
4	0xbea17b75	-0.31539503
5	0x3e460856	0.19339117
6	0x3e7d2aee	0.24723408
7	0x3e109f10	0.14123178
8	0xbdebe4d2	-0.115182534
9	0xbe168acd	-0.14701386
10	0x3e9a07df	0.3008413
11	0xbde33fee	-0.11096178
12	0x3dc57c24	0.096428186
13	0x3e8c57e5	0.27410808
14	0x3e47a9fe	0.1949844
15	0x3e328996	0.17435297
16	0x3eb3cbe7	0.35116503
17	0x3d672950	0.056435883
18	0x3e2493d6	0.1607202
19	0xbe963079	-0.29333857
20	0xbe368674	-0.17824727
21	0xbd341830	-0.04396838
22	0x3e7366be	0.23769662
23	0xbe8cb8be	-0.27484697
24	0xbe8174c6	-0.25284404
25	0x3e3ff0fa	0.18744269
26	0x3e803333	0.25039062
27	0xbe6ef2b6	-0.23334774
28	0x3d664518	0.056218237
29	0x3d008e40	0.03138566
30	0xbea3df00	-0.32006073
31	0xbe1b58d3	-0.15170603
32	0xbea0ecae	-0.31430572
33	0x3e23cede	0.15996882
34	0xbe92ad93	-0.28648052
35	0x3e53f8b2	0.20700338
36	0xbe83fb36	-0.25777596
37	0xbe4dbfe6	-0.20092735
38	0xbeb12069	-0.3459504
39	0xbe152fff	-0.1456909
40	0xbce80a40	-0.0283252
41	0xbcf6c7c0	-0.030124545
42	0x3e8344bb	0.25638375
43	0xbe04921c	-0.12946361
44	0xbe934c63	-0.28769216
45	0xbe590f77	-0.21197306
46	0x3c6dae60	0.014506906
47	0xbd02d698	-0.031942934
48	0x3c819e80	0.015822649
49	0xbde7bb58	-0.1131503
50	0x3d6d1da8	0.05788961
51	0x3dd89d24	0.10576847
52	0x3e37724e	0.17914698
53	0x3e20fd12	0.15721539
54	0x3eb43ac5	0.35201088
55	0x3b8db740	0.0043248236
56	0xbe988faf	-0.29797122
57	0x3e9cb3d5	0.3060595
58	0x3ace9d00	0.0015763342
59	0xbe5cdfdf	-0.21569775
60	0xbe10be6b	-0.14135139
61	0xbdb38e9c	-0.08767435
62	0xbe7fba36	-0.24973378
63	0x3e80ad13	0.25132045
64	0xbca60570	-0.020266265
65	0x3e31ed4e	0.17375681
66	0x3e5d6b86	0.21623048
67	0x3eac59bd	0.33662215
68	0x3e235e2a	0.1595389
69	0x3e090a6a	0.13382879
70	0xbe17dd51	-0.1483052
71	0xbd6fa3a8	-0.058505684
72	0xbcb7b260	-0.022423923
73	0xbda39114	-0.07986656
74	0xbe8c3140	-0.27381325
75	0x3d70a928	0.05875507
76	0xbe810913	-0.25202236
77	0xbea113e2	-0.31460482
78	0xbe01cc54	-0.12675601
79	0xbdce1794	-0.10063091
80	0x3d7de8c0	0.061989546
81	0x3e5299fa	0.2056655
82	0x3d7afed8	0.061278194
83	0x3e464c76	0.19365105
84	0xbe6f049c	-0.23341602
85	0x3e4c9d1e	0.1998181
86	0xbe84eff7	-0.2596433
87	0xbdb70bc8	-0.08937794
88	0xbe1837d9	-0.14865054
89	0x3e974231	0.29542688
90	0xbd3647a8	-0.04450193
91	0xbe9ec214	-0.31007445
92	0xbdad2ff8	-0.08456415
93	0x3df461ac	0.11932692
94	0xbd4c28a8	-0.04984346
95	0xbcec2310	-0.028825313
96	0x3e9216d3	0.28533038
97	0xbe4c13e3	-0.19929461
98	0x3da1de38	0.07903713
99	0x3d4b1680	0.049582005
100	0x3eaa1939	0.33222368
101	0x3c6b6620	0.01436761
102	0x3c719960	0.01474604
103	0x3e2511f2	0.16120127
104	0x3bbb1440	0.005709201
105	0xbe900ade	-0.2813329
106	0xbe956ad3	-0.29183063
107	0x3c2521a0	0.010078818
108	0x3e6b4c42	0.22978309
109	0xbe4d083d	-0.20022674
110	0xbd2f0f88	-0.04273942
111	0x3d4f76c0	0.05065036
112	0xbe43dcc6	-0.19127187
113	0xbdbb941c	-0.09159109
114	0xbdcbf054	-0.09957948
115	0x3e971253	0.29506168
116	0xbe14b252	-0.14521149
117	0x3e355882	0.17709544
118	0xbda23e24	-0.07922009
119	0x3e81486f	0.25250575
120	0xbcf14700	-0.0294528
121	0x3e4288b2	0.18997458
122	0xbe7fdeae	-0.2498729
123	0x3de0de40	0.10979891
124	0x3ea3a34d	0.31960526
125	0xbe599f3b	-0.21252148
126	0x3e8a30dd	0.26990405
127	0xbe8b9c04	-0.27267468
128	0x3de51914	0.11186424
129	0x3e9e08dd	0.30866137
130	0x3d4a5b90	0.049403727
131	0xbdb51c38	-0.08843273
132	0x3d3401c8	0.04394701
133	0x3e050186	0.12988862
134	0xbea03a9e	-0.3129472
135	0xbe97d9be	-0.29658312
136	0xbeaf2ab9	-0.34212282
137	0x3e00ff44	0.12597376
138	0x3d6c1e80	0.057646275
139	0xbeb1bd75	-0.34714857
140	0xbe77ab4a	-0.24186435
141	0xbe49cc9a	-0.19706956
142	0xbe770c94	-0.24125892
143	0xbe9eec26	-0.31039542
144	0x3e9a3d0f	0.3012471
145	0xbdb12554	-0.08649698
146	0xbdffcf4e	-0.12490712
147	0xbe84b0d6	-0.25916165
148	0xbd8dfe90	-0.069333196
149	0x3e03d7d2	0.12875298
150	0x3e63ce1e	0.22246596
151	0x3e7a6d8e	0.24455854
152	0x3e9cf72b	0.30657324
153	0x3e1f540e	0.15559408
154	0xbda70270	-0.08154762
155	0xbc807160	-0.015679061
156	0x3e63bbbe	0.22239587
157	0x3e818bfb	0.2530211
158	0xbe67bf16	-0.22631487
159	0x3eabd259	0.3355892
160	0x3e062492	0.13099888
161	0x3e4de3e6	0.20106468
162	0x3e225b82	0.1585522
163	0x3bcb6e00	0.0062081814
164	0x3dbd3bb4	0.09239903
165	0x3ea56c17	0.32309029
166	0xbd9db728	-0.0770095
167	0x3e89ae21	0.26890662
168	0xbe09f328	-0.13471663
169	0xbc9d2e40	-0.019187093
170	0xbe76142a	-0.2403113
171	0x3e95f941	0.29291728
172	0xbe8de3cf	-0.27712867
173	0xbe902d8f	-0.28159758
174	0xbe972457	-0.29519913
175	0xbdce57dc	-0.100753516
176	0x3eac052f	0.33597705
177	0xbd5a7020	-0.053329587
178	0x3e7e9d7e	0.24864766
179	0x3ea566bf	0.32304952
180	0xbe2b6892	-0.16739109
181	0xbe991011	-0.2989507
182	0xbe30388d	-0.17209072
183	0x3dc4815c	0.09594986
184	0x3dd5593c	0.10417411
185	0x3e747502	0.2387276
186	0xbe2ffad5	-0.17185529
187	0x3d4b6790	0.04965931
188	0xbea05fff	-0.3132324
189	0xbd351388	-0.04420808
190	0x3da90070	0.082520366
191	0x3ead633f	0.3386478
192	0xbb28c400	-0.002575159
193	0x3e67a5f6	0.22621903
194	0xbe022879	-0.12710752
195	0xbd85677c	-0.06513879
196	0x3e1056ec	0.14095658
197	0xbe81c08d	-0.25342217
198	0x3d487698	0.048941225
199	0x3c9e1a40	0.019299626
200	0xbe8b7d66	-0.2724411
201	0x3c6682e0	0.014069289
202	0xbe0fa34f	-0.14027141
203	0x3e444d12	0.19170025
204	0x3ea87f6f	0.32909724
205	0x3e8ebda1	0.2787905
206	0x3dfd4950	0.12367499
207	0xbe8c86b0	-0.27446508
208	0x3e83ec69	0.25766304
209	0xbdaf677c	-0.0856466
210	0xbe31ae9f	-0.17351769
211	0x3dba2924	0.09089878
212	0xbe83c740	-0.25737953
213	0x3e8144db	0.25247845
214	0x3e7cbd5e	0.24681613
215	0x3de17f74	0.11010638
216	0x3c756fe0	0.014980286
217	0x3ea95f95	0.33080736
218	0xbeae8bd1	-0.34091046
219	0xbe95a9e2	-0.29231173
220	0xbe7e5b79	-0.24839582
221	0xbe837fb4	-0.25683367
222	0x3e6e2896	0.2325767
223	0x3d27c2a0	0.040957093
224	0x3e78563e	0.24251649
225	0x3d2fd080	0.04292345
226	0x3ddaa024	0.10675076
227	0xbe60b010	-0.21942163
228	0xbe7388e8	-0.23782694
229	0xbea3a11b	-0.3195885
230	0x3e45f6e2	0.1933246
231	0x3cac4d40	0.02103293
232	0xbe60b490	-0.21943879
233	0x3e4ec206	0.20191202
234	0x3e28f4f2	0.16499689
235	0x3e1bfbf6	0.15232834
236	0xbeae92ec	-0.34096467
237	0xbe8a8a44	-0.27058613
238	0xbe40711a	-0.18793145
239	0xbe939e70	-0.28831816
240	0xbe0af38f	-0.13569473
241	0x3df9b954	0.12193552
242	0xbdfe7626	-0.12424879
243	0xbdbbbd50	-0.09166968
244	0xbde50c52	-0.111839905
245	0x3e33778a	0.1752607
246	0x3ea40f49	0.32042912
247	0x3e090ca4	0.13383728
248	0xbe78a9cc	-0.24283522
249	0xbea8c650	-0.329638
250	0x3da9a128	0.08282691
251	0xbe2f09b3	-0.17093544
252	0xbe3f2a9b	-0.18668596
253	0xbca59420	-0.020212233
254	0x3d964af0	0.07338512
255	0xbe5c127a	-0.21491423

lstm.bias_ih_l1 f4 [32]
0	0xbf07cb00	-0.5304413
1	0x3f09b1f6	0.5378717
2	0xbf65d649	-0.897801
3	0xbee63691	-0.44963506
4	0xbebb167d	-0.36540595
5	0x400af76e	2.171352
6	0x3fbb690c	1.4641433
7	0x3ed824c8	0.42215562
8	0xbd7bafd8	-0.061446995
9	0x3d465520	0.048421025
10	0x3e6e49f2	0.23270395
11	0xbd735908	-0.05941108
12	0xbd8d0fb8	-0.06887764
13	0x3d63fa98	0.055658907
14	0x3e95acaf	0.2923331
15	0xbd7216c8	-0.059103757
16	0x3da78c32	0.08181037
17	0x3de96cfc	0.1139774
18	0xbd76b045	-0.060226697
19	0xbe2fbd0a	-0.17161956
20	0x3e83b1f0	0.25721693
21	0x3ea17157	0.31531784
22	0xbeac92bd	-0.33705702
23	0xbe3f510c	-0.1868326
24	0xbe83570c	-0.2565235
25	0x3f36e5dc	0.7144449
26	0xbf278168	-0.65431833
27	0xbeb34954	-0.35016882
28	0xbe974c74	-0.29550517
29	0x400fd473	2.2473419
30	0x3fa527ac	1.2902732
31	0x3f071608	0.5276799

lstm.bias_hh_l1 f4 [32]
0	0xbed7a452	-0.42117554
1	0x3f490163	0.7851774
2	0xbf450b6e	-0.76970565
3	0xbf2f22d5	-0.68412524
4	0xbd9f366a	-0.077740505
5	0x402702ce	2.6095462
6	0x3fd59f01	1.6689149
7	0x3f15214f	0.5825395
8	0x3ea39cdb	0.3195561
9	0xbd150980	-0.036386013
10	0xbabfd600	-0.001463592
11	0xbe97bdbd	-0.29636946
12	0xbe9a3504	-0.30118573
13	0xbd444ca8	-0.047924668
14	0xbe85df8f	-0.26147124
15	0x3e08b35a	0.13349667
16	0xbd2c1f6d	-0.042022157
17	0x3e81bd71	0.25339845
18	0xbd2b2150	-0.041779816
19	0xbd433edf	-0.04766738
20	0xbe3467ff	-0.17617796
21	0x3d7dacfa	0.06193254
22	0xbd185ea5	-0.037199635
23	0x3c1e0800	0.009645462
24	0xbcb26817	-0.02177815
25	0x3f680b1d	0.9064196
26	0xbf0a0c07	-0.539246
27	0xbe6d55f5	-0.23177321
28	0x3dffd86b	0.1249245
29	0x402167e2	2.5219655
30	0x3fe368ad	1.776632
31	0x3eec6ee7	0.46178362

lstm.weight_ih_l2 f4 [32, 8]
0	0x3fafc2f2	1.3731368
1	0x3fbd5ac3	1.4793323
2	0x3e6eaba6	0.23307666
3	0xbfa84777	-1.3146809
4	0xbf827c60	-1.0194206
5	0xbec0b741	-0.37639812
6	0x3f196971	0.59926516
7	0xbebff436	-0.37491006
8	0x3fa0aed0	1.2553349
9	0x3f13dd73	0.5775978
10	0xbed12a08	-0.4085238
11	0xbf64226f	-0.8911504
12	0xbfba7b7c	-1.4568934
13	0x3f151239	0.5823093
14	0xbd42d8ed	-0.047570158
15	0xbf478bad	-0.77947503
16	0x3f0fbd88	0.56148577
17	0xbd222137	-0.039582457
18	0xbe84f408	-0.2596743
19	0xbe271c2d	-0.16319342
20	0x3c0da61b	0.00864556
21	0x3fb2fe8c	1.3983932
22	0xbefd149b	-0.49429783
23	0xbed9827f	-0.42482373
24	0x400fd165	2.2471554
25	0x3ff59b0f	1.9187945
26	0xbf51d09c	-0.8195894
27	0xbfb033e4	-1.3765836
28	0xbfdc57e0	-1.7214317
29	0x3d15cd3b	0.036572676
30	0x3f0490ca	0.5178343
31	0xbf7ec132	-0.9951354
32	0x3e7f0b12	0.24906567
33	0x3f148edf	0.58030504
34	0x3e9543b8	0.29153228
35	0xbe930aa7	-0.28719065
36	0x3de58eaa	0.11208852
37	0x3fbc82f6	1.4727466
38	0xbf6cb280	-0.9245987
39	0xbf518deb	-0.81857175
40	0xbe776022	-0.24157766
41	0x3f1d20ef	0.6137838
42	0xbd6f58b7	-0.058434214
43	0xbe2dc966	-0.16971359
44	0x3f04cd74	0.51875997
45	0x3ff4ca00	1.9124146
46	0xbfa1b112	-1.2632163
47	0xbf358ceb	-0.7091815
48	0x3efeabe4	0.49740517
49	0xbea25021	-0.31701759
50	0xbf3ed569	-0.7454439
51	0xbf1d0787	-0.6133961
52	0xbf30a678	-0.6900401
53	0xbfcc43b5	-1.5958163
54	0x3f9c6cb3	1.2220672
55	0xbbc6e314	-0.0060695503
56	0x3e119166	0.14215621
57	0x3f72a066	0.94776
58	0x3e8ff86a	0.28119212
59	0xbe3b9508	-0.1831857
60	0xbe397ae6	-0.18113288
61	0x400e96d1	2.227955
62	0xbfcaa66e	-1.583204
63	0xbee85023	-0.4537364
64	0x3ea780e1	0.32715514
65	0xbea5c821	-0.3237925
66	0x3d1c68a0	0.038185716
67	0x3e2bd3ea	0.16780058
68	0x3e34fc3a	0.17674342
69	0x3de22e40	0.11043978
70	0x3e59c8ca	0.21268001
71	0x3e89b935	0.26899114
72	0x3db4819c	0.088137835
73	0x3e8908fb	0.26764664
74	0x3df81158	0.12112683
75	0xbe829509	-0.2550433
76	0xbd5182f0	-0.051150262
77	0xbe9a174e	-0.30095905
78	0x3e8b8685	0.27251068
79	0x3e3ff16a	0.18744436
80	0xbe67b182	-0.22626308
81	0x3e2c59b2	0.16831091
82	0xbead5188	-0.33851266
83	0x3de5afa8	0.112151444
84	0x3e0c8a00	0.13724518
85	0xbeafb41a	-0.34317094
86	0xbe27fdc5	-0.16405399
87	0x3da85ff8	0.082214296
88	0x3c9d3f10	0.01919511
89	0xbc642d80	-0.013926864
90	0xbc839dd0	-0.016066462
91	0xbe9654e3	-0.29361638
92	0x3e83a2bd	0.25710097
93	0xbe5db54b	-0.21651189
94	0x3e8feb73	0.2810932
95	0xbeb0800a	-0.34472686
96	0x3e45e596	0.19325861
97	0x3e080a52	0.13285187
98	0x3e4778be	0.19479653
99	0x3d11f558	0.03563437
100	0x3e2b243e	0.16713044
101	0xbe5b1416	-0.21394381
102	0xbc02cdc0	-0.007983625
103	0xbe3d138f	-0.18464492
104	0xbc263100	-0.010143518
105	0xbeab91a8	-0.33509564
106	0x3c933770	0.01797077
107	0x3e8385eb	0.2568811
108	0xbe525943	-0.20541863
109	0x3e20c38e	0.15699598
110	0xbd447260	-0.04796064
111	0x3def8bb4	0.11696568
112	0x3e90cacd	0.28279725
113	0xbea5d1fd	-0.3238677
114	0xbe164de9	-0.14678158
115	0xbd16ab40	-0.03678441
116	0xbea7bb6e	-0.32760185
117	0x3e90f197	0.28309318
118	0x3e5c247a	0.2149829
119	0x3df66b3c	0.12032172
120	0xbd9163cc	-0.07099113
121	0x3e9b95e1	0.30387786
122	0xbe9e3452	-0.30899292
123	0x3e1ea196	0.15491328
124	0x3dcd13bc	0.1001353
125	0x3ea69e7b	0.32542786
126	0xbcf2ce90	-0.029639512
127	0x3e9e4b57	0.30916855
128	0xbd7012a2	-0.05861152
129	0x3f5b06be	0.8555716
130	0x3e683847	0.22677718
131	0x3e6c87b5	0.23098643
132	0xbe119ec8	-0.14220726
133	0x401b0109	2.4219382
134	0xbfe5b914	-1.7947106
135	0xbf334d7d	-0.7004011
136	0xbc94319e	-0.018090066
137	0xbf4ffbd8	-0.8124366
138	0x3e151079	0.14557065
139	0xbe5b4a11	-0.21414973
140	0xbea8960a	-0.3292697
141	0xc02ff16a	-2.7491097
142	0x3fdd7245	1.7300497
143	0x3f8b4dd7	1.088313
144	0xbf4930a4	-0.78589845
145	0xbef92931	-0.4866424
146	0x3e346579	0.17616834
147	0x3f2a07cb	0.6641814
148	0xb92da9b4	-0.00016561785
149	0xbf88c615	-1.068545
150	0x3e76ef61	0.24114753
151	0x3e1f2409	0.1554109
152	0xbb879faf	-0.004138909
153	0xbf8a8184	-1.0820775
154	0x3c2a819a	0.010406876
155	0x3e1df4cf	0.15425418
156	0xbe589a7c	-0.21152681
157	0xc03ecc8e	-2.981235
158	0x3fed62c5	1.8545767
159	0x3f5f619a	0.87258303
160	0xbee58b53	-0.44832858
161	0x3eabcaac	0.33553064
162	0xbbaa6bd8	-0.0052008443
163	0xbedd268b	-0.43193468
164	0x3e35d5c4	0.17757326
165	0x40130751	2.2973216
166	0xbf95c2fb	-1.1700128
167	0xbf041019	-0.51587063
168	0xbe8349fe	-0.2564239
169	0x3eddd70a	0.43328124
170	0xbd84266e	-0.064526424
171	0x3e75c989	0.24002661
172	0xbdee4fb1	-0.11636294
173	0x4011d3b0	2.2785454
174	0xbfbaf970	-1.4607372
175	0xbf5b7a08	-0.8573308
176	0xbe884490	-0.2661481
177	0x3f65d030	0.89770794
178	0xbd8b4f96	-0.06802289
179	0x3e08a9fe	0.13346097
180	0x3ea46d3c	0.3211459
181	0x403baf77	2.9325845
182	0xbfcfdab3	-1.6238617
183	0xbf27ae1a	-0.6550003
184	0x3f04da6b	0.5189578
185	0xbf011985	-0.50429565
186	0x3eb74386	0.35793704
187	0x3d2a0f86	0.04151871
188	0xbeadf79a	-0.33977968
189	0xc014c901	-2.3247683
190	0x3fe234e5	1.7672392
191	0x3f785e72	0.9701911
192	0x3fbf1584	1.4928441
193	0x3fb7803f	1.4336013
194	0xbe059030	-0.13043284
195	0xbf87bdd6	-1.0604808
196	0xbf33b6fc	-0.70201087
197	0xbf1f3a23	-0.62198085
198	0x3f6700e5	0.9023574
199	0xbe176959	-0.1478628
200	0x3fd1c8f1	1.6389447
201	0x3efcc6ea	0.4937051
202	0xbeb8e63a	-0.3611315
203	0xbf986623	-1.190617
204	0xbfb95781	-1.4479829
205	0x3e93e32f	0.28884265
206	0xbe475dae	-0.1946933
207	0xbf0b2d3b	-0.5436589
208	0xbcfcb726	-0.03084905
209	0x3eb9e3e6	0.36306685
210	0xbee819c3	-0.45332155
211	0xbe959a9e	-0.29219526
212	0x3ebcba49	0.36860874
213	0x3fbca4e1	1.4737817
214	0xbf29f9e5	-0.66396934
215	0xbf1eb492	-0.6199428
216	0x4009c46d	2.1526139
217	0x3fe983a6	1.8243301
218	0xbf51b006	-0.81909215
219	0xbfc158f4	-1.5105271
220	0xbfd600de	-1.6719015
221	0xbe92431e	-0.2856683
222	0x3eef9fb9	0.46801546
223	0xbf719bb1	-0.9437819
224	0x3ec32ac5	0.38118568
225	0x3e905da8	0.28196454
226	0x3e1fc8e4	0.15603977
227	0xbd7e9b64	-0.06215991
228	0x3db5c256	0.08874957
229	0x400996c6	2.1498275
230	0xbf6efd87	-0.933556
231	0xbf0178cd	-0.5057495
232	0x3e26a6c7	0.16274558
233	0x3ece1de2	0.40257174
234	0x3ddf8681	0.109143265
235	0xbf2d3ab5	-0.67667705
236	0x3e57a8d7	0.21060501
237	0x3ff09558	1.8795576
238	0xbfb30b0a	-1.3987744
239	0xbf504f88	-0.81371355
240	0x3f3fcf61	0.7492581
241	0x3e2f753d	0.17134567
242	0xbf173fd6	-0.5908178
243	0xbec038de	-0.37543386
244	0xbf457d3d	-0.77144223
245	0xbfdd12fd	-1.727142
246	0x3f4f2e8c	0.809304
247	0x3ecfda18	0.4059608
248	0x3d6994ac	0.05702655
249	0x3f6f1e75	0.9340585
250	0xbddde298	-0.10834235
251	0xbf410cc4	-0.75410104
252	0x3e10b6e8	0.14132273
253	0x4022170c	2.5326567
254	0xbfc9887b	-1.5744776
255	0xbf5e97d9	-0.8695045

lstm.weight_hh_l2 f4 [32, 8]
0	0x3d3421a8	0.04397741
1	0x3e8ad4a3	0.27115354
2	0x3e7ba30e	0.24573919
3	0xbe861e38	-0.2619493
4	0x3ea6f77d	0.32610694
5	0x3e65b366	0.22431716
6	0x3e7f53b2	0.24934271
7	0xbe65ef45	-0.22454555
8	0xbe011e7e	-0.12609288
9	0x3e967dfd	0.29392996
10	0x3e8eb951	0.2787576
11	0x3d2c08e0	0.04200065
12	0x3e857aaf	0.26070163
13	0x3e828199	0.254895
14	0xbd949514	-0.07254997
15	0x3e50c4ba	0.20387545
16	0xbe2877bc	-0.16451925
17	0xbe812327	-0.25222132
18	0xbe495ea6	-0.19665012
19	0xbddac068	-0.1068123
20	0x3d070978	0.032968014
21	0xbd40b368	-0.047046095
22	0x3df58240	0.11987734
23	0x3e766b26	0.24064311
24	0x3c682c40	0.014170706
25	0x3cdcbe80	0.026946306
26	0xbdc00ffc	-0.09378049
27	0x3eacf3c5	0.3377973
28	0x3a293800	0.0006455183
29	0x3cc3b9f0	0.023892373
30	0xbe948ac1	-0.2901211
31	0xbd3aed00	-0.045636177
32	0xbd0d9390	-0.034564555
33	0xbd5746d8	-0.052557796
34	0xbe057d9f	-0.13036202
35	0x3e38b392	0.1803725
36	0xbe962734	-0.29326785
37	0x3eb37bc7	0.35055372
38	0xbe8e4abc	-0.27791393
39	0x3e3fef5a	0.18743649
40	0x3e954d0d	0.29160348
41	0x3e2fb67e	0.17159459
42	0xbe4d29f2	-0.20035532
43	0x3d2bedb8	0.041974753
44	0x3e9de493	0.3083845
45	0xbd3332a0	-0.04374945
46	0x3e87bc83	0.2651101
47	0xbe2212df	-0.15827511
48	0x3cb6ad20	0.02229935
49	0xbe9b5226	-0.30336112
50	0xbeb371a6	-0.35047644
51	0x3e065eb6	0.13122067
52	0x3e4f3676	0.20235619
53	0x3e148c44	0.14506632
54	0x3e8ad469	0.2711518
55	0x3e3b657a	0.18300429
56	0xbe599d87	-0.21251498
57	0x3e30f1be	0.17279717
58	0xbd564548	-0.052312165
59	0xbe975572	-0.29557377
60	0x3da72aa8	0.08162433
61	0x3e417c6a	0.18895116
62	0xbe990ad5	-0.29891077
63	0x3e8c39d1	0.2738786
64	0x3e2ec246	0.17066297
65	0x3db52200	0.088443756
66	0xbdcf8728	-0.10133201
67	0xbe8d2971	-0.2757068
68	0x3e28ce86	0.16485032
69	0xbe460e95	-0.193415
70	0x3e5d1cae	0.21592972
71	0x3ea9708b	0.33093676
72	0xbdbd8cec	-0.09255394
73	0xbea3793b	-0.3192843
74	0xbe3c5342	-0.18391135
75	0xbc0444e0	-0.008073062
76	0xbe226093	-0.15857153
77	0xbe9a9f21	-0.3019953
78	0x3d2154c8	0.039387494
79	0x3e46ae22	0.19402364
80	0xbcacd400	-0.021097183
81	0x3e02043a	0.12696925
82	0xbe9a6e62	-0.3016234
83	0x3e9e4cc3	0.3091794
84	0xbe8e8f55	-0.2784373
85	0xbdcc5aec	-0.099782795
86	0x3e8e0ad3	0.27742633
87	0xbe9f0bd4	-0.31063712
88	0x3e82bf8b	0.2553676
89	0x3e1544f4	0.14577085
90	0xbe9b03aa	-0.30276233
91	0xbe34850d	-0.1762888
92	0xbe51f55a	-0.2050375
93	0xbe6cef8e	-0.23138258
94	0x3dfc645c	0.123238295
95	0xbd9812e0	-0.07425475
96	0x3eaa53fd	0.33267203
97	0xbe0e92ff	-0.13923262
98	0x3e48fe82	0.19628337
99	0x3dc15a78	0.09441084
100	0xbde6a8ac	-0.1126264
101	0xbda1ddec	-0.07903656
102	0x3e32df3e	0.17467973
103	0x3e55385a	0.20822278
104	0xbe89585e	-0.2682523
105	0x3e8d841f	0.27639863
106	0x3e8768e5	0.26447216
107	0x3eaf9beb	0.34298643
108	0x3eb0beb3	0.34520492
109	0xbe342f04	-0.1759606
110	0x3eb0117f	0.34388348
111	0xbdb45458	-0.0880515
112	0x3da69abc	0.08134982
113	0x3e84868b	0.25883898
114	0xbcc88220	-0.024476111
115	0xbdb7d1c0	-0.089755535
116	0x3e343c2a	0.17601076
117	0x3ea8f8b1	0.33002236
118	0x3e06199a	0.13095704
119	0x3c3d0b80	0.011538386
120	0x3e8ac2b5	0.27101675
121	0x3e52662a	0.20546785
122	0xbe7bd66d	-0.24593516
123	0x3e3acc96	0.18242106
124	0x3e5fbc9e	0.21849295
125	0x3d365068	0.044510275
126	0x3ea63adb	0.32466778
127	0xbe1219d1	-0.1426766
128	0xbe76a774	-0.24087316
129	0xbd8e3f68	-0.069456875
130	0x3e45f60a	0.19332138
131	0xbea52105	-0.32251754
132	0xbc3b0c60	-0.011416525
133	0xbea2dfcf	-0.31811377
134	0x3e6cf586	0.23140535
135	0xbd8bbdb8	-0.06823295
136	0x3e0da508	0.13832486
137	0xbeb49f3b	-0.35277733
138	0xbe97ad55	-0.2962443
139	0xbeabf42d	-0.3358473
140	0x3e92ff2d	0.2871031
141	0xbda93650	-0.082623124
142	0xbe99bd22	-0.3002711
143	0x3b1dbf80	0.0024070442
144	0xbeb21bb3	-0.34786758
145	0xbda0e958	-0.07857007
146	0x3dcbcb34	0.09950867
147	0xbc703000	-0.014659882
148	0x3db1be8c	0.08678922
149	0xbd006040	-0.03134179
150	0x3eabd171	0.3355823
151	0x3cc3aba0	0.023885548
152	0xbe4ec01a	-0.20190468
153	0xbc049b00	-0.0080935955
154	0x3d43b5e0	0.04778087
155	0x3de2ae38	0.11068386
156	0x3e56eaae	0.2098796
157	0xbd699b90	-0.05703312
158	0xbea11cac	-0.31467187
159	0xbdeb5e56	-0.114926025
160	0xbe7deaef	-0.24796651
161	0x3c940180	0.018067122
162	0x3e8c9ad5	0.27461877
163	0xbea2483c	-0.31695735
164	0xbd6f7070	-0.058456838
165	0xbdda6dc8	-0.1066547
166	0x3e395ebe	0.18102548
167	0x3c96d440	0.018411756
168	0x3e68b5aa	0.2272555
169	0xbdb17170	-0.086642146
170	0x3e3a9f56	0.18224844
171	0x3daafe58	0.083492935
172	0x3e4b6916	0.19864306
173	0x3e706ebe	0.23479745
174	0xbe002d20	-0.12517214
175	0x3e153cea	0.14574018
176	0x3e2e4d12	0.17021587
177	0x3d7eb5a0	0.06218493
178	0x3ea243df	0.31692407
179	0x3dc10ed4	0.09426656
180	0xbea90acd	-0.33016053
181	0x3e6612e2	0.2246814
182	0x3dace81c	0.08442709
183	0x3e63c322	0.22242406
184	0xbe8db146	-0.2767431
185	0x3e12cc5a	0.14335766
186	0xbe025af1	-0.12730004
187	0x3e28d132	0.16486052
188	0x3d40a058	0.047027916
189	0xbeae2267	-0.34010622
190	0xbe756b82	-0.23966792
191	0x3e0c4e3a	0.13701716
192	0x3e169f4a	0.14709201
193	0x3e78b1a6	0.24286518
194	0xbdf95b2c	-0.12175593
195	0x3e8f898d	0.2803463
196	0xbeb35b66	-0.3503067
197	0xbeae30de	-0.34021658
198	0x3e125a8c	0.14292353
199	0xbe8e411f	-0.27784058
200	0xbd16e578	-0.036839932
201	0x3d35d868	0.044395834
202	0xbe7616c2	-0.24032119
203	0x3d9574f4	0.07297698
204	0xbe8cac31	-0.27475122
205	0xbdf3fa7a	-0.11913009
206	0xbe5acf35	-0.21368106
207	0xbe981040	-0.29699898
208	0x3e86b541	0.2631016
209	0xbe70307b	-0.23455994
210	0x3e93ef87	0.28893682
211	0x3d7df3f8	0.062000245
212	0x3e8d593b	0.2760714
213	0x3cdf7b90	0.027280599
214	0xbe61ceee	-0.22051594
215	0xbe09f35d	-0.13471742
216	0x3ea43d83	0.3207818
217	0xbe95c83e	-0.29254335
218	0xbe2e4b1a	-0.17020836
219	0xbe7db8c0	-0.24777508
220	0x3d360c18	0.044445127
221	0x3df88c28	0.12136108
222	0xbdb5c970	-0.08876312
223	0xbe51f9b7	-0.20505415
224	0xbeac6049	-0.3366721
225	0x3ea41325	0.32045856
226	0x3eb4e9ef	0.35334727
227	0xbe932a7c	-0.2874335
228	0xbe739816	-0.23788485
229	0xbe49c10e	-0.19702551
230	0x3ea47d49	0.32126835
231	0xbd953ad4	-0.07286611
232	0x3e9c8d9b	0.30576786
233	0xbddab4bc	-0.106790036
234	0x3e98a665	0.2981445
235	0xbd7c1e10	-0.061552107
236	0x3e48238a	0.19544807
237	0x3e61344e	0.21992609
238	0xbc399320	-0.011326581
239	0x3dac0368	0.08399087
240	0xbe90632b	-0.2820066
241	0x3d284658	0.04108271
242	0x3de11a00	0.10991287
243	0xbe65742a	-0.22407594
244	0xbca5c940	-0.020237565
245	0xbea08c9a	-0.3135727
246	0xbdcce5a4	-0.10004738
247	0x3e60a7ee	0.2193906
248	0x3d76b378	0.06022975
249	0xbd2120b0	-0.039337814
250	0x3d3c0190	0.045899928
251	0xbd42d0c8	-0.04756239
252	0xbe9a490d	-0.30133858
253	0xbeb02ca1	-0.3440905
254	0xbd067c28	-0.03283325
255	0x3ea65333	0.3248535

lstm.bias_ih_l2 f4 [32]
0	0x3f8cf11a	1.1011078
1	0x3f979c05	1.1844488
2	0x3ef20139	0.47266558
3	0x400b86f0	2.180111
4	0x3da1b04a	0.078949526
5	0x3e2de451	0.16981627
6	0x3f825571	1.0182325
7	0x3e7cf466	0.24702606
8	0x3eb2aeff	0.34899136
9	0xbe9322b0	-0.28737402
10	0xbe80d7b8	-0.2516458
11	0x3e9eebd3	0.31039295
12	0x3eb21841	0.3478413
13	0xbe3eb3de	-0.18623301
14	0xbd7c5718	-0.061606497
15	0xbdc78ef8	-0.09744066
16	0xbe94e1c8	-0.29078507
17	0xbe188db7	-0.1489781
18	0xbeeaabe8	-0.4583428
19	0x3dbf43bd	0.09339092
20	0x3d51abb7	0.05118915
21	0x3e2c438c	0.16822642
22	0xbd184bf1	-0.0371818
23	0xbe20ec25	-0.15715082
24	0x3fa69982	1.3015597
25	0x3fbfe027	1.4990281
26	0x3e067207	0.13129435
27	0x402cd3d9	2.7004302
28	0x3e563917	0.20920216
29	0x3ddef7c3	0.108871005
30	0x3f05a51c	0.5220506
31	0x3da20757	0.07911556

lstm.bias_hh_l2 f4 [32]
0	0x3f90196f	1.1257762
1	0x3fba7c3b	1.4569162
2	0x3f1003dc	0.5625589
3	0x402f3ef5	2.7382176
4	0x3f1040e7	0.56349033
5	0x3f05f9cf	0.523343
6	0x3ef8c37e	0.4858665
7	0x3eef873c	0.46782863
8	0x3d6a0978	0.057137936
9	0xbe37cd4b	-0.17949407
10	0x3eab04e1	0.3340216
11	0x3e9c430b	0.305199
12	0x3e82ec91	0.2557111
13	0x3db8945c	0.09012672
14	0xbea92afc	-0.33040607
15	0x3d048648	0.032354623
16	0x3ea8da9c	0.32979286
17	0x3d9d73b3	0.076880835
18	0xbf3a15aa	-0.72689307
19	0xbdf772a0	-0.1208241
20	0x3dedf367	0.11618691
21	0x3e00adcd	0.125663
22	0xbd62d279	-0.055376504
23	0xbe1f19b7	-0.15537153
24	0x3f8afe57	1.0858868
25	0x3fd230d7	1.6421155
26	0x3e541141	0.20709707
27	0x400c5100	2.1924438
28	0x3b420ecc	0.002961087
29	0x3e4e74ad	0.20161696
30	0x3f458b45	0.77165633
31	0x3f187853	0.595586

lstm.weight_ih_l3 f4 [32, 8]
0	0x3f32a025	0.6977561
1	0xbf09ce36	-0.5383028
2	0x3e7c31dc	0.24628395
3	0xbffb7257	-1.9644269
4	0x3e8c2821	0.27374366
5	0x3d82969e	0.06376384
6	0x3f5ee138	0.87062407
7	0xbf17f519	-0.59358364
8	0x3f652d6c	0.89522433
9	0xbf4f5d6b	-0.8100192
10	0xbf7e9099	-0.9943939
11	0xbfa1ead8	-1.2649794
12	0xbec211d4	-0.37904227
13	0xbd076b51	-0.03306133
14	0x3dfd0d59	0.123560615
15	0x3d72dd92	0.059293337
16	0xbc9e20b2	-0.0193027
17	0xbf86a242	-1.0518267
18	0xbfcba87d	-1.5910794
19	0xbf14ff41	-0.58201987
20	0x3f68fec8	0.91013765
21	0x3f575318	0.84111166
22	0xbf14fa79	-0.5819469
23	0xbf63f968	-0.8905244
24	0x3f83e010	1.0302753
25	0xbfa240d2	-1.2676032
26	0xbf11b41f	-0.5691547
27	0xbff6ca22	-1.9280436
28	0x3ea90989	0.33015087
29	0x3f232150	0.63722706
30	0x3f53560b	0.82553166
31	0xbf273646	-0.6531719
32	0x3f5d7209	0.8650213
33	0xbf09ada1	-0.5378056
34	0xbff16b1a	-1.886081
35	0xbfc58984	-1.5432591
36	0xbf195c05	-0.59906036
37	0x3e4ac826	0.19802913
38	0xbe3b71df	-0.18305157
39	0x3d5d5941	0.054040197
40	0x3f9217f1	1.1413556
41	0xbf6b8797	-0.9200377
42	0xc03f6c86	-2.9909987
43	0xbf974f34	-1.1821046
44	0xbf6b1953	-0.91835517
45	0xbe68fadf	-0.2275195
46	0x3d699d4c	0.057034776
47	0x3f9485ca	1.1603329
48	0x3f7befc4	0.9841273
49	0xbf6a864f	-0.9161119
50	0xc02e66e0	-2.725029
51	0xbf6fa40d	-0.93609697
52	0xbee48c38	-0.44638228
53	0xbee496ef	-0.44646403
54	0xbdbbdf0b	-0.091734014
55	0x3e6df6db	0.23238699
56	0xbf3fbc54	-0.7489674
57	0x3e7a14cf	0.24422
58	0xbe2a3916	-0.16623339
59	0x3f72c7c6	0.9483608
60	0x3eb876db	0.3602818
61	0x3e73a959	0.2379507
62	0xbe71ea32	-0.23624495
63	0xbecf805f	-0.40527627
64	0xbe78bdd9	-0.24291171
65	0xbddb9450	-0.10721648
66	0x3ea7d905	0.3278276
67	0xbea25bef	-0.31710765
68	0xbc153da0	-0.009108931
69	0x3e074d38	0.1321305
70	0x3e694286	0.22779283
71	0x3e603dfa	0.21898642
72	0xbc703340	-0.014660656
73	0x3e629a4e	0.22129175
74	0x3e9502cd	0.291037
75	0xbe8ef639	-0.27922228
76	0x3e75f6ea	0.24019971
77	0x3e95db39	0.29268816
78	0x3d36e050	0.044647515
79	0xbeb19b29	-0.3468869
80	0x3e6cb322	0.23115209
81	0x3cacc470	0.021089762
82	0xbe361c9c	-0.17784351
83	0x3e053f62	0.1301246
84	0xbe2843b5	-0.16432078
85	0x3cbea280	0.023270845
86	0xbe471677	-0.19442163
87	0xbe4d6613	-0.2005847
88	0xbd956d30	-0.072962165
89	0xbe856a16	-0.260575
90	0xbddab38a	-0.106787756
91	0xbe2e869e	-0.1704354
92	0x3dab82c8	0.08374554
93	0x3e2e5dee	0.17028019
94	0x3daab0a8	0.08334476
95	0x3d83f840	0.06443834
96	0x3e1d7eba	0.15380374
97	0x3e5b5d56	0.21422324
98	0xbe85bb4c	-0.2611946
99	0x3eab3dd7	0.33445618
100	0xbe7d1f2a	-0.2471892
101	0x3ea0a839	0.31378344
102	0xbda7cef4	-0.0819377
103	0x3e9996b1	0.2999778
104	0x3e5f39b6	0.21799359
105	0xbe461752	-0.19344833
106	0x3e2872b2	0.16450003
107	0x3e05ef20	0.130795
108	0xbe3b2d3f	-0.18278979
109	0x3dcaddfc	0.099056214
110	0xbe2ceaf3	-0.16886501
111	0x3eac90b9	0.33704165
112	0x3e17285a	0.14761487
113	0xbe46df99	-0.19421233
114	0x3dccb528	0.0999549
115	0x3e0c509e	0.13702628
116	0xbd0850b0	-0.033280075
117	0x37448000	1.1712313e-05
118	0xbdb2a820	-0.087234735
119	0xbd843dd0	-0.06457102
120	0xbce37420	-0.027765334
121	0xbeb399b8	-0.35078216
122	0x3cc22d10	0.023703128
123	0xbe874968	-0.26423192
124	0x3eb31b99	0.34981993
125	0xbdfaabaa	-0.122397736
126	0xbea96ea4	-0.33092225
127	0x3d717628	0.058950573
128	0x3f9cd067	1.2251099
129	0xbf0f75b4	-0.56038976
130	0xbee91f8b	-0.45531878
131	0xbfda5246	-1.7056358
132	0x3f035e55	0.51315814
133	0xbdbf60b4	-0.093446165
134	0x3f491151	0.7854205
135	0xbdffa305	-0.124822654
136	0xbfe1160a	-1.7584851
137	0x3f7befc4	0.9841273
138	0x3e927b2c	0.28609598
139	0x403a199a	2.9078126
140	0xbe7ff5ec	-0.24996156
141	0xbee7a578	-0.4524343
142	0xbf95b542	-1.169594
143	0x3f35f8b7	0.71082634
144	0xbfc18bd4	-1.5120797
145	0x3fc84edb	1.5649065
146	0x3dc58e30	0.09646261
147	0x402f4609	2.7386496
148	0xbf4a6abf	-0.7906913
149	0xbed777b2	-0.42083508
150	0xbf863acd	-1.0486695
151	0x3f655575	0.8958352
152	0xbfe001c9	-1.7500545
153	0x3f99487c	1.1975245
154	0xbde8c174	-0.11365023
155	0x402a2728	2.65864
156	0xbeaf4b96	-0.34237355
157	0xbe4322aa	-0.19056192
158	0xbf47f232	-0.78103936
159	0x3f350f95	0.707269
160	0x3fc701d6	1.5547435
161	0xbfcaba9d	-1.58382
162	0xbecb9cf8	-0.39768195
163	0xc02f83f8	-2.7424297
164	0x3e4a7d24	0.197743
165	0x3f36712c	0.71266437
166	0x3f737e17	0.9511427
167	0xbeeb78e4	-0.4599067
168	0xbfff0526	-1.9923446
169	0x3fcc2da7	1.5951432
170	0x3ef0465c	0.4692868
171	0x40410534	3.0159426
172	0xbf333305	-0.69999725
173	0xbf227617	-0.6346144
174	0xbf4b0479	-0.793037
175	0x3f2c8c56	0.67401636
176	0x3ff18b01	1.8870546
177	0xbfce452e	-1.6114862
178	0xbd6386af	-0.055548366
179	0xc027c3be	-2.6213222
180	0x3dc1ce05	0.09463123
181	0x3eca6908	0.39533257
182	0x3f95a663	1.1691402
183	0xbf5544fb	-0.8330838
184	0xbe911556	-0.2833659
185	0x3f1677d1	0.58776575
186	0xbf28279e	-0.6568545
187	0x3f820dc4	1.0160451
188	0x3f0be7be	0.54650486
189	0x3ed79dd6	0.42112607
190	0xbde89e42	-0.1135831
191	0xbbc77966	-0.00608747
192	0x3f9527d8	1.1652784
193	0xbf2e239d	-0.6802309
194	0xbd8272ef	-0.06369578
195	0xbfc20b57	-1.5159711
196	0x3b9ffea2	0.0048826495
197	0x3ed81a48	0.4220755
198	0x3f30d246	0.6907085
199	0xbe9f42fc	-0.31105793
200	0x3ee682f9	0.450218
201	0xbee06aac	-0.43831384
202	0xbf828517	-1.0196866
203	0xbfb98571	-1.4493848
204	0x3d2e7739	0.04259417
205	0x3ef43b5c	0.47701538
206	0x3dcf4c18	0.101219356
207	0xbf07bead	-0.53025323
208	0x3eae74a6	0.3407337
209	0xbf74dd4b	-0.95650166
210	0xbf979660	-1.1842766
211	0xbe635a9f	-0.22202538
212	0x3fb5c704	1.420136
213	0x3f5da555	0.865804
214	0xbf5f2554	-0.87166333
215	0xbf7d1809	-0.988648
216	0x3f9d8c0a	1.2308362
217	0xbf931e41	-1.1493608
218	0xbf38bc54	-0.72162366
219	0xbffbd043	-1.9672931
220	0x3efc2ed8	0.4925449
221	0x3f242e04	0.64132714
222	0x3f389dbb	0.7211568
223	0xbf848bb5	-1.0355135
224	0x3f561a14	0.8363354
225	0xbf34a464	-0.7056334
226	0xbfeab60d	-1.8336807
227	0xbfb07a14	-1.3787255
228	0xbf1d7a6a	-0.61514914
229	0x3d9b2302	0.075750366
230	0xbe11b0ca	-0.14227596
231	0x3e81625f	0.25270364
232	0x3fbdf300	1.4839783
233	0xbfa14c41	-1.2601396
234	0xc061798f	-3.5230443
235	0xbfa57175	-1.2925249
236	0xbfd15d1e	-1.6356542
237	0xbf882829	-1.0637256
238	0x3f04ee10	0.51925755
239	0x3fb03b98	1.3768187
240	0x3fbc7af7	1.4725026
241	0xbf2db46b	-0.6785342
242	0xc04335fb	-3.0501697
243	0xbf9baaed	-1.2161537
244	0xbf1040e1	-0.56349
245	0xbec755ac	-0.3893255
246	0x3e8be8b6	0.27325982
247	0x3f8bbeb3	1.0917572
248	0xbf420ab9	-0.7579761
249	0x3e9a4e33	0.30137786
250	0xbea3703e	-0.31921571
251	0x3f634706	0.8878025
252	0x3f013e7b	0.5048596
253	0x3eeb653e	0.4597568
254	0xbf00274a	-0.5005995
255	0xbe82077d	-0.25396338
