ModelSave40.pt (torch_old, 30998 bytes, 45 tensors)

lstm.weight_ih_l0 f4 [32, 8]
0	0x3ddba1f9	0.10724253
1	0xbf62f2d2	-0.88651764
2	0x3efdd189	0.49573925
3	0xbeb6e841	-0.3572407
4	0xbb65459a	-0.0034984113
5	0x3e75f936	0.24020848
6	0xbd7eeac1	-0.062235598
7	0xbefdd6b9	-0.49577883
8	0x3e595840	0.21225071
9	0xbf1121a8	-0.5669198
10	0x3e4285e7	0.18996392
11	0x3d8234f5	0.06357757
12	0x3c1108f3	0.008852231
13	0x3ed63d4c	0.4184364
14	0x3e2afe98	0.16698682
15	0xbdd35a2e	-0.10319935
16	0x3ebdfd43	0.37107286
17	0xbe348052	-0.17627075
18	0x3ef2429e	0.4731645
19	0xbea51e14	-0.3224951
20	0x3d5b74dc	0.053578243
21	0xbe97349e	-0.2953233
22	0xbf12104b	-0.5705611
23	0x3ee3feb9	0.44530275
24	0x3e8749bc	0.26423442
25	0xbf2518a7	-0.6449074
26	0xbdd75d52	-0.10515846
27	0x3efea8a3	0.49738035
28	0x3c412d02	0.011790516
29	0x3f7e2da2	0.9928838
30	0x3f0073ef	0.501769
31	0xbdfe38e3	-0.12413194
32	0x3dde2dcc	0.10848579
33	0xbf76bc1b	-0.96380776
34	0x3e7e7a3d	0.24851318
35	0x3e16dd9d	0.14732976
36	0x3e1c0fd3	0.15240411
37	0x3f529cb0	0.82270336
38	0x3e9aa1f2	0.3020168
39	0x3df6a754	0.12043634
40	0xbf3e241c	-0.7427385
41	0x3ee44752	0.44585663
42	0x3ec540ec	0.38526094
43	0xbf1ad41b	-0.604799
44	0x3e2e4901	0.17020036
45	0xbeb6d779	-0.35711268
46	0xbe301542	-0.17195609
47	0x3e641e77	0.22277246
48	0x3efb16cd	0.49040833
49	0xbf72fbe2	-0.9491559
50	0x3f0af5ac	0.54281116
51	0x3efa2841	0.48858836
52	0xbca8639f	-0.020555316
53	0x3e837098	0.2567184
54	0x3db704c3	0.08936455
55	0xbc3c64fd	-0.011498687
56	0xbde3cf2b	-0.111234985
57	0xbdf02b0a	-0.11726959
58	0xbe7127b1	-0.23550297
59	0x3e6a2ffc	0.22869867
60	0x3eff7443	0.49893388
61	0x3e4235eb	0.1896588
62	0x3eda34ec	0.426185
63	0xbda59a94	-0.08086124
64	0xbe58c3da	-0.21168461
65	0xbe090709	-0.1338159
66	0x3d7feea8	0.06248346
67	0xbe9e5d04	-0.3093034
68	0x3e82d69d	0.25554362
69	0x3e7830de	0.24237391
70	0xbd24b610	-0.04021269
71	0x3ead4f6d	0.3384966
72	0xbdfc6e8e	-0.12325774
73	0xbdb221cc	-0.086978525
74	0xbe915ae6	-0.28389663
75	0xbe227701	-0.15865709
76	0xbdedf81e	-0.1161959
77	0x3d532190	0.05154568
78	0xbded2342	-0.115789905
79	0x3e909991	0.28242162
80	0xbea0ebc6	-0.3142988
81	0x3e906b8f	0.2820706
82	0xbe4cc0f9	-0.19995488
83	0xbd7037a0	-0.058646798
84	0xbd85f714	-0.06541267
85	0x3dd11144	0.10208371
86	0x3eb05b5b	0.344447
87	0x3e80f821	0.25189307
88	0xbe77763c	-0.24166197
89	0xbdcb2520	-0.099191904
90	0x3d1a2b58	0.037638992
91	0x3e8f5807	0.27996847
92	0xbe86352e	-0.26212448
93	0x3dfd57ac	0.12370238
94	0x3da241d8	0.07922715
95	0x3ea61759	0.32439688
96	0xbddf032e	-0.10889278
97	0x3eb343bd	0.35012618
98	0xbe6b2046	-0.2296153
99	0x3d018340	0.03161931
100	0x3e4606de	0.19338557
101	0x3d87c3bc	0.0662913
102	0x3d89e994	0.067340046
103	0x3e04ecc6	0.12980947
104	0xbde73766	-0.11289863
105	0xbe9b7246	-0.3036062
106	0xbe54118c	-0.20709819
107	0x3e5fa406	0.21839914
108	0xbd331a18	-0.043726057
109	0x3e44b31a	0.19208947
110	0x3e80f45f	0.2518644
111	0x3e9c3d65	0.3051559
112	0x3e238236	0.1596764
113	0xbe8fd366	-0.28090972
114	0x3eaac811	0.33355764
115	0x3da09a74	0.078419596
116	0xbe27c14a	-0.16382328
117	0x3c072360	0.00824818
118	0x3d082930	0.033242404
119	0x3ea0592b	0.3131803
120	0x3e86e60f	0.26347396
121	0xbc39f220	-0.011349231
122	0x3e600682	0.21877483
123	0xbe2ee70d	-0.17080326
124	0x3e8ffc8f	0.28122374
125	0xbcaa9590	-0.02082327
126	0xbda0adb0	-0.07845628
127	0x3e863cab	0.2621816
128	0xbdcaaaf4	-0.09895888
129	0x3f92f4fa	1.1481011
130	0xbd9e1b57	-0.077200584
131	0xbf1fe441	-0.6245766
132	0xbe46b335	-0.194043
133	0xbf36e975	-0.7144998
134	0xbe42de45	-0.19030102
135	0x3c92a05a	0.017898727
136	0x3e375d09	0.17906584
137	0xbf8d8771	-1.1056958
138	0x3eea8e52	0.45811707
139	0x3f224fde	0.6340312
140	0x3db2fa6b	0.0873917
141	0x3f6e9ae2	0.9320508
142	0x3ddd6fb0	0.10812318
143	0x3dbebb2c	0.09313044
144	0xbde63c05	-0.112419166
145	0xbf505636	-0.8138155
146	0x3f02efe3	0.5114729
147	0x3f5012fc	0.8127897
148	0x3e64ac5b	0.22331373
149	0x3f0f2845	0.5592082
150	0x3e0d884a	0.13821521
151	0x3e8a58d8	0.27020907
152	0x3e5644dd	0.20924707
153	0xbf6a1b50	-0.91447926
154	0x3f37f498	0.71857595
155	0x3ed1289c	0.40851295
156	0xbdbb888f	-0.09156906
157	0x3f7b8cc6	0.9826168
158	0xbae7ce50	-0.0017685387
159	0xbda9e5d2	-0.08295788
160	0xbe402581	-0.18764307
161	0xbeedfdb2	-0.46482617
162	0x3ec38b9c	0.3819245
163	0x3efbbccc	0.49167478
164	0x3dae86df	0.08521818
165	0x3f36fa0c	0.7147529
166	0x3ede1cae	0.43381256
167	0x3dd80062	0.10546948
168	0x3e928499	0.2861679
169	0xbf6eb97e	-0.9325179
170	0x3d84f831	0.06492651
171	0x3f6219bb	0.8832051
172	0x3eedcec8	0.46446824
173	0x3efa6f7c	0.4891318
174	0xbdc8f3e8	-0.098121464
175	0xbdb3fb52	-0.0878817
176	0x3e053e90	0.13012147
177	0x3ec94856	0.39313
178	0x3efbf238	0.49208236
179	0xbf3a7cc9	-0.7284666
180	0xbf058804	-0.5216067
181	0xbf0307a1	-0.51183516
182	0xbefcfbfa	-0.49410993
183	0x3cad7ef8	0.021178707
184	0xbe184283	-0.14869122
185	0x3fa909b2	1.3206084
186	0xbf027ba8	-0.50969934
187	0xbe8c5a41	-0.27412608
188	0xbd042102	-0.03225804
189	0xbf5e5f7b	-0.8686444
190	0xbcfd0f5e	-0.030891117
191	0xbd9983fb	-0.074958764
192	0x3e03add0	0.12859273
193	0xbf691b81	-0.9105759
194	0x3ed465ef	0.4148402
195	0x3b94e133	0.0045434474
196	0x3e0831ab	0.13300197
197	0x3e1868b9	0.14883699
198	0xbdaed826	-0.08537321
199	0xbef344f8	-0.47513556
200	0x3d8070cb	0.062715136
201	0xbf3ffe8c	-0.7499778
202	0xbd82d50f	-0.06388294
203	0x3d56c7ca	0.052436627
204	0x3eacb5fd	0.33732596
205	0x3ef4fbc4	0.47848332
206	0x3e8b61db	0.27223095
207	0xbe4cb3a3	-0.19990401
208	0x3ecde8ec	0.40216768
209	0xbf046c89	-0.5172811
210	0x3c8a8605	0.016909609
211	0xbbcf2ebc	-0.00632271
212	0x3d994b3e	0.074850544
213	0xbf003b70	-0.50090694
214	0xbf1cdf6e	-0.61278427
215	0x3ecbf1f7	0.39833042
216	0x3d7eb434	0.062183574
217	0xbf690faa	-0.91039526
218	0xbddec012	-0.10876478
219	0x3f3b3c52	0.73138916
220	0x3d7c43fe	0.06158828
221	0x3f16b926	0.58876264
222	0x3f282766	0.6568512
223	0xbe433da6	-0.19066486
224	0x3ed84dbf	0.42246816
225	0xbf17e396	-0.59331644
226	0x3d478199	0.04870758
227	0x3f178106	0.5918125
228	0xbdc5545c	-0.09635231
229	0x3f811e03	1.0087284
230	0x3e585d4d	0.21129341
231	0xbc38c6a1	-0.011277826
232	0xbf49f6a4	-0.7889197
233	0x3ea2bba2	0.31783777
234	0x3e61c8e5	0.22049291
235	0xbec03996	-0.37543935
236	0x3e33cf99	0.17559661
237	0xbed9870e	-0.4248585
238	0xbde2333c	-0.110449284
239	0xbe0e2013	-0.13879423
240	0x3f0301ae	0.5117444
241	0xbf1eb704	-0.6199801
242	0x3f2e7ca0	0.6815891
243	0x3f102a88	0.563149
244	0x3e4edce7	0.20201455
245	0x3e631c05	0.22178657
246	0x3cde96f7	0.027171595
247	0xbe8bfbdd	-0.27340594
248	0xbdcabb2f	-0.09898984
249	0x3e5a0b75	0.21293433
250	0xbf0bc83f	-0.54602426
251	0x3f02a9a0	0.5104008
252	0x3f156287	0.58353466
253	0x3eda04d1	0.425818
254	0x3da2c010	0.07946789
255	0x3d28e2e1	0.041231994

lstm.weight_hh_l0 f4 [32, 8]
0	0xbe422dc3	-0.18962769
1	0xbe92c66c	-0.2866701
2	0xbe344624	-0.17604882
3	0xbe9ac368	-0.30227208
4	0xbdcc70c0	-0.09982443
5	0xbe97b332	-0.29628903
6	0x3ea8af1d	0.329461
7	0xbd266ec0	-0.040632963
8	0xbe4e5828	-0.20150816
9	0x3e8b7cc1	0.27243617
10	0xbe275726	-0.16341838
11	0x3af20800	0.0018465519
12	0xbd73f160	-0.059556365
13	0x3c684d80	0.014178634
14	0x3e512aea	0.20426527
15	0x3d11f6b8	0.03563568
16	0xbd85dbf8	-0.06536096
17	0x3e158fc4	0.14605623
18	0xbe0b0372	-0.13575533
19	0x3e92850f	0.2861714
20	0x3e8d491b	0.27594838
21	0x3d4cd830	0.05001086
22	0xbe2be8bf	-0.16788004
23	0x3e5b62de	0.21424434
24	0xbe5b2c8c	-0.21403712
25	0xbe241b86	-0.16026124
26	0xbe8dcd44	-0.27695668
27	0x3e769fe6	0.24084434
28	0x3eb24583	0.34818658
29	0x3ea7eea5	0.3279926
30	0xbe8b4602	-0.2720185
31	0x3d7a0ff8	0.061050385
32	0x3e62cf02	0.2214928
33	0xbe68af84	-0.22723204
34	0x3deac090	0.1146251
35	0xbd393c28	-0.045223385
36	0x3e33c81a	0.17556801
37	0x3e94ec87	0.29086706
38	0x3e44f286	0.1923314
39	0x3e2bfcd6	0.16795668
40	0xbda144fc	-0.07874486
41	0x3e84a397	0.2590606
42	0xbd937058	-0.07199162
43	0xbe083246	-0.13300428
44	0xbe9fbd25	-0.31198993
45	0xbdc6efd0	-0.09713709
46	0xbe619b09	-0.22031797
47	0xbe88d77c	-0.26726902
48	0xbe8dd3c0	-0.27700615
49	0xbe1c1fee	-0.15246555
50	0xbe034a93	-0.12821417
51	0xbd1d82e8	-0.03845492
52	0x3a6ca800	0.00090277195
53	0xbd38b4d8	-0.04509434
54	0x3e4c806e	0.19970867
55	0xbe9fddd1	-0.3122392
56	0x3c3712a0	0.011173874
57	0x3d71a1e8	0.058992296
58	0x3d3ad4a0	0.04561293
59	0xbe3872bc	-0.18012518
60	0xbd3bf890	-0.045891345
61	0xbcb49150	-0.022041947
62	0x3bdec000	0.0067977905
63	0x3eab2e9d	0.33434
64	0x3d9f80bc	0.07788226
65	0xbe8e69b8	-0.27815032
66	0xbdba3e34	-0.090938956
67	0xbe536109	-0.20642485
68	0x3e30424e	0.17212793
69	0xbe4f2664	-0.20229489
70	0x3dbe1adc	0.09282467
71	0x3e13f392	0.14448383
72	0xbddbd838	-0.107346
73	0x3ea68513	0.32523403
74	0xbcccac70	-0.024984568
75	0x3b8b3bc0	0.004249066
76	0xbe845cd5	-0.25852075
77	0xbd5e6188	-0.05429223
78	0xbe149354	-0.14509326
79	0xbd939a50	-0.07207167
80	0xbd798700	-0.06091976
81	0xbd93ccc0	-0.07216787
82	0xbe2f7a59	-0.17136516
83	0xbe618881	-0.22024728
84	0x3dcdee7c	0.10055253
85	0x3cefbe90	0.029265672
86	0xbe16dfee	-0.1473386
87	0xbe34b276	-0.17646202
88	0xbd9e6b00	-0.077352524
89	0x3eaba05d	0.33520785
90	0xbe9c8efd	-0.3057784
91	0xbe1bade3	-0.15203051
92	0x3e863637	0.26213238
93	0xbead39b0	-0.33833075
94	0x3e07fb88	0.13279545
95	0x3e93fcb1	0.28903726
96	0xbdab66bc	-0.083692044
97	0x3c723be0	0.014784783
98	0x3da70824	0.081558496
99	0x3eaee6e7	0.3416054
100	0xbd2fac38	-0.04288885
101	0x3e9e5d65	0.3093063
102	0x3eb37ae1	0.35054687
103	0x3e096378	0.1341685
104	0xbe9b8711	-0.30376485
105	0xbeb1465c	-0.34623992
106	0x3e9c76b5	0.30559316
107	0x3ca3ccb0	0.019995064
108	0xbe182ba6	-0.148604
109	0x3e8dc00f	0.27685592
110	0xbe81ce24	-0.25352585
111	0x3e270fce	0.16314623
112	0xbdf1292a	-0.117754295
113	0xbe2efa19	-0.17087592
114	0x3e81532b	0.25258765
115	0xbd6c5b40	-0.05770421
116	0x3e1d3f4a	0.15356174
117	0xbdb2b38c	-0.08725652
118	0x3e8d5169	0.27601174
119	0xbe503996	-0.20334467
120	0x3e82cc0b	0.25546297
121	0xbe18cb0f	-0.1492121
122	0x3e92e1a9	0.2868779
123	0xbe08e340	-0.13367939
124	0xbb7ec580	-0.0038875043
125	0xbe7ed08e	-0.24884245
126	0x3df56ff0	0.11984241
127	0x3e25876e	0.16164944
128	0x3d280260	0.04101789
129	0x3e5bac72	0.21452501
130	0x3e35cac2	0.17753127
131	0x3da9043c	0.08252761
132	0xbcf27750	-0.029597908
133	0x3e697276	0.2279757
134	0xbe4d8324	-0.20069557
135	0xbe336ffa	-0.17523184
136	0xbd4dc990	-0.050241053
137	0xbeaab2d5	-0.33339563
138	0xbe75cd88	-0.24004185
139	0xbe22ad41	-0.15886404
140	0x3e89bde9	0.26902702
141	0x3e70a9d2	0.23502281
142	0x3c6c1ce0	0.014411181
143	0xbe6c22bf	-0.2306013
144	0x3e43b66a	0.19112554
145	0x3d4fb960	0.050713897
146	0x3e9323af	0.28738162
147	0xbe956e87	-0.29185888
148	0xbeb3f682	-0.35149008
149	0x3e1166c0	0.14199352
150	0x3e8e27b3	0.27764663
151	0xbe1f6b19	-0.15568198
152	0x3c230880	0.009950757
153	0x3dfae374	0.122504145
154	0xbd8c471c	-0.068495005
155	0xbdbefb28	-0.09325248
156	0xbd6fdc80	-0.058559895
157	0x3e411eaa	0.18859354
158	0x3e635802	0.22201541
159	0x3d009210	0.031389296
160	0xbcc6b5f0	-0.024256676
161	0xbe51066d	-0.20412607
162	0x3c5dca80	0.013537049
163	0xbe69629f	-0.22791527
164	0xbd25ee20	-0.040510297
165	0xbb0a7b80	-0.002113074
166	0xbe01bc13	-0.12669401
167	0xbeac3c3c	-0.33639705
168	0xbdcb1618	-0.099163234
169	0xbea0fe03	-0.31443796
170	0xbd9ff1ec	-0.07809815
171	0xbdce630c	-0.100774854
172	0xbc2208a0	-0.009889752
173	0xbdfc9d78	-0.12334722
174	0x3ea17c0d	0.31539956
175	0x3e242ece	0.1603348
176	0xbea351e9	-0.3189843
177	0xbe1b3ae7	-0.15159188
178	0xbe1ee13c	-0.15515608
179	0xbe869564	-0.2628585
180	0x3c669d60	0.014075607
181	0x3df34580	0.118784904
182	0x3e096b44	0.13419825
183	0x3d4bcd40	0.04975629
184	0x3e3c5352	0.18391159
185	0x3e56a772	0.20962313
186	0xbeb396e2	-0.35076052
187	0xbe94d9fc	-0.2907256
188	0x3e37baf6	0.17942414
189	0xbea0c9ef	-0.31404063
190	0x3e9b1643	0.30290422
191	0xbcd94150	-0.026520401
192	0x3bbd9240	0.0057852566
193	0xbe77d563	-0.24202494
194	0xbe7037a6	-0.23458728
195	0x3da99510	0.082803845
196	0xbb1ca600	-0.0023902655
197	0xbca5c220	-0.020234168
198	0x3ead67d5	0.3386828
199	0xbda8b350	-0.08237326
200	0x3c1784e0	0.009247988
201	0x3e793d7e	0.24339864
202	0xbc5dbc00	-0.013533592
203	0xbe761ab4	-0.24033624
204	0xbe8769cc	-0.26447904
205	0x3e68f176	0.2274836
206	0xbe72f577	-0.2372645
207	0xbeaae7e6	-0.3338005
208	0x3e099e72	0.13439348
209	0xbe678734	-0.2261017
210	0x3e4b0392	0.1982558
211	0x3e00a574	0.12563115
212	0x3c5098e0	0.012731761
213	0xbe73c065	-0.23803861
214	0x3e4df84e	0.20114252
215	0xbdbf6914	-0.09346214
216	0xbe8b6d23	-0.27231702
217	0xbc115360	-0.008869976
218	0xbcaabe70	-0.02084276
219	0xbea05d3e	-0.31321138
220	0x3e875933	0.2643524
221	0x3da4f580	0.08054638
222	0x3db10a0c	0.086444944
223	0x3e13603c	0.14392179
224	0x3e12b166	0.14325485
225	0x3e8c52ab	0.2740682
226	0x3e9d1701	0.30681613
227	0x3e8ad85f	0.27118203
228	0xbe4747fc	-0.19461054
229	0x3c52f1e0	0.01287505
230	0x3e8a19b7	0.26972744
231	0x3e93dc13	0.2887884
232	0xbe9efe07	-0.31053182
233	0xbe1c738b	-0.15278451
234	0xbe2d5b72	-0.16929415
235	0xbd9872c0	-0.07443762
236	0x3e306ed6	0.1722978
237	0xbe880283	-0.26564416
238	0xbe7d7f2d	-0.24755545
239	0x3e93fcf3	0.28903922
240	0x3ea183b7	0.31545803
241	0xbe859486	-0.26089877
242	0x3eb4d96b	0.35322127
243	0xbdce9f58	-0.10088986
244	0xbe1c83e2	-0.15284684
245	0x3e7567e2	0.2396541
246	0xbe7c88d1	-0.24661566
247	0x3e360a46	0.17777357
248	0x3eb34b59	0.35018423
249	0xbdb95f88	-0.09051424
250	0x3eacbd05	0.3373796
251	0x3e8f72c5	0.2801725
252	0xbe1789b6	-0.14798626
253	0x39d2c400	0.00040200353
254	0x3e9e8297	0.30959007
255	0xbe81473e	-0.25249666

lstm.bias_ih_l0 f4 [32]
0	0x3e9d3c19	0.30709913
1	0x3f06aecb	0.5261046
2	0x3e97229b	0.2951859
3	0x3ef39660	0.47575665
4	0x3e48d0cf	0.19610904
5	0x3f50f4ac	0.8162334
6	0xb81c6890	-3.729068e-05
7	0x3ee6566c	0.4498781
8	0xbda74e6c	-0.08169255
9	0xbdd03cb0	-0.10167825
10	0xbe12b638	-0.14327323
11	0xbea446af	-0.32085177
12	0xbe06c325	-0.13160379
13	0xbd6f11a0	-0.058366418
14	0x3e4b6f6a	0.1986672
15	0xbeab3f85	-0.334469
16	0x3e8c6aab	0.2742513
17	0xbd98c573	-0.074595354
18	0xbe31b875	-0.17355521
19	0xbd9d9d03	-0.07695963
20	0x3ead7292	0.33876473
21	0xbef6b849	-0.48187473
22	0xbeb39bd7	-0.35079834
23	0xbe0de69e	-0.13857505
24	0x3f2029ae	0.625636
25	0x3f0f4c7e	0.5597609
26	0x3f1dabfa	0.6159054
27	0x3f14f5a5	0.58187324
28	0x3ea18ade	0.3155126
29	0x3f18c4bb	0.59675187
30	0x3d99e2a6	0.07513933
31	0x3f75f88e	0.9608239

lstm.bias_hh_l0 f4 [32]
0	0x3f20efe8	0.6286607
1	0x3f8527d9	1.0402786
2	0x3f04be2e	0.5185269
3	0x3d1f1459	0.038837764
4	0x3d972f6f	0.07382094
5	0x3eee567b	0.46550354
6	0x3e5f592d	0.21811362
7	0x3f7f7375	0.9978555
8	0xbd5bbef8	-0.05364892
9	0x3e1ea506	0.15492639
10	0x3dc295bc	0.09501216
11	0x3e6720da	0.22571126
12	0x3e9c50b9	0.30530336
13	0xbe32ae27	-0.17449246
14	0xbbc86700	-0.006115794
15	0xbe86d808	-0.26336694
16	0x3ded0e62	0.11575009
17	0xbe864f93	-0.26232585
18	0xbf000e7b	-0.50022095
19	0x3db02738	0.086012304
20	0x3ec28912	0.379952
21	0xbedb8316	-0.42873448
22	0xbda36937	-0.079790525
23	0x3ec74b4b	0.3892463
24	0x3f46eb23	0.7770254
25	0x3f824b5a	1.0179245
26	0x3eabfea2	0.33592707
27	0x3e07f5fa	0.13277426
28	0x3ef1279a	0.47100526
29	0x3f4addeb	0.7924487
30	0x3e0aed82	0.13567165
31	0x3f1e81b0	0.6191664

lstm.weight_ih_l1 f4 [32, 8]
0	0xbeb03c6a	-0.34421092
1	0x3f3c01f8	0.73440504
2	0x3e92d43f	0.28677556
3	0x3e8b8c82	0.27255636
4	0x3f1f1631	0.62143236
5	0x3e46e4c9	0.19423212
6	0xbe63c9e0	-0.22244978
7	0xbf3ef9d9	-0.7459999
8	0xbd848bd0	-0.064719796
9	0x3f05a6eb	0.5220782
10	0xbe341e18	-0.17589605
11	0x3eee984c	0.46600568
12	0x3f380db8	0.71895933
13	0xbea5ad7c	-0.3235892
14	0xbf121a44	-0.5707133
15	0xbeaeb171	-0.34119752
16	0xbda613a9	-0.081092186
17	0xbd7dc009	-0.061950717
18	0xbe3ab186	-0.18231782
19	0x3d2403ea	0.040042795
20	0x3d912bf3	0.07088461
21	0xbdce438a	-0.10071476
22	0xbecfb80c	-0.40570104
23	0xbd83f72a	-0.06443627
24	0x3e2eb39a	0.170607
25	0xbebdbf58	-0.37060046
26	0xbd3938d5	-0.045220215
27	0xbebc7f8f	-0.3681607
28	0x3e0bed15	0.13664658
29	0xbf3f61b5	-0.74758464
30	0x3f012db4	0.5046036
31	0x3e1c1423	0.15242057
32	0x3edf9396	0.43667287
33	0xbe75a588	-0.23988926
34	0x3e16d711	0.14730479
35	0xbe18a5c7	-0.14906989
36	0x3ef57ab7	0.47945186
37	0xbec459bb	-0.3834971
38	0xbdad6282	-0.084660545
39	0x3f028f88	0.5100026
40	0xbec88664	-0.39165032
41	0xbc3f82a2	-0.01168886
42	0x3dc8c0a2	0.09802367
43	0x3ec41454	0.3829676
44	0x3ecfbaef	0.40572307
45	0xbe0887d4	-0.13333064
46	0xbf15dd4d	-0.58540803
47	0xbea5eacc	-0.32405698
48	0x3ee60863	0.44928274
49	0xbf5448e0	-0.829237
50	0xbef44f8c	-0.4771694
51	0xbeb23ee7	-0.34813616
52	0xbecebc82	-0.40378195
53	0xbf4669d9	-0.7750526
54	0xbe1e5064	-0.15460354
55	0x3f163c89	0.5868612
56	0xbdc99908	-0.098436415
57	0x3e89e956	0.26935834
58	0x3e339c36	0.17540058
59	0x3f620098	0.88282156
60	0x3f14cf40	0.5812874
61	0x3d314603	0.04327966
62	0xbf3c33c0	-0.73516464
63	0x3c47ab83	0.012186888
64	0x3dcef958	0.10106152
65	0x3ea2628f	0.3171582
66	0xbe5a517d	-0.21320148
67	0x3e3a9876	0.18222222
68	0x3e74f2c2	0.2392073
69	0x3e295bba	0.16538897
70	0x3e09c9aa	0.13455835
71	0x3d705fa0	0.058684945
72	0x3e513ef6	0.20434174
73	0xbcac6c70	-0.0210478
74	0x3e75f736	0.24020085
75	0xbd2d2758	-0.04227385
76	0x3e97968f	0.29607055
77	0xbd979040	-0.074005604
78	0x3db4719c	0.08810732
79	0xbe89478a	-0.26812392
80	0x3e1fc286	0.15601549
81	0x3d3d7050	0.046249688
82	0xbe45778a	-0.19283882
83	0xbc39a260	-0.011330217
84	0xbe1084e0	-0.14113188
85	0x3e67f512	0.2265208
86	0x3eab8a1d	0.3350381
87	0x3d234d18	0.039868444
88	0xbe6f10fa	-0.2334632
89	0xbe1a2ae6	-0.15055427
90	0xbea3c56c	-0.31986558
91	0x3e19ad16	0.15007433
92	0x3e130d94	0.14360648
93	0xbdf65774	-0.12028399
94	0x3eaf4f85	0.34240356
95	0x3e4611a6	0.1934267
96	0xbda3d178	-0.07998937
97	0x3e932f91	0.28747228
98	0x3c689e40	0.014197886
99	0xbd278bd0	-0.04090482
100	0x3cef83b0	0.029237598
101	0xbdf09fda	-0.11749239
102	0xbdc2d268	-0.09512788
103	0x3ea98c11	0.33114675
104	0x3e66c666	0.2253662
105	0x3dce4578	0.10071844
106	0xbd103618	-0.035207838
107	0x3e61d1d2	0.22052696
108	0xbcb19a70	-0.021680087
109	0xbd02eb18	-0.031962484
110	0x3e36ea0e	0.17862722
111	0xbdc3cd04	-0.09560588
112	0xbe92facb	-0.28706965
113	0x3cf58ff0	0.029975861
114	0x3db8c9a0	0.09022832
115	0x3dff0d28	0.12453681
116	0xbe291a0c	-0.16513842
117	0xbe95ed5c	-0.29282653
118	0x3e4360c2	0.19079879
119	0x3c011c80	0.00788033
120	0x3ea95c83	0.33078393
121	0x3d49a0a0	0.04922545
122	0x3e988b39	0.29793718
123	0x3e9ae0c9	0.30249622
124	0x3e7adc1a	0.24498025
125	0xbea3567e	-0.31901926
126	0x3e6c8ae2	0.23099855
127	0xbe8e280e	-0.27764934
128	0xbf1bbef0	-0.6083822
129	0x3f552ab0	0.8326826
130	0x3f5d2f8d	0.8640068
131	0x3eedd5eb	0.4645227
132	0x3e44f8bd	0.19235511
133	0x3f9457b1	1.1589261
134	0xbf32f953	-0.6991169
135	0xbf2c45fc	-0.6729429
136	0x3f8dbcee	1.1073282
137	0xbf81b00e	-1.0131853
138	0xbf2ba317	-0.6704573
139	0xbf5b1171	-0.8557349
140	0xbf216aa2	-0.63053334
141	0xbf7f6fa4	-0.99779725
142	0x3ed53107	0.41638967
143	0x3f92c20a	1.1465466
144	0x3f0eb972	0.5575172
145	0xbf2eaf0c	-0.6823585
146	0xbf7f1867	-0.9964661
147	0xbef271bb	-0.47352394
148	0xbf4930cc	-0.78590083
149	0xbf95a979	-1.1692344
150	0x3f28fe17	0.6601271
151	0x3f1d5d42	0.61470425
152	0xbf65680f	-0.89611906
153	0x3f6375af	0.88851446
154	0x3edef0c9	0.4354308
155	0x3e9e52f4	0.30922663
156	0xbc49ef74	-0.0123251565
157	0x3f18a211	0.59622294
158	0xbeeb53d3	-0.4596239
159	0xbeb2f8b0	-0.34955359
160	0xbf04786f	-0.5174627
161	0x3f4c76b0	0.798686
162	0x3f2e3bb7	0.6805987
163	0x3f3a6384	0.728081
164	0x3e8c1f9e	0.27367872
165	0x3f51ba07	0.8192448
166	0xbee58c29	-0.44833496
167	0xbf51eb3d	-0.8199957
168	0xbf612e08	-0.87960863
169	0x3f0f8f45	0.56077987
170	0x3ef233fe	0.47305292
171	0x3f492119	0.7856613
172	0x3f0aeff6	0.542724
173	0x3f639a5a	0.88907397
174	0xbe6de125	-0.23230417
175	0xbedef8df	-0.4354925
176	0x3f3ae9db	0.73013085
177	0xbf3d3a95	-0.73917514
178	0xbe8f9acb	-0.28047785
179	0xbef5be7b	-0.47996888
180	0xbf3176c4	-0.69321847
181	0xbf74fd9d	-0.95699483
182	0x3e6cc742	0.23122886
183	0x3f859ed8	1.04391
184	0x3f908fff	1.1293944
185	0xbf7743da	-0.9658791
186	0xbf3c91de	-0.73660076
187	0xbf883120	-1.0639992
188	0xbebdc248	-0.37062287
189	0xbf8ab9e3	-1.0837978
190	0x3dfc0770	0.12306106
191	0x3f572cf9	0.84053
192	0xbe8f71d6	-0.28016537
193	0x3f4b69e6	0.79458463
194	0x3f1d6a0b	0.61489934
195	0x3f358099	0.7089935
196	0x3f339863	0.701544
197	0x3dc8f852	0.09812988
198	0xbed3b2b4	-0.41347277
199	0xbf301d0d	-0.6879433
200	0x3d1180a9	0.03552309
201	0x3f125653	0.5716297
202	0x3dcd9a96	0.100392506
203	0x3f4b5765	0.7943023
204	0x3ea79759	0.32732657
205	0xbdf2fd5a	-0.11864729
206	0xbf1a0d7e	-0.6017684
207	0x3c3adcbf	0.011405169
208	0x3dd359ed	0.10319886
209	0xbe45ccd6	-0.1931642
210	0x3dc91c7c	0.09819886
211	0x3e428e83	0.18999676
212	0x3ef2c97a	0.4741934
213	0xbdb26654	-0.08710924
214	0xbd89299d	-0.0669739
215	0x3e143158	0.14471948
216	0x3f18f76f	0.59752554
217	0xbe2aa49f	-0.1666436
218	0x39efaa35	0.00045712446
219	0xbf0720c6	-0.52784383
220	0xbd057cc7	-0.0325897
221	0xbf3e706e	-0.74390304
222	0x3e386f8d	0.18011303
223	0x3f3cadc1	0.7370263
224	0x3f08e24f	0.5347032
225	0xbdad6e6a	-0.084683254
226	0xbdac9030	-0.08425939
227	0xbdc4c24d	-0.096073724
228	0x3ef02f0f	0.46910903
229	0xbeef56eb	-0.46746
230	0xbe98040b	-0.29690585
231	0x3f02b876	0.51062715
232	0xbef5f6e3	-0.48039922
233	0x3ebcfe30	0.3691268
234	0x3e587bc0	0.21140957
235	0x3e3cc8e6	0.18436012
236	0x3e8ca02f	0.2746596
237	0xbdf0ff69	-0.117674656
238	0xbe0b651c	-0.13612789
239	0xbe0fbd91	-0.14037158
240	0x3f1259dc	0.57168365
241	0xbeeffc66	-0.46872252
242	0xbf1dc94c	-0.6163528
243	0xbf1e5fc3	-0.6186487
244	0xbe8f0047	-0.279299
245	0xbf33941d	-0.7014788
246	0x3e3da0ec	0.18518418
247	0x3f6b2554	0.91853833
248	0xbf276aa1	-0.6539708
249	0x3eeaa237	0.45826885
250	0x3e690b80	0.22758293
251	0x3f3f85c4	0.74813485
252	0x3f437023	0.7634298
253	0xbe85e11f	-0.26148316
254	0xbe7380de	-0.23779628
255	0xbd924b47	-0.07143264

lstm.weight_hh_l1 f4 [32, 8]
0	0xbe4eee90	-0.20208192
1	0xbdfec84e	-0.12440549
2	0xbe64ba7c	-0.22336763
3	0x3e509a8e	0.20371458
4	0xbda27b90	-0.07933724
5	0x3daf2604	0.08552173
6	0x3e8cc6ed	0.27495518
7	0x3d66d9b8	0.056359977
8	0x3ea23497	0.31680748
9	0x3db513b0	0.08841646
10	0x3e0af362	0.13569406
11	0x3e9b840b	0.30374178
12	0x3e3032a6	0.17206821
13	0x3ddff18c	0.10934743
14	0x3e7ec0aa	0.24878183
15	0xbe0987ff	-0.13430785
16	0x3da296a4	0.07938889
17	0xbd1c0a48	-0.038095742
18	0xbd6aea98	-0.057352632
19	0x3eacacbf	0.33725545
20	0xbdcbfca0	-0.09960294
21	0xbeb2da32	-0.34932095
22	0x3d50f040	0.05101037
23	0xbc9e1620	-0.01929766
24	0x3db1823c	0.08667418
25	0x3e829f35	0.2551209
26	0x3e406d32	0.18791655
27	0xbe9595f5	-0.2921597
28	0x3e8be17d	0.2732047
29	0x3dc91740	0.09818888
30	0xbe4dec04	-0.20109564
31	0xbd82137c	-0.063513726
32	0xbe90c8e8	-0.2827828
33	0xbe0d9a23	-0.1382833
34	0x3e9e16d3	0.30876788
35	0xbe860fa3	-0.26183805
36	0x3d797e08	0.06091121
37	0xbe78e14e	-0.24304697
38	0x3e8433ab	0.2582067
39	0xbd0a8dc0	-0.03382659
40	0xbdf46288	-0.11932856
41	0x3e66222a	0.2247397
42	0xbe903d8c	-0.28171957
43	0xbeaa4eb6	-0.33263177
44	0xbdff9502	-0.12479593
45	0x3e88f669	0.26750496
46	0x3d4460e0	0.04794395
47	0xbbadd580	-0.005304992
48	0x3e5abe4a	0.21361652
49	0x3e85bf4d	0.26122513
50	0x3dba8cb0	0.09108865
51	0xbd854cb4	-0.065087706
52	0x3e97f871	0.29681733
53	0x3e26cf42	0.1629
54	0x3d977a60	0.07396388
55	0x3d294198	0.04132232
56	0x3e994c41	0.2994099
57	0xbe862790	-0.2620206
58	0x3e9234a5	0.2855579
59	0xbda6beb4	-0.081418425
60	0xbdefde86	-0.11712365
61	0x3e93ffa1	0.28905967
62	0x3d347d20	0.04406464
63	0x3e6148f2	0.22000483
64	0xbe828eac	-0.25499475
65	0xbe75afe6	-0.23992881
66	0xbe993f0d	-0.29930916
67	0xbea6601a	-0.32495195
68	0x3e98eadd	0.29866686
69	0x3e55aa96	0.20865855
70	0x3de345d8	0.11097306
71	0xbdf149e8	-0.117816746
72	0xbe64e763	-0.22353892
73	0xbe917334	-0.28408206
74	0x3e2b2ea6	0.16717014
75	0x3ea9276b	0.33037886
76	0x3d6747d0	0.05646497
77	0xbd89bb38	-0.06725162
78	0xbe813e77	-0.2524297
79	0xbe88cc68	-0.2671845
80	0xbe6367bc	-0.2220754
81	0x3e5a97c2	0.21346954
82	0x3d5f1638	0.05446455
83	0x3e52d9ce	0.20590898
84	0x3d3b2f60	0.045699477
85	0xbe26d21f	-0.16291092
86	0x3dc71068	0.09719926
87	0xbe940b5e	-0.28914922
88	0x3ea66eb7	0.32506344
89	0x3e2cf1f2	0.1688917
90	0xbe21e946	-0.15811643
91	0xbd6a2858	-0.05716738
92	0x3d6189b0	0.05506295
93	0x3de73ebc	0.112912625
94	0x3dfc02d0	0.12305224
95	0x3e6ef90a	0.23337188
96	0x3e6c6922	0.2308698
97	0xbe700698	-0.23440015
98	0xbe39d628	-0.181481
99	0xbd7b1048	-0.061294824
100	0x3e1a7ac6	0.15085897
101	0xbb1c8680	-0.002388388
102	0x3e532746	0.2062045
103	0xbe8804c6	-0.26566142
104	0x3c59d980	0.013296485
105	0x3e1f19ee	0.15537235
106	0x3e43942e	0.19099495
107	0x3daa37a8	0.08311397
108	0x3e031424	0.12800652
109	0x3de7b3c8	0.113135874
110	0xbd6b6f20	-0.057479024
111	0xbeb04073	-0.3442417
112	0x3dedce6c	0.116116375
113	0x3a302200	0.00067189336
114	0x3d733c88	0.0593839
115	0x3d933e88	0.07189661
116	0x3e9d0b37	0.3067262
117	0x3e091cc2	0.13389876
118	0x3df60f00	0.1201458
119	0xbe10b778	-0.14132488
120	0xbe1a5f6f	-0.15075468
121	0xbe7b151a	-0.24519768
122	0x3e5b8942	0.21439078
123	0x3e370fe6	0.17877159
124	0xbe85244f	-0.26004264
125	0x3db04228	0.08606368
126	0xbe16ad43	-0.14714532
127	0x3dee0d70	0.11623657
128	0x3cfb9b10	0.030713588
129	0xbe9a5332	-0.30141598
130	0x3e620fde	0.22076365
131	0x3e9ad919	0.30243757
132	0xbe9d15a3	-0.3068057
133	0x3ea652bb	0.32484993
134	0x3e4fdb86	0.20298585
135	0xbde27492	-0.1105739
136	0xbd565658	-0.052328438
137	0xbd0d2840	-0.034462214
138	0xbcceaad0	-0.025227934
139	0x3ea41411	0.3204656
140	0xbe86e616	-0.26347417
141	0x3e3b2aca	0.18278041
142	0xbe6eaec4	-0.23308855
143	0xbe79ff8c	-0.2441389
144	0x3e4aac3e	0.19792268
145	0xbda9e340	-0.082952976
146	0xbaa05300	-0.0012231767
147	0x3e8d557d	0.27604285
148	0x3dac8448	0.08423668
149	0x3c3503e0	0.011048287
150	0x3dce017c	0.10058877
151	0x3e8c870f	0.27446792
152	0xbe68a7f5	-0.2272032
153	0xbdd8993c	-0.10576102
154	0x3eb41879	0.3517492
155	0xbe9b47f6	-0.3032834
156	0x3b062d00	0.00204736
157	0xbe96be34	-0.29441988
158	0x3cb4f000	0.022087097
159	0x3e042b72	0.12907198
160	0x3ea82a97	0.32844993
161	0xbeaf9eb0	-0.34300756
162	0x3e332622	0.17495015
163	0x3e44363e	0.19161317
164	0x3d7547d8	0.05988297
165	0x3e975449	0.29556492
166	0x3cea65e0	0.02861303
167	0x3e00a57a	0.12563124
168	0xbeafc0bf	-0.3432674
169	0xbe3d112c	-0.18463582
170	0xbde18bd2	-0.11012997
171	0x3e49344e	0.19648859
172	0x3de5f9b4	0.11229268
173	0xbe6149e2	-0.2200084
174	0x3e2a96e6	0.16659126
175	0x3d387ca0	0.045040727
176	0xbace2a00	-0.001572907
177	0x3e637b1e	0.22214934
178	0xbe58220b	-0.21106736
179	0x3e2d9faa	0.16955438
180	0x3e046c00	0.12931824
181	0xbd58e570	-0.052953184
182	0x3e07a474	0.13246328
183	0xbe97f19b	-0.29676518
184	0x3d9ce5ac	0.07660994
185	0x3d038418	0.032108396
186	0xbea1e970	-0.3162341
187	0x3e801821	0.2501841
188	0xbe690f87	-0.2275983
189	0xbe398d03	-0.18120198
190	0x3e0d9a26	0.13828334
191	0x3e930f21	0.2872248
192	0x3daa9750	0.08329642
193	0x3e75f906	0.24020776
194	0x3e27cb8a	0.16386238
195	0xbe4fb4c3	-0.20283799
196	0x3c5acf00	0.013355017
197	0xbe330ac0	-0.1748457
198	0xbe0858d8	-0.13315141
199	0xbe88b151	-0.26697782
200	0x3d5e2f98	0.054244608
201	0xbe54fb26	-0.2079893
202	0x3ea3078b	0.31841692
203	0x3e8c8703	0.27446756
204	0xbd3fba88	-0.04680875
205	0xbe15c601	-0.14626314
206	0x3e253ae2	0.16135743
207	0xbe17c973	-0.1482294
208	0x3e049ec8	0.12951195
209	0x3e8ef205	0.2791902
210	0x3e2b2a22	0.16715291
211	0x3e6ea492	0.23304966
212	0xbcc17d90	-0.023619443
213	0xbd496320	-0.0491668
214	0xbe67ef18	-0.22649801
215	0x3ea4a31d	0.32155696
216	0xbe946518	-0.28983378
217	0x3e90e03f	0.28296086
218	0x3e9ca2a7	0.30592844
219	0xbea198d4	-0.3156191
220	0xbbb67dc0	-0.00556919
221	0x3e3ebb36	0.18626103
222	0x3e460f86	0.19341859
223	0x3e39b93e	0.1813707
224	0xbdbfe304	-0.09369472
225	0x3e11901e	0.14215133
226	0x3eadbccb	0.339331
227	0xbeb3f81c	-0.3515023
228	0xbeb1f6ac	-0.34758508
229	0xbdc02560	-0.09382129
230	0xbdf8d614	-0.12150207
231	0xbd7195b0	-0.058980644
232	0x3dcd05cc	0.10010871
233	0x3e60b52a	0.21944109
234	0xbe820fb2	-0.254026
235	0x3e90b2e7	0.28261492
236	0xbe527eeb	-0.20556228
237	0x3cfe89d0	0.031071573
238	0x3d5d24c8	0.053990155
239	0xbe1ae563	-0.15126567
240	0xbe5d905f	-0.21637104
241	0x3e06dad8	0.1316942
242	0xbe88eaea	-0.26741725
243	0xbe558308	-0.20850766
244	0x3cd55d60	0.026045501
245	0x3e78849a	0.24269333
246	0x3e68be9a	0.22728959
247	0xbc746480	-0.014916539
248	0xbb98eb40	-0.004666716
249	0xbea0a6dc	-0.31377304
250	0x3e39e7d2	0.18154839
251	0xbe69496c	-0.22781914
252	0x3ca69610	0.020335227
253	0x3c56c220	0.013107806
254	0x3be431c0	0.0069639385
255	0xbeb1e1ce	-0.34742588

lstm.bias_ih_l1 f4 [32]
0	0x3ed51d8e	0.4162411
1	0x3f3c17d4	0.7347386
2	0x3f15c350	0.5850115
3	0x3ed41e5e	0.41429418
4	0x3f362ece	0.7116517
5	0x3ed464a1	0.41483024
6	0x3efdaf1e	0.49547666
7	0x3fa8d1c7	1.3189019
8	0xbeb2fcdc	-0.3495854
9	0x3d067ea8	0.032835633
10	0x3d3abfc0	0.045593023
11	0xbe97333b	-0.29531273
12	0xbdb1c3c8	-0.086799204
13	0x3ea07e1b	0.3134621
14	0xbea61d91	-0.32444432
15	0x3e849279	0.25893
16	0xbb94e4b3	-0.0045438646
17	0x3ea6ac17	0.3255317
18	0x3efc2d9a	0.4925354
19	0xbf477232	-0.77908623
20	0xbeadf7e6	-0.33978194
21	0xbe945e8f	-0.28978392
22	0x3ee8d069	0.45471504
23	0x3e3315ca	0.1748878
24	0x3f16276c	0.58653903
25	0x3f69a29d	0.91263753
26	0x3f6f2094	0.93409085
27	0x3f024b2a	0.5089594
28	0x3f29c6d2	0.66319
29	0x3e943c11	0.28952077
30	0x3ee050df	0.438117
31	0x3f565075	0.8371652

lstm.bias_hh_l1 f4 [32]
0	0x3f05f9ca	0.5233427
1	0x3f5df633	0.86703795
2	0x3f80f92c	1.0076041
3	0x3ea50118	0.32227397
4	0x3f04a96f	0.51821035
5	0x3e96b8e7	0.29437944
6	0x3eecf18d	0.4627804
7	0x3f71b0dd	0.94410497
8	0x3d97726c	0.07394871
9	0xbe947100	-0.28992462
10	0xbe2a12f0	-0.16608787
11	0x3d8a31b4	0.06747761
12	0xbe9c7fe1	-0.30566314
13	0x3dd3cf38	0.10342258
14	0x3e7a187a	0.244234
15	0xbdf9a5c0	-0.121898174
16	0xbe2ffeea	-0.17187086
17	0x3ec10b44	0.37703907
18	0x3e1658ea	0.14682356
19	0xbde5896f	-0.11207854
20	0xbec4a5b2	-0.38407665
21	0xbe099dc9	-0.13439097
22	0x3f159468	0.58429575
23	0x3ed1a52c	0.4094633
24	0x3ec8f219	0.39247206
25	0x3f929613	1.1452049
26	0x3f79c947	0.9757275
27	0x3e24ec91	0.16105868
28	0x3f182497	0.5943083
29	0x3ed71ca5	0.42014042
30	0x3f375147	0.71608394
31	0x3f672274	0.90286946

lstm.weight_ih_l2 f4 [32, 8]
0	0x3f651847	0.8949017
1	0xbeca9dda	-0.39573556
2	0xbd9e1a2c	-0.07719836
3	0xbe10fdf3	-0.14159374
4	0x3ea57006	0.3231203
5	0x3eb9a832	0.36261135
6	0x3ebebed3	0.37254962
7	0xbf00b6cc	-0.50278926
8	0xbdf4d111	-0.11953939
9	0x3f19571f	0.5989856
10	0x3f08e0f0	0.5346823
11	0xbf664f87	-0.899651
12	0xbf0d8571	-0.5528174
13	0xbf24d757	-0.6439108
14	0x3f26185b	0.64880913
15	0x3f3b6cb3	0.73212737
16	0x3e455ba0	0.19273233
17	0x3e25ec10	0.16203332
18	0x3e33fd68	0.17577136
19	0xbe4faaf9	-0.20280065
20	0x3cdb47d0	0.026767641
21	0x3eb5c0f4	0.35498774
22	0x3f633cd7	0.8876471
23	0x3ea918bb	0.3302668
24	0x3f6cb350	0.9246111
25	0xbe0d25fc	-0.13784021
26	0x3de6629d	0.11249278
27	0xbea10488	-0.3144877
28	0xbeb857f8	-0.36004615
29	0x3e4f5cf0	0.20250297
30	0x3f2394d0	0.63898945
31	0xbead6d6e	-0.3387255
32	0x3eb12a32	0.34602505
33	0xbe881447	-0.2657797
34	0xbdca5b82	-0.09880735
35	0xbe7a48ec	-0.2444188
36	0xbeadf19f	-0.33973405
37	0x3eb5434b	0.35402903
38	0x3f674b31	0.9034911
39	0xbebae198	-0.3650024
40	0x3d1ba0e1	0.037995223
41	0x3e728272	0.23682573
42	0x3f161956	0.5863241
43	0xbdd99700	-0.10624504
44	0xbe62502b	-0.22100894
45	0xbe1d90bc	-0.15387243
46	0x3f2830bf	0.6569938
47	0x3e9f349c	0.31094825
48	0xbe3c8be1	-0.18412735
49	0x3f812e45	1.0092245
50	0x3f3dd0e9	0.74146897
51	0xbf02d858	-0.51111364
52	0xbe99591c	-0.29950798
53	0xbee4f208	-0.44715905
54	0x3f41869a	0.7559601
55	0x3f88b4d9	1.068019
56	0x3ed0bf5b	0.40770993
57	0xbf4e7782	-0.80651104
58	0xbe843d4e	-0.25828022
59	0x3dd1e3c0	0.10248518
60	0x3f011193	0.5041744
61	0x3d92ff6a	0.071776226
62	0xbe34b66a	-0.1764771
63	0xbf754f4e	-0.95824134
64	0x3e95a0c9	0.29224232
65	0x3dbac354	0.09119287
66	0x3e6f8212	0.23389462
67	0x3e691642	0.22762397
68	0x3cac6910	0.021046191
69	0x3e859277	0.26088306
70	0x3e46e09a	0.19421616
71	0x3df0e6bc	0.11762759
72	0xbbd8cf00	-0.006616473
73	0xbcd11d70	-0.025526732
74	0xbe8fa111	-0.2805257
75	0x3eb0b673	0.34514198
76	0xbcf7a250	-0.030228764
77	0xbe062372	-0.13099459
78	0xbe9dd45b	-0.30826077
79	0x3dec5ac4	0.1154075
80	0x3ea7e15b	0.3278912
81	0xbbc7cd40	-0.0060974658
82	0xbd2fa4a8	-0.042881638
83	0x3e38d54e	0.1805012
84	0x3e153434	0.14570695
85	0xbd24d820	-0.040245175
86	0xbead8a8a	-0.3389476
87	0x3e12fb26	0.14353618
88	0xbe0272d7	-0.1273912
89	0x3d11e138	0.035615176
90	0x3d80aa24	0.06282452
91	0xbdb61430	-0.08890569
92	0xbdbfa334	-0.093573004
93	0xbe80e77f	-0.25176618
94	0xbeb14995	-0.3462645
95	0xbd1b5ea8	-0.037932068
96	0x3e29b182	0.1657162
97	0xbe7765e0	-0.24159956
98	0x3cb60ce0	0.022222936
99	0xbd1548f8	-0.03644654
100	0xbead7063	-0.33874807
101	0xbd95f32c	-0.07321772
102	0xbe6b4b58	-0.2297796
103	0xbe6f7b51	-0.23386885
104	0x3dab02e0	0.08350158
105	0xbe087ba6	-0.13328418
106	0xbe8f29d7	-0.2796161
107	0xbdcab418	-0.098976314
108	0x3e519966	0.20468673
109	0x3d6ccba8	0.05781141
110	0x3d9e8174	0.07739535
111	0x3e59b9e2	0.21262315
112	0xbdcf89f4	-0.10133734
113	0x3d3f6ef8	0.046736687
114	0xbdb87ffc	-0.09008786
115	0xbe0ae3fb	-0.1356353
116	0xbdb5d1a8	-0.088778794
117	0xbde1ccac	-0.11025366
118	0x3d39b7e0	0.045341372
119	0x3e3bb9a2	0.18332532
120	0x3e32fd82	0.17479518
121	0xbd977090	-0.073945165
122	0x3d97676c	0.07392773
123	0xbe914538	-0.28373122
124	0xbe0c9b5f	-0.13731144
125	0xbe00aa01	-0.12564851
126	0x3e8894b5	0.26675954
127	0x3e89632d	0.26833478
128	0x3ef80627	0.48442194
129	0xbfa80a54	-1.3128152
130	0xbf67ff31	-0.90623766
131	0x3edfa945	0.4368383
132	0x3f490ff5	0.78539973
133	0x3f45915c	0.77174926
134	0xbf80a28f	-1.0049609
135	0xbf91fa48	-1.1404505
136	0x3f29d720	0.6634388
137	0xbf4efea1	-0.8085728
138	0xbf627776	-0.8846353
139	0x3f5a67df	0.85314745
140	0x3f2e7524	0.6814749
141	0x3f24b8c4	0.6434443
142	0xbf59d69b	-0.85093087
143	0xbf67cec8	-0.905499
144	0x3f5eb424	0.8699362
145	0xbfa0cf03	-1.2563175
146	0xbed1a7bf	-0.40948293
147	0x3f491436	0.78546464
148	0x3ee95a8d	0.45576897
149	0x3f2d33d8	0.6765723
150	0xbec2c7f8	-0.3804319
151	0xbf9ac611	-1.2091695
152	0x3f7604e3	0.96101207
153	0xbf9bdccf	-1.217676
154	0xbef425eb	-0.4768518
155	0x3f1eb244	0.6199076
156	0x3f019c3c	0.5062902
157	0x3f01b5d3	0.50668067
158	0xbef02f76	-0.4691121
159	0xbf924f9b	-1.1430544
160	0x3f5a8cb9	0.85370976
161	0xbf58851d	-0.84578115
162	0xbf3ffe10	-0.74997044
163	0x3f45696b	0.7711398
164	0x3f613a7c	0.87979865
165	0x3ec3cfd5	0.382445
166	0xbf13cda0	-0.57735634
167	0xbfa44385	-1.2833105
168	0x3f42c399	0.7607971
169	0xbf746fa1	-0.9548283
170	0xbeb1a19f	-0.3469362
171	0x3f181f74	0.59422994
172	0x3f1dd7f5	0.6165765
173	0x3e5a85b7	0.2134007
174	0xbf00c1b5	-0.50295573
175	0xbf922993	-1.1418937
176	0x3f178d2f	0.59199804
177	0xbf6aea61	-0.91763884
178	0xbf444c0b	-0.7667853
179	0x3ed6ccda	0.41953164
180	0x3f8a4c88	1.0804605
181	0x3e9109dd	0.28327838
182	0xbee67916	-0.45014256
183	0xbf8960ae	-1.0732629
184	0xbee4c26c	-0.44679582
185	0x3f5890a1	0.84595686
186	0x3f498873	0.7872383
187	0xbf0707fc	-0.5274656
188	0xbf08cac6	-0.5343441
189	0xbf0a2119	-0.53956753
190	0x3f64e5fb	0.8941342
191	0x3f638026	0.88867414
192	0x3e92e978	0.28693748
193	0xbf39ab88	-0.7252736
194	0xbeabdb1e	-0.3356561
195	0xbe8be601	-0.27323917
196	0xbd9767ef	-0.07392871
197	0x3f2b2279	0.66849476
198	0x3e78f251	0.24311186
199	0xbf51cf24	-0.81956697
200	0x3d8db496	0.0691921
201	0x3f44a771	0.76817995
202	0x3f69a18c	0.91262126
203	0xbf378daa	-0.7170054
204	0xbf32d217	-0.6985182
205	0xbd8abb14	-0.067739636
206	0x3f25751c	0.6463182
207	0x3f3c27a1	0.7349797
208	0xbd40c3a2	-0.04706157
209	0x3ec85fbb	0.39135537
210	0x3bf44457	0.007454436
211	0xbe8c5023	-0.2740489
212	0xbea86163	-0.328868
213	0x3e9fe545	0.31229606
214	0x3f5b7b9a	0.85735476
215	0x3ddc64c6	0.107614085
216	0x3eabb4ad	0.33536282
217	0xbf2a1bef	-0.66448873
218	0xbd961b37	-0.073294096
219	0xbf06d7b6	-0.526729
220	0xbe21afb4	-0.15789682
221	0x3e81e96d	0.25373402
222	0x3f3d3f42	0.7392465
223	0xbd7fc627	-0.062444832
224	0x3e887a7d	0.2665595
225	0xbd9705ae	-0.0737413
226	0x3dd24df7	0.10268777
227	0xbe42bf05	-0.1901818
228	0xbde56a56	-0.112019226
229	0x3e3c5571	0.18391968
230	0x3eb5a9cf	0.35481116
231	0xbec3bf9a	-0.38232118
232	0xbe07d22a	-0.13263765
233	0x3eaa407a	0.33252317
234	0x3f1d1b85	0.61370116
235	0xbe087e6f	-0.1332948
236	0xbf2941c2	-0.66115963
237	0xbe79c223	-0.24390464
238	0x3f598005	0.8496097
239	0x3f0c42a5	0.5478919
240	0xbe557eac	-0.20849103
241	0x3f9aa1cd	1.2080628
242	0x3f0cfb0b	0.5507056
243	0xbf3e1f0b	-0.7426612
244	0xbf731aaa	-0.9496256
245	0xbf37de10	-0.71823215
246	0x3f6affe4	0.9179671
247	0x3f8b9806	1.0905769
248	0x3ec93260	0.39296246
249	0xbf678001	-0.90429693
250	0xbed70889	-0.419987
251	0x3ebdc37c	0.37063205
252	0x3e7f8e77	0.2495669
253	0x3e95686a	0.29181224
254	0xbeaff9cc	-0.34370267
255	0xbf567f35	-0.8378785

lstm.weight_hh_l2 f4 [32, 8]
0	0xbcabbaa0	-0.020963013
1	0x3e491c46	0.19639692
2	0x3e9e25bb	0.3088816
3	0x3cb4e6a0	0.022082627
4	0xbe2e6efc	-0.17034525
5	0xbe9b535f	-0.30337045
6	0xbe83b062	-0.25720507
7	0x3c1d9ce0	0.009619921
8	0x3e89eab9	0.26936892
9	0x3d3f3a08	0.046686202
10	0x3e6b27da	0.22964421
11	0x3e2c3cfe	0.16820142
12	0xbdb4ec2c	-0.08834109
13	0x3e8aac1f	0.27084443
14	0x3e0561d0	0.13025594
15	0xbea1b8f9	-0.31586435
16	0xbe438a5d	-0.1909575
17	0xbe50e2e5	-0.20399053
18	0x3e8375df	0.25675866
19	0x3c902470	0.0175955
20	0xbe1a45c8	-0.15065682
21	0x3e06d456	0.13166937
22	0x3c41ee20	0.011836559
23	0xbe9b391a	-0.30317003
24	0x3d7f8730	0.062384784
25	0x3e01fa00	0.12693024
26	0xbdeb2a02	-0.11482622
27	0x3e930cff	0.28720853
28	0xbe981e70	-0.29710722
29	0xbe84bc48	-0.25924897
30	0x3e0184a0	0.12648249
31	0x3e59624a	0.212289
32	0xbe671f9a	-0.22570649
33	0xbe947cab	-0.29001364
34	0x3e0cdb8a	0.13755623
35	0x3e24acce	0.16081545
36	0x3d1a85c0	0.03772521
37	0xbea90e56	-0.3301875
38	0x3e05e00a	0.13073745
39	0xbe6b324c	-0.22968405
40	0xbd615450	-0.055012047
41	0x3e8fbf11	0.2807546
42	0xbd63e798	-0.055640787
43	0xbd856844	-0.06514028
44	0xbe16ddf3	-0.14733104
45	0x3e437f36	0.19091496
46	0x3eaca42f	0.33719012
47	0xbe70ceb2	-0.23516348
48	0x3ea76421	0.3269358
49	0x3e3d0162	0.18457559
50	0xbe58adc1	-0.21160032
51	0xbe110a5d	-0.1416411
52	0x3e8819bd	0.26582137
53	0x3e86f33f	0.26357457
54	0x3d59b2b8	0.053148955
55	0xbe7c8db9	-0.24663438
56	0x3e7aff6e	0.24511501
57	0xbeb2eb8f	-0.34945342
58	0xbe6e65ee	-0.2328107
59	0x3ead56f7	0.3385541
60	0xbe9baf65	-0.30407253
61	0xbcc93e50	-0.024565846
62	0xbe87e7ae	-0.26543945
63	0x3e316b62	0.1732612
64	0xbe0e9381	-0.13923456
65	0x3da62ad0	0.081136346
66	0xbe4ff094	-0.20306617
67	0xbc8c4c00	-0.017126083
68	0xbe54bb05	-0.20774467
69	0xbe206b1d	-0.1566586
70	0xbeaf9f2b	-0.34301123
71	0xbe3f7c69	-0.18699802
72	0xbe82d5d3	-0.2555376
73	0x3dc24bf8	0.09487146
74	0x3c2712c0	0.010197341
75	0xbe916513	-0.28397426
76	0xbe8e32a3	-0.27773008
77	0xbb99dcc0	-0.004695505
78	0x3d957dc0	0.072993755
79	0xbc148460	-0.009064764
80	0xbca6ae10	-0.020346671
81	0x3e56707e	0.2094135
82	0xbe9281c1	-0.2861462
83	0xbd038520	-0.03210938
84	0x3d6ef760	0.058341384
85	0x3c3251e0	0.010883778
86	0x3e17d7b2	0.14828375
87	0xbe472474	-0.194475
88	0xbc4ed8a0	-0.01262489
89	0xbe72c98c	-0.23709697
90	0xbe647d98	-0.22313535
91	0x3cbf0b50	0.023320824
92	0xbda9ba34	-0.082874686
93	0xbe10c24e	-0.14136621
94	0xbe809ad8	-0.25118136
95	0x3d0f5030	0.034988582
96	0xbea67c78	-0.32516837
97	0x3e2a661e	0.16640517
98	0xbe4aa3e5	-0.19789083
99	0xbde1abd0	-0.11019099
100	0x3e89651b	0.2683495
101	0x3e047e14	0.1293872
102	0xbe74640e	-0.23866293
103	0xbdf2f00e	-0.11862193
104	0xbe47bfdd	-0.19506784
105	0x3e673f62	0.22582772
106	0x3e983263	0.29725942
107	0x3ea86675	0.3289067
108	0x3dcaa104	0.098939925
109	0xbc09d440	-0.008412421
110	0xbeaf5f8e	-0.3425259
111	0xbda03e28	-0.07824355
112	0x3e9ce9c9	0.30647114
113	0x3b5d8980	0.003380388
114	0x3e9c76b9	0.30559328
115	0x3ea0c31b	0.31398854
116	0x3e8aaac3	0.27083406
117	0x3dfb9fc4	0.12286332
118	0x3e14c25a	0.14527264
119	0x3e452362	0.19251779
120	0x3e391eca	0.18078151
121	0xbe0705f4	-0.13185865
122	0xbba0e180	-0.004909694
123	0xbea99758	-0.3312328
124	0x3ea4c84f	0.32184073
125	0xbe3862e4	-0.18006474
126	0x3e1fa4e6	0.15590248
127	0xbdadf464	-0.084938794
128	0xbe695ecf	-0.22790073
129	0x3d3e00a0	0.046387315
130	0x3e30059a	0.17189637
131	0xbc80b020	-0.015708983
132	0xbe3b49c3	-0.18289857
133	0xbe8ed1cd	-0.2789444
134	0x3e9a0393	0.30080852
135	0xbe9e36fb	-0.30901322
136	0xbeb0d24c	-0.34535444
137	0x3e21dcc6	0.15806875
138	0x3e1e0502	0.15431598
139	0xbd663380	-0.056201458
140	0x3e304236	0.17212757
141	0x3db3d218	0.087803066
142	0xbd63c6c0	-0.055609465
143	0x3e1f79b2	0.15573767
144	0x3e362aae	0.17789719
145	0x3d03f4a0	0.032215714
146	0x3e754b4e	0.23954508
147	0xbdbc90e4	-0.09207323
148	0x3e988be7	0.29794237
149	0xbd5eebc0	-0.054424047
150	0xbeaf504f	-0.34240958
151	0x3e1a58fa	0.15073004
152	0xbe94921d	-0.29017726
153	0xbe27b69e	-0.16378257
154	0x3e65137e	0.22370717
155	0xbe0c4665	-0.13698728
156	0xbe0f32e4	-0.13984257
157	0xbd35df58	-0.04440245
158	0xbe1e9fb2	-0.15490606
159	0xbd7163e0	-0.05893314
160	0xbe668943	-0.22513299
161	0xbe922c7c	-0.28549564
162	0x3d9032c8	0.07040936
163	0xbe846714	-0.25859892
164	0x3d4ad620	0.04952061
165	0xbd5392b0	-0.051653564
166	0xbeab241c	-0.33425987
167	0x3dd92f9c	0.10604784
168	0x3e8b299f	0.27180192
169	0xbe424cbe	-0.18974587
170	0x3e9d4247	0.30714628
171	0xbc44dd40	-0.012015641
172	0x3eb16b95	0.3465239
173	0xbda2095c	-0.079119414
174	0x3e0f9160	0.140203
175	0x3e8e0879	0.2774084
176	0xbe3fe82d	-0.18740912
177	0x3e8e50af	0.27795932
178	0x3e9d5493	0.30728588
179	0x3e9d5845	0.30731407
180	0xbdcc8510	-0.09986317
181	0xbe30137e	-0.17194936
182	0x3cd8a040	0.0264436
183	0xbe6047d2	-0.21902397
184	0x3c649da0	0.013953596
185	0x3dc8a354	0.09796777
186	0xbea8dd20	-0.32981205
187	0x3eaa66fd	0.332817
188	0xbd227978	-0.039666623
189	0x3e3410a2	0.1758447
190	0x3e992df9	0.29917887
191	0xbe90be83	-0.2827035
192	0xbeadf2fe	-0.3397445
193	0xbe63fbff	-0.22264098
194	0x3c800c10	0.015630752
195	0xbe20dbd2	-0.15708855
196	0xbc245300	-0.010029554
197	0x3defe174	0.11712924
198	0x3dcaef10	0.09908879
199	0x3d072cd8	0.03300175
200	0x3d0ecc80	0.034862995
201	0xbea0d8ca	-0.31415397
202	0x3c26a140	0.010170281
203	0xbe421158	-0.18951929
204	0xbe7e4d3e	-0.24834153
205	0xbc824d90	-0.015906125
206	0xbe489c94	-0.1959098
207	0x3d78e6c0	0.060766935
208	0xbd424e88	-0.047438174
209	0x3d7e7358	0.06212172
210	0x3e23c0d2	0.15991524
211	0xbddc7bea	-0.10765822
212	0xbd778658	-0.060430855
213	0x3e085db4	0.13316995
214	0xbeb057d1	-0.34442
215	0x3e902a71	0.2815738
216	0xbe8b74a2	-0.2723742
217	0xbe331a9d	-0.17490621
218	0x3d0b7980	0.03405142
219	0x3ea6f87f	0.32611462
220	0xbe75e138	-0.24011695
221	0x3c0dc300	0.008652449
222	0x3e8e43c1	0.27786067
223	0xbdf05392	-0.1173469
224	0x3d19df78	0.037566632
225	0x3ea1c3b9	0.31594637
226	0xbe305985	-0.17221649
227	0x3e07909a	0.13238755
228	0xbc976ab0	-0.01848349
229	0xbe82a563	-0.25516805
230	0x3c87e280	0.016587496
231	0xbe88fd61	-0.26755813
232	0xbd18b608	-0.037282974
233	0xbe5254d2	-0.20540169
234	0x3e9183eb	0.28420958
235	0x3e64d776	0.22347817
236	0x3db9a17c	0.09064004
237	0x3d629ec0	0.055327177
238	0xbe6f3142	-0.23358634
239	0x3e08b5b6	0.13350567
240	0xbd611b38	-0.0549576
241	0xbbca83c0	-0.0061802566
242	0x3ead3f03	0.33837137
243	0xbdc91fa0	-0.09820485
244	0x3e142856	0.14468512
245	0xbd9daba4	-0.076987535
246	0x3e928e17	0.2862403
247	0xbc99d170	-0.018776625
248	0x3e2bbb0a	0.16770568
249	0x3e614682	0.21999553
250	0x3e9cb2a3	0.3060504
251	0xbd49cf28	-0.049269825
252	0x3d55afb0	0.0521695
253	0xbe779012	-0.24176052
254	0x3c0563c0	0.008141458
255	0x3e6c0ad2	0.23051003

lstm.bias_ih_l2 f4 [32]
0	0x3f8a5ff0	1.0810528
1	0x3e6e80c6	0.2329131
2	0x3f76e6c8	0.96445894
3	0x3f308a95	0.6896146
4	0x3f431918	0.76210165
5	0x3f80b5ac	1.0055442
6	0x3f1a414d	0.6025589
7	0x3ee70a5f	0.451251
8	0x3b5cd300	0.0033695102
9	0x3ea28fb3	0.3175026
10	0xbe7d87a6	-0.24758777
11	0xbd168938	-0.036751956
12	0x3e9145ff	0.28373715
13	0x3e7fb71e	0.24972197
14	0x3cce7c80	0.02520585
15	0xbdadfb20	-0.08495164
16	0xbd96094f	-0.07325994
17	0xbe9b4627	-0.3032696
18	0xbec34af2	-0.38143116
19	0xbe286014	-0.16442901
20	0xbe889baa	-0.26681262
21	0xbe73b331	-0.23798825
22	0xbefeca7d	-0.4976386
23	0xbe50d4b8	-0.20393646
24	0x3f8e1ed5	1.1103159
25	0x3f40e031	0.7534209
26	0x3f44ab0d	0.768235
27	0x3f6c778f	0.9236993
28	0x3f9b9216	1.2153957
29	0x3f0c2fc7	0.547604
30	0x3f1b182f	0.60583776
31	0x3e95fbf5	0.2929379

lstm.bias_hh_l2 f4 [32]
0	0x3f20d28b	0.62821263
1	0x3e91ef09	0.28502682
2	0x3f819f46	1.0126731
3	0x3f884e89	1.0648967
4	0x3fa39d49	1.2782375
5	0x3f4198d9	0.7562385
6	0x3f4e0920	0.80482674
7	0x3f0ec83f	0.557743
8	0xbd760ca0	-0.060070634
9	0x3e644b4e	0.22294351
10	0xbe4e3295	-0.20136483
11	0xbdd69db0	-0.10479295
12	0x3dcabf44	0.09899762
13	0x3d469788	0.048484355
14	0xbe7f213e	-0.24915025
15	0xbdc003b8	-0.09375709
16	0xbdc97800	-0.09837341
17	0xbe78bf5e	-0.24291751
18	0xbe4ff5b5	-0.20308574
19	0xbeaafce8	-0.33396077
20	0xbe0948d6	-0.13406691
21	0xbf21554a	-0.63020766
22	0xbe8e8750	-0.2783761
23	0xbda3efa2	-0.08004691
24	0x3ef80c72	0.48446995
25	0x3e611d40	0.21983814
26	0x3f3d6e32	0.7399627
27	0x3f6f922a	0.93582404
28	0x3f3204aa	0.69538367
29	0x3ee93070	0.45544767
30	0x3eae3953	0.3402811
31	0x3f271336	0.6526369
