ModelSave60.pt (torch_old, 30998 bytes, 45 tensors)

lstm.weight_ih_l0 f4 [32, 8]
0.07169364 -1.182208 0.5678371 -0.2670531 0.041293945 0.079433024 -0.18868855 -0.3768936
0.19818832 -0.683511 0.06479874 0.1507831 0.02807127 0.43606916 0.16223714 0.05874279
0.25536785 -0.31389427 0.57546306 -0.14381853 0.047209933 -0.3087812 -0.59038335 0.44714135
0.12085374 -0.5782063 -0.22136842 0.5786126 -0.14700457 1.1236944 0.5463708 -0.0035088202
0.0065246443 -1.0477206 0.17478049 0.17390054 0.09175861 0.81500614 0.17350487 0.20808287
-0.7146734 0.44205526 0.35356924 -0.56243587 0.3488664 -0.23467618 0.15842763 0.06511367
0.44473872 -1.1202714 0.5785842 0.42074025 0.039215952 0.20673408 -0.091291115 -0.008452443
-0.19738172 0.011686007 -0.39893252 0.48293737 0.4078916 0.32861832 0.701891 0.14867963
-0.21168461 -0.1338159 0.06248346 -0.3093034 0.25554362 0.24237391 -0.04021269 0.3384966
-0.12325774 -0.086978525 -0.28389663 -0.15865709 -0.1161959 0.05154568 -0.115789905 0.28242162
-0.3142988 0.2820706 -0.19995488 -0.058646798 -0.06541267 0.10208371 0.344447 0.25189307
-0.24166197 -0.099191904 0.037638992 0.27996847 -0.26212448 0.12370238 0.07922715 0.32439688
-0.10889278 0.35012618 -0.2296153 0.03161931 0.19338557 0.0662913 0.067340046 0.12980947
-0.11289863 -0.3036062 -0.20709819 0.21839914 -0.043726057 0.19208947 0.2518644 0.3051559
0.1596764 -0.28090972 0.33355764 0.078419596 -0.16382328 0.00824818 0.033242404 0.3131803
0.26347396 -0.011349231 0.21877483 -0.17080326 0.28122374 -0.02082327 -0.07845628 0.2621816
0.019014286 1.1321626 0.05796297 -0.6505596 -0.11893653 -0.79899657 -0.10579855 -0.09113644
0.07876892 -1.191582 0.43217847 0.6229952 0.088793434 0.9271783 -0.08306169 0.16434102
-0.20882952 -0.75984776 0.28962275 0.8281124 0.22975801 0.68585914 0.21723409 0.4041259
0.16969971 -1.1335467 0.779494 0.39484304 -0.04934549 0.8769632 -0.1947898 -0.025654057
-0.2030206 -0.39675468 0.2530821 0.44963935 0.059015762 0.7531091 0.4903118 0.1320539
0.280233 -0.96494335 -0.06161364 0.9577598 0.43421558 0.6017968 -0.13672325 0.046646584
0.1293078 0.26989087 0.61178815 -0.91547966 -0.25636593 -0.60820454 -0.59623986 -0.19787884
-0.061059896 1.5080061 -0.572291 -0.26039013 -0.054636516 -0.7651726 0.18183498 -0.13482358
0.07910544 -1.1949372 0.520678 0.09934404 0.17958668 -0.04392855 -0.24445581 -0.30568054
-0.021337789 -0.84288615 -0.17018871 0.1655899 0.25492674 0.49836373 0.29657614 0.040274046
0.28934142 -0.66812295 0.15550888 0.16616261 0.035453342 -0.518261 -0.64093006 0.41654757
-0.083574444 -0.80572265 -0.25920805 0.77530885 -0.077898085 0.68482876 0.7773585 -0.05928578
0.40211335 -0.6773518 -0.03822628 0.63793445 -0.11547428 1.1041343 0.14090426 0.11726907
-0.7635793 0.33669266 0.18713091 -0.34341034 0.37255117 -0.31970567 0.21046005 -0.2767391
0.50136924 -0.7831404 0.6704717 0.46397832 0.29342678 0.13512175 -0.16412161 -0.24715503
-0.13858733 0.3495276 -0.70137095 0.76933813 0.47158432 0.5858452 0.24281847 0.26914117
00000000: 1dd4 923d 9752 97bf c65d 113f 2fbb 88be
00000010: d723 293d c8ad a23d 9237 41be 33f8 c0be
00000020: e1f1 4a3e 94fa 2ebf 34b5 843d e366 1a3e
00000030: b8f5 e53c 7544 df3e 7e21 263e 489c 703d
00000040: 93bf 823e c0b6 a0be 8c51 133f 2a45 13be
00000050: 345f 413d 9218 9ebe 5d23 17bf b6ef e43e
00000060: 2a82 f73d 5405 14bf 67ae 62be f51f 143f
00000070: 5e88 16be 38d5 8f3f f5de 0b3f 3cf4 65bb
00000080: afcc d53b b51b 86bf a8f9 323e fc12 323e
00000090: f0eb bb3d 3ea4 503f 43ab 313e ad13 553e
000000a0: d6f4 36bf 1155 e23e 0707 b53e ccfb 0fbf
000000b0: 9e9e b23e f44e 70be da3a 223e 515a 853d
000000c0: cbb4 e33e 0e65 8fbf 181e 143f 446b d73e
000000d0: e8a0 203d 19b2 533e d6f6 babd 1e7c 0abc
000000e0: 6f1e 4abe aa76 3f3c e240 ccbe 9143 f73e
000000f0: 2bd7 d03e a940 a83e 21af 333f 793f 183e
00000100: dac3 58be 0907 09be a8ee 7f3d 045d 9ebe
00000110: 9dd6 823e de30 783e 10b6 24bd 6d4f ad3e
00000120: 8e6e fcbd cc21 b2bd e65a 91be 0177 22be
00000130: 1ef8 edbd 9021 533d 4223 edbd 9199 903e
00000140: c6eb a0be 8f6b 903e f9c0 4cbe a037 70bd
00000150: 14f7 85bd 4411 d13d 5b5b b03e 21f8 803e
00000160: 3c76 77be 2025 cbbd 582b 1a3d 0758 8f3e
00000170: 2e35 86be ac57 fd3d d841 a23d 5917 a63e
00000180: 2e03 dfbd bd43 b33e 4620 6bbe 4083 013d
00000190: de06 463e bcc3 873d 94e9 893d c6ec 043e
000001a0: 6637 e7bd 4672 9bbe 8c11 54be 06a4 5f3e
000001b0: 181a 33bd 1ab3 443e 5ff4 803e 653d 9c3e
000001c0: 3682 233e 66d3 8fbe 11c8 aa3e 749a a03d
000001d0: 4ac1 27be 6023 073c 3029 083d 2b59 a03e
000001e0: 0fe6 863e 20f2 39bc 8206 603e 0de7 2ebe
000001f0: 8ffc 8f3e 9095 aabc b0ad a0bd ab3c 863e
00000200: d9c3 9b3c b4ea 903f 946a 6d3d 138b 26bf
00000210: ff94 f3bd 0a8b 4cbf e9ac d8bd bea5 babd
00000220: 9951 a13d c285 98bf 7f46 dd3e 9d7c 1f3f
00000230: 55d9 b53d 8f5b 6d3f 3f1c aabd 0349 283e
00000240: 68d7 55be 6285 42bf 6f49 943e 2dff 533f
00000250: af45 6b3e 7794 2f3f 9d72 5e3e 97e9 ce3e
00000260: c3c5 2d3e 0f18 91bf eb8c 473f de28 ca3e
00000270: 7f1e 4abd a980 603f fa76 47be 7528 d2bc
00000280: a2e4 4fbe 6e23 cbbe fa93 813e 2137 e63e
00000290: 83ba 713d c2cb 403f 260a fb3e 2339 073e
000002a0: b37a 8f3e 8706 77bf 965e 7cbd bf2f 753f
000002b0: 8151 de3e 5b0f 1a3f 2e01 0cbe 7d10 3f3d
000002c0: 4469 043e 232f 8a3e 269e 1c3f e05c 6abf
000002d0: 6542 83be 4bb3 1bbf 2da3 18bf c0a0 4abe
000002e0: f119 7abd 5806 c13f aa81 12bf db51 85be
000002f0: 8aca 5fbd 5ae2 43bf f332 3a3e 310f 0abe
00000300: 0802 a23d b4f3 98bf 274b 053f e374 cb3d
00000310: 92e5 373e 6cee 33bd a052 7abe 2982 9cbe
00000320: 96cc aebc 63c7 57bf f345 2ebe 6690 293e
00000330: c285 823e 8829 ff3e d4d8 973e 66f6 243d
00000340: 8f24 943e 1b0a 2bbf b83d 1f3e 8826 2a3e
00000350: 8637 113d c1ac 04bf fe13 24bf b945 d53e
00000360: 1429 abbd d743 4ebf ebb6 84be a47a 463f
00000370: 0889 9fbd f050 2f3f f700 473f a5d5 72bd
00000380: cde1 cd3e ed66 2dbf 2993 1cbd ac4f 233f
00000390: c87d ecbd 4654 8d3f 3549 103e c42a f03d
000003a0: ef79 43bf fb62 ac3e 3f9f 3f3e 7bd3 afbe
000003b0: 07bf be3e 76b0 a3be d782 573e bfb0 8dbe
000003c0: bc59 003f e47b 48bf 09a4 2b3f 918e ed3e
000003d0: 093c 963e 5b5d 0a3e 7f0f 28be 3516 7dbe
000003e0: d6e9 0dbe 48f5 b23e 0c8d 33bf 58f3 443f
000003f0: 8073 f13e f3f9 153f 68a5 783e dfcc 893e

lstm.weight_hh_l0 f4 [32, 8]
-0.18962769 -0.2866701 -0.17604882 -0.30227208 -0.09982443 -0.29628903 0.329461 -0.040632963
-0.20150816 0.27243617 -0.16341838 0.0018465519 -0.059556365 0.014178634 0.20426527 0.03563568
-0.06536096 0.14605623 -0.13575533 0.2861714 0.27594838 0.05001086 -0.16788004 0.21424434
-0.21403712 -0.16026124 -0.27695668 0.24084434 0.34818658 0.3279926 -0.2720185 0.061050385
0.2214928 -0.22723204 0.1146251 -0.045223385 0.17556801 0.29086706 0.1923314 0.16795668
-0.07874486 0.2590606 -0.07199162 -0.13300428 -0.31198993 -0.09713709 -0.22031797 -0.26726902
-0.27700615 -0.15246555 -0.12821417 -0.03845492 0.00090277195 -0.04509434 0.19970867 -0.3122392
0.011173874 0.058992296 0.04561293 -0.18012518 -0.045891345 -0.022041947 0.0067977905 0.33434
0.07788226 -0.27815032 -0.090938956 -0.20642485 0.17212793 -0.20229489 0.09282467 0.14448383
-0.107346 0.32523403 -0.024984568 0.004249066 -0.25852075 -0.05429223 -0.14509326 -0.07207167
-0.06091976 -0.07216787 -0.17136516 -0.22024728 0.10055253 0.029265672 -0.1473386 -0.17646202
-0.077352524 0.33520785 -0.3057784 -0.15203051 0.26213238 -0.33833075 0.13279545 0.28903726
-0.083692044 0.014784783 0.081558496 0.3416054 -0.04288885 0.3093063 0.35054687 0.1341685
-0.30376485 -0.34623992 0.30559316 0.019995064 -0.148604 0.27685592 -0.25352585 0.16314623
-0.117754295 -0.17087592 0.25258765 -0.05770421 0.15356174 -0.08725652 0.27601174 -0.20334467
0.25546297 -0.1492121 0.2868779 -0.13367939 -0.0038875043 -0.24884245 0.11984241 0.16164944
0.04101789 0.21452501 0.17753127 0.08252761 -0.029597908 0.2279757 -0.20069557 -0.17523184
-0.050241053 -0.33339563 -0.24004185 -0.15886404 0.26902702 0.23502281 0.014411181 -0.2306013
0.19112554 0.050713897 0.28738162 -0.29185888 -0.35149008 0.14199352 0.27764663 -0.15568198
0.009950757 0.122504145 -0.068495005 -0.09325248 -0.058559895 0.18859354 0.22201541 0.031389296
-0.024256676 -0.20412607 0.013537049 -0.22791527 -0.040510297 -0.002113074 -0.12669401 -0.33639705
-0.099163234 -0.31443796 -0.07809815 -0.100774854 -0.009889752 -0.12334722 0.31539956 0.1603348
-0.3189843 -0.15159188 -0.15515608 -0.2628585 0.014075607 0.118784904 0.13419825 0.04975629
0.18391159 0.20962313 -0.35076052 -0.2907256 0.17942414 -0.31404063 0.30290422 -0.026520401
0.0057852566 -0.24202494 -0.23458728 0.082803845 -0.0023902655 -0.020234168 0.3386828 -0.08237326
0.009247988 0.24339864 -0.013533592 -0.24033624 -0.26447904 0.2274836 -0.2372645 -0.3338005
0.13439348 -0.2261017 0.1982558 0.12563115 0.012731761 -0.23803861 0.20114252 -0.09346214
-0.27231702 -0.008869976 -0.02084276 -0.31321138 0.2643524 0.08054638 0.086444944 0.14392179
0.14325485 0.2740682 0.30681613 0.27118203 -0.19461054 0.01287505 0.26972744 0.2887884
-0.31053182 -0.15278451 -0.16929415 -0.07443762 0.1722978 -0.26564416 -0.24755545 0.28903922
0.31545803 -0.26089877 0.35322127 -0.10088986 -0.15284684 0.2396541 -0.24661566 0.17777357
0.35018423 -0.09051424 0.3373796 0.2801725 -0.14798626 0.00040200353 0.30959007 -0.25249666
00000000: c32d 42be 6cc6 92be 2446 34be 68c3 9abe
00000010: c070 ccbd 32b3 97be 1daf a83e c06e 26bd
00000020: 2858 4ebe c17c 8b3e 2657 27be 0008 f23a
00000030: 60f1 73bd 804d 683c ea2a 513e b8f6 113d
00000040: f8db 85bd c48f 153e 7203 0bbe 0f85 923e
00000050: 1b49 8d3e 30d8 4c3d bfe8 2bbe de62 5b3e
00000060: 8c2c 5bbe 861b 24be 44cd 8dbe e69f 763e
00000070: 8345 b23e a5ee a73e 0246 8bbe f80f 7a3d
00000080: 02cf 623e 84af 68be 90c0 ea3d 283c 39bd
00000090: 1ac8 333e 87ec 943e 86f2 443e d6fc 2b3e
000000a0: fc44 a1bd 97a3 843e 5870 93bd 4632 08be
000000b0: 25bd 9fbe d0ef c6bd 099b 61be 7cd7 88be
000000c0: c0d3 8dbe ee1f 1cbe 934a 03be e882 1dbd
000000d0: 00a8 6c3a d8b4 38bd 6e80 4c3e d1dd 9fbe
000000e0: a012 373c e8a1 713d a0d4 3a3d bc72 38be
000000f0: 90f8 3bbd 5091 b4bc 00c0 de3b 9d2e ab3e
00000100: bc80 9f3d b869 8ebe 343e babd 0961 53be
00000110: 4e42 303e 6426 4fbe dc1a be3d 92f3 133e
00000120: 38d8 dbbd 1385 a63e 70ac ccbc c03b 8b3b
00000130: d55c 84be 8861 5ebd 5493 14be 509a 93bd
00000140: 0087 79bd c0cc 93bd 597a 2fbe 8188 61be
00000150: 7cee cd3d 90be ef3c eedf 16be 76b2 34be
00000160: 006b 9ebd 5da0 ab3e fd8e 9cbe e3ad 1bbe
00000170: 3736 863e b039 adbe 88fb 073e b1fc 933e
00000180: bc66 abbd e03b 723c 2408 a73d e7e6 ae3e
00000190: 38ac 2fbd 655d 9e3e e17a b33e 7863 093e
000001a0: 1187 9bbe 5c46 b1be b576 9c3e b0cc a33c
000001b0: a62b 18be 0fc0 8d3e 24ce 81be ce0f 273e
000001c0: 2a29 f1bd 19fa 2ebe 2b53 813e 405b 6cbd
000001d0: 4a3f 1d3e 8cb3 b2bd 6951 8d3e 9639 50be
000001e0: 0bcc 823e 0fcb 18be a9e1 923e 40e3 08be
000001f0: 80c5 7ebb 8ed0 7ebe f06f f53d 6e87 253e
00000200: 6002 283d 72ac 5b3e c2ca 353e 3c04 a93d
00000210: 5077 f2bc 7672 693e 2483 4dbe fa6f 33be
00000220: 90c9 4dbd d5b2 aabe 88cd 75be 41ad 22be
00000230: e9bd 893e d2a9 703e e01c 6c3c bf22 6cbe
00000240: 6ab6 433e 60b9 4f3d af23 933e 876e 95be
00000250: 82f6 b3be c066 113e b327 8e3e 196b 1fbe
00000260: 8008 233c 74e3 fa3d 1c47 8cbd 28fb bebd
00000270: 80dc 6fbd aa1e 413e 0258 633e 1092 003d
00000280: f0b5 c6bc 6d06 51be 80ca 5d3c 9f62 69be
00000290: 20ee 25bd 807b 0abb 13bc 01be 3c3c acbe
000002a0: 1816 cbbd 03fe a0be ecf1 9fbd 0c63 cebd
000002b0: a008 22bc 789d fcbd 0d7c a13e ce2e 243e
000002c0: e951 a3be e73a 1bbe 3ce1 1ebe 6495 86be
000002d0: 609d 663c 8045 f33d 446b 093e 40cd 4b3d
000002e0: 5253 3c3e 72a7 563e e296 b3be fcd9 94be
000002f0: f6ba 373e efc9 a0be 4316 9b3e 5041 d9bc
00000300: 4092 bd3b 63d5 77be a637 70be 1095 a93d
00000310: 00a6 1cbb 20c2 a5bc d567 ad3e 50b3 a8bd
00000320: e084 173c 7e3d 793e 00bc 5dbc b41a 76be
00000330: cc69 87be 76f1 683e 77f5 72be e6e7 aabe
00000340: 729e 093e 3487 67be 9203 4b3e 74a5 003e
00000350: e098 503c 65c0 73be 4ef8 4d3e 1469 bfbd
00000360: 236d 8bbe 6053 11bc 70be aabc 3e5d a0be
00000370: 3359 873e 80f5 a43d 0c0a b13d 3c60 133e
00000380: 66b1 123e ab52 8c3e 0117 9d3e 5fd8 8a3e
00000390: fc47 47be e0f1 523c b719 8a3e 13dc 933e
000003a0: 07fe 9ebe 8b73 1cbe 725b 2dbe c072 98bd
000003b0: d66e 303e 8302 88be 2d7f 7dbe f3fc 933e
000003c0: b783 a13e 8694 85be 6bd9 b43e 589f cebd
000003d0: e283 1cbe e267 753e d188 7cbe 460a 363e
000003e0: 594b b33e 885f b9bd 05bd ac3e c572 8f3e
000003f0: b689 17be 00c4 d239 9782 9e3e 3e47 81be

lstm.bias_ih_l0 f4 [32]
0.30082527 0.49594623 0.39149785 0.3712422 0.08714976 1.0599153 -0.08380241 0.35705915
-0.08169255 -0.10167825 -0.14327323 -0.32085177 -0.13160379 -0.058366418 0.1986672 -0.334469
0.41147482 -0.2145414 -0.30539483 -0.18426979 0.2629674 -0.5927566 -0.20361927 -0.010573943
0.5815933 0.5067751 0.7139836 0.4557596 0.23393452 0.81192356 -0.015551203 0.8528207
00000000: c505 9a3e aaec fd3e 6872 c83e 7513 be3e
00000010: 937b b23d 4eab 873f 99a0 abbd 75d0 b63e
00000020: 6c4e a7bd b03c d0bd 38b6 12be af46 a4be
00000030: 25c3 06be a011 6fbd 6a6f 4b3e 853f abbe
00000040: d4ac d23e beb0 5bbe b65c 9cbe 38b1 3cbe
00000050: aaa3 863e e6be 17bf 9281 50be 553e 2dbc
00000060: 4ce3 143f 03bc 013f a1c7 363f 5359 e93e
00000070: 888c 6f3e 39da 4f3f 79ca 7ebc 7552 5a3f

lstm.bias_hh_l0 f4 [32]
0.6223867 1.0101205 0.61483926 -0.06567668 -0.03513831 0.70918566 0.13434848 0.9050365
-0.05364892 0.15492639 0.09501216 0.22571126 0.30530336 -0.17449246 -0.006115794 -0.26336694
0.25297353 -0.4022719 -0.6320606 -0.021297826 0.3041547 -0.53961635 0.06738849 0.5172476
0.7329827 0.96493876 0.43400517 0.0066605993 0.38942719 1.0076202 0.044981137 0.5111631
00000000: bc54 1f3f a14b 813f 1b66 1d3f 7f81 86bd
00000010: 30ed 0fbd 318d 353f a692 093e 79b0 673f
00000020: f8be 5bbd 06a5 1e3e bc95 c23d da20 673e
00000030: b950 9c3e 27ae 32be 0067 c8bb 08d8 86be
00000040: bf85 813e 95f6 cdbe b9ce 21bf c778 aebc
00000050: 2aba 9b3e 4c24 0abf fa02 8a3d 576a 043f
00000060: c1a4 3b3f 3a06 773f ed35 de3e 2841 da3b
00000070: 0063 c73e b3f9 803f 243e 383d 96db 023f

lstm.weight_ih_l1 f4 [32, 8]
-0.3987533 0.71036386 0.33847338 0.20634547 0.55548865 0.3088983 -0.20993733 -0.7818597
-0.18165013 0.5377373 -0.10762602 0.38482344 0.72676164 -0.19623572 -0.5860256 -0.35171705
-0.13025296 0.02222219 -0.110698186 0.014586121 0.07270804 0.0067803185 -0.40547693 -0.29001075
0.20835432 -0.31133446 -0.107747175 -0.25537643 0.22440808 -0.88739574 0.46046475 0.14228955
0.33627775 -0.1276945 0.15137243 -0.008114507 0.6540252 -0.5334985 -0.17722374 0.5221774
-0.41714954 -0.067664295 0.18446836 0.32042736 0.2927177 -0.051078893 -0.512366 -0.37481186
0.4860682 -0.7826945 -0.5461032 -0.28934917 -0.32597482 -0.8788722 -0.24224819 0.60212755
-0.20109297 0.26327425 0.22848117 0.8291752 0.57505155 0.122114286 -0.73766947 0.06050397
0.10106152 0.3171582 -0.21320148 0.18222222 0.2392073 0.16538897 0.13455835 0.058684945
0.20434174 -0.0210478 0.24020085 -0.04227385 0.29607055 -0.074005604 0.08810732 -0.26812392
0.15601549 0.046249688 -0.19283882 -0.011330217 -0.14113188 0.2265208 0.3350381 0.039868444
-0.2334632 -0.15055427 -0.31986558 0.15007433 0.14360648 -0.12028399 0.34240356 0.1934267
-0.07998937 0.28747228 0.014197886 -0.04090482 0.029237598 -0.11749239 -0.09512788 0.33114675
0.2253662 0.10071844 -0.035207838 0.22052696 -0.021680087 -0.031962484 0.17862722 -0.09560588
-0.28706965 0.029975861 0.09022832 0.12453681 -0.16513842 -0.29282653 0.19079879 0.00788033
0.33078393 0.04922545 0.29793718 0.30249622 0.24498025 -0.31901926 0.23099855 -0.27764934
-0.6152302 0.7389611 0.9312019 0.33587715 0.06434906 1.3059975 -0.605574 -0.64530367
1.1135277 -0.9251782 -0.7364354 -0.73649126 -0.5007117 -1.1312447 0.3427624 1.1394379
0.5718043 -0.6018195 -1.0506663 -0.37581807 -0.67151815 -1.3107384 0.58442354 0.59354615
-0.9549969 0.85583466 0.50634146 0.18313849 -0.07698759 0.7392455 -0.41264668 -0.3784134
-0.56350315 0.7510029 0.74971324 0.60600203 0.18778 0.961719 -0.4022332 -0.84043455
-0.89078194 0.4818261 0.5474662 0.6654833 0.42379844 1.0306263 -0.15141332 -0.4262814
0.77166504 -0.69120085 -0.34311622 -0.36574087 -0.6058436 -1.1054995 0.18850018 1.0469611
1.1386803 -0.8891995 -0.8053864 -0.9328679 -0.24956796 -1.2334415 0.064879194 0.84337455
-0.3404967 0.78415287 0.67551494 0.64954287 0.64012223 0.19726376 -0.4092985 -0.7378935
-0.08680041 0.59434247 0.17471644 0.70001566 0.3421062 0.018109608 -0.6250796 -0.0054811654
0.047296096 -0.10362537 0.17837133 0.17199759 0.48469874 0.0049174754 -0.08492274 -0.08604932
0.6431305 -0.10985311 -0.065601945 -0.41477308 0.047871172 -0.8826136 0.13568601 0.717561
0.44417706 0.022574056 -0.08876483 0.043024134 0.64127976 -0.60728294 -0.38573396 0.52534306
-0.48918515 0.30562615 0.29146492 0.12685 0.14646561 -0.02621164 -0.055370584 -0.19340344
0.6079116 -0.42387697 -0.68152076 -0.5657883 -0.20385759 -0.81186354 0.09956316 0.9311881
-0.7465607 0.4445826 0.26832646 0.69818735 0.7502558 -0.17018314 -0.2551881 -0.02086087
00000000: 6429 ccbe 68da 353f 624c ad3e 3a4c 533e
00000010: 8134 0e3f eb27 9e3e d0f9 56be f527 48bf
00000020: 7e02 3abe 27a9 093f 086b dcbd 9407 c53e
00000030: 0d0d 3a3f 04f2 48be c605 16bf 4214 b4be
00000040: 0861 05be 4f0b b63c bbb5 e2bd a0fa 6e3c
00000050: f4e7 943d 6f2d de3b ac9a cfbe 4a7c 94be
00000060: d65a 553e 3b67 9fbe 8daa dcbd b3c0 82be
00000070: 3bcb 653e 5e2c 63bf 09c2 eb3e 5ab4 113e
00000080: 992c ac3e 59c2 02be 6001 1b3e b6f2 04bc
00000090: 326e 273f 5c93 08bf 247a 35be 6bad 053f
000000a0: a094 d5be 9493 8abd 46e5 3c3e 0e0f a43e
000000b0: 18df 953e 1a38 51bd 6b2a 03bf 57e7 bfbe
000000c0: eedd f83e ab5e 48bf 6bcd 0bbf 9325 94be
000000d0: 2ce6 a6be c5fd 60bf e90f 78be 0825 1a3f
000000e0: 51eb 4dbe e2cb 863e f8f6 693e d344 543f
000000f0: 9436 133f 0e17 fa3d e8d7 3cbf 03d3 773d
00000100: 58f9 ce3d 8f62 a23e 7d51 5abe 7698 3a3e
00000110: c2f2 743e ba5b 293e aac9 093e a05f 703d
00000120: f63e 513e 706c acbc 36f7 753e 5827 2dbd
00000130: 8f96 973e 4090 97bd 9c71 b43d 8a47 89be
00000140: 86c2 1f3e 5070 3d3d 8a77 45be 60a2 39bc
00000150: e084 10be 12f5 673e 1d8a ab3e 184d 233d
00000160: fa10 6fbe e62a 1abe 6cc5 a3be 16ad 193e
00000170: 940d 133e 7457 f6bd 854f af3e a611 463e
00000180: 78d1 a3bd 912f 933e 409e 683c d08b 27bd
00000190: b083 ef3c da9f f0bd 68d2 c2bd 118c a93e
000001a0: 66c6 663e 7845 ce3d 1836 10bd d2d1 613e
000001b0: 709a b1bc 18eb 02bd 0eea 363e 04cd c3bd
000001c0: cbfa 92be f08f f53c a0c9 b83d 280d ff3d
000001d0: 0c1a 29be 5ced 95be c260 433e 801c 013c
000001e0: 835c a93e a0a0 493d 398b 983e c9e0 9a3e
000001f0: 1adc 7a3e 7e56 a3be e28a 6c3e 0e28 8ebe
00000200: ba7f 1dbf 8e2c 3d3f 3f63 6e3f 17f8 ab3e
00000210: 71c9 833d ed2a a73f e606 1bbf 9f32 25bf
00000220: 1388 8e3f 7ad8 6cbf 0887 3cbf b18a 3cbf
00000230: a42e 00bf a0cc 90bf 8e7e af3e 1ad9 913f
00000240: c461 123f d810 1abf 3c7c 86bf 3a6b c0be
00000250: 9de8 2bbf 47c6 a7bf c89c 153f a4f2 173f
00000260: ad7a 74bf fb17 5b3f 989f 013f a888 3b3e
00000270: abab 9dbd 313f 3d3f 6d46 d3be 67bf c1be
00000280: be41 10bf ba41 403f 35ed 3f3f f322 1b3f
00000290: 6649 403e 3733 763f 83f1 cdbe b826 57bf
000002a0: 490a 64bf e9b1 f63e bf26 0c3f 1d5d 2a3f
000002b0: 1cfc d83e 90eb 833f 180c 1bbe 8e41 dabe
000002c0: d78b 453f 8af2 30bf eeac afbe 6342 bbbe
000002d0: 9118 1bbf 0281 8dbf 3106 413e d202 863f
000002e0: 47c0 913f 94a2 63bf ce2d 4ebf 6ed0 6ebf
000002f0: be8e 7fbe 69e1 9dbf 62df 843d 65e7 573f
00000300: 9555 aebe 3ebe 483f 8cee 2c3f 7148 263f
00000310: 0ddf 233f 83ff 493e 938f d1be 97e6 3cbf
00000320: 6ac4 b1bd d426 183f dee8 323e 3a34 333f
00000330: 8b28 af3e 9a5a 943c 3705 20bf 599b b3bb
00000340: 8db9 413d 8a39 d4bd f9a6 363e 2320 303e
00000350: 6f2a f83e c622 a13b f9eb adbd a03a b0bd
00000360: 33a4 243f abfa e0bd 505a 86bd 235d d4be
00000370: 9014 443d f7f2 61bf 46f1 0a3e 14b2 373f
00000380: 2d6b e33e 3aed b83c 56ca b5bd 133a 303d
00000390: e92a 243f e576 1bbf ec7e c5be e27c 063f
000003a0: 7a76 fabe 087b 9c3e e43a 953e f7e4 013e
000003b0: 15fb 153e cbb9 d6bc 44cc 62bd 8d0b 46be
000003c0: 18a0 1b3f 6706 d9be 2578 2ebf 81d7 10bf
000003d0: 0bc0 50be 4ad6 4fbf c5e7 cb3d 5862 6e3f
000003e0: 9a1e 3fbf 55a0 e33e 1662 893e 68bc 323f
000003f0: c410 403f 7d44 2ebe 04a8 82be 6ae4 aabc

lstm.weight_hh_l1 f4 [32, 8]
-0.20208192 -0.12440549 -0.22336763 0.20371458 -0.07933724 0.08552173 0.27495518 0.056359977
0.31680748 0.08841646 0.13569406 0.30374178 0.17206821 0.10934743 0.24878183 -0.13430785
0.07938889 -0.038095742 -0.057352632 0.33725545 -0.09960294 -0.34932095 0.05101037 -0.01929766
0.08667418 0.2551209 0.18791655 -0.2921597 0.2732047 0.09818888 -0.20109564 -0.063513726
-0.2827828 -0.1382833 0.30876788 -0.26183805 0.06091121 -0.24304697 0.2582067 -0.03382659
-0.11932856 0.2247397 -0.28171957 -0.33263177 -0.12479593 0.26750496 0.04794395 -0.005304992
0.21361652 0.26122513 0.09108865 -0.065087706 0.29681733 0.1629 0.07396388 0.04132232
0.2994099 -0.2620206 0.2855579 -0.081418425 -0.11712365 0.28905967 0.04406464 0.22000483
-0.25499475 -0.23992881 -0.29930916 -0.32495195 0.29866686 0.20865855 0.11097306 -0.117816746
-0.22353892 -0.28408206 0.16717014 0.33037886 0.05646497 -0.06725162 -0.2524297 -0.2671845
-0.2220754 0.21346954 0.05446455 0.20590898 0.045699477 -0.16291092 0.09719926 -0.28914922
0.32506344 0.1688917 -0.15811643 -0.05716738 0.05506295 0.112912625 0.12305224 0.23337188
0.2308698 -0.23440015 -0.181481 -0.061294824 0.15085897 -0.002388388 0.2062045 -0.26566142
0.013296485 0.15537235 0.19099495 0.08311397 0.12800652 0.113135874 -0.057479024 -0.3442417
0.116116375 0.00067189336 0.0593839 0.07189661 0.3067262 0.13389876 0.1201458 -0.14132488
-0.15075468 -0.24519768 0.21439078 0.17877159 -0.26004264 0.08606368 -0.14714532 0.11623657
0.030713588 -0.30141598 0.22076365 0.30243757 -0.3068057 0.32484993 0.20298585 -0.1105739
-0.052328438 -0.034462214 -0.025227934 0.3204656 -0.26347417 0.18278041 -0.23308855 -0.2441389
0.19792268 -0.082952976 -0.0012231767 0.27604285 0.08423668 0.011048287 0.10058877 0.27446792
-0.2272032 -0.10576102 0.3517492 -0.3032834 0.00204736 -0.29441988 0.022087097 0.12907198
0.32844993 -0.34300756 0.17495015 0.19161317 0.05988297 0.29556492 0.02861303 0.12563124
-0.3432674 -0.18463582 -0.11012997 0.19648859 0.11229268 -0.2200084 0.16659126 0.045040727
-0.001572907 0.22214934 -0.21106736 0.16955438 0.12931824 -0.052953184 0.13246328 -0.29676518
0.07660994 0.032108396 -0.3162341 0.2501841 -0.2275983 -0.18120198 0.13828334 0.2872248
0.08329642 0.24020776 0.16386238 -0.20283799 0.013355017 -0.1748457 -0.13315141 -0.26697782
0.054244608 -0.2079893 0.31841692 0.27446756 -0.04680875 -0.14626314 0.16135743 -0.1482294
0.12951195 0.2791902 0.16715291 0.23304966 -0.023619443 -0.0491668 -0.22649801 0.32155696
-0.28983378 0.28296086 0.30592844 -0.3156191 -0.00556919 0.18626103 0.19341859 0.1813707
-0.09369472 0.14215133 0.339331 -0.3515023 -0.34758508 -0.09382129 -0.12150207 -0.058980644
0.10010871 0.21944109 -0.254026 0.28261492 -0.20556228 0.031071573 0.053990155 -0.15126567
-0.21637104 0.1316942 -0.26741725 -0.20850766 0.026045501 0.24269333 0.22728959 -0.014916539
-0.004666716 -0.31377304 0.18154839 -0.22781914 0.020335227 0.013107806 0.0069639385 -0.34742588
00000000: 90ee 4ebe 4ec8 febd 7cba 64be 8e9a 503e
00000010: 907b a2bd 0426 af3d edc6 8c3e b8d9 663d
00000020: 9734 a23e b013 b53d 62f3 0a3e 0b84 9b3e
00000030: a632 303e 8cf1 df3d aac0 7e3e ff87 09be
00000040: a496 a23d 480a 1cbd 98ea 6abd bfac ac3e
00000050: a0fc cbbd 32da b2be 40f0 503d 2016 9ebc
00000060: 3c82 b13d 359f 823e 326d 403e f595 95be
00000070: 7de1 8b3e 4017 c93d 04ec 4dbe 7c13 82bd
00000080: e8c8 90be 239a 0dbe d316 9e3e a30f 86be
00000090: 087e 793d 4ee1 78be ab33 843e c08d 0abd
000000a0: 8862 f4bd 2a22 663e 8c3d 90be b64e aabe
000000b0: 0295 ffbd 69f6 883e e060 443d 80d5 adbb
000000c0: 4abe 5a3e 4dbf 853e b08c ba3d b44c 85bd
000000d0: 71f8 973e 42cf 263e 607a 973d 9841 293d
000000e0: 414c 993e 9027 86be a534 923e b4be a6bd
000000f0: 86de efbd a1ff 933e 207d 343d f248 613e
00000100: ac8e 82be e6af 75be 0d3f 99be 1a60 a6be
00000110: ddea 983e 96aa 553e d845 e33d e849 f1bd
00000120: 63e7 64be 3473 91be a62e 2b3e 6b27 a93e
00000130: d047 673d 38bb 89bd 773e 81be 68cc 88be
00000140: bc67 63be c297 5a3e 3816 5f3d ced9 523e
00000150: 602f 3b3d 1fd2 26be 6810 c73d 5e0b 94be
00000160: b76e a63e f2f1 2c3e 46e9 21be 5828 6abd
00000170: b089 613d bc3e e73d d002 fc3d 0af9 6e3e
00000180: 2269 6c3e 9806 70be 28d6 39be 4810 7bbd
00000190: c67a 1a3e 8086 1cbb 4627 533e c604 88be
000001a0: 80d9 593c ee19 1f3e 2e94 433e a837 aa3d
000001b0: 2414 033e c8b3 e73d 206f 6bbd 7340 b0be
000001c0: 6cce ed3d 0022 303a 883c 733d 883e 933d
000001d0: 370b 9d3e c21c 093e 000f f63d 78b7 10be
000001e0: 6f5f 1abe 1a15 7bbe 4289 5b3e e60f 373e
000001f0: 4f24 85be 2842 b03d 43ad 16be 700d ee3d
00000200: 109b fb3c 3253 9abe de0f 623e 19d9 9a3e
00000210: a315 9dbe bb52 a63e 86db 4f3e 9274 e2bd
00000220: 5856 56bd 4028 0dbd d0aa cebc 1114 a43e
00000230: 16e6 86be ca2a 3b3e c4ae 6ebe 8cff 79be
00000240: 3eac 4a3e 40e3 a9bd 0053 a0ba 7d55 8d3e
00000250: 4884 ac3d e003 353c 7c01 ce3d 0f87 8c3e
00000260: f5a7 68be 3c99 d8bd 7918 b43e f647 9bbe
00000270: 002d 063b 34be 96be 00f0 b43c 722b 043e
00000280: 972a a83e b09e afbe 2226 333e 3e36 443e
00000290: d847 753d 4954 973e e065 ea3c 7aa5 003e
000002a0: bfc0 afbe 2c11 3dbe d28b e1bd 4e34 493e
000002b0: b4f9 e53d e249 61be e696 2a3e a07c 383d
000002c0: 002a ceba 1e7b 633e 0b22 58be aa9f 2d3e
000002d0: 006c 043e 70e5 58bd 74a4 073e 9bf1 97be
000002e0: ace5 9c3d 1884 033d 70e9 a1be 2118 803e
000002f0: 870f 69be 038d 39be 269a 0d3e 210f 933e
00000300: 5097 aa3d 06f9 753e 8acb 273e c3b4 4fbe
00000310: 00cf 5a3c c00a 33be d858 08be 51b1 88be
00000320: 982f 5e3d 26fb 54be 8b07 a33e 0387 8c3e
00000330: 88ba 3fbd 01c6 15be e23a 253e 73c9 17be
00000340: c89e 043e 05f2 8e3e 222a 2b3e 92a4 6e3e
00000350: 907d c1bc 2063 49bd 18ef 67be 1da3 a43e
00000360: 1865 94be 3fe0 903e a7a2 9c3e d498 a1be
00000370: c07d b6bb 36bb 3e3e 860f 463e 3eb9 393e
00000380: 04e3 bfbd 1e90 113e cbbc ad3e 1cf8 b3be
00000390: acf6 b1be 6025 c0bd 14d6 f8bd b095 71bd
000003a0: cc05 cd3d 2ab5 603e b20f 82be e7b2 903e
000003b0: eb7e 52be d089 fe3c c824 5d3d 63e5 1abe
000003c0: 5f90 5dbe d8da 063e eaea 88be 0883 55be
000003d0: 605d d53c 9a84 783e 9abe 683e 8064 74bc
000003e0: 40eb 98bb dca6 a0be d2e7 393e 6c49 69be
000003f0: 1096 a63c 20c2 563c c031 e43b cee1 b1be

lstm.bias_ih_l1 f4 [32]
0.36807346 0.7380672 0.6320834 0.49104562 0.856888 0.3283706 0.55602676 1.3007394
-0.3495854 0.032835633 0.045593023 -0.29531273 -0.086799204 0.3134621 -0.32444432 0.25893
-0.11874493 0.4359242 0.58700454 -0.83514434 -0.4098816 -0.39257377 0.5283857 0.2769089
0.54184717 0.9221739 0.9883489 0.5830072 0.8078284 0.19631273 0.4949084 0.81885684
00000000: 2074 bc3e f9f1 3c3f 38d0 213f 556a fb3e
00000010: 035d 5b3f 3120 a83e c557 0e3f a17e a63f
00000020: dcfc b2be a87e 063d c0bf 3a3d 3b33 97be
00000030: c8c3 b1bd 1b7e a03e 911d a6be 7992 843e
00000040: 8b30 f3bd 7531 df3e ee45 163f 05cc 55bf
00000050: 00dc d1be 6eff c8be 4944 073f 01c7 8d3e
00000060: 7fb6 0a3f 9713 6c3f 6f04 7d3f f63f 153f
00000070: d8cd 4e3f 3406 493e a264 fd3e 9aa0 513f

lstm.bias_hh_l1 f4 [32]
0.47517502 0.8703666 1.0546757 0.39902544 0.66344666 0.20791978 0.5233305 0.9259428
0.07394871 -0.28992462 -0.16608787 0.06747761 -0.30566314 0.10342258 0.244234 -0.121898174
-0.28607187 0.48743165 0.2412928 -0.1681366 -0.4541763 -0.23718089 0.65796643 0.5114845
0.34778047 1.1547412 1.0299855 0.23510653 0.73894674 0.32693228 0.7728752 0.8845611
00000000: 244a f33e 58d0 5e3f 9dff 863f 104d cc3e
00000010: a4d7 293f ece8 543e fdf8 053f 960a 6d3f
00000020: 6c72 973d 0071 94be f012 2abe b431 8a3d
00000030: e17f 9cbe 38cf d33d 7a18 7a3e c0a5 f9bd
00000040: 0378 92be a490 f93e 7615 773e 002c 2cbe
00000050: cc89 e8be 8cdf 72be 7d70 283f a6f0 023f
00000060: 4810 b23e 8fce 933f 91d6 833f c4bf 703e
00000070: 9d2b 3d3f ab63 a73e 26db 453f 9972 623f

lstm.weight_ih_l2 f4 [32, 8]
0.9001511 -0.42356366 -0.13348414 -0.11224168 0.447797 0.31903863 0.3487607 -0.50794667
-0.072113626 0.56802475 0.56359184 -0.97442627 -0.6753271 -0.5716064 0.7052506 0.7033946
0.37236562 0.018266996 0.079673305 -0.4029539 -0.047547847 0.5335205 1.0879763 0.19401455
1.057008 -0.24195182 -0.028043594 -0.41941744 -0.36208865 0.31484506 0.7562353 -0.41039822
0.5097932 -0.39272624 -0.20509255 -0.40243435 -0.38230997 0.491073 1.0621972 -0.438288
0.08380813 0.2223451 0.59151274 -0.17392223 -0.34931007 -0.053059705 0.72024167 0.28488728
-0.14057213 0.99737364 0.75399673 -0.5828446 -0.43639895 -0.3579461 0.81916684 1.0473473
0.3593988 -0.7898162 -0.2696896 0.18010886 0.64975125 -0.026901795 -0.24625425 -0.9313972
0.29224232 0.09119287 0.23389462 0.22762397 0.021046191 0.26088306 0.19421616 0.11762759
-0.006616473 -0.025526732 -0.2805257 0.34514198 -0.030228764 -0.13099459 -0.30826077 0.1154075
0.3278912 -0.0060974658 -0.042881638 0.1805012 0.14570695 -0.040245175 -0.3389476 0.14353618
-0.1273912 0.035615176 0.06282452 -0.08890569 -0.093573004 -0.25176618 -0.3462645 -0.037932068
0.1657162 -0.24159956 0.022222936 -0.03644654 -0.33874807 -0.07321772 -0.2297796 -0.23386885
0.08350158 -0.13328418 -0.2796161 -0.098976314 0.20468673 0.05781141 0.07739535 0.21262315
-0.10133734 0.046736687 -0.09008786 -0.1356353 -0.088778794 -0.11025366 0.045341372 0.18332532
0.17479518 -0.073945165 0.07392773 -0.28373122 -0.13731144 -0.12564851 0.26675954 0.26833478
0.42285433 -1.2801135 -0.912961 0.5267776 0.9362117 0.6693688 -1.0807364 -1.1020561
0.6328791 -0.8031174 -0.91720754 0.9164939 0.8215463 0.56922907 -0.9028695 -0.8849329
0.830187 -1.2442453 -0.4453356 0.8629454 0.6212205 0.58334047 -0.4482067 -1.179336
0.9085376 -1.1951482 -0.5021709 0.7069274 0.6700439 0.4057525 -0.5454535 -1.106666
0.8122957 -0.83221793 -0.7770574 0.8453589 1.0275594 0.2964916 -0.6398224 -1.2548432
0.74031657 -0.95482415 -0.39885744 0.65222025 0.754404 0.1510142 -0.54743433 -1.1224002
0.56466204 -0.9142903 -0.8053854 0.48168218 1.2208754 0.20946592 -0.50166965 -1.0522246
-0.38776243 0.81402457 0.797138 -0.61375 -0.68015605 -0.44500372 0.9653947 0.8533461
0.2943343 -0.75375384 -0.39483297 -0.24380754 0.04710592 0.62352633 0.21903627 -0.823385
0.1157534 0.7384734 0.94384754 -0.79099435 -0.8208049 0.0047665625 0.7028528 0.70629644
0.13547118 0.24636364 -0.10121158 -0.46757796 -0.36792448 0.49450362 1.061988 -0.032232516
0.46901566 -0.7697881 -0.21278653 -0.63149524 -0.15682626 0.36904755 0.85555875 -0.1367993
0.4219376 -0.19268827 0.0053993626 -0.34611848 -0.13260715 0.31005263 0.5161457 -0.4596538
-0.08985047 0.31968966 0.62028164 -0.19634366 -0.78263223 -0.1438203 0.90881723 0.5217234
-0.16503926 1.1948749 0.56620955 -0.8156134 -1.0876038 -0.6304732 0.9809912 1.0688947
0.34564343 -0.88727224 -0.4352108 0.44765252 0.3949831 0.19596747 -0.41192472 -0.8104383
00000000: 4d70 663f 56dd d8be 11b0 08be f7de e5bd
00000010: a645 e53e 0859 a33e c390 b23e cb08 02bf
00000020: 4fb0 93bd 126a 113f 8e47 103f 0074 79bf
00000030: 3de2 2cbf cc54 12bf 4e8b 343f ab11 343f
00000040: b5a6 be3e aba4 953c c22b a33d f94f cebe
00000050: 88c1 42bd cd94 083f cf42 8b3f c0ab 463e
00000060: 0a4c 873f 38c2 77be aebb e5bc e2bd d6be
00000070: af63 b9be 5f33 a13e a398 413f b71f d2be
00000080: cf81 023f 6a13 c9be c803 52be e00b cebe
00000090: 22be c3be ec6d fb3e 14f6 873f 4967 e0be
000000a0: 99a3 ab3d 6fae 633e 616d 173f ab18 32be
000000b0: c5d8 b2be 2255 59bd c261 383f bfdc 913e
000000c0: 24f2 0fbe e153 7f3f ee05 413f 4e35 15bf
000000d0: af6f dfbe b644 b7be ebb4 513f 7a0f 863f
000000e0: 1f03 b83e 6531 4abf c114 8abe 756e 383e
000000f0: 1956 263f 2761 dcbc 132a 7cbe 0c70 6ebf
00000100: c9a0 953e 54c3 ba3d 1282 6f3e 4216 693e
00000110: 1069 ac3c 7792 853e 9ae0 463e bce6 f03d
00000120: 00cf d8bb 701d d1bc 11a1 8fbe 73b6 b03e
00000130: 50a2 f7bc 7223 06be 5bd4 9dbe c45a ec3d
00000140: 5be1 a73e 40cd c7bb a8a4 2fbd 4ed5 383e
00000150: 3434 153e 20d8 24bd 8a8a adbe 26fb 123e
00000160: d772 02be 38e1 113d 24aa 803d 3014 b6bd
00000170: 34a3 bfbd 7fe7 80be 9549 b1be a85e 1bbd
00000180: 82b1 293e e065 77be e00c b63c f848 15bd
00000190: 6370 adbe 2cf3 95bd 584b 6bbe 517b 6fbe
000001a0: e002 ab3d a67b 08be d729 8fbe 18b4 cabd
000001b0: 6699 513e a8cb 6c3d 7481 9e3d e2b9 593e
000001c0: f489 cfbd f86e 3f3d fc7f b8bd fbe3 0abe
000001d0: a8d1 b5bd accc e1bd e0b7 393d a2b9 3b3e
000001e0: 82fd 323e 9070 97bd 6c67 973d 3845 91be
000001f0: 5f9b 0cbe 01aa 00be b594 883e 2d63 893e
00000200: 5d80 d83e c2da a3bf d0b7 69bf e6da 063f
00000210: 92ab 6f3f c15b 2b3f 9255 8abf 2d10 8dbf
00000220: 5d04 223f 1a99 4dbf 1dce 6abf 589f 6a3f
00000230: dc50 523f ffb8 113f 7522 67bf f68a 62bf
00000240: 2387 543f 6e43 9fbf 0703 e4be fde9 5c3f
00000250: 4f08 1f3f cd55 153f 597b e5be 7bf4 96bf
00000260: ec95 683f 9efa 98bf 468e 00bf 32f9 343f
00000270: ff87 2b3f cbbe cf3e d7a2 0bbf 3ba7 8dbf
00000280: 9cf2 4f3f 3c0c 55bf 3ced 46bf 7169 583f
00000290: 1187 833f bfcd 973e 67cb 23bf b49e a0bf
000002a0: 6385 3d3f 5b6f 74bf 0b37 ccbe e8f7 263f
000002b0: 9f20 413f 77a3 1a3e a824 0cbf cfaa 8fbf
000002c0: b18d 103f ee0e 6abf bd2d 4ebf 0c9f f63e
000002d0: a545 9c3f 3c7e 563e 6c6d 00bf 4caf 86bf
000002e0: cc88 c6be ea63 503f 3c11 4c3f b81e 1dbf
000002f0: b51e 2ebf 87d7 e3be 1b24 773f e474 5a3f
00000300: fcb2 963e 03f6 40bf 8c27 cabe afa8 79be
00000310: 23f2 403d 6c9f 1f3f 0b4b 603e 5cc9 52bf
00000320: 1e10 ed3d 980c 3d3f fe9f 713f 9b7e 4abf
00000330: 4520 52bf d330 9c3b 29ee 333f d8cf 343f
00000340: f5b8 0a3e c046 7c3e 0448 cfbd 6166 efbe
00000350: 9960 bcbe 942f fd3e 39ef 873f 3e06 04bd
00000360: d222 f03e d510 45bf b6e4 59be aca9 21bf
00000370: 1097 20be cdf3 bc3e e605 5b3f 1e15 0cbe
00000380: 3508 d83e 1350 45be 23ed b03b 7136 b1be
00000390: 2bca 07be 38bf 9e3e 2022 043f be57 ebbe
000003a0: 8603 b8bd 5dae a33e c7ca 1e3f 500e 49be
000003b0: 965a 48bf a145 13be 3fa8 683f aa8f 053f
000003c0: 0d00 29be a9f1 983f 1cf3 103f 0acc 50bf
000003d0: 9a36 8bbf b166 21bf 3d22 7b3f 8bd1 883f
000003e0: 2df8 b03e 4624 63bf f3d3 debe b632 e53e
000003f0: 3a3b ca3e b2ab 483e cce7 d2be e278 4fbf

lstm.weight_hh_l2 f4 [32, 8]
-0.020963013 0.19639692 0.3088816 0.022082627 -0.17034525 -0.30337045 -0.25720507 0.009619921
0.26936892 0.046686202 0.22964421 0.16820142 -0.08834109 0.27084443 0.13025594 -0.31586435
-0.1909575 -0.20399053 0.25675866 0.0175955 -0.15065682 0.13166937 0.011836559 -0.30317003
0.062384784 0.12693024 -0.11482622 0.28720853 -0.29710722 -0.25924897 0.12648249 0.212289
-0.22570649 -0.29001364 0.13755623 0.16081545 0.03772521 -0.3301875 0.13073745 -0.22968405
-0.055012047 0.2807546 -0.055640787 -0.06514028 -0.14733104 0.19091496 0.33719012 -0.23516348
0.3269358 0.18457559 -0.21160032 -0.1416411 0.26582137 0.26357457 0.053148955 -0.24663438
0.24511501 -0.34945342 -0.2328107 0.3385541 -0.30407253 -0.024565846 -0.26543945 0.1732612
-0.13923456 0.081136346 -0.20306617 -0.017126083 -0.20774467 -0.1566586 -0.34301123 -0.18699802
-0.2555376 0.09487146 0.010197341 -0.28397426 -0.27773008 -0.004695505 0.072993755 -0.009064764
-0.020346671 0.2094135 -0.2861462 -0.03210938 0.058341384 0.010883778 0.14828375 -0.194475
-0.01262489 -0.23709697 -0.22313535 0.023320824 -0.082874686 -0.14136621 -0.25118136 0.034988582
-0.32516837 0.16640517 -0.19789083 -0.11019099 0.2683495 0.1293872 -0.23866293 -0.11862193
-0.19506784 0.22582772 0.29725942 0.3289067 0.098939925 -0.008412421 -0.3425259 -0.07824355
0.30647114 0.003380388 0.30559328 0.31398854 0.27083406 0.12286332 0.14527264 0.19251779
0.18078151 -0.13185865 -0.004909694 -0.3312328 0.32184073 -0.18006474 0.15590248 -0.084938794
-0.22790073 0.046387315 0.17189637 -0.015708983 -0.18289857 -0.2789444 0.30080852 -0.30901322
-0.34535444 0.15806875 0.15431598 -0.056201458 0.17212757 0.087803066 -0.055609465 0.15573767
0.17789719 0.032215714 0.23954508 -0.09207323 0.29794237 -0.054424047 -0.34240958 0.15073004
-0.29017726 -0.16378257 0.22370717 -0.13698728 -0.13984257 -0.04440245 -0.15490606 -0.05893314
-0.22513299 -0.28549564 0.07040936 -0.25859892 0.04952061 -0.051653564 -0.33425987 0.10604784
0.27180192 -0.18974587 0.30714628 -0.012015641 0.3465239 -0.079119414 0.140203 0.2774084
-0.18740912 0.27795932 0.30728588 0.30731407 -0.09986317 -0.17194936 0.0264436 -0.21902397
0.013953596 0.09796777 -0.32981205 0.332817 -0.039666623 0.1758447 0.29917887 -0.2827035
-0.3397445 -0.22264098 0.015630752 -0.15708855 -0.010029554 0.11712924 0.09908879 0.03300175
0.034862995 -0.31415397 0.010170281 -0.18951929 -0.24834153 -0.015906125 -0.1959098 0.060766935
-0.047438174 0.06212172 0.15991524 -0.10765822 -0.060430855 0.13316995 -0.34442 0.2815738
-0.2723742 -0.17490621 0.03405142 0.32611462 -0.24011695 0.008652449 0.27786067 -0.1173469
0.037566632 0.31594637 -0.17221649 0.13238755 -0.01848349 -0.25516805 0.016587496 -0.26755813
-0.037282974 -0.20540169 0.28420958 0.22347817 0.09064004 0.055327177 -0.23358634 0.13350567
-0.0549576 -0.0061802566 0.33837137 -0.09820485 0.14468512 -0.076987535 0.2862403 -0.018776625
0.16770568 0.21999553 0.3060504 -0.049269825 0.0521695 -0.24176052 0.008141458 0.23051003
00000000: a0ba abbc 461c 493e bb25 9e3e a0e6 b43c
00000010: fc6e 2ebe 5f53 9bbe 62b0 83be e09c 1d3c
00000020: b9ea 893e 083a 3f3d da27 6b3e fe3c 2c3e
00000030: 2cec b4bd 1fac 8a3e d061 053e f9b8 a1be
00000040: 5d8a 43be e5e2 50be df75 833e 7024 903c
00000050: c845 1abe 56d4 063e 20ee 413c 1a39 9bbe
00000060: 3087 7f3d 00fa 013e 022a ebbd ff0c 933e
00000070: 701e 98be 48bc 84be a084 013e 4a62 593e
00000080: 9a1f 67be ab7c 94be 8adb 0c3e ceac 243e
00000090: c085 1a3d 560e a9be 0ae0 053e 4c32 6bbe
000000a0: 5054 61bd 11bf 8f3e 98e7 63bd 4468 85bd
000000b0: f3dd 16be 367f 433e 2fa4 ac3e b2ce 70be
000000c0: 2164 a73e 6201 3d3e c1ad 58be 5d0a 11be
000000d0: bd19 883e 3ff3 863e b8b2 593d b98d 7cbe
000000e0: 6eff 7a3e 8feb b2be ee65 6ebe f756 ad3e
000000f0: 65af 9bbe 503e c9bc aee7 87be 626b 313e
00000100: 8193 0ebe d02a a63d 94f0 4fbe 004c 8cbc
00000110: 05bb 54be 1d6b 20be 2b9f afbe 697c 3fbe
00000120: d3d5 82be f84b c23d c012 273c 1365 91be
00000130: a332 8ebe c0dc 99bb c07d 953d 6084 14bc
00000140: 10ae a6bc 7e70 563e c181 92be 2085 03bd
00000150: 60f7 6e3d e051 323c b2d7 173e 7424 47be
00000160: a0d8 4ebc 8cc9 72be 987d 64be 500b bf3c
00000170: 34ba a9bd 4ec2 10be d89a 80be 3050 0f3d
00000180: 787c a6be 1e66 2a3e e5a3 4abe d0ab e1bd
00000190: 1b65 893e 147e 043e 0e64 74be 0ef0 f2bd
000001a0: ddbf 47be 623f 673e 6332 983e 7566 a83e
000001b0: 04a1 ca3d 40d4 09bc 8e5f afbe 283e a0bd
000001c0: c9e9 9c3e 8089 5d3b b976 9c3e 1bc3 a03e
000001d0: c3aa 8a3e c49f fb3d 5ac2 143e 6223 453e
000001e0: ca1e 393e f405 07be 80e1 a0bb 5897 a9be
000001f0: 4fc8 a43e e462 38be e6a4 1f3e 64f4 adbd
00000200: cf5e 69be a000 3e3d 9a05 303e 20b0 80bc
00000210: c349 3bbe cdd1 8ebe 9303 9a3e fb36 9ebe
00000220: 4cd2 b0be c6dc 213e 0205 1e3e 8033 66bd
00000230: 3642 303e 18d2 b33d c0c6 63bd b279 1f3e
00000240: ae2a 363e a0f4 033d 4e4b 753e e490 bcbd
00000250: e78b 983e c0eb 5ebd 4f50 afbe fa58 1a3e
00000260: 1d92 94be 9eb6 27be 7e13 653e 6546 0cbe
00000270: e432 0fbe 58df 35bd b29f 1ebe e063 71bd
00000280: 4389 66be 7c2c 92be c832 903d 1467 84be
00000290: 20d6 4a3d b092 53bd 1c24 abbe 9c2f d93d
000002a0: 9f29 8b3e be4c 42be 4742 9d3e 40dd 44bc
000002b0: 956b b13e 5c09 a2bd 6091 0f3e 7908 8e3e
000002c0: 2de8 3fbe af50 8e3e 9354 9d3e 4558 9d3e
000002d0: 1085 ccbd 7e13 30be 40a0 d83c d247 60be
000002e0: a09d 643c 54a3 c83d 20dd a8be fd66 aa3e
000002f0: 7879 22bd a210 343e f92d 993e 83be 90be
00000300: fef2 adbe fffb 63be 100c 803c d2db 20be
00000310: 0053 24bc 74e1 ef3d 10ef ca3d d82c 073d
00000320: 80cc 0e3d cad8 a0be 40a1 263c 5811 42be
00000330: 3e4d 7ebe 904d 82bc 949c 48be c0e6 783d
00000340: 884e 42bd 5873 7e3d d2c0 233e ea7b dcbd
00000350: 5886 77bd b45d 083e d157 b0be 712a 903e
00000360: a274 8bbe 9d1a 33be 8079 0b3d 7ff8 a63e
00000370: 38e1 75be 00c3 0d3c c143 8e3e 9253 f0bd
00000380: 78df 193d b9c3 a13e 8559 30be 9a90 073e
00000390: b06a 97bc 63a5 82be 80e2 873c 61fd 88be
000003a0: 08b6 18bd d254 52be eb83 913e 76d7 643e
000003b0: 7ca1 b93d c09e 623d 4231 6fbe b6b5 083e
000003c0: 381b 61bd c083 cabb 033f ad3e a01f c9bd
000003d0: 5628 143e a4ab 9dbd 178e 923e 70d1 99bc
000003e0: 0abb 2b3e 8246 613e a3b2 9c3e 28cf 49bd
000003f0: b0af 553d 1290 77be c063 053c d20a 6c3e

lstm.bias_ih_l2 f4 [32]
1.052903 0.30576727 1.1807475 0.80751926 0.92069775 1.0785375 0.6758586 0.37127846
0.0033695102 0.3175026 -0.24758777 -0.036751956 0.28373715 0.24972197 0.02520585 -0.08495164
-0.16469415 -0.3661729 -0.45775503 -0.25122675 -0.34129903 -0.29282424 -0.5587236 -0.11665984
1.0830065 0.82571894 0.9866579 1.0420226 1.3737317 0.6162895 0.6794431 0.21405968
00000000: 87c5 863f 878d 9c3e bc22 973f 95b9 4e3f
00000010: d9b2 6b3f 840d 8a3f 1205 2d3f 3618 be3e
00000020: 00d3 5c3b b38f a23e a687 7dbe 3889 16bd
00000030: ff45 913e 1eb7 7f3e 807c ce3c 20fb adbd
00000040: 95a5 28be 047b bbbe de5e eabe cba0 80be
00000050: bfbe aebe 0fed 95be 8308 0fbf 5beb eebd
00000060: f59f 8a3f 5162 533f 9d95 7c3f ff60 853f
00000070: 71d6 af3f 26c5 1d3f fcef 2d3f 7632 5b3e

lstm.bias_hh_l2 f4 [32]
0.60006285 0.35788098 1.2289617 1.182801 1.4368335 0.82923186 0.87812644 0.47777045
-0.060070634 0.22294351 -0.20136483 -0.10479295 0.09899762 0.048484355 -0.24915025 -0.09375709
-0.18980761 -0.30582082 -0.27940965 -0.42075855 -0.20855328 -0.68504375 -0.33946097 0.007229707
0.45716026 0.29213616 0.9583856 1.0541472 0.8537196 0.5241331 0.41388616 0.5737586
00000000: b89d 193f 2d3c b73e 9e4e 9d3f 0666 973f
00000010: 29ea b73f 8a48 543f e5cc 603f 549e f43e
00000020: a00c 76bd 4e4b 643e 9532 4ebe b09d d6bd
00000030: 44bf ca3d 8897 463d 3e21 7fbe b803 c0bd
00000040: ed5c 42be 8c94 9cbe c80e 8fbe aa6d d7be
00000050: fe8e 55be 075f 2fbf d4cd adbe 2ee7 ec3b
00000060: e910 ea3e df92 953e c258 753f 4cee 863f
00000070: 5e8d 5a3f 962d 063f e3e8 d33e d8e1 123f

lstm.weight_ih_l3 f4 [32, 8]
0.43866375 -0.52206916 -0.21479031 -0.16351026 0.15693921 -0.4139306 -0.69915456 -0.16473636
0.3904109 -0.8191264 -0.04334922 0.3558 -0.119432084 -0.62661046 -0.38912138 0.014905473
0.20320381 -0.8850755 -0.4447077 0.010301179 -0.4180906 -0.67236173 -1.1570959 -0.051573593
-0.059875682 -0.46054363 0.12684976 -0.14318724 -0.033251647 -0.2511337 -0.694868 -0.5405314
-0.6463773 -0.46309936 -0.7659572 -0.74856156 -0.35269895 -0.6701545 -0.93970495 0.24337652
-0.38948104 -0.49894568 -0.68311113 -0.24697134 -0.8132128 -1.0402715 -0.8959282 -0.22559965
-0.17074278 -0.948921 -0.4816138 -0.14871554 -0.39509916 -0.696415 -0.9856845 -0.051055714
0.47814015 0.21751863 0.45620084 0.460416 0.7152695 0.6625705 0.15829712 -0.5103806
0.07304323 -0.18310471 -0.28629518 -0.29158837 0.23661014 0.011034757 -0.14017962 0.034956604
0.06862098 0.015433162 -0.032129377 0.16228351 -0.1496791 -0.030076504 -0.31034702 -0.28411055
-0.20106247 0.06728682 0.17093709 -0.2883779 0.33510897 0.25201812 -0.15753834 0.10808855
-0.2644209 0.31419381 0.15506658 0.15419069 0.16548899 -0.18542345 -0.11083558 -0.34281212
0.2264739 0.16770431 0.26749578 -0.31718832 0.339471 -0.21099614 -0.22562476 -0.035736322
-0.29447892 0.21127155 -0.14301905 -0.18953918 0.1386866 0.29942194 0.31502083 0.33871767
-0.12814921 -0.013997465 0.34824923 0.29138824 -0.3017924 0.1397692 -0.24348664 -0.086364925
-0.09904483 -0.08499944 -0.31832826 0.3321685 0.19514331 0.30411068 0.18523052 -0.13904257
1.1454239 0.63790333 1.27443 0.83138645 1.1085544 0.70198876 0.91512644 -0.7333505
-0.56064725 -0.86639315 -1.1050012 -1.2179275 -0.95137614 -0.5728201 -0.6954076 0.6421423
1.0419528 0.7770315 0.7608238 1.2116553 0.97920096 0.9473497 0.8879837 -0.63053083
0.5559131 0.8933478 1.1450518 1.1356205 1.1274651 0.5077108 0.70307237 -0.318779
0.97816986 0.70003587 0.9552032 1.1250323 1.0029135 0.39808506 0.8122281 -0.6215373
0.8283023 0.7514414 0.6856831 0.8488131 1.1833918 0.6267083 0.9381361 -0.51900536
0.8283552 0.565974 1.1222728 0.9396987 1.0158737 1.0203097 0.9155388 -0.34649006
0.58830464 0.7691819 0.9395595 0.31210452 0.9445496 0.89734435 0.3012597 -0.55036616
0.41371045 -1.0437037 -0.14237665 0.22504146 0.23330213 -0.764281 -0.98871976 0.032412447
0.5137637 -0.691809 -0.20745412 -0.07782521 0.24372226 -0.6902789 -0.72214097 -0.5759145
-0.19312425 -0.5241678 -0.7508153 0.2092514 -0.6241414 -0.44860256 -1.2321079 -0.41562894
0.34336892 -0.60314244 -0.32560453 0.038840055 0.089527875 -0.49479997 -0.78484297 -0.25439668
-0.53351045 -0.9948102 -0.77076864 -0.60257936 -0.92685133 -1.0847892 -0.56089365 -0.19858886
-0.63658965 -0.5982304 -0.7533287 -0.47111395 -0.83047867 -0.39769018 -1.0741769 -0.16651942
-0.30308357 -0.7613836 -0.6460812 -0.6578155 -0.4423416 -0.58086735 -0.8234598 0.17568319
0.12021913 0.58471113 0.58135396 0.09748863 0.71219575 0.5163161 0.5269022 -0.3281242
00000000: 8998 e03e 53a6 05bf fef1 5bbe 3c6f 27be
00000010: acb4 203e b6ee d3be cbfb 32bf a6b0 28be
00000020: f0e3 c73e 45b2 51bf f48e 31bd 6b2b b63e
00000030: cf98 f4bd 8b69 20bf eb3a c7be 1636 743c
00000040: a914 503e 4f94 62bf bab0 e3be 47c6 283c
00000050: f90f d6be e61f 2cbf b81b 94bf d53e 53bd
00000060: 3440 75bd 60cc ebbe e7e4 013e ad9f 12be
00000070: e132 08bd 9994 80be dfe2 31bf 4460 0abf
00000080: fc78 25bf 5c1b edbe c515 44bf bba1 3fbf
00000090: f594 b4be 3f8f 2bbf 8190 70bf b237 793e
000000a0: 0f6a c7be cf75 ffbe 5fe0 2ebf 0ee6 7cbe
000000b0: b72e 50bf 9e27 85bf 8d5b 65bf 9803 67be
000000c0: 32d7 2ebe 7dec 72bf 1696 f6be e348 18be
000000d0: 704a cabe 4148 32bf d255 7cbf cc1f 51bd
000000e0: c9ce f43e 34bd 5e3e 2893 e93e a5bb eb3e
000000f0: e71b 373f 389e 293f a418 223e 4ea8 02bf
00000100: b097 953d cd7f 3bbe 4895 92be 124b 95be
00000110: ee49 723e 20cb 343c 3f8b 0fbe a82e 0f3d
00000120: 2889 8c3d 60db 7c3c 189a 03bd a62d 263e
00000130: 7a45 19be 0063 f6bc cee5 9ebe f076 91be
00000140: 52e3 4dbe accd 893d 220a 2f3e 45a6 93be
00000150: 6793 ab3e 8508 813e bb51 21be 885d dd3d
00000160: 2d62 87be 03de a03e c6c9 1e3e 2ae4 1d3e
00000170: f275 293e a5df 3dbe c4fd e2bd 1285 afbe
00000180: c6e8 673e aeba 2b3e 35f5 883e 8266 a2be
00000190: 25cf ad3e 5f0f 58be 2d0a 67be 4060 12bd
000001a0: f1c5 96be 9257 583e 9673 12be 8f16 42be
000001b0: dc03 0e3e d54d 993e 694a a13e 676c ad3e
000001c0: 8c39 03be a055 65bc b94d b23e d730 953e
000001d0: 8984 9abe a81f 0f3e 9054 79be 18e0 b0bd
000001e0: 04d8 cabd 3014 aebd ecfb a2be fd11 aa3e
000001f0: a6d3 473e 65b4 9b3e 12ad 3d3e 2d61 0ebe
00000200: 409d 923f a24d 233f 8620 a33f bed5 543f
00000210: 1ce5 8d3f 89b5 333f ba45 6a3f dcbc 3bbf
00000220: 9486 0fbf f1cb 5dbf ae70 8dbf 0ce5 9bbf
00000230: 638d 73bf 57a4 12bf 3c06 32bf 7063 243f
00000240: b65e 853f 89eb 463f 59c5 423f 8517 9b3f
00000250: eaac 7a3f 8385 723f e652 633f 786a 21bf
00000260: 5250 0e3f 71b2 643f 0f91 923f 035c 913f
00000270: c750 903f 56f9 013f 8dfc 333f 0037 a3be
00000280: 5769 7a3f 8d35 333f 3288 743f 0f01 903f
00000290: 785f 803f ced1 cb3e 2eee 4f3f 121d 1fbf
000002a0: 9f0b 543f 775e 403f ed88 2f3f d14b 593f
000002b0: 6279 973f f56f 203f b029 703f 89dd 04bf
000002c0: 160f 543f ace3 103f a3a6 8f3f 1890 703f
000002d0: 2608 823f 8299 823f c060 6a3f 2567 b1be
000002e0: 229b 163f 1be9 443f f986 703f 2acc 9f3e
000002f0: 01ce 713f 5cb8 653f b63e 9a3e cce4 0cbf
00000300: dbd1 d33e 1598 85bf 2fcb 11be 4571 663e
00000310: c1e6 6e3e eba7 43bf bd1c 7dbf eac2 043d
00000320: 0586 033f 651a 31bf da6e 54be d362 9fbd
00000330: 5492 793e 1eb6 30bf 3bde 38bf 226f 13bf
00000340: 5dc2 45be dc2f 06bf 6e35 40bf 0046 563e
00000350: bbc7 1fbf 3caf e5be b6b5 9dbf 51cd d4be
00000360: 0dce af3e 8b67 1abf a3b5 a6be c016 1f3d
00000370: 645a b73d 6c56 fdbe 78eb 48bf 4840 82be
00000380: 2494 08bf e2ab 7ebf 1851 45bf a442 1abf
00000390: 2146 6dbf 5fda 8abf ba96 0fbf e15a 4bbe
000003a0: 8af7 22bf a125 19bf 26da 40bf d935 f1be
000003b0: 409a 54bf 0c9e cbbe a17e 89bf 1184 2abe
000003c0: c52d 9bbe 09ea 42bf 9465 25bf 9966 28bf
000003d0: 997a e2be b9b3 14bf 43ce 52bf 4be6 333e
000003e0: 7235 f63d a1af 153f 9dd3 143f 1ea8 c73d
000003f0: 7652 363f 4b2d 043f 10e3 063f e5ff a7be
