ModelSave60.pt (torch_old, 30998 bytes, 45 tensors)

lstm.weight_ih_l0 f4 [32, 8]
00000000: 6243 713d 89de 9bbf 842a 303f 7bb6 84be
00000010: ab22 a93d e834 863e 9bf4 bebd 3454 d5be
00000020: 9d2d 0e3e 03c1 4ebf b739 7d3e 536b 803e
00000030: 7d91 783d fbf6 043f 850c 433e 46f3 48bd
00000040: c4b8 c93d 32f1 febe c4ed 503f 9484 80bd
00000050: 6c6f fdbd 6366 abbe 4d35 01bf 4ead a13e
00000060: 8039 873d 79a2 33bf 21a3 80bd f6cd 273f
00000070: a889 4cbe 2cfe 8f3f 3d40 e83e 529c 34be
00000080: 4cd1 52bd 71b2 95bf 0a5a d13e 2ca1 5e3e
00000090: b2ae 3e3d 8f11 6b3f 8d8c 443e 170d d73d
000000a0: 9401 20bf 733c fa3e 4669 633e aff0 1dbf
000000b0: 1336 e73e 49b2 9fbe f3fe fe3d 66b3 563e
000000c0: 5fdd c03e f30b 91bf 7d2a 313f 1cec bd3e
000000d0: 20cc e93c 0bde a53e bf8f 28bd be3d 91bb
000000e0: d045 93be ae2b 49be 8985 41be 1474 293f
000000f0: 0f8a ca3e 1035 b43e f156 1a3f c625 0fbd
00000100: dac3 58be 0907 09be a8ee 7f3d 045d 9ebe
00000110: 9dd6 823e de30 783e 10b6 24bd 6d4f ad3e
00000120: 8e6e fcbd cc21 b2bd e65a 91be 0177 22be
00000130: 1ef8 edbd 9021 533d 4223 edbd 9199 903e
00000140: c6eb a0be 8f6b 903e f9c0 4cbe a037 70bd
00000150: 14f7 85bd 4411 d13d 5b5b b03e 21f8 803e
00000160: 3c76 77be 2025 cbbd 582b 1a3d 0758 8f3e
00000170: 2e35 86be ac57 fd3d d841 a23d 5917 a63e
00000180: 2e03 dfbd bd43 b33e 4620 6bbe 4083 013d
00000190: de06 463e bcc3 873d 94e9 893d c6ec 043e
000001a0: 6637 e7bd 4672 9bbe 8c11 54be 06a4 5f3e
000001b0: 181a 33bd 1ab3 443e 5ff4 803e 653d 9c3e
000001c0: 3682 233e 66d3 8fbe 11c8 aa3e 749a a03d
000001d0: 4ac1 27be 6023 073c 3029 083d 2b59 a03e
000001e0: 0fe6 863e 20f2 39bc 8206 603e 0de7 2ebe
000001f0: 8ffc 8f3e 9095 aabc b0ad a0bd ab3c 863e
00000200: 2ef9 b23d 4451 a13f 5753 3cbe 0418 37bf
00000210: acc8 7cbd 31ce 5cbf 0248 c1bd f444 d83c
00000220: 35c1 103d 6ea4 9fbf 1afb 233f 028a 203f
00000230: df60 8c3d 369e 843f 9304 30bd e079 c83d
00000240: 64f2 c2be 9668 6ebf c8dd 093f 64cd 703f
00000250: cb15 aa3d 43c3 463f af9b f83d 3086 f83d
00000260: e63e c23d 0ef3 8fbf 5272 5e3f 5c3a b73e
00000270: bdca 12bc b450 823f 1e51 f0bd a6eb de3b
00000280: e099 8dbe bdd3 02bf 2b69 e43e 8a94 063f
00000290: 01f6 453d 4eae 4d3f eb19 e63e 9377 0a3c
000002a0: e9bb 2e3e 2929 85bf aaff 033e ed8e 843f
000002b0: 9145 f23e d7ad 333f 1c0e 0cbe 2225 0cbd
000002c0: bdf1 2f3e f147 f13e 337a d83e 2973 89bf
000002d0: c445 45be 4735 1ebf dc9b febe c379 b0bc
000002e0: e5b7 803c f605 c03f c3aa 34bf 95f3 63be
000002f0: 89ae a5bd fa00 62bf 7620 e23d e820 21be
00000300: 1abe 963d 2bf3 9fbf dd0a 1e3f d47c e13d
00000310: 3158 793e 9ef4 073e ae79 1cbe b0c9 c3be
00000320: 83c7 57bd fc7d 74bf 4cce 073c 4f40 873e
00000330: c440 793e d792 0b3f 6295 9c3e 3751 adbd
00000340: eeba 243e ac4d 5abf 6e32 b13e a4f1 743e
00000350: 1ec3 e2bd 63ea 04bf 02b1 0ebf c7e4 883e
00000360: 76b0 35be 4aa7 81bf a0f8 a6bd b4fa 6b3f
00000370: c1a8 f6bd 3eac 363f e9a8 253f ae9f 88be
00000380: 8c0d 9c3e fd57 49bf 8662 303e 9f62 2f3f
00000390: f50b 00be ee7b 983f 25d4 1d3e 4950 273d
000003a0: d651 2cbf bc0c c53e 623d 453d 4369 c6be
000003b0: be4c ee3e d782 cabe 6a6c 393e eb11 f0bd
000003c0: 5ab7 e03e 90cc 4abf a14e 453f 6c66 e33e
000003d0: 81aa 943e f7b2 863e d116 c8bd 1551 94be
000003e0: 7832 3abe 771f 6d3e d520 01bf 7d3b 603f
000003f0: 4eb2 d03e c6dd 183f 6ba1 673e 3f2e 163e
0.058902152 -1.2177287 0.68814874 -0.25920472 0.082585655 0.2621224 -0.093239985 -0.41665804
0.13884588 -0.8076326 0.24729048 0.25081882 0.060685623 0.5193936 0.19047745 -0.04906013
0.09849694 -0.49793392 0.816128 -0.06275287 -0.12374768 -0.33476552 -0.50471956 0.31577533
0.06602764 -0.7016979 -0.06281114 0.65548646 -0.19974387 1.1249442 0.4536151 -0.17637756
-0.051469132 -1.1695081 0.40889007 0.2174117 0.04655332 0.9182367 0.19194241 0.105005436
-0.6250241 0.48874244 0.22208127 -0.6169538 0.45158443 -0.31190708 0.124509715 0.20966873
0.37668893 -1.1331772 0.69205457 0.370942 0.028539717 0.32395968 -0.041152712 -0.004432409
-0.287642 -0.19645569 -0.18898596 0.66192746 0.39558455 0.35196733 0.6028891 -0.034948133
-0.21168461 -0.1338159 0.06248346 -0.3093034 0.25554362 0.24237391 -0.04021269 0.3384966
-0.12325774 -0.086978525 -0.28389663 -0.15865709 -0.1161959 0.05154568 -0.115789905 0.28242162
-0.3142988 0.2820706 -0.19995488 -0.058646798 -0.06541267 0.10208371 0.344447 0.25189307
-0.24166197 -0.099191904 0.037638992 0.27996847 -0.26212448 0.12370238 0.07922715 0.32439688
-0.10889278 0.35012618 -0.2296153 0.03161931 0.19338557 0.0662913 0.067340046 0.12980947
-0.11289863 -0.3036062 -0.20709819 0.21839914 -0.043726057 0.19208947 0.2518644 0.3051559
0.1596764 -0.28090972 0.33355764 0.078419596 -0.16382328 0.00824818 0.033242404 0.3131803
0.26347396 -0.011349231 0.21877483 -0.17080326 0.28122374 -0.02082327 -0.07845628 0.2621816
0.087389335 1.2602925 -0.18391167 -0.7152102 -0.061714813 -0.86252123 -0.094375625 0.026400067
0.035340507 -1.2472055 0.64055026 0.62710583 0.06854414 1.0360782 -0.042973112 0.09788871
-0.38075554 -0.93128335 0.53854036 0.940634 0.08304938 0.77641696 0.12139069 0.12134969
0.09484653 -1.124605 0.8689319 0.35786712 -0.008959469 1.0180879 -0.11734222 0.006802994
-0.2765646 -0.51104337 0.44611487 0.525704 0.04833031 0.8034409 0.4494165 0.00845136
0.1706387 -1.0403186 0.12890497 1.0356117 0.473187 0.70187134 -0.13677257 -0.0342151
0.1718206 0.471252 0.4228073 -1.0738269 -0.19264895 -0.61800045 -0.49728286 -0.021542436
0.015712688 1.5001819 -0.7057306 -0.22260888 -0.080899306 -0.8828274 0.11041348 -0.15735209
0.07360478 -1.2496084 0.61735326 0.11010137 0.24350049 0.13276908 -0.15280792 -0.38239813
-0.052680504 -0.95504737 0.008288931 0.2641625 0.24341112 0.54520935 0.3058272 -0.08462756
0.16086933 -0.8527477 0.34608787 0.23920304 -0.11072372 -0.51920146 -0.5573884 0.26737043
-0.17743096 -1.0129178 -0.0815289 0.9217942 -0.12043906 0.7135657 0.6471086 -0.26684326
0.30479085 -0.78649884 0.17225084 0.6850986 -0.12504561 1.191282 0.15412958 0.04084805
-0.6731237 0.38486278 0.048154242 -0.38752183 0.46542925 -0.39552948 0.18107763 -0.117221676
0.43889886 -0.7921839 0.77073103 0.4441408 0.29036334 0.26308414 -0.09769977 -0.2896811
-0.18183315 0.23156534 -0.5044072 0.8759077 0.40761036 0.597134 0.2262017 0.14666079

lstm.weight_hh_l0 f4 [32, 8]
00000000: c32d 42be 6cc6 92be 2446 34be 68c3 9abe
00000010: c070 ccbd 32b3 97be 1daf a83e c06e 26bd
00000020: 2858 4ebe c17c 8b3e 2657 27be 0008 f23a
00000030: 60f1 73bd 804d 683c ea2a 513e b8f6 113d
00000040: f8db 85bd c48f 153e 7203 0bbe 0f85 923e
00000050: 1b49 8d3e 30d8 4c3d bfe8 2bbe de62 5b3e
00000060: 8c2c 5bbe 861b 24be 44cd 8dbe e69f 763e
00000070: 8345 b23e a5ee a73e 0246 8bbe f80f 7a3d
00000080: 02cf 623e 84af 68be 90c0 ea3d 283c 39bd
00000090: 1ac8 333e 87ec 943e 86f2 443e d6fc 2b3e
000000a0: fc44 a1bd 97a3 843e 5870 93bd 4632 08be
000000b0: 25bd 9fbe d0ef c6bd 099b 61be 7cd7 88be
000000c0: c0d3 8dbe ee1f 1cbe 934a 03be e882 1dbd
000000d0: 00a8 6c3a d8b4 38bd 6e80 4c3e d1dd 9fbe
000000e0: a012 373c e8a1 713d a0d4 3a3d bc72 38be
000000f0: 90f8 3bbd 5091 b4bc 00c0 de3b 9d2e ab3e
00000100: bc80 9f3d b869 8ebe 343e babd 0961 53be
00000110: 4e42 303e 6426 4fbe dc1a be3d 92f3 133e
00000120: 38d8 dbbd 1385 a63e 70ac ccbc c03b 8b3b
00000130: d55c 84be 8861 5ebd 5493 14be 509a 93bd
00000140: 0087 79bd c0cc 93bd 597a 2fbe 8188 61be
00000150: 7cee cd3d 90be ef3c eedf 16be 76b2 34be
00000160: 006b 9ebd 5da0 ab3e fd8e 9cbe e3ad 1bbe
00000170: 3736 863e b039 adbe 88fb 073e b1fc 933e
00000180: bc66 abbd e03b 723c 2408 a73d e7e6 ae3e
00000190: 38ac 2fbd 655d 9e3e e17a b33e 7863 093e
000001a0: 1187 9bbe 5c46 b1be b576 9c3e b0cc a33c
000001b0: a62b 18be 0fc0 8d3e 24ce 81be ce0f 273e
000001c0: 2a29 f1bd 19fa 2ebe 2b53 813e 405b 6cbd
000001d0: 4a3f 1d3e 8cb3 b2bd 6951 8d3e 9639 50be
000001e0: 0bcc 823e 0fcb 18be a9e1 923e 40e3 08be
000001f0: 80c5 7ebb 8ed0 7ebe f06f f53d 6e87 253e
00000200: 6002 283d 72ac 5b3e c2ca 353e 3c04 a93d
00000210: 5077 f2bc 7672 693e 2483 4dbe fa6f 33be
00000220: 90c9 4dbd d5b2 aabe 88cd 75be 41ad 22be
00000230: e9bd 893e d2a9 703e e01c 6c3c bf22 6cbe
00000240: 6ab6 433e 60b9 4f3d af23 933e 876e 95be
00000250: 82f6 b3be c066 113e b327 8e3e 196b 1fbe
00000260: 8008 233c 74e3 fa3d 1c47 8cbd 28fb bebd
00000270: 80dc 6fbd aa1e 413e 0258 633e 1092 003d
00000280: f0b5 c6bc 6d06 51be 80ca 5d3c 9f62 69be
00000290: 20ee 25bd 807b 0abb 13bc 01be 3c3c acbe
000002a0: 1816 cbbd 03fe a0be ecf1 9fbd 0c63 cebd
000002b0: a008 22bc 789d fcbd 0d7c a13e ce2e 243e
000002c0: e951 a3be e73a 1bbe 3ce1 1ebe 6495 86be
000002d0: 609d 663c 8045 f33d 446b 093e 40cd 4b3d
000002e0: 5253 3c3e 72a7 563e e296 b3be fcd9 94be
000002f0: f6ba 373e efc9 a0be 4316 9b3e 5041 d9bc
00000300: 4092 bd3b 63d5 77be a637 70be 1095 a93d
00000310: 00a6 1cbb 20c2 a5bc d567 ad3e 50b3 a8bd
00000320: e084 173c 7e3d 793e 00bc 5dbc b41a 76be
00000330: cc69 87be 76f1 683e 77f5 72be e6e7 aabe
00000340: 729e 093e 3487 67be 9203 4b3e 74a5 003e
00000350: e098 503c 65c0 73be 4ef8 4d3e 1469 bfbd
00000360: 236d 8bbe 6053 11bc 70be aabc 3e5d a0be
00000370: 3359 873e 80f5 a43d 0c0a b13d 3c60 133e
00000380: 66b1 123e ab52 8c3e 0117 9d3e 5fd8 8a3e
00000390: fc47 47be e0f1 523c b719 8a3e 13dc 933e
000003a0: 07fe 9ebe 8b73 1cbe 725b 2dbe c072 98bd
000003b0: d66e 303e 8302 88be 2d7f 7dbe f3fc 933e
000003c0: b783 a13e 8694 85be 6bd9 b43e 589f cebd
000003d0: e283 1cbe e267 753e d188 7cbe 460a 363e
000003e0: 594b b33e 885f b9bd 05bd ac3e c572 8f3e
000003f0: b689 17be 00c4 d239 9782 9e3e 3e47 81be
-0.18962769 -0.2866701 -0.17604882 -0.30227208 -0.09982443 -0.29628903 0.329461 -0.040632963
-0.20150816 0.27243617 -0.16341838 0.0018465519 -0.059556365 0.014178634 0.20426527 0.03563568
-0.06536096 0.14605623 -0.13575533 0.2861714 0.27594838 0.05001086 -0.16788004 0.21424434
-0.21403712 -0.16026124 -0.27695668 0.24084434 0.34818658 0.3279926 -0.2720185 0.061050385
0.2214928 -0.22723204 0.1146251 -0.045223385 0.17556801 0.29086706 0.1923314 0.16795668
-0.07874486 0.2590606 -0.07199162 -0.13300428 -0.31198993 -0.09713709 -0.22031797 -0.26726902
-0.27700615 -0.15246555 -0.12821417 -0.03845492 0.00090277195 -0.04509434 0.19970867 -0.3122392
0.011173874 0.058992296 0.04561293 -0.18012518 -0.045891345 -0.022041947 0.0067977905 0.33434
0.07788226 -0.27815032 -0.090938956 -0.20642485 0.17212793 -0.20229489 0.09282467 0.14448383
-0.107346 0.32523403 -0.024984568 0.004249066 -0.25852075 -0.05429223 -0.14509326 -0.07207167
-0.06091976 -0.07216787 -0.17136516 -0.22024728 0.10055253 0.029265672 -0.1473386 -0.17646202
-0.077352524 0.33520785 -0.3057784 -0.15203051 0.26213238 -0.33833075 0.13279545 0.28903726
-0.083692044 0.014784783 0.081558496 0.3416054 -0.04288885 0.3093063 0.35054687 0.1341685
-0.30376485 -0.34623992 0.30559316 0.019995064 -0.148604 0.27685592 -0.25352585 0.16314623
-0.117754295 -0.17087592 0.25258765 -0.05770421 0.15356174 -0.08725652 0.27601174 -0.20334467
0.25546297 -0.1492121 0.2868779 -0.13367939 -0.0038875043 -0.24884245 0.11984241 0.16164944
0.04101789 0.21452501 0.17753127 0.08252761 -0.029597908 0.2279757 -0.20069557 -0.17523184
-0.050241053 -0.33339563 -0.24004185 -0.15886404 0.26902702 0.23502281 0.014411181 -0.2306013
0.19112554 0.050713897 0.28738162 -0.29185888 -0.35149008 0.14199352 0.27764663 -0.15568198
0.009950757 0.122504145 -0.068495005 -0.09325248 -0.058559895 0.18859354 0.22201541 0.031389296
-0.024256676 -0.20412607 0.013537049 -0.22791527 -0.040510297 -0.002113074 -0.12669401 -0.33639705
-0.099163234 -0.31443796 -0.07809815 -0.100774854 -0.009889752 -0.12334722 0.31539956 0.1603348
-0.3189843 -0.15159188 -0.15515608 -0.2628585 0.014075607 0.118784904 0.13419825 0.04975629
0.18391159 0.20962313 -0.35076052 -0.2907256 0.17942414 -0.31404063 0.30290422 -0.026520401
0.0057852566 -0.24202494 -0.23458728 0.082803845 -0.0023902655 -0.020234168 0.3386828 -0.08237326
0.009247988 0.24339864 -0.013533592 -0.24033624 -0.26447904 0.2274836 -0.2372645 -0.3338005
0.13439348 -0.2261017 0.1982558 0.12563115 0.012731761 -0.23803861 0.20114252 -0.09346214
-0.27231702 -0.008869976 -0.02084276 -0.31321138 0.2643524 0.08054638 0.086444944 0.14392179
0.14325485 0.2740682 0.30681613 0.27118203 -0.19461054 0.01287505 0.26972744 0.2887884
-0.31053182 -0.15278451 -0.16929415 -0.07443762 0.1722978 -0.26564416 -0.24755545 0.28903922
0.31545803 -0.26089877 0.35322127 -0.10088986 -0.15284684 0.2396541 -0.24661566 0.17777357
0.35018423 -0.09051424 0.3373796 0.2801725 -0.14798626 0.00040200353 0.30959007 -0.25249666

lstm.bias_ih_l0 f4 [32]
00000000: cbd0 b43e 9606 1d3f af9a e83e 0953 e93e
00000010: 344b 1d3e 50ed 783f 2206 a9bd 088b 013f
00000020: 6c4e a7bd b03c d0bd 38b6 12be af46 a4be
00000030: 25c3 06be a011 6fbd 6a6f 4b3e 853f abbe
00000040: a4a4 aa3e 340b 3abe afa7 19be d13e 34be
00000050: b2af bc3e 04d9 07bf cca3 dcbe 4d00 94bc
00000060: 0b6f 2a3f 838e 1e3f 23a7 473f 7baf 0f3f
00000070: a6b8 993e e330 3f3f 8217 78bb 7550 7d3f
0.35315546 0.61338174 0.45430514 0.45571163 0.15360719 0.9723711 -0.08253123 0.5060277
-0.08169255 -0.10167825 -0.14327323 -0.32085177 -0.13160379 -0.058366418 0.1986672 -0.334469
0.33328736 -0.18168336 -0.15005372 -0.17602088 0.36852795 -0.53065515 -0.43093717 -0.01806655
0.6657569 0.61936206 0.77989405 0.56127137 0.30023688 0.7468397 -0.0037855809 0.9895089

lstm.bias_hh_l0 f4 [32]
00000000: 44ba 2c3f c653 903f 3b7a 2d3f 8ff2 993c
00000010: 6c48 003d e423 1f3f dadf 0a3e b1e9 863f
00000020: f8be 5bbd 06a5 1e3e bc95 c23d da20 673e
00000030: b950 9c3e 27ae 32be 0067 c8bb 08d8 86be
00000040: 1cfb 323e cd23 bdbe 9914 f4be 20cb 55bc
00000050: 32c6 d13e d57c f4be 75c4 23be 4c7f 023f
00000060: 8030 513f 50ec 893f eaf4 ff3e b9ba e53d
00000070: 5e55 e93e 0f4a 713f 4f6f 683d 9ed9 253f
0.6747172 1.1275566 0.67764634 0.018792419 0.031319067 0.6216414 0.13561955 1.0540067
-0.05364892 0.15492639 0.09501216 0.22571126 0.30530336 -0.17449246 -0.006115794 -0.26336694
0.17478603 -0.36941376 -0.47671965 -0.013048917 0.40971524 -0.4775149 -0.15992911 0.5097549
0.8171463 1.0775242 0.49991542 0.11217255 0.45572942 0.9425363 0.056746777 0.6478518

lstm.weight_ih_l1 f4 [32, 8]
00000000: d8d6 d7be fa87 513f 60fb af3e ba38 7c3e
00000010: d89a 173f bc8a 683e 0171 2cbe 730c 59bf
00000020: e047 87be 59d4 223f a979 4fbd f2a9 ec3e
00000030: 6e68 513f 50bc 7fbe 87d5 1dbf a2bc dbbe
00000040: 4770 a3bd 73e1 8e3d a8a4 0cbe 05e2 19bd
00000050: fa72 ff3c bf21 6ebd d66a a7be 48e1 8fbe
00000060: 563f 933e 812e d5be fc1d 27be 25ba acbe
00000070: 457e 113e e048 4ebf edf9 e93e 4306 743e
00000080: 9e5b 773e ad10 11bc 25db 3d3e f27d d83d
00000090: c5da 453f e539 09bf 6599 a2be 7d41 ce3e
000000a0: d052 f6be f583 673d 684f 913e 157b cd3e
000000b0: 0e70 bf3e e35a 3dbe 9625 fbbe 5268 fabe
000000c0: a9f9 0a3f 2b84 5dbf 15ea 1cbf bdad b7be
000000d0: 0d1d c5be 860d 4dbf cf14 84be 297e 2f3f
000000e0: 079e 8ebe c168 b73e 7895 9b3e ca88 6a3f
000000f0: f7fc 2b3f be85 403d 4ec4 47bf bef0 3bbd
00000100: 58f9 ce3d 8f62 a23e 7d51 5abe 7698 3a3e
00000110: c2f2 743e ba5b 293e aac9 093e a05f 703d
00000120: f63e 513e 706c acbc 36f7 753e 5827 2dbd
00000130: 8f96 973e 4090 97bd 9c71 b43d 8a47 89be
00000140: 86c2 1f3e 5070 3d3d 8a77 45be 60a2 39bc
00000150: e084 10be 12f5 673e 1d8a ab3e 184d 233d
00000160: fa10 6fbe e62a 1abe 6cc5 a3be 16ad 193e
00000170: 940d 133e 7457 f6bd 854f af3e a611 463e
00000180: 78d1 a3bd 912f 933e 409e 683c d08b 27bd
00000190: b083 ef3c da9f f0bd 68d2 c2bd 118c a93e
000001a0: 66c6 663e 7845 ce3d 1836 10bd d2d1 613e
000001b0: 709a b1bc 18eb 02bd 0eea 363e 04cd c3bd
000001c0: cbfa 92be f08f f53c a0c9 b83d 280d ff3d
000001d0: 0c1a 29be 5ced 95be c260 433e 801c 013c
000001e0: 835c a93e a0a0 493d 398b 983e c9e0 9a3e
000001f0: 1adc 7a3e 7e56 a3be e28a 6c3e 0e28 8ebe
00000200: 7929 37bf 8d61 5b3f a153 7f3f 960c e13e
00000210: 3221 333e 7b29 9b3f 6cf2 21bf 8ee1 42bf
00000220: d679 983f 9700 87bf bb4f 43bf b2d1 53bf
00000230: 48c7 16bf 5d4d 84bf 639a a63e df6e 9e3f
00000240: 6c14 283f c3eb 36bf d863 8abf 7402 f0be
00000250: 2bab 43bf 1ad4 9bbf 234b 173f f287 323f
00000260: 58b6 84bf 3a7f 753f a353 103f 30d9 843e
00000270: 6b86 923c 39f3 2b3f dff9 dcbe c754 efbe
00000280: 37a7 28bf 99e3 603f f232 493f 2558 323f
00000290: 014e 963e 34a1 5e3f 6e2e d0be 21d6 6fbf
000002a0: 915c 7abf af82 1a3f 8644 143f 1a67 433f
000002b0: acba 043f 2119 703f 7bc9 1cbe c1fd 08bf
000002c0: d073 5b3f 363f 50bf 5d62 babe fc36 e4be
000002d0: e9c2 33bf 3f43 82bf 76e5 463e 8974 923f
000002e0: e8e1 9b3f c1ea 81bf b900 4dbf b339 82bf
000002f0: f6e9 acbe 925b 92bf ca0f 583d 6fc7 6f3f
00000300: c34c acbe 4dbf 653f b81c 2e3f 0c97 2d3f
00000310: 1ab3 283f d5a5 e73d 57b6 b3be 780c 4cbf
00000320: 5967 2fbe 339f 313f ff7c 643e 2913 473f
00000330: 7ea3 df3e 26ad 0fbd e674 28bf 8ea5 adbd
00000340: 39ac d83d 50a0 4fbd 0b01 1b3e fd30 ed3d
00000350: 92ec e03e f2eb 80bd ca72 48bb 9d8b 97bd
00000360: 6d20 3a3f 0750 5bbe 3bd9 0cbe c45f 00bf
00000370: 029f 25bd 9b21 4dbf 4491 113e 9213 513f
00000380: 7102 b03e 7468 123e da5f 6fbd ab60 203e
00000390: 8a6b 433f 0120 1abf bc96 08bf 9f4c d33e
000003a0: 44a4 0dbf 543e df3e c9a9 c13e e6c5 533e
000003b0: 9b0d 673e bed4 25be 59ae e3bc 4263 99be
000003c0: 32f7 293f 0dae 00bf b3e6 3ebf 08c6 21bf
000003d0: 230f 85be b9d2 3cbf 047d a93d 5c2d 813f
000003e0: 3b4c 51bf 59cf 0b3f a03d b23e 025c 483f
000003f0: 29ee 563f aeef 7ebe f8ca 8ebe dd6a 02be
-0.421561 0.8184811 0.3437147 0.24631014 0.5922065 0.22709173 -0.16839983 -0.8478462
-0.26422024 0.63605267 -0.050653134 0.46223408 0.8179997 -0.2497418 -0.6165394 -0.42917353
-0.079803996 0.06976595 -0.13734686 -0.037569065 0.031182755 -0.05813765 -0.32698697 -0.28101563
0.2875926 -0.41637042 -0.16320032 -0.33735767 0.14208324 -0.8057995 0.4569849 0.23830514
0.24156043 -0.0088540735 0.18540628 0.10570897 0.7728694 -0.53603965 -0.31757656 0.4028434
-0.48110056 0.05652233 0.28380895 0.40132967 0.37390178 -0.18491702 -0.49052113 -0.48907715
0.542872 -0.865298 -0.6129468 -0.3587474 -0.38498726 -0.8009876 -0.25797126 0.6855188
-0.2785494 0.35822108 0.30387473 0.91614974 0.6718287 0.047002546 -0.7803391 -0.045883887
0.10106152 0.3171582 -0.21320148 0.18222222 0.2392073 0.16538897 0.13455835 0.058684945
0.20434174 -0.0210478 0.24020085 -0.04227385 0.29607055 -0.074005604 0.08810732 -0.26812392
0.15601549 0.046249688 -0.19283882 -0.011330217 -0.14113188 0.2265208 0.3350381 0.039868444
-0.2334632 -0.15055427 -0.31986558 0.15007433 0.14360648 -0.12028399 0.34240356 0.1934267
-0.07998937 0.28747228 0.014197886 -0.04090482 0.029237598 -0.11749239 -0.09512788 0.33114675
0.2253662 0.10071844 -0.035207838 0.22052696 -0.021680087 -0.031962484 0.17862722 -0.09560588
-0.28706965 0.029975861 0.09022832 0.12453681 -0.16513842 -0.29282653 0.19079879 0.00788033
0.33078393 0.04922545 0.29793718 0.30249622 0.24498025 -0.31901926 0.23099855 -0.27764934
-0.7154766 0.85695726 0.9973698 0.43954915 0.17493132 1.2122034 -0.6326053 -0.7612542
1.1912181 -1.0547055 -0.76293534 -0.82741845 -0.5889783 -1.0336109 0.32539663 1.2377585
0.6565616 -0.71453494 -1.081172 -0.46876872 -0.76433057 -1.2174103 0.59099025 0.69738686
-1.0368147 0.9589726 0.5637762 0.2594695 0.017886361 0.67168003 -0.43159387 -0.46744367
-0.6588015 0.87847286 0.7859336 0.6966575 0.29356387 0.86964726 -0.40660423 -0.9368611
-0.97797495 0.6035566 0.5791706 0.76329195 0.5184734 0.93788344 -0.15311234 -0.535122
0.8572359 -0.8134645 -0.3640317 -0.445732 -0.70219284 -1.0176772 0.1942347 1.1441814
1.2178316 -1.0149766 -0.8007923 -1.0173858 -0.33772248 -1.1434195 0.052749433 0.93663687
-0.33652315 0.89745027 0.6801257 0.67808604 0.6589829 0.11310927 -0.35100052 -0.79706526
-0.17129268 0.69383544 0.22313307 0.7776361 0.43679422 -0.035077237 -0.6580337 -0.08478843
0.10579724 -0.050689995 0.15137117 0.115816094 0.4393049 -0.06295003 -0.0030585998 -0.07399676
0.7270573 -0.21417247 -0.13754742 -0.50146127 -0.040434845 -0.801294 0.1421557 0.81670487
0.34376863 0.14297658 -0.05844102 0.15661876 0.76335967 -0.60205084 -0.53355 0.41269395
-0.55328774 0.4360224 0.37824848 0.20680961 0.22563784 -0.16194436 -0.027793096 -0.2995854
0.66392815 -0.5026558 -0.7457077 -0.63192797 -0.2598811 -0.7375904 0.08275798 1.0091968
-0.81756943 0.5461326 0.3481264 0.7826539 0.83957154 -0.24896118 -0.27889228 -0.12736078

lstm.weight_hh_l1 f4 [32, 8]
00000000: 90ee 4ebe 4ec8 febd 7cba 64be 8e9a 503e
00000010: 907b a2bd 0426 af3d edc6 8c3e b8d9 663d
00000020: 9734 a23e b013 b53d 62f3 0a3e 0b84 9b3e
00000030: a632 303e 8cf1 df3d aac0 7e3e ff87 09be
00000040: a496 a23d 480a 1cbd 98ea 6abd bfac ac3e
00000050: a0fc cbbd 32da b2be 40f0 503d 2016 9ebc
00000060: 3c82 b13d 359f 823e 326d 403e f595 95be
00000070: 7de1 8b3e 4017 c93d 04ec 4dbe 7c13 82bd
00000080: e8c8 90be 239a 0dbe d316 9e3e a30f 86be
00000090: 087e 793d 4ee1 78be ab33 843e c08d 0abd
000000a0: 8862 f4bd 2a22 663e 8c3d 90be b64e aabe
000000b0: 0295 ffbd 69f6 883e e060 443d 80d5 adbb
000000c0: 4abe 5a3e 4dbf 853e b08c ba3d b44c 85bd
000000d0: 71f8 973e 42cf 263e 607a 973d 9841 293d
000000e0: 414c 993e 9027 86be a534 923e b4be a6bd
000000f0: 86de efbd a1ff 933e 207d 343d f248 613e
00000100: ac8e 82be e6af 75be 0d3f 99be 1a60 a6be
00000110: ddea 983e 96aa 553e d845 e33d e849 f1bd
00000120: 63e7 64be 3473 91be a62e 2b3e 6b27 a93e
00000130: d047 673d 38bb 89bd 773e 81be 68cc 88be
00000140: bc67 63be c297 5a3e 3816 5f3d ced9 523e
00000150: 602f 3b3d 1fd2 26be 6810 c73d 5e0b 94be
00000160: b76e a63e f2f1 2c3e 46e9 21be 5828 6abd
00000170: b089 613d bc3e e73d d002 fc3d 0af9 6e3e
00000180: 2269 6c3e 9806 70be 28d6 39be 4810 7bbd
00000190: c67a 1a3e 8086 1cbb 4627 533e c604 88be
000001a0: 80d9 593c ee19 1f3e 2e94 433e a837 aa3d
000001b0: 2414 033e c8b3 e73d 206f 6bbd 7340 b0be
000001c0: 6cce ed3d 0022 303a 883c 733d 883e 933d
000001d0: 370b 9d3e c21c 093e 000f f63d 78b7 10be
000001e0: 6f5f 1abe 1a15 7bbe 4289 5b3e e60f 373e
000001f0: 4f24 85be 2842 b03d 43ad 16be 700d ee3d
00000200: 109b fb3c 3253 9abe de0f 623e 19d9 9a3e
00000210: a315 9dbe bb52 a63e 86db 4f3e 9274 e2bd
00000220: 5856 56bd 4028 0dbd d0aa cebc 1114 a43e
00000230: 16e6 86be ca2a 3b3e c4ae 6ebe 8cff 79be
00000240: 3eac 4a3e 40e3 a9bd 0053 a0ba 7d55 8d3e
00000250: 4884 ac3d e003 353c 7c01 ce3d 0f87 8c3e
00000260: f5a7 68be 3c99 d8bd 7918 b43e f647 9bbe
00000270: 002d 063b 34be 96be 00f0 b43c 722b 043e
00000280: 972a a83e b09e afbe 2226 333e 3e36 443e
00000290: d847 753d 4954 973e e065 ea3c 7aa5 003e
000002a0: bfc0 afbe 2c11 3dbe d28b e1bd 4e34 493e
000002b0: b4f9 e53d e249 61be e696 2a3e a07c 383d
000002c0: 002a ceba 1e7b 633e 0b22 58be aa9f 2d3e
000002d0: 006c 043e 70e5 58bd 74a4 073e 9bf1 97be
000002e0: ace5 9c3d 1884 033d 70e9 a1be 2118 803e
000002f0: 870f 69be 038d 39be 269a 0d3e 210f 933e
00000300: 5097 aa3d 06f9 753e 8acb 273e c3b4 4fbe
00000310: 00cf 5a3c c00a 33be d858 08be 51b1 88be
00000320: 982f 5e3d 26fb 54be 8b07 a33e 0387 8c3e
00000330: 88ba 3fbd 01c6 15be e23a 253e 73c9 17be
00000340: c89e 043e 05f2 8e3e 222a 2b3e 92a4 6e3e
00000350: 907d c1bc 2063 49bd 18ef 67be 1da3 a43e
00000360: 1865 94be 3fe0 903e a7a2 9c3e d498 a1be
00000370: c07d b6bb 36bb 3e3e 860f 463e 3eb9 393e
00000380: 04e3 bfbd 1e90 113e cbbc ad3e 1cf8 b3be
00000390: acf6 b1be 6025 c0bd 14d6 f8bd b095 71bd
000003a0: cc05 cd3d 2ab5 603e b20f 82be e7b2 903e
000003b0: eb7e 52be d089 fe3c c824 5d3d 63e5 1abe
000003c0: 5f90 5dbe d8da 063e eaea 88be 0883 55be
000003d0: 605d d53c 9a84 783e 9abe 683e 8064 74bc
000003e0: 40eb 98bb dca6 a0be d2e7 393e 6c49 69be
000003f0: 1096 a63c 20c2 563c c031 e43b cee1 b1be
-0.20208192 -0.12440549 -0.22336763 0.20371458 -0.07933724 0.08552173 0.27495518 0.056359977
0.31680748 0.08841646 0.13569406 0.30374178 0.17206821 0.10934743 0.24878183 -0.13430785
0.07938889 -0.038095742 -0.057352632 0.33725545 -0.09960294 -0.34932095 0.05101037 -0.01929766
0.08667418 0.2551209 0.18791655 -0.2921597 0.2732047 0.09818888 -0.20109564 -0.063513726
-0.2827828 -0.1382833 0.30876788 -0.26183805 0.06091121 -0.24304697 0.2582067 -0.03382659
-0.11932856 0.2247397 -0.28171957 -0.33263177 -0.12479593 0.26750496 0.04794395 -0.005304992
0.21361652 0.26122513 0.09108865 -0.065087706 0.29681733 0.1629 0.07396388 0.04132232
0.2994099 -0.2620206 0.2855579 -0.081418425 -0.11712365 0.28905967 0.04406464 0.22000483
-0.25499475 -0.23992881 -0.29930916 -0.32495195 0.29866686 0.20865855 0.11097306 -0.117816746
-0.22353892 -0.28408206 0.16717014 0.33037886 0.05646497 -0.06725162 -0.2524297 -0.2671845
-0.2220754 0.21346954 0.05446455 0.20590898 0.045699477 -0.16291092 0.09719926 -0.28914922
0.32506344 0.1688917 -0.15811643 -0.05716738 0.05506295 0.112912625 0.12305224 0.23337188
0.2308698 -0.23440015 -0.181481 -0.061294824 0.15085897 -0.002388388 0.2062045 -0.26566142
0.013296485 0.15537235 0.19099495 0.08311397 0.12800652 0.113135874 -0.057479024 -0.3442417
0.116116375 0.00067189336 0.0593839 0.07189661 0.3067262 0.13389876 0.1201458 -0.14132488
-0.15075468 -0.24519768 0.21439078 0.17877159 -0.26004264 0.08606368 -0.14714532 0.11623657
0.030713588 -0.30141598 0.22076365 0.30243757 -0.3068057 0.32484993 0.20298585 -0.1105739
-0.052328438 -0.034462214 -0.025227934 0.3204656 -0.26347417 0.18278041 -0.23308855 -0.2441389
0.19792268 -0.082952976 -0.0012231767 0.27604285 0.08423668 0.011048287 0.10058877 0.27446792
-0.2272032 -0.10576102 0.3517492 -0.3032834 0.00204736 -0.29441988 0.022087097 0.12907198
0.32844993 -0.34300756 0.17495015 0.19161317 0.05988297 0.29556492 0.02861303 0.12563124
-0.3432674 -0.18463582 -0.11012997 0.19648859 0.11229268 -0.2200084 0.16659126 0.045040727
-0.001572907 0.22214934 -0.21106736 0.16955438 0.12931824 -0.052953184 0.13246328 -0.29676518
0.07660994 0.032108396 -0.3162341 0.2501841 -0.2275983 -0.18120198 0.13828334 0.2872248
0.08329642 0.24020776 0.16386238 -0.20283799 0.013355017 -0.1748457 -0.13315141 -0.26697782
0.054244608 -0.2079893 0.31841692 0.27446756 -0.04680875 -0.14626314 0.16135743 -0.1482294
0.12951195 0.2791902 0.16715291 0.23304966 -0.023619443 -0.0491668 -0.22649801 0.32155696
-0.28983378 0.28296086 0.30592844 -0.3156191 -0.00556919 0.18626103 0.19341859 0.1813707
-0.09369472 0.14215133 0.339331 -0.3515023 -0.34758508 -0.09382129 -0.12150207 -0.058980644
0.10010871 0.21944109 -0.254026 0.28261492 -0.20556228 0.031071573 0.053990155 -0.15126567
-0.21637104 0.1316942 -0.26741725 -0.20850766 0.026045501 0.24269333 0.22728959 -0.014916539
-0.004666716 -0.31377304 0.18154839 -0.22781914 0.020335227 0.013107806 0.0069639385 -0.34742588

lstm.bias_ih_l1 f4 [32]
00000000: 8839 c83e ceb0 513f 9542 133f 80f7 d53e
00000010: ad7b 833f ff45 c83e 3d35 013f 62fd b13f
00000020: dcfc b2be a87e 063d c0bf 3a3d 3b33 97be
00000030: c8c3 b1bd 1b7e a03e 911d a6be 7992 843e
00000040: bdce 8ebc efff ba3e 99b1 013f f5bc 40bf
00000050: d1c8 a4be 7c5a 9fbe b809 e53e 1b3f 533e
00000060: 28c9 0b3f e6dc 803f 8080 6d3f 3379 003f
00000070: ebdf 7a3f b61f 813e 8565 e43e 4bbc 663f
0.39106393 0.8191041 0.5752347 0.4179039 1.0272118 0.39115903 0.5047186 1.3905451
-0.3495854 0.032835633 0.045593023 -0.29531273 -0.086799204 0.3134621 -0.32444432 0.25893
-0.017432565 0.36523387 0.5066162 -0.75288326 -0.3218446 -0.31123722 0.44733977 0.20629542
0.54603815 1.0067413 0.927742 0.50184935 0.9799792 0.25219506 0.44608703 0.9013106

lstm.bias_hh_l1 f4 [32]
00000000: 8c0f ff3e 2d8f 733f 8c71 7f3f 35da a63e
00000010: 0172 553f 409a 8a3e e9ac f13e 1204 823f
00000020: 6c72 973d 0071 94be f012 2abe b431 8a3d
00000030: e17f 9cbe 38cf d33d 7a18 7a3e c0a5 f9bd
00000040: 9331 3dbe 1d5f d53e f1c3 243e 7fdf afbd
00000050: 9c76 bbbe a695 1fbe 14b1 133f e4b9 e13e
00000060: 9535 b43e b7a1 9e3f 3329 783f cfa4 1d3e
00000070: b13d 693f 4700 c43e 995b 393f 4a8e 773f
0.4981655 0.95140344 0.99782634 0.32588354 0.8337708 0.27070808 0.47202232 1.0157492
0.07394871 -0.28992462 -0.16608787 0.06747761 -0.30566314 0.10342258 0.244234 -0.121898174
-0.18475942 0.41674128 0.1609037 -0.0858755 -0.3661393 -0.1558443 0.57692075 0.44087136
0.3519713 1.2393101 0.96937865 0.153949 0.9110976 0.38281462 0.7240539 0.9670149

lstm.weight_ih_l2 f4 [32, 8]
00000000: e4e3 703f 4cc2 00bf 0b62 b4bd 713a 42be
00000010: 5ba5 103f fb40 cb3e f97e cd3e 6d20 17bf
00000020: 2a2f 14be 25f4 2a3f 98a6 053f 3d60 5ebf
00000030: 40c1 56bf 15b8 2abf 68ea 1f3f 96d5 4d3f
00000040: fd62 e93e c3d7 9e3c 30de 98bd 79f3 d2be
00000050: a721 86bb 9422 1a3f ca31 923f 5c27 403e
00000060: 761a 8d3f 3cd8 8fbe 6a99 10bd 74b2 efbe
00000070: f20f 95be 4029 c33e 4155 4d3f 031f eabe
00000080: 93ff 083f 589f e4be f3b6 2dbe ca0b e7be
00000090: 9a07 91be 4b0a 0a3f bd42 8c3f 84a9 ffbe
000000a0: ef6a 803d 0d79 9d3e 5f93 033f 0d57 c9bd
000000b0: fa8e fdbe 0eb9 dfbd 7eca 2e3f fb1a bf3e
000000c0: ca9b 34be bf30 8c3f f9ec 2e3f cf1c fcbe
000000d0: 686b 1cbf 21cc d8be 2b8f 443f 219c 923f
000000e0: 9c5b c43e ad41 61bf f1ce 47be c432 cf3d
000000f0: bf54 503f 610f 013d 7ba6 54be 282e 83bf
00000100: c9a0 953e 54c3 ba3d 1282 6f3e 4216 693e
00000110: 1069 ac3c 7792 853e 9ae0 463e bce6 f03d
00000120: 00cf d8bb 701d d1bc 11a1 8fbe 73b6 b03e
00000130: 50a2 f7bc 7223 06be 5bd4 9dbe c45a ec3d
00000140: 5be1 a73e 40cd c7bb a8a4 2fbd 4ed5 383e
00000150: 3434 153e 20d8 24bd 8a8a adbe 26fb 123e
00000160: d772 02be 38e1 113d 24aa 803d 3014 b6bd
00000170: 34a3 bfbd 7fe7 80be 9549 b1be a85e 1bbd
00000180: 82b1 293e e065 77be e00c b63c f848 15bd
00000190: 6370 adbe 2cf3 95bd 584b 6bbe 517b 6fbe
000001a0: e002 ab3d a67b 08be d729 8fbe 18b4 cabd
000001b0: 6699 513e a8cb 6c3d 7481 9e3d e2b9 593e
000001c0: f489 cfbd f86e 3f3d fc7f b8bd fbe3 0abe
000001d0: a8d1 b5bd accc e1bd e0b7 393d a2b9 3b3e
000001e0: 82fd 323e 9070 97bd 6c67 973d 3845 91be
000001f0: 5f9b 0cbe 01aa 00be b594 883e 2d63 893e
00000200: 6e28 e83e 1df0 afbf 20fb 56bf 2ea4 e23e
00000210: 95f3 8d3f 9306 3c3f cb9a 84bf 3b8f 99bf
00000220: 646d 2a3f 3e26 62bf c7aa 5bbf f989 573f
00000230: dbd6 753f 5990 233f 4b6b 5bbf 5bfe 77bf
00000240: a904 5c3f ecf6 aabf c5db bfbe 7e76 473f
00000250: 594e 443f 80a3 273f a053 cebe c630 a3bf
00000260: 5bb4 703f 6cc1 a4bf 3df2 ddbe 6e86 1f3f
00000270: 6b31 523f 1730 f43e ef78 ffbe 34e7 99bf
00000280: 6248 583f c97c 6cbf ff77 35bf ce08 433f
00000290: e1b5 963f 1097 bc3e 53cd 17bf 5cbf acbf
000002a0: 4b5b 483f 2dbd 84bf 919a b2be 7261 123f
000002b0: 71cc 623f 7261 6b3e c973 fcbe 6ea4 9abf
000002c0: 9872 183f 5a74 7ebf c693 3ebf f304 d13e
000002d0: e2c0 ad3f 0b40 8e3e 2c8d eabe 0b78 91bf
000002e0: 769e dabe 4dcc 683f 3f4b 3b3f e0a7 06bf
000002f0: 5391 59bf ba96 04bf b6b1 693f 8c9a 733f
00000300: 0117 a93e 95bf 54bf 3514 b1be d695 a2be
00000310: 7062 2c3e ce72 323f ebb2 883e 07ac 67bf
00000320: a555 383d ed27 563f 20cf 663f 5ad2 2fbf
00000330: 04e2 79bf 9ba7 b8bd ffb3 1f3f 8348 4e3f
00000340: e94f 693e 142d 793e 0f73 89be 4864 f1be
00000350: 5132 9bbe 3e9c 123f 5958 8e3f 3268 32bd
00000360: 0b3b 043f d18c 4fbf 23a3 64be 2c77 2ebf
00000370: c471 adbd a043 e03e 019a 673f 3039 3ebe
00000380: 1601 e53e bf83 7cbe 4085 1e3d da60 c8be
00000390: 57bb 9fbc 3a1b b83e 8dce 0b3f 0d61 05bf
000003a0: 557b e2bd 6330 ce3e 407b 0a3f 67a6 f8bd
000003b0: fd66 6cbf 5434 4dbe 7bd8 5e3f 9f9d 1b3f
000003c0: 6ea6 51be ae9a a53f 3670 ff3e e813 39bf
000003d0: 3ace a1bf 6c2d 33bf f80f 6d3f 8988 953f
000003e0: 41e4 be3e 983f 7abf 44f2 b9be b41e bc3e
000003f0: 11af 0e3f 0015 843e f6a3 bdbe 8b81 67bf
0.94097733 -0.50296474 -0.08807763 -0.18967606 0.5650231 0.39698014 0.40135935 -0.5903385
-0.14471117 0.66778785 0.52207327 -0.868656 -0.83888626 -0.66687137 0.6246705 0.8040403
0.45583335 0.019389993 -0.07464254 -0.4120138 -0.004093367 0.6020901 1.1421444 0.18765014
1.10237 -0.2809466 -0.035302557 -0.46815836 -0.29113728 0.3811741 0.8020821 -0.45726785
0.53514975 -0.4465282 -0.16964321 -0.45126182 -0.28326112 0.53921956 1.0957867 -0.49934018
0.06270396 0.30756417 0.51396745 -0.09831057 -0.49523145 -0.10923968 0.6827773 0.37325272
-0.17637554 1.0952376 0.6833034 -0.4924073 -0.6110139 -0.42343238 0.76780957 1.1453897
0.38351142 -0.8799084 -0.19512536 0.10117105 0.8137931 0.031508807 -0.20766632 -1.0248461
0.29224232 0.09119287 0.23389462 0.22762397 0.021046191 0.26088306 0.19421616 0.11762759
-0.006616473 -0.025526732 -0.2805257 0.34514198 -0.030228764 -0.13099459 -0.30826077 0.1154075
0.3278912 -0.0060974658 -0.042881638 0.1805012 0.14570695 -0.040245175 -0.3389476 0.14353618
-0.1273912 0.035615176 0.06282452 -0.08890569 -0.093573004 -0.25176618 -0.3462645 -0.037932068
0.1657162 -0.24159956 0.022222936 -0.03644654 -0.33874807 -0.07321772 -0.2297796 -0.23386885
0.08350158 -0.13328418 -0.2796161 -0.098976314 0.20468673 0.05781141 0.07739535 0.21262315
-0.10133734 0.046736687 -0.09008786 -0.1356353 -0.088778794 -0.11025366 0.045341372 0.18332532
0.17479518 -0.073945165 0.07392773 -0.28373122 -0.13731144 -0.12564851 0.26675954 0.26833478
0.45343345 -1.3745152 -0.83976936 0.44265884 1.108996 0.7344753 -1.0359739 -1.1996835
0.66573167 -0.883396 -0.8580746 0.84194905 0.9603097 0.6389213 -0.8571059 -0.9687249
0.8594461 -1.3356605 -0.37472358 0.7791518 0.7668205 0.65483856 -0.40298176 -1.274926
0.940252 -1.2871528 -0.43348876 0.623145 0.82106656 0.4769294 -0.49896953 -1.2023683
0.8448545 -0.9237791 -0.70886225 0.7618531 1.1774255 0.36834002 -0.59297675 -1.3495898
0.782643 -1.0370232 -0.3488355 0.5717994 0.885932 0.22986391 -0.49307087 -1.208143
0.59549856 -0.9939629 -0.74444234 0.40824088 1.3574488 0.27783236 -0.4581083 -1.1364759
-0.4269902 0.9093674 0.7316169 -0.52599907 -0.8498737 -0.5179249 0.9128679 0.95157695
0.33025363 -0.8310483 -0.3458573 -0.3175494 0.16834426 0.6970643 0.26699004 -0.9049687
0.045003552 0.8365467 0.901598 -0.68680346 -0.976105 -0.09016343 0.6238403 0.80579394
0.2278439 0.24333602 -0.26845595 -0.4714682 -0.30311826 0.57269657 1.1120712 -0.0435564
0.5165259 -0.81074244 -0.22327857 -0.6815059 -0.08468965 0.43801594 0.90469366 -0.18576503
0.4472739 -0.24659632 0.038701296 -0.39136392 -0.01949851 0.35958272 0.54612046 -0.5210121
-0.1105868 0.4027129 0.54094315 -0.12141114 -0.9234465 -0.20039493 0.87049073 0.60787386
-0.20473644 1.293783 0.49890298 -0.72296 -1.264106 -0.69991183 0.9260249 1.1682292
0.3728352 -0.97753286 -0.36317647 0.36742175 0.5573588 0.25797272 -0.37039155 -0.9043204

lstm.weight_hh_l2 f4 [32, 8]
00000000: a0ba abbc 461c 493e bb25 9e3e a0e6 b43c
00000010: fc6e 2ebe 5f53 9bbe 62b0 83be e09c 1d3c
00000020: b9ea 893e 083a 3f3d da27 6b3e fe3c 2c3e
00000030: 2cec b4bd 1fac 8a3e d061 053e f9b8 a1be
00000040: 5d8a 43be e5e2 50be df75 833e 7024 903c
00000050: c845 1abe 56d4 063e 20ee 413c 1a39 9bbe
00000060: 3087 7f3d 00fa 013e 022a ebbd ff0c 933e
00000070: 701e 98be 48bc 84be a084 013e 4a62 593e
00000080: 9a1f 67be ab7c 94be 8adb 0c3e ceac 243e
00000090: c085 1a3d 560e a9be 0ae0 053e 4c32 6bbe
000000a0: 5054 61bd 11bf 8f3e 98e7 63bd 4468 85bd
000000b0: f3dd 16be 367f 433e 2fa4 ac3e b2ce 70be
000000c0: 2164 a73e 6201 3d3e c1ad 58be 5d0a 11be
000000d0: bd19 883e 3ff3 863e b8b2 593d b98d 7cbe
000000e0: 6eff 7a3e 8feb b2be ee65 6ebe f756 ad3e
000000f0: 65af 9bbe 503e c9bc aee7 87be 626b 313e
00000100: 8193 0ebe d02a a63d 94f0 4fbe 004c 8cbc
00000110: 05bb 54be 1d6b 20be 2b9f afbe 697c 3fbe
00000120: d3d5 82be f84b c23d c012 273c 1365 91be
00000130: a332 8ebe c0dc 99bb c07d 953d 6084 14bc
00000140: 10ae a6bc 7e70 563e c181 92be 2085 03bd
00000150: 60f7 6e3d e051 323c b2d7 173e 7424 47be
00000160: a0d8 4ebc 8cc9 72be 987d 64be 500b bf3c
00000170: 34ba a9bd 4ec2 10be d89a 80be 3050 0f3d
00000180: 787c a6be 1e66 2a3e e5a3 4abe d0ab e1bd
00000190: 1b65 893e 147e 043e 0e64 74be 0ef0 f2bd
000001a0: ddbf 47be 623f 673e 6332 983e 7566 a83e
000001b0: 04a1 ca3d 40d4 09bc 8e5f afbe 283e a0bd
000001c0: c9e9 9c3e 8089 5d3b b976 9c3e 1bc3 a03e
000001d0: c3aa 8a3e c49f fb3d 5ac2 143e 6223 453e
000001e0: ca1e 393e f405 07be 80e1 a0bb 5897 a9be
000001f0: 4fc8 a43e e462 38be e6a4 1f3e 64f4 adbd
00000200: cf5e 69be a000 3e3d 9a05 303e 20b0 80bc
00000210: c349 3bbe cdd1 8ebe 9303 9a3e fb36 9ebe
00000220: 4cd2 b0be c6dc 213e 0205 1e3e 8033 66bd
00000230: 3642 303e 18d2 b33d c0c6 63bd b279 1f3e
00000240: ae2a 363e a0f4 033d 4e4b 753e e490 bcbd
00000250: e78b 983e c0eb 5ebd 4f50 afbe fa58 1a3e
00000260: 1d92 94be 9eb6 27be 7e13 653e 6546 0cbe
00000270: e432 0fbe 58df 35bd b29f 1ebe e063 71bd
00000280: 4389 66be 7c2c 92be c832 903d 1467 84be
00000290: 20d6 4a3d b092 53bd 1c24 abbe 9c2f d93d
000002a0: 9f29 8b3e be4c 42be 4742 9d3e 40dd 44bc
000002b0: 956b b13e 5c09 a2bd 6091 0f3e 7908 8e3e
000002c0: 2de8 3fbe af50 8e3e 9354 9d3e 4558 9d3e
000002d0: 1085 ccbd 7e13 30be 40a0 d83c d247 60be
000002e0: a09d 643c 54a3 c83d 20dd a8be fd66 aa3e
000002f0: 7879 22bd a210 343e f92d 993e 83be 90be
00000300: fef2 adbe fffb 63be 100c 803c d2db 20be
00000310: 0053 24bc 74e1 ef3d 10ef ca3d d82c 073d
00000320: 80cc 0e3d cad8 a0be 40a1 263c 5811 42be
00000330: 3e4d 7ebe 904d 82bc 949c 48be c0e6 783d
00000340: 884e 42bd 5873 7e3d d2c0 233e ea7b dcbd
00000350: 5886 77bd b45d 083e d157 b0be 712a 903e
00000360: a274 8bbe 9d1a 33be 8079 0b3d 7ff8 a63e
00000370: 38e1 75be 00c3 0d3c c143 8e3e 9253 f0bd
00000380: 78df 193d b9c3 a13e 8559 30be 9a90 073e
00000390: b06a 97bc 63a5 82be 80e2 873c 61fd 88be
000003a0: 08b6 18bd d254 52be eb83 913e 76d7 643e
000003b0: 7ca1 b93d c09e 623d 4231 6fbe b6b5 083e
000003c0: 381b 61bd c083 cabb 033f ad3e a01f c9bd
000003d0: 5628 143e a4ab 9dbd 178e 923e 70d1 99bc
000003e0: 0abb 2b3e 8246 613e a3b2 9c3e 28cf 49bd
000003f0: b0af 553d 1290 77be c063 053c d20a 6c3e
-0.020963013 0.19639692 0.3088816 0.022082627 -0.17034525 -0.30337045 -0.25720507 0.009619921
0.26936892 0.046686202 0.22964421 0.16820142 -0.08834109 0.27084443 0.13025594 -0.31586435
-0.1909575 -0.20399053 0.25675866 0.0175955 -0.15065682 0.13166937 0.011836559 -0.30317003
0.062384784 0.12693024 -0.11482622 0.28720853 -0.29710722 -0.25924897 0.12648249 0.212289
-0.22570649 -0.29001364 0.13755623 0.16081545 0.03772521 -0.3301875 0.13073745 -0.22968405
-0.055012047 0.2807546 -0.055640787 -0.06514028 -0.14733104 0.19091496 0.33719012 -0.23516348
0.3269358 0.18457559 -0.21160032 -0.1416411 0.26582137 0.26357457 0.053148955 -0.24663438
0.24511501 -0.34945342 -0.2328107 0.3385541 -0.30407253 -0.024565846 -0.26543945 0.1732612
-0.13923456 0.081136346 -0.20306617 -0.017126083 -0.20774467 -0.1566586 -0.34301123 -0.18699802
-0.2555376 0.09487146 0.010197341 -0.28397426 -0.27773008 -0.004695505 0.072993755 -0.009064764
-0.020346671 0.2094135 -0.2861462 -0.03210938 0.058341384 0.010883778 0.14828375 -0.194475
-0.01262489 -0.23709697 -0.22313535 0.023320824 -0.082874686 -0.14136621 -0.25118136 0.034988582
-0.32516837 0.16640517 -0.19789083 -0.11019099 0.2683495 0.1293872 -0.23866293 -0.11862193
-0.19506784 0.22582772 0.29725942 0.3289067 0.098939925 -0.008412421 -0.3425259 -0.07824355
0.30647114 0.003380388 0.30559328 0.31398854 0.27083406 0.12286332 0.14527264 0.19251779
0.18078151 -0.13185865 -0.004909694 -0.3312328 0.32184073 -0.18006474 0.15590248 -0.084938794
-0.22790073 0.046387315 0.17189637 -0.015708983 -0.18289857 -0.2789444 0.30080852 -0.30901322
-0.34535444 0.15806875 0.15431598 -0.056201458 0.17212757 0.087803066 -0.055609465 0.15573767
0.17789719 0.032215714 0.23954508 -0.09207323 0.29794237 -0.054424047 -0.34240958 0.15073004
-0.29017726 -0.16378257 0.22370717 -0.13698728 -0.13984257 -0.04440245 -0.15490606 -0.05893314
-0.22513299 -0.28549564 0.07040936 -0.25859892 0.04952061 -0.051653564 -0.33425987 0.10604784
0.27180192 -0.18974587 0.30714628 -0.012015641 0.3465239 -0.079119414 0.140203 0.2774084
-0.18740912 0.27795932 0.30728588 0.30731407 -0.09986317 -0.17194936 0.0264436 -0.21902397
0.013953596 0.09796777 -0.32981205 0.332817 -0.039666623 0.1758447 0.29917887 -0.2827035
-0.3397445 -0.22264098 0.015630752 -0.15708855 -0.010029554 0.11712924 0.09908879 0.03300175
0.034862995 -0.31415397 0.010170281 -0.18951929 -0.24834153 -0.015906125 -0.1959098 0.060766935
-0.047438174 0.06212172 0.15991524 -0.10765822 -0.060430855 0.13316995 -0.34442 0.2815738
-0.2723742 -0.17490621 0.03405142 0.32611462 -0.24011695 0.008652449 0.27786067 -0.1173469
0.037566632 0.31594637 -0.17221649 0.13238755 -0.01848349 -0.25516805 0.016587496 -0.26755813
-0.037282974 -0.20540169 0.28420958 0.22347817 0.09064004 0.055327177 -0.23358634 0.13350567
-0.0549576 -0.0061802566 0.33837137 -0.09820485 0.14468512 -0.076987535 0.2862403 -0.018776625
0.16770568 0.21999553 0.3060504 -0.049269825 0.0521695 -0.24176052 0.008141458 0.23051003

lstm.bias_ih_l2 f4 [32]
00000000: 5ca9 903f 27b3 4d3e 3471 9a3f c211 5c3f
00000010: 83f8 773f 176e 813f 5a26 183f e103 e23e
00000020: 00d3 5c3b b38f a23e a687 7dbe 3889 16bd
00000030: ff45 913e 1eb7 7f3e 807c ce3c 20fb adbd
00000040: e216 b5bd 89dd 96be ab42 c3be 6ef4 31be
00000050: 15f5 86be 35ca 5abe 2e16 fabe 36ee 4bbe
00000060: 8ce8 933f 08e9 383f 20b2 813f ca47 8c3f
00000070: ddbe b53f c994 0c3f e547 183f 8bb7 923e
1.1301684 0.20087872 1.2065797 0.85964596 0.96863574 1.0111722 0.5943352 0.44143584
0.0033695102 0.3175026 -0.24758777 -0.036751956 0.28373715 0.24972197 0.02520585 -0.08495164
-0.08842255 -0.29465893 -0.381368 -0.17378399 -0.26358858 -0.21366198 -0.48845047 -0.19915089
1.1555343 0.7223058 1.0132484 1.0959408 1.4198872 0.5491453 0.594847 0.28655657

lstm.bias_hh_l2 f4 [32]
00000000: 4865 2d3f 3e88 813e 169d a03f 1b12 9e3f
00000010: ff0c be3f c509 433f 2dee 4b3f 0345 0c3f
00000020: a00c 76bd 4e4b 643e 9532 4ebe b09d d6bd
00000030: 44bf ca3d 8897 463d 3e21 7fbe b803 c0bd
00000040: 9885 e8bd 1eee 6fbe 1be5 4fbe 11c7 afbe
00000050: a2fb 05be 071b 1bbf 0fd3 89be a222 9abd
00000060: a199 073f 8940 413e 6127 7c3f 16d5 8d3f
00000070: 565e 663f 71fa e93e b898 a83e fe70 253f
0.6773267 0.25299257 1.2547939 1.2349275 1.4847716 0.7618678 0.796603 0.54792804
-0.060070634 0.22294351 -0.20136483 -0.10479295 0.09899762 0.048484355 -0.24915025 -0.09375709
-0.11353606 -0.23430678 -0.2030224 -0.34331563 -0.13084272 -0.60588115 -0.26918837 -0.07526137
0.52968794 0.18872274 0.9849759 1.1080654 0.89987695 0.45698884 0.32929015 0.6462554

lstm.weight_ih_l3 f4 [32, 8]
00000000: e9b0 fc3e 75bc 1abf f735 63be 084d 0abe
00000010: d7ef 3d3e 663b f4be dfd2 45bf 8ddd 65be
00000020: 32f7 e33e 9cf2 67bf 01ef 46bd 674c c33e
00000030: 6030 c8bd aa72 30bf 97c0 ebbe c973 30bd
00000040: 38aa 183e f610 50bf 168e 06bf 4429 fcbd
00000050: a5b8 f9be 3a76 31bf 232e 93bf 0de9 37bc
00000060: f886 dfbb 36c0 0abf 4785 0f3e cf5b debd
00000070: 1878 11bb a570 9ebe 325b 43bf 3cc9 18bf
00000080: 8cd6 3abf a9d6 b2be 10c5 56bf 02e4 59bf
00000090: bfd3 dbbe 165b 1bbf 7b02 5dbf 6a6f a53e
000000a0: 5786 f4be fb4c c5be c2f2 40bf 6fce b3be
000000b0: 1b74 66bf aa4f 78bf 520b 50bf 2b3e 0ebe
000000c0: efa2 7fbe b1ca 57bf fe71 12bf 2684 88be
000000d0: 7952 f3be 4def 25bf d152 6cbf bba7 ae3c
000000e0: 904d 0d3f 3977 e13d bdba 023f c372 083f
000000f0: 6e3e 443f c488 193f 6d00 ae3d f5e8 14bf
00000100: b097 953d cd7f 3bbe 4895 92be 124b 95be
00000110: ee49 723e 20cb 343c 3f8b 0fbe a82e 0f3d
00000120: 2889 8c3d 60db 7c3c 189a 03bd a62d 263e
00000130: 7a45 19be 0063 f6bc cee5 9ebe f076 91be
00000140: 52e3 4dbe accd 893d 220a 2f3e 45a6 93be
00000150: 6793 ab3e 8508 813e bb51 21be 885d dd3d
00000160: 2d62 87be 03de a03e c6c9 1e3e 2ae4 1d3e
00000170: f275 293e a5df 3dbe c4fd e2bd 1285 afbe
00000180: c6e8 673e aeba 2b3e 35f5 883e 8266 a2be
00000190: 25cf ad3e 5f0f 58be 2d0a 67be 4060 12bd
000001a0: f1c5 96be 9257 583e 9673 12be 8f16 42be
000001b0: dc03 0e3e d54d 993e 694a a13e 676c ad3e
000001c0: 8c39 03be a055 65bc b94d b23e d730 953e
000001d0: 8984 9abe a81f 0f3e 9054 79be 18e0 b0bd
000001e0: 04d8 cabd 3014 aebd ecfb a2be fd11 aa3e
000001f0: a6d3 473e 65b4 9b3e 12ad 3d3e 2d61 0ebe
00000200: e153 9c3f 49e2 063f 567a a73f 7498 633f
00000210: a011 933f 94a3 223f 16b6 563f d595 4ebf
00000220: 37f5 22bf e97d 41bf 7dc5 91bf e34a a3bf
00000230: 3515 7ebf 217a 01bf d95c 1ebf 6e4e 373f
00000240: 0b15 8f3f 908a 2b3f ed35 483f 6857 a13f
00000250: b025 833f 8bfc 5f3f a711 4e3f f81c 35bf
00000260: 19ec 213f 3f1d 483f 35fb 963f 67d5 983f
00000270: b78b 953f f262 e13e 7532 203f 6955 c9be
00000280: 392d 863f 32a9 193f 6617 7a3f 25b7 953f
00000290: 14cc 853f b559 a93e 2603 3c3f ab71 31bf
000002a0: 6daf 653f fa2f 273f a027 353f a67d 643f
000002b0: 71cb 9c3f 1372 0f3f bc76 5c3f 97eb 16bf
000002c0: d521 663f 0a00 ef3e 37eb 913f e48b 7b3f
000002d0: af9e 873f a16f 733f 6bdc 553f 06cb d6be
000002e0: a9dc 293f e0b1 283f 958e 7a3f 9399 bf3e
000002f0: 12bf 7c3f 04d8 543f e9e6 663e de8f 1fbf
00000300: b037 ef3e a00e 90bf cf4c 22be e66f 7e3e
00000310: 6580 833e 68c7 53bf 77db 87bf 3675 d3bc
00000320: e759 113f a13c 47bf c094 54be 0903 4fbd
00000330: 808c 8a3e d04c 41bf 6fbe 4bbf 333c 22bf
00000340: f3b1 84be c83a e7be c717 57bf 2e92 8a3d
00000350: 0aac 35bf a178 f3be d8d1 9cbf 2c52 babe
00000360: f262 ca3e eaac 2fbf 3835 a6be b842 863d
00000370: 0f54 e63d 84f3 0dbf 4caa 5abf 92a1 9ebe
00000380: cde2 1dbf 79bd 61bf a1ce 58bf 4d7c 35bf
00000390: 6ec0 80bf 9721 83bf d729 f9be 602d f5bd
000003a0: 9175 39bf 56a1 f8be 8f4e 53bf 16b8 13bf
000003b0: 7c5a 6bbf ef15 a8be 98d8 7dbf 1bf2 a3bd
000003c0: bbf5 c5be c1af 27bf 09fa 3cbf b596 48bf
000003d0: ea1b 08bf 669e 08bf ac84 42bf 1869 813e
000003e0: 8858 493e 10e9 f33e 3155 263f 945a 3d3e
000003f0: 5da6 463f d77d e83e ade3 e73e a4ca cdbe
0.49353722 -0.6044381 -0.22188555 -0.13505948 0.18548523 -0.47701567 -0.7727489 -0.22447796
0.44524533 -0.9060457 -0.048567776 0.38144228 -0.09774852 -0.68924963 -0.46045372 -0.04307917
0.14908683 -0.8127588 -0.52560556 -0.12312558 -0.48773685 -0.69321024 -1.1498455 -0.011224997
-0.0068215095 -0.5419954 0.14015685 -0.10857355 -0.0022196826 -0.30945316 -0.7631103 -0.5968206
-0.7298362 -0.34929398 -0.83894444 -0.8511354 -0.42934987 -0.6068586 -0.8633191 0.32311565
-0.47758743 -0.38535294 -0.7537042 -0.35118434 -0.9002091 -0.9699656 -0.81267273 -0.13890903
-0.24964498 -0.8429366 -0.5720519 -0.2666332 -0.4752386 -0.6481827 -0.9231387 0.021320214
0.55196476 0.11009068 0.5106619 0.5330011 0.7665776 0.5997431 0.08496175 -0.58167964
0.07304323 -0.18310471 -0.28629518 -0.29158837 0.23661014 0.011034757 -0.14017962 0.034956604
0.06862098 0.015433162 -0.032129377 0.16228351 -0.1496791 -0.030076504 -0.31034702 -0.28411055
-0.20106247 0.06728682 0.17093709 -0.2883779 0.33510897 0.25201812 -0.15753834 0.10808855
-0.2644209 0.31419381 0.15506658 0.15419069 0.16548899 -0.18542345 -0.11083558 -0.34281212
0.2264739 0.16770431 0.26749578 -0.31718832 0.339471 -0.21099614 -0.22562476 -0.035736322
-0.29447892 0.21127155 -0.14301905 -0.18953918 0.1386866 0.29942194 0.31502083 0.33871767
-0.12814921 -0.013997465 0.34824923 0.29138824 -0.3017924 0.1397692 -0.24348664 -0.086364925
-0.09904483 -0.08499944 -0.31832826 0.3321685 0.19514331 0.30411068 0.18523052 -0.13904257
1.2213098 0.52689034 1.3084209 0.889045 1.1489754 0.6353085 0.8387159 -0.80697376
-0.6365542 -0.7558275 -1.1388394 -1.2757229 -0.9925111 -0.5057698 -0.61860424 0.7160405
1.1178297 0.67008305 0.78207284 1.2604799 1.0245876 0.87494725 0.80495685 -0.7074733
0.6325088 0.78169626 1.1795412 1.1940125 1.1683263 0.44020802 0.6257699 -0.39322975
1.0482551 0.60023797 0.97691953 1.1696516 1.0452905 0.33076254 0.73442304 -0.6931407
0.89720803 0.6530758 0.7076359 0.89254224 1.2249585 0.5603344 0.86118674 -0.5895323
0.89895374 0.46679717 1.1399907 0.9826033 1.0595301 0.9509221 0.83539456 -0.4195177
0.66352326 0.65896416 0.9787381 0.37421855 0.9872905 0.83142114 0.22549023 -0.623289
0.46722174 -1.1254463 -0.15849613 0.24847373 0.25683895 -0.82726145 -1.061385 -0.025812726
0.56777805 -0.7782689 -0.20759869 -0.050540004 0.27060318 -0.7550783 -0.79587454 -0.63373107
-0.25917014 -0.45162034 -0.84020656 0.06766163 -0.70965636 -0.4755297 -1.2251539 -0.36390817
0.39528614 -0.6862322 -0.32462478 0.06555694 0.11246502 -0.554497 -0.854161 -0.30982643
-0.61674196 -0.8817974 -0.8469029 -0.7089279 -1.0058725 -1.0244626 -0.48664734 -0.11971545
-0.7244502 -0.4856059 -0.82541746 -0.5770277 -0.91934943 -0.32829234 -0.9915862 -0.08005162
-0.3866404 -0.65502554 -0.73819023 -0.7835496 -0.53167593 -0.53366697 -0.7598369 0.25275493
0.19662678 0.4763875 0.6497374 0.18491584 0.775976 0.45408508 0.4529089 -0.40193665
