ModelSave80.pt (torch_old, 30998 bytes, 45 tensors)

lstm.weight_ih_l0 f4 [32, 8]
0	0x3c386ee7	0.01125691
1	0xbfa1ad3a	-1.263099
2	0x3f0145c2	0.50497067
3	0xbd9fc3e8	-0.07801038
4	0x3e4c2b09	0.19938292
5	0x3e60f805	0.21969612
6	0x3b8f6230	0.0043757185
7	0xbe6cdcd3	-0.23131113
8	0x3e31f680	0.17379189
9	0xbf335a6e	-0.7005986
10	0x3cd42401	0.025896074
11	0x3e4eb5fc	0.20186609
12	0x3d5db950	0.054131806
13	0x3eed4cde	0.46347708
14	0x3e9ec3ae	0.31008667
15	0xbbc44801	-0.005990029
16	0x3ea9b4b1	0.3314567
17	0xbea63ac6	-0.32466716
18	0x3efb21d7	0.49049255
19	0xbd596134	-0.053071216
20	0x3e89a3d1	0.26882794
21	0xbe1b48d3	-0.15164499
22	0xbece3014	-0.40271056
23	0x3edaf334	0.42763674
24	0x3e0bf993	0.13669424
25	0xbf1392a8	-0.57645655
26	0xbe84c4a9	-0.2593129
27	0x3f1aed4a	0.60518324
28	0xbe38e7dc	-0.18057197
29	0x3f8864b1	1.0655729
30	0x3f08cd89	0.5343862
31	0xbe4af4a1	-0.19819881
32	0x3cb08514	0.021547832
33	0xbf85c56d	-1.0450875
34	0x3e06d77f	0.13168143
35	0x3e7a83f3	0.24464397
36	0x3e170ad5	0.14750226
37	0x3f57c4c2	0.84284604
38	0x3ea8e093	0.32983837
39	0x3e2a9afc	0.16660684
40	0xbf1e8e1d	-0.619356
41	0x3ee5c1f3	0.44874534
42	0x3ec0a765	0.37627712
43	0xbf0a020d	-0.5390938
44	0x3ec4f79f	0.3847017
45	0xbe476256	-0.19471106
46	0x3e7e3d15	0.24827988
47	0x3e193062	0.14959863
48	0x3edf5499	0.4361923
49	0xbf9074ab	-1.1285604
50	0x3f0b2aa9	0.5436197
51	0x3f064039	0.52441746
52	0x3debb502	0.11509134
53	0x3e9a43aa	0.3012975
54	0x3c080925	0.0083029615
55	0x3d57b7cd	0.05266552
56	0xbe4751e5	-0.19464834
57	0x3c6a4a54	0.014299948
58	0xbee622c5	-0.44948402
59	0x3f069e73	0.52585524
60	0x3eba4764	0.36382592
61	0x3e7a1502	0.24422076
62	0x3f4c8240	0.79886246
63	0xbd8287af	-0.06373536
64	0xbe58c3da	-0.21168461
65	0xbe090709	-0.1338159
66	0x3d7feea8	0.06248346
67	0xbe9e5d04	-0.3093034
68	0x3e82d69d	0.25554362
69	0x3e7830de	0.24237391
70	0xbd24b610	-0.04021269
71	0x3ead4f6d	0.3384966
72	0xbdfc6e8e	-0.12325774
73	0xbdb221cc	-0.086978525
74	0xbe915ae6	-0.28389663
75	0xbe227701	-0.15865709
76	0xbdedf81e	-0.1161959
77	0x3d532190	0.05154568
78	0xbded2342	-0.115789905
79	0x3e909991	0.28242162
80	0xbea0ebc6	-0.3142988
81	0x3e906b8f	0.2820706
82	0xbe4cc0f9	-0.19995488
83	0xbd7037a0	-0.058646798
84	0xbd85f714	-0.06541267
85	0x3dd11144	0.10208371
86	0x3eb05b5b	0.344447
87	0x3e80f821	0.25189307
88	0xbe77763c	-0.24166197
89	0xbdcb2520	-0.099191904
90	0x3d1a2b58	0.037638992
91	0x3e8f5807	0.27996847
92	0xbe86352e	-0.26212448
93	0x3dfd57ac	0.12370238
94	0x3da241d8	0.07922715
95	0x3ea61759	0.32439688
96	0xbddf032e	-0.10889278
97	0x3eb343bd	0.35012618
98	0xbe6b2046	-0.2296153
99	0x3d018340	0.03161931
100	0x3e4606de	0.19338557
101	0x3d87c3bc	0.0662913
102	0x3d89e994	0.067340046
103	0x3e04ecc6	0.12980947
104	0xbde73766	-0.11289863
105	0xbe9b7246	-0.3036062
106	0xbe54118c	-0.20709819
107	0x3e5fa406	0.21839914
108	0xbd331a18	-0.043726057
109	0x3e44b31a	0.19208947
110	0x3e80f45f	0.2518644
111	0x3e9c3d65	0.3051559
112	0x3e238236	0.1596764
113	0xbe8fd366	-0.28090972
114	0x3eaac811	0.33355764
115	0x3da09a74	0.078419596
116	0xbe27c14a	-0.16382328
117	0x3c072360	0.00824818
118	0x3d082930	0.033242404
119	0x3ea0592b	0.3131803
120	0x3e86e60f	0.26347396
121	0xbc39f220	-0.011349231
122	0x3e600682	0.21877483
123	0xbe2ee70d	-0.17080326
124	0x3e8ffc8f	0.28122374
125	0xbcaa9590	-0.02082327
126	0xbda0adb0	-0.07845628
127	0x3e863cab	0.2621816
128	0x3c766e2e	0.015040917
129	0x3f90412e	1.1269891
130	0x3def49f5	0.11684028
131	0xbf355967	-0.7083954
132	0xbe0c165c	-0.13680404
133	0xbf452110	-0.77003574
134	0xbe417dfe	-0.18895718
135	0x3cf385c6	0.029726874
136	0x3db37a9e	0.08763622
137	0xbf97e948	-1.1868067
138	0x3eaa98a9	0.33319595
139	0x3f41f2a3	0.7576086
140	0x3e51f605	0.20504005
141	0x3f81a343	1.0127949
142	0x3d116276	0.03549429
143	0x3e4e7db5	0.20165141
144	0xbe60adcf	-0.21941303
145	0xbf40adf3	-0.75265425
146	0x3e58d66a	0.21175542
147	0x3f6a7866	0.91589963
148	0x3e675247	0.2258998
149	0x3f16d620	0.5892048
150	0x3ed0aa17	0.40754768
151	0x3e8d53b9	0.27602938
152	0x3e142e65	0.14470823
153	0xbf9598ec	-1.1687293
154	0x3f33c57e	0.70223224
155	0x3f11c457	0.56940216
156	0x3dac8bf5	0.08425132
157	0x3f7eee79	0.9958263
158	0xbd3f85d6	-0.046758495
159	0x3dba3b4c	0.09093341
160	0xbe84fa43	-0.25972185
161	0xbeb99220	-0.36244297
162	0x3e542ee6	0.20721015
163	0x3eff2f82	0.49840933
164	0x3be35585	0.006937685
165	0x3f30cb77	0.6906046
166	0x3f0986e0	0.5372143
167	0x3db45901	0.08806039
168	0x3e554811	0.20828272
169	0xbf8107d8	-1.0080519
170	0xbd85f390	-0.065405965
171	0x3f86c206	1.0527961
172	0x3ee594f1	0.44840196
173	0x3f22a01a	0.63525546
174	0x3ca94a20	0.020665228
175	0x3d6edcec	0.058316156
176	0x3e1cb16b	0.15302055
177	0x3eb984af	0.36234042
178	0x3f0dacfa	0.55342066
179	0xbf82b6c9	-1.0212032
180	0xbe1c3385	-0.15254028
181	0xbf0109a8	-0.5040536
182	0xbf3af717	-0.7303328
183	0xba637d4f	-0.0008678035
184	0xbd0ab38a	-0.033862628
185	0x3fc1730a	1.5113232
186	0xbefc1db4	-0.49241412
187	0xbec80318	-0.3906486
188	0xbe296799	-0.16543426
189	0xbf5c5733	-0.86070555
190	0x3d7824f8	0.06058213
191	0xbe70678c	-0.23477
192	0x3c1e8520	0.009675294
193	0xbfa883cb	-1.316522
194	0x3eef9336	0.46792
195	0x3ea4a896	0.3215987
196	0x3ea76887	0.32696936
197	0x3db6fc0f	0.08934795
198	0xbd873c86	-0.06603341
199	0xbe17bde1	-0.14818527
200	0xbb96197d	-0.004580675
201	0xbf596f35	-0.84935313
202	0xbe525b26	-0.20542583
203	0x3e5d9307	0.21638118
204	0x3e868ae6	0.26277846
205	0x3edd0600	0.4316864
206	0x3eeec4f9	0.46634653
207	0xbe0fc595	-0.14040215
208	0x3ec05165	0.375621
209	0xbf25a648	-0.6470685
210	0x3d4e1831	0.05031604
211	0x3e6dbd75	0.23216803
212	0x3e807744	0.25090992
213	0xbeb4e4fc	-0.3533095
214	0xbefd5fe3	-0.49487218
215	0x3ebfbfaa	0.37450916
216	0xbd8a1f3a	-0.06744237
217	0xbf44a7e1	-0.7681866
218	0xbead7775	-0.338802
219	0x3f48d3de	0.78448284
220	0xbda0422e	-0.07825123
221	0x3f2016b6	0.62534654
222	0x3f53d6f7	0.82749885
223	0xbe76fad1	-0.24119116
224	0x3ebf8918	0.37409282
225	0xbf2c9bd1	-0.67425257
226	0xbdebe375	-0.11517993
227	0x3f2da8ce	0.678357
228	0xbd54e2bc	-0.051974043
229	0x3f975978	1.1824179
230	0x3e883279	0.26601008
231	0x3d9f4864	0.07777479
232	0xbf3779f9	-0.7167049
233	0x3e9712ca	0.29506522
234	0x3e860cf2	0.2618175
235	0xbe8e35b7	-0.27775356
236	0x3eb76b71	0.3582416
237	0xbea062a0	-0.31325245
238	0x3eab641e	0.3347482
239	0xbe22c29b	-0.15894549
240	0x3ef9e189	0.48804882
241	0xbf4e4454	-0.8057301
242	0x3f2a9553	0.666341
243	0x3f116ccb	0.5680663
244	0x3eb82cf5	0.359718
245	0x3e6eb967	0.23312913
246	0xbdbe38ae	-0.092881545
247	0xbe51aa97	-0.20475231
248	0xbe17336f	-0.14765714
249	0x3ea64f87	0.3248255
250	0xbf3b4b49	-0.7316175
251	0x3f52ae19	0.822969
252	0x3ed03646	0.40666407
253	0x3f088d5d	0.53340703
254	0x3e99b247	0.30018827
255	0x3d183a8d	0.037165213

lstm.weight_hh_l0 f4 [32, 8]
0	0xbe422dc3	-0.18962769
1	0xbe92c66c	-0.2866701
2	0xbe344624	-0.17604882
3	0xbe9ac368	-0.30227208
4	0xbdcc70c0	-0.09982443
5	0xbe97b332	-0.29628903
6	0x3ea8af1d	0.329461
7	0xbd266ec0	-0.040632963
8	0xbe4e5828	-0.20150816
9	0x3e8b7cc1	0.27243617
10	0xbe275726	-0.16341838
11	0x3af20800	0.0018465519
12	0xbd73f160	-0.059556365
13	0x3c684d80	0.014178634
14	0x3e512aea	0.20426527
15	0x3d11f6b8	0.03563568
16	0xbd85dbf8	-0.06536096
17	0x3e158fc4	0.14605623
18	0xbe0b0372	-0.13575533
19	0x3e92850f	0.2861714
20	0x3e8d491b	0.27594838
21	0x3d4cd830	0.05001086
22	0xbe2be8bf	-0.16788004
23	0x3e5b62de	0.21424434
24	0xbe5b2c8c	-0.21403712
25	0xbe241b86	-0.16026124
26	0xbe8dcd44	-0.27695668
27	0x3e769fe6	0.24084434
28	0x3eb24583	0.34818658
29	0x3ea7eea5	0.3279926
30	0xbe8b4602	-0.2720185
31	0x3d7a0ff8	0.061050385
32	0x3e62cf02	0.2214928
33	0xbe68af84	-0.22723204
34	0x3deac090	0.1146251
35	0xbd393c28	-0.045223385
36	0x3e33c81a	0.17556801
37	0x3e94ec87	0.29086706
38	0x3e44f286	0.1923314
39	0x3e2bfcd6	0.16795668
40	0xbda144fc	-0.07874486
41	0x3e84a397	0.2590606
42	0xbd937058	-0.07199162
43	0xbe083246	-0.13300428
44	0xbe9fbd25	-0.31198993
45	0xbdc6efd0	-0.09713709
46	0xbe619b09	-0.22031797
47	0xbe88d77c	-0.26726902
48	0xbe8dd3c0	-0.27700615
49	0xbe1c1fee	-0.15246555
50	0xbe034a93	-0.12821417
51	0xbd1d82e8	-0.03845492
52	0x3a6ca800	0.00090277195
53	0xbd38b4d8	-0.04509434
54	0x3e4c806e	0.19970867
55	0xbe9fddd1	-0.3122392
56	0x3c3712a0	0.011173874
57	0x3d71a1e8	0.058992296
58	0x3d3ad4a0	0.04561293
59	0xbe3872bc	-0.18012518
60	0xbd3bf890	-0.045891345
61	0xbcb49150	-0.022041947
62	0x3bdec000	0.0067977905
63	0x3eab2e9d	0.33434
64	0x3d9f80bc	0.07788226
65	0xbe8e69b8	-0.27815032
66	0xbdba3e34	-0.090938956
67	0xbe536109	-0.20642485
68	0x3e30424e	0.17212793
69	0xbe4f2664	-0.20229489
70	0x3dbe1adc	0.09282467
71	0x3e13f392	0.14448383
72	0xbddbd838	-0.107346
73	0x3ea68513	0.32523403
74	0xbcccac70	-0.024984568
75	0x3b8b3bc0	0.004249066
76	0xbe845cd5	-0.25852075
77	0xbd5e6188	-0.05429223
78	0xbe149354	-0.14509326
79	0xbd939a50	-0.07207167
80	0xbd798700	-0.06091976
81	0xbd93ccc0	-0.07216787
82	0xbe2f7a59	-0.17136516
83	0xbe618881	-0.22024728
84	0x3dcdee7c	0.10055253
85	0x3cefbe90	0.029265672
86	0xbe16dfee	-0.1473386
87	0xbe34b276	-0.17646202
88	0xbd9e6b00	-0.077352524
89	0x3eaba05d	0.33520785
90	0xbe9c8efd	-0.3057784
91	0xbe1bade3	-0.15203051
92	0x3e863637	0.26213238
93	0xbead39b0	-0.33833075
94	0x3e07fb88	0.13279545
95	0x3e93fcb1	0.28903726
96	0xbdab66bc	-0.083692044
97	0x3c723be0	0.014784783
98	0x3da70824	0.081558496
99	0x3eaee6e7	0.3416054
100	0xbd2fac38	-0.04288885
101	0x3e9e5d65	0.3093063
102	0x3eb37ae1	0.35054687
103	0x3e096378	0.1341685
104	0xbe9b8711	-0.30376485
105	0xbeb1465c	-0.34623992
106	0x3e9c76b5	0.30559316
107	0x3ca3ccb0	0.019995064
108	0xbe182ba6	-0.148604
109	0x3e8dc00f	0.27685592
110	0xbe81ce24	-0.25352585
111	0x3e270fce	0.16314623
112	0xbdf1292a	-0.117754295
113	0xbe2efa19	-0.17087592
114	0x3e81532b	0.25258765
115	0xbd6c5b40	-0.05770421
116	0x3e1d3f4a	0.15356174
117	0xbdb2b38c	-0.08725652
118	0x3e8d5169	0.27601174
119	0xbe503996	-0.20334467
120	0x3e82cc0b	0.25546297
121	0xbe18cb0f	-0.1492121
122	0x3e92e1a9	0.2868779
123	0xbe08e340	-0.13367939
124	0xbb7ec580	-0.0038875043
125	0xbe7ed08e	-0.24884245
126	0x3df56ff0	0.11984241
127	0x3e25876e	0.16164944
128	0x3d280260	0.04101789
129	0x3e5bac72	0.21452501
130	0x3e35cac2	0.17753127
131	0x3da9043c	0.08252761
132	0xbcf27750	-0.029597908
133	0x3e697276	0.2279757
134	0xbe4d8324	-0.20069557
135	0xbe336ffa	-0.17523184
136	0xbd4dc990	-0.050241053
137	0xbeaab2d5	-0.33339563
138	0xbe75cd88	-0.24004185
139	0xbe22ad41	-0.15886404
140	0x3e89bde9	0.26902702
141	0x3e70a9d2	0.23502281
142	0x3c6c1ce0	0.014411181
143	0xbe6c22bf	-0.2306013
144	0x3e43b66a	0.19112554
145	0x3d4fb960	0.050713897
146	0x3e9323af	0.28738162
147	0xbe956e87	-0.29185888
148	0xbeb3f682	-0.35149008
149	0x3e1166c0	0.14199352
150	0x3e8e27b3	0.27764663
151	0xbe1f6b19	-0.15568198
152	0x3c230880	0.009950757
153	0x3dfae374	0.122504145
154	0xbd8c471c	-0.068495005
155	0xbdbefb28	-0.09325248
156	0xbd6fdc80	-0.058559895
157	0x3e411eaa	0.18859354
158	0x3e635802	0.22201541
159	0x3d009210	0.031389296
160	0xbcc6b5f0	-0.024256676
161	0xbe51066d	-0.20412607
162	0x3c5dca80	0.013537049
163	0xbe69629f	-0.22791527
164	0xbd25ee20	-0.040510297
165	0xbb0a7b80	-0.002113074
166	0xbe01bc13	-0.12669401
167	0xbeac3c3c	-0.33639705
168	0xbdcb1618	-0.099163234
169	0xbea0fe03	-0.31443796
170	0xbd9ff1ec	-0.07809815
171	0xbdce630c	-0.100774854
172	0xbc2208a0	-0.009889752
173	0xbdfc9d78	-0.12334722
174	0x3ea17c0d	0.31539956
175	0x3e242ece	0.1603348
176	0xbea351e9	-0.3189843
177	0xbe1b3ae7	-0.15159188
178	0xbe1ee13c	-0.15515608
179	0xbe869564	-0.2628585
180	0x3c669d60	0.014075607
181	0x3df34580	0.118784904
182	0x3e096b44	0.13419825
183	0x3d4bcd40	0.04975629
184	0x3e3c5352	0.18391159
185	0x3e56a772	0.20962313
186	0xbeb396e2	-0.35076052
187	0xbe94d9fc	-0.2907256
188	0x3e37baf6	0.17942414
189	0xbea0c9ef	-0.31404063
190	0x3e9b1643	0.30290422
191	0xbcd94150	-0.026520401
192	0x3bbd9240	0.0057852566
193	0xbe77d563	-0.24202494
194	0xbe7037a6	-0.23458728
195	0x3da99510	0.082803845
196	0xbb1ca600	-0.0023902655
197	0xbca5c220	-0.020234168
198	0x3ead67d5	0.3386828
199	0xbda8b350	-0.08237326
200	0x3c1784e0	0.009247988
201	0x3e793d7e	0.24339864
202	0xbc5dbc00	-0.013533592
203	0xbe761ab4	-0.24033624
204	0xbe8769cc	-0.26447904
205	0x3e68f176	0.2274836
206	0xbe72f577	-0.2372645
207	0xbeaae7e6	-0.3338005
208	0x3e099e72	0.13439348
209	0xbe678734	-0.2261017
210	0x3e4b0392	0.1982558
211	0x3e00a574	0.12563115
212	0x3c5098e0	0.012731761
213	0xbe73c065	-0.23803861
214	0x3e4df84e	0.20114252
215	0xbdbf6914	-0.09346214
216	0xbe8b6d23	-0.27231702
217	0xbc115360	-0.008869976
218	0xbcaabe70	-0.02084276
219	0xbea05d3e	-0.31321138
220	0x3e875933	0.2643524
221	0x3da4f580	0.08054638
222	0x3db10a0c	0.086444944
223	0x3e13603c	0.14392179
224	0x3e12b166	0.14325485
225	0x3e8c52ab	0.2740682
226	0x3e9d1701	0.30681613
227	0x3e8ad85f	0.27118203
228	0xbe4747fc	-0.19461054
229	0x3c52f1e0	0.01287505
230	0x3e8a19b7	0.26972744
231	0x3e93dc13	0.2887884
232	0xbe9efe07	-0.31053182
233	0xbe1c738b	-0.15278451
234	0xbe2d5b72	-0.16929415
235	0xbd9872c0	-0.07443762
236	0x3e306ed6	0.1722978
237	0xbe880283	-0.26564416
238	0xbe7d7f2d	-0.24755545
239	0x3e93fcf3	0.28903922
240	0x3ea183b7	0.31545803
241	0xbe859486	-0.26089877
242	0x3eb4d96b	0.35322127
243	0xbdce9f58	-0.10088986
244	0xbe1c83e2	-0.15284684
245	0x3e7567e2	0.2396541
246	0xbe7c88d1	-0.24661566
247	0x3e360a46	0.17777357
248	0x3eb34b59	0.35018423
249	0xbdb95f88	-0.09051424
250	0x3eacbd05	0.3373796
251	0x3e8f72c5	0.2801725
252	0xbe1789b6	-0.14798626
253	0x39d2c400	0.00040200353
254	0x3e9e8297	0.30959007
255	0xbe81473e	-0.25249666

lstm.bias_ih_l0 f4 [32]
0	0x3eee4faa	0.46545154
1	0x3f010140	0.5039253
2	0x3f048b5f	0.51775163
3	0x3e9b56cc	0.30339658
4	0x3ddc03e5	0.1074293
5	0x3f8fc1c8	1.1231012
6	0xbcea173b	-0.02857553
7	0x3e93f8d4	0.28900778
8	0xbda74e6c	-0.08169255
9	0xbdd03cb0	-0.10167825
10	0xbe12b638	-0.14327323
11	0xbea446af	-0.32085177
12	0xbe06c325	-0.13160379
13	0xbd6f11a0	-0.058366418
14	0x3e4b6f6a	0.1986672
15	0xbeab3f85	-0.334469
16	0x3ee552e8	0.44789815
17	0xbe1f6d77	-0.15569101
18	0xbeb5ad5f	-0.35483834
19	0xbd9b62bc	-0.075871915
20	0x3e51a8b9	0.20474519
21	0xbf0b02e6	-0.543013
22	0xbe79a81b	-0.24380533
23	0xbd9d3ec3	-0.076779865
24	0x3f4054e7	0.7512955
25	0x3ef2f9ec	0.474563
26	0x3f4adeb3	0.7924606
27	0x3eb65aa4	0.35616028
28	0x3e7c57f5	0.24642928
29	0x3f6b38a9	0.9188333
30	0x3d273f2e	0.040831737
31	0x3f4e47f5	0.8057855

lstm.bias_hh_l0 f4 [32]
0	0x3f4979ae	0.78701293
1	0x3f825114	1.0180993
2	0x3f3db847	0.7410931
3	0xbe08ba1f	-0.1335225
4	0xbc737227	-0.014858759
5	0x3f45ba2c	0.772372
6	0x3e42200b	0.18957536
7	0x3f5644a7	0.83698505
8	0xbd5bbef8	-0.05364892
9	0x3e1ea506	0.15492639
10	0x3dc295bc	0.09501216
11	0x3e6720da	0.22571126
12	0x3e9c50b9	0.30530336
13	0xbe32ae27	-0.17449246
14	0xbbc86700	-0.006115794
15	0xbe86d808	-0.26336694
16	0x3e942bd3	0.28939685
17	0xbeafd4f0	-0.34342146
18	0xbf2e7710	-0.68150425
19	0x3db2617f	0.08710002
20	0x3e7bd5bb	0.2459325
21	0xbefad09b	-0.48987278
22	0x3cded786	0.027202379
23	0x3ee6eef5	0.45104185
24	0x3f67165c	0.9026849
25	0x3f6ec72d	0.9327267
26	0x3f033207	0.5124821
27	0xbdbe56a8	-0.09293872
28	0x3ecdc8b9	0.40192202
29	0x3f8ea8ed	1.1145302
30	0x3dcf97f8	0.101364076
31	0x3eeda21e	0.46412748

lstm.weight_ih_l1 f4 [32, 8]
0	0xbf04a0b3	-0.5180771
1	0x3f3e2ba6	0.7428535
2	0x3ec8666c	0.39140642
3	0x3df3deb6	0.11907713
4	0x3f26806e	0.6503972
5	0x3ef75278	0.48305106
6	0xbe9a05aa	-0.30082446
7	0xbf25933a	-0.64677775
8	0xbe6862c9	-0.22693934
9	0x3f105b48	0.56389284
10	0xbdff5d4a	-0.12468965
11	0x3ec96bda	0.39340097
12	0x3f441bec	0.76605105
13	0xbe342db1	-0.17595555
14	0xbf234524	-0.63777375
15	0xbeac0894	-0.33600295
16	0xbe94c69e	-0.29057783
17	0x3d937328	0.07199699
18	0x3ccf4221	0.025300087
19	0xbdf1d224	-0.11807659
20	0x3e6b94a1	0.23005916
21	0x3e5c281f	0.2149968
22	0xbf02ea17	-0.5113844
23	0xbdcf956e	-0.10135923
24	0x3e86e692	0.26347786
25	0xbeb33a99	-0.35005644
26	0xbdb66b5b	-0.08907195
27	0xbe873d1e	-0.26413816
28	0x3e2a93e6	0.16657981
29	0xbf6aa2c0	-0.91654587
30	0x3f041b35	0.51604015
31	0x3df4e88b	0.119584166
32	0x3ee382c4	0.44435704
33	0xbe2246f4	-0.15847379
34	0x3ceb3e07	0.0287161
35	0x3d93f22d	0.07223926
36	0x3f0d2f22	0.55150044
37	0xbf1b51db	-0.60671777
38	0xbd7b3dc4	-0.0613382
39	0x3edb0274	0.4277531
40	0xbf083993	-0.5321285
41	0x3ac51a28	0.0015037702
42	0x3e67c1ee	0.22632572
43	0x3e978bf6	0.2959897
44	0x3ed5606d	0.4167513
45	0x3d8f76b8	0.07005066
46	0xbf209e9c	-0.6274202
47	0xbe5a92e7	-0.21345101
48	0x3f0f2e16	0.55929697
49	0xbf489c14	-0.78363156
50	0xbf073f5b	-0.5283105
51	0xbe762aed	-0.24039812
52	0xbebf3fc4	-0.37353337
53	0xbf87ac49	-1.0599452
54	0xbe16a34f	-0.14710735
55	0x3eee9458	0.46597552
56	0xbe7f00b2	-0.24902609
57	0x3e936307	0.2878649
58	0x3e4f2890	0.20230317
59	0x3f5754af	0.8411359
60	0x3f1cc641	0.6124001
61	0x3e074600	0.13210297
62	0xbf4df7a1	-0.80455977
63	0x3d90fb4a	0.070791796
64	0x3dcef958	0.10106152
65	0x3ea2628f	0.3171582
66	0xbe5a517d	-0.21320148
67	0x3e3a9876	0.18222222
68	0x3e74f2c2	0.2392073
69	0x3e295bba	0.16538897
70	0x3e09c9aa	0.13455835
71	0x3d705fa0	0.058684945
72	0x3e513ef6	0.20434174
73	0xbcac6c70	-0.0210478
74	0x3e75f736	0.24020085
75	0xbd2d2758	-0.04227385
76	0x3e97968f	0.29607055
77	0xbd979040	-0.074005604
78	0x3db4719c	0.08810732
79	0xbe89478a	-0.26812392
80	0x3e1fc286	0.15601549
81	0x3d3d7050	0.046249688
82	0xbe45778a	-0.19283882
83	0xbc39a260	-0.011330217
84	0xbe1084e0	-0.14113188
85	0x3e67f512	0.2265208
86	0x3eab8a1d	0.3350381
87	0x3d234d18	0.039868444
88	0xbe6f10fa	-0.2334632
89	0xbe1a2ae6	-0.15055427
90	0xbea3c56c	-0.31986558
91	0x3e19ad16	0.15007433
92	0x3e130d94	0.14360648
93	0xbdf65774	-0.12028399
94	0x3eaf4f85	0.34240356
95	0x3e4611a6	0.1934267
96	0xbda3d178	-0.07998937
97	0x3e932f91	0.28747228
98	0x3c689e40	0.014197886
99	0xbd278bd0	-0.04090482
100	0x3cef83b0	0.029237598
101	0xbdf09fda	-0.11749239
102	0xbdc2d268	-0.09512788
103	0x3ea98c11	0.33114675
104	0x3e66c666	0.2253662
105	0x3dce4578	0.10071844
106	0xbd103618	-0.035207838
107	0x3e61d1d2	0.22052696
108	0xbcb19a70	-0.021680087
109	0xbd02eb18	-0.031962484
110	0x3e36ea0e	0.17862722
111	0xbdc3cd04	-0.09560588
112	0xbe92facb	-0.28706965
113	0x3cf58ff0	0.029975861
114	0x3db8c9a0	0.09022832
115	0x3dff0d28	0.12453681
116	0xbe291a0c	-0.16513842
117	0xbe95ed5c	-0.29282653
118	0x3e4360c2	0.19079879
119	0x3c011c80	0.00788033
120	0x3ea95c83	0.33078393
121	0x3d49a0a0	0.04922545
122	0x3e988b39	0.29793718
123	0x3e9ae0c9	0.30249622
124	0x3e7adc1a	0.24498025
125	0xbea3567e	-0.31901926
126	0x3e6c8ae2	0.23099855
127	0xbe8e280e	-0.27764934
128	0xbf319874	-0.6937325
129	0x3f4de17c	0.80422187
130	0x3f64e981	0.894188
131	0x3eb9be1a	0.36277848
132	0x3e139f0c	0.1441614
133	0x3fa9c501	1.3263246
134	0xbf2b6c5c	-0.6696222
135	0xbf22c97b	-0.63588685
136	0x3f9bf5e8	1.218442
137	0xbf7aa68f	-0.979104
138	0xbf3b3dda	-0.73141253
139	0xbf332a61	-0.6998654
140	0xbf1766f4	-0.5914147
141	0xbfa18722	-1.2619364
142	0x3edefa29	0.43550232
143	0x3f8609bd	1.0471722
144	0x3f26b825	0.6512473
145	0xbf2a1521	-0.6643849
146	0xbf835899	-1.0261413
147	0xbec6b61f	-0.38810822
148	0xbf3ff76d	-0.74986917
149	0xbfac4675	-1.3459002
150	0x3f24640e	0.6421517
151	0x3f117ed6	0.5683416
152	0xbf86fe3b	-1.0546335
153	0x3f6ccc44	0.92499185
154	0x3eff2865	0.49835506
155	0x3e3d2b7f	0.18473624
156	0x3cc81cb8	0.024427757
157	0x3f519f6a	0.8188387
158	0xbf0042fd	-0.50102216
159	0xbea813e2	-0.3282767
160	0xbf2abe8a	-0.6669699
161	0x3f50dbf2	0.8158561
162	0x3f3d559d	0.7395876
163	0x3f183b40	0.5946541
164	0x3e92df60	0.28686047
165	0x3f87a1e5	1.0596281
166	0xbefdf83f	-0.4960346
167	0xbf45e0bb	-0.77296036
168	0xbf7ac345	-0.9795421
169	0x3f0c59d0	0.54824543
170	0x3f05ba29	0.5223718
171	0x3f2a63b9	0.66558415
172	0x3f0202a0	0.50785255
173	0x3f8bf1b7	1.093314
174	0xbe5c384c	-0.2150585
175	0xbecb34a8	-0.3968861
176	0x3f5e2ce3	0.8678724
177	0xbf43e565	-0.76521903
178	0xbeb4b956	-0.3529765
179	0xbebdaf4e	-0.3704781
180	0xbf335bad	-0.7006176
181	0xbf956f00	-1.16745
182	0x3e82f12e	0.2557463
183	0x3f8056de	1.002651
184	0x3f9f2972	1.2434523
185	0xbf74f1f0	-0.9568167
186	0xbf4d1b6f	-0.80119985
187	0xbf679eda	-0.90476763
188	0xbeb0fc5c	-0.34567535
189	0xbfac5599	-1.3463622
190	0x3e12cf0e	0.14336798
191	0x3f467656	0.77524316
192	0xbef57647	-0.479418
193	0x3f55d24d	0.8352402
194	0x3f42b28c	0.7605369
195	0x3f08a1db	0.5337197
196	0x3f421560	0.75813866
197	0x3ebf950c	0.374184
198	0xbf02789b	-0.5096528
199	0xbf172043	-0.590336
200	0xbe093d62	-0.13402322
201	0x3f22a954	0.63539624
202	0x3e1f6763	0.15566783
203	0x3f395a8f	0.72403806
204	0x3ec92b44	0.39290822
205	0x3bb97b72	0.005660468
206	0xbf2c121c	-0.6721513
207	0xbc749e57	-0.014930329
208	0xbdc3e8bb	-0.09565874
209	0xbd81dd9e	-0.06341098
210	0x3ea4f19e	0.3221559
211	0x3cda7e76	0.02667163
212	0x3f2313eb	0.6370227
213	0x3e4fee4f	0.20305751
214	0xbe4a486c	-0.19754189
215	0x3dc92aa7	0.098225884
216	0x3f305267	0.68875736
217	0xbe191de2	-0.14952806
218	0xbd207f41	-0.03918386
219	0xbedf2e5c	-0.43590057
220	0xbbb97901	-0.0056601767
221	0xbf6205cf	-0.88290113
222	0x3e3da7ae	0.18520996
223	0x3f3804a8	0.71882105
224	0x3f0f6467	0.56012577
225	0xbc73c242	-0.014877858
226	0xbe5642ca	-0.20923916
227	0x3e041f98	0.12902677
228	0x3f06cb7a	0.5265423
229	0xbf2fc7c5	-0.686642
230	0xbe856ad9	-0.2605808
231	0x3edc49a5	0.43024936
232	0xbf1d8e3e	-0.6154517
233	0x3ecaaa0e	0.39582866
234	0x3eb4aed8	0.35289645
235	0x3de5d57a	0.11222358
236	0x3e8feb00	0.28108978
237	0x3db1c8e2	0.086808935
238	0xbe2e47f3	-0.17019634
239	0xbd2acbb6	-0.04169818
240	0x3f2ca39a	0.67437136
241	0xbed73479	-0.4203222
242	0xbf27c2fa	-0.65531886
243	0xbf04b10c	-0.5183265
244	0xbe757bb4	-0.2397297
245	0xbf7d6581	-0.9898301
246	0x3e39b60e	0.18135855
247	0x3f4de2dd	0.8042429
248	0xbf4eb42d	-0.80743676
249	0x3ef3e830	0.47638083
250	0x3e81803e	0.25293154
251	0x3f3564b8	0.7085681
252	0x3f4bfc2d	0.79681665
253	0xbe16dd78	-0.14732921
254	0xbea2be0c	-0.3178562
255	0x3bc61cec	0.006045928

lstm.weight_hh_l1 f4 [32, 8]
0	0xbe4eee90	-0.20208192
1	0xbdfec84e	-0.12440549
2	0xbe64ba7c	-0.22336763
3	0x3e509a8e	0.20371458
4	0xbda27b90	-0.07933724
5	0x3daf2604	0.08552173
6	0x3e8cc6ed	0.27495518
7	0x3d66d9b8	0.056359977
8	0x3ea23497	0.31680748
9	0x3db513b0	0.08841646
10	0x3e0af362	0.13569406
11	0x3e9b840b	0.30374178
12	0x3e3032a6	0.17206821
13	0x3ddff18c	0.10934743
14	0x3e7ec0aa	0.24878183
15	0xbe0987ff	-0.13430785
16	0x3da296a4	0.07938889
17	0xbd1c0a48	-0.038095742
18	0xbd6aea98	-0.057352632
19	0x3eacacbf	0.33725545
20	0xbdcbfca0	-0.09960294
21	0xbeb2da32	-0.34932095
22	0x3d50f040	0.05101037
23	0xbc9e1620	-0.01929766
24	0x3db1823c	0.08667418
25	0x3e829f35	0.2551209
26	0x3e406d32	0.18791655
27	0xbe9595f5	-0.2921597
28	0x3e8be17d	0.2732047
29	0x3dc91740	0.09818888
30	0xbe4dec04	-0.20109564
31	0xbd82137c	-0.063513726
32	0xbe90c8e8	-0.2827828
33	0xbe0d9a23	-0.1382833
34	0x3e9e16d3	0.30876788
35	0xbe860fa3	-0.26183805
36	0x3d797e08	0.06091121
37	0xbe78e14e	-0.24304697
38	0x3e8433ab	0.2582067
39	0xbd0a8dc0	-0.03382659
40	0xbdf46288	-0.11932856
41	0x3e66222a	0.2247397
42	0xbe903d8c	-0.28171957
43	0xbeaa4eb6	-0.33263177
44	0xbdff9502	-0.12479593
45	0x3e88f669	0.26750496
46	0x3d4460e0	0.04794395
47	0xbbadd580	-0.005304992
48	0x3e5abe4a	0.21361652
49	0x3e85bf4d	0.26122513
50	0x3dba8cb0	0.09108865
51	0xbd854cb4	-0.065087706
52	0x3e97f871	0.29681733
53	0x3e26cf42	0.1629
54	0x3d977a60	0.07396388
55	0x3d294198	0.04132232
56	0x3e994c41	0.2994099
57	0xbe862790	-0.2620206
58	0x3e9234a5	0.2855579
59	0xbda6beb4	-0.081418425
60	0xbdefde86	-0.11712365
61	0x3e93ffa1	0.28905967
62	0x3d347d20	0.04406464
63	0x3e6148f2	0.22000483
64	0xbe828eac	-0.25499475
65	0xbe75afe6	-0.23992881
66	0xbe993f0d	-0.29930916
67	0xbea6601a	-0.32495195
68	0x3e98eadd	0.29866686
69	0x3e55aa96	0.20865855
70	0x3de345d8	0.11097306
71	0xbdf149e8	-0.117816746
72	0xbe64e763	-0.22353892
73	0xbe917334	-0.28408206
74	0x3e2b2ea6	0.16717014
75	0x3ea9276b	0.33037886
76	0x3d6747d0	0.05646497
77	0xbd89bb38	-0.06725162
78	0xbe813e77	-0.2524297
79	0xbe88cc68	-0.2671845
80	0xbe6367bc	-0.2220754
81	0x3e5a97c2	0.21346954
82	0x3d5f1638	0.05446455
83	0x3e52d9ce	0.20590898
84	0x3d3b2f60	0.045699477
85	0xbe26d21f	-0.16291092
86	0x3dc71068	0.09719926
87	0xbe940b5e	-0.28914922
88	0x3ea66eb7	0.32506344
89	0x3e2cf1f2	0.1688917
90	0xbe21e946	-0.15811643
91	0xbd6a2858	-0.05716738
92	0x3d6189b0	0.05506295
93	0x3de73ebc	0.112912625
94	0x3dfc02d0	0.12305224
95	0x3e6ef90a	0.23337188
96	0x3e6c6922	0.2308698
97	0xbe700698	-0.23440015
98	0xbe39d628	-0.181481
99	0xbd7b1048	-0.061294824
100	0x3e1a7ac6	0.15085897
101	0xbb1c8680	-0.002388388
102	0x3e532746	0.2062045
103	0xbe8804c6	-0.26566142
104	0x3c59d980	0.013296485
105	0x3e1f19ee	0.15537235
106	0x3e43942e	0.19099495
107	0x3daa37a8	0.08311397
108	0x3e031424	0.12800652
109	0x3de7b3c8	0.113135874
110	0xbd6b6f20	-0.057479024
111	0xbeb04073	-0.3442417
112	0x3dedce6c	0.116116375
113	0x3a302200	0.00067189336
114	0x3d733c88	0.0593839
115	0x3d933e88	0.07189661
116	0x3e9d0b37	0.3067262
117	0x3e091cc2	0.13389876
118	0x3df60f00	0.1201458
119	0xbe10b778	-0.14132488
120	0xbe1a5f6f	-0.15075468
121	0xbe7b151a	-0.24519768
122	0x3e5b8942	0.21439078
123	0x3e370fe6	0.17877159
124	0xbe85244f	-0.26004264
125	0x3db04228	0.08606368
126	0xbe16ad43	-0.14714532
127	0x3dee0d70	0.11623657
128	0x3cfb9b10	0.030713588
129	0xbe9a5332	-0.30141598
130	0x3e620fde	0.22076365
131	0x3e9ad919	0.30243757
132	0xbe9d15a3	-0.3068057
133	0x3ea652bb	0.32484993
134	0x3e4fdb86	0.20298585
135	0xbde27492	-0.1105739
136	0xbd565658	-0.052328438
137	0xbd0d2840	-0.034462214
138	0xbcceaad0	-0.025227934
139	0x3ea41411	0.3204656
140	0xbe86e616	-0.26347417
141	0x3e3b2aca	0.18278041
142	0xbe6eaec4	-0.23308855
143	0xbe79ff8c	-0.2441389
144	0x3e4aac3e	0.19792268
145	0xbda9e340	-0.082952976
146	0xbaa05300	-0.0012231767
147	0x3e8d557d	0.27604285
148	0x3dac8448	0.08423668
149	0x3c3503e0	0.011048287
150	0x3dce017c	0.10058877
151	0x3e8c870f	0.27446792
152	0xbe68a7f5	-0.2272032
153	0xbdd8993c	-0.10576102
154	0x3eb41879	0.3517492
155	0xbe9b47f6	-0.3032834
156	0x3b062d00	0.00204736
157	0xbe96be34	-0.29441988
158	0x3cb4f000	0.022087097
159	0x3e042b72	0.12907198
160	0x3ea82a97	0.32844993
161	0xbeaf9eb0	-0.34300756
162	0x3e332622	0.17495015
163	0x3e44363e	0.19161317
164	0x3d7547d8	0.05988297
165	0x3e975449	0.29556492
166	0x3cea65e0	0.02861303
167	0x3e00a57a	0.12563124
168	0xbeafc0bf	-0.3432674
169	0xbe3d112c	-0.18463582
170	0xbde18bd2	-0.11012997
171	0x3e49344e	0.19648859
172	0x3de5f9b4	0.11229268
173	0xbe6149e2	-0.2200084
174	0x3e2a96e6	0.16659126
175	0x3d387ca0	0.045040727
176	0xbace2a00	-0.001572907
177	0x3e637b1e	0.22214934
178	0xbe58220b	-0.21106736
179	0x3e2d9faa	0.16955438
180	0x3e046c00	0.12931824
181	0xbd58e570	-0.052953184
182	0x3e07a474	0.13246328
183	0xbe97f19b	-0.29676518
184	0x3d9ce5ac	0.07660994
185	0x3d038418	0.032108396
186	0xbea1e970	-0.3162341
187	0x3e801821	0.2501841
188	0xbe690f87	-0.2275983
189	0xbe398d03	-0.18120198
190	0x3e0d9a26	0.13828334
191	0x3e930f21	0.2872248
192	0x3daa9750	0.08329642
193	0x3e75f906	0.24020776
194	0x3e27cb8a	0.16386238
195	0xbe4fb4c3	-0.20283799
196	0x3c5acf00	0.013355017
197	0xbe330ac0	-0.1748457
198	0xbe0858d8	-0.13315141
199	0xbe88b151	-0.26697782
200	0x3d5e2f98	0.054244608
201	0xbe54fb26	-0.2079893
202	0x3ea3078b	0.31841692
203	0x3e8c8703	0.27446756
204	0xbd3fba88	-0.04680875
205	0xbe15c601	-0.14626314
206	0x3e253ae2	0.16135743
207	0xbe17c973	-0.1482294
208	0x3e049ec8	0.12951195
209	0x3e8ef205	0.2791902
210	0x3e2b2a22	0.16715291
211	0x3e6ea492	0.23304966
212	0xbcc17d90	-0.023619443
213	0xbd496320	-0.0491668
214	0xbe67ef18	-0.22649801
215	0x3ea4a31d	0.32155696
216	0xbe946518	-0.28983378
217	0x3e90e03f	0.28296086
218	0x3e9ca2a7	0.30592844
219	0xbea198d4	-0.3156191
220	0xbbb67dc0	-0.00556919
221	0x3e3ebb36	0.18626103
222	0x3e460f86	0.19341859
223	0x3e39b93e	0.1813707
224	0xbdbfe304	-0.09369472
225	0x3e11901e	0.14215133
226	0x3eadbccb	0.339331
227	0xbeb3f81c	-0.3515023
228	0xbeb1f6ac	-0.34758508
229	0xbdc02560	-0.09382129
230	0xbdf8d614	-0.12150207
231	0xbd7195b0	-0.058980644
232	0x3dcd05cc	0.10010871
233	0x3e60b52a	0.21944109
234	0xbe820fb2	-0.254026
235	0x3e90b2e7	0.28261492
236	0xbe527eeb	-0.20556228
237	0x3cfe89d0	0.031071573
238	0x3d5d24c8	0.053990155
239	0xbe1ae563	-0.15126567
240	0xbe5d905f	-0.21637104
241	0x3e06dad8	0.1316942
242	0xbe88eaea	-0.26741725
243	0xbe558308	-0.20850766
244	0x3cd55d60	0.026045501
245	0x3e78849a	0.24269333
246	0x3e68be9a	0.22728959
247	0xbc746480	-0.014916539
248	0xbb98eb40	-0.004666716
249	0xbea0a6dc	-0.31377304
250	0x3e39e7d2	0.18154839
251	0xbe69496c	-0.22781914
252	0x3ca69610	0.020335227
253	0x3c56c220	0.013107806
254	0x3be431c0	0.0069639385
255	0xbeb1e1ce	-0.34742588

lstm.bias_ih_l1 f4 [32]
0	0x3eddd502	0.43326575
1	0x3f41e524	0.75740266
2	0x3f3dcc41	0.7413979
3	0x3eeed964	0.4665023
4	0x3f44d27c	0.76883674
5	0x3edd7552	0.4325357
6	0x3f06097d	0.5235823
7	0x3fa9514e	1.3227937
8	0xbeb2fcdc	-0.3495854
9	0x3d067ea8	0.032835633
10	0x3d3abfc0	0.045593023
11	0xbe97333b	-0.29531273
12	0xbdb1c3c8	-0.086799204
13	0x3ea07e1b	0.3134621
14	0xbea61d91	-0.32444432
15	0x3e849279	0.25893
16	0xbd945842	-0.07243396
17	0x3ec16c4e	0.37777942
18	0x3f0b1f74	0.5434487
19	0xbf44cac9	-0.76871926
20	0xbeb20a2f	-0.34773394
21	0xbeadec8d	-0.33969536
22	0x3eee8351	0.4658456
23	0x3e5d1d2b	0.21593158
24	0x3f20761c	0.6268022
25	0x3f729e83	0.9477312
26	0x3f8b6915	1.0891443
27	0x3f0fe724	0.5621207
28	0x3f364bcf	0.71209425
29	0x3e9d0cae	0.30673736
30	0x3ef1d50d	0.47232857
31	0x3f58eeb7	0.8473925

lstm.bias_hh_l1 f4 [32]
0	0x3f0a5584	0.54036736
1	0x3f63c383	0.889702
2	0x3f94fda1	1.1639901
3	0x3ebfbc23	0.37448224
4	0x3f134d1d	0.5753954
5	0x3e9fc993	0.31208476
6	0x3efb5568	0.49088597
7	0x3f72afe6	0.9479965
8	0x3d97726c	0.07394871
9	0xbe947100	-0.28992462
10	0xbe2a12f0	-0.16608787
11	0x3d8a31b4	0.06747761
12	0xbe9c7fe1	-0.30566314
13	0x3dd3cf38	0.10342258
14	0x3e7a187a	0.244234
15	0xbdf9a5c0	-0.121898174
16	0xbe7583dc	-0.23976082
17	0x3edbcb74	0.4292866
18	0x3e4a7b8a	0.19773689
19	0xbdd04e03	-0.101711296
20	0xbec8b7fb	-0.39202866
21	0xbe3cb9c9	-0.18430246
22	0x3f186dda	0.5954262
23	0x3ee6a8d6	0.45050687
24	0x3edd8f87	0.43273565
25	0x3f971403	1.1802982
26	0x3f90bd6e	1.1307809
27	0x3e5b5c7e	0.21422002
28	0x3f24a994	0.64321256
29	0x3edfed3e	0.4373569
30	0x3f40135b	0.75029534
31	0x3f69c0b6	0.9130968

lstm.weight_ih_l2 f4 [32, 8]
0	0x3f70b7d3	0.94030493
1	0xbef4d079	-0.47815302
2	0xbe692c10	-0.22770715
3	0xbe15eeb6	-0.14641842
4	0x3eb78109	0.35840634
5	0x3ed179d9	0.40913275
6	0x3ec12b95	0.37728563
7	0xbf0dce9d	-0.5539339
8	0xbd504bb8	-0.05085346
9	0x3f1a95c7	0.6038479
10	0x3f050d48	0.5197339
11	0xbf77c720	-0.96788216
12	0xbf29e247	-0.66360897
13	0xbf17691e	-0.5914477
14	0x3f3aa46f	0.72907156
15	0x3f3a0b85	0.7267383
16	0x3ea40608	0.3203585
17	0xbca42e4c	-0.020041607
18	0x3e45f6d8	0.19332445
19	0xbed89b13	-0.42305812
20	0x3d222263	0.039583575
21	0x3effeb85	0.49984375
22	0x3f8ad3bc	1.0845866
23	0x3e29ebef	0.16593908
24	0x3f8775b8	1.05828
25	0xbe8acca2	-0.27109247
26	0xbce68af5	-0.028142432
27	0xbedef9d2	-0.43549973
28	0xbebcd78c	-0.368832
29	0x3eb1b150	0.3470559
30	0x3f447fc6	0.76757467
31	0xbedf8c9e	-0.4366197
32	0x3f138dea	0.5763842
33	0xbecb02a3	-0.3965045
34	0xbeb040de	-0.3442449
35	0xbecf5763	-0.40496358
36	0xbefe1e02	-0.4963227
37	0x3f19ee63	0.60129374
38	0x3f8ee8ff	1.1164855
39	0xbee7a2fd	-0.45241538
40	0x3cd1f1eb	0.02562805
41	0x3e856317	0.26052162
42	0x3f3654ec	0.7122333
43	0xbe1b3359	-0.15156306
44	0xbe682577	-0.22670542
45	0xbe1ad838	-0.15121543
46	0x3f2e6031	0.68115526
47	0x3ea56837	0.32306072
48	0xbe4b02c8	-0.1982528
49	0x3f8541c6	1.0410697
50	0x3f5f6311	0.8726054
51	0xbf0f7f3f	-0.5605354
52	0xbeaeeefa	-0.341667
53	0xbee69483	-0.4503518
54	0x3f480ff5	0.7814935
55	0x3f8b338a	1.0875103
56	0x3ed6ca31	0.41951135
57	0xbf54cff2	-0.831298
58	0xbec9aeda	-0.39391214
59	0x3e217a21	0.15769245
60	0x3f08e046	0.53467214
61	0x3da1389a	0.07872124
62	0xbe5323c6	-0.20619115
63	0xbf78ff20	-0.9726429
64	0x3e95a0c9	0.29224232
65	0x3dbac354	0.09119287
66	0x3e6f8212	0.23389462
67	0x3e691642	0.22762397
68	0x3cac6910	0.021046191
69	0x3e859277	0.26088306
70	0x3e46e09a	0.19421616
71	0x3df0e6bc	0.11762759
72	0xbbd8cf00	-0.006616473
73	0xbcd11d70	-0.025526732
74	0xbe8fa111	-0.2805257
75	0x3eb0b673	0.34514198
76	0xbcf7a250	-0.030228764
77	0xbe062372	-0.13099459
78	0xbe9dd45b	-0.30826077
79	0x3dec5ac4	0.1154075
80	0x3ea7e15b	0.3278912
81	0xbbc7cd40	-0.0060974658
82	0xbd2fa4a8	-0.042881638
83	0x3e38d54e	0.1805012
84	0x3e153434	0.14570695
85	0xbd24d820	-0.040245175
86	0xbead8a8a	-0.3389476
87	0x3e12fb26	0.14353618
88	0xbe0272d7	-0.1273912
89	0x3d11e138	0.035615176
90	0x3d80aa24	0.06282452
91	0xbdb61430	-0.08890569
92	0xbdbfa334	-0.093573004
93	0xbe80e77f	-0.25176618
94	0xbeb14995	-0.3462645
95	0xbd1b5ea8	-0.037932068
96	0x3e29b182	0.1657162
97	0xbe7765e0	-0.24159956
98	0x3cb60ce0	0.022222936
99	0xbd1548f8	-0.03644654
100	0xbead7063	-0.33874807
101	0xbd95f32c	-0.07321772
102	0xbe6b4b58	-0.2297796
103	0xbe6f7b51	-0.23386885
104	0x3dab02e0	0.08350158
105	0xbe087ba6	-0.13328418
106	0xbe8f29d7	-0.2796161
107	0xbdcab418	-0.098976314
108	0x3e519966	0.20468673
109	0x3d6ccba8	0.05781141
110	0x3d9e8174	0.07739535
111	0x3e59b9e2	0.21262315
112	0xbdcf89f4	-0.10133734
113	0x3d3f6ef8	0.046736687
114	0xbdb87ffc	-0.09008786
115	0xbe0ae3fb	-0.1356353
116	0xbdb5d1a8	-0.088778794
117	0xbde1ccac	-0.11025366
118	0x3d39b7e0	0.045341372
119	0x3e3bb9a2	0.18332532
120	0x3e32fd82	0.17479518
121	0xbd977090	-0.073945165
122	0x3d97676c	0.07392773
123	0xbe914538	-0.28373122
124	0xbe0c9b5f	-0.13731144
125	0xbe00aa01	-0.12564851
126	0x3e8894b5	0.26675954
127	0x3e89632d	0.26833478
128	0x3ef3e048	0.4763205
129	0xbfa85f31	-1.315405
130	0xbf837f30	-1.027319
131	0x3f033993	0.51259726
132	0x3f51fdaa	0.82027686
133	0x3f4540e8	0.77052164
134	0xbf8635a0	-1.0485115
135	0xbf919599	-1.1373779
136	0x3f2f564e	0.68491066
137	0xbf57e6b0	-0.84336376
138	0xbf839d73	-1.0282425
139	0x3f6509ab	0.8946788
140	0x3f3306c5	0.69932204
141	0x3f2cfe52	0.6757556
142	0xbf5d80c4	-0.86524606
143	0xbf6cda95	-0.9252103
144	0x3f63670d	0.8882912
145	0xbfa5050b	-1.2892164
146	0xbf11c85d	-0.56946355
147	0x3f57157d	0.84017164
148	0x3ef3e191	0.4763303
149	0x3f32c441	0.6983071
150	0xbed18f31	-0.4092956
151	0xbf9c66e3	-1.2218899
152	0x3f766e5e	0.96262157
153	0xbf9e6521	-1.2374612
154	0xbf1e8a99	-0.61930233
155	0x3f2fa6fa	0.6861416
156	0x3f096c2d	0.5368069
157	0x3f03dad7	0.515058
158	0xbf028f94	-0.5100033
159	0xbf92d3e6	-1.1470916
160	0x3f5d272b	0.8638789
161	0xbf5fe2fa	-0.87455714
162	0xbf639454	-0.88898206
163	0x3f531cf2	0.8246604
164	0x3f660223	0.8984701
165	0x3ece2b7b	0.40267548
166	0xbf1b377e	-0.6063155
167	0xbfa5c4f8	-1.2950735
168	0x3f48847b	0.7832715
169	0xbf7eeaab	-0.99576825
170	0xbeff501c	-0.49865806
171	0x3f21b916	0.63173044
172	0x3f23d0b6	0.6399034
173	0x3e7c70df	0.24652432
174	0xbf0496aa	-0.51792395
175	0xbf947253	-1.1597389
176	0x3f1e02f1	0.6172324
177	0xbf736dbd	-0.9508932
178	0xbf6bd8dc	-0.92127776
179	0x3eed3d2a	0.46335727
180	0x3f8b8d2d	1.0902458
181	0x3ea29ac5	0.31758705
182	0xbeee9c6b	-0.46603712
183	0xbf8b6169	-1.0889102
184	0xbedbb645	-0.42912498
185	0x3f5a22c3	0.8520929
186	0x3f63fdd3	0.8905918
187	0xbf193e2e	-0.59860504
188	0xbf1587e0	-0.58410454
189	0xbf089c62	-0.5336362
190	0x3f716e49	0.94308907
191	0x3f6399a4	0.8890631
192	0x3eac0aaa	0.33601886
193	0xbf4d1273	-0.80106276
194	0xbefbbe67	-0.49168703
195	0xbe8ba485	-0.27273956
196	0xbd5427f6	-0.051795922
197	0x3f37dfdf	0.71825975
198	0x3e7f1a23	0.24912314
199	0xbf5db287	-0.86600536
200	0x3e0e1bba	0.13877764
201	0x3f4654ac	0.7747295
202	0x3f668695	0.90049106
203	0xbf48a8fc	-0.7838285
204	0xbf4ebb64	-0.80754685
205	0xbc728280	-0.014801621
206	0x3f3ac2e3	0.72953624
207	0x3f3adac5	0.72990066
208	0x3dc5f45c	0.096657485
209	0x3e4df3f7	0.20112596
210	0xbbef2c7c	-0.007299004
211	0xbefa21d6	-0.4885394
212	0xbe8ccc6f	-0.2749972
213	0x3ef6c5ec	0.48197877
214	0x3f885e7b	1.0653833
215	0xbd8b6d02	-0.06807901
216	0x3ef1a258	0.4719417
217	0xbf4b8cf9	-0.7951198
218	0xbe5e0b63	-0.21684031
219	0xbf24f365	-0.6443389
220	0xbe27f49e	-0.16401908
221	0x3ecdbbd0	0.40182352
222	0x3f5e72c4	0.8689387
223	0xbe242c15	-0.16032441
224	0x3efd51d8	0.49476504
225	0xbe4d2e73	-0.2003725
226	0xbe0ef540	-0.13960743
227	0xbeb40eaf	-0.35167453
228	0xbe71ca07	-0.23612224
229	0x3ed9dd7e	0.42551798
230	0x3f139298	0.5764556
231	0xbef4e5fe	-0.4783172
232	0xbe146b04	-0.14493948
233	0x3eb6867a	0.35649472
234	0x3f3c8ab9	0.73649174
235	0xbe327362	-0.17426828
236	0xbf282f2b	-0.6569697
237	0xbe732c8d	-0.23747464
238	0x3f5f03df	0.8711528
239	0x3f0ee399	0.55816036
240	0xbe5f2304	-0.21790701
241	0x3f9e9bf5	1.2391344
242	0x3f2cfd46	0.67573965
243	0xbf4b33de	-0.7937602
244	0xbf8002a9	-1.0000812
245	0xbf38176f	-0.71910757
246	0x3f726320	0.946825
247	0x3f8dfb69	1.1092349
248	0x3eccb0a1	0.39978507
249	0xbf6d901d	-0.92798024
250	0xbf0d1e13	-0.55124015
251	0x3eda7f99	0.42675474
252	0x3e91de04	0.28489697
253	0x3e97b7b8	0.29632354
254	0xbec140b5	-0.3774468
255	0xbf59808f	-0.8496179

lstm.weight_hh_l2 f4 [32, 8]
0	0xbcabbaa0	-0.020963013
1	0x3e491c46	0.19639692
2	0x3e9e25bb	0.3088816
3	0x3cb4e6a0	0.022082627
4	0xbe2e6efc	-0.17034525
5	0xbe9b535f	-0.30337045
6	0xbe83b062	-0.25720507
7	0x3c1d9ce0	0.009619921
8	0x3e89eab9	0.26936892
9	0x3d3f3a08	0.046686202
10	0x3e6b27da	0.22964421
11	0x3e2c3cfe	0.16820142
12	0xbdb4ec2c	-0.08834109
13	0x3e8aac1f	0.27084443
14	0x3e0561d0	0.13025594
15	0xbea1b8f9	-0.31586435
16	0xbe438a5d	-0.1909575
17	0xbe50e2e5	-0.20399053
18	0x3e8375df	0.25675866
19	0x3c902470	0.0175955
20	0xbe1a45c8	-0.15065682
21	0x3e06d456	0.13166937
22	0x3c41ee20	0.011836559
23	0xbe9b391a	-0.30317003
24	0x3d7f8730	0.062384784
25	0x3e01fa00	0.12693024
26	0xbdeb2a02	-0.11482622
27	0x3e930cff	0.28720853
28	0xbe981e70	-0.29710722
29	0xbe84bc48	-0.25924897
30	0x3e0184a0	0.12648249
31	0x3e59624a	0.212289
32	0xbe671f9a	-0.22570649
33	0xbe947cab	-0.29001364
34	0x3e0cdb8a	0.13755623
35	0x3e24acce	0.16081545
36	0x3d1a85c0	0.03772521
37	0xbea90e56	-0.3301875
38	0x3e05e00a	0.13073745
39	0xbe6b324c	-0.22968405
40	0xbd615450	-0.055012047
41	0x3e8fbf11	0.2807546
42	0xbd63e798	-0.055640787
43	0xbd856844	-0.06514028
44	0xbe16ddf3	-0.14733104
45	0x3e437f36	0.19091496
46	0x3eaca42f	0.33719012
47	0xbe70ceb2	-0.23516348
48	0x3ea76421	0.3269358
49	0x3e3d0162	0.18457559
50	0xbe58adc1	-0.21160032
51	0xbe110a5d	-0.1416411
52	0x3e8819bd	0.26582137
53	0x3e86f33f	0.26357457
54	0x3d59b2b8	0.053148955
55	0xbe7c8db9	-0.24663438
56	0x3e7aff6e	0.24511501
57	0xbeb2eb8f	-0.34945342
58	0xbe6e65ee	-0.2328107
59	0x3ead56f7	0.3385541
60	0xbe9baf65	-0.30407253
61	0xbcc93e50	-0.024565846
62	0xbe87e7ae	-0.26543945
63	0x3e316b62	0.1732612
64	0xbe0e9381	-0.13923456
65	0x3da62ad0	0.081136346
66	0xbe4ff094	-0.20306617
67	0xbc8c4c00	-0.017126083
68	0xbe54bb05	-0.20774467
69	0xbe206b1d	-0.1566586
70	0xbeaf9f2b	-0.34301123
71	0xbe3f7c69	-0.18699802
72	0xbe82d5d3	-0.2555376
73	0x3dc24bf8	0.09487146
74	0x3c2712c0	0.010197341
75	0xbe916513	-0.28397426
76	0xbe8e32a3	-0.27773008
77	0xbb99dcc0	-0.004695505
78	0x3d957dc0	0.072993755
79	0xbc148460	-0.009064764
80	0xbca6ae10	-0.020346671
81	0x3e56707e	0.2094135
82	0xbe9281c1	-0.2861462
83	0xbd038520	-0.03210938
84	0x3d6ef760	0.058341384
85	0x3c3251e0	0.010883778
86	0x3e17d7b2	0.14828375
87	0xbe472474	-0.194475
88	0xbc4ed8a0	-0.01262489
89	0xbe72c98c	-0.23709697
90	0xbe647d98	-0.22313535
91	0x3cbf0b50	0.023320824
92	0xbda9ba34	-0.082874686
93	0xbe10c24e	-0.14136621
94	0xbe809ad8	-0.25118136
95	0x3d0f5030	0.034988582
96	0xbea67c78	-0.32516837
97	0x3e2a661e	0.16640517
98	0xbe4aa3e5	-0.19789083
99	0xbde1abd0	-0.11019099
100	0x3e89651b	0.2683495
101	0x3e047e14	0.1293872
102	0xbe74640e	-0.23866293
103	0xbdf2f00e	-0.11862193
104	0xbe47bfdd	-0.19506784
105	0x3e673f62	0.22582772
106	0x3e983263	0.29725942
107	0x3ea86675	0.3289067
108	0x3dcaa104	0.098939925
109	0xbc09d440	-0.008412421
110	0xbeaf5f8e	-0.3425259
111	0xbda03e28	-0.07824355
112	0x3e9ce9c9	0.30647114
113	0x3b5d8980	0.003380388
114	0x3e9c76b9	0.30559328
115	0x3ea0c31b	0.31398854
116	0x3e8aaac3	0.27083406
117	0x3dfb9fc4	0.12286332
118	0x3e14c25a	0.14527264
119	0x3e452362	0.19251779
120	0x3e391eca	0.18078151
121	0xbe0705f4	-0.13185865
122	0xbba0e180	-0.004909694
123	0xbea99758	-0.3312328
124	0x3ea4c84f	0.32184073
125	0xbe3862e4	-0.18006474
126	0x3e1fa4e6	0.15590248
127	0xbdadf464	-0.084938794
128	0xbe695ecf	-0.22790073
129	0x3d3e00a0	0.046387315
130	0x3e30059a	0.17189637
131	0xbc80b020	-0.015708983
132	0xbe3b49c3	-0.18289857
133	0xbe8ed1cd	-0.2789444
134	0x3e9a0393	0.30080852
135	0xbe9e36fb	-0.30901322
136	0xbeb0d24c	-0.34535444
137	0x3e21dcc6	0.15806875
138	0x3e1e0502	0.15431598
139	0xbd663380	-0.056201458
140	0x3e304236	0.17212757
141	0x3db3d218	0.087803066
142	0xbd63c6c0	-0.055609465
143	0x3e1f79b2	0.15573767
144	0x3e362aae	0.17789719
145	0x3d03f4a0	0.032215714
146	0x3e754b4e	0.23954508
147	0xbdbc90e4	-0.09207323
148	0x3e988be7	0.29794237
149	0xbd5eebc0	-0.054424047
150	0xbeaf504f	-0.34240958
151	0x3e1a58fa	0.15073004
152	0xbe94921d	-0.29017726
153	0xbe27b69e	-0.16378257
154	0x3e65137e	0.22370717
155	0xbe0c4665	-0.13698728
156	0xbe0f32e4	-0.13984257
157	0xbd35df58	-0.04440245
158	0xbe1e9fb2	-0.15490606
159	0xbd7163e0	-0.05893314
160	0xbe668943	-0.22513299
161	0xbe922c7c	-0.28549564
162	0x3d9032c8	0.07040936
163	0xbe846714	-0.25859892
164	0x3d4ad620	0.04952061
165	0xbd5392b0	-0.051653564
166	0xbeab241c	-0.33425987
167	0x3dd92f9c	0.10604784
168	0x3e8b299f	0.27180192
169	0xbe424cbe	-0.18974587
170	0x3e9d4247	0.30714628
171	0xbc44dd40	-0.012015641
172	0x3eb16b95	0.3465239
173	0xbda2095c	-0.079119414
174	0x3e0f9160	0.140203
175	0x3e8e0879	0.2774084
176	0xbe3fe82d	-0.18740912
177	0x3e8e50af	0.27795932
178	0x3e9d5493	0.30728588
179	0x3e9d5845	0.30731407
180	0xbdcc8510	-0.09986317
181	0xbe30137e	-0.17194936
182	0x3cd8a040	0.0264436
183	0xbe6047d2	-0.21902397
184	0x3c649da0	0.013953596
185	0x3dc8a354	0.09796777
186	0xbea8dd20	-0.32981205
187	0x3eaa66fd	0.332817
188	0xbd227978	-0.039666623
189	0x3e3410a2	0.1758447
190	0x3e992df9	0.29917887
191	0xbe90be83	-0.2827035
192	0xbeadf2fe	-0.3397445
193	0xbe63fbff	-0.22264098
194	0x3c800c10	0.015630752
195	0xbe20dbd2	-0.15708855
196	0xbc245300	-0.010029554
197	0x3defe174	0.11712924
198	0x3dcaef10	0.09908879
199	0x3d072cd8	0.03300175
200	0x3d0ecc80	0.034862995
201	0xbea0d8ca	-0.31415397
202	0x3c26a140	0.010170281
203	0xbe421158	-0.18951929
204	0xbe7e4d3e	-0.24834153
205	0xbc824d90	-0.015906125
206	0xbe489c94	-0.1959098
207	0x3d78e6c0	0.060766935
208	0xbd424e88	-0.047438174
209	0x3d7e7358	0.06212172
210	0x3e23c0d2	0.15991524
211	0xbddc7bea	-0.10765822
212	0xbd778658	-0.060430855
213	0x3e085db4	0.13316995
214	0xbeb057d1	-0.34442
215	0x3e902a71	0.2815738
216	0xbe8b74a2	-0.2723742
217	0xbe331a9d	-0.17490621
218	0x3d0b7980	0.03405142
219	0x3ea6f87f	0.32611462
220	0xbe75e138	-0.24011695
221	0x3c0dc300	0.008652449
222	0x3e8e43c1	0.27786067
223	0xbdf05392	-0.1173469
224	0x3d19df78	0.037566632
225	0x3ea1c3b9	0.31594637
226	0xbe305985	-0.17221649
227	0x3e07909a	0.13238755
228	0xbc976ab0	-0.01848349
229	0xbe82a563	-0.25516805
230	0x3c87e280	0.016587496
231	0xbe88fd61	-0.26755813
232	0xbd18b608	-0.037282974
233	0xbe5254d2	-0.20540169
234	0x3e9183eb	0.28420958
235	0x3e64d776	0.22347817
236	0x3db9a17c	0.09064004
237	0x3d629ec0	0.055327177
238	0xbe6f3142	-0.23358634
239	0x3e08b5b6	0.13350567
240	0xbd611b38	-0.0549576
241	0xbbca83c0	-0.0061802566
242	0x3ead3f03	0.33837137
243	0xbdc91fa0	-0.09820485
244	0x3e142856	0.14468512
245	0xbd9daba4	-0.076987535
246	0x3e928e17	0.2862403
247	0xbc99d170	-0.018776625
248	0x3e2bbb0a	0.16770568
249	0x3e614682	0.21999553
250	0x3e9cb2a3	0.3060504
251	0xbd49cf28	-0.049269825
252	0x3d55afb0	0.0521695
253	0xbe779012	-0.24176052
254	0x3c0563c0	0.008141458
255	0x3e6c0ad2	0.23051003

lstm.bias_ih_l2 f4 [32]
0	0x3f8e714e	1.1128328
1	0x3e94584e	0.2897362
2	0x3f94597b	1.1589807
3	0x3f53b3e1	0.8269635
4	0x3f7664cd	0.9624756
5	0x3f824f4f	1.0180453
6	0x3f1d9227	0.61551136
7	0x3eddc5f2	0.43315083
8	0x3b5cd300	0.0033695102
9	0x3ea28fb3	0.3175026
10	0xbe7d87a6	-0.24758777
11	0xbd168938	-0.036751956
12	0x3e9145ff	0.28373715
13	0x3e7fb71e	0.24972197
14	0x3cce7c80	0.02520585
15	0xbdadfb20	-0.08495164
16	0xbde1f0ab	-0.11032232
17	0xbe9dfa91	-0.3085523
18	0xbec9fca7	-0.3945057
19	0xbe4459c3	-0.19174866
20	0xbe90db17	-0.28292152
21	0xbe764f0b	-0.2405359
22	0xbf00eb50	-0.5035906
23	0xbe2a2aa1	-0.16617824
24	0x3f91d1cd	1.1392151
25	0x3f4f522f	0.8098478
26	0x3f782bca	0.96941817
27	0x3f878f5e	1.0590627
28	0x3fb5e0ac	1.420919
29	0x3f0ec0ee	0.5576314
30	0x3f1f10a2	0.62134755
31	0x3e8b5908	0.27216363

lstm.bias_hh_l2 f4 [32]
0	0x3f28f54f	0.6599931
1	0x3eaf06f4	0.34184992
2	0x3f9a855d	1.2071949
3	0x3f99e32a	1.202245
4	0x3fbd4324	1.4786115
5	0x3f44cc16	0.7687391
6	0x3f5159fa	0.8177792
7	0x3f0a2608	0.5396428
8	0xbd760ca0	-0.060070634
9	0x3e644b4e	0.22294351
10	0xbe4e3295	-0.20136483
11	0xbdd69db0	-0.10479295
12	0x3dcabf44	0.09899762
13	0x3d469788	0.048484355
14	0xbe7f213e	-0.24915025
15	0xbdc003b8	-0.09375709
16	0xbe0aafaf	-0.1354358
17	0xbe7e2832	-0.24820021
18	0xbe5d591d	-0.21616025
19	0xbeb8f9c1	-0.36128047
20	0xbe19c7ab	-0.15017574
21	0xbf21fc47	-0.6327557
22	0xbe919361	-0.28432754
23	0xbd2d36f4	-0.042288736
24	0x3f036c1c	0.51336837
25	0x3e8d728d	0.27626458
26	0x3f70eef9	0.94114643
27	0x3f891cab	1.0711874
28	0x3f66a1d9	0.9009071
29	0x3eee52c1	0.4654751
30	0x3eb62a25	0.3557903
31	0x3f21c1bd	0.63186246
