ModelSave40.pt (torch_old, 30741 bytes, 45 tensors)

lstm.weight_ih_l0 f4 [32, 6]
1.008412 0.23564905 -0.888127 0.09282601 1.9463336 -2.3332424 0.5839254 -1.65084
0.26459116 1.3331007 -1.337597 -0.71020836 -0.9150608 -0.1878586 0.9105702 0.65027803
-1.341352 1.6236999 -0.28677583 -0.013058242 1.3839283 0.027734166 -1.9171401 1.6114086
0.20687275 -0.1439156 -0.8415189 -0.051637255 0.53587514 0.49021715 -0.60442555 0.4832008
-0.26944315 -0.6919586 -0.4601847 0.14098561 -0.7501113 0.14423035 2.1027112 0.13644886
0.48416635 2.2399442 0.15766561 -0.1475107 -0.61227226 -0.65366906 2.154817 -3.0926716
0.20013061 -0.089346886 -0.33564806 -0.113769054 -0.05981666 0.104298055 0.019544154 0.10738596
0.33994034 0.21589419 -0.34386513 0.12961367 -0.2681027 -0.07028374 -0.060192615 -0.25779608
-0.18335952 -0.19541298 0.12708077 0.015264034 -0.11726716 0.016037583 0.31535223 -0.3032254
0.3414531 0.23229018 -0.33760244 -0.22071394 0.20420036 0.1264005 0.011411309 -0.017590612
0.15466568 0.14292592 0.21531585 0.010767847 0.2833039 -0.28081825 0.29201296 0.28033027
0.021956235 -0.34995034 -0.058374733 0.30406705 -0.119156554 -0.17987128 -0.33788112 -0.22283995
-0.3035337 -0.15124145 1.0644624 0.21939626 -1.4885312 1.5459163 -0.36636624 -1.0200607
0.89761627 -0.14063606 3.4112897 0.43780947 -0.25755924 0.5292732 -1.6100019 -0.5492743
0.27628255 1.8977307 0.041683123 -0.33604476 2.1400313 1.4079788 1.3499733 -0.28268367
-0.3605104 -0.9417499 0.4517546 0.2894088 -0.5430978 -0.78997934 -0.4165695 -0.6245255
-0.47027552 -0.30748776 -0.17625995 0.1578431 0.22498666 -0.42299935 1.0817198 0.77098274
-1.1811237 -1.880588 0.12176196 0.5889277 -1.7755486 -0.6195647 0.97984624 -1.2886679
0.68173414 0.3007104 -0.89636153 -0.3009197 2.401714 -2.4256072 -0.104420386 -2.0831075
0.84491396 0.9725679 -1.4728129 0.5362829 -0.46465442 -0.029958453 0.81346804 0.227633
1.2962202 1.8380761 -0.29378873 -0.02784154 1.3556089 -0.46734172 -1.9145848 1.244103
0.07875252 -0.09363458 -1.303271 -0.2788143 0.88798165 0.8393662 -0.5294645 -0.046577472
-0.5106729 -0.8271266 -0.39074033 0.23331636 -0.2905631 0.18587127 1.3959605 -0.1052046
1.6351827 1.6050477 0.544088 0.17776853 -1.0588086 -0.18709597 2.4958932 -2.873891
00000000: a513 813f fc4d 713e 4b5c 63bf 901b be3d
00000010: 7621 f93f d853 15c0 237c 153f ba4e d3bf
00000020: 7e78 873e 0ba3 aa3f 6136 abbf 37d0 35bf
00000030: 6d41 6abf 015e 40be 211b 693f 9f78 263f
00000040: 6cb1 abbf 66d5 cf3f 48d4 92be 3df2 55bc
00000050: 9024 b13f c332 e33c d964 f5bf a342 ce3f
00000060: 73d6 533e 9c5e 13be c86d 57bf 9681 53bd
00000070: 1d2f 093f befd fa3e a2bb 1abf 1866 f73e
00000080: 74f4 89be 3324 31bf 549d ebbe 885e 103e
00000090: 4b07 40bf 1fb1 133e d292 0640 40b9 0b3e
000000a0: a7e4 f73e 3f5b 0f40 1873 213e 0c0d 17be
000000b0: e0bd 1cbf db56 27bf 86e8 0940 55ee 45c0
000000c0: 0aef 4c3e 80fb b6bd 10da abbe c0ff e8bd
000000d0: 5002 75bd 389a d53d 101b a03c 2ced db3d
000000e0: a90c ae3e 5e13 5d3e 170f b0be 72b9 043e
000000f0: c244 89be ecf0 8fbd 888c 76bd d9fd 83be
00000100: 99c2 3bbe 571a 48be 7621 023e 0016 7a3c
00000110: c429 f0bd 4061 833c d975 a13e 5c40 9bbe
00000120: f1d2 ae3e 7add 6d3e 3ada acbe d602 62be
00000130: e619 513e 226f 013e 80f6 3a3c 301a 90bc
00000140: ae60 1e3e 2c5b 123e c27b 5c3e a06b 303c
00000150: 350d 913e 69c7 8fbe b982 953e 7387 8f3e
00000160: 90dd b33c b12c b3be 581a 6fbd adae 9b3e
00000170: 5a08 f4bd 2d30 38be c1fe acbe 2830 64be
00000180: c568 9bbe 0adf 1abe 4e40 883f 6aa9 603e
00000190: 3188 bebf 96e0 c53f 5b94 bbbe 5991 82bf
000001a0: 2eca 653f e602 10be 9252 5a40 9028 e03e
000001b0: cede 83be 737e 073f 8b14 cebf 3e9d 0cbf
000001c0: e874 8d3e d7e8 f23f ecbb 2a3d 0f0e acbe
000001d0: 46f6 0840 a638 b43f edcb ac3f eabb 90be
000001e0: d294 b8be 8516 71bf 614c e73e 642d 943e
000001f0: 7508 0bbf 163c 4abf 9948 d5be e7e0 1fbf
00000200: f4c7 f0be 096f 9dbe 7d7d 34be 9fa1 213e
00000210: e762 663e 5f93 d8be cb75 8a3f 205f 453f
00000220: 102f 97bf 1cb7 f0bf 565e f93d f7c3 163f
00000230: 2d45 e3bf cb9b 1ebf 34d7 7a3f 12f3 a4bf
00000240: 2186 2e3f b7f6 993e f377 65bf 2612 9abe
00000250: afb5 1940 263d 1bc0 5bda d5bd a251 05c0
00000260: 484c 583f 36fa 783f 2285 bcbf d649 093f
00000270: 2fe7 edbe 6e6b f5bc 713f 503f a018 693e
00000280: 8bea a53f 1446 eb3f 7a6b 96be f113 e4bc
00000290: 9884 ad3f 6a47 efbe 1d11 f5bf c43e 9f3f
000002a0: 0049 a13d 7dc3 bfbd 96d1 a6bf bfc0 8ebe
000002b0: c452 633f b4e0 563f fc8a 07bf 05c8 3ebd
000002c0: 76bb 02bf 92be 53bf 1e0f c8be 7cea 6e3e
000002d0: b0c4 94be 0a55 3e3e d5ae b23f 8275 d7bd
000002e0: ab4d d13f 3472 cd3f 5a49 0b3f f408 363e
000002f0: 0a87 87bf 1696 3fbe b7bc 1f40 d5ed 37c0

lstm.weight_hh_l0 f4 [32, 8]
-0.30728045 0.24084821 0.2516847 0.020474613 -0.17441612 -0.31845373 0.031274438 0.1658428
-0.30213654 -0.05384901 0.0028325617 -0.067849964 0.1952785 0.34838375 -0.19369599 -0.049354434
0.0058222115 -0.3046764 -0.024043143 -0.1602964 0.20590469 0.101368785 -0.34716895 -0.19435799
0.020920098 0.23202798 0.33693752 0.00686118 0.18674359 -0.16419758 -0.03172204 -0.1529765
-0.1449876 0.26783797 -0.16880023 -0.21892612 -0.20300838 -0.08695802 -0.17560986 0.32546374
0.29770032 -0.25931448 -0.23744144 -0.051834762 -0.2651158 -0.2627939 -0.29478562 0.08963013
0.34617743 0.29878476 0.00521785 -0.08767152 0.18077907 0.24921975 0.33734676 0.13586804
-0.047814876 0.2643247 0.08988404 0.03920558 -0.2611843 0.3070478 -0.10767242 -0.13331035
-0.27248496 0.31929412 -0.27792352 0.03080964 0.26296356 0.22410825 -0.05326903 0.19492105
0.3399171 -0.2186938 -0.3478341 0.16358086 -0.32520226 -0.034081876 0.15122852 0.21631959
0.0147437155 -0.09450811 0.23289469 -0.13132124 0.15571937 -0.15028402 -0.08581343 0.323575
-0.0150948465 -0.28458145 -0.24850489 0.34918252 0.12396589 -0.31614017 0.16288123 0.18254372
0.34778377 -0.24053791 0.05009398 0.25354108 0.11457595 -0.28815198 0.21615878 0.11296928
-0.20778918 0.29053786 -0.26749298 -0.2768812 0.021092713 -0.081242055 -0.18456593 0.17808154
-0.17745298 -0.1375542 -0.023823798 0.114712596 -0.20903812 0.32332 -0.09021744 -0.033499926
0.13838583 0.32203034 0.12890929 -0.053989142 0.10512975 -0.25138214 0.13825446 0.15611532
-0.10714917 -0.25276703 0.16781893 -0.09146911 -0.084855944 0.07382634 -0.2569325 -0.21073774
0.20830652 0.30154768 0.10024372 0.08761749 -0.30830133 0.082398385 0.15131846 -0.13715588
0.29473904 0.277988 -0.23421091 -0.1944004 -0.25934744 0.29080155 0.095468014 0.09483728
0.32205197 -0.12891646 -0.033252627 -0.0581702 0.0975118 -0.29974392 -0.32850373 0.09430674
0.25010595 0.29351607 -0.2844038 -0.12358071 -0.3114239 0.04936695 -0.09892452 -0.25124314
0.21603164 -0.002087146 -0.07297173 -0.058733076 -0.19513738 0.010721266 -0.013733387 0.35128948
0.0985581 0.023828566 0.0177522 -0.30131304 0.19037709 0.0617719 0.27498838 -0.14650257
0.34801796 -0.023816586 0.27574554 -0.13569856 0.0016391873 -0.316761 0.2661403 -0.253967
0.23290566 0.23011264 -0.27544752 0.22063008 -0.33029327 0.0576874 0.1574817 0.28664276
0.14658234 0.076265186 -0.027946144 0.06030214 0.20374861 0.25254652 -0.17315763 -0.13235353
-0.098217756 0.12312868 -0.10806885 0.11279991 0.27063623 0.32101443 -0.021616995 0.26788947
-0.30650097 -0.27118006 -0.016022265 -0.1535808 0.17827854 -0.31235474 0.000962466 0.14397341
-0.11487751 0.17219922 0.064053 -0.06560308 0.15385684 -0.14169854 -0.19771726 0.08066073
-0.06429353 -0.3134901 0.22858867 -0.28724357 0.041541845 -0.030591458 0.15596423 0.09975949
0.07055184 0.04488489 0.15280095 -0.09770617 -0.118472636 0.13063613 -0.21731576 -0.2337594
0.1791533 -0.2953488 -0.22707398 0.0060923398 -0.042013884 -0.042303056 0.2233229 -0.20857139
00000000: dd53 9dbe eaa0 763e d1dc 803e 60ba a73c
00000010: 249a 32be 5e0c a3be a019 003d b2d2 293e
00000020: a4b1 9abe c890 5cbd 80a2 393b ecf4 8abd
00000030: 16f7 473e 5b5f b23e 3e58 46be e027 4abd
00000040: 40c8 be3b 8cfe 9bbe 20f6 c4bc bd24 24be
00000050: aed8 523e 709a cf3d 21c0 b1be c805 47be
00000060: a060 ab3c be98 6d3e 1383 ac3e c0d3 e03b
00000070: b639 3f3e 6923 28be f8ee 01bd dfa5 1cbe
00000080: a177 14be 0f22 893e f8d9 2cbe 2b2e 60be
00000090: 6ee1 4fbe 0c17 b2bd 12d3 33be 2fa3 a63e
000000a0: 2d6c 983e dec4 84be d923 73be b050 54bd
000000b0: 42bd 87be ec8c 86be 24ee 96be 0090 b73d
000000c0: 2b3e b13e 51fa 983e 80fa aa3b 208d b3bd
000000d0: 261e 393e 7633 7f3e b7b8 ac3e fe20 0b3e
000000e0: 88d9 43bd 9155 873e 2015 b83d 0896 203d
000000f0: f3b9 85be 5f35 9d3e 5c83 dcbd 8282 08be
00000100: 2683 8bbe 857a a33e fe4b 8ebe 8064 fc3c
00000110: 29a3 863e a27c 653e a030 5abd 6299 473e
00000120: 9d09 ae3e 44f1 5fbe 5017 b2be be81 273e
00000130: e980 a6be 7099 0bbd a6db 1a3e e282 5d3e
00000140: a08f 713c 788d c1bd f27b 6e3e 1379 06be
00000150: e674 1f3e 0ee4 19be f4be afbd 9fab a53e
00000160: 6050 77bc a9b4 91be 1178 7ebe 0dc8 b23e
00000170: d4e1 fd3d 20dd a1be 56ca 263e beec 3a3e
00000180: b710 b23e 924f 76be 582f 4d3d 23d0 813e
00000190: cca6 ea3d a888 93be ba58 5d3e 705c e73d
000001a0: b0c6 54be 61c1 943e d7f4 88be 5fc3 8dbe
000001b0: a0ca ac3c 3c62 a6bd dafe 3cbe 025b 363e
000001c0: 3cb6 35be 02db 0cbe 202a c3bc 70ee ea3d
000001d0: 170e 56be 338a a53e ecc3 b8bd 3837 09bd
000001e0: 04b5 0d3e 29e1 a43e cc00 043e b823 5dbd
000001f0: 444e d73d 29b5 80be 9492 0d3e b2dc 1f3e
00000200: 0671 dbbd ae6a 81be bad8 2b3e 2854 bbbd
00000210: f4c8 adbd 4432 973d a88c 83be a2cb 57be
00000220: 4e4e 553e 7564 9a3e 944c cd3d cc70 b33d
00000230: acd9 9dbe 7cc0 a83d 3af3 1a3e 9772 0cbe
00000240: 09e8 963e 7154 8e3e fcd4 6fbe e610 47be
00000250: 30c9 84be f1e3 943e bc84 c33d 0c3a c23d
00000260: ffe3 a43e ad02 04be e833 08bd e043 6ebd
00000270: 44b4 c73d 0978 99be a431 a8be e423 c13d
00000280: e30d 803e bd47 963e 609d 91be e217 fdbd
00000290: f472 9fbe 0035 4a3d f098 cabd f1a2 80be
000002a0: 6637 5d3e 80c8 08bb 3472 95bd 1892 70bd
000002b0: 18d2 47be 40a8 2f3c 0002 61bc 37dc b33e
000002c0: d4d8 c93d 2034 c33c 106d 913c b445 9abe
000002d0: 36f2 423e 8804 7d3d 47cb 8c3e c504 16be
000002e0: 692f b23e 001b c3bc 852e 8d3e 90f4 0abe
000002f0: 00da d63a 7f2e a2be 8b43 883e f607 82be
00000300: d27e 6e3e a6a2 6b3e 7507 8dbe daec 613e
00000310: 331c a9be a049 6c3d e242 213e d7c2 923e
00000320: ae19 163e ec30 9c3d 50ef e4bc 60ff 763d
00000330: 7aa3 503e c74d 813e 3c50 31be af87 07be
00000340: 6426 c9bd e42a fc3d 3453 ddbd a403 e73d
00000350: d590 8a3e 015c a43e 2016 b1bc cf28 893e
00000360: b2ed 9cbe 1dd8 8abe 2041 83bc 4944 1dbe
00000370: a68e 363e f6ec 9fbe 004e 7c3a c46d 133e
00000380: e644 ebbd fe54 303e 382e 833d e85a 86bd
00000390: a68c 1d3e 6c19 11be 6576 4abe 7431 a53d
000003a0: 54ac 83bd c681 a0be 2613 6a3e 9711 93be
000003b0: c827 2a3d f09a fabc 16b5 1f3e b44e cc3d
000003c0: 7c7d 903d 38d9 373d da77 1c3e 2c1a c8bd
000003d0: c8a1 f2bd 7ac5 053e 0688 5ebe a05e 6fbe
000003e0: f673 373e f537 97be 1586 68be 40a2 c73b
000003f0: c016 2cbd f845 2dbd c2ae 643e bd93 55be

lstm.bias_ih_l0 f4 [32]
0.4854351 0.36292773 0.6763764 0.7526383 -0.20029917 -1.2386723 -0.5018426 1.1945319
0.32493916 0.2230899 0.32509312 0.28350464 -0.0036975145 -0.20961684 -0.13029335 0.13626873
-0.9979063 -0.085354544 0.3372369 -0.29807773 0.026663145 -0.22719677 0.3995924 0.07147943
0.1407826 -0.08521751 0.74099153 0.2477144 -0.4745886 -1.3737739 0.016091656 1.1485173
00000000: f38a f83e aad1 b93e 0127 2d3f e7ac 403f
00000010: 3a1b 4dbe d08c 9ebf c278 00bf 6ce6 983f
00000020: 6d5e a63e ae71 643e 9b72 a63e 8527 913e
00000030: 0052 72bb cca5 56be 9f6b 05be 088a 0b3e
00000040: ca76 7fbf 5dce aebd 51aa ac3e a59d 98be
00000050: ab6c da3c 45a6 68be 6097 cc3e cf63 923d
00000060: 5029 103e 8586 aebd 9fb1 3d3f d8a8 7d3e
00000070: 47fd f2be d3d7 afbf a6d2 833c 9d02 933f

lstm.bias_hh_l0 f4 [32]
0.35445952 0.3344066 0.31890714 0.6493901 -0.8559646 -1.2898912 -0.37044847 0.98723793
0.14063674 0.013843089 -0.20579648 -0.055851877 -0.21224095 0.14170331 -0.2414088 -0.21218333
-0.8907711 0.1592201 -0.04018371 -0.7719652 -0.51023036 0.02069434 0.07182896 0.43561056
0.39888847 0.06699569 0.61923075 0.7387964 -0.3269206 -1.2044328 -0.27878025 0.83316404
00000000: b87b b53e 5837 ab3e cc47 a33e 6e3e 263f
00000010: 7f20 5bbf 281b a5bf 6cab bdbe a0bb 7c3f
00000020: 1403 103e 20ce 623c 50bc 52be f0c4 64bd
00000030: b155 59be ac1a 113e de33 77be 9646 59be
00000040: 9309 64bf 980a 233e ad97 24bd 839f 45bf
00000050: 759e 02bf 2d87 a93c 101b 933d 5908 df3e
00000060: 1c3b cc3e 0935 893d e885 1e3f c321 3d3f
00000070: 2362 a7be db2a 9abf 49bc 8ebe 3d4a 553f

lstm.weight_ih_l1 f4 [32, 8]
0.55569977 0.008599009 -0.6228345 0.21096969 0.33477604 0.5353276 0.5373431 -0.7670292
0.3861476 -0.20831063 0.98136276 -1.544037 0.003227705 0.8003886 -0.5500092 0.34890643
0.15115392 -0.55373573 0.3709662 -0.95512897 -0.097822435 0.50061786 0.0849643 0.5433149
0.9624595 -1.1706734 0.5557881 -1.0925144 0.29301837 -0.3018249 -0.01640666 -0.044664774
1.0160283 0.30241063 -0.3553604 -0.046017643 -0.025309404 0.33438417 0.86845845 -0.47642496
-1.1739099 1.7062476 -0.5290284 1.9776874 -0.68209493 -0.21450217 1.1435368 0.900281
1.0649263 1.8155426 -0.79321545 0.014211815 -0.47076508 1.4745684 1.3134708 -1.1039977
-2.2004695 0.75924045 0.48099622 0.45088005 -1.072291 0.2442863 -0.60973173 1.6997776
0.25742105 -0.24360725 -0.23265654 0.27253214 0.27706167 0.24868742 -0.027686208 -0.04851839
0.047955602 0.28159192 -0.020335883 0.12223765 0.03706163 0.19765559 0.086398125 -0.0681667
-0.34699374 0.31079623 0.20298603 0.25912485 0.12755597 -0.14650299 -0.12539025 -0.22795199
0.31791654 0.03273326 0.33204922 -0.02693364 0.06930539 0.085292906 -0.005612135 0.26974598
0.30412957 0.18499371 0.09611449 -0.17799503 0.32304844 0.34661976 0.0018459857 -0.023028791
-0.13437161 0.30083677 0.12439498 -0.2774343 -0.16408603 0.30735853 -0.18837795 -0.007828027
-0.015177429 0.048040867 0.3013138 0.22066757 -0.35095596 0.08380172 0.3194166 0.32278642
-0.31462374 -0.18593487 0.14839926 -0.013916552 -0.23787302 0.22986004 0.13592878 0.17285922
0.5681717 1.4744071 -0.49365416 0.2736258 0.23962781 1.2218043 0.25573084 -0.65972245
-1.2593346 -0.564573 0.72601694 -1.1654269 0.0052361437 -0.8170819 -0.70385396 1.9072161
0.14512086 0.120989665 -0.63281 0.5782807 -0.35453293 0.19256864 0.71517575 -0.7100665
-0.5864943 -0.35052547 0.10163627 1.1409231 -0.02968139 -0.53314716 0.12481316 0.2652131
-0.9903854 -0.32998878 0.5875275 -1.0071402 0.02568315 -1.194875 -0.43396086 1.3529258
-1.6976093 -1.3148036 1.1279578 -1.2020091 -0.25257602 -0.5839333 -0.88019645 2.26022
1.6196245 0.77985483 -1.2938701 1.456376 0.3831645 0.31321 0.71293473 -1.9165788
1.374832 0.91688746 -0.8781242 0.59081 0.04561451 0.7033813 0.8488012 -2.0642633
0.6625764 0.17782359 -0.060729183 0.49626884 -0.116013564 0.9780234 0.15556097 -0.87316626
0.073768266 -0.20894346 0.67939967 -1.9819642 0.12841265 0.44263786 -0.45289445 0.34672767
0.76759785 -0.80168873 0.43606448 -0.7490621 0.34601763 1.1884774 -0.27521852 0.31290522
0.77861077 -0.5419807 -0.009757812 -1.0397526 0.36824548 -0.37467247 -0.40359285 0.84461886
1.716849 0.27917552 -0.16150974 -0.5942079 -0.3223879 0.7550237 0.61815643 -0.68066365
-1.5117248 1.5238799 -0.27683556 1.5696216 -0.53269106 0.4654139 1.0582216 0.79098344
1.2904588 2.0926445 -0.48166987 -0.51644903 0.019743824 1.5043372 1.2850913 -1.5842845
-2.1741493 0.41328675 0.7031177 0.37717983 -0.5140731 0.23876046 -1.053387 1.9950235
00000000: 5742 0e3f dce2 0c3c 1572 1fbf 7008 583e
00000010: c467 ab3e 3b0b 093f 518f 093f 075c 44bf
00000020: 23b5 c53e 624f 55be 973a 7b3f 01a3 c5bf
00000030: e787 533b 44e6 4c3f 67cd 0cbf dda3 b23e
00000040: 18c8 1a3e a0c1 0dbf 48ef bd3e 5583 74bf
00000050: 2157 c8bd 7e28 003f c301 ae3d af16 0b3f
00000060: bf63 763f a0d8 95bf 2148 0e3f 83d7 8bbf
00000070: 8106 963e cb88 9abe 4367 86bc 69f2 36bd
00000080: 370d 823f 91d5 9a3e ccf1 b5be ff7c 3cbd
00000090: ab55 cfbc 6734 ab3e 4b53 5e3f f9ed f3be
000000a0: ae42 96bf 5266 da3f 686e 07bf dc24 fd3f
000000b0: c69d 2ebf 75a6 5bbe 6a5f 923f d178 663f
000000c0: 814f 883f b363 e83f 2b10 4bbf acd8 683c
000000d0: 1f08 f1be a8be bc3f d01f a83f cc4f 8dbf
000000e0: 7ed4 0cc0 955d 423f 2345 f63e c0d9 e63e
000000f0: d540 89bf 3026 7a3e 6117 1cbf 5092 d93f
00000100: b1cc 833e 2e74 79be 843d 6ebe 5589 8b3e
00000110: 07db 8d3e eaa7 7e3e 30ce e2bc 38bb 46bd
00000120: 186d 443d d12c 903e 7097 a6bc bc57 fa3d
00000130: f0cd 173d 3a66 4a3e 80f1 b03d fc9a 8bbd
00000140: 2aa9 b1be af20 9f3e 92db 4f3e 03ac 843e
00000150: 089e 023e e104 16be 4d66 00be 3f6c 69be
00000160: f5c5 a23e 5013 063d 5b02 aa3e f0a3 dcbc
00000170: fcef 8d3d 0cae ae3d 00e6 b7bb 251c 8a3e
00000180: dfb6 9b3e fe6e 3d3e acd7 c43d 5444 36be
00000190: 9b66 a53e 2578 b13e 00f5 f13a e0a6 bcbc
000001a0: b698 09be 4707 9a3e ccc2 fe3d de0b 8ebe
000001b0: 2b06 28be 195e 9d3e 26e6 40be 2041 00bc
000001c0: c0aa 78bc 80c6 443d cd45 9a3e aef6 613e
000001d0: 80b0 b3be 3ca0 ab3d 938a a33e 4344 a53e
000001e0: 5d16 a1be b665 3ebe faf5 173e 4002 64bc
000001f0: fc94 73be 6e60 6b3e ea30 0b3e 0202 313e
00000200: b373 113f 5fb9 bc3f 3dc0 fcbe ae18 8c3e
00000210: fe60 753e 1564 9c3f 27ef 823e 92e3 28bf
00000220: e031 a1bf db87 10bf 3fdc 393f b52c 95bf
00000230: f593 ab3b 482c 51bf c62f 34bf a81f f43f
00000240: 909a 143e 6ec9 f73d d6ff 21bf 340a 143f
00000250: 5785 b5be b730 453e c215 373f ebc6 35bf
00000260: 7e24 16bf 1378 b3be ad26 d03d c509 923f
00000270: 6326 f3bc 557c 08bf 0b9e ff3d 03ca 873e
00000280: e689 7dbf 4af4 a8be 3468 163f f8e9 80bf
00000290: 7865 d23c aaf1 98bf 1e30 debe ac2c ad3f
000002a0: 434b d9bf 7c4b a8bf ec60 903f 6fdb 99bf
000002b0: a551 81be a77c 15bf 8e54 61bf 72a7 1040
000002c0: db4f cf3f 91a4 473f 899d a5bf 876a ba3f
000002d0: 232e c43e 105d a03e e482 363f 7452 f5bf
000002e0: 7ffa af3f 23b9 6a3f bfcc 60bf 533f 173f
000002f0: 48d6 3a3d cc10 343f 094b 593f e41c 04c0
00000300: 9b9e 293f 6317 363e 2abf 78bd f316 fe3e
00000310: 8598 edbd be5f 7a3f 604b 1f3e d387 5fbf
00000320: d113 973d 46f5 55be 23ed 2d3f 01b1 fdbf
00000330: 9b7e 033e 6ea1 e23e c8e1 e7be 4a86 b13e
00000340: 4b81 443f 793b 4dbf d843 df3e 89c2 3fbf
00000350: 3929 b13e 0720 983f 71e9 8cbe 1d35 a03e
00000360: 0953 473f 3fbf 0abf 3bdf 1fbc 9d16 85bf
00000370: ac8a bc3e 12d5 bfbe b9a3 cebe f138 583f
00000380: b5c1 db3f 18f0 8e3e cf62 25be 021e 18bf
00000390: 0710 a5be 3c49 413f 803f 1e3f f93f 2ebf
000003a0: 3380 c1bf 7f0e c33f 64bd 8dbe 5ce9 c83f
000003b0: 715e 08bf bb4a ee3e ce73 873f e47d 4a3f
000003c0: c12d a53f e3ed 0540 6f9d f6be 0136 04bf
000003d0: cdbd a13c 1f8e c03f df7d a43f d6c9 cabf
000003e0: 4325 0bc0 529a d33e 86ff 333f b71d c13e
000003f0: 4b9a 03bf 9f7d 743e 63d5 86bf ee5c ff3f

lstm.weight_hh_l1 f4 [32, 8]
0.09717521 0.14283103 0.028244585 -0.27520707 -0.31539503 0.19339117 0.24723408 0.14123178
-0.115182534 -0.14701386 0.3008413 -0.11096178 0.096428186 0.27410808 0.1949844 0.17435297
0.35116503 0.056435883 0.1607202 -0.29333857 -0.17824727 -0.04396838 0.23769662 -0.27484697
-0.25284404 0.18744269 0.25039062 -0.23334774 0.056218237 0.03138566 -0.32006073 -0.15170603
-0.31430572 0.15996882 -0.28648052 0.20700338 -0.25777596 -0.20092735 -0.3459504 -0.1456909
-0.0283252 -0.030124545 0.25638375 -0.12946361 -0.28769216 -0.21197306 0.014506906 -0.031942934
0.015822649 -0.1131503 0.05788961 0.10576847 0.17914698 0.15721539 0.35201088 0.0043248236
-0.29797122 0.3060595 0.0015763342 -0.21569775 -0.14135139 -0.08767435 -0.24973378 0.25132045
-0.020266265 0.17375681 0.21623048 0.33662215 0.1595389 0.13382879 -0.1483052 -0.058505684
-0.022423923 -0.07986656 -0.27381325 0.05875507 -0.25202236 -0.31460482 -0.12675601 -0.10063091
0.061989546 0.2056655 0.061278194 0.19365105 -0.23341602 0.1998181 -0.2596433 -0.08937794
-0.14865054 0.29542688 -0.04450193 -0.31007445 -0.08456415 0.11932692 -0.04984346 -0.028825313
0.28533038 -0.19929461 0.07903713 0.049582005 0.33222368 0.01436761 0.01474604 0.16120127
0.005709201 -0.2813329 -0.29183063 0.010078818 0.22978309 -0.20022674 -0.04273942 0.05065036
-0.19127187 -0.09159109 -0.09957948 0.29506168 -0.14521149 0.17709544 -0.07922009 0.25250575
-0.0294528 0.18997458 -0.2498729 0.10979891 0.31960526 -0.21252148 0.26990405 -0.27267468
0.11186424 0.30866137 0.049403727 -0.08843273 0.04394701 0.12988862 -0.3129472 -0.29658312
-0.34212282 0.12597376 0.057646275 -0.34714857 -0.24186435 -0.19706956 -0.24125892 -0.31039542
0.3012471 -0.08649698 -0.12490712 -0.25916165 -0.069333196 0.12875298 0.22246596 0.24455854
0.30657324 0.15559408 -0.08154762 -0.015679061 0.22239587 0.2530211 -0.22631487 0.3355892
0.13099888 0.20106468 0.1585522 0.0062081814 0.09239903 0.32309029 -0.0770095 0.26890662
-0.13471663 -0.019187093 -0.2403113 0.29291728 -0.27712867 -0.28159758 -0.29519913 -0.100753516
0.33597705 -0.053329587 0.24864766 0.32304952 -0.16739109 -0.2989507 -0.17209072 0.09594986
0.10417411 0.2387276 -0.17185529 0.04965931 -0.3132324 -0.04420808 0.082520366 0.3386478
-0.002575159 0.22621903 -0.12710752 -0.06513879 0.14095658 -0.25342217 0.048941225 0.019299626
-0.2724411 0.014069289 -0.14027141 0.19170025 0.32909724 0.2787905 0.12367499 -0.27446508
0.25766304 -0.0856466 -0.17351769 0.09089878 -0.25737953 0.25247845 0.24681613 0.11010638
0.014980286 0.33080736 -0.34091046 -0.29231173 -0.24839582 -0.25683367 0.2325767 0.040957093
0.24251649 0.04292345 0.10675076 -0.21942163 -0.23782694 -0.3195885 0.1933246 0.02103293
-0.21943879 0.20191202 0.16499689 0.15232834 -0.34096467 -0.27058613 -0.18793145 -0.28831816
-0.13569473 0.12193552 -0.12424879 -0.09166968 -0.111839905 0.1752607 0.32042912 0.13383728
-0.24283522 -0.329638 0.08282691 -0.17093544 -0.18668596 -0.020212233 0.07338512 -0.21491423
00000000: cc03 c73d 4c42 123e 3061 e73c f1e7 8cbe
00000010: 757b a1be 5608 463e ee2a 7d3e 109f 103e
00000020: d2e4 ebbd cd8a 16be df07 9a3e ee3f e3bd
00000030: 247c c53d e557 8c3e fea9 473e 9689 323e
00000040: e7cb b33e 5029 673d d693 243e 7930 96be
00000050: 7486 36be 3018 34bd be66 733e beb8 8cbe
00000060: c674 81be faf0 3f3e 3333 803e b6f2 6ebe
00000070: 1845 663d 408e 003d 00df a3be d358 1bbe
00000080: aeec a0be dece 233e 93ad 92be b2f8 533e
00000090: 36fb 83be e6bf 4dbe 6920 b1be ff2f 15be
000000a0: 400a e8bc c0c7 f6bc bb44 833e 1c92 04be
000000b0: 634c 93be 770f 59be 60ae 6d3c 98d6 02bd
000000c0: 809e 813c 58bb e7bd a81d 6d3d 249d d83d
000000d0: 4e72 373e 12fd 203e c53a b43e 40b7 8d3b
000000e0: af8f 98be d5b3 9c3e 009d ce3a dfdf 5cbe
000000f0: 6bbe 10be 9c8e b3bd 36ba 7fbe 13ad 803e
00000100: 7005 a6bc 4eed 313e 866b 5d3e bd59 ac3e
00000110: 2a5e 233e 6a0a 093e 51dd 17be a8a3 6fbd
00000120: 60b2 b7bc 1491 a3bd 4031 8cbe 28a9 703d
00000130: 1309 81be e213 a1be 54cc 01be 9417 cebd
00000140: c0e8 7d3d fa99 523e d8fe 7a3d 764c 463e
00000150: 9c04 6fbe 1e9d 4c3e f7ef 84be c80b b7bd
00000160: d937 18be 3142 973e a847 36bd 14c2 9ebe
00000170: f82f adbd ac61 f43d a828 4cbd 1023 ecbc
00000180: d316 923e e313 4cbe 38de a13d 8016 4b3d
00000190: 3919 aa3e 2066 6b3c 6099 713c f211 253e
000001a0: 4014 bb3b de0a 90be d36a 95be a021 253c
000001b0: 424c 6b3e 3d08 4dbe 880f 2fbd c076 4f3d
000001c0: c6dc 43be 1c94 bbbd 54f0 cbbd 5312 973e
000001d0: 52b2 14be 8258 353e 243e a2bd 6f48 813e
000001e0: 0047 f1bc b288 423e aede 7fbe 40de e03d
000001f0: 4da3 a33e 3b9f 59be dd30 8a3e 049c 8bbe
00000200: 1419 e53d dd08 9e3e 905b 4a3d 381c b5bd
00000210: c801 343d 8601 053e 9e3a a0be bed9 97be
00000220: b92a afbe 44ff 003e 801e 6c3d 75bd b1be
00000230: 4aab 77be 9acc 49be 940c 77be 26ec 9ebe
00000240: 0f3d 9a3e 5425 b1bd 4ecf ffbd d6b0 84be
00000250: 90fe 8dbd d2d7 033e 1ece 633e 8e6d 7a3e
00000260: 2bf7 9c3e 0e54 1f3e 7002 a7bd 6071 80bc
00000270: bebb 633e fb8b 813e 16bf 67be 59d2 ab3e
00000280: 9224 063e e6e3 4d3e 825b 223e 006e cb3b
00000290: b43b bd3d 176c a53e 28b7 9dbd 21ae 893e
000002a0: 28f3 09be 402e 9dbc 2a14 76be 41f9 953e
000002b0: cfe3 8dbe 8f2d 90be 5724 97be dc57 cebd
000002c0: 2f05 ac3e 2070 5abd 7e9d 7e3e bf66 a53e
000002d0: 9268 2bbe 1110 99be 8d38 30be 5c81 c43d
000002e0: 3c59 d53d 0275 743e d5fa 2fbe 9067 4b3d
000002f0: ff5f a0be 8813 35bd 7000 a93d 3f63 ad3e
00000300: 00c4 28bb f6a5 673e 7928 02be 7c67 85bd
00000310: ec56 103e 8dc0 81be 9876 483d 401a 9e3c
00000320: 667d 8bbe e082 663c 4fa3 0fbe 124d 443e
00000330: 6f7f a83e a1bd 8e3e 5049 fd3d b086 8cbe
00000340: 69ec 833e 7c67 afbd 9fae 31be 2429 ba3d
00000350: 40c7 83be db44 813e 5ebd 7c3e 747f e13d
00000360: e06f 753c 955f a93e d18b aebe e2a9 95be
00000370: 795b 7ebe b47f 83be 9628 6e3e a0c2 273d
00000380: 3e56 783e 80d0 2f3d 24a0 da3d 10b0 60be
00000390: e888 73be 1ba1 a3be e2f6 453e 404d ac3c
000003a0: 90b4 60be 06c2 4e3e f2f4 283e f6fb 1b3e
000003b0: ec92 aebe 448a 8abe 1a71 40be 709e 93be
000003c0: 8ff3 0abe 54b9 f93d 2676 febd 50bd bbbd
000003d0: 520c e5bd 8a77 333e 490f a43e a40c 093e
000003e0: cca9 78be 50c6 a8be 28a1 a93d b309 2fbe
000003f0: 9b2a 3fbe 2094 a5bc f04a 963d 7a12 5cbe

lstm.bias_ih_l1 f4 [32]
-0.6233906 0.14523032 -0.93720454 -0.55762863 -0.6219549 2.4991393 0.98066944 0.97302943
-0.061446995 0.048421025 0.23270395 -0.05941108 -0.06887764 0.055658907 0.2923331 -0.059103757
-0.12724903 0.56211543 -0.08696268 0.08355597 0.42442787 0.77285564 -0.78944653 -0.6561207
-0.3450288 0.32227182 -0.70057493 -0.4484744 -0.58036834 2.5926251 0.78145003 1.0688035
00000000: 8796 1fbf 42b7 143e a3ec 6fbf c0c0 0ebf
00000010: 7038 1fbf e6f1 1f40 270d 7b3f 7518 793f
00000020: d8af 7bbd 2055 463d f249 6e3e 0859 73bd
00000030: b80f 8dbd 98fa 633d afac 953e c816 72bd
00000040: 924d 02be cce6 0f3f 7d19 b2bd 641f ab3d
00000050: 9c4e d93e ded9 453f 2b19 4abf 87f7 27bf
00000060: 9da7 b0be d000 a53e e158 33bf 709e e5be
00000070: 0593 14bf 92ed 2540 1c0d 483f 8ece 883f

lstm.bias_hh_l1 f4 [32]
-0.51412505 0.39253584 -0.8091092 -0.7921193 -0.33428946 2.9373336 1.1854411 1.1334136
0.3195561 -0.036386013 -0.001463592 -0.29636946 -0.30118573 -0.047924668 -0.26147124 0.13349667
-0.25108168 0.70153636 -0.068515815 0.2075081 -0.008966789 0.5194707 -0.48958942 -0.45964253
-0.11028348 0.5142465 -0.5855027 -0.33007848 -0.15993899 2.8672488 1.2678102 1.0029074
00000000: b39d 03bf 75fa c83e c821 4fbf 55c8 4abf
00000010: fd27 abbe 46fd 3b40 89bc 973f b213 913f
00000020: db9c a33e 8009 15bd 00d6 bfba bdbd 97be
00000030: 0435 9abe a84c 44bd 8fdf 85be 5ab3 083e
00000040: c78d 80be e397 333f 0552 8cbd 017d 543e
00000050: 70e9 12bc 08fc 043f 77ab fabe 4456 ebbe
00000060: 4edc e1bd a9a5 033f 81e3 15bf 0c00 a9be
00000070: 0cc7 23be 0181 3740 9b47 a23f 455f 803f

lstm.weight_ih_l2 f4 [32, 8]
1.5197014 2.2256172 0.20849799 -0.942909 -1.1617845 0.30950028 0.49514037 -1.1192865
1.4538703 0.8131658 -0.37244546 -0.6216783 -1.8335876 0.9735653 0.2817806 -1.2723775
0.43662116 -0.99331886 -0.022186773 -0.14450309 -0.023121757 1.1147175 -0.07350524 -0.36742157
2.3115463 2.4472263 -0.8064283 -1.1232185 -1.8275146 0.8173825 0.46283442 -1.8972031
0.22690716 -0.35521042 0.49799207 -0.18632258 -0.11843866 1.36198 -0.28221267 -1.0458921
-0.19702838 0.04178858 0.0917229 -0.08516985 0.2152096 2.2608645 -0.6858819 -1.1051736
0.4483379 -0.13254005 -0.8279807 -0.610493 -0.5598155 -2.1278186 0.9234692 0.26157188
0.2160356 0.33492646 0.4465033 -0.023956928 -0.5236843 2.6184964 -0.94940895 -0.9189315
0.32715514 -0.3237925 0.038185716 0.16780058 0.17674342 0.11043978 0.21268001 0.26899114
0.088137835 0.26764664 0.12112683 -0.2550433 -0.051150262 -0.30095905 0.27251068 0.18744436
-0.22626308 0.16831091 -0.33851266 0.112151444 0.13724518 -0.34317094 -0.16405399 0.082214296
0.01919511 -0.013926864 -0.016066462 -0.29361638 0.25710097 -0.21651189 0.2810932 -0.34472686
0.19325861 0.13285187 0.19479653 0.03563437 0.16713044 -0.21394381 -0.007983625 -0.18464492
-0.010143518 -0.33509564 0.01797077 0.2568811 -0.20541863 0.15699598 -0.04796064 0.11696568
0.28279725 -0.3238677 -0.14678158 -0.03678441 -0.32760185 0.28309318 0.2149829 0.12032172
-0.07099113 0.30387786 -0.30899292 0.15491328 0.1001353 0.32542786 -0.029639512 0.30916855
0.0053621167 0.5132204 0.36973226 0.32944053 -0.40467834 2.9636362 -1.3153809 -1.2083275
-0.08133393 -0.43030313 -0.011711722 -0.3422726 -0.03694974 -3.335727 1.2222157 1.636915
-0.4977117 0.4966507 -0.15695213 0.6103596 -0.16519967 -0.81562495 0.012794287 0.121843174
-0.08254944 -0.68140596 -0.15177295 -0.016542478 0.09467893 -3.5526116 1.332272 1.4448992
-0.45697847 0.0013909293 0.16330218 -0.41238534 -0.09460956 2.982541 -0.7062493 -1.0042075
-0.23674187 0.08450431 0.10180278 0.30535766 -0.3967643 2.9108915 -0.97488105 -1.3708676
-0.16884118 0.499767 0.091887616 0.33312035 0.006372115 3.488953 -1.0934914 -1.248743
0.47707975 -0.17171153 0.20199876 -0.03156511 -0.065642625 -2.9246109 1.2855097 1.4886272
1.6363397 2.2835395 -0.16374905 -0.6565542 -0.7949955 0.13508557 0.7114314 -0.9547255
1.8784409 0.87342143 -0.32506004 -0.9134563 -1.7839485 0.7432986 0.033877186 -1.0765196
-0.111710414 -0.582135 -0.22990425 -0.28336293 0.2479094 1.2252415 -0.14350604 -0.59963125
2.2424285 2.5160737 -0.81941295 -1.2388868 -1.7289529 0.5255226 0.30436113 -1.8727374
0.37190196 -0.6469773 0.36242583 0.026153017 -0.17637633 2.0309014 -0.26067814 -0.7158897
0.20605005 -0.14308257 0.25933558 -0.59072924 -0.08831541 2.2617142 -0.83888674 -1.2286243
0.711611 0.44717163 -0.6799944 -0.36967108 -0.6297305 -2.192673 0.4737453 0.66140074
0.12957917 0.3187916 0.05159957 -0.6035008 -0.19870465 2.9107165 -0.93878543 -1.3233619
00000000: 9385 c23f 8370 0e40 7f80 553e 7c62 71bf
00000010: 5bb5 94bf d276 9e3e 0a83 fd3e c844 8fbf
00000020: 6c18 ba3f a22b 503f 2cb1 bebe 4f26 1fbf
00000030: 00b3 eabf 933b 793f 8c45 903e 44dd a2bf
00000040: cf8c df3e 254a 7ebf 09c1 b5bc 9ef8 13be
00000050: d769 bdbc 10af 8e3f ea89 96bd ae1e bcbe
00000060: 60f0 1340 5b9f 1c40 1672 4ebf a0c5 8fbf
00000070: 00ec e9bf fb3f 513f a2f8 ec3e 8dd7 f2bf
00000080: 5a5a 683e 24de b5be d1f8 fe3e 59cb 3ebe
00000090: f88f f2bd 5c55 ae3f 2e7e 90be cbdf 85bf
000000a0: cfc1 49be 812a 2b3d 37d9 bb3d 886d aebd
000000b0: e85f 5c3e 01b2 1040 f595 2fbf 5476 8dbf
000000c0: 8c8c e53e 94b8 07be 8bf6 53bf 4549 1cbf
000000d0: 1250 0fbf 2e2e 08c0 7a68 6c3f c0ec 853e
000000e0: 7038 5d3e 7b7b ab3e 159c e43e 5241 c4bc
000000f0: 2d10 06bf 7295 2740 770c 73bf 183f 6bbf
00000100: e180 a73e 21c8 a5be a068 1c3d ead3 2b3e
00000110: 3afc 343e 402e e23d cac8 593e 35b9 893e
00000120: 9c81 b43d fb08 893e 5811 f83d 0995 82be
00000130: f082 51bd 4e17 9abe 8586 8b3e 6af1 3f3e
00000140: 82b1 67be b259 2c3e 8851 adbe a8af e53d
00000150: 008a 0c3e 1ab4 afbe c5fd 27be f85f a83d
00000160: 103f 9d3c 802d 64bc d09d 83bc e354 96be
00000170: bda2 833e 4bb5 5dbe 73eb 8f3e 0a80 b0be
00000180: 96e5 453e 520a 083e be78 473e 58f5 113d
00000190: 3e24 2b3e 1614 5bbe c0cd 02bc 8f13 3dbe
000001a0: 0031 26bc a891 abbe 7037 933c eb85 833e
000001b0: 4359 52be 8ec3 203e 6072 44bd b48b ef3d
000001c0: cdca 903e fdd1 a5be e94d 16be 40ab 16bd
000001d0: 6ebb a7be 97f1 903e 7a24 5c3e 3c6b f63d
000001e0: cc63 91bd e195 9b3e 5234 9ebe 96a1 1e3e
000001f0: bc13 cd3d 7b9e a63e 90ce f2bc 574b 9e3e
00000200: b2b4 af3b 6a62 033f 8c4d bd3e 6eac a83e
00000210: 0032 cfbe 37ac 3d40 675e a8bf 7aaa 9abf
00000220: 6792 a6bd b150 dcbe 86e2 3fbc 5b3e afbe
00000230: 9c58 17bd 8d7c 55c0 9071 9c3f 6e86 d13f
00000240: 11d4 febe 0049 fe3e 0fb8 20be 8740 1c3f
00000250: 1a2a 29be cccc 50bf 219f 513c ea88 f93d
00000260: ae0f a9bd 9f70 2ebf 5e6a 1bbe 1784 87bc
00000270: 07e7 c13d fd5d 63c0 e487 aa3f 75f2 b83f
00000280: 15f9 e9be d84f b63a b038 273e 2c24 d3be
00000290: a8c2 c1bd f4e1 3e40 c1cc 34bf df89 80bf
000002a0: 766c 72be 9810 ad3d fa7d d03d d757 9c3e
000002b0: b124 cbbe 0c4c 3a40 ce91 79bf 9778 afbf
000002c0: b4e4 2cbe 76e1 ff3e 932f bc3d c08e aa3e
000002d0: 2dcd d03b 024b 5f40 87f7 8bbf d0d6 9fbf
000002e0: cc43 f43e 26d5 2fbe c3d8 4e3e 6b4a 01bd
000002f0: a46f 86bd d32c 3bc0 958b a43f 568b be3f
00000300: 9473 d13f 8325 1240 d5ad 27be f013 28bf
00000310: d384 4bbf df53 0a3e 5e20 363f e468 74bf
00000320: c070 f03f 8c98 5f3f 456e a6be 46d8 69bf
00000330: 6d58 e4bf d148 3e3f cec2 0a3d 65cb 89bf
00000340: 6ec8 e4bd cd06 15bf 056c 6bbe f214 91be
00000350: f6db 7d3e b7d4 9c3f 3ff3 12be 6f81 19bf
00000360: f383 0f40 5a07 2140 0cc5 51bf d893 9ebf
00000370: 544e ddbf a688 063f 39d5 9b3e dcb5 efbf
00000380: ef69 be3e 4ea0 25bf e18f b93e da3e d63c
00000390: ff9b 34be 4afa 0140 9b77 85be 8c44 37bf
000003a0: c9fe 523e 3d84 12be a2c7 843e 083a 17bf
000003b0: b6de b4bd edbf 1040 48c1 56bf 9043 9dbf
000003c0: 232c 363f aef3 e43e 1d14 2ebf 8745 bdbe
000003d0: 0536 21bf c154 0cc0 be8e f23e 8f51 293f
000003e0: 67b0 043e a738 a33e 125a 533d 077f 1abf
000003f0: 3b79 4bbe 2e49 3a40 3e54 70bf ec63 a9bf

lstm.weight_hh_l2 f4 [32, 8]
0.04397741 0.27115354 0.24573919 -0.2619493 0.32610694 0.22431716 0.24934271 -0.22454555
-0.12609288 0.29392996 0.2787576 0.04200065 0.26070163 0.254895 -0.07254997 0.20387545
-0.16451925 -0.25222132 -0.19665012 -0.1068123 0.032968014 -0.047046095 0.11987734 0.24064311
0.014170706 0.026946306 -0.09378049 0.3377973 0.0006455183 0.023892373 -0.2901211 -0.045636177
-0.034564555 -0.052557796 -0.13036202 0.1803725 -0.29326785 0.35055372 -0.27791393 0.18743649
0.29160348 0.17159459 -0.20035532 0.041974753 0.3083845 -0.04374945 0.2651101 -0.15827511
0.02229935 -0.30336112 -0.35047644 0.13122067 0.20235619 0.14506632 0.2711518 0.18300429
-0.21251498 0.17279717 -0.052312165 -0.29557377 0.08162433 0.18895116 -0.29891077 0.2738786
0.17066297 0.088443756 -0.10133201 -0.2757068 0.16485032 -0.193415 0.21592972 0.33093676
-0.09255394 -0.3192843 -0.18391135 -0.008073062 -0.15857153 -0.3019953 0.039387494 0.19402364
-0.021097183 0.12696925 -0.3016234 0.3091794 -0.2784373 -0.099782795 0.27742633 -0.31063712
0.2553676 0.14577085 -0.30276233 -0.1762888 -0.2050375 -0.23138258 0.123238295 -0.07425475
0.33267203 -0.13923262 0.19628337 0.09441084 -0.1126264 -0.07903656 0.17467973 0.20822278
-0.2682523 0.27639863 0.26447216 0.34298643 0.34520492 -0.1759606 0.34388348 -0.0880515
0.08134982 0.25883898 -0.024476111 -0.089755535 0.17601076 0.33002236 0.13095704 0.011538386
0.27101675 0.20546785 -0.24593516 0.18242106 0.21849295 0.044510275 0.32466778 -0.1426766
-0.24087316 -0.069456875 0.19332138 -0.32251754 -0.011416525 -0.31811377 0.23140535 -0.06823295
0.13832486 -0.35277733 -0.2962443 -0.3358473 0.2871031 -0.082623124 -0.3002711 0.0024070442
-0.34786758 -0.07857007 0.09950867 -0.014659882 0.08678922 -0.03134179 0.3355823 0.023885548
-0.20190468 -0.0080935955 0.04778087 0.11068386 0.2098796 -0.05703312 -0.31467187 -0.114926025
-0.24796651 0.018067122 0.27461877 -0.31695735 -0.058456838 -0.1066547 0.18102548 0.018411756
0.2272555 -0.086642146 0.18224844 0.083492935 0.19864306 0.23479745 -0.12517214 0.14574018
0.17021587 0.06218493 0.31692407 0.09426656 -0.33016053 0.2246814 0.08442709 0.22242406
-0.2767431 0.14335766 -0.12730004 0.16486052 0.047027916 -0.34010622 -0.23966792 0.13701716
0.14709201 0.24286518 -0.12175593 0.2803463 -0.3503067 -0.34021658 0.14292353 -0.27784058
-0.036839932 0.044395834 -0.24032119 0.07297698 -0.27475122 -0.11913009 -0.21368106 -0.29699898
0.2631016 -0.23455994 0.28893682 0.062000245 0.2760714 0.027280599 -0.22051594 -0.13471742
0.3207818 -0.29254335 -0.17020836 -0.24777508 0.044445127 0.12136108 -0.08876312 -0.20505415
-0.3366721 0.32045856 0.35334727 -0.2874335 -0.23788485 -0.19702551 0.32126835 -0.07286611
0.30576786 -0.106790036 0.2981445 -0.061552107 0.19544807 0.21992609 -0.011326581 0.08399087
-0.2820066 0.04108271 0.10991287 -0.22407594 -0.020237565 -0.3135727 -0.10004738 0.2193906
0.06022975 -0.039337814 0.045899928 -0.04756239 -0.30133858 -0.3440905 -0.03283325 0.3248535
00000000: a821 343d a3d4 8a3e 0ea3 7b3e 381e 86be
00000010: 7df7 a63e 66b3 653e b253 7f3e 45ef 65be
00000020: 7e1e 01be fd7d 963e 51b9 8e3e e008 2c3d
00000030: af7a 853e 9981 823e 1495 94bd bac4 503e
00000040: bc77 28be 2723 81be a65e 49be 68c0 dabd
00000050: 7809 073d 68b3 40bd 4082 f53d 266b 763e
00000060: 402c 683c 80be dc3c fc0f c0bd c5f3 ac3e
00000070: 0038 293a f0b9 c33c c18a 94be 00ed 3abd
00000080: 9093 0dbd d846 57bd 9f7d 05be 92b3 383e
00000090: 3427 96be c77b b33e bc4a 8ebe 5aef 3f3e
000000a0: 0d4d 953e 7eb6 2f3e f229 4dbe b8ed 2b3d
000000b0: 93e4 9d3e a032 33bd 83bc 873e df12 22be
000000c0: 20ad b63c 2652 9bbe a671 b3be b65e 063e
000000d0: 7636 4f3e 448c 143e 69d4 8a3e 7a65 3b3e
000000e0: 879d 59be bef1 303e 4845 56bd 7255 97be
000000f0: a82a a73d 6a7c 413e d50a 99be d139 8c3e
00000100: 46c2 2e3e 0022 b53d 2887 cfbd 7129 8dbe
00000110: 86ce 283e 950e 46be ae1c 5d3e 8b70 a93e
00000120: ec8c bdbd 3b79 a3be 4253 3cbe e044 04bc
00000130: 9360 22be 219f 9abe c854 213d 22ae 463e
00000140: 00d4 acbc 3a04 023e 626e 9abe c34c 9e3e
00000150: 558f 8ebe ec5a ccbd d30a 8e3e d40b 9fbe
00000160: 8bbf 823e f444 153e aa03 9bbe 0d85 34be
00000170: 5af5 51be 8eef 6cbe 5c64 fc3d e012 98bd
00000180: fd53 aa3e ff92 0ebe 82fe 483e 785a c13d
00000190: aca8 e6bd ecdd a1bd 3edf 323e 5a38 553e
000001a0: 5e58 89be 1f84 8d3e e568 873e eb9b af3e
000001b0: b3be b03e 042f 34be 7f11 b03e 5854 b4bd
000001c0: bc9a a63d 8b86 843e 2082 c8bc c0d1 b7bd
000001d0: 2a3c 343e b1f8 a83e 9a19 063e 800b 3d3c
000001e0: b5c2 8a3e 2a66 523e 6dd6 7bbe 96cc 3a3e
000001f0: 9ebc 5f3e 6850 363d db3a a63e d119 12be
00000200: 74a7 76be 683f 8ebd 0af6 453e 0521 a5be
00000210: 600c 3bbc cfdf a2be 86f5 6c3e b8bd 8bbd
00000220: 08a5 0d3e 3b9f b4be 55ad 97be 2df4 abbe
00000230: 2dff 923e 5036 a9bd 22bd 99be 80bf 1d3b
00000240: b31b b2be 58e9 a0bd 34cb cb3d 0030 70bc
00000250: 8cbe b13d 4060 00bd 71d1 ab3e a0ab c33c
00000260: 1ac0 4ebe 009b 04bc e0b5 433d 38ae e23d
00000270: aeea 563e 909b 69bd ac1c a1be 565e ebbd
00000280: efea 7dbe 8001 943c d59a 8c3e 3c48 a2be
00000290: 7070 6fbd c86d dabd be5e 393e 40d4 963c
000002a0: aab5 683e 7071 b1bd 569f 3a3e 58fe aa3d
000002b0: 1669 4b3e be6e 703e 202d 00be ea3c 153e
000002c0: 124d 2e3e a0b5 7e3d df43 a23e d40e c13d
000002d0: cd0a a9be e212 663e 1ce8 ac3d 22c3 633e
000002e0: 46b1 8dbe 5acc 123e f15a 02be 32d1 283e
000002f0: 58a0 403d 6722 aebe 826b 75be 3a4e 0c3e
00000300: 4a9f 163e a6b1 783e 2c5b f9bd 8d89 8f3e
00000310: 665b b3be de30 aebe 8c5a 123e 1f41 8ebe
00000320: 78e5 16bd 68d8 353d c216 76be f474 953d
00000330: 31ac 8cbe 7afa f3bd 35cf 5abe 4010 98be
00000340: 41b5 863e 7b30 70be 87ef 933e f8f3 7d3d
00000350: 3b59 8d3e 907b df3c eece 61be 5df3 09be
00000360: 833d a43e 3ec8 95be 1a4b 2ebe c0b8 7dbe
00000370: 180c 363d 288c f83d 70c9 b5bd b7f9 51be
00000380: 4960 acbe 2513 a43e efe9 b43e 7c2a 93be
00000390: 1698 73be 0ec1 49be 497d a43e d43a 95bd
000003a0: 9b8d 9c3e bcb4 dabd 65a6 983e 101e 7cbd
000003b0: 8a23 483e 4e34 613e 2093 39bc 6803 ac3d
000003c0: 2b63 90be 5846 283d 001a e13d 2a74 65be
000003d0: 40c9 a5bc 9a8c a0be a4e5 ccbd eea7 603e
000003e0: 78b3 763d b020 21bd 9001 3c3d c8d0 42bd
000003f0: 0d49 9abe a12c b0be 287c 06bd 3353 a63e

lstm.bias_ih_l2 f4 [32]
1.196745 1.5535631 1.0206814 2.428673 0.65427935 0.6185205 0.76158404 0.7246152
0.34899136 -0.28737402 -0.2516458 0.31039295 0.3478413 -0.18623301 -0.061606497 -0.09744066
0.12966323 -0.5927663 -0.88002753 -0.3587472 0.48102733 0.59197074 0.42314622 -0.58550143
1.3056146 1.8232393 0.71448624 2.8671045 0.78240263 0.5543984 0.24126616 0.5506327
00000000: f12e 993f 28db c63f b0a5 823f 616f 1b40
00000010: da7e 273f 5c57 1e3f 2cf7 423f 6280 393f
00000020: ffae b23e b022 93be b8d7 80be d3eb 9e3e
00000030: 4118 b23e deb3 3ebe 1857 7cbd f88e c7bd
00000040: 70c6 043e 88bf 17bf 7c49 61bf b7ad b7be
00000050: 3749 f63e 658b 173f 9fa6 d83e 6ce3 15bf
00000060: 611e a73f e85f e93f 92e8 363f a47e 3740
00000070: 8a4b 483f 0eed 0d3f 7a0e 773e 44f6 0c3f

lstm.bias_hh_l2 f4 [32]
1.2214133 1.8260305 1.1105747 2.986781 1.1388204 0.97204757 0.22921726 0.94541764
0.057137936 -0.17949407 0.3340216 0.305199 0.2557111 0.09012672 -0.33040607 0.032354623
0.75024176 -0.36690754 -1.1485779 -0.5729628 0.54602516 0.54940736 0.40495142 -0.5837222
1.0899417 1.9663268 0.79028887 2.3591166 0.5761616 0.6471445 0.49087167 1.0671022
00000000: 4557 9c3f 5ebb e93f 5027 8e3f 6b27 3f40
00000010: dec4 913f 1cd8 783f eeb7 6a3e e406 723f
00000020: 7809 6a3d 4bcd 37be e104 ab3e 0b43 9c3e
00000030: 91ec 823e 5c94 b83d fc2a a9be 4886 043d
00000040: d80f 403f 4edb bbbe 9a04 93bf b1ad 12bf
00000050: 4ec8 0b3f f6a5 0c3f cb55 cf3e d16e 15bf
00000060: 3683 8b3f 99b0 fb3f 5f50 4a3f c4fb 1640
00000070: 547f 133f 43ab 253f 8853 fb3e ce96 883f

lstm.weight_ih_l3 f4 [32, 8]
0.9138903 -0.8563139 -0.11330037 -2.3109522 0.5651948 0.31508335 0.8142577 -0.90682286
0.81518435 -0.6711276 -1.6057166 -1.0897439 -1.1271663 -0.53469235 -0.016105462 0.4631916
-0.08523226 -1.01152 -2.2843258 -0.46649885 0.8738561 1.0341518 -0.6893377 -1.1475066
0.8314802 -1.1497023 -0.6067818 -1.7653292 0.32434297 0.65633523 0.7268353 -0.68264514
0.80985177 -0.45368317 -2.5884886 -1.4288045 -1.5387657 -0.66582435 -0.25197166 0.79306126
1.1210914 -0.88286334 -3.865675 -1.1193713 -1.586026 -0.8281781 0.028414316 1.6017358
0.9473538 -0.85797626 -3.4663463 -0.8492215 -1.1940314 -1.1435736 -0.14048107 0.78332937
-0.70633674 0.24458793 0.46630797 0.8809311 0.24067616 -0.011473295 -0.13948096 -0.09603615
-0.24291171 -0.10721648 0.3278276 -0.31710765 -0.009108931 0.1321305 0.22779283 0.21898642
-0.014660656 0.22129175 0.291037 -0.27922228 0.24019971 0.29268816 0.044647515 -0.3468869
0.23115209 0.021089762 -0.17784351 0.1301246 -0.16432078 0.023270845 -0.19442163 -0.2005847
-0.072962165 -0.260575 -0.106787756 -0.1704354 0.08374554 0.17028019 0.08334476 0.06443834
0.15380374 0.21422324 -0.2611946 0.33445618 -0.2471892 0.31378344 -0.0819377 0.2999778
0.21799359 -0.19344833 0.16450003 0.130795 -0.18278979 0.099056214 -0.16886501 0.33704165
0.14761487 -0.19421233 0.0999549 0.13702628 -0.033280075 1.1712313e-05 -0.087234735 -0.06457102
-0.027765334 -0.35078216 0.023703128 -0.26423192 0.34981993 -0.122397736 -0.33092225 0.058950573
1.6014643 -0.9772581 -0.8710486 -2.1663454 0.90176874 0.2565368 0.69379026 -0.5182878
-2.1726732 1.4620259 0.6897998 3.3969767 -0.68106973 -0.8806075 -0.95248616 1.1443039
-1.9117044 2.026117 0.59848773 3.1965675 -1.2561392 -0.85894734 -0.863284 1.3645064
-2.1743531 1.6869273 0.28939372 3.151406 -0.7754291 -0.622379 -0.55396414 1.1428243
1.9659557 -2.0604563 -0.82565355 -3.2243342 0.6405361 1.1489491 0.7309258 -0.90598464
-2.3919427 2.055152 0.94077015 3.4752128 -1.153613 -1.0664374 -0.6031091 1.1293682
2.295197 -2.0827768 -0.50297576 -3.0968432 0.5429706 0.83009535 0.96644086 -1.2840607
-0.34257492 0.8827765 -0.051379032 1.1256337 0.1155576 -0.0038317945 0.03139781 0.44544226
1.3261873 -0.98233503 -0.43205938 -1.8220159 0.29952455 0.6796829 0.61905324 -0.63029176
0.33646032 -0.26484296 -1.6001643 -1.2393919 -0.68034595 0.030513693 -0.071403995 -0.17351821
0.24787477 -0.89141554 -1.896929 -0.08053306 1.3527255 1.0437788 -1.0033584 -1.2341522
1.047412 -1.0440216 -0.75682825 -1.823275 0.4892245 0.6612598 0.6324696 -1.0659157
0.78833616 -0.6287261 -2.5892549 -1.2751136 -1.5553297 -0.85803634 -0.20216697 1.0549648
1.4534009 -1.207295 -4.4195557 -1.2117654 -2.4561956 -1.9017477 0.47865504 2.055688
1.4284014 -0.60937667 -3.871565 -1.1172986 -1.4188479 -1.2623011 0.21615753 1.8126918
-0.7057099 0.2820819 0.30631477 0.8077418 0.4376541 0.24340427 -0.40133265 0.025745839
00000000: b7f4 693f 6337 5bbf 060a e8bd a4e6 13c0
00000010: 9bb0 103f 9b52 a13e 3173 503f 8b25 68bf
00000020: ecaf 503f 05cf 2bbf 1f88 cdbf ba7c 8bbf
00000030: fc46 90bf 99e1 08bf 9aef 83bc 7327 ed3e
00000040: 408e aebd 7d79 81bf 6532 12c0 f0d8 eebe
00000050: 09b5 5f3f 165f 843f 6f78 30bf 7fe1 92bf
00000060: e3db 543f 7229 93bf 0d56 1bbf 4ff6 e1bf
00000070: 4810 a63e 9605 283f e111 3a3f d5c1 2ebf
00000080: 7252 4f3f 2949 e8be cca9 25c0 11e3 b6bf
00000090: 46f6 c4bf 7773 2abf 6e02 81be 1006 4b3f
000000a0: ec7f 8f3f 5503 62bf 3867 77c0 8f47 8fbf
000000b0: e602 cbbf 7b03 54bf 24c5 e83c ae05 cd3f
000000c0: c785 723f 55a4 5bbf 9ed8 5dc0 9566 59bf
000000d0: 05d6 98bf 9f60 92bf 45da 0fbe 4688 483f
000000e0: 7cd2 34bf 4275 7a3e ebbf ee3e b384 613f
000000f0: d073 763e 7dfa 3bbc 19d4 0ebe 9aae c4bd
00000100: d9bd 78be 5094 dbbd 05d9 a73e ef5b a2be
00000110: a03d 15bc 384d 073e 8642 693e fa3d 603e
00000120: 4033 70bc 4e9a 623e cd02 953e 39f6 8ebe
00000130: eaf6 753e 39db 953e 50e0 363d 299b b1be
00000140: 22b3 6c3e 70c4 ac3c 9c1c 36be 623f 053e
00000150: b543 28be 80a2 be3c 7716 47be 1366 4dbe
00000160: 306d 95bd 166a 85be 8ab3 dabd 9e86 2ebe
00000170: c882 ab3d ee5d 2e3e a8b0 aa3d 40f8 833d
00000180: ba7e 1d3e 565d 5b3e 4cbb 85be d73d ab3e
00000190: 2a1f 7dbe 39a8 a03e f4ce a7bd b196 993e
000001a0: b639 5f3e 5217 46be b272 283e 20ef 053e
000001b0: 3f2d 3bbe fcdd ca3d f3ea 2cbe b990 ac3e
000001c0: 5a28 173e 99df 46be 28b5 cc3d 9e50 0c3e
000001d0: b050 08bd 0080 4437 20a8 b2bd d03d 84bd
000001e0: 2074 e3bc b899 b3be 102d c23c 6849 87be
000001f0: 991b b33e aaab fabd a46e a9be 2876 713d
00000200: c8fc cc3f 962d 7abf 0bfd 5ebf 67a5 0ac0
00000210: 51da 663f cb58 833e 3d9c 313f 82ae 04bf
00000220: 140d 0bc0 aa23 bb3f b896 303f 1168 5940
00000230: 965a 2ebf 7e6f 61bf 22d6 73bf 8d78 923f
00000240: bbb2 f4bf e7ab 0140 7e36 193f 9094 4c40
00000250: 2bc9 a0bf f9e3 5bbf 2e00 5dbf 25a8 ae3f
00000260: 9a28 0bc0 3ced d73f 6a2b 943e a3b0 4940
00000270: 8682 46bf 3b54 1fbf 98d0 0dbf 1148 923f
00000280: 70a4 fb3f 84de 03c0 085e 53bf 7e5b 4ec0
00000290: 2dfa 233f c410 933f f41d 3b3f 9cee 67bf
000002a0: 9715 19c0 9c87 0340 50d6 703f e369 5e40
000002b0: 97a9 93bf 0581 88bf 5c65 1abf 238f 903f
000002c0: 82e4 1240 374c 05c0 05c3 00bf ae32 46c0
000002d0: 1f00 0b3f 2181 543f ab68 773f 1a5c a4bf
000002e0: fb65 afbe a4fd 613f d272 52bd c414 903f
000002f0: 77a9 ec3d d81e 7bbb fd9a 003d 0211 e43e
00000300: 81c0 a93f 4f7a 7bbf e336 ddbe d137 e9bf
00000310: 485b 993e b3ff 2d3f 467a 1e3f cd5a 21bf
00000320: 8744 ac3e 7f99 87be 2fd2 ccbf 65a4 9ebf
00000330: 272b 2ebf daf7 f93c 423c 92bd c2ae 31be
00000340: e2d2 7d3e cf33 64bf 92ce f2bf 84ee a4bd
00000350: 1c26 ad3f 8b9a 853f 0c6e 80bf b3f8 9dbf
00000360: 9911 863f 80a2 85bf 7fbf 41bf 1361 e9bf
00000370: a27b fa3e 5248 293f 87e9 213f ed6f 88bf
00000380: 66d0 493f 32f4 20bf 5ab6 25c0 ec36 a3bf
00000390: 0b15 c7bf 45a8 5bbf dc04 4fbe 1609 873f
000003a0: 0a09 ba3f a488 9abf 006d 8dc0 211b 9bbf
000003b0: 4f32 1dc0 786c f3bf 4612 f53e 6490 0340
000003c0: dbd5 b63f 1c00 1cbf b9c7 77c0 a403 8fbf
000003d0: cf9c b5bf 1593 a1bf 6658 5d3e 4906 e83f
000003e0: 67a9 34bf 0a6d 903e 4ad5 9c3e 2bc8 4e3f
000003f0: 3314 e03e f83e 793e 797b cdbe f0e8 d23c
