ModelSave80.pt (torch_old, 30998 bytes, 45 tensors)

lstm.weight_ih_l0 f4 [32, 8]
0	0x3b5e0dcb	0.0033882733
1	0xbfa3d3bc	-1.2798991
2	0x3f25f93b	0.6483342
3	0xbe89bde7	-0.26902696
4	0x3dafdc58	0.08586949
5	0x3e876b51	0.26449063
6	0xbde56c5c	-0.112023085
7	0xbeff024c	-0.4980644
8	0x3da6b21c	0.081394404
9	0xbf505f34	-0.8139527
10	0x3e5491dd	0.20758767
11	0x3e6a453f	0.22877978
12	0x3d93c67b	0.072155915
13	0x3f09571e	0.53648555
14	0x3e2eaa52	0.1705716
15	0xbdcc6753	-0.09980645
16	0x3cc8f757	0.024532003
17	0xbf0e38ed	-0.5555561
18	0x3f423d74	0.7587502
19	0xbd78b0e7	-0.060715582
20	0xbe013859	-0.12619151
21	0xbe9101b0	-0.283216
22	0xbf0788b7	-0.52942985
23	0x3e8d3c3e	0.27585024
24	0x3c58d112	0.01323344
25	0xbf332e6a	-0.699927
26	0xbddf4990	-0.10902703
27	0x3f2525f8	0.6451106
28	0xbe34a8f3	-0.17642574
29	0x3f95539c	1.166614
30	0x3edf2f05	0.4359056
31	0xbe695340	-0.22785664
32	0xbdecf0c5	-0.11569361
33	0xbf994a88	-1.197587
34	0x3eb54352	0.35402924
35	0x3e4771dd	0.19477029
36	0x3d169476	0.036762677
37	0x3f7187ec	0.94348025
38	0x3e3b8f36	0.1831635
39	0x3c117c5f	0.00887975
40	0xbf0d34e0	-0.55158806
41	0x3efaa472	0.48953587
42	0x3e816c22	0.2527781
43	0xbf1769c4	-0.5914576
44	0x3ee36768	0.4441483
45	0xbea45024	-0.32092392
46	0x3e0f299b	0.13980715
47	0x3e5a2778	0.21304119
48	0x3ea29f18	0.31762004
49	0xbf96bc51	-1.177622
50	0x3f2a0162	0.6640836
51	0x3eb37262	0.35048205
52	0x3ae28b94	0.0017284029
53	0x3ea8d832	0.32977444
54	0xbd75e09a	-0.06002865
55	0xbde239b2	-0.11046161
56	0xbeae9881	-0.34100726
57	0xbe38460e	-0.17995474
58	0xbe6e1abb	-0.23252384
59	0x3f2389e6	0.6388229
60	0x3ed835e6	0.4222862
61	0x3ed81530	0.42203665
62	0x3f22724f	0.6345567
63	0xbd616301	-0.055026058
64	0xbe58c3da	-0.21168461
65	0xbe090709	-0.1338159
66	0x3d7feea8	0.06248346
67	0xbe9e5d04	-0.3093034
68	0x3e82d69d	0.25554362
69	0x3e7830de	0.24237391
70	0xbd24b610	-0.04021269
71	0x3ead4f6d	0.3384966
72	0xbdfc6e8e	-0.12325774
73	0xbdb221cc	-0.086978525
74	0xbe915ae6	-0.28389663
75	0xbe227701	-0.15865709
76	0xbdedf81e	-0.1161959
77	0x3d532190	0.05154568
78	0xbded2342	-0.115789905
79	0x3e909991	0.28242162
80	0xbea0ebc6	-0.3142988
81	0x3e906b8f	0.2820706
82	0xbe4cc0f9	-0.19995488
83	0xbd7037a0	-0.058646798
84	0xbd85f714	-0.06541267
85	0x3dd11144	0.10208371
86	0x3eb05b5b	0.344447
87	0x3e80f821	0.25189307
88	0xbe77763c	-0.24166197
89	0xbdcb2520	-0.099191904
90	0x3d1a2b58	0.037638992
91	0x3e8f5807	0.27996847
92	0xbe86352e	-0.26212448
93	0x3dfd57ac	0.12370238
94	0x3da241d8	0.07922715
95	0x3ea61759	0.32439688
96	0xbddf032e	-0.10889278
97	0x3eb343bd	0.35012618
98	0xbe6b2046	-0.2296153
99	0x3d018340	0.03161931
100	0x3e4606de	0.19338557
101	0x3d87c3bc	0.0662913
102	0x3d89e994	0.067340046
103	0x3e04ecc6	0.12980947
104	0xbde73766	-0.11289863
105	0xbe9b7246	-0.3036062
106	0xbe54118c	-0.20709819
107	0x3e5fa406	0.21839914
108	0xbd331a18	-0.043726057
109	0x3e44b31a	0.19208947
110	0x3e80f45f	0.2518644
111	0x3e9c3d65	0.3051559
112	0x3e238236	0.1596764
113	0xbe8fd366	-0.28090972
114	0x3eaac811	0.33355764
115	0x3da09a74	0.078419596
116	0xbe27c14a	-0.16382328
117	0x3c072360	0.00824818
118	0x3d082930	0.033242404
119	0x3ea0592b	0.3131803
120	0x3e86e60f	0.26347396
121	0xbc39f220	-0.011349231
122	0x3e600682	0.21877483
123	0xbe2ee70d	-0.17080326
124	0x3e8ffc8f	0.28122374
125	0xbcaa9590	-0.02082327
126	0xbda0adb0	-0.07845628
127	0x3e863cab	0.2621816
128	0x3e13b872	0.14425829
129	0x3fa2d297	1.2720517
130	0xbe0538e7	-0.13009988
131	0xbf312865	-0.6920226
132	0xbd591f84	-0.05300857
133	0xbf6694d8	-0.9007087
134	0xbdb5c6e3	-0.08875825
135	0x3dcaecde	0.0990846
136	0xbcc51d2f	-0.024061767
137	0xbfa48f3d	-1.2856213
138	0x3f16d47c	0.58917975
139	0x3f1ca208	0.6118474
140	0x3d707a00	0.0587101
141	0x3f86da86	1.0535438
142	0xbd4c6118	-0.049897283
143	0xbb1c79f5	-0.0023876403
144	0xbee71eb1	-0.45140603
145	0xbf6d5d93	-0.9272091
146	0x3efca325	0.4934322
147	0x3f6901cb	0.9101836
148	0x3d821597	0.06351774
149	0x3f4f858c	0.8106315
150	0x3dfad6df	0.12248015
151	0x3d6da5b6	0.058019362
152	0x3d3ab12c	0.04557912
153	0xbf962b3e	-1.1731946
154	0x3f537ef9	0.8261562
155	0x3eb5c40b	0.3550113
156	0xbc10e829	-0.008844414
157	0x3f82bd74	1.0214067
158	0xbe006919	-0.12540092
159	0xbdd19080	-0.10232639
160	0xbe9b0fd4	-0.30285513
161	0xbefe24ae	-0.4963736
162	0x3ecfb7c1	0.4056988
163	0x3efae107	0.48999807
164	0x3cadd9af	0.021221964
165	0x3f537590	0.8260126
166	0x3f00ac1d	0.50262624
167	0xbdc12c42	-0.0943227
168	0x3dda3c41	0.10656024
169	0xbf8a826e	-1.0821054
170	0x3dade4f9	0.08490939
171	0x3f85a74a	1.0441678
172	0x3ef2bda8	0.4741032
173	0x3f36e3fa	0.71441615
174	0xbe136a38	-0.14395988
175	0xbdff41d4	-0.124637276
176	0x3e2e088c	0.16995448
177	0x3ee796a5	0.4523212
178	0x3ee8c79b	0.45464787
179	0xbf871478	-1.0553122
180	0xbe653c3d	-0.2238626
181	0xbf2da5e2	-0.6783124
182	0xbf00f455	-0.5037282
183	0xbbf938a0	-0.007605627
184	0x3da484d7	0.0803315
185	0x3fc55e40	1.5419388
186	0xbf28cbf5	-0.65936214
187	0xbe51ce2a	-0.20488802
188	0xbd8af7a4	-0.06785515
189	0xbf6391c2	-0.88894284
190	0x3e0206e9	0.12697949
191	0xbd292c51	-0.04130203
192	0x3a86da79	0.0010288499
193	0xbfa93eaa	-1.3222249
194	0x3f1445a1	0.57918745
195	0x3dc936fe	0.09824942
196	0x3e7e2692	0.24819401
197	0x3e07ee69	0.1327454
198	0xbe31f0b4	-0.17376977
199	0xbef21191	-0.47279027
200	0xbddd04dc	-0.107919425
201	0xbf70f2a6	-0.9412025
202	0xbd06909d	-0.032852758
203	0x3e703160	0.23456335
204	0x3e8a94ce	0.27066654
205	0x3f1480b9	0.58008915
206	0x3e984e93	0.29747447
207	0xbdfa0048	-0.12207085
208	0x3dcb74d9	0.09934396
209	0xbf672bf2	-0.9030143
210	0x3e92ca03	0.28669748
211	0x3e70795d	0.23483796
212	0xbde8dced	-0.11370263
213	0xbeef2a77	-0.46712086
214	0xbf1776bb	-0.59165543
215	0x3e5e88b8	0.21731842
216	0xbe70dab3	-0.23520927
217	0xbf8037a8	-1.0016985
218	0xbe0330a3	-0.12811522
219	0x3f664261	0.89945036
220	0xbdc17078	-0.0944528
221	0x3f3fc297	0.74906296
222	0x3f1feff1	0.62475497
223	0xbea5a153	-0.32349643
224	0x3e799b0f	0.24375556
225	0xbf520f5f	-0.82054704
226	0x3de93fd5	0.11389128
227	0x3f2b586c	0.66931796
228	0xbe0b62b3	-0.1361187
229	0x3f9e05dc	1.2345538
230	0x3e159c6a	0.14610448
231	0xbd19741b	-0.037464242
232	0xbf1d45de	-0.61434734
233	0x3ec51302	0.38491064
234	0x3daf714e	0.08566533
235	0xbeb724dd	-0.35770312
236	0x3ee542d5	0.4477755
237	0xbecdc232	-0.40187222
238	0x3e4b61ad	0.19861479
239	0xbdf590ec	-0.11990532
240	0x3ebab809	0.36468533
241	0xbf55d7ed	-0.835326
242	0x3f3f54d7	0.7473883
243	0x3ed6cfee	0.41955513
244	0x3e84a960	0.25910473
245	0x3e81b7ab	0.2533544
246	0xbe0115b6	-0.12605938
247	0xbec65146	-0.38733882
248	0xbe5d7d9f	-0.21629952
249	0x3e75f87c	0.2402057
250	0xbf09bec5	-0.53806716
251	0x3f5afb83	0.85540026
252	0x3eda4af6	0.42635316
253	0x3f25154f	0.6448564
254	0x3e743f4b	0.2385227
255	0x3e13c054	0.14428836

lstm.weight_hh_l0 f4 [32, 8]
0	0xbe422dc3	-0.18962769
1	0xbe92c66c	-0.2866701
2	0xbe344624	-0.17604882
3	0xbe9ac368	-0.30227208
4	0xbdcc70c0	-0.09982443
5	0xbe97b332	-0.29628903
6	0x3ea8af1d	0.329461
7	0xbd266ec0	-0.040632963
8	0xbe4e5828	-0.20150816
9	0x3e8b7cc1	0.27243617
10	0xbe275726	-0.16341838
11	0x3af20800	0.0018465519
12	0xbd73f160	-0.059556365
13	0x3c684d80	0.014178634
14	0x3e512aea	0.20426527
15	0x3d11f6b8	0.03563568
16	0xbd85dbf8	-0.06536096
17	0x3e158fc4	0.14605623
18	0xbe0b0372	-0.13575533
19	0x3e92850f	0.2861714
20	0x3e8d491b	0.27594838
21	0x3d4cd830	0.05001086
22	0xbe2be8bf	-0.16788004
23	0x3e5b62de	0.21424434
24	0xbe5b2c8c	-0.21403712
25	0xbe241b86	-0.16026124
26	0xbe8dcd44	-0.27695668
27	0x3e769fe6	0.24084434
28	0x3eb24583	0.34818658
29	0x3ea7eea5	0.3279926
30	0xbe8b4602	-0.2720185
31	0x3d7a0ff8	0.061050385
32	0x3e62cf02	0.2214928
33	0xbe68af84	-0.22723204
34	0x3deac090	0.1146251
35	0xbd393c28	-0.045223385
36	0x3e33c81a	0.17556801
37	0x3e94ec87	0.29086706
38	0x3e44f286	0.1923314
39	0x3e2bfcd6	0.16795668
40	0xbda144fc	-0.07874486
41	0x3e84a397	0.2590606
42	0xbd937058	-0.07199162
43	0xbe083246	-0.13300428
44	0xbe9fbd25	-0.31198993
45	0xbdc6efd0	-0.09713709
46	0xbe619b09	-0.22031797
47	0xbe88d77c	-0.26726902
48	0xbe8dd3c0	-0.27700615
49	0xbe1c1fee	-0.15246555
50	0xbe034a93	-0.12821417
51	0xbd1d82e8	-0.03845492
52	0x3a6ca800	0.00090277195
53	0xbd38b4d8	-0.04509434
54	0x3e4c806e	0.19970867
55	0xbe9fddd1	-0.3122392
56	0x3c3712a0	0.011173874
57	0x3d71a1e8	0.058992296
58	0x3d3ad4a0	0.04561293
59	0xbe3872bc	-0.18012518
60	0xbd3bf890	-0.045891345
61	0xbcb49150	-0.022041947
62	0x3bdec000	0.0067977905
63	0x3eab2e9d	0.33434
64	0x3d9f80bc	0.07788226
65	0xbe8e69b8	-0.27815032
66	0xbdba3e34	-0.090938956
67	0xbe536109	-0.20642485
68	0x3e30424e	0.17212793
69	0xbe4f2664	-0.20229489
70	0x3dbe1adc	0.09282467
71	0x3e13f392	0.14448383
72	0xbddbd838	-0.107346
73	0x3ea68513	0.32523403
74	0xbcccac70	-0.024984568
75	0x3b8b3bc0	0.004249066
76	0xbe845cd5	-0.25852075
77	0xbd5e6188	-0.05429223
78	0xbe149354	-0.14509326
79	0xbd939a50	-0.07207167
80	0xbd798700	-0.06091976
81	0xbd93ccc0	-0.07216787
82	0xbe2f7a59	-0.17136516
83	0xbe618881	-0.22024728
84	0x3dcdee7c	0.10055253
85	0x3cefbe90	0.029265672
86	0xbe16dfee	-0.1473386
87	0xbe34b276	-0.17646202
88	0xbd9e6b00	-0.077352524
89	0x3eaba05d	0.33520785
90	0xbe9c8efd	-0.3057784
91	0xbe1bade3	-0.15203051
92	0x3e863637	0.26213238
93	0xbead39b0	-0.33833075
94	0x3e07fb88	0.13279545
95	0x3e93fcb1	0.28903726
96	0xbdab66bc	-0.083692044
97	0x3c723be0	0.014784783
98	0x3da70824	0.081558496
99	0x3eaee6e7	0.3416054
100	0xbd2fac38	-0.04288885
101	0x3e9e5d65	0.3093063
102	0x3eb37ae1	0.35054687
103	0x3e096378	0.1341685
104	0xbe9b8711	-0.30376485
105	0xbeb1465c	-0.34623992
106	0x3e9c76b5	0.30559316
107	0x3ca3ccb0	0.019995064
108	0xbe182ba6	-0.148604
109	0x3e8dc00f	0.27685592
110	0xbe81ce24	-0.25352585
111	0x3e270fce	0.16314623
112	0xbdf1292a	-0.117754295
113	0xbe2efa19	-0.17087592
114	0x3e81532b	0.25258765
115	0xbd6c5b40	-0.05770421
116	0x3e1d3f4a	0.15356174
117	0xbdb2b38c	-0.08725652
118	0x3e8d5169	0.27601174
119	0xbe503996	-0.20334467
120	0x3e82cc0b	0.25546297
121	0xbe18cb0f	-0.1492121
122	0x3e92e1a9	0.2868779
123	0xbe08e340	-0.13367939
124	0xbb7ec580	-0.0038875043
125	0xbe7ed08e	-0.24884245
126	0x3df56ff0	0.11984241
127	0x3e25876e	0.16164944
128	0x3d280260	0.04101789
129	0x3e5bac72	0.21452501
130	0x3e35cac2	0.17753127
131	0x3da9043c	0.08252761
132	0xbcf27750	-0.029597908
133	0x3e697276	0.2279757
134	0xbe4d8324	-0.20069557
135	0xbe336ffa	-0.17523184
136	0xbd4dc990	-0.050241053
137	0xbeaab2d5	-0.33339563
138	0xbe75cd88	-0.24004185
139	0xbe22ad41	-0.15886404
140	0x3e89bde9	0.26902702
141	0x3e70a9d2	0.23502281
142	0x3c6c1ce0	0.014411181
143	0xbe6c22bf	-0.2306013
144	0x3e43b66a	0.19112554
145	0x3d4fb960	0.050713897
146	0x3e9323af	0.28738162
147	0xbe956e87	-0.29185888
148	0xbeb3f682	-0.35149008
149	0x3e1166c0	0.14199352
150	0x3e8e27b3	0.27764663
151	0xbe1f6b19	-0.15568198
152	0x3c230880	0.009950757
153	0x3dfae374	0.122504145
154	0xbd8c471c	-0.068495005
155	0xbdbefb28	-0.09325248
156	0xbd6fdc80	-0.058559895
157	0x3e411eaa	0.18859354
158	0x3e635802	0.22201541
159	0x3d009210	0.031389296
160	0xbcc6b5f0	-0.024256676
161	0xbe51066d	-0.20412607
162	0x3c5dca80	0.013537049
163	0xbe69629f	-0.22791527
164	0xbd25ee20	-0.040510297
165	0xbb0a7b80	-0.002113074
166	0xbe01bc13	-0.12669401
167	0xbeac3c3c	-0.33639705
168	0xbdcb1618	-0.099163234
169	0xbea0fe03	-0.31443796
170	0xbd9ff1ec	-0.07809815
171	0xbdce630c	-0.100774854
172	0xbc2208a0	-0.009889752
173	0xbdfc9d78	-0.12334722
174	0x3ea17c0d	0.31539956
175	0x3e242ece	0.1603348
176	0xbea351e9	-0.3189843
177	0xbe1b3ae7	-0.15159188
178	0xbe1ee13c	-0.15515608
179	0xbe869564	-0.2628585
180	0x3c669d60	0.014075607
181	0x3df34580	0.118784904
182	0x3e096b44	0.13419825
183	0x3d4bcd40	0.04975629
184	0x3e3c5352	0.18391159
185	0x3e56a772	0.20962313
186	0xbeb396e2	-0.35076052
187	0xbe94d9fc	-0.2907256
188	0x3e37baf6	0.17942414
189	0xbea0c9ef	-0.31404063
190	0x3e9b1643	0.30290422
191	0xbcd94150	-0.026520401
192	0x3bbd9240	0.0057852566
193	0xbe77d563	-0.24202494
194	0xbe7037a6	-0.23458728
195	0x3da99510	0.082803845
196	0xbb1ca600	-0.0023902655
197	0xbca5c220	-0.020234168
198	0x3ead67d5	0.3386828
199	0xbda8b350	-0.08237326
200	0x3c1784e0	0.009247988
201	0x3e793d7e	0.24339864
202	0xbc5dbc00	-0.013533592
203	0xbe761ab4	-0.24033624
204	0xbe8769cc	-0.26447904
205	0x3e68f176	0.2274836
206	0xbe72f577	-0.2372645
207	0xbeaae7e6	-0.3338005
208	0x3e099e72	0.13439348
209	0xbe678734	-0.2261017
210	0x3e4b0392	0.1982558
211	0x3e00a574	0.12563115
212	0x3c5098e0	0.012731761
213	0xbe73c065	-0.23803861
214	0x3e4df84e	0.20114252
215	0xbdbf6914	-0.09346214
216	0xbe8b6d23	-0.27231702
217	0xbc115360	-0.008869976
218	0xbcaabe70	-0.02084276
219	0xbea05d3e	-0.31321138
220	0x3e875933	0.2643524
221	0x3da4f580	0.08054638
222	0x3db10a0c	0.086444944
223	0x3e13603c	0.14392179
224	0x3e12b166	0.14325485
225	0x3e8c52ab	0.2740682
226	0x3e9d1701	0.30681613
227	0x3e8ad85f	0.27118203
228	0xbe4747fc	-0.19461054
229	0x3c52f1e0	0.01287505
230	0x3e8a19b7	0.26972744
231	0x3e93dc13	0.2887884
232	0xbe9efe07	-0.31053182
233	0xbe1c738b	-0.15278451
234	0xbe2d5b72	-0.16929415
235	0xbd9872c0	-0.07443762
236	0x3e306ed6	0.1722978
237	0xbe880283	-0.26564416
238	0xbe7d7f2d	-0.24755545
239	0x3e93fcf3	0.28903922
240	0x3ea183b7	0.31545803
241	0xbe859486	-0.26089877
242	0x3eb4d96b	0.35322127
243	0xbdce9f58	-0.10088986
244	0xbe1c83e2	-0.15284684
245	0x3e7567e2	0.2396541
246	0xbe7c88d1	-0.24661566
247	0x3e360a46	0.17777357
248	0x3eb34b59	0.35018423
249	0xbdb95f88	-0.09051424
250	0x3eacbd05	0.3373796
251	0x3e8f72c5	0.2801725
252	0xbe1789b6	-0.14798626
253	0x39d2c400	0.00040200353
254	0x3e9e8297	0.30959007
255	0xbe81473e	-0.25249666

lstm.bias_ih_l0 f4 [32]
0	0x3ebdb094	0.3704878
1	0x3f18949f	0.5960178
2	0x3ef9d53c	0.48795497
3	0x3ee345f1	0.443893
4	0x3e126f45	0.14300258
5	0x3f7d327e	0.9890517
6	0xbdb15e0a	-0.08660515
7	0x3ef6e008	0.48217797
8	0xbda74e6c	-0.08169255
9	0xbdd03cb0	-0.10167825
10	0xbe12b638	-0.14327323
11	0xbea446af	-0.32085177
12	0xbe06c325	-0.13160379
13	0xbd6f11a0	-0.058366418
14	0x3e4b6f6a	0.1986672
15	0xbeab3f85	-0.334469
16	0x3eb3a4e6	0.35086745
17	0xbe3b6b77	-0.18302713
18	0xbe3d42eb	-0.18482558
19	0xbe29c24e	-0.16578028
20	0x3ea764b4	0.32694018
21	0xbf053069	-0.52026993
22	0xbecd1779	-0.4005697
23	0xbc4d52df	-0.012531965
24	0x3f2f8f9f	0.68578523
25	0x3f149c83	0.5805132
26	0x3f4d888b	0.80286473
27	0x3f096c42	0.53680813
28	0x3e99b744	0.30022633
29	0x3f44e622	0.76913655
30	0xbc7ad6fd	-0.015310046
31	0x3f78e248	0.9722028

lstm.bias_hh_l0 f4 [32]
0	0x3f312a22	0.69204915
1	0x3f8e1acd	1.1101929
2	0x3f36177e	0.71129596
3	0x3be48534	0.006973887
4	0x3ca9b159	0.020714449
5	0x3f236919	0.6383224
6	0x3e06b3e4	0.1315456
7	0x3f83dc31	1.0301572
8	0xbd5bbef8	-0.05364892
9	0x3e1ea506	0.15492639
10	0x3dc295bc	0.09501216
11	0x3e6720da	0.22571126
12	0x3e9c50b9	0.30530336
13	0xbe32ae27	-0.17449246
14	0xbbc86700	-0.006115794
15	0xbe86d808	-0.26336694
16	0x3e44fb96	0.19236597
17	0xbebdd3ed	-0.3707575
18	0xbf02f119	-0.51149136
19	0xbb380c68	-0.0028083567
20	0x3ebc7b34	0.36812747
21	0xbeef2b98	-0.46712947
22	0xbe04abc9	-0.12956156
23	0x3f03ea05	0.5152896
24	0x3f565114	0.83717465
25	0x3f84f34e	1.0386751
26	0x3f05dbe0	0.5228863
27	0x3db3a134	0.087709814
28	0x3ee953fc	0.45571887
29	0x3f76ff4e	0.96483314
30	0x3d393b00	0.045222282
31	0x3f216b71	0.6305457

lstm.weight_ih_l1 f4 [32, 8]
0	0xbeec5a0e	-0.46162456
1	0x3f4bf6e4	0.796736
2	0x3eb56105	0.35425583
3	0x3e70537c	0.23469347
4	0x3f169b40	0.5883064
5	0x3e59e441	0.21278478
6	0xbe26b731	-0.1628082
7	0xbf581357	-0.8440451
8	0xbe9d48b3	-0.30719528
9	0x3f211019	0.6291519
10	0xbd0381fd	-0.03210639
11	0x3eebee12	0.4608007
12	0x3f54423a	0.82913554
13	0xbe82a854	-0.2551905
14	0xbf1fac5e	-0.62372386
15	0xbee0320e	-0.4378819
16	0xbdd55759	-0.10417051
17	0x3d51eb8e	0.051250033
18	0xbe006b55	-0.12540944
19	0xbd5ab104	-0.05339147
20	0x3cd72c32	0.026266191
21	0xbd8c6004	-0.06854251
22	0xbea2c813	-0.3179327
23	0xbe8daa11	-0.27668813
24	0x3ea5c19e	0.3237428
25	0xbec9752e	-0.39347214
26	0xbe2e1988	-0.17001927
27	0xbea513f4	-0.32241786
28	0x3e1fa895	0.15591653
29	0xbf4bab3c	-0.7955816
30	0x3ee2f941	0.4433079
31	0x3e752ec8	0.23943627
32	0x3e8de4e2	0.27713686
33	0xbcb5be36	-0.022185426
34	0x3e27b719	0.1637844
35	0x3dad1a87	0.08452325
36	0x3f3e3432	0.74298394
37	0xbf062d12	-0.5241252
38	0xbe96791d	-0.29389277
39	0x3ed44649	0.41459873
40	0xbf0659ec	-0.5248096
41	0x3d10ff35	0.035399634
42	0x3e98db25	0.29854694
43	0x3ecac73b	0.39605126
44	0x3ec010bf	0.37512776
45	0xbe4a37ed	-0.19747896
46	0xbefc176e	-0.49236625
47	0xbefbb55e	-0.4916181
48	0x3f16b44b	0.58868855
49	0xbf579984	-0.8421862
50	0xbf1d6f69	-0.61498123
51	0xbeb1f31f	-0.347558
52	0xbec1e859	-0.3787258
53	0xbf4bda54	-0.7963002
54	0xbe844c8f	-0.2583966
55	0x3f2f3c56	0.6845144
56	0xbea46ab9	-0.32112673
57	0x3eb3ec18	0.35141063
58	0x3ea29e54	0.3176142
59	0x3f6adcc1	0.91743094
60	0x3f2f75ba	0.6853901
61	0x3cffa793	0.031207835
62	0xbf4b8e21	-0.79513747
63	0xbd75a8e6	-0.059975527
64	0x3dcef958	0.10106152
65	0x3ea2628f	0.3171582
66	0xbe5a517d	-0.21320148
67	0x3e3a9876	0.18222222
68	0x3e74f2c2	0.2392073
69	0x3e295bba	0.16538897
70	0x3e09c9aa	0.13455835
71	0x3d705fa0	0.058684945
72	0x3e513ef6	0.20434174
73	0xbcac6c70	-0.0210478
74	0x3e75f736	0.24020085
75	0xbd2d2758	-0.04227385
76	0x3e97968f	0.29607055
77	0xbd979040	-0.074005604
78	0x3db4719c	0.08810732
79	0xbe89478a	-0.26812392
80	0x3e1fc286	0.15601549
81	0x3d3d7050	0.046249688
82	0xbe45778a	-0.19283882
83	0xbc39a260	-0.011330217
84	0xbe1084e0	-0.14113188
85	0x3e67f512	0.2265208
86	0x3eab8a1d	0.3350381
87	0x3d234d18	0.039868444
88	0xbe6f10fa	-0.2334632
89	0xbe1a2ae6	-0.15055427
90	0xbea3c56c	-0.31986558
91	0x3e19ad16	0.15007433
92	0x3e130d94	0.14360648
93	0xbdf65774	-0.12028399
94	0x3eaf4f85	0.34240356
95	0x3e4611a6	0.1934267
96	0xbda3d178	-0.07998937
97	0x3e932f91	0.28747228
98	0x3c689e40	0.014197886
99	0xbd278bd0	-0.04090482
100	0x3cef83b0	0.029237598
101	0xbdf09fda	-0.11749239
102	0xbdc2d268	-0.09512788
103	0x3ea98c11	0.33114675
104	0x3e66c666	0.2253662
105	0x3dce4578	0.10071844
106	0xbd103618	-0.035207838
107	0x3e61d1d2	0.22052696
108	0xbcb19a70	-0.021680087
109	0xbd02eb18	-0.031962484
110	0x3e36ea0e	0.17862722
111	0xbdc3cd04	-0.09560588
112	0xbe92facb	-0.28706965
113	0x3cf58ff0	0.029975861
114	0x3db8c9a0	0.09022832
115	0x3dff0d28	0.12453681
116	0xbe291a0c	-0.16513842
117	0xbe95ed5c	-0.29282653
118	0x3e4360c2	0.19079879
119	0x3c011c80	0.00788033
120	0x3ea95c83	0.33078393
121	0x3d49a0a0	0.04922545
122	0x3e988b39	0.29793718
123	0x3e9ae0c9	0.30249622
124	0x3e7adc1a	0.24498025
125	0xbea3567e	-0.31901926
126	0x3e6c8ae2	0.23099855
127	0xbe8e280e	-0.27764934
128	0xbf434235	-0.762729
129	0x3f55dc26	0.83539045
130	0x3f8102b8	1.0078955
131	0x3edc948a	0.43082076
132	0x3e2cec10	0.16886926
133	0x3f9aa56c	1.2081733
134	0xbf213a40	-0.6297951
135	0xbf445b9e	-0.76702297
136	0x3f9ea9f9	1.2395622
137	0xbf834774	-1.0256181
138	0xbf45dedd	-0.7729319
139	0xbf5024f4	-0.81306386
140	0xbf14d634	-0.5813935
141	0xbf82fedf	-1.023403
142	0x3ea41698	0.32048488
143	0x3f9e4d39	1.2367316
144	0x3f33dd06	0.7025913
145	0xbf31b0d1	-0.69410425
146	0xbf8bbf02	-1.0917666
147	0xbeeb723f	-0.459856
148	0xbf420d8e	-0.7580193
149	0xbf9aafee	-1.208494
150	0x3f1616ad	0.5862835
151	0x3f3305f4	0.6993096
152	0xbf8aa6d8	-1.0832167
153	0x3f71d733	0.9446899
154	0x3f1459dd	0.5794962
155	0x3e827a19	0.25483778
156	0x3ca3f17e	0.020012613
157	0x3f291853	0.6605274
158	0xbeddb007	-0.4329836
159	0xbef37892	-0.47552925
160	0xbf348dde	-0.7052897
161	0x3f5ab5db	0.8543374
162	0x3f4bf18e	0.7966546
163	0x3f2f65c9	0.68514687
164	0x3e939107	0.28821585
165	0x3f5c433c	0.8604009
166	0xbece28ca	-0.40265495
167	0xbf702a06	-0.9381412
168	0xbf8363c4	-1.0264821
169	0x3f142dc0	0.5788231
170	0x3f16bd5e	0.588827
171	0x3f406337	0.7515139
172	0x3f02a9b8	0.5104022
173	0x3f6e22f4	0.93022084
174	0xbe170ab5	-0.14750178
175	0xbf0985cc	-0.5371978
176	0x3f673e97	0.9032988
177	0xbf4c1d10	-0.79731846
178	0xbec3d4b2	-0.3824821
179	0xbee1916e	-0.44056267
180	0xbf33c0c1	-0.70215994
181	0xbf802b5b	-1.0013231
182	0x3e449133	0.19196014
183	0x3f933db2	1.1503203
184	0x3fa20611	1.2658101
185	0xbf7d47d9	-0.98937756
186	0xbf500a52	-0.8126575
187	0xbf80b279	-1.0054466
188	0xbea9f452	-0.33194214
189	0xbf90eed3	-1.1322883
190	0x3d45c140	0.04828
191	0x3f702dd7	0.93819946
192	0xbebeb080	-0.37244034
193	0x3f60b62b	0.87777966
194	0x3f311e18	0.69186544
195	0x3f2b9548	0.6702466
196	0x3f280513	0.6563274
197	0x3dc4404a	0.09582575
198	0xbeb09dd5	-0.34495416
199	0xbf4b777b	-0.7947919
200	0xbe5a192d	-0.21298666
201	0x3f306519	0.6890426
202	0x3e79fbcf	0.24412464
203	0x3f474996	0.7784666
204	0x3ee5fd67	0.44919893
205	0xbd2ea977	-0.042642083
206	0xbf2a6d72	-0.6657325
207	0xbdc3a0eb	-0.09552177
208	0x3dab6cba	0.08370347
209	0xbd875e0f	-0.06609737
210	0x3e261fe1	0.16223098
211	0x3dd4d7bf	0.10392713
212	0x3eded767	0.43523714
213	0xbd98c004	-0.07458499
214	0x3ba90df8	0.005159136
215	0xbd8ecb41	-0.06972361
216	0x3f440894	0.7657559
217	0xbe4793dd	-0.19489999
218	0xbe15fa73	-0.1464632
219	0xbefafd53	-0.49021396
220	0xbd004b54	-0.03132184
221	0xbf4a3f6a	-0.7900301
222	0x3e07236c	0.13197106
223	0x3f522b5b	0.82097405
224	0x3ec20323	0.37893018
225	0x3e03cf2b	0.12871997
226	0xbda485c6	-0.08033328
227	0x3e097f3c	0.13427442
228	0x3f3bcbf9	0.7335811
229	0xbf16c79f	-0.5889835
230	0xbf02c78d	-0.5108574
231	0x3edade57	0.42747757
232	0xbf192932	-0.59828484
233	0x3ed4e4b6	0.41580743
234	0x3ec95902	0.3932572
235	0x3e4ed698	0.20199049
236	0x3e6950e5	0.22784765
237	0xbe324e5e	-0.17412707
238	0xbcf41330	-0.029794306
239	0xbe997b1a	-0.29976732
240	0x3f361f9b	0.71141976
241	0xbef69e8b	-0.48167834
242	0xbf3f9402	-0.74835217
243	0xbf1f3fc1	-0.62206656
244	0xbe82bc1b	-0.25534138
245	0xbf3bbb5c	-0.7333276
246	0x3da8a4f7	0.082345895
247	0x3f812753	1.0090126
248	0xbf5b79f4	-0.8573296
249	0x3f09cb31	0.5382567
250	0x3eb8a29b	0.36061558
251	0x3f48550f	0.7825479
252	0x3f593972	0.8485328
253	0xbe87fb48	-0.265589
254	0xbe92d7b1	-0.28680184
255	0xbe0f4f4c	-0.13995093

lstm.weight_hh_l1 f4 [32, 8]
0	0xbe4eee90	-0.20208192
1	0xbdfec84e	-0.12440549
2	0xbe64ba7c	-0.22336763
3	0x3e509a8e	0.20371458
4	0xbda27b90	-0.07933724
5	0x3daf2604	0.08552173
6	0x3e8cc6ed	0.27495518
7	0x3d66d9b8	0.056359977
8	0x3ea23497	0.31680748
9	0x3db513b0	0.08841646
10	0x3e0af362	0.13569406
11	0x3e9b840b	0.30374178
12	0x3e3032a6	0.17206821
13	0x3ddff18c	0.10934743
14	0x3e7ec0aa	0.24878183
15	0xbe0987ff	-0.13430785
16	0x3da296a4	0.07938889
17	0xbd1c0a48	-0.038095742
18	0xbd6aea98	-0.057352632
19	0x3eacacbf	0.33725545
20	0xbdcbfca0	-0.09960294
21	0xbeb2da32	-0.34932095
22	0x3d50f040	0.05101037
23	0xbc9e1620	-0.01929766
24	0x3db1823c	0.08667418
25	0x3e829f35	0.2551209
26	0x3e406d32	0.18791655
27	0xbe9595f5	-0.2921597
28	0x3e8be17d	0.2732047
29	0x3dc91740	0.09818888
30	0xbe4dec04	-0.20109564
31	0xbd82137c	-0.063513726
32	0xbe90c8e8	-0.2827828
33	0xbe0d9a23	-0.1382833
34	0x3e9e16d3	0.30876788
35	0xbe860fa3	-0.26183805
36	0x3d797e08	0.06091121
37	0xbe78e14e	-0.24304697
38	0x3e8433ab	0.2582067
39	0xbd0a8dc0	-0.03382659
40	0xbdf46288	-0.11932856
41	0x3e66222a	0.2247397
42	0xbe903d8c	-0.28171957
43	0xbeaa4eb6	-0.33263177
44	0xbdff9502	-0.12479593
45	0x3e88f669	0.26750496
46	0x3d4460e0	0.04794395
47	0xbbadd580	-0.005304992
48	0x3e5abe4a	0.21361652
49	0x3e85bf4d	0.26122513
50	0x3dba8cb0	0.09108865
51	0xbd854cb4	-0.065087706
52	0x3e97f871	0.29681733
53	0x3e26cf42	0.1629
54	0x3d977a60	0.07396388
55	0x3d294198	0.04132232
56	0x3e994c41	0.2994099
57	0xbe862790	-0.2620206
58	0x3e9234a5	0.2855579
59	0xbda6beb4	-0.081418425
60	0xbdefde86	-0.11712365
61	0x3e93ffa1	0.28905967
62	0x3d347d20	0.04406464
63	0x3e6148f2	0.22000483
64	0xbe828eac	-0.25499475
65	0xbe75afe6	-0.23992881
66	0xbe993f0d	-0.29930916
67	0xbea6601a	-0.32495195
68	0x3e98eadd	0.29866686
69	0x3e55aa96	0.20865855
70	0x3de345d8	0.11097306
71	0xbdf149e8	-0.117816746
72	0xbe64e763	-0.22353892
73	0xbe917334	-0.28408206
74	0x3e2b2ea6	0.16717014
75	0x3ea9276b	0.33037886
76	0x3d6747d0	0.05646497
77	0xbd89bb38	-0.06725162
78	0xbe813e77	-0.2524297
79	0xbe88cc68	-0.2671845
80	0xbe6367bc	-0.2220754
81	0x3e5a97c2	0.21346954
82	0x3d5f1638	0.05446455
83	0x3e52d9ce	0.20590898
84	0x3d3b2f60	0.045699477
85	0xbe26d21f	-0.16291092
86	0x3dc71068	0.09719926
87	0xbe940b5e	-0.28914922
88	0x3ea66eb7	0.32506344
89	0x3e2cf1f2	0.1688917
90	0xbe21e946	-0.15811643
91	0xbd6a2858	-0.05716738
92	0x3d6189b0	0.05506295
93	0x3de73ebc	0.112912625
94	0x3dfc02d0	0.12305224
95	0x3e6ef90a	0.23337188
96	0x3e6c6922	0.2308698
97	0xbe700698	-0.23440015
98	0xbe39d628	-0.181481
99	0xbd7b1048	-0.061294824
100	0x3e1a7ac6	0.15085897
101	0xbb1c8680	-0.002388388
102	0x3e532746	0.2062045
103	0xbe8804c6	-0.26566142
104	0x3c59d980	0.013296485
105	0x3e1f19ee	0.15537235
106	0x3e43942e	0.19099495
107	0x3daa37a8	0.08311397
108	0x3e031424	0.12800652
109	0x3de7b3c8	0.113135874
110	0xbd6b6f20	-0.057479024
111	0xbeb04073	-0.3442417
112	0x3dedce6c	0.116116375
113	0x3a302200	0.00067189336
114	0x3d733c88	0.0593839
115	0x3d933e88	0.07189661
116	0x3e9d0b37	0.3067262
117	0x3e091cc2	0.13389876
118	0x3df60f00	0.1201458
119	0xbe10b778	-0.14132488
120	0xbe1a5f6f	-0.15075468
121	0xbe7b151a	-0.24519768
122	0x3e5b8942	0.21439078
123	0x3e370fe6	0.17877159
124	0xbe85244f	-0.26004264
125	0x3db04228	0.08606368
126	0xbe16ad43	-0.14714532
127	0x3dee0d70	0.11623657
128	0x3cfb9b10	0.030713588
129	0xbe9a5332	-0.30141598
130	0x3e620fde	0.22076365
131	0x3e9ad919	0.30243757
132	0xbe9d15a3	-0.3068057
133	0x3ea652bb	0.32484993
134	0x3e4fdb86	0.20298585
135	0xbde27492	-0.1105739
136	0xbd565658	-0.052328438
137	0xbd0d2840	-0.034462214
138	0xbcceaad0	-0.025227934
139	0x3ea41411	0.3204656
140	0xbe86e616	-0.26347417
141	0x3e3b2aca	0.18278041
142	0xbe6eaec4	-0.23308855
143	0xbe79ff8c	-0.2441389
144	0x3e4aac3e	0.19792268
145	0xbda9e340	-0.082952976
146	0xbaa05300	-0.0012231767
147	0x3e8d557d	0.27604285
148	0x3dac8448	0.08423668
149	0x3c3503e0	0.011048287
150	0x3dce017c	0.10058877
151	0x3e8c870f	0.27446792
152	0xbe68a7f5	-0.2272032
153	0xbdd8993c	-0.10576102
154	0x3eb41879	0.3517492
155	0xbe9b47f6	-0.3032834
156	0x3b062d00	0.00204736
157	0xbe96be34	-0.29441988
158	0x3cb4f000	0.022087097
159	0x3e042b72	0.12907198
160	0x3ea82a97	0.32844993
161	0xbeaf9eb0	-0.34300756
162	0x3e332622	0.17495015
163	0x3e44363e	0.19161317
164	0x3d7547d8	0.05988297
165	0x3e975449	0.29556492
166	0x3cea65e0	0.02861303
167	0x3e00a57a	0.12563124
168	0xbeafc0bf	-0.3432674
169	0xbe3d112c	-0.18463582
170	0xbde18bd2	-0.11012997
171	0x3e49344e	0.19648859
172	0x3de5f9b4	0.11229268
173	0xbe6149e2	-0.2200084
174	0x3e2a96e6	0.16659126
175	0x3d387ca0	0.045040727
176	0xbace2a00	-0.001572907
177	0x3e637b1e	0.22214934
178	0xbe58220b	-0.21106736
179	0x3e2d9faa	0.16955438
180	0x3e046c00	0.12931824
181	0xbd58e570	-0.052953184
182	0x3e07a474	0.13246328
183	0xbe97f19b	-0.29676518
184	0x3d9ce5ac	0.07660994
185	0x3d038418	0.032108396
186	0xbea1e970	-0.3162341
187	0x3e801821	0.2501841
188	0xbe690f87	-0.2275983
189	0xbe398d03	-0.18120198
190	0x3e0d9a26	0.13828334
191	0x3e930f21	0.2872248
192	0x3daa9750	0.08329642
193	0x3e75f906	0.24020776
194	0x3e27cb8a	0.16386238
195	0xbe4fb4c3	-0.20283799
196	0x3c5acf00	0.013355017
197	0xbe330ac0	-0.1748457
198	0xbe0858d8	-0.13315141
199	0xbe88b151	-0.26697782
200	0x3d5e2f98	0.054244608
201	0xbe54fb26	-0.2079893
202	0x3ea3078b	0.31841692
203	0x3e8c8703	0.27446756
204	0xbd3fba88	-0.04680875
205	0xbe15c601	-0.14626314
206	0x3e253ae2	0.16135743
207	0xbe17c973	-0.1482294
208	0x3e049ec8	0.12951195
209	0x3e8ef205	0.2791902
210	0x3e2b2a22	0.16715291
211	0x3e6ea492	0.23304966
212	0xbcc17d90	-0.023619443
213	0xbd496320	-0.0491668
214	0xbe67ef18	-0.22649801
215	0x3ea4a31d	0.32155696
216	0xbe946518	-0.28983378
217	0x3e90e03f	0.28296086
218	0x3e9ca2a7	0.30592844
219	0xbea198d4	-0.3156191
220	0xbbb67dc0	-0.00556919
221	0x3e3ebb36	0.18626103
222	0x3e460f86	0.19341859
223	0x3e39b93e	0.1813707
224	0xbdbfe304	-0.09369472
225	0x3e11901e	0.14215133
226	0x3eadbccb	0.339331
227	0xbeb3f81c	-0.3515023
228	0xbeb1f6ac	-0.34758508
229	0xbdc02560	-0.09382129
230	0xbdf8d614	-0.12150207
231	0xbd7195b0	-0.058980644
232	0x3dcd05cc	0.10010871
233	0x3e60b52a	0.21944109
234	0xbe820fb2	-0.254026
235	0x3e90b2e7	0.28261492
236	0xbe527eeb	-0.20556228
237	0x3cfe89d0	0.031071573
238	0x3d5d24c8	0.053990155
239	0xbe1ae563	-0.15126567
240	0xbe5d905f	-0.21637104
241	0x3e06dad8	0.1316942
242	0xbe88eaea	-0.26741725
243	0xbe558308	-0.20850766
244	0x3cd55d60	0.026045501
245	0x3e78849a	0.24269333
246	0x3e68be9a	0.22728959
247	0xbc746480	-0.014916539
248	0xbb98eb40	-0.004666716
249	0xbea0a6dc	-0.31377304
250	0x3e39e7d2	0.18154839
251	0xbe69496c	-0.22781914
252	0x3ca69610	0.020335227
253	0x3c56c220	0.013107806
254	0x3be431c0	0.0069639385
255	0xbeb1e1ce	-0.34742588

lstm.bias_ih_l1 f4 [32]
0	0x3ec420f6	0.38306397
1	0x3f54ad66	0.83077085
2	0x3f113410	0.56720066
3	0x3eddb883	0.43304834
4	0x3f7f8bad	0.99822503
5	0x3ec7b19a	0.39002687
6	0x3f0329bc	0.51235557
7	0x3fb36dd9	1.4017898
8	0xbeb2fcdc	-0.3495854
9	0x3d067ea8	0.032835633
10	0x3d3abfc0	0.045593023
11	0xbe97333b	-0.29531273
12	0xbdb1c3c8	-0.086799204
13	0x3ea07e1b	0.3134621
14	0xbea61d91	-0.32444432
15	0x3e849279	0.25893
16	0xbcbf332c	-0.02333983
17	0x3ebfd109	0.3746417
18	0x3f0397ca	0.51403487
19	0xbf405d53	-0.751424
20	0xbea848c9	-0.3286803
21	0xbea3e805	-0.32012954
22	0x3ee5f3d5	0.44912592
23	0x3e5ad24d	0.21369286
24	0x3f09b725	0.5379508
25	0x3f829043	1.0200275
26	0x3f6b8296	0.91996133
27	0x3f032bb6	0.5123857
28	0x3f738c7d	0.95136243
29	0x3e812931	0.2522674
30	0x3ee745c4	0.45170414
31	0x3f6866dd	0.90781957

lstm.bias_hh_l1 f4 [32]
0	0x3efaf6fb	0.49016556
1	0x3f768bc5	0.9630702
2	0x3f7d6309	0.9897924
3	0x3eae9b38	0.34102798
4	0x3f4e0659	0.80478436
5	0x3e8a05d9	0.26957586
6	0x3ef595e4	0.4796592
7	0x3f83748c	1.0269942
8	0x3d97726c	0.07394871
9	0xbe947100	-0.28992462
10	0xbe2a12f0	-0.16608787
11	0x3d8a31b4	0.06747761
12	0xbe9c7fe1	-0.30566314
13	0x3dd3cf38	0.10342258
14	0x3e7a187a	0.244234
15	0xbdf9a5c0	-0.121898174
16	0xbe433e1f	-0.19066666
17	0x3eda3037	0.4261491
18	0x3e2c5cbf	0.16832255
19	0xbdace29f	-0.08441662
20	0xbebef694	-0.372975
21	0xbe28b0c9	-0.16473688
22	0x3f14261e	0.5787066
23	0x3ee58381	0.44826892
24	0x3eb0118c	0.34388387
25	0x3fa05515	1.2525965
26	0x3f762b49	0.961598
27	0x3e286ecb	0.16448514
28	0x3f61ea43	0.8824808
29	0x3ec409c5	0.38288704
30	0x3f3acbba	0.7296711
31	0x3f7938dc	0.97352386

lstm.weight_ih_l2 f4 [32, 8]
0	0x3f700fe9	0.93774277
1	0xbf034002	-0.51269543
2	0xbda853b7	-0.08219092
3	0xbe3ce6d1	-0.18447424
4	0x3f09e83f	0.53870004
5	0x3ece335d	0.40273562
6	0x3eccbede	0.3998937
7	0xbf19fbd8	-0.6014991
8	0xbe084231	-0.133065
9	0x3f2d412f	0.6767759
10	0x3f0206c3	0.5079157
11	0xbf61d727	-0.8821892
12	0xbf4cdf22	-0.80027974
13	0xbf2b33f3	-0.66876143
14	0x3f228c36	0.63495195
15	0x3f50bb8f	0.8153619
16	0x3efb49d2	0.49079758
17	0x3b165471	0.0022938515
18	0xbdcbf3c0	-0.09958601
19	0xbeecced7	-0.46251556
20	0x3cc1d76b	0.02366229
21	0x3f20c597	0.628015
22	0x3f971784	1.1804051
23	0x3e336f1c	0.17522854
24	0x3f91584d	1.1355072
25	0xbe9588bb	-0.2920588
26	0xbd865997	-0.06560057
27	0xbefda319	-0.49538496
28	0xbe9161f0	-0.28395033
29	0x3ecf93ac	0.40542352
30	0x3f557173	0.83376235
31	0xbeeed821	-0.46649268
32	0x3f086a18	0.53286886
33	0xbee6b7b2	-0.45062023
34	0xbe29aa81	-0.16568948
35	0xbee55c38	-0.4479692
36	0xbe982235	-0.29713598
37	0x3f0a900c	0.5412605
38	0x3f8c192a	1.094518
39	0xbf007eb7	-0.5019335
40	0x3d940be6	0.07228832
41	0x3ea1623a	0.31520253
42	0x3f013683	0.50473803
43	0xbdea0e2d	-0.11428485
44	0xbeec2b82	-0.46126944
45	0xbde206d4	-0.110364586
46	0x3f311ec2	0.6918756
47	0x3ec48f18	0.38390422
48	0xbe2db827	-0.1696478
49	0x3f8d92f4	1.1060472
50	0x3f2d20a0	0.67627907
51	0xbf017259	-0.50565106
52	0xbf132702	-0.57481396
53	0xbedb7b52	-0.42867523
54	0x3f45f092	0.77320206
55	0x3f9463db	1.1592973
56	0x3ebf4485	0.37356964
57	0xbf6348f5	-0.887832
58	0xbe3e4cea	-0.18584028
59	0x3df2a949	0.11848695
60	0x3f47779d	0.7791689
61	0x3d0629ae	0.032754593
62	0xbe5e49ee	-0.2170789
63	0xbf849db3	-1.0360626
64	0x3e95a0c9	0.29224232
65	0x3dbac354	0.09119287
66	0x3e6f8212	0.23389462
67	0x3e691642	0.22762397
68	0x3cac6910	0.021046191
69	0x3e859277	0.26088306
70	0x3e46e09a	0.19421616
71	0x3df0e6bc	0.11762759
72	0xbbd8cf00	-0.006616473
73	0xbcd11d70	-0.025526732
74	0xbe8fa111	-0.2805257
75	0x3eb0b673	0.34514198
76	0xbcf7a250	-0.030228764
77	0xbe062372	-0.13099459
78	0xbe9dd45b	-0.30826077
79	0x3dec5ac4	0.1154075
80	0x3ea7e15b	0.3278912
81	0xbbc7cd40	-0.0060974658
82	0xbd2fa4a8	-0.042881638
83	0x3e38d54e	0.1805012
84	0x3e153434	0.14570695
85	0xbd24d820	-0.040245175
86	0xbead8a8a	-0.3389476
87	0x3e12fb26	0.14353618
88	0xbe0272d7	-0.1273912
89	0x3d11e138	0.035615176
90	0x3d80aa24	0.06282452
91	0xbdb61430	-0.08890569
92	0xbdbfa334	-0.093573004
93	0xbe80e77f	-0.25176618
94	0xbeb14995	-0.3462645
95	0xbd1b5ea8	-0.037932068
96	0x3e29b182	0.1657162
97	0xbe7765e0	-0.24159956
98	0x3cb60ce0	0.022222936
99	0xbd1548f8	-0.03644654
100	0xbead7063	-0.33874807
101	0xbd95f32c	-0.07321772
102	0xbe6b4b58	-0.2297796
103	0xbe6f7b51	-0.23386885
104	0x3dab02e0	0.08350158
105	0xbe087ba6	-0.13328418
106	0xbe8f29d7	-0.2796161
107	0xbdcab418	-0.098976314
108	0x3e519966	0.20468673
109	0x3d6ccba8	0.05781141
110	0x3d9e8174	0.07739535
111	0x3e59b9e2	0.21262315
112	0xbdcf89f4	-0.10133734
113	0x3d3f6ef8	0.046736687
114	0xbdb87ffc	-0.09008786
115	0xbe0ae3fb	-0.1356353
116	0xbdb5d1a8	-0.088778794
117	0xbde1ccac	-0.11025366
118	0x3d39b7e0	0.045341372
119	0x3e3bb9a2	0.18332532
120	0x3e32fd82	0.17479518
121	0xbd977090	-0.073945165
122	0x3d97676c	0.07392773
123	0xbe914538	-0.28373122
124	0xbe0c9b5f	-0.13731144
125	0xbe00aa01	-0.12564851
126	0x3e8894b5	0.26675954
127	0x3e89632d	0.26833478
128	0x3ee2b8af	0.44281527
129	0xbfb101d3	-1.3828682
130	0xbf546ae9	-0.8297563
131	0x3eebd49b	0.46060643
132	0x3f8921b3	1.0713409
133	0x3f3c55f5	0.7356866
134	0xbf85e49a	-1.0460389
135	0xbf9b0dda	-1.2113602
136	0x3f28bbf5	0.659118
137	0xbf648e21	-0.8927937
138	0xbf5995d5	-0.8499425
139	0x3f5a35ca	0.85238326
140	0x3f6d5fe0	0.9272442
141	0x3f249ee1	0.6430493
142	0xbf5cb77a	-0.86217463
143	0xbf7ae472	-0.9800483
144	0x3f5a4fc7	0.8527798
145	0xbfac5b14	-1.3465295
146	0xbebc0176	-0.36719865
147	0x3f4ab0a1	0.79175764
148	0x3f3b1ac7	0.73087734
149	0x3f28ce06	0.65939367
150	0xbed138f0	-0.40863752
151	0xbfa4ef3a	-1.2885506
152	0x3f6eba45	0.93252975
153	0xbfa619e4	-1.2976651
154	0xbed9a806	-0.42511004
155	0x3f230c9f	0.63691133
156	0x3f48db5a	0.78459704
157	0x3ef61a6b	0.4806703
158	0xbf017426	-0.50567853
159	0xbf9b9d4f	-1.2157382
160	0x3f55e0ec	0.8354633
161	0xbf6ece8a	-0.93283904
162	0xbf3307ba	-0.69933665
163	0x3f46f910	0.7772379
164	0x3f920e58	1.1410627
165	0x3ebdbafc	0.3705672
166	0xbf19fbe3	-0.60149974
167	0xbfae46b5	-1.3615328
168	0x3f473642	0.77817166
169	0xbf86141f	-1.047489
170	0xbeaf58be	-0.34247392
171	0x3f146dc7	0.57980007
172	0x3f5a9b29	0.85393006
173	0x3e7198fc	0.23593515
174	0xbefdec99	-0.49594572
175	0xbf9c2cc9	-1.2201167
176	0x3f1677fa	0.5877682
177	0xbf804c71	-1.0023328
178	0xbf3c703d	-0.7360876
179	0x3ed75fdf	0.4206533
180	0x3fa99fa1	1.325184
181	0x3e8f885a	0.28033715
182	0xbeee219f	-0.46510026
183	0xbf92ccbd	-1.1468731
184	0xbed5016a	-0.4160264
185	0x3f6aee5e	0.9176997
186	0x3f389462	0.72101414
187	0xbf0b1108	-0.5432286
188	0xbf4fe398	-0.81206656
189	0xbf04dbb9	-0.5189777
190	0x3f6c57fd	0.9232176
191	0x3f768b99	0.9630676
192	0x3ea6b0c3	0.32556733
193	0xbf5707e7	-0.83996433
194	0xbeada801	-0.3391724
195	0xbe9ef3a9	-0.31045273
196	0x3e1139a9	0.14182152
197	0x3f3385ee	0.70126235
198	0x3e86f6e4	0.26360238
199	0xbf6a63d7	-0.91558594
200	0x3d6969bd	0.056985606
201	0x3f586234	0.84524846
202	0x3f63172b	0.88707227
203	0xbf335079	-0.70044667
204	0xbf704404	-0.93853784
205	0xbdbb4328	-0.091436684
206	0x3f22721c	0.6345537
207	0x3f511576	0.8167337
208	0x3e86ef62	0.2635451
209	0x3e66ad75	0.22527106
210	0xbe968822	-0.29400736
211	0xbf05d5a3	-0.5227911
212	0xbe8c5b6a	-0.27413493
213	0x3f199b9a	0.60003054
214	0x3f935eda	1.1513321
215	0xbd67c0a9	-0.05658022
216	0x3f0d0e0d	0.55099565
217	0xbf528a10	-0.82241917
218	0xbe824cf5	-0.2544934
219	0xbf35e5ac	-0.71053576
220	0xbd9e7551	-0.0773722
221	0x3eed45c9	0.46342304
222	0x3f7011ff	0.9377746
223	0xbe48740f	-0.19575523
224	0x3ee3f2b6	0.4452111
225	0xbe807345	-0.25087944
226	0x3d2dfdb1	0.042478267
227	0xbec6d167	-0.38831636
228	0xbd06ea79	-0.032938454
229	0x3eb947f6	0.36187714
230	0x3f0b8d75	0.5451272
231	0xbf0613e4	-0.523741
232	0xbdcf6607	-0.10126882
233	0x3ed20a34	0.4102341
234	0x3f0827ba	0.5318562
235	0xbe0c0868	-0.13675082
236	0xbf63cda8	-0.8898568
237	0xbe4e6679	-0.20156278
238	0x3f611c24	0.87933564
239	0x3f1e43a6	0.61821973
240	0xbe4a9acb	-0.19785611
241	0x3fa6faa1	1.3045236
242	0x3efbbe46	0.49168605
243	0xbf3c7452	-0.7361499
244	0xbf9d200c	-1.2275405
245	0xbf34812a	-0.7050959
246	0x3f6e7d6c	0.9316013
247	0x3f97519e	1.1821783
248	0x3eb96ca9	0.36215714
249	0xbf7c2f66	-0.98509824
250	0xbeb4d451	-0.35318235
251	0x3ec51f73	0.38500556
252	0x3f05cf6e	0.5226964
253	0x3e84503c	0.25842464
254	0xbec2e938	-0.38068557
255	0xbf6a3da7	-0.91500324

lstm.weight_hh_l2 f4 [32, 8]
0	0xbcabbaa0	-0.020963013
1	0x3e491c46	0.19639692
2	0x3e9e25bb	0.3088816
3	0x3cb4e6a0	0.022082627
4	0xbe2e6efc	-0.17034525
5	0xbe9b535f	-0.30337045
6	0xbe83b062	-0.25720507
7	0x3c1d9ce0	0.009619921
8	0x3e89eab9	0.26936892
9	0x3d3f3a08	0.046686202
10	0x3e6b27da	0.22964421
11	0x3e2c3cfe	0.16820142
12	0xbdb4ec2c	-0.08834109
13	0x3e8aac1f	0.27084443
14	0x3e0561d0	0.13025594
15	0xbea1b8f9	-0.31586435
16	0xbe438a5d	-0.1909575
17	0xbe50e2e5	-0.20399053
18	0x3e8375df	0.25675866
19	0x3c902470	0.0175955
20	0xbe1a45c8	-0.15065682
21	0x3e06d456	0.13166937
22	0x3c41ee20	0.011836559
23	0xbe9b391a	-0.30317003
24	0x3d7f8730	0.062384784
25	0x3e01fa00	0.12693024
26	0xbdeb2a02	-0.11482622
27	0x3e930cff	0.28720853
28	0xbe981e70	-0.29710722
29	0xbe84bc48	-0.25924897
30	0x3e0184a0	0.12648249
31	0x3e59624a	0.212289
32	0xbe671f9a	-0.22570649
33	0xbe947cab	-0.29001364
34	0x3e0cdb8a	0.13755623
35	0x3e24acce	0.16081545
36	0x3d1a85c0	0.03772521
37	0xbea90e56	-0.3301875
38	0x3e05e00a	0.13073745
39	0xbe6b324c	-0.22968405
40	0xbd615450	-0.055012047
41	0x3e8fbf11	0.2807546
42	0xbd63e798	-0.055640787
43	0xbd856844	-0.06514028
44	0xbe16ddf3	-0.14733104
45	0x3e437f36	0.19091496
46	0x3eaca42f	0.33719012
47	0xbe70ceb2	-0.23516348
48	0x3ea76421	0.3269358
49	0x3e3d0162	0.18457559
50	0xbe58adc1	-0.21160032
51	0xbe110a5d	-0.1416411
52	0x3e8819bd	0.26582137
53	0x3e86f33f	0.26357457
54	0x3d59b2b8	0.053148955
55	0xbe7c8db9	-0.24663438
56	0x3e7aff6e	0.24511501
57	0xbeb2eb8f	-0.34945342
58	0xbe6e65ee	-0.2328107
59	0x3ead56f7	0.3385541
60	0xbe9baf65	-0.30407253
61	0xbcc93e50	-0.024565846
62	0xbe87e7ae	-0.26543945
63	0x3e316b62	0.1732612
64	0xbe0e9381	-0.13923456
65	0x3da62ad0	0.081136346
66	0xbe4ff094	-0.20306617
67	0xbc8c4c00	-0.017126083
68	0xbe54bb05	-0.20774467
69	0xbe206b1d	-0.1566586
70	0xbeaf9f2b	-0.34301123
71	0xbe3f7c69	-0.18699802
72	0xbe82d5d3	-0.2555376
73	0x3dc24bf8	0.09487146
74	0x3c2712c0	0.010197341
75	0xbe916513	-0.28397426
76	0xbe8e32a3	-0.27773008
77	0xbb99dcc0	-0.004695505
78	0x3d957dc0	0.072993755
79	0xbc148460	-0.009064764
80	0xbca6ae10	-0.020346671
81	0x3e56707e	0.2094135
82	0xbe9281c1	-0.2861462
83	0xbd038520	-0.03210938
84	0x3d6ef760	0.058341384
85	0x3c3251e0	0.010883778
86	0x3e17d7b2	0.14828375
87	0xbe472474	-0.194475
88	0xbc4ed8a0	-0.01262489
89	0xbe72c98c	-0.23709697
90	0xbe647d98	-0.22313535
91	0x3cbf0b50	0.023320824
92	0xbda9ba34	-0.082874686
93	0xbe10c24e	-0.14136621
94	0xbe809ad8	-0.25118136
95	0x3d0f5030	0.034988582
96	0xbea67c78	-0.32516837
97	0x3e2a661e	0.16640517
98	0xbe4aa3e5	-0.19789083
99	0xbde1abd0	-0.11019099
100	0x3e89651b	0.2683495
101	0x3e047e14	0.1293872
102	0xbe74640e	-0.23866293
103	0xbdf2f00e	-0.11862193
104	0xbe47bfdd	-0.19506784
105	0x3e673f62	0.22582772
106	0x3e983263	0.29725942
107	0x3ea86675	0.3289067
108	0x3dcaa104	0.098939925
109	0xbc09d440	-0.008412421
110	0xbeaf5f8e	-0.3425259
111	0xbda03e28	-0.07824355
112	0x3e9ce9c9	0.30647114
113	0x3b5d8980	0.003380388
114	0x3e9c76b9	0.30559328
115	0x3ea0c31b	0.31398854
116	0x3e8aaac3	0.27083406
117	0x3dfb9fc4	0.12286332
118	0x3e14c25a	0.14527264
119	0x3e452362	0.19251779
120	0x3e391eca	0.18078151
121	0xbe0705f4	-0.13185865
122	0xbba0e180	-0.004909694
123	0xbea99758	-0.3312328
124	0x3ea4c84f	0.32184073
125	0xbe3862e4	-0.18006474
126	0x3e1fa4e6	0.15590248
127	0xbdadf464	-0.084938794
128	0xbe695ecf	-0.22790073
129	0x3d3e00a0	0.046387315
130	0x3e30059a	0.17189637
131	0xbc80b020	-0.015708983
132	0xbe3b49c3	-0.18289857
133	0xbe8ed1cd	-0.2789444
134	0x3e9a0393	0.30080852
135	0xbe9e36fb	-0.30901322
136	0xbeb0d24c	-0.34535444
137	0x3e21dcc6	0.15806875
138	0x3e1e0502	0.15431598
139	0xbd663380	-0.056201458
140	0x3e304236	0.17212757
141	0x3db3d218	0.087803066
142	0xbd63c6c0	-0.055609465
143	0x3e1f79b2	0.15573767
144	0x3e362aae	0.17789719
145	0x3d03f4a0	0.032215714
146	0x3e754b4e	0.23954508
147	0xbdbc90e4	-0.09207323
148	0x3e988be7	0.29794237
149	0xbd5eebc0	-0.054424047
150	0xbeaf504f	-0.34240958
151	0x3e1a58fa	0.15073004
152	0xbe94921d	-0.29017726
153	0xbe27b69e	-0.16378257
154	0x3e65137e	0.22370717
155	0xbe0c4665	-0.13698728
156	0xbe0f32e4	-0.13984257
157	0xbd35df58	-0.04440245
158	0xbe1e9fb2	-0.15490606
159	0xbd7163e0	-0.05893314
160	0xbe668943	-0.22513299
161	0xbe922c7c	-0.28549564
162	0x3d9032c8	0.07040936
163	0xbe846714	-0.25859892
164	0x3d4ad620	0.04952061
165	0xbd5392b0	-0.051653564
166	0xbeab241c	-0.33425987
167	0x3dd92f9c	0.10604784
168	0x3e8b299f	0.27180192
169	0xbe424cbe	-0.18974587
170	0x3e9d4247	0.30714628
171	0xbc44dd40	-0.012015641
172	0x3eb16b95	0.3465239
173	0xbda2095c	-0.079119414
174	0x3e0f9160	0.140203
175	0x3e8e0879	0.2774084
176	0xbe3fe82d	-0.18740912
177	0x3e8e50af	0.27795932
178	0x3e9d5493	0.30728588
179	0x3e9d5845	0.30731407
180	0xbdcc8510	-0.09986317
181	0xbe30137e	-0.17194936
182	0x3cd8a040	0.0264436
183	0xbe6047d2	-0.21902397
184	0x3c649da0	0.013953596
185	0x3dc8a354	0.09796777
186	0xbea8dd20	-0.32981205
187	0x3eaa66fd	0.332817
188	0xbd227978	-0.039666623
189	0x3e3410a2	0.1758447
190	0x3e992df9	0.29917887
191	0xbe90be83	-0.2827035
192	0xbeadf2fe	-0.3397445
193	0xbe63fbff	-0.22264098
194	0x3c800c10	0.015630752
195	0xbe20dbd2	-0.15708855
196	0xbc245300	-0.010029554
197	0x3defe174	0.11712924
198	0x3dcaef10	0.09908879
199	0x3d072cd8	0.03300175
200	0x3d0ecc80	0.034862995
201	0xbea0d8ca	-0.31415397
202	0x3c26a140	0.010170281
203	0xbe421158	-0.18951929
204	0xbe7e4d3e	-0.24834153
205	0xbc824d90	-0.015906125
206	0xbe489c94	-0.1959098
207	0x3d78e6c0	0.060766935
208	0xbd424e88	-0.047438174
209	0x3d7e7358	0.06212172
210	0x3e23c0d2	0.15991524
211	0xbddc7bea	-0.10765822
212	0xbd778658	-0.060430855
213	0x3e085db4	0.13316995
214	0xbeb057d1	-0.34442
215	0x3e902a71	0.2815738
216	0xbe8b74a2	-0.2723742
217	0xbe331a9d	-0.17490621
218	0x3d0b7980	0.03405142
219	0x3ea6f87f	0.32611462
220	0xbe75e138	-0.24011695
221	0x3c0dc300	0.008652449
222	0x3e8e43c1	0.27786067
223	0xbdf05392	-0.1173469
224	0x3d19df78	0.037566632
225	0x3ea1c3b9	0.31594637
226	0xbe305985	-0.17221649
227	0x3e07909a	0.13238755
228	0xbc976ab0	-0.01848349
229	0xbe82a563	-0.25516805
230	0x3c87e280	0.016587496
231	0xbe88fd61	-0.26755813
232	0xbd18b608	-0.037282974
233	0xbe5254d2	-0.20540169
234	0x3e9183eb	0.28420958
235	0x3e64d776	0.22347817
236	0x3db9a17c	0.09064004
237	0x3d629ec0	0.055327177
238	0xbe6f3142	-0.23358634
239	0x3e08b5b6	0.13350567
240	0xbd611b38	-0.0549576
241	0xbbca83c0	-0.0061802566
242	0x3ead3f03	0.33837137
243	0xbdc91fa0	-0.09820485
244	0x3e142856	0.14468512
245	0xbd9daba4	-0.076987535
246	0x3e928e17	0.2862403
247	0xbc99d170	-0.018776625
248	0x3e2bbb0a	0.16770568
249	0x3e614682	0.21999553
250	0x3e9cb2a3	0.3060504
251	0xbd49cf28	-0.049269825
252	0x3d55afb0	0.0521695
253	0xbe779012	-0.24176052
254	0x3c0563c0	0.008141458
255	0x3e6c0ad2	0.23051003

lstm.bias_ih_l2 f4 [32]
0	0x3f90bb1b	1.13071
1	0x3e541676	0.20711693
2	0x3f9f79f9	1.2459098
3	0x3f6401c1	0.89065176
4	0x3f77b2c6	0.9675716
5	0x3f825f2f	1.0185298
6	0x3f192634	0.5982392
7	0x3eddf288	0.433491
8	0x3b5cd300	0.0033695102
9	0x3ea28fb3	0.3175026
10	0xbe7d87a6	-0.24758777
11	0xbd168938	-0.036751956
12	0x3e9145ff	0.28373715
13	0x3e7fb71e	0.24972197
14	0x3cce7c80	0.02520585
15	0xbdadfb20	-0.08495164
16	0xbdc629ac	-0.09675917
17	0xbe988c17	-0.2979438
18	0xbec52967	-0.3850815
19	0xbe36de2a	-0.17858186
20	0xbe8a5706	-0.2701952
21	0xbe5bb14d	-0.21454354
22	0xbefca2fe	-0.49343103
23	0xbe438204	-0.19092566
24	0x3f93be7a	1.1542504
25	0x3f3a98b4	0.72889256
26	0x3f86d236	1.0532901
27	0x3f90782e	1.1286676
28	0x3fb5a2ed	1.4190346
29	0x3f0e60cc	0.5561645
30	0x3f19498a	0.59877837
31	0x3e8e5423	0.27798566

lstm.bias_hh_l2 f4 [32]
0	0x3f2d88c3	0.67786807
1	0x3e84b9e4	0.25923073
2	0x3fa5a5db	1.294124
3	0x3fa20a1d	1.2659336
4	0x3fbdea26	1.4837081
5	0x3f44ebf3	0.7692253
6	0x3f4cee07	0.800507
7	0x3f0a3c5c	0.5399835
8	0xbd760ca0	-0.060070634
9	0x3e644b4e	0.22294351
10	0xbe4e3295	-0.20136483
11	0xbdd69db0	-0.10479295
12	0x3dcabf44	0.09899762
13	0x3d469788	0.048484355
14	0xbe7f213e	-0.24915025
15	0xbdc003b8	-0.09375709
16	0xbdf9985b	-0.121872626
17	0xbe734b39	-0.23759164
18	0xbe53b297	-0.20673595
19	0xbeb23bef	-0.3481135
20	0xbe0cbf7f	-0.13744925
21	0xbf1b54ce	-0.60676277
22	0xbe8c5fe5	-0.27416912
23	0xbd894a47	-0.067036204
24	0x3f074588	0.5284047
25	0x3e47ff3e	0.19530961
26	0x3f8333c5	1.0250174
27	0x3f92057a	1.1407921
28	0x3f662671	0.89902407
29	0x3eed9273	0.46400794
30	0x3eaa9c0d	0.33322182
31	0x3f233f4c	0.6376846
