ModelSave80.pt (torch_old, 30741 bytes, 45 tensors)

lstm.weight_ih_l0 f4 [32, 6]
0.90669966 0.1987658 -0.9406295 0.09873553 2.0251946 -2.298089 0.58772826 -1.7771225
0.20115378 1.2982483 -1.3877397 -0.66678095 -0.79115105 -0.1697796 1.0089566 0.7131878
-1.4150769 1.4807079 -0.17983165 -0.023835804 1.4410442 0.039375097 -1.9713198 1.5718385
0.19529061 0.007485601 -0.9037979 -0.20544896 0.6422179 0.6587249 -0.59781337 0.45941588
-0.2897314 -0.7019151 -0.4407619 0.16283777 -0.6338727 0.1736242 2.172856 0.15439908
0.4017997 2.1587667 0.2591251 -0.107427575 -0.52553624 -0.63215417 2.1338794 -3.115634
0.20013061 -0.089346886 -0.33564806 -0.113769054 -0.05981666 0.104298055 0.019544154 0.10738596
0.33994034 0.21589419 -0.34386513 0.12961367 -0.2681027 -0.07028374 -0.060192615 -0.25779608
-0.18335952 -0.19541298 0.12708077 0.015264034 -0.11726716 0.016037583 0.31535223 -0.3032254
0.3414531 0.23229018 -0.33760244 -0.22071394 0.20420036 0.1264005 0.011411309 -0.017590612
0.15466568 0.14292592 0.21531585 0.010767847 0.2833039 -0.28081825 0.29201296 0.28033027
0.021956235 -0.34995034 -0.058374733 0.30406705 -0.119156554 -0.17987128 -0.33788112 -0.22283995
-0.17056152 -0.1322661 1.1537554 0.25635734 -1.5240531 1.5017428 -0.21779662 -1.0514758
0.95001096 -0.13980232 3.459198 0.45082915 -0.25793615 0.52452743 -1.602793 -0.5460739
0.32182175 1.890525 0.12538162 -0.31859577 2.1696272 1.3795651 1.3558174 -0.25023577
-0.24897306 -0.9487292 0.44572425 0.30224755 -0.56709343 -0.78273493 -0.4162871 -0.61244816
-0.46943563 -0.3474971 -0.17799734 0.1787737 0.18092512 -0.43482447 1.0703422 0.77841693
-1.199589 -1.8614751 0.033991277 0.5509104 -1.8208593 -0.60648245 1.0472585 -1.2470088
0.5535651 0.26924202 -0.98428804 -0.34121782 2.505929 -2.3311858 -0.08382771 -2.2312331
0.8068505 0.97147983 -1.5256683 0.52516353 -0.29020792 0.023763496 0.92333364 0.2413653
1.2608956 1.7984792 -0.18958615 -0.0342301 1.4170437 -0.45207486 -1.9670954 1.228039
0.06517015 0.059000414 -1.3674353 -0.4340829 0.99633753 1.0110247 -0.51871294 -0.06931167
-0.531129 -0.8325743 -0.37504715 0.25369465 -0.17520009 0.23196493 1.4664226 -0.10360673
1.5667722 1.5687678 0.62785137 0.19579245 -0.9998767 -0.19824716 2.5147047 -2.8485205
00000000: 781d 683f 4389 4b3e 18cd 70bf db35 ca3d
00000010: ca9c 0140 e413 13c0 5c75 163f c078 e3bf
00000020: 42fb 4d3e 002d a63f 74a1 b1bf 28b2 2abf
00000030: e088 4abf b4da 2dbe 7d25 813f 7a93 363f
00000040: 3d21 b5bf d687 bd3f ca25 38be 4e43 c3bc
00000050: 2374 b83f c847 213d 3554 fcbf 0132 c93f
00000060: 43fa 473e c649 f53b 4d5f 67bf 3661 52be
00000070: 6468 243f 32a2 283f 4c0a 19bf 8f38 eb3e
00000080: ad57 94be b5b0 33bf 8bab e1be f2be 263e
00000090: 7b45 22bf 8bca 313e 1310 0b40 cb1a 1e3e
000000a0: b1b8 cd3e 3c29 0a40 0cac 843e fd02 dcbd
000000b0: 8b89 06bf dbd4 21bf 7b91 0840 8c66 47c0
000000c0: 0aef 4c3e 80fb b6bd 10da abbe c0ff e8bd
000000d0: 5002 75bd 389a d53d 101b a03c 2ced db3d
000000e0: a90c ae3e 5e13 5d3e 170f b0be 72b9 043e
000000f0: c244 89be ecf0 8fbd 888c 76bd d9fd 83be
00000100: 99c2 3bbe 571a 48be 7621 023e 0016 7a3c
00000110: c429 f0bd 4061 833c d975 a13e 5c40 9bbe
00000120: f1d2 ae3e 7add 6d3e 3ada acbe d602 62be
00000130: e619 513e 226f 013e 80f6 3a3c 301a 90bc
00000140: ae60 1e3e 2c5b 123e c27b 5c3e a06b 303c
00000150: 350d 913e 69c7 8fbe b982 953e 7387 8f3e
00000160: 90dd b33c b12c b3be 581a 6fbd adae 9b3e
00000170: 5a08 f4bd 2d30 38be c1fe acbe 2830 64be
00000180: aea7 2ebe c470 07be 42ae 933f 4541 833e
00000190: 2c14 c3bf 1c39 c03f 1406 5fbe c296 86bf
000001a0: eb33 733f 5728 0fbe 8063 5d40 14d3 e63e
000001b0: 3510 84be 6e47 063f 5228 cdbf 80cb 0bbf
000001c0: d2c5 a43e b9fc f13f 0a64 003e fc1e a3be
000001d0: 2cdb 0a40 9795 b03f 6d8b ad3f e71e 80be
000001e0: cbf2 7ebe ebdf 72bf f835 e43e 31c0 9a3e
000001f0: 092d 11bf 5161 48bf 9523 d5be 67c9 1cbf
00000200: de59 f0be 24eb b1be ef44 36be 7410 373e
00000210: 6f44 393e 50a1 debe f900 893f 5546 473f
00000220: 228c 99bf d144 eebf 703a 0b3d 7708 0d3f
00000230: eb11 e9bf 6f42 1bbf 910c 863f fc9d 9fbf
00000240: 71b6 0d3f 17da 893e 4dfa 7bbf 1ab4 aebe
00000250: 2461 2040 2632 15c0 ddad abbd 86cc 0ec0
00000260: c18d 4e3f e7b2 783f 1949 c3bf 1e71 063f
00000270: 2296 94be aaab c23c 985f 6c3f 7728 773e
00000280: 0765 a13f 9134 e63f df22 42be dd34 0cbd
00000290: b061 b53f 5b76 e7be c8c9 fbbf 6230 9d3f
000002a0: ed77 853d 6baa 713d 1f08 afbf 1d40 debe
000002b0: fa0f 7f3f 4269 813f 5fca 04bf 47f3 8dbd
000002c0: 12f8 07bf 9723 55bf 2e06 c0be 44e4 813e
000002d0: a767 33be 3788 6d3e bcb3 bb3f c42f d4bd
000002e0: fe8b c83f 62cd c83f deba 203f d17d 483e
000002f0: ebf7 7fbf 4e01 4bbe ecf0 2040 294e 36c0

lstm.weight_hh_l0 f4 [32, 8]
-0.30728045 0.24084821 0.2516847 0.020474613 -0.17441612 -0.31845373 0.031274438 0.1658428
-0.30213654 -0.05384901 0.0028325617 -0.067849964 0.1952785 0.34838375 -0.19369599 -0.049354434
0.0058222115 -0.3046764 -0.024043143 -0.1602964 0.20590469 0.101368785 -0.34716895 -0.19435799
0.020920098 0.23202798 0.33693752 0.00686118 0.18674359 -0.16419758 -0.03172204 -0.1529765
-0.1449876 0.26783797 -0.16880023 -0.21892612 -0.20300838 -0.08695802 -0.17560986 0.32546374
0.29770032 -0.25931448 -0.23744144 -0.051834762 -0.2651158 -0.2627939 -0.29478562 0.08963013
0.34617743 0.29878476 0.00521785 -0.08767152 0.18077907 0.24921975 0.33734676 0.13586804
-0.047814876 0.2643247 0.08988404 0.03920558 -0.2611843 0.3070478 -0.10767242 -0.13331035
-0.27248496 0.31929412 -0.27792352 0.03080964 0.26296356 0.22410825 -0.05326903 0.19492105
0.3399171 -0.2186938 -0.3478341 0.16358086 -0.32520226 -0.034081876 0.15122852 0.21631959
0.0147437155 -0.09450811 0.23289469 -0.13132124 0.15571937 -0.15028402 -0.08581343 0.323575
-0.0150948465 -0.28458145 -0.24850489 0.34918252 0.12396589 -0.31614017 0.16288123 0.18254372
0.34778377 -0.24053791 0.05009398 0.25354108 0.11457595 -0.28815198 0.21615878 0.11296928
-0.20778918 0.29053786 -0.26749298 -0.2768812 0.021092713 -0.081242055 -0.18456593 0.17808154
-0.17745298 -0.1375542 -0.023823798 0.114712596 -0.20903812 0.32332 -0.09021744 -0.033499926
0.13838583 0.32203034 0.12890929 -0.053989142 0.10512975 -0.25138214 0.13825446 0.15611532
-0.10714917 -0.25276703 0.16781893 -0.09146911 -0.084855944 0.07382634 -0.2569325 -0.21073774
0.20830652 0.30154768 0.10024372 0.08761749 -0.30830133 0.082398385 0.15131846 -0.13715588
0.29473904 0.277988 -0.23421091 -0.1944004 -0.25934744 0.29080155 0.095468014 0.09483728
0.32205197 -0.12891646 -0.033252627 -0.0581702 0.0975118 -0.29974392 -0.32850373 0.09430674
0.25010595 0.29351607 -0.2844038 -0.12358071 -0.3114239 0.04936695 -0.09892452 -0.25124314
0.21603164 -0.002087146 -0.07297173 -0.058733076 -0.19513738 0.010721266 -0.013733387 0.35128948
0.0985581 0.023828566 0.0177522 -0.30131304 0.19037709 0.0617719 0.27498838 -0.14650257
0.34801796 -0.023816586 0.27574554 -0.13569856 0.0016391873 -0.316761 0.2661403 -0.253967
0.23290566 0.23011264 -0.27544752 0.22063008 -0.33029327 0.0576874 0.1574817 0.28664276
0.14658234 0.076265186 -0.027946144 0.06030214 0.20374861 0.25254652 -0.17315763 -0.13235353
-0.098217756 0.12312868 -0.10806885 0.11279991 0.27063623 0.32101443 -0.021616995 0.26788947
-0.30650097 -0.27118006 -0.016022265 -0.1535808 0.17827854 -0.31235474 0.000962466 0.14397341
-0.11487751 0.17219922 0.064053 -0.06560308 0.15385684 -0.14169854 -0.19771726 0.08066073
-0.06429353 -0.3134901 0.22858867 -0.28724357 0.041541845 -0.030591458 0.15596423 0.09975949
0.07055184 0.04488489 0.15280095 -0.09770617 -0.118472636 0.13063613 -0.21731576 -0.2337594
0.1791533 -0.2953488 -0.22707398 0.0060923398 -0.042013884 -0.042303056 0.2233229 -0.20857139
00000000: dd53 9dbe eaa0 763e d1dc 803e 60ba a73c
00000010: 249a 32be 5e0c a3be a019 003d b2d2 293e
00000020: a4b1 9abe c890 5cbd 80a2 393b ecf4 8abd
00000030: 16f7 473e 5b5f b23e 3e58 46be e027 4abd
00000040: 40c8 be3b 8cfe 9bbe 20f6 c4bc bd24 24be
00000050: aed8 523e 709a cf3d 21c0 b1be c805 47be
00000060: a060 ab3c be98 6d3e 1383 ac3e c0d3 e03b
00000070: b639 3f3e 6923 28be f8ee 01bd dfa5 1cbe
00000080: a177 14be 0f22 893e f8d9 2cbe 2b2e 60be
00000090: 6ee1 4fbe 0c17 b2bd 12d3 33be 2fa3 a63e
000000a0: 2d6c 983e dec4 84be d923 73be b050 54bd
000000b0: 42bd 87be ec8c 86be 24ee 96be 0090 b73d
000000c0: 2b3e b13e 51fa 983e 80fa aa3b 208d b3bd
000000d0: 261e 393e 7633 7f3e b7b8 ac3e fe20 0b3e
000000e0: 88d9 43bd 9155 873e 2015 b83d 0896 203d
000000f0: f3b9 85be 5f35 9d3e 5c83 dcbd 8282 08be
00000100: 2683 8bbe 857a a33e fe4b 8ebe 8064 fc3c
00000110: 29a3 863e a27c 653e a030 5abd 6299 473e
00000120: 9d09 ae3e 44f1 5fbe 5017 b2be be81 273e
00000130: e980 a6be 7099 0bbd a6db 1a3e e282 5d3e
00000140: a08f 713c 788d c1bd f27b 6e3e 1379 06be
00000150: e674 1f3e 0ee4 19be f4be afbd 9fab a53e
00000160: 6050 77bc a9b4 91be 1178 7ebe 0dc8 b23e
00000170: d4e1 fd3d 20dd a1be 56ca 263e beec 3a3e
00000180: b710 b23e 924f 76be 582f 4d3d 23d0 813e
00000190: cca6 ea3d a888 93be ba58 5d3e 705c e73d
000001a0: b0c6 54be 61c1 943e d7f4 88be 5fc3 8dbe
000001b0: a0ca ac3c 3c62 a6bd dafe 3cbe 025b 363e
000001c0: 3cb6 35be 02db 0cbe 202a c3bc 70ee ea3d
000001d0: 170e 56be 338a a53e ecc3 b8bd 3837 09bd
000001e0: 04b5 0d3e 29e1 a43e cc00 043e b823 5dbd
000001f0: 444e d73d 29b5 80be 9492 0d3e b2dc 1f3e
00000200: 0671 dbbd ae6a 81be bad8 2b3e 2854 bbbd
00000210: f4c8 adbd 4432 973d a88c 83be a2cb 57be
00000220: 4e4e 553e 7564 9a3e 944c cd3d cc70 b33d
00000230: acd9 9dbe 7cc0 a83d 3af3 1a3e 9772 0cbe
00000240: 09e8 963e 7154 8e3e fcd4 6fbe e610 47be
00000250: 30c9 84be f1e3 943e bc84 c33d 0c3a c23d
00000260: ffe3 a43e ad02 04be e833 08bd e043 6ebd
00000270: 44b4 c73d 0978 99be a431 a8be e423 c13d
00000280: e30d 803e bd47 963e 609d 91be e217 fdbd
00000290: f472 9fbe 0035 4a3d f098 cabd f1a2 80be
000002a0: 6637 5d3e 80c8 08bb 3472 95bd 1892 70bd
000002b0: 18d2 47be 40a8 2f3c 0002 61bc 37dc b33e
000002c0: d4d8 c93d 2034 c33c 106d 913c b445 9abe
000002d0: 36f2 423e 8804 7d3d 47cb 8c3e c504 16be
000002e0: 692f b23e 001b c3bc 852e 8d3e 90f4 0abe
000002f0: 00da d63a 7f2e a2be 8b43 883e f607 82be
00000300: d27e 6e3e a6a2 6b3e 7507 8dbe daec 613e
00000310: 331c a9be a049 6c3d e242 213e d7c2 923e
00000320: ae19 163e ec30 9c3d 50ef e4bc 60ff 763d
00000330: 7aa3 503e c74d 813e 3c50 31be af87 07be
00000340: 6426 c9bd e42a fc3d 3453 ddbd a403 e73d
00000350: d590 8a3e 015c a43e 2016 b1bc cf28 893e
00000360: b2ed 9cbe 1dd8 8abe 2041 83bc 4944 1dbe
00000370: a68e 363e f6ec 9fbe 004e 7c3a c46d 133e
00000380: e644 ebbd fe54 303e 382e 833d e85a 86bd
00000390: a68c 1d3e 6c19 11be 6576 4abe 7431 a53d
000003a0: 54ac 83bd c681 a0be 2613 6a3e 9711 93be
000003b0: c827 2a3d f09a fabc 16b5 1f3e b44e cc3d
000003c0: 7c7d 903d 38d9 373d da77 1c3e 2c1a c8bd
000003d0: c8a1 f2bd 7ac5 053e 0688 5ebe a05e 6fbe
000003e0: f673 373e f537 97be 1586 68be 40a2 c73b
000003f0: c016 2cbd f845 2dbd c2ae 643e bd93 55be

lstm.bias_ih_l0 f4 [32]
0.47909048 0.3019391 0.738966 0.774744 -0.27919105 -1.254563 -0.47442296 1.2502625
0.32493916 0.2230899 0.32509312 0.28350464 -0.0036975145 -0.20961684 -0.13029335 0.13626873
-0.93690157 -0.06084621 0.35938266 -0.30533564 -0.0004779249 -0.23756818 0.375182 0.07189978
0.100257546 -0.122050405 0.8030291 0.2760712 -0.5550492 -1.3908125 0.04857976 1.1816938
00000000: 594b f53e c397 9a3e e02c 3d3f 9f55 463f
00000010: 21f2 8ebe 8595 a0bf 91e7 f2be 9a08 a03f
00000020: 6d5e a63e ae71 643e 9b72 a63e 8527 913e
00000030: 0052 72bb cca5 56be 9f6b 05be 088a 0b3e
00000040: c8d8 6fbf e039 79bd 0101 b83e f454 9cbe
00000050: ff91 fab9 1345 73be db17 c03e 3140 933d
00000060: d453 cd3d 90f5 f9bd 5193 4d3f 3459 8d3e
00000070: b417 0ebf 2506 b2bf 92fb 463d be41 973f

lstm.bias_hh_l0 f4 [32]
0.3481151 0.27341798 0.3814966 0.6714958 -0.9348565 -1.305782 -0.34302846 1.0429689
0.14063674 0.013843089 -0.20579648 -0.055851877 -0.21224095 0.14170331 -0.2414088 -0.21218333
-0.8297659 0.18372834 -0.018037869 -0.7792232 -0.5373715 0.01032302 0.047418524 0.43603098
0.35836324 0.030162694 0.68126833 0.7671527 -0.40738153 -1.2214714 -0.24629214 0.86634046
00000000: 243c b23e 71fd 8b3e 8653 c33e 26e7 2b3f
00000010: c152 6fbf dd23 a7bf 6da1 afbe 0180 853f
00000020: 1403 103e 20ce 623c 50bc 52be f0c4 64bd
00000030: b155 59be ac1a 113e de33 77be 9646 59be
00000040: 8a6b 54bf 4823 3c3e 27c4 93bc 2c7b 47bf
00000050: 2e91 09bf e221 293c ed39 423d 743f df3e
00000060: 637b b73e c117 f73c 9a67 2e3f 1f64 443f
00000070: 5094 d0be 2d59 9cbf 0234 7cbe 7dc8 5d3f

lstm.weight_ih_l1 f4 [32, 8]
0.66608626 -0.07674414 -0.5245347 0.13874747 0.4221017 0.5427766 0.48353878 -0.6743664
0.37766188 -0.20690873 0.9636643 -1.5586501 0.1572459 0.7984387 -0.5205249 0.36113903
0.21062131 -0.59471107 0.40162745 -0.98411673 -0.03085079 0.50755596 0.07382587 0.5719747
1.0254184 -1.2244198 0.57824665 -1.1107726 0.3503006 -0.29229045 -0.025325043 -0.026943278
1.0829909 0.25976834 -0.3123486 -0.088708915 0.048592158 0.34166428 0.8520549 -0.4303678
-1.2242912 1.7660811 -0.536371 1.9940603 -0.7664989 -0.22381224 1.1476123 0.8994496
0.9886126 1.8681858 -0.83324766 0.039938297 -0.52633876 1.4571674 1.3465472 -1.1299549
-2.2035794 0.7975952 0.48520038 0.44828868 -1.1276172 0.25770578 -0.6234934 1.7048688
0.25742105 -0.24360725 -0.23265654 0.27253214 0.27706167 0.24868742 -0.027686208 -0.04851839
0.047955602 0.28159192 -0.020335883 0.12223765 0.03706163 0.19765559 0.086398125 -0.0681667
-0.34699374 0.31079623 0.20298603 0.25912485 0.12755597 -0.14650299 -0.12539025 -0.22795199
0.31791654 0.03273326 0.33204922 -0.02693364 0.06930539 0.085292906 -0.005612135 0.26974598
0.30412957 0.18499371 0.09611449 -0.17799503 0.32304844 0.34661976 0.0018459857 -0.023028791
-0.13437161 0.30083677 0.12439498 -0.2774343 -0.16408603 0.30735853 -0.18837795 -0.007828027
-0.015177429 0.048040867 0.3013138 0.22066757 -0.35095596 0.08380172 0.3194166 0.32278642
-0.31462374 -0.18593487 0.14839926 -0.013916552 -0.23787302 0.22986004 0.13592878 0.17285922
0.60426104 1.4215806 -0.47539192 0.26611802 0.30516434 1.2128909 0.26116437 -0.62372434
-1.2390411 -0.5762827 0.72488844 -1.1893386 0.0999148 -0.8026584 -0.69384426 1.914387
0.17499383 0.085587814 -0.63797307 0.57148385 -0.29749706 0.20091245 0.71975493 -0.7147271
-0.57182455 -0.37298727 0.09224638 1.1410475 0.00032269483 -0.5283544 0.13258094 0.25922978
-1.0246595 -0.3178156 0.5761361 -0.9806053 -0.027355041 -1.2028984 -0.43256506 1.3331252
-1.6455771 -1.339933 1.1541501 -1.2480018 -0.1939172 -0.56716114 -0.8979917 2.2915761
1.5736843 0.7964946 -1.3141942 1.5044545 0.32118684 0.2963989 0.72417223 -1.9481817
1.3254244 0.93746746 -0.90736824 0.6431999 -0.00658324 0.68476504 0.8683023 -2.1042044
0.7735036 0.09179815 0.03561621 0.4208926 -0.028448034 0.9854258 0.10188423 -0.778502
0.06689418 -0.20562655 0.66009 -2.0001698 0.28497836 0.44018692 -0.4226826 0.3595393
0.82710207 -0.8412714 0.46749935 -0.7797782 0.41252095 1.195488 -0.28692937 0.3432847
0.8431581 -0.5979191 0.013761689 -1.0566447 0.42632663 -0.3650143 -0.4130242 0.86112577
1.7845922 0.23599356 -0.1163751 -0.6382695 -0.24993049 0.762365 0.6002699 -0.63219863
-1.5637379 1.5805904 -0.2854129 1.5868887 -0.62057185 0.45569292 1.0624657 0.78921974
1.2100068 2.1459043 -0.5209828 -0.49317783 -0.031024724 1.4857055 1.319057 -1.6156906
-2.1813083 0.44649914 0.7043003 0.38022783 -0.5689565 0.25186414 -1.0662887 1.9931298
00000000: a184 2a3f 082c 9dbd e847 06bf d113 0e3e
00000010: b71d d83e 68f3 0a3f 6592 f73e 47a3 2cbf
00000020: e65c c13e e2df 53be b4b2 763f d981 c7bf
00000030: 1205 213e 7b66 4c3f 1f41 05bf 37e7 b83e
00000040: 1dad 573e fc3e 18bf 1da2 cd3e 13ef 7bbf
00000050: ccba fcbc 30ef 013f 0532 973d ef6c 123f
00000060: e940 833f cab9 9cbf f907 143f cc2d 8ebf
00000070: 9a5a b33e 18a7 95be 7776 cfbc 26b8 dcbc
00000080: 729f 8a3f 5b00 853e 28ec 9fbe 05ad b5bd
00000090: 9208 473d 9fee ae3e 4520 5a3f 2b59 dcbe
000000a0: 93b5 9cbf f20e e23f 9c4f 09bf 5e3d ff3f
000000b0: 4639 44bf 092f 65be f6e4 923f 5442 663f
000000c0: b715 7d3f b620 ef3f b84f 55bf 5796 233d
000000d0: 23be 06bf 7684 ba3f a95b ac3f 5da2 90bf
000000e0: 7207 0dc0 332f 4c3f 2f6c f83e 1886 e53e
000000f0: c355 90bf 03f2 833e 439d 1fbf 2439 da3f
00000100: b1cc 833e 2e74 79be 843d 6ebe 5589 8b3e
00000110: 07db 8d3e eaa7 7e3e 30ce e2bc 38bb 46bd
00000120: 186d 443d d12c 903e 7097 a6bc bc57 fa3d
00000130: f0cd 173d 3a66 4a3e 80f1 b03d fc9a 8bbd
00000140: 2aa9 b1be af20 9f3e 92db 4f3e 03ac 843e
00000150: 089e 023e e104 16be 4d66 00be 3f6c 69be
00000160: f5c5 a23e 5013 063d 5b02 aa3e f0a3 dcbc
00000170: fcef 8d3d 0cae ae3d 00e6 b7bb 251c 8a3e
00000180: dfb6 9b3e fe6e 3d3e acd7 c43d 5444 36be
00000190: 9b66 a53e 2578 b13e 00f5 f13a e0a6 bcbc
000001a0: b698 09be 4707 9a3e ccc2 fe3d de0b 8ebe
000001b0: 2b06 28be 195e 9d3e 26e6 40be 2041 00bc
000001c0: c0aa 78bc 80c6 443d cd45 9a3e aef6 613e
000001d0: 80b0 b3be 3ca0 ab3d 938a a33e 4344 a53e
000001e0: 5d16 a1be b665 3ebe faf5 173e 4002 64bc
000001f0: fc94 73be 6e60 6b3e ea30 0b3e 0202 313e
00000200: dab0 1a3f 5af6 b53f 9266 f3be 9f40 883e
00000210: 803e 9c3e 0240 9b3f 56b7 853e 66ac 1fbf
00000220: e698 9ebf 4387 13bf 4a92 393f 3f3c 98bf
00000230: 21a0 cc3d 057b 4dbf c79f 31bf a20a f53f
00000240: 9531 333e aa48 af3d 3452 23bf c44c 123f
00000250: 8951 98be febb 4d3e dc41 383f 5bf8 36bf
00000260: 1863 12bf 30f8 bebe aceb bc3d d80d 923f
00000270: 5e2f a939 3c42 07bf 4cc3 073e c4b9 843e
00000280: 0b28 83bf bab8 a2be a87d 133f f308 7bbf
00000290: ae17 e0bc 93f8 99bf 2b79 ddbe d9a3 aa3f
000002a0: 45a2 d2bf ed82 abbf 31bb 933f 86be 9fbf
000002b0: 3b92 46be 7931 11bf c9e2 65bf 2fa9 1240
000002c0: 7d6e c93f 12e7 4b3f 8437 a8bf f791 c03f
000002d0: 9a72 a43e 99c1 973e 5a63 393f 055e f9bf
000002e0: 82a7 a93f defd 6f3f 4949 68bf c0a8 243f
000002f0: 38b8 d7bb c34c 2f3f 0f49 5e3f 49ab 06c0
00000300: 5504 463f ab00 bc3d 4ee2 113d 3c7f d73e
00000310: da0b e9bc dd44 7c3f aea8 d03d e84b 47bf
00000320: d1ff 883d c48f 52be a9fb 283f c802 00c0
00000330: afe8 913e 2e60 e13e db69 d8be 8915 b83e
00000340: f6bc 533f 905d 57bf 135c ef3e 8b9f 47bf
00000350: f235 d33e c005 993f 68e8 92be 03c3 af3e
00000360: 36d9 573f 3a11 19bf b578 613c 2240 87bf
00000370: 7c47 da3e 28e3 babe e877 d3be bd72 5c3f
00000380: 846d e43f 4ca8 713e 1256 eebd a165 23bf
00000390: c7ed 7fbe 5a2a 433f 4aab 193f c5d7 21bf
000003a0: 9028 c8bf c950 ca3f a421 92be 2b1f cb3f
000003b0: ccdd 1ebf 9550 e93e e0fe 873f 4e0a 4a3f
000003c0: 81e1 9a3f 7f56 0940 215f 05bf ce81 fcbe
000003d0: 9027 febc 992b be3f dcd6 a83f f3ce cebf
000003e0: 8e9a 0bc0 899b e43e 064d 343f 39ad c23e
000003f0: 22a7 11bf 56f4 803e 267c 88bf e11e ff3f

lstm.weight_hh_l1 f4 [32, 8]
0.09717521 0.14283103 0.028244585 -0.27520707 -0.31539503 0.19339117 0.24723408 0.14123178
-0.115182534 -0.14701386 0.3008413 -0.11096178 0.096428186 0.27410808 0.1949844 0.17435297
0.35116503 0.056435883 0.1607202 -0.29333857 -0.17824727 -0.04396838 0.23769662 -0.27484697
-0.25284404 0.18744269 0.25039062 -0.23334774 0.056218237 0.03138566 -0.32006073 -0.15170603
-0.31430572 0.15996882 -0.28648052 0.20700338 -0.25777596 -0.20092735 -0.3459504 -0.1456909
-0.0283252 -0.030124545 0.25638375 -0.12946361 -0.28769216 -0.21197306 0.014506906 -0.031942934
0.015822649 -0.1131503 0.05788961 0.10576847 0.17914698 0.15721539 0.35201088 0.0043248236
-0.29797122 0.3060595 0.0015763342 -0.21569775 -0.14135139 -0.08767435 -0.24973378 0.25132045
-0.020266265 0.17375681 0.21623048 0.33662215 0.1595389 0.13382879 -0.1483052 -0.058505684
-0.022423923 -0.07986656 -0.27381325 0.05875507 -0.25202236 -0.31460482 -0.12675601 -0.10063091
0.061989546 0.2056655 0.061278194 0.19365105 -0.23341602 0.1998181 -0.2596433 -0.08937794
-0.14865054 0.29542688 -0.04450193 -0.31007445 -0.08456415 0.11932692 -0.04984346 -0.028825313
0.28533038 -0.19929461 0.07903713 0.049582005 0.33222368 0.01436761 0.01474604 0.16120127
0.005709201 -0.2813329 -0.29183063 0.010078818 0.22978309 -0.20022674 -0.04273942 0.05065036
-0.19127187 -0.09159109 -0.09957948 0.29506168 -0.14521149 0.17709544 -0.07922009 0.25250575
-0.0294528 0.18997458 -0.2498729 0.10979891 0.31960526 -0.21252148 0.26990405 -0.27267468
0.11186424 0.30866137 0.049403727 -0.08843273 0.04394701 0.12988862 -0.3129472 -0.29658312
-0.34212282 0.12597376 0.057646275 -0.34714857 -0.24186435 -0.19706956 -0.24125892 -0.31039542
0.3012471 -0.08649698 -0.12490712 -0.25916165 -0.069333196 0.12875298 0.22246596 0.24455854
0.30657324 0.15559408 -0.08154762 -0.015679061 0.22239587 0.2530211 -0.22631487 0.3355892
0.13099888 0.20106468 0.1585522 0.0062081814 0.09239903 0.32309029 -0.0770095 0.26890662
-0.13471663 -0.019187093 -0.2403113 0.29291728 -0.27712867 -0.28159758 -0.29519913 -0.100753516
0.33597705 -0.053329587 0.24864766 0.32304952 -0.16739109 -0.2989507 -0.17209072 0.09594986
0.10417411 0.2387276 -0.17185529 0.04965931 -0.3132324 -0.04420808 0.082520366 0.3386478
-0.002575159 0.22621903 -0.12710752 -0.06513879 0.14095658 -0.25342217 0.048941225 0.019299626
-0.2724411 0.014069289 -0.14027141 0.19170025 0.32909724 0.2787905 0.12367499 -0.27446508
0.25766304 -0.0856466 -0.17351769 0.09089878 -0.25737953 0.25247845 0.24681613 0.11010638
0.014980286 0.33080736 -0.34091046 -0.29231173 -0.24839582 -0.25683367 0.2325767 0.040957093
0.24251649 0.04292345 0.10675076 -0.21942163 -0.23782694 -0.3195885 0.1933246 0.02103293
-0.21943879 0.20191202 0.16499689 0.15232834 -0.34096467 -0.27058613 -0.18793145 -0.28831816
-0.13569473 0.12193552 -0.12424879 -0.09166968 -0.111839905 0.1752607 0.32042912 0.13383728
-0.24283522 -0.329638 0.08282691 -0.17093544 -0.18668596 -0.020212233 0.07338512 -0.21491423
00000000: cc03 c73d 4c42 123e 3061 e73c f1e7 8cbe
00000010: 757b a1be 5608 463e ee2a 7d3e 109f 103e
00000020: d2e4 ebbd cd8a 16be df07 9a3e ee3f e3bd
00000030: 247c c53d e557 8c3e fea9 473e 9689 323e
00000040: e7cb b33e 5029 673d d693 243e 7930 96be
00000050: 7486 36be 3018 34bd be66 733e beb8 8cbe
00000060: c674 81be faf0 3f3e 3333 803e b6f2 6ebe
00000070: 1845 663d 408e 003d 00df a3be d358 1bbe
00000080: aeec a0be dece 233e 93ad 92be b2f8 533e
00000090: 36fb 83be e6bf 4dbe 6920 b1be ff2f 15be
000000a0: 400a e8bc c0c7 f6bc bb44 833e 1c92 04be
000000b0: 634c 93be 770f 59be 60ae 6d3c 98d6 02bd
000000c0: 809e 813c 58bb e7bd a81d 6d3d 249d d83d
000000d0: 4e72 373e 12fd 203e c53a b43e 40b7 8d3b
000000e0: af8f 98be d5b3 9c3e 009d ce3a dfdf 5cbe
000000f0: 6bbe 10be 9c8e b3bd 36ba 7fbe 13ad 803e
00000100: 7005 a6bc 4eed 313e 866b 5d3e bd59 ac3e
00000110: 2a5e 233e 6a0a 093e 51dd 17be a8a3 6fbd
00000120: 60b2 b7bc 1491 a3bd 4031 8cbe 28a9 703d
00000130: 1309 81be e213 a1be 54cc 01be 9417 cebd
00000140: c0e8 7d3d fa99 523e d8fe 7a3d 764c 463e
00000150: 9c04 6fbe 1e9d 4c3e f7ef 84be c80b b7bd
00000160: d937 18be 3142 973e a847 36bd 14c2 9ebe
00000170: f82f adbd ac61 f43d a828 4cbd 1023 ecbc
00000180: d316 923e e313 4cbe 38de a13d 8016 4b3d
00000190: 3919 aa3e 2066 6b3c 6099 713c f211 253e
000001a0: 4014 bb3b de0a 90be d36a 95be a021 253c
000001b0: 424c 6b3e 3d08 4dbe 880f 2fbd c076 4f3d
000001c0: c6dc 43be 1c94 bbbd 54f0 cbbd 5312 973e
000001d0: 52b2 14be 8258 353e 243e a2bd 6f48 813e
000001e0: 0047 f1bc b288 423e aede 7fbe 40de e03d
000001f0: 4da3 a33e 3b9f 59be dd30 8a3e 049c 8bbe
00000200: 1419 e53d dd08 9e3e 905b 4a3d 381c b5bd
00000210: c801 343d 8601 053e 9e3a a0be bed9 97be
00000220: b92a afbe 44ff 003e 801e 6c3d 75bd b1be
00000230: 4aab 77be 9acc 49be 940c 77be 26ec 9ebe
00000240: 0f3d 9a3e 5425 b1bd 4ecf ffbd d6b0 84be
00000250: 90fe 8dbd d2d7 033e 1ece 633e 8e6d 7a3e
00000260: 2bf7 9c3e 0e54 1f3e 7002 a7bd 6071 80bc
00000270: bebb 633e fb8b 813e 16bf 67be 59d2 ab3e
00000280: 9224 063e e6e3 4d3e 825b 223e 006e cb3b
00000290: b43b bd3d 176c a53e 28b7 9dbd 21ae 893e
000002a0: 28f3 09be 402e 9dbc 2a14 76be 41f9 953e
000002b0: cfe3 8dbe 8f2d 90be 5724 97be dc57 cebd
000002c0: 2f05 ac3e 2070 5abd 7e9d 7e3e bf66 a53e
000002d0: 9268 2bbe 1110 99be 8d38 30be 5c81 c43d
000002e0: 3c59 d53d 0275 743e d5fa 2fbe 9067 4b3d
000002f0: ff5f a0be 8813 35bd 7000 a93d 3f63 ad3e
00000300: 00c4 28bb f6a5 673e 7928 02be 7c67 85bd
00000310: ec56 103e 8dc0 81be 9876 483d 401a 9e3c
00000320: 667d 8bbe e082 663c 4fa3 0fbe 124d 443e
00000330: 6f7f a83e a1bd 8e3e 5049 fd3d b086 8cbe
00000340: 69ec 833e 7c67 afbd 9fae 31be 2429 ba3d
00000350: 40c7 83be db44 813e 5ebd 7c3e 747f e13d
00000360: e06f 753c 955f a93e d18b aebe e2a9 95be
00000370: 795b 7ebe b47f 83be 9628 6e3e a0c2 273d
00000380: 3e56 783e 80d0 2f3d 24a0 da3d 10b0 60be
00000390: e888 73be 1ba1 a3be e2f6 453e 404d ac3c
000003a0: 90b4 60be 06c2 4e3e f2f4 283e f6fb 1b3e
000003b0: ec92 aebe 448a 8abe 1a71 40be 709e 93be
000003c0: 8ff3 0abe 54b9 f93d 2676 febd 50bd bbbd
000003d0: 520c e5bd 8a77 333e 490f a43e a40c 093e
000003e0: cca9 78be 50c6 a8be 28a1 a93d b309 2fbe
000003f0: 9b2a 3fbe 2094 a5bc f04a 963d 7a12 5cbe

lstm.bias_ih_l1 f4 [32]
-0.6996505 0.15649855 -0.9553377 -0.56793123 -0.6539232 2.4927502 0.996078 0.9606567
-0.061446995 0.048421025 0.23270395 -0.05941108 -0.06887764 0.055658907 0.2923331 -0.059103757
-0.14423175 0.56647193 -0.0792567 0.092569515 0.43298152 0.7503401 -0.7699192 -0.62723786
-0.42273697 0.33286378 -0.7200067 -0.4576898 -0.61466986 2.587585 0.7985022 1.061004
00000000: 4c1c 33bf 2841 203e 0391 74bf f163 11bf
00000010: 8367 27bf 3889 1f40 f8fe 7e3f 99ed 753f
00000020: d8af 7bbd 2055 463d f249 6e3e 0859 73bd
00000030: b80f 8dbd 98fa 633d afac 953e c816 72bd
00000040: 7db1 13be 4e04 113f 5651 a2bd 1695 bd3d
00000050: c1af dd3e 4a16 403f 6d19 45bf a992 20bf
00000060: fb70 d8be 1f6d aa3e 5c52 38bf 5156 eabe
00000070: 015b 1dbf fe9a 2540 a46a 4c3f fbce 873f

lstm.bias_hh_l1 f4 [32]
-0.59038496 0.403804 -0.8272424 -0.8024219 -0.36625704 2.9309444 1.2008492 1.1210407
0.3195561 -0.036386013 -0.001463592 -0.29636946 -0.30118573 -0.047924668 -0.26147124 0.13349667
-0.26806444 0.70589286 -0.060809832 0.21652158 -0.00041298105 0.4969552 -0.4700624 -0.43075967
-0.18799166 0.52483857 -0.60493445 -0.33929387 -0.19424064 2.8622086 1.2848624 0.99510854
00000000: 7823 17bf 66bf ce3e 28c6 53bf 866b 4dbf
00000010: 0b86 bbbe 9894 3b40 6db5 993f 437e 8f3f
00000020: db9c a33e 8009 15bd 00d6 bfba bdbd 97be
00000030: 0435 9abe a84c 44bd 8fdf 85be 5ab3 083e
00000040: be3f 89be 65b5 343f bb13 79bd d5b7 5d3e
00000050: 6185 d8b9 e970 fe3e 05ac f0be 888c dcbe
00000060: e380 40be d25b 063f fcdc 1abf edb7 adbe
00000070: 05e7 46be 6d2e 3740 5f76 a43f 6fbf 7e3f

lstm.weight_ih_l2 f4 [32, 8]
1.5405196 2.2363896 0.21949029 -0.9450966 -1.1856598 0.27266666 0.5230237 -1.1268754
1.470182 0.81841856 -0.35835698 -0.6181853 -1.8596457 0.9404541 0.31391823 -1.2681781
0.42836684 -0.9905559 -0.03288744 -0.1450027 0.00073571055 1.143722 -0.10240357 -0.36205024
2.3317351 2.4577909 -0.79591256 -1.1244166 -1.8512752 0.78290325 0.49070486 -1.89794
0.20823698 -0.37837276 0.5000774 -0.17179844 -0.10863462 1.3856304 -0.297009 -1.0252355
-0.21052036 0.04128329 0.08359616 -0.08142484 0.23573685 2.2919185 -0.7102889 -1.0949588
0.45597157 -0.13455799 -0.8156376 -0.6065674 -0.5844377 -2.156331 0.95368296 0.25939432
0.20205559 0.33017972 0.4379964 -0.021402461 -0.50118214 2.649696 -0.97408 -0.91211003
0.32715514 -0.3237925 0.038185716 0.16780058 0.17674342 0.11043978 0.21268001 0.26899114
0.088137835 0.26764664 0.12112683 -0.2550433 -0.051150262 -0.30095905 0.27251068 0.18744436
-0.22626308 0.16831091 -0.33851266 0.112151444 0.13724518 -0.34317094 -0.16405399 0.082214296
0.01919511 -0.013926864 -0.016066462 -0.29361638 0.25710097 -0.21651189 0.2810932 -0.34472686
0.19325861 0.13285187 0.19479653 0.03563437 0.16713044 -0.21394381 -0.007983625 -0.18464492
-0.010143518 -0.33509564 0.01797077 0.2568811 -0.20541863 0.15699598 -0.04796064 0.11696568
0.28279725 -0.3238677 -0.14678158 -0.03678441 -0.32760185 0.28309318 0.2149829 0.12032172
-0.07099113 0.30387786 -0.30899292 0.15491328 0.1001353 0.32542786 -0.029639512 0.30916855
-0.0017112354 0.5170876 0.36009422 0.33006957 -0.38159546 2.9916716 -1.3431126 -1.2010852
-0.07363766 -0.43272972 -0.0024864234 -0.34345505 -0.059707988 -3.3638532 1.2490982 1.6295704
-0.48921195 0.4964683 -0.15014228 0.6069177 -0.18605559 -0.8420718 0.036801316 0.11434923
-0.07509392 -0.6839499 -0.14249751 -0.01754741 0.0718348 -3.580418 1.3594751 1.4380795
-0.46698368 0.002907785 0.15113348 -0.41433176 -0.070308045 3.013509 -0.73522717 -0.9998147
-0.246107 0.08672236 0.08941589 0.30322805 -0.37183383 2.9416294 -1.0048685 -1.3666171
-0.17585833 0.5015286 0.084009275 0.33555925 0.028181162 3.515904 -1.1190118 -1.2405299
0.48554856 -0.17551115 0.21365187 -0.030322839 -0.08992217 -2.954635 1.315126 1.4830565
1.6573042 2.2946231 -0.15315977 -0.659098 -0.8184489 0.09857313 0.7388363 -0.96234834
1.8963474 0.8798636 -0.3119871 -0.9116239 -1.8091856 0.7091292 0.064748146 -1.0738096
-0.11991656 -0.57866377 -0.24119791 -0.28449407 0.27202234 1.2544883 -0.17294002 -0.59454566
2.263377 2.526577 -0.8093687 -1.2409378 -1.752063 0.4909146 0.33145264 -1.8743261
0.35205126 -0.6702358 0.363507 0.039759487 -0.1658491 2.0557444 -0.27630064 -0.69653124
0.19137512 -0.1443861 0.2516273 -0.58622205 -0.068122126 2.2930887 -0.8628436 -1.2178566
0.72049606 0.4448462 -0.6673307 -0.36639857 -0.6545565 -2.2232106 0.5037014 0.65750325
0.115771286 0.31432745 0.043213617 -0.6009016 -0.17641728 2.94151 -0.9633078 -1.3169122
00000000: bf2f c53f 0221 0f40 10c2 603e daf1 71bf
00000010: b3c3 97bf f79a 8b3e e2e4 053f 743d 90bf
00000020: ec2e bc3f e183 513f 917a b7be 6441 1ebf
00000030: df08 eebf 9ac1 703f e4b9 a03e a953 a2bf
00000040: e652 db3e 1295 7dbf fbb4 06bd 967b 14be
00000050: b3dc 403a 7c65 923f f7b8 d1bd a65e b9be
00000060: 263b 1540 724c 1d40 edc0 4bbf e2ec 8fbf
00000070: 96f6 ecbf 596c 483f ab3d fb3e b3ef f2bf
00000080: 133c 553e 13ba c1be 1305 003f eeeb 2fbe
00000090: d47b debd 565c b13f 9011 98be eb3a 83bf
000000a0: a692 57be ab18 293d 7734 ab3d 11c2 a6bd
000000b0: 0065 713e cbae 1240 7ed5 35bf 9c27 8cbf
000000c0: 1b75 e93e 92c9 09be a0cd 50bf 0048 1bbf
000000d0: b69d 15bf 5401 0ac0 9124 743f 55cf 843e
000000e0: a9e7 4e3e 510d a93e 1041 e03e 3754 afbc
000000f0: 794d 00bf 9f94 2940 4f5d 79bf 0b80 69bf
00000100: e180 a73e 21c8 a5be a068 1c3d ead3 2b3e
00000110: 3afc 343e 402e e23d cac8 593e 35b9 893e
00000120: 9c81 b43d fb08 893e 5811 f83d 0995 82be
00000130: f082 51bd 4e17 9abe 8586 8b3e 6af1 3f3e
00000140: 82b1 67be b259 2c3e 8851 adbe a8af e53d
00000150: 008a 0c3e 1ab4 afbe c5fd 27be f85f a83d
00000160: 103f 9d3c 802d 64bc d09d 83bc e354 96be
00000170: bda2 833e 4bb5 5dbe 73eb 8f3e 0a80 b0be
00000180: 96e5 453e 520a 083e be78 473e 58f5 113d
00000190: 3e24 2b3e 1614 5bbe c0cd 02bc 8f13 3dbe
000001a0: 0031 26bc a891 abbe 7037 933c eb85 833e
000001b0: 4359 52be 8ec3 203e 6072 44bd b48b ef3d
000001c0: cdca 903e fdd1 a5be e94d 16be 40ab 16bd
000001d0: 6ebb a7be 97f1 903e 7a24 5c3e 3c6b f63d
000001e0: cc63 91bd e195 9b3e 5234 9ebe 96a1 1e3e
000001f0: bc13 cd3d 7b9e a63e 90ce f2bc 574b 9e3e
00000200: 884b e0ba da5f 043f 455e b83e e1fe a83e
00000210: 7b60 c3be 8c77 3f40 1deb abbf 29bd 99bf
00000220: 57cf 96bd c08e ddbe 43f3 22bb 57d9 afbe
00000230: 5d90 74bd 5f49 57c0 73e2 9f3f c395 d03f
00000240: fd79 fabe 1831 fe3e e6be 19be f55e 1b3f
00000250: 5b85 3ebe 0492 57bf fabc 163d ee2f ea3d
00000260: d7ca 99bd 5717 2fbf deea 11be 96bf 8fbc
00000270: 201e 933d 9225 65c0 4803 ae3f fd12 b83f
00000280: 7c18 efbe 8990 3e3b bcc2 1a3e 4b23 d4be
00000290: aafd 8fbd 55dd 4040 d937 3cbf dbf3 7fbf
000002a0: 7903 7cbe 7e9b b13d ae1f b73d b540 9b3e
000002b0: 0161 bebe a843 3c40 889f 80bf 4fed aebf
000002c0: 3514 34be 2e64 003f 0e0d ac3d 6cce ab3e
000002d0: 2edc e63c 9204 6140 c73b 8fbf afc9 9ebf
000002e0: d299 f83e 32b9 33be 8ec7 5a3e 9a67 f8bc
000002f0: 1d29 b8bd bd18 3dc0 0c56 a83f ccd4 bd3f
00000300: 8b22 d43f 1bdb 1240 ead5 1cbe a6ba 28bf
00000310: de85 51bf b6e0 c93d 6024 3d3f 765c 76bf
00000320: 83bb f23f be3e 613f c6bc 9fbe 2f60 69bf
00000330: 6593 e7bf 7e89 353f ad9a 843d 9872 89bf
00000340: d096 f5bd 4f23 14bf 96fc 76be 35a9 91be
00000350: 8346 8b3e 1393 a03f 3017 31be 2534 18bf
00000360: 2bdb 1040 70b3 2140 ca32 4fbf 0dd7 9ebf
00000370: 9a43 e0bf 2959 fb3e 29b4 a93e ebe9 efbf
00000380: 1040 b43e 9394 2bbf 971d ba3e d8da 223d
00000390: 59d4 29be 5191 0340 4777 8dbe df4f 32bf
000003a0: d7f7 433e f3d9 13be 4bd5 803e a612 16bf
000003b0: 9d83 8bbd f7c1 1240 51e3 5cbf bae2 9bbf
000003c0: 6e72 383f e2c2 e33e 2fd6 2abf 9898 bbbe
000003d0: 0491 27bf 1549 0ec0 93f2 003f 2252 283f
000003e0: 7f19 ed3d 87ef a03e c300 313d b0d4 19bf
000003f0: bba6 34be b341 3c40 579b 76bf 9490 a8bf

lstm.weight_hh_l2 f4 [32, 8]
0.04397741 0.27115354 0.24573919 -0.2619493 0.32610694 0.22431716 0.24934271 -0.22454555
-0.12609288 0.29392996 0.2787576 0.04200065 0.26070163 0.254895 -0.07254997 0.20387545
-0.16451925 -0.25222132 -0.19665012 -0.1068123 0.032968014 -0.047046095 0.11987734 0.24064311
0.014170706 0.026946306 -0.09378049 0.3377973 0.0006455183 0.023892373 -0.2901211 -0.045636177
-0.034564555 -0.052557796 -0.13036202 0.1803725 -0.29326785 0.35055372 -0.27791393 0.18743649
0.29160348 0.17159459 -0.20035532 0.041974753 0.3083845 -0.04374945 0.2651101 -0.15827511
0.02229935 -0.30336112 -0.35047644 0.13122067 0.20235619 0.14506632 0.2711518 0.18300429
-0.21251498 0.17279717 -0.052312165 -0.29557377 0.08162433 0.18895116 -0.29891077 0.2738786
0.17066297 0.088443756 -0.10133201 -0.2757068 0.16485032 -0.193415 0.21592972 0.33093676
-0.09255394 -0.3192843 -0.18391135 -0.008073062 -0.15857153 -0.3019953 0.039387494 0.19402364
-0.021097183 0.12696925 -0.3016234 0.3091794 -0.2784373 -0.099782795 0.27742633 -0.31063712
0.2553676 0.14577085 -0.30276233 -0.1762888 -0.2050375 -0.23138258 0.123238295 -0.07425475
0.33267203 -0.13923262 0.19628337 0.09441084 -0.1126264 -0.07903656 0.17467973 0.20822278
-0.2682523 0.27639863 0.26447216 0.34298643 0.34520492 -0.1759606 0.34388348 -0.0880515
0.08134982 0.25883898 -0.024476111 -0.089755535 0.17601076 0.33002236 0.13095704 0.011538386
0.27101675 0.20546785 -0.24593516 0.18242106 0.21849295 0.044510275 0.32466778 -0.1426766
-0.24087316 -0.069456875 0.19332138 -0.32251754 -0.011416525 -0.31811377 0.23140535 -0.06823295
0.13832486 -0.35277733 -0.2962443 -0.3358473 0.2871031 -0.082623124 -0.3002711 0.0024070442
-0.34786758 -0.07857007 0.09950867 -0.014659882 0.08678922 -0.03134179 0.3355823 0.023885548
-0.20190468 -0.0080935955 0.04778087 0.11068386 0.2098796 -0.05703312 -0.31467187 -0.114926025
-0.24796651 0.018067122 0.27461877 -0.31695735 -0.058456838 -0.1066547 0.18102548 0.018411756
0.2272555 -0.086642146 0.18224844 0.083492935 0.19864306 0.23479745 -0.12517214 0.14574018
0.17021587 0.06218493 0.31692407 0.09426656 -0.33016053 0.2246814 0.08442709 0.22242406
-0.2767431 0.14335766 -0.12730004 0.16486052 0.047027916 -0.34010622 -0.23966792 0.13701716
0.14709201 0.24286518 -0.12175593 0.2803463 -0.3503067 -0.34021658 0.14292353 -0.27784058
-0.036839932 0.044395834 -0.24032119 0.07297698 -0.27475122 -0.11913009 -0.21368106 -0.29699898
0.2631016 -0.23455994 0.28893682 0.062000245 0.2760714 0.027280599 -0.22051594 -0.13471742
0.3207818 -0.29254335 -0.17020836 -0.24777508 0.044445127 0.12136108 -0.08876312 -0.20505415
-0.3366721 0.32045856 0.35334727 -0.2874335 -0.23788485 -0.19702551 0.32126835 -0.07286611
0.30576786 -0.106790036 0.2981445 -0.061552107 0.19544807 0.21992609 -0.011326581 0.08399087
-0.2820066 0.04108271 0.10991287 -0.22407594 -0.020237565 -0.3135727 -0.10004738 0.2193906
0.06022975 -0.039337814 0.045899928 -0.04756239 -0.30133858 -0.3440905 -0.03283325 0.3248535
00000000: a821 343d a3d4 8a3e 0ea3 7b3e 381e 86be
00000010: 7df7 a63e 66b3 653e b253 7f3e 45ef 65be
00000020: 7e1e 01be fd7d 963e 51b9 8e3e e008 2c3d
00000030: af7a 853e 9981 823e 1495 94bd bac4 503e
00000040: bc77 28be 2723 81be a65e 49be 68c0 dabd
00000050: 7809 073d 68b3 40bd 4082 f53d 266b 763e
00000060: 402c 683c 80be dc3c fc0f c0bd c5f3 ac3e
00000070: 0038 293a f0b9 c33c c18a 94be 00ed 3abd
00000080: 9093 0dbd d846 57bd 9f7d 05be 92b3 383e
00000090: 3427 96be c77b b33e bc4a 8ebe 5aef 3f3e
000000a0: 0d4d 953e 7eb6 2f3e f229 4dbe b8ed 2b3d
000000b0: 93e4 9d3e a032 33bd 83bc 873e df12 22be
000000c0: 20ad b63c 2652 9bbe a671 b3be b65e 063e
000000d0: 7636 4f3e 448c 143e 69d4 8a3e 7a65 3b3e
000000e0: 879d 59be bef1 303e 4845 56bd 7255 97be
000000f0: a82a a73d 6a7c 413e d50a 99be d139 8c3e
00000100: 46c2 2e3e 0022 b53d 2887 cfbd 7129 8dbe
00000110: 86ce 283e 950e 46be ae1c 5d3e 8b70 a93e
00000120: ec8c bdbd 3b79 a3be 4253 3cbe e044 04bc
00000130: 9360 22be 219f 9abe c854 213d 22ae 463e
00000140: 00d4 acbc 3a04 023e 626e 9abe c34c 9e3e
00000150: 558f 8ebe ec5a ccbd d30a 8e3e d40b 9fbe
00000160: 8bbf 823e f444 153e aa03 9bbe 0d85 34be
00000170: 5af5 51be 8eef 6cbe 5c64 fc3d e012 98bd
00000180: fd53 aa3e ff92 0ebe 82fe 483e 785a c13d
00000190: aca8 e6bd ecdd a1bd 3edf 323e 5a38 553e
000001a0: 5e58 89be 1f84 8d3e e568 873e eb9b af3e
000001b0: b3be b03e 042f 34be 7f11 b03e 5854 b4bd
000001c0: bc9a a63d 8b86 843e 2082 c8bc c0d1 b7bd
000001d0: 2a3c 343e b1f8 a83e 9a19 063e 800b 3d3c
000001e0: b5c2 8a3e 2a66 523e 6dd6 7bbe 96cc 3a3e
000001f0: 9ebc 5f3e 6850 363d db3a a63e d119 12be
00000200: 74a7 76be 683f 8ebd 0af6 453e 0521 a5be
00000210: 600c 3bbc cfdf a2be 86f5 6c3e b8bd 8bbd
00000220: 08a5 0d3e 3b9f b4be 55ad 97be 2df4 abbe
00000230: 2dff 923e 5036 a9bd 22bd 99be 80bf 1d3b
00000240: b31b b2be 58e9 a0bd 34cb cb3d 0030 70bc
00000250: 8cbe b13d 4060 00bd 71d1 ab3e a0ab c33c
00000260: 1ac0 4ebe 009b 04bc e0b5 433d 38ae e23d
00000270: aeea 563e 909b 69bd ac1c a1be 565e ebbd
00000280: efea 7dbe 8001 943c d59a 8c3e 3c48 a2be
00000290: 7070 6fbd c86d dabd be5e 393e 40d4 963c
000002a0: aab5 683e 7071 b1bd 569f 3a3e 58fe aa3d
000002b0: 1669 4b3e be6e 703e 202d 00be ea3c 153e
000002c0: 124d 2e3e a0b5 7e3d df43 a23e d40e c13d
000002d0: cd0a a9be e212 663e 1ce8 ac3d 22c3 633e
000002e0: 46b1 8dbe 5acc 123e f15a 02be 32d1 283e
000002f0: 58a0 403d 6722 aebe 826b 75be 3a4e 0c3e
00000300: 4a9f 163e a6b1 783e 2c5b f9bd 8d89 8f3e
00000310: 665b b3be de30 aebe 8c5a 123e 1f41 8ebe
00000320: 78e5 16bd 68d8 353d c216 76be f474 953d
00000330: 31ac 8cbe 7afa f3bd 35cf 5abe 4010 98be
00000340: 41b5 863e 7b30 70be 87ef 933e f8f3 7d3d
00000350: 3b59 8d3e 907b df3c eece 61be 5df3 09be
00000360: 833d a43e 3ec8 95be 1a4b 2ebe c0b8 7dbe
00000370: 180c 363d 288c f83d 70c9 b5bd b7f9 51be
00000380: 4960 acbe 2513 a43e efe9 b43e 7c2a 93be
00000390: 1698 73be 0ec1 49be 497d a43e d43a 95bd
000003a0: 9b8d 9c3e bcb4 dabd 65a6 983e 101e 7cbd
000003b0: 8a23 483e 4e34 613e 2093 39bc 6803 ac3d
000003c0: 2b63 90be 5846 283d 001a e13d 2a74 65be
000003d0: 40c9 a5bc 9a8c a0be a4e5 ccbd eea7 603e
000003e0: 78b3 763d b020 21bd 9001 3c3d c8d0 42bd
000003f0: 0d49 9abe a12c b0be 287c 06bd 3353 a63e

lstm.bias_ih_l2 f4 [32]
1.2273222 1.5826427 0.9954311 2.4580076 0.6380566 0.5926557 0.78671646 0.6986602
0.34899136 -0.28737402 -0.2516458 0.31039295 0.3478413 -0.18623301 -0.061606497 -0.09744066
0.105488256 -0.5687628 -0.8579481 -0.33493644 0.45422393 0.5651474 0.40044206 -0.5593103
1.3358448 1.8530488 0.6889653 2.8963583 0.76487654 0.5284233 0.26807505 0.52501005
00000000: e518 9d3f 0994 ca3f 93d4 7e3f ff4f 1d40
00000010: ad57 233f 49b8 173f 4066 493f 65db 323f
00000020: ffae b23e b022 93be b8d7 80be d3eb 9e3e
00000030: 4118 b23e deb3 3ebe 1857 7cbd f88e c7bd
00000040: 3a0a d83d 709a 11bf 7da2 5bbf ca7c abbe
00000050: 0a90 e83e 80ad 103f be06 cd3e f62e 0fbf
00000060: f6fc aa3f b430 ed3f 0860 303f ef5d 3940
00000070: f3ce 433f c046 073f 2241 893e 0f67 063f

lstm.bias_hh_l2 f4 [32]
1.2519904 1.85511 1.0853245 3.0161154 1.1225978 0.9461827 0.25434944 0.9194626
0.057137936 -0.17949407 0.3340216 0.305199 0.2557111 0.09012672 -0.33040607 0.032354623
0.7260667 -0.34290406 -1.1264983 -0.5491517 0.5192219 0.522584 0.38224727 -0.55753106
1.1201719 1.9961362 0.76476794 2.3883703 0.55863553 0.6211694 0.51768064 1.0414793
00000000: 3941 a03f 3f74 ed3f eaeb 8a3f 0908 4140
00000010: 49b1 8f3f 0839 723f 173a 823e e761 6b3f
00000020: 7809 6a3d 4bcd 37be e104 ab3e 0b43 9c3e
00000030: 91ec 823e 5c94 b83d fc2a a9be 4886 043d
00000040: 82df 393f 1f91 afbe 1931 90bf 3595 0cbf
00000050: baeb 043f 11c8 053f eab5 c33e 5bba 0ebf
00000060: cb61 8f3f 6481 ff3f d5c7 433f 0fdb 1840
00000070: bd02 0f3f f504 1f3f b886 043f 324f 853f

lstm.weight_ih_l3 f4 [32, 8]
0.94952595 -0.88839126 -0.08271872 -2.3448381 0.54598385 0.28627744 0.8459028 -0.87827784
0.8254831 -0.6880669 -1.5938653 -1.1053766 -1.1244147 -0.54392105 -8.3011386e-05 0.4738649
-0.122583784 -0.97837937 -2.3130276 -0.4322212 0.9030079 1.0661526 -0.72003585 -1.1781778
0.85724264 -1.1711382 -0.5870212 -1.788943 0.31134346 0.6362086 0.74750596 -0.66319555
0.7809618 -0.4232805 -2.6182866 -1.3981405 -1.5257052 -0.64192533 -0.2834684 0.768126
1.0850031 -0.8477477 -3.9003396 -1.0827024 -1.5662386 -0.79777753 -0.0069178226 1.5712078
0.9151392 -0.82522374 -3.4985712 -0.81581235 -1.1778682 -1.1169584 -0.17409334 0.75594074
-0.67143893 0.20866553 0.50212187 0.84500504 0.22168651 -0.041151118 -0.102769114 -0.06459236
-0.24291171 -0.10721648 0.3278276 -0.31710765 -0.009108931 0.1321305 0.22779283 0.21898642
-0.014660656 0.22129175 0.291037 -0.27922228 0.24019971 0.29268816 0.044647515 -0.3468869
0.23115209 0.021089762 -0.17784351 0.1301246 -0.16432078 0.023270845 -0.19442163 -0.2005847
-0.072962165 -0.260575 -0.106787756 -0.1704354 0.08374554 0.17028019 0.08334476 0.06443834
0.15380374 0.21422324 -0.2611946 0.33445618 -0.2471892 0.31378344 -0.0819377 0.2999778
0.21799359 -0.19344833 0.16450003 0.130795 -0.18278979 0.099056214 -0.16886501 0.33704165
0.14761487 -0.19421233 0.0999549 0.13702628 -0.033280075 1.1712313e-05 -0.087234735 -0.06457102
-0.027765334 -0.35078216 0.023703128 -0.26423192 0.34981993 -0.122397736 -0.33092225 0.058950573
1.635532 -1.0073062 -0.84242487 -2.1984813 0.88379633 0.22927597 0.7234508 -0.49142233
-2.2073288 1.4896778 0.6629065 3.4278607 -0.66225207 -0.85365444 -0.97984457 1.1183302
-1.9433775 2.0537095 0.5723041 3.22639 -1.2403588 -0.83401006 -0.89063394 1.3400035
-2.2104623 1.7177432 0.2597355 3.1847658 -0.7560093 -0.59364533 -0.58446974 1.1146401
1.9967134 -2.0867996 -0.8005602 -3.2531562 0.62579083 1.124958 0.7571877 -0.8824597
-2.4233332 2.082502 0.9148178 3.5048134 -1.1382438 -1.0417666 -0.63026834 1.1051159
2.3264937 -2.109705 -0.47735527 -3.126173 0.5277008 0.8055877 0.99321306 -1.2600228
-0.31083792 0.851793 -0.021994667 1.0938451 0.09932495 -0.029678065 0.062224504 0.4714919
1.3614736 -1.0140966 -0.40177742 -1.8556163 0.2806438 0.6512044 0.65041167 -0.602098
0.34731185 -0.28201088 -1.5882589 -1.2552313 -0.67802954 0.020889988 -0.055298198 -0.16247097
0.2105877 -0.85879356 -1.9248772 -0.046809066 1.3822829 1.0755459 -1.0334135 -1.2645454
1.0733788 -1.0654597 -0.73704064 -1.8469371 0.4759948 0.6410126 0.653131 -1.0463792
0.7608414 -0.59920555 -2.6186717 -1.24514 -1.5429081 -0.8350201 -0.23299062 1.0311023
1.4181013 -1.1724203 -4.4540668 -1.1756315 -2.4372618 -1.8719865 0.44329327 2.0253987
1.3970556 -0.5771515 -3.9035008 -1.0844408 -1.4030919 -1.2362382 0.18289265 1.7857977
-0.6707814 0.24609868 0.34222043 0.7717283 0.41863593 0.21367088 -0.364555 0.057214253
00000000: 2214 733f 9c6d 63bf 6f68 a9bd d411 16c0
00000010: 99c5 0b3f f592 923e 168d 583f d1d6 60bf
00000020: dc52 533f 2725 30bf c703 ccbf fb7c 8dbf
00000030: d2ec 8fbf 693e 0bbf 6616 aeb8 6c9e f23e
00000040: 350d fbbd 1277 7abf a508 14c0 194c ddbe
00000050: 872b 673f b077 883f 4554 38bf 88ce 96bf
00000060: 4174 5b3f dbe7 95bf 0547 16bf 16fc e4bf
00000070: 6968 9f3e 91de 223f 8d5c 3f3f 2fc7 29bf
00000080: 1ded 473f 39b8 d8be 0292 27c0 45f6 b2bf
00000090: 4f4a c3bf 3855 24bf c522 91be e8a3 443f
000000a0: 62e1 8a3f fe05 59bf 2a9f 79c0 fe95 8abf
000000b0: 827a c8bf 263b 4cbf e7ae e2bb 561d c93f
000000c0: 9046 6a3f dd41 53bf 97e8 5fc0 14d9 50bf
000000d0: 63c4 96bf 7ef8 8ebf 8645 32be 5585 413f
000000e0: 6ce3 2bbf 6bac 553e 0f8b 003f 4052 583f
000000f0: ca01 633e 138e 28bd 9d78 d2bd 0049 84bd
00000100: d9bd 78be 5094 dbbd 05d9 a73e ef5b a2be
00000110: a03d 15bc 384d 073e 8642 693e fa3d 603e
00000120: 4033 70bc 4e9a 623e cd02 953e 39f6 8ebe
00000130: eaf6 753e 39db 953e 50e0 363d 299b b1be
00000140: 22b3 6c3e 70c4 ac3c 9c1c 36be 623f 053e
00000150: b543 28be 80a2 be3c 7716 47be 1366 4dbe
00000160: 306d 95bd 166a 85be 8ab3 dabd 9e86 2ebe
00000170: c882 ab3d ee5d 2e3e a8b0 aa3d 40f8 833d
00000180: ba7e 1d3e 565d 5b3e 4cbb 85be d73d ab3e
00000190: 2a1f 7dbe 39a8 a03e f4ce a7bd b196 993e
000001a0: b639 5f3e 5217 46be b272 283e 20ef 053e
000001b0: 3f2d 3bbe fcdd ca3d f3ea 2cbe b990 ac3e
000001c0: 5a28 173e 99df 46be 28b5 cc3d 9e50 0c3e
000001d0: b050 08bd 0080 4437 20a8 b2bd d03d 84bd
000001e0: 2074 e3bc b899 b3be 102d c23c 6849 87be
000001f0: 991b b33e aaab fabd a46e a9be 2876 713d
00000200: 1d59 d13f 69ef 80bf 28a9 57bf ebb3 0cc0
00000210: 7a40 623f 52c7 6a3e 1234 393f b59b fbbe
00000220: e044 0dc0 c3ad be3f 3eb4 293f 1262 5b40
00000230: 5a89 29bf 1989 5abf 18d7 7abf 7225 8f3f
00000240: 98c0 f8bf fa6f 0340 8682 123f 2c7d 4e40
00000250: 14c4 9ebf af81 55bf 9600 64bf 3c85 ab3f
00000260: 3778 0dc0 02df db3f 0dfc 843e 34d3 4b40
00000270: d389 41bf 24f9 17bf cf9f 15bf 87ac 8e3f
00000280: 4e94 ff3f 208e 05c0 83f1 4cbf b633 50c0
00000290: d433 203f a0fe 8f3f 0ed7 413f e1e8 61bf
000002a0: e417 1bc0 b647 0540 8031 6a3f dd4e 6040
000002b0: f9b1 91bf 9c58 85bf 4459 21bf 7074 8d3f
000002c0: 46e5 1440 6805 07c0 e967 f4be 3813 48c0
000002d0: 6617 073f ff3a 4e3f 3643 7e3f 6d48 a1bf
000002e0: 2626 9fbe 1b0f 5a3f 292e b4bc 1e03 8c3f
000002f0: e16a cb3d 6a1f f3bc 1fdf 7e3d 6367 f13e
00000300: c444 ae3f ebcd 81bf c5b5 cdbe d684 edbf
00000310: 8bb0 8f3e 55b5 263f 6181 263f 1823 1abf
00000320: dcd2 b13e bb63 90be 114c cbbf 6bab a0bf
00000330: 5893 2dbf 7b21 ab3c 5d80 62bd ca5e 26be
00000340: 4da4 573e e5d9 5bbf 6062 f6bf ddba 3fbd
00000350: a5ee b03f 7dab 893f e546 84bf a0dc a1bf
00000360: 7a64 893f fc60 88bf b2ae 3cbf 6f68 ecbf
00000370: 97b5 f33e 6719 243f 9833 273f c1ef 85bf
00000380: 81c6 423f 8965 19bf 5198 27c0 bf60 9fbf
00000390: 037e c5bf e1c3 55bf 1895 6ebe 29fb 833f
000003a0: 5884 b53f de11 96bf b787 8ec0 187b 96bf
000003b0: 19fc 1bc0 419d efbf 56f7 e23e 22a0 0140
000003c0: b8d2 b23f 33c0 13bf f5d2 79c0 f5ce 8abf
000003d0: 8498 b3bf 0e3d 9ebf 3648 3b3e 0595 e43f
000003e0: 54b8 2bbf 4b01 7c3e 8437 af3e fc8f 453f
000003f0: 7357 d63e 8acc 5a3e f4a6 babe 7e59 6a3d
