ModelSave20.pt (torch_old, 30998 bytes, 45 tensors)

lstm.weight_ih_l0 f4 [32, 8]
0.010287312 -1.1716415 0.6248471 -0.26640162 0.05658065 0.258444 -0.08890374 -0.3868082
0.14226888 -0.7690831 0.21949245 0.23237532 0.0446331 0.5182897 0.1941375 0.004488944
0.18087968 -0.3864361 0.7050749 -0.122032866 -0.15790303 -0.2451635 -0.5006667 0.3540329
0.11370568 -0.6669127 -0.09195526 0.6633692 -0.15297401 1.0942394 0.47869387 -0.047619708
-0.044253387 -1.0738393 0.33418825 0.1742958 0.02209367 0.92110026 0.15918273 0.1687828
-0.77801883 0.5212578 0.21634583 -0.68309313 0.4157812 -0.3168701 0.026277348 0.19000511
0.38842058 -1.0604204 0.6054234 0.35513192 0.01201872 0.3301909 -0.03820088 0.01373879
-0.1739348 -0.15312615 -0.22614215 0.6372269 0.37919623 0.36692792 0.6096304 0.030852325
-0.21168461 -0.1338159 0.06248346 -0.3093034 0.25554362 0.24237391 -0.04021269 0.3384966
-0.12325774 -0.086978525 -0.28389663 -0.15865709 -0.1161959 0.05154568 -0.115789905 0.28242162
-0.3142988 0.2820706 -0.19995488 -0.058646798 -0.06541267 0.10208371 0.344447 0.25189307
-0.24166197 -0.099191904 0.037638992 0.27996847 -0.26212448 0.12370238 0.07922715 0.32439688
-0.10889278 0.35012618 -0.2296153 0.03161931 0.19338557 0.0662913 0.067340046 0.12980947
-0.11289863 -0.3036062 -0.20709819 0.21839914 -0.043726057 0.19208947 0.2518644 0.3051559
0.1596764 -0.28090972 0.33355764 0.078419596 -0.16382328 0.00824818 0.033242404 0.3131803
0.26347396 -0.011349231 0.21877483 -0.17080326 0.28122374 -0.02082327 -0.07845628 0.2621816
0.050289784 1.1573282 -0.11118343 -0.65568006 -0.032629535 -0.88229954 -0.053477492 -0.04344034
0.040457845 -1.1408414 0.51772755 0.567456 0.028595569 1.071373 -0.05126477 0.13899072
-0.2581964 -0.864182 0.46642762 0.91694164 0.084672764 0.79690075 0.0989251 0.20079507
0.04131058 -1.045985 0.7462353 0.30666837 -0.05308036 1.0516349 -0.13592882 0.038520493
-0.25535178 -0.50331986 0.43066168 0.5257607 0.01982274 0.7819723 0.41017783 -0.020325951
0.22563294 -0.97656983 0.05741485 0.9871198 0.43776146 0.71945834 -0.11406327 0.016065266
0.10069073 0.43756023 0.45284405 -1.0604503 -0.19278517 -0.6289049 -0.48209882 -0.07535619
0.02230713 1.4087313 -0.57570934 -0.15888113 -0.029016541 -0.92765194 0.12162663 -0.15602274
0.024865218 -1.2097105 0.55545336 0.11266365 0.20757882 0.14824194 -0.11696407 -0.3571727
-0.044303134 -0.9314496 -0.0049119657 0.25608638 0.23012795 0.52804494 0.29591507 -0.030273976
0.21644092 -0.75598127 0.27344462 0.19472763 -0.1405812 -0.4491767 -0.5433662 0.31443065
-0.11689226 -0.9779834 -0.11191719 0.92335224 -0.08059841 0.69029814 0.64982206 -0.15294626
0.3498889 -0.68321645 0.103333056 0.639816 -0.15574647 1.2069116 0.13634439 0.08829464
-0.79822814 0.41359153 0.04071936 -0.45608482 0.42261657 -0.38653916 0.0837819 -0.15876009
0.45369416 -0.731643 0.70577204 0.42214555 0.26001528 0.2760309 -0.08428335 -0.25836205
-0.09195674 0.2783203 -0.53991777 0.8654569 0.42449954 0.5846689 0.22013275 0.22742812
00000000: 1d8c 283c 59f8 95bf fbf5 1f3f cb65 88be
00000010: 1dc1 673d c652 843e 2a13 b6bd b90b c6be
00000020: efae 113e a1e2 44bf a1c2 603e ccf3 6d3e
00000030: 33d1 363d a2ae 043f fbcb 463e fe17 933b
00000040: 8638 393e f4da c5be ca7f 343f 5eec f9bd
00000050: 55b1 21be 240c 7bbe b12b 00bf cd43 b53e
00000060: 86de e83d caba 2abf 0a53 bcbd 90d2 293f
00000070: 38a5 1cbe 0910 8c3f 5d17 f53e e20c 43bd
00000080: 0a43 35bd 9173 89bf b91a ab3e 997a 323e
00000090: c9fd b43c 3acd 6b3f cc00 233e 66d5 2c3e
000000a0: 3e2c 47bf 2771 053f c389 5d3e 31df 2ebf
000000b0: 46e1 d43e cc3c a2be 9843 d73c b390 423e
000000c0: 10df c63e dbbb 87bf 07fd 1a3f dad3 b53e
000000d0: 2aea 443c c80e a93e 8778 1cbd a918 613c
000000e0: f71b 32be 1acd 1cbe cf91 67be 4d21 233f
000000f0: 0226 c23e fadd bb3e bd10 1c3f 04be fc3c
00000100: dac3 58be 0907 09be a8ee 7f3d 045d 9ebe
00000110: 9dd6 823e de30 783e 10b6 24bd 6d4f ad3e
00000120: 8e6e fcbd cc21 b2bd e65a 91be 0177 22be
00000130: 1ef8 edbd 9021 533d 4223 edbd 9199 903e
00000140: c6eb a0be 8f6b 903e f9c0 4cbe a037 70bd
00000150: 14f7 85bd 4411 d13d 5b5b b03e 21f8 803e
00000160: 3c76 77be 2025 cbbd 582b 1a3d 0758 8f3e
00000170: 2e35 86be ac57 fd3d d841 a23d 5917 a63e
00000180: 2e03 dfbd bd43 b33e 4620 6bbe 4083 013d
00000190: de06 463e bcc3 873d 94e9 893d c6ec 043e
000001a0: 6637 e7bd 4672 9bbe 8c11 54be 06a4 5f3e
000001b0: 181a 33bd 1ab3 443e 5ff4 803e 653d 9c3e
000001c0: 3682 233e 66d3 8fbe 11c8 aa3e 749a a03d
000001d0: 4ac1 27be 6023 073c 3029 083d 2b59 a03e
000001e0: 0fe6 863e 20f2 39bc 8206 603e 0de7 2ebe
000001f0: 8ffc 8f3e 9095 aabc b0ad a0bd ab3c 863e
00000200: a9fc 4d3d 5523 943f 23b4 e3bd a6da 27bf
00000210: 8ca6 05bd 62de 61bf 370b 5bbd 7fee 31bd
00000220: 20b7 253d 1707 92bf cb89 043f cc44 113f
00000230: 4141 ea3c c022 893f 02fb 51bd 9553 0e3e
00000240: 5232 84be 083b 5dbf 9acf ee3e b0bc 6a3f
00000250: ea68 ad3d b001 4c3f 3e99 ca3d 399d 4d3e
00000260: 4835 293d d6e2 85bf 4709 3f3f a303 9d3e
00000270: cb6a 59bd f99b 863f ed30 0bbe aac7 1d3d
00000280: 78bd 82be 92d9 00bf b07f dc3e 4198 063f
00000290: 4d63 a23c 562f 483f d402 d23e 9c82 a6bc
000002a0: 520c 673e 7b00 7abf d52b 6b3d e2b3 7c3f
000002b0: 4522 e03e 6c2e 383f 019a e9bd 4e9b 833c
000002c0: f136 ce3d e507 e03e 2ddb e73e d6bc 87bf
000002d0: 7a69 45be e9ff 20bf a8d5 f6be 5954 9abd
000002e0: 71bd b63c 4f51 b43f b061 13bf bcb1 22be
000002f0: 19b4 edbc 997a 6dbf 6217 f93d 6dc4 1fbe
00000300: 24b2 cb3c cbd7 9abf 3132 0e3f 33bc e63d
00000310: 8b8f 543e bccc 173e dc8a efbd 57df b6be
00000320: 3477 35bd 7b73 6ebf 8ef4 a0bb c11d 833e
00000330: a9a6 6b3e f42d 073f 2e82 973e 2101 f8bc
00000340: b0a2 5d3e fd87 41bf ef00 8c3e ae66 473e
00000350: 85f4 0fbe 7dfa e5be 0c1a 0bbf 0efd a03e
00000360: 3665 efbd 1f5d 7abf d734 e5bd d060 6c3f
00000370: c710 a5bd 61b7 303f bd5a 263f f29d 1cbe
00000380: a324 b33e 46e7 2ebf 48a0 d33d fbca 233f
00000390: 017c 1fbe 147c 9a3f dd9d 0b3e d2d3 b43d
000003a0: ae58 4cbf 45c2 d33e 58c9 263d f383 e9be
000003b0: 3361 d83e 76e8 c5be d895 ab3d 0192 22be
000003c0: 9a4a e83e f54c 3bbf 7aad 343f 7623 d83e
000003d0: b920 853e ec53 8d3e c09c acbd 0848 84be
000003e0: d153 bcbd 0080 8e3e 0d38 0abf 958e 5d3f
000003f0: 0158 d93e dcac 153f 7b6a 613e ebe2 683e

lstm.weight_hh_l0 f4 [32, 8]
-0.18962769 -0.2866701 -0.17604882 -0.30227208 -0.09982443 -0.29628903 0.329461 -0.040632963
-0.20150816 0.27243617 -0.16341838 0.0018465519 -0.059556365 0.014178634 0.20426527 0.03563568
-0.06536096 0.14605623 -0.13575533 0.2861714 0.27594838 0.05001086 -0.16788004 0.21424434
-0.21403712 -0.16026124 -0.27695668 0.24084434 0.34818658 0.3279926 -0.2720185 0.061050385
0.2214928 -0.22723204 0.1146251 -0.045223385 0.17556801 0.29086706 0.1923314 0.16795668
-0.07874486 0.2590606 -0.07199162 -0.13300428 -0.31198993 -0.09713709 -0.22031797 -0.26726902
-0.27700615 -0.15246555 -0.12821417 -0.03845492 0.00090277195 -0.04509434 0.19970867 -0.3122392
0.011173874 0.058992296 0.04561293 -0.18012518 -0.045891345 -0.022041947 0.0067977905 0.33434
0.07788226 -0.27815032 -0.090938956 -0.20642485 0.17212793 -0.20229489 0.09282467 0.14448383
-0.107346 0.32523403 -0.024984568 0.004249066 -0.25852075 -0.05429223 -0.14509326 -0.07207167
-0.06091976 -0.07216787 -0.17136516 -0.22024728 0.10055253 0.029265672 -0.1473386 -0.17646202
-0.077352524 0.33520785 -0.3057784 -0.15203051 0.26213238 -0.33833075 0.13279545 0.28903726
-0.083692044 0.014784783 0.081558496 0.3416054 -0.04288885 0.3093063 0.35054687 0.1341685
-0.30376485 -0.34623992 0.30559316 0.019995064 -0.148604 0.27685592 -0.25352585 0.16314623
-0.117754295 -0.17087592 0.25258765 -0.05770421 0.15356174 -0.08725652 0.27601174 -0.20334467
0.25546297 -0.1492121 0.2868779 -0.13367939 -0.0038875043 -0.24884245 0.11984241 0.16164944
0.04101789 0.21452501 0.17753127 0.08252761 -0.029597908 0.2279757 -0.20069557 -0.17523184
-0.050241053 -0.33339563 -0.24004185 -0.15886404 0.26902702 0.23502281 0.014411181 -0.2306013
0.19112554 0.050713897 0.28738162 -0.29185888 -0.35149008 0.14199352 0.27764663 -0.15568198
0.009950757 0.122504145 -0.068495005 -0.09325248 -0.058559895 0.18859354 0.22201541 0.031389296
-0.024256676 -0.20412607 0.013537049 -0.22791527 -0.040510297 -0.002113074 -0.12669401 -0.33639705
-0.099163234 -0.31443796 -0.07809815 -0.100774854 -0.009889752 -0.12334722 0.31539956 0.1603348
-0.3189843 -0.15159188 -0.15515608 -0.2628585 0.014075607 0.118784904 0.13419825 0.04975629
0.18391159 0.20962313 -0.35076052 -0.2907256 0.17942414 -0.31404063 0.30290422 -0.026520401
0.0057852566 -0.24202494 -0.23458728 0.082803845 -0.0023902655 -0.020234168 0.3386828 -0.08237326
0.009247988 0.24339864 -0.013533592 -0.24033624 -0.26447904 0.2274836 -0.2372645 -0.3338005
0.13439348 -0.2261017 0.1982558 0.12563115 0.012731761 -0.23803861 0.20114252 -0.09346214
-0.27231702 -0.008869976 -0.02084276 -0.31321138 0.2643524 0.08054638 0.086444944 0.14392179
0.14325485 0.2740682 0.30681613 0.27118203 -0.19461054 0.01287505 0.26972744 0.2887884
-0.31053182 -0.15278451 -0.16929415 -0.07443762 0.1722978 -0.26564416 -0.24755545 0.28903922
0.31545803 -0.26089877 0.35322127 -0.10088986 -0.15284684 0.2396541 -0.24661566 0.17777357
0.35018423 -0.09051424 0.3373796 0.2801725 -0.14798626 0.00040200353 0.30959007 -0.25249666
00000000: c32d 42be 6cc6 92be 2446 34be 68c3 9abe
00000010: c070 ccbd 32b3 97be 1daf a83e c06e 26bd
00000020: 2858 4ebe c17c 8b3e 2657 27be 0008 f23a
00000030: 60f1 73bd 804d 683c ea2a 513e b8f6 113d
00000040: f8db 85bd c48f 153e 7203 0bbe 0f85 923e
00000050: 1b49 8d3e 30d8 4c3d bfe8 2bbe de62 5b3e
00000060: 8c2c 5bbe 861b 24be 44cd 8dbe e69f 763e
00000070: 8345 b23e a5ee a73e 0246 8bbe f80f 7a3d
00000080: 02cf 623e 84af 68be 90c0 ea3d 283c 39bd
00000090: 1ac8 333e 87ec 943e 86f2 443e d6fc 2b3e
000000a0: fc44 a1bd 97a3 843e 5870 93bd 4632 08be
000000b0: 25bd 9fbe d0ef c6bd 099b 61be 7cd7 88be
000000c0: c0d3 8dbe ee1f 1cbe 934a 03be e882 1dbd
000000d0: 00a8 6c3a d8b4 38bd 6e80 4c3e d1dd 9fbe
000000e0: a012 373c e8a1 713d a0d4 3a3d bc72 38be
000000f0: 90f8 3bbd 5091 b4bc 00c0 de3b 9d2e ab3e
00000100: bc80 9f3d b869 8ebe 343e babd 0961 53be
00000110: 4e42 303e 6426 4fbe dc1a be3d 92f3 133e
00000120: 38d8 dbbd 1385 a63e 70ac ccbc c03b 8b3b
00000130: d55c 84be 8861 5ebd 5493 14be 509a 93bd
00000140: 0087 79bd c0cc 93bd 597a 2fbe 8188 61be
00000150: 7cee cd3d 90be ef3c eedf 16be 76b2 34be
00000160: 006b 9ebd 5da0 ab3e fd8e 9cbe e3ad 1bbe
00000170: 3736 863e b039 adbe 88fb 073e b1fc 933e
00000180: bc66 abbd e03b 723c 2408 a73d e7e6 ae3e
00000190: 38ac 2fbd 655d 9e3e e17a b33e 7863 093e
000001a0: 1187 9bbe 5c46 b1be b576 9c3e b0cc a33c
000001b0: a62b 18be 0fc0 8d3e 24ce 81be ce0f 273e
000001c0: 2a29 f1bd 19fa 2ebe 2b53 813e 405b 6cbd
000001d0: 4a3f 1d3e 8cb3 b2bd 6951 8d3e 9639 50be
000001e0: 0bcc 823e 0fcb 18be a9e1 923e 40e3 08be
000001f0: 80c5 7ebb 8ed0 7ebe f06f f53d 6e87 253e
00000200: 6002 283d 72ac 5b3e c2ca 353e 3c04 a93d
00000210: 5077 f2bc 7672 693e 2483 4dbe fa6f 33be
00000220: 90c9 4dbd d5b2 aabe 88cd 75be 41ad 22be
00000230: e9bd 893e d2a9 703e e01c 6c3c bf22 6cbe
00000240: 6ab6 433e 60b9 4f3d af23 933e 876e 95be
00000250: 82f6 b3be c066 113e b327 8e3e 196b 1fbe
00000260: 8008 233c 74e3 fa3d 1c47 8cbd 28fb bebd
00000270: 80dc 6fbd aa1e 413e 0258 633e 1092 003d
00000280: f0b5 c6bc 6d06 51be 80ca 5d3c 9f62 69be
00000290: 20ee 25bd 807b 0abb 13bc 01be 3c3c acbe
000002a0: 1816 cbbd 03fe a0be ecf1 9fbd 0c63 cebd
000002b0: a008 22bc 789d fcbd 0d7c a13e ce2e 243e
000002c0: e951 a3be e73a 1bbe 3ce1 1ebe 6495 86be
000002d0: 609d 663c 8045 f33d 446b 093e 40cd 4b3d
000002e0: 5253 3c3e 72a7 563e e296 b3be fcd9 94be
000002f0: f6ba 373e efc9 a0be 4316 9b3e 5041 d9bc
00000300: 4092 bd3b 63d5 77be a637 70be 1095 a93d
00000310: 00a6 1cbb 20c2 a5bc d567 ad3e 50b3 a8bd
00000320: e084 173c 7e3d 793e 00bc 5dbc b41a 76be
00000330: cc69 87be 76f1 683e 77f5 72be e6e7 aabe
00000340: 729e 093e 3487 67be 9203 4b3e 74a5 003e
00000350: e098 503c 65c0 73be 4ef8 4d3e 1469 bfbd
00000360: 236d 8bbe 6053 11bc 70be aabc 3e5d a0be
00000370: 3359 873e 80f5 a43d 0c0a b13d 3c60 133e
00000380: 66b1 123e ab52 8c3e 0117 9d3e 5fd8 8a3e
00000390: fc47 47be e0f1 523c b719 8a3e 13dc 933e
000003a0: 07fe 9ebe 8b73 1cbe 725b 2dbe c072 98bd
000003b0: d66e 303e 8302 88be 2d7f 7dbe f3fc 933e
000003c0: b783 a13e 8694 85be 6bd9 b43e 589f cebd
000003d0: e283 1cbe e267 753e d188 7cbe 460a 363e
000003e0: 594b b33e 885f b9bd 05bd ac3e c572 8f3e
000003f0: b689 17be 00c4 d239 9782 9e3e 3e47 81be

lstm.bias_ih_l0 f4 [32]
0.34343702 0.5826802 0.3972391 0.43298736 0.101997316 0.94698066 -0.110624894 0.45396602
-0.08169255 -0.10167825 -0.14327323 -0.32085177 -0.13160379 -0.058366418 0.1986672 -0.334469
0.39982185 -0.23376174 -0.19262381 -0.20204134 0.3577345 -0.57019407 -0.39245775 0.018337311
0.66746444 0.59515274 0.73588914 0.5367267 0.2375408 0.71986765 -0.026758244 0.9308021
00000000: fad6 af3e 882a 153f ec62 cb3e 85b0 dd3e
00000010: f8e3 d03d 536d 723f 4e8f e2bd 3c6e e83e
00000020: 6c4e a7bd b03c d0bd 38b6 12be af46 a4be
00000030: 25c3 06be a011 6fbd 6a6f 4b3e 853f abbe
00000040: 73b5 cc3e 3d5f 6fbe 2d3f 45be ede3 4ebe
00000050: fa28 b73e 3df8 11bf 39f0 c8be 2138 963c
00000060: f3de 2a3f ee5b 183f 3b63 3c3f ec66 093f
00000070: e53d 733e 3f49 383f 1b34 dbbc 0c49 6e3f

lstm.bias_hh_l0 f4 [32]
0.66499835 1.0968543 0.6205806 -0.0039315713 -0.020290768 0.59625095 0.10752597 1.0019435
-0.05364892 0.15492639 0.09501216 0.22571126 0.30530336 -0.17449246 -0.006115794 -0.26336694
0.24132054 -0.4214923 -0.51928985 -0.039069407 0.3989218 -0.5170538 -0.12144974 0.54615843
0.81885386 1.0533161 0.45591086 0.08762766 0.39303344 0.91556424 0.03377409 0.58914435
00000000: 553d 2a3f b965 8c3f 5fde 1e3f 69d4 80bb
00000010: d338 a6bc e7a3 183f 9336 dc3d af3f 803f
00000020: f8be 5bbd 06a5 1e3e bc95 c23d da20 673e
00000030: b950 9c3e 27ae 32be 0067 c8bb 08d8 86be
00000040: bb1c 773e d7cd d7be 2ef0 04bf 3e07 20bd
00000050: 7a3f cc3e a35d 04bf a4ba f8bd 0ad1 0b3f
00000060: 68a0 513f 10d3 863f 266d e93e 2176 b33d
00000070: ae3b c93e 6b62 6a3f b356 0a3d 2ad2 163f

lstm.weight_ih_l1 f4 [32, 8]
-0.38584313 0.78048295 0.25828683 0.25109342 0.5477885 0.22234787 -0.11995072 -0.81878155
-0.22350748 0.613121 -0.09501321 0.44377106 0.7772006 -0.25573567 -0.56796783 -0.40226543
-0.06746398 0.037715834 -0.22549504 0.010367822 3.677218e-05 -0.07284434 -0.2838364 -0.27127975
0.24945948 -0.39294088 -0.107711926 -0.31455293 0.17527685 -0.81565577 0.42098522 0.19769461
0.25883865 -0.028904026 0.13923053 0.07983631 0.7447121 -0.56175745 -0.3039184 0.42298663
-0.45813918 0.02594409 0.21075496 0.3929504 0.34508878 -0.17672256 -0.45212033 -0.44660872
0.50080574 -0.83691967 -0.5615191 -0.3323507 -0.3427668 -0.80115384 -0.3128403 0.6365303
-0.25242072 0.33983478 0.26313227 0.89520067 0.6411166 0.06301131 -0.7465969 -0.006521471
0.10106152 0.3171582 -0.21320148 0.18222222 0.2392073 0.16538897 0.13455835 0.058684945
0.20434174 -0.0210478 0.24020085 -0.04227385 0.29607055 -0.074005604 0.08810732 -0.26812392
0.15601549 0.046249688 -0.19283882 -0.011330217 -0.14113188 0.2265208 0.3350381 0.039868444
-0.2334632 -0.15055427 -0.31986558 0.15007433 0.14360648 -0.12028399 0.34240356 0.1934267
-0.07998937 0.28747228 0.014197886 -0.04090482 0.029237598 -0.11749239 -0.09512788 0.33114675
0.2253662 0.10071844 -0.035207838 0.22052696 -0.021680087 -0.031962484 0.17862722 -0.09560588
-0.28706965 0.029975861 0.09022832 0.12453681 -0.16513842 -0.29282653 0.19079879 0.00788033
0.33078393 0.04922545 0.29793718 0.30249622 0.24498025 -0.31901926 0.23099855 -0.27764934
-0.67376506 0.82975286 0.96253633 0.40257242 0.13757083 1.2330667 -0.5841665 -0.7154861
1.1462545 -1.0186989 -0.6939184 -0.8066543 -0.54376906 -1.0338504 0.27222353 1.1967286
0.6179055 -0.6880101 -1.0410092 -0.43745536 -0.7289394 -1.234827 0.54945177 0.6564288
-0.9955629 0.93226284 0.51580447 0.23834136 -0.025302652 0.6657593 -0.37636122 -0.4321397
-0.60800844 0.84455025 0.72112244 0.676093 0.244728 0.8643174 -0.34860352 -0.9001477
-0.9341459 0.5723533 0.52772003 0.73146653 0.47657397 0.94556534 -0.10260327 -0.48982272
0.8103808 -0.77858245 -0.29547194 -0.42626408 -0.6541657 -1.0170455 0.13944922 1.1098921
1.1710342 -0.97889656 -0.7340066 -0.99532235 -0.2915284 -1.1432143 -0.0015668992 0.8969652
-0.31344557 0.8553861 0.5831445 0.69738626 0.61801606 0.11090415 -0.30587134 -0.76635754
-0.13316059 0.67181975 0.1833161 0.7581829 0.39881065 -0.037459727 -0.612937 -0.057938624
0.11743216 -0.08870446 0.05938201 0.16674103 0.40556937 -0.076484255 0.042183667 -0.06622349
0.68916136 -0.19075567 -0.08679678 -0.4749113 -0.006805683 -0.8163213 0.10601952 0.7736819
0.36346468 0.12121101 -0.10475888 0.13071501 0.73066187 -0.6350454 -0.5122455 0.42988145
-0.52737373 0.4010971 0.30028433 0.19742271 0.19487976 -0.15301463 0.012178918 -0.25901994
0.61808705 -0.47376055 -0.69525903 -0.6037025 -0.21591395 -0.7386261 0.02760839 0.96023875
-0.79054165 0.52523696 0.29449782 0.76315516 0.807247 -0.23279738 -0.2462975 -0.087027594
00000000: 3b8d c5be bbcd 473f 2c3e 843e 518f 803e
00000010: de3b 0c3f 29af 633e b9a8 f5bd ab9b 51bf
00000020: 25df 64be 7ff5 1c3f 4996 c2bd f635 e33e
00000030: 9ef6 463f c9ef 82be 5766 11bf bcf5 cdbe
00000040: 8e2a 8abd eb7b 1a3d 2ce8 66be ccdd 293c
00000050: d43b 1a38 6a2f 95bd 0153 91be 2ee5 8abe
00000060: 4e72 7f3e 8c2f c9be 1298 dcbd 150d a1be
00000070: c67b 333e d1ce 50bf 608b d73e 7570 4a3e
00000080: 8086 843e 23c8 ecbc 7392 0e3e 3881 a33d
00000090: 74a5 3e3f 56cf 0fbf 319b 9bbe b491 d83e
000000a0: 3891 eabe b388 d43c 26d0 573e cb30 c93e
000000b0: 7aaf b03e c2f6 34be 517c e7be e6a9 e4be
000000c0: ce34 003f 5e40 56bf b7bf 0fbf df29 aabe
000000d0: 217f afbe 6b18 4dbf 9b2c a0be a6f3 223f
000000e0: 4a3d 81be d3fe ad3e 46b9 863e df2b 653f
000000f0: 3820 243f 130c 813d f920 3fbf 10b2 d5bb
00000100: 58f9 ce3d 8f62 a23e 7d51 5abe 7698 3a3e
00000110: c2f2 743e ba5b 293e aac9 093e a05f 703d
00000120: f63e 513e 706c acbc 36f7 753e 5827 2dbd
00000130: 8f96 973e 4090 97bd 9c71 b43d 8a47 89be
00000140: 86c2 1f3e 5070 3d3d 8a77 45be 60a2 39bc
00000150: e084 10be 12f5 673e 1d8a ab3e 184d 233d
00000160: fa10 6fbe e62a 1abe 6cc5 a3be 16ad 193e
00000170: 940d 133e 7457 f6bd 854f af3e a611 463e
00000180: 78d1 a3bd 912f 933e 409e 683c d08b 27bd
00000190: b083 ef3c da9f f0bd 68d2 c2bd 118c a93e
000001a0: 66c6 663e 7845 ce3d 1836 10bd d2d1 613e
000001b0: 709a b1bc 18eb 02bd 0eea 363e 04cd c3bd
000001c0: cbfa 92be f08f f53c a0c9 b83d 280d ff3d
000001d0: 0c1a 29be 5ced 95be c260 433e 801c 013c
000001e0: 835c a93e a0a0 493d 398b 983e c9e0 9a3e
000001f0: 1adc 7a3e 7e56 a3be e28a 6c3e 0e28 8ebe
00000200: de7b 2cbf af6a 543f c868 763f f91d ce3e
00000210: 5edf 0c3e 21d5 9d3f f08b 15bf 192a 37bf
00000220: 78b8 923f ba64 82bf a3a4 31bf e580 4ebf
00000230: 7334 0bbf 3655 84bf e260 8b3e 672e 993f
00000240: 0e2f 1e3f 6e21 30bf ca3f 85bf 26fa dfbe
00000250: c69b 3abf d00e 9ebf dfa8 0c3f b80b 283f
00000260: 36dd 7ebf c7a8 6e3f c30b 043f c20f 743e
00000270: 8247 cfbc 346f 2a3f 6bb2 c0be 6a41 ddbe
00000280: 71a6 1bbf 7234 583f 7b9b 383f 6e14 2d3f
00000290: fa99 7a3e e843 5d3f 297c b2be 1470 66bf
000002a0: 3024 6fbf bf85 123f a918 073f 6441 3b3f
000002b0: 8101 f43e 9210 723f aa21 d2bd 0bca fabe
000002c0: 1e75 4f3f 2e51 47bf 1948 97be 493f dabe
000002d0: 6777 27bf 8c2e 82bf c7cb 0e3e f210 8e3f
000002e0: 73e4 953f f798 7abf dbe7 3bbf 72cd 7ebf
000002f0: 3643 95be d954 92bf 6a60 cdba 839f 653f
00000300: f07b a0be 95fa 5a3f f548 153f e887 323f
00000310: 4d36 1e3f b721 e33d 2b9b 9cbe 0230 44bf
00000320: 405b 08be 61fc 2b3f 37b7 3b3e 4618 423f
00000330: e930 cc3e 5f6f 19bd 70e9 1cbf 0d51 6dbd
00000340: 4680 f03d afaa b5bd 8d3a 733d 29be 2a3e
00000350: caa6 cf3e c7a3 9cbd c8c8 2c3d 2ea0 87bd
00000360: e16c 303f 7455 43be 83c2 b1bd 9327 f3be
00000370: 3502 dfbb 6ffa 50bf c320 d93d 0410 463f
00000380: 0b18 ba3e 7a3d f83d d38b d6bd 28da 053e
00000390: a80c 3b3f 5692 22bf 8522 03bf 6c19 dc3e
000003a0: f701 07bf 995c cd3e debe 993e 2e29 4a3e
000003b0: 8f8e 473e deaf 1cbe 168a 473c 439e 84be
000003c0: f43a 1e3f be90 f2be 7ffc 31bf 3f8c 1abf
000003d0: 8c18 5dbe 9a16 3dbf fe2a e23c 35d2 753f
000003e0: f060 4abf ee75 063f 6bc8 963e 235e 433f
000003f0: bda7 4e3f 7062 6ebe 6935 7cbe 863b b2bd

lstm.weight_hh_l1 f4 [32, 8]
-0.20208192 -0.12440549 -0.22336763 0.20371458 -0.07933724 0.08552173 0.27495518 0.056359977
0.31680748 0.08841646 0.13569406 0.30374178 0.17206821 0.10934743 0.24878183 -0.13430785
0.07938889 -0.038095742 -0.057352632 0.33725545 -0.09960294 -0.34932095 0.05101037 -0.01929766
0.08667418 0.2551209 0.18791655 -0.2921597 0.2732047 0.09818888 -0.20109564 -0.063513726
-0.2827828 -0.1382833 0.30876788 -0.26183805 0.06091121 -0.24304697 0.2582067 -0.03382659
-0.11932856 0.2247397 -0.28171957 -0.33263177 -0.12479593 0.26750496 0.04794395 -0.005304992
0.21361652 0.26122513 0.09108865 -0.065087706 0.29681733 0.1629 0.07396388 0.04132232
0.2994099 -0.2620206 0.2855579 -0.081418425 -0.11712365 0.28905967 0.04406464 0.22000483
-0.25499475 -0.23992881 -0.29930916 -0.32495195 0.29866686 0.20865855 0.11097306 -0.117816746
-0.22353892 -0.28408206 0.16717014 0.33037886 0.05646497 -0.06725162 -0.2524297 -0.2671845
-0.2220754 0.21346954 0.05446455 0.20590898 0.045699477 -0.16291092 0.09719926 -0.28914922
0.32506344 0.1688917 -0.15811643 -0.05716738 0.05506295 0.112912625 0.12305224 0.23337188
0.2308698 -0.23440015 -0.181481 -0.061294824 0.15085897 -0.002388388 0.2062045 -0.26566142
0.013296485 0.15537235 0.19099495 0.08311397 0.12800652 0.113135874 -0.057479024 -0.3442417
0.116116375 0.00067189336 0.0593839 0.07189661 0.3067262 0.13389876 0.1201458 -0.14132488
-0.15075468 -0.24519768 0.21439078 0.17877159 -0.26004264 0.08606368 -0.14714532 0.11623657
0.030713588 -0.30141598 0.22076365 0.30243757 -0.3068057 0.32484993 0.20298585 -0.1105739
-0.052328438 -0.034462214 -0.025227934 0.3204656 -0.26347417 0.18278041 -0.23308855 -0.2441389
0.19792268 -0.082952976 -0.0012231767 0.27604285 0.08423668 0.011048287 0.10058877 0.27446792
-0.2272032 -0.10576102 0.3517492 -0.3032834 0.00204736 -0.29441988 0.022087097 0.12907198
0.32844993 -0.34300756 0.17495015 0.19161317 0.05988297 0.29556492 0.02861303 0.12563124
-0.3432674 -0.18463582 -0.11012997 0.19648859 0.11229268 -0.2200084 0.16659126 0.045040727
-0.001572907 0.22214934 -0.21106736 0.16955438 0.12931824 -0.052953184 0.13246328 -0.29676518
0.07660994 0.032108396 -0.3162341 0.2501841 -0.2275983 -0.18120198 0.13828334 0.2872248
0.08329642 0.24020776 0.16386238 -0.20283799 0.013355017 -0.1748457 -0.13315141 -0.26697782
0.054244608 -0.2079893 0.31841692 0.27446756 -0.04680875 -0.14626314 0.16135743 -0.1482294
0.12951195 0.2791902 0.16715291 0.23304966 -0.023619443 -0.0491668 -0.22649801 0.32155696
-0.28983378 0.28296086 0.30592844 -0.3156191 -0.00556919 0.18626103 0.19341859 0.1813707
-0.09369472 0.14215133 0.339331 -0.3515023 -0.34758508 -0.09382129 -0.12150207 -0.058980644
0.10010871 0.21944109 -0.254026 0.28261492 -0.20556228 0.031071573 0.053990155 -0.15126567
-0.21637104 0.1316942 -0.26741725 -0.20850766 0.026045501 0.24269333 0.22728959 -0.014916539
-0.004666716 -0.31377304 0.18154839 -0.22781914 0.020335227 0.013107806 0.0069639385 -0.34742588
00000000: 90ee 4ebe 4ec8 febd 7cba 64be 8e9a 503e
00000010: 907b a2bd 0426 af3d edc6 8c3e b8d9 663d
00000020: 9734 a23e b013 b53d 62f3 0a3e 0b84 9b3e
00000030: a632 303e 8cf1 df3d aac0 7e3e ff87 09be
00000040: a496 a23d 480a 1cbd 98ea 6abd bfac ac3e
00000050: a0fc cbbd 32da b2be 40f0 503d 2016 9ebc
00000060: 3c82 b13d 359f 823e 326d 403e f595 95be
00000070: 7de1 8b3e 4017 c93d 04ec 4dbe 7c13 82bd
00000080: e8c8 90be 239a 0dbe d316 9e3e a30f 86be
00000090: 087e 793d 4ee1 78be ab33 843e c08d 0abd
000000a0: 8862 f4bd 2a22 663e 8c3d 90be b64e aabe
000000b0: 0295 ffbd 69f6 883e e060 443d 80d5 adbb
000000c0: 4abe 5a3e 4dbf 853e b08c ba3d b44c 85bd
000000d0: 71f8 973e 42cf 263e 607a 973d 9841 293d
000000e0: 414c 993e 9027 86be a534 923e b4be a6bd
000000f0: 86de efbd a1ff 933e 207d 343d f248 613e
00000100: ac8e 82be e6af 75be 0d3f 99be 1a60 a6be
00000110: ddea 983e 96aa 553e d845 e33d e849 f1bd
00000120: 63e7 64be 3473 91be a62e 2b3e 6b27 a93e
00000130: d047 673d 38bb 89bd 773e 81be 68cc 88be
00000140: bc67 63be c297 5a3e 3816 5f3d ced9 523e
00000150: 602f 3b3d 1fd2 26be 6810 c73d 5e0b 94be
00000160: b76e a63e f2f1 2c3e 46e9 21be 5828 6abd
00000170: b089 613d bc3e e73d d002 fc3d 0af9 6e3e
00000180: 2269 6c3e 9806 70be 28d6 39be 4810 7bbd
00000190: c67a 1a3e 8086 1cbb 4627 533e c604 88be
000001a0: 80d9 593c ee19 1f3e 2e94 433e a837 aa3d
000001b0: 2414 033e c8b3 e73d 206f 6bbd 7340 b0be
000001c0: 6cce ed3d 0022 303a 883c 733d 883e 933d
000001d0: 370b 9d3e c21c 093e 000f f63d 78b7 10be
000001e0: 6f5f 1abe 1a15 7bbe 4289 5b3e e60f 373e
000001f0: 4f24 85be 2842 b03d 43ad 16be 700d ee3d
00000200: 109b fb3c 3253 9abe de0f 623e 19d9 9a3e
00000210: a315 9dbe bb52 a63e 86db 4f3e 9274 e2bd
00000220: 5856 56bd 4028 0dbd d0aa cebc 1114 a43e
00000230: 16e6 86be ca2a 3b3e c4ae 6ebe 8cff 79be
00000240: 3eac 4a3e 40e3 a9bd 0053 a0ba 7d55 8d3e
00000250: 4884 ac3d e003 353c 7c01 ce3d 0f87 8c3e
00000260: f5a7 68be 3c99 d8bd 7918 b43e f647 9bbe
00000270: 002d 063b 34be 96be 00f0 b43c 722b 043e
00000280: 972a a83e b09e afbe 2226 333e 3e36 443e
00000290: d847 753d 4954 973e e065 ea3c 7aa5 003e
000002a0: bfc0 afbe 2c11 3dbe d28b e1bd 4e34 493e
000002b0: b4f9 e53d e249 61be e696 2a3e a07c 383d
000002c0: 002a ceba 1e7b 633e 0b22 58be aa9f 2d3e
000002d0: 006c 043e 70e5 58bd 74a4 073e 9bf1 97be
000002e0: ace5 9c3d 1884 033d 70e9 a1be 2118 803e
000002f0: 870f 69be 038d 39be 269a 0d3e 210f 933e
00000300: 5097 aa3d 06f9 753e 8acb 273e c3b4 4fbe
00000310: 00cf 5a3c c00a 33be d858 08be 51b1 88be
00000320: 982f 5e3d 26fb 54be 8b07 a33e 0387 8c3e
00000330: 88ba 3fbd 01c6 15be e23a 253e 73c9 17be
00000340: c89e 043e 05f2 8e3e 222a 2b3e 92a4 6e3e
00000350: 907d c1bc 2063 49bd 18ef 67be 1da3 a43e
00000360: 1865 94be 3fe0 903e a7a2 9c3e d498 a1be
00000370: c07d b6bb 36bb 3e3e 860f 463e 3eb9 393e
00000380: 04e3 bfbd 1e90 113e cbbc ad3e 1cf8 b3be
00000390: acf6 b1be 6025 c0bd 14d6 f8bd b095 71bd
000003a0: cc05 cd3d 2ab5 603e b20f 82be e7b2 903e
000003b0: eb7e 52be d089 fe3c c824 5d3d 63e5 1abe
000003c0: 5f90 5dbe d8da 063e eaea 88be 0883 55be
000003d0: 605d d53c 9a84 783e 9abe 683e 8064 74bc
000003e0: 40eb 98bb dca6 a0be d2e7 393e 6c49 69be
000003f0: 1096 a63c 20c2 563c c031 e43b cee1 b1be

lstm.bias_ih_l1 f4 [32]
0.33957332 0.7730859 0.5340778 0.4596405 0.97986096 0.35502425 0.55725837 1.354487
-0.3495854 0.032835633 0.045593023 -0.29531273 -0.086799204 0.3134621 -0.32444432 0.25893
-0.06223365 0.41889518 0.548111 -0.8036423 -0.3786999 -0.36083975 0.5014869 0.2604113
0.4966903 0.96369284 0.8849311 0.54411554 0.9280909 0.21503496 0.50039095 0.86367136
00000000: 8edc ad3e f5e8 453f 53b9 083f 0056 eb3e
00000010: 2bd8 7a3f bdc5 b53e 7ca8 0e3f d45f ad3f
00000020: dcfc b2be a87e 063d c0bf 3a3d 3b33 97be
00000030: c8c3 b1bd 1b7e a03e 911d a6be 7992 843e
00000040: b6e8 7ebd 6e79 d63e 0151 0c3f 80bb 4dbf
00000050: f4e4 c1be fdbf b8be 7261 003f a154 853e
00000060: 314e fe3e 93b4 763f d88a 623f 284b 0b3f
00000070: 5d97 6d3f 2032 5c3e 9f19 003f 9119 5d3f

lstm.bias_hh_l1 f4 [32]
0.44667488 0.90538526 0.95666945 0.36762014 0.78641963 0.23457333 0.5245621 0.9796907
0.07394871 -0.28992462 -0.16608787 0.06747761 -0.30566314 0.10342258 0.244234 -0.121898174
-0.22956066 0.4704026 0.20239875 -0.13663463 -0.42299458 -0.20544687 0.63106763 0.49498707
0.3026234 1.1962608 0.92656773 0.19621517 0.8592092 0.34565464 0.7783577 0.92937565
00000000: 92b2 e43e 54c7 673f 4ae8 743f b538 bc3e
00000010: cc52 493f fe33 703e b449 063f 02cd 7a3f
00000020: 6c72 973d 0071 94be f012 2abe b431 8a3d
00000030: e17f 9cbe 38cf d33d 7a18 7a3e c0a5 f9bd
00000040: f311 6bbe 9cd8 f03e 9e41 4f3e f3e9 0bbe
00000050: bf92 d8be aa60 52be a68d 213f f26e fd3e
00000060: 74f1 9a3e 131f 993f 8b33 6d3f a1ec 483e
00000070: 22f5 5b3f a5f9 b03e 7342 473f 90eb 6d3f

lstm.weight_ih_l2 f4 [32, 8]
0.8940903 -0.4695087 -0.051252548 -0.15557076 0.5402683 0.3613263 0.35292104 -0.5623197
-0.10973667 0.6318563 0.51277167 -0.90649647 -0.78797364 -0.6367847 0.66740924 0.7715376
0.49540645 -0.01484322 -0.10380948 -0.44112447 0.03898931 0.6226395 1.1761009 0.15911998
1.0910016 -0.27339986 -0.028418079 -0.45728552 -0.28289443 0.36475927 0.7849678 -0.4500626
0.48377788 -0.41956392 -0.12004367 -0.42131373 -0.29373634 0.4983547 1.046261 -0.4766515
0.11138433 0.26551503 0.47857052 -0.1377158 -0.4564721 -0.075693786 0.73290265 0.33738676
-0.12820715 1.0515254 0.6513161 -0.53293735 -0.56351143 -0.39081076 0.81809723 1.1091331
0.33317617 -0.8352202 -0.15868184 0.14230628 0.76961434 -0.0030722104 -0.259257 -0.986611
0.29224232 0.09119287 0.23389462 0.22762397 0.021046191 0.26088306 0.19421616 0.11762759
-0.006616473 -0.025526732 -0.2805257 0.34514198 -0.030228764 -0.13099459 -0.30826077 0.1154075
0.3278912 -0.0060974658 -0.042881638 0.1805012 0.14570695 -0.040245175 -0.3389476 0.14353618
-0.1273912 0.035615176 0.06282452 -0.08890569 -0.093573004 -0.25176618 -0.3462645 -0.037932068
0.1657162 -0.24159956 0.022222936 -0.03644654 -0.33874807 -0.07321772 -0.2297796 -0.23386885
0.08350158 -0.13328418 -0.2796161 -0.098976314 0.20468673 0.05781141 0.07739535 0.21262315
-0.10133734 0.046736687 -0.09008786 -0.1356353 -0.088778794 -0.11025366 0.045341372 0.18332532
0.17479518 -0.073945165 0.07392773 -0.28373122 -0.13731144 -0.12564851 0.26675954 0.26833478
0.40159282 -1.3279909 -0.80256104 0.486039 1.0623784 0.6965308 -1.0896608 -1.1592053
0.6173097 -0.8460107 -0.82018775 0.8791736 0.93143326 0.6002011 -0.9081346 -0.9366317
0.8064515 -1.2903199 -0.33557588 0.8223482 0.72430605 0.6156944 -0.45804507 -1.2356868
0.8876148 -1.2421973 -0.3946044 0.66594696 0.7800411 0.43760008 -0.55367374 -1.1633769
0.7939962 -0.8801188 -0.6718848 0.80334663 1.1377665 0.32977024 -0.6460892 -1.3119118
0.73090315 -0.99893844 -0.3071748 0.61053014 0.85778683 0.18863653 -0.54647493 -1.1755171
0.54323435 -0.95377886 -0.702445 0.44781786 1.3276174 0.23657805 -0.51193124 -1.1015192
-0.3759811 0.8647678 0.6951775 -0.5685515 -0.8058908 -0.47890276 0.9661211 0.9126523
0.28218743 -0.7962219 -0.3070321 -0.28243944 0.14385876 0.6597012 0.21692073 -0.8752151
0.07992502 0.80082417 0.8917699 -0.7243961 -0.9271639 -0.05979182 0.6662917 0.77333474
0.26803824 0.20978737 -0.29852468 -0.50093484 -0.26568598 0.5925633 1.1466751 -0.07202983
0.50479907 -0.80290306 -0.21556847 -0.67029446 -0.07516678 0.4201994 0.8862424 -0.17805701
0.3947881 -0.21869834 0.088982016 -0.3607782 -0.031067712 0.31746134 0.49546048 -0.4977284
-0.061704073 0.36156988 0.5048089 -0.1604753 -0.8871466 -0.16637984 0.9208668 0.57277304
-0.156074 1.2501183 0.46634248 -0.76381737 -1.2169206 -0.6661353 0.97700846 1.1317482
0.3224803 -0.9335318 -0.3264659 0.408475 0.5139403 0.2223601 -0.42216453 -0.8663626
00000000: 1ae3 643f 7263 f0be 31ee 51bd f14d 1fbe
00000010: 064f 0a3f c3ff b83e 11b2 b43e 2ff4 0fbf
00000020: 9fbd e0bd 56c1 213f 0145 033f 2710 68bf
00000030: a4b8 49bf 5204 23bf 55db 2a3f 7d83 453f
00000040: eaa5 fd3e fa30 73bc 119a d4bd 11db e1be
00000050: 41b3 1f3d 4d65 1f3f 798a 963f 59f0 223e
00000060: f1a5 8b3f 11fb 8bbe 08cd e8bc 5421 eabe
00000070: 8ad7 90be bac1 ba3e a6f3 483f 9b6e e6be
00000080: bcb1 f73e 15d1 d6be 75d9 f5bd 6fb6 d7be
00000090: 9c64 96be 5928 ff3e e1eb 853f aa0b f4be
000000a0: 781d e43d 96f1 873e 3207 f53e 5f05 0dbe
000000b0: b6b6 e9be 5805 9bbd 829f 3b3f f5bd ac3e
000000c0: bc48 03be 6298 863f a7bc 263f 956e 08bf
000000d0: 4942 10bf 5918 c8be d26e 513f 13f8 8d3f
000000e0: 1196 aa3e fed0 55bf 7e7d 22be bdb8 113e
000000f0: 7205 453f 2357 49bb 55bd 84be 8a92 7cbf
00000100: c9a0 953e 54c3 ba3d 1282 6f3e 4216 693e
00000110: 1069 ac3c 7792 853e 9ae0 463e bce6 f03d
00000120: 00cf d8bb 701d d1bc 11a1 8fbe 73b6 b03e
00000130: 50a2 f7bc 7223 06be 5bd4 9dbe c45a ec3d
00000140: 5be1 a73e 40cd c7bb a8a4 2fbd 4ed5 383e
00000150: 3434 153e 20d8 24bd 8a8a adbe 26fb 123e
00000160: d772 02be 38e1 113d 24aa 803d 3014 b6bd
00000170: 34a3 bfbd 7fe7 80be 9549 b1be a85e 1bbd
00000180: 82b1 293e e065 77be e00c b63c f848 15bd
00000190: 6370 adbe 2cf3 95bd 584b 6bbe 517b 6fbe
000001a0: e002 ab3d a67b 08be d729 8fbe 18b4 cabd
000001b0: 6699 513e a8cb 6c3d 7481 9e3d e2b9 593e
000001c0: f489 cfbd f86e 3f3d fc7f b8bd fbe3 0abe
000001d0: a8d1 b5bd accc e1bd e0b7 393d a2b9 3b3e
000001e0: 82fd 323e 9070 97bd 6c67 973d 3845 91be
000001f0: 5f9b 0cbe 01aa 00be b594 883e 2d63 893e
00000200: 939d cd3e 9bfb a9bf a474 4dbf 1bda f83e
00000210: 04fc 873f d84f 323f 017a 8bbf d760 94bf
00000220: 0208 1e3f 2894 58bf d3f7 51bf 8511 613f
00000230: 6972 6e3f c7a6 193f 827b 68bf 18c7 6fbf
00000240: 9b73 4e3f 3429 a5bf 9ad0 abbe 6985 523f
00000250: 1f6c 393f 269e 1d3f e284 eabe fc2a 9ebf
00000260: b93a 633f 5200 9fbf 9709 cabe 807b 2a3f
00000270: c6b0 473f 1e0d e03e 90bd 0dbf 89e9 94bf
00000280: 5643 4b3f 774f 61bf a400 2cbf 20a8 4d3f
00000290: 55a2 913f a5d7 a83e 1a66 25bf baec a7bf
000002a0: 781c 3b3f 6eba 7fbf 0446 9dbe b44b 1c3f
000002b0: eb97 5b3f ef29 413e c8e5 0bbf 5877 96bf
000002c0: 6811 0b3f da2a 74bf 6fd3 33bf 6248 e53e
000002d0: 5eef a93f 8441 723e ed0d 03bf 95fe 8cbf
000002e0: 9880 c0be 6c61 5d3f 27f7 313f 978c 11bf
000002f0: dc4e 4ebf be32 f5be b653 773f 95a3 693f
00000300: df7a 903e 33d5 4bbf 5033 9dbe e79b 90be
00000310: b64f 133e 2ee2 283f 7820 5e3e 190e 60bf
00000320: bbaf a33d d002 4d3f 084b 643f 0672 39bf
00000330: 9d5a 6dbf 44e8 74bd 1892 2a3f 44f9 453f
00000340: 4f3c 893e 80d2 563e 3ad8 98be 443d 00bf
00000350: fe07 88be 3ab2 173f 40c6 923f 6084 93bd
00000360: 833a 013f 0e8b 4dbf fbbd 5cbe 6b98 2bbf
00000370: 0af1 99bd 6024 d73e c8e0 623f 9454 36be
00000380: aa21 ca3e 75f2 5fbe 343c b63d ecb7 b8be
00000390: b781 febc 4b8a a23e ffac fd3e 42d6 febe
000003a0: 69bd 7cbd b01f b93e 283b 013f a353 24be
000003b0: 0a1c 63bf 7a5f 2abe edbd 6b3f 41a1 123f
000003c0: ddd1 1fbe e003 a03f 71c4 ee3e 8989 43bf
000003d0: 0ec4 9bbf d887 2abf 3a1d 7a3f 20dd 903f
000003e0: 231c a53e f1fb 6ebf 8a26 a7be a323 d13e
000003f0: 9791 033f 5eb2 633e f325 d8be f0c9 5dbf

lstm.weight_hh_l2 f4 [32, 8]
-0.020963013 0.19639692 0.3088816 0.022082627 -0.17034525 -0.30337045 -0.25720507 0.009619921
0.26936892 0.046686202 0.22964421 0.16820142 -0.08834109 0.27084443 0.13025594 -0.31586435
-0.1909575 -0.20399053 0.25675866 0.0175955 -0.15065682 0.13166937 0.011836559 -0.30317003
0.062384784 0.12693024 -0.11482622 0.28720853 -0.29710722 -0.25924897 0.12648249 0.212289
-0.22570649 -0.29001364 0.13755623 0.16081545 0.03772521 -0.3301875 0.13073745 -0.22968405
-0.055012047 0.2807546 -0.055640787 -0.06514028 -0.14733104 0.19091496 0.33719012 -0.23516348
0.3269358 0.18457559 -0.21160032 -0.1416411 0.26582137 0.26357457 0.053148955 -0.24663438
0.24511501 -0.34945342 -0.2328107 0.3385541 -0.30407253 -0.024565846 -0.26543945 0.1732612
-0.13923456 0.081136346 -0.20306617 -0.017126083 -0.20774467 -0.1566586 -0.34301123 -0.18699802
-0.2555376 0.09487146 0.010197341 -0.28397426 -0.27773008 -0.004695505 0.072993755 -0.009064764
-0.020346671 0.2094135 -0.2861462 -0.03210938 0.058341384 0.010883778 0.14828375 -0.194475
-0.01262489 -0.23709697 -0.22313535 0.023320824 -0.082874686 -0.14136621 -0.25118136 0.034988582
-0.32516837 0.16640517 -0.19789083 -0.11019099 0.2683495 0.1293872 -0.23866293 -0.11862193
-0.19506784 0.22582772 0.29725942 0.3289067 0.098939925 -0.008412421 -0.3425259 -0.07824355
0.30647114 0.003380388 0.30559328 0.31398854 0.27083406 0.12286332 0.14527264 0.19251779
0.18078151 -0.13185865 -0.004909694 -0.3312328 0.32184073 -0.18006474 0.15590248 -0.084938794
-0.22790073 0.046387315 0.17189637 -0.015708983 -0.18289857 -0.2789444 0.30080852 -0.30901322
-0.34535444 0.15806875 0.15431598 -0.056201458 0.17212757 0.087803066 -0.055609465 0.15573767
0.17789719 0.032215714 0.23954508 -0.09207323 0.29794237 -0.054424047 -0.34240958 0.15073004
-0.29017726 -0.16378257 0.22370717 -0.13698728 -0.13984257 -0.04440245 -0.15490606 -0.05893314
-0.22513299 -0.28549564 0.07040936 -0.25859892 0.04952061 -0.051653564 -0.33425987 0.10604784
0.27180192 -0.18974587 0.30714628 -0.012015641 0.3465239 -0.079119414 0.140203 0.2774084
-0.18740912 0.27795932 0.30728588 0.30731407 -0.09986317 -0.17194936 0.0264436 -0.21902397
0.013953596 0.09796777 -0.32981205 0.332817 -0.039666623 0.1758447 0.29917887 -0.2827035
-0.3397445 -0.22264098 0.015630752 -0.15708855 -0.010029554 0.11712924 0.09908879 0.03300175
0.034862995 -0.31415397 0.010170281 -0.18951929 -0.24834153 -0.015906125 -0.1959098 0.060766935
-0.047438174 0.06212172 0.15991524 -0.10765822 -0.060430855 0.13316995 -0.34442 0.2815738
-0.2723742 -0.17490621 0.03405142 0.32611462 -0.24011695 0.008652449 0.27786067 -0.1173469
0.037566632 0.31594637 -0.17221649 0.13238755 -0.01848349 -0.25516805 0.016587496 -0.26755813
-0.037282974 -0.20540169 0.28420958 0.22347817 0.09064004 0.055327177 -0.23358634 0.13350567
-0.0549576 -0.0061802566 0.33837137 -0.09820485 0.14468512 -0.076987535 0.2862403 -0.018776625
0.16770568 0.21999553 0.3060504 -0.049269825 0.0521695 -0.24176052 0.008141458 0.23051003
00000000: a0ba abbc 461c 493e bb25 9e3e a0e6 b43c
00000010: fc6e 2ebe 5f53 9bbe 62b0 83be e09c 1d3c
00000020: b9ea 893e 083a 3f3d da27 6b3e fe3c 2c3e
00000030: 2cec b4bd 1fac 8a3e d061 053e f9b8 a1be
00000040: 5d8a 43be e5e2 50be df75 833e 7024 903c
00000050: c845 1abe 56d4 063e 20ee 413c 1a39 9bbe
00000060: 3087 7f3d 00fa 013e 022a ebbd ff0c 933e
00000070: 701e 98be 48bc 84be a084 013e 4a62 593e
00000080: 9a1f 67be ab7c 94be 8adb 0c3e ceac 243e
00000090: c085 1a3d 560e a9be 0ae0 053e 4c32 6bbe
000000a0: 5054 61bd 11bf 8f3e 98e7 63bd 4468 85bd
000000b0: f3dd 16be 367f 433e 2fa4 ac3e b2ce 70be
000000c0: 2164 a73e 6201 3d3e c1ad 58be 5d0a 11be
000000d0: bd19 883e 3ff3 863e b8b2 593d b98d 7cbe
000000e0: 6eff 7a3e 8feb b2be ee65 6ebe f756 ad3e
000000f0: 65af 9bbe 503e c9bc aee7 87be 626b 313e
00000100: 8193 0ebe d02a a63d 94f0 4fbe 004c 8cbc
00000110: 05bb 54be 1d6b 20be 2b9f afbe 697c 3fbe
00000120: d3d5 82be f84b c23d c012 273c 1365 91be
00000130: a332 8ebe c0dc 99bb c07d 953d 6084 14bc
00000140: 10ae a6bc 7e70 563e c181 92be 2085 03bd
00000150: 60f7 6e3d e051 323c b2d7 173e 7424 47be
00000160: a0d8 4ebc 8cc9 72be 987d 64be 500b bf3c
00000170: 34ba a9bd 4ec2 10be d89a 80be 3050 0f3d
00000180: 787c a6be 1e66 2a3e e5a3 4abe d0ab e1bd
00000190: 1b65 893e 147e 043e 0e64 74be 0ef0 f2bd
000001a0: ddbf 47be 623f 673e 6332 983e 7566 a83e
000001b0: 04a1 ca3d 40d4 09bc 8e5f afbe 283e a0bd
000001c0: c9e9 9c3e 8089 5d3b b976 9c3e 1bc3 a03e
000001d0: c3aa 8a3e c49f fb3d 5ac2 143e 6223 453e
000001e0: ca1e 393e f405 07be 80e1 a0bb 5897 a9be
000001f0: 4fc8 a43e e462 38be e6a4 1f3e 64f4 adbd
00000200: cf5e 69be a000 3e3d 9a05 303e 20b0 80bc
00000210: c349 3bbe cdd1 8ebe 9303 9a3e fb36 9ebe
00000220: 4cd2 b0be c6dc 213e 0205 1e3e 8033 66bd
00000230: 3642 303e 18d2 b33d c0c6 63bd b279 1f3e
00000240: ae2a 363e a0f4 033d 4e4b 753e e490 bcbd
00000250: e78b 983e c0eb 5ebd 4f50 afbe fa58 1a3e
00000260: 1d92 94be 9eb6 27be 7e13 653e 6546 0cbe
00000270: e432 0fbe 58df 35bd b29f 1ebe e063 71bd
00000280: 4389 66be 7c2c 92be c832 903d 1467 84be
00000290: 20d6 4a3d b092 53bd 1c24 abbe 9c2f d93d
000002a0: 9f29 8b3e be4c 42be 4742 9d3e 40dd 44bc
000002b0: 956b b13e 5c09 a2bd 6091 0f3e 7908 8e3e
000002c0: 2de8 3fbe af50 8e3e 9354 9d3e 4558 9d3e
000002d0: 1085 ccbd 7e13 30be 40a0 d83c d247 60be
000002e0: a09d 643c 54a3 c83d 20dd a8be fd66 aa3e
000002f0: 7879 22bd a210 343e f92d 993e 83be 90be
00000300: fef2 adbe fffb 63be 100c 803c d2db 20be
00000310: 0053 24bc 74e1 ef3d 10ef ca3d d82c 073d
00000320: 80cc 0e3d cad8 a0be 40a1 263c 5811 42be
00000330: 3e4d 7ebe 904d 82bc 949c 48be c0e6 783d
00000340: 884e 42bd 5873 7e3d d2c0 233e ea7b dcbd
00000350: 5886 77bd b45d 083e d157 b0be 712a 903e
00000360: a274 8bbe 9d1a 33be 8079 0b3d 7ff8 a63e
00000370: 38e1 75be 00c3 0d3c c143 8e3e 9253 f0bd
00000380: 78df 193d b9c3 a13e 8559 30be 9a90 073e
00000390: b06a 97bc 63a5 82be 80e2 873c 61fd 88be
000003a0: 08b6 18bd d254 52be eb83 913e 76d7 643e
000003b0: 7ca1 b93d c09e 623d 4231 6fbe b6b5 083e
000003c0: 381b 61bd c083 cabb 033f ad3e a01f c9bd
000003d0: 5628 143e a4ab 9dbd 178e 923e 70d1 99bc
000003e0: 0abb 2b3e 8246 613e a3b2 9c3e 28cf 49bd
000003f0: b0af 553d 1290 77be c063 053c d20a 6c3e

lstm.bias_ih_l2 f4 [32]
1.0850517 0.24099372 1.2460002 0.84619576 0.9228479 1.0602909 0.64327204 0.3907441
0.0033695102 0.3175026 -0.24758777 -0.036751956 0.28373715 0.24972197 0.02520585 -0.08495164
-0.14116974 -0.3424426 -0.43468753 -0.22682689 -0.31502366 -0.26394355 -0.5398136 -0.1472547
1.1089611 0.7624234 1.0536618 1.0819345 1.3731514 0.5982346 0.64424646 0.23584403
00000000: f9e2 8a3f 0fc7 763e ef7c 9f3f 49a0 583f
00000010: c33f 6c3f 9db7 873f 7aad 243f 9c0f c83e
00000020: 00d3 5c3b b38f a23e a687 7dbe 3889 16bd
00000030: ff45 913e 1eb7 7f3e 807c ce3c 20fb adbd
00000040: cd8e 10be a354 afbe 5d8f debe 4f45 68be
00000050: c84a a1be 9c23 87be 3931 0abf f0c9 16be
00000060: 70f2 8d3f 2e2e 433f 64de 863f d47c 8a3f
00000070: 6dc3 af3f e725 193f 56ed 243f 1981 713e

lstm.bias_hh_l2 f4 [32]
0.63221115 0.29310748 1.2942144 1.221478 1.4389838 0.81098545 0.84553987 0.49723607
-0.060070634 0.22294351 -0.20136483 -0.10479295 0.09899762 0.048484355 -0.24915025 -0.09375709
-0.16628325 -0.2820905 -0.256342 -0.39635867 -0.18227765 -0.65616274 -0.3205512 -0.023365159
0.4831147 0.22884005 1.0253897 1.094059 0.8531402 0.5060782 0.37868986 0.5955429
00000000: 97d8 213f 2f12 963e d1a8 a53f 6459 9c3f
00000010: 9f30 b83f be9c 4f3f 4d75 583f ba95 fe3e
00000020: a00c 76bd 4e4b 643e 9532 4ebe b09d d6bd
00000030: 44bf ca3d 8897 463d 3e21 7fbe b803 c0bd
00000040: 2846 2abe 2b6e 90be 423f 83be 86ef cabe
00000050: fea6 3abe 48fa 27bf 491f a4be 4a68 bfbc
00000060: cf5a f73e 0c55 6a3e f83f 833f 200a 8c3f
00000070: 6567 5a3f 578e 013f a3e3 c13e 8075 183f

lstm.weight_ih_l3 f4 [32, 8]
0.46554756 -0.5779058 -0.1769328 -0.13639408 0.15996896 -0.43971586 -0.73351496 -0.1897006
0.41193515 -0.876913 -0.0027989019 0.3776387 -0.1301584 -0.6480116 -0.4183614 -0.0036495032
0.20258164 -0.8589228 -0.52539444 -0.059587628 -0.4220489 -0.73229986 -1.187347 -0.059573006
-0.03821785 -0.5151019 0.18476167 -0.11168561 -0.033090226 -0.26953351 -0.7219964 -0.5589263
-0.6815394 -0.3932808 -0.87585604 -0.82919526 -0.37931553 -0.6560065 -0.9115175 0.2726
-0.43203998 -0.42750135 -0.78729135 -0.32953662 -0.8528415 -1.0171072 -0.8593968 -0.18738958
-0.20160684 -0.88499343 -0.5997223 -0.23699144 -0.42229962 -0.6944762 -0.9683168 -0.027847735
0.50678045 0.14974365 0.5478698 0.51479894 0.7195372 0.6465915 0.1307813 -0.53384435
0.07304323 -0.18310471 -0.28629518 -0.29158837 0.23661014 0.011034757 -0.14017962 0.034956604
0.06862098 0.015433162 -0.032129377 0.16228351 -0.1496791 -0.030076504 -0.31034702 -0.28411055
-0.20106247 0.06728682 0.17093709 -0.2883779 0.33510897 0.25201812 -0.15753834 0.10808855
-0.2644209 0.31419381 0.15506658 0.15419069 0.16548899 -0.18542345 -0.11083558 -0.34281212
0.2264739 0.16770431 0.26749578 -0.31718832 0.339471 -0.21099614 -0.22562476 -0.035736322
-0.29447892 0.21127155 -0.14301905 -0.18953918 0.1386866 0.29942194 0.31502083 0.33871767
-0.12814921 -0.013997465 0.34824923 0.29138824 -0.3017924 0.1397692 -0.24348664 -0.086364925
-0.09904483 -0.08499944 -0.31832826 0.3321685 0.19514331 0.30411068 0.18523052 -0.13904257
1.1738261 0.5693784 1.3493257 0.8707928 1.0998496 0.6847111 0.88722503 -0.75670785
-0.5897432 -0.7977995 -1.1791449 -1.2575743 -0.94406104 -0.55459476 -0.6665875 0.6663759
1.072907 0.71072304 0.8293886 1.2487737 0.97919244 0.9253911 0.85583436 -0.6574626
0.5854277 0.8239957 1.2196869 1.1755743 1.1197379 0.4891733 0.6738712 -0.34338522
1.0058215 0.63845295 1.0226071 1.158665 1.00204 0.37907872 0.7833009 -0.64535767
0.8553525 0.6906823 0.75296384 0.8818337 1.1823387 0.6082084 0.90972424 -0.5422645
0.85723877 0.5044972 1.1866198 0.9725034 1.0172297 0.99920744 0.8845338 -0.3720413
0.61689115 0.70047843 1.0179205 0.35550013 0.9390083 0.8797411 0.27285776 -0.57403487
0.43924275 -1.0994031 -0.111777276 0.24813421 0.231494 -0.78985614 -1.0222241 0.008937624
0.5360703 -0.7511056 -0.16346803 -0.053318623 0.24079043 -0.71513015 -0.7551683 -0.5957034
-0.20217042 -0.50075144 -0.83247733 0.1365795 -0.6376061 -0.5150711 -1.2642188 -0.41529274
0.36410707 -0.6590259 -0.27705157 0.06429793 0.0826069 -0.5142668 -0.81281984 -0.27208874
-0.568271 -0.9257434 -0.8839565 -0.68735784 -0.95561534 -1.0737281 -0.5349012 -0.17033525
-0.6794188 -0.5273289 -0.85850376 -0.5555219 -0.8723339 -0.37497765 -1.037915 -0.12808512
-0.3385244 -0.6974463 -0.7636859 -0.7522632 -0.47786218 -0.5797166 -0.80509406 0.20344363
0.15149547 0.51641285 0.6843683 0.16430251 0.72820204 0.50051576 0.49856594 -0.35420805
00000000: 405c ee3e a2f1 13bf df2d 35be e4aa 0bbe
00000010: e7ce 233e 7022 e1be a3c7 3bbf e040 42be
00000020: 2ae9 d23e 5f7d 60bf c86d 37bb dc59 c13e
00000030: 3e48 05be 17e4 25bf 7733 d6be 812c 6fbb
00000040: 9071 4f3e 5de2 5bbf 4080 06bf 2812 74bd
00000050: cb16 d8be 0178 3bbf fdfa 97bf d302 74bd
00000060: 528a 1cbd b8dd 03bf 2a32 3d3e 6dbb e4bd
00000070: 9e89 07bd 4c00 8abe c2d4 38bf cb15 0fbf
00000080: 5e79 2ebf 1a5c c9be 1a38 60bf 2446 54bf
00000090: a535 c2be 0bf0 27bf 3659 69bf 3a92 8b3e
000000a0: 5834 ddbe 75e1 dabe ed8b 49bf 06b9 a8be
000000b0: d253 5abf 9230 82bf 6e01 5cbf 0ee3 3fbe
000000c0: 0672 4ebe ee8e 62bf 6787 19bf e2ad 72be
000000d0: a837 d8be 31c9 31bf 9ce3 77bf ef20 e4bc
000000e0: 5dbc 013f 6656 193e 3241 0c3f ddc9 033f
000000f0: 9733 383f 0587 253f 88eb 053e 06aa 08bf
00000100: b097 953d cd7f 3bbe 4895 92be 124b 95be
00000110: ee49 723e 20cb 343c 3f8b 0fbe a82e 0f3d
00000120: 2889 8c3d 60db 7c3c 189a 03bd a62d 263e
00000130: 7a45 19be 0063 f6bc cee5 9ebe f076 91be
00000140: 52e3 4dbe accd 893d 220a 2f3e 45a6 93be
00000150: 6793 ab3e 8508 813e bb51 21be 885d dd3d
00000160: 2d62 87be 03de a03e c6c9 1e3e 2ae4 1d3e
00000170: f275 293e a5df 3dbe c4fd e2bd 1285 afbe
00000180: c6e8 673e aeba 2b3e 35f5 883e 8266 a2be
00000190: 25cf ad3e 5f0f 58be 2d0a 67be 4060 12bd
000001a0: f1c5 96be 9257 583e 9673 12be 8f16 42be
000001b0: dc03 0e3e d54d 993e 694a a13e 676c ad3e
000001c0: 8c39 03be a055 65bc b94d b23e d730 953e
000001d0: 8984 9abe a81f 0f3e 9054 79be 18e0 b0bd
000001e0: 04d8 cabd 3014 aebd ecfb a2be fd11 aa3e
000001f0: a6d3 473e 65b4 9b3e 12ad 3d3e 2d61 0ebe
00000200: ef3f 963f c8c2 113f b4b6 ac3f 47ec 5e3f
00000210: dfc7 8c3f 3a49 2f3f 2e21 633f 9bb7 41bf
00000220: 69f9 16bf 973c 4cbf 38ee 96bf 32f8 a0bf
00000230: fcad 71bf ecf9 0dbf 7aa5 2abf 9c97 2a3f
00000240: 0455 893f f2f1 353f d052 543f d1d7 9f3f
00000250: 5bac 7a3f 6ee6 6c3f f617 5b3f 784f 28bf
00000260: 97de 153f 62f1 523f b31e 9c3f 3879 963f
00000270: 9253 8f3f ec74 fa3e d382 2c3f 30d0 afbe
00000280: c2be 803f a771 233f cae4 823f 224f 943f
00000290: d942 803f 9b16 c23e 6886 483f 2936 25bf
000002a0: 62f8 5a3f 8ed0 303f 3dc2 403f dabf 613f
000002b0: e056 973f 8cb3 1b3f b0e3 683f d9d1 0abf
000002c0: 0074 5b3f ba26 013f 28e3 973f fcf5 783f
000002d0: 9534 823f 0fcc 7f3f cf70 623f 337c bebe
000002e0: 94ec 1d3f 8e52 333f 384b 823f 1d04 b63e
000002f0: d962 703f b636 613f 03b4 8b3e f3f3 12bf
00000300: 6de4 e03e 3eb9 8cbf 7ceb e4bd e516 7e3e
00000310: c30c 6d3e 0334 4abf 3dd8 82bf 1d6f 123c
00000320: e73b 093f 7548 40bf 2a64 27be a164 5abd
00000330: c491 763e c512 37bf b652 41bf 0580 18bf
00000340: c305 4fbe 3f31 00bf 3c1d 55bf 7fdb 0b3e
00000350: 273a 23bf b3db 03bf ecd1 a1bf 40a1 d4be
00000360: 3e6c ba3e ecb5 28bf b4d9 8dbe a2ae 833d
00000370: ce2d a93d fda6 03bf f614 50bf 374f 8bbe
00000380: 357a 11bf 85fd 6cbf f94a 62bf aff6 2fbf
00000390: 35a3 74bf ec6f 89bf 49ef 08bf 5d6c 2ebe
000003a0: 64ee 2dbf 07ff 06bf e7c6 5bbf af36 0ebf
000003b0: 4651 5fbf 12fd bfbe 66da 84bf bf28 03be
000003c0: 1253 adbe d78b 32bf eb80 43bf 5294 40bf
000003d0: 5aaa f4be 4f68 14bf a51a 4ebf 8753 503e
000003e0: a121 1b3e a233 043f c332 2f3f eb3e 283e
000003f0: 736b 3a3f cd21 003f 0944 ff3e c25a b5be
