ModelSave140.pt (torch_old, 30741 bytes, 45 tensors)

lstm.weight_ih_l0 f4 [32, 6]
0.5512155 0.15857458 -0.26596272 0.17743187 1.9258277 -2.063875 0.3262631 -1.4304379
0.23614645 1.2518113 -1.259856 -0.63367033 -0.86556876 -0.3000117 0.381236 0.57974124
-1.2943116 1.7454647 0.2531368 -0.023504322 0.72164303 0.041046895 -1.6685425 1.2481427
-0.43658346 -0.1783585 -0.63451827 0.0785365 0.32857367 0.4991507 0.12663013 0.57412565
-0.73482823 -0.42777574 -0.6160433 -0.31434524 -0.2677042 0.15417199 1.3562388 -0.071526125
0.6387018 1.8585973 -0.64859605 -0.23992439 -0.13854417 -0.43843812 1.8513827 -2.1883779
0.20013061 -0.089346886 -0.33564806 -0.113769054 -0.05981666 0.104298055 0.019544154 0.10738596
0.33994034 0.21589419 -0.34386513 0.12961367 -0.2681027 -0.07028374 -0.060192615 -0.25779608
-0.18335952 -0.19541298 0.12708077 0.015264034 -0.11726716 0.016037583 0.31535223 -0.3032254
0.3414531 0.23229018 -0.33760244 -0.22071394 0.20420036 0.1264005 0.011411309 -0.017590612
0.15466568 0.14292592 0.21531585 0.010767847 0.2833039 -0.28081825 0.29201296 0.28033027
0.021956235 -0.34995034 -0.058374733 0.30406705 -0.119156554 -0.17987128 -0.33788112 -0.22283995
0.12858023 -0.2581176 0.42418867 0.058845732 -1.2347492 1.1306527 -0.28713176 -1.1389662
0.73813576 0.101822555 3.0303617 0.36999118 -0.21306887 0.53313833 -1.6691222 -0.4704424
0.16737509 1.8418003 0.41439414 -0.33351567 1.7863867 1.1125996 1.6080357 -0.42274353
-0.29722765 -0.87910444 0.4554886 0.3026996 -0.48784134 -0.58627075 -0.6888928 -0.59633714
-0.39251748 -0.3950581 -0.12063501 0.09411226 0.2015125 -0.41139084 1.1724707 0.6983504
-1.0487355 -1.8529923 0.0384094 0.53267044 -1.2543163 -0.5898915 0.90631884 -1.142297
0.16008323 0.35778117 -0.15656967 -0.16232423 2.2380445 -1.9405851 -0.39919725 -1.4663336
0.803122 1.141392 -1.5302141 0.74267244 -0.4569418 -0.21084253 0.47445455 0.10247437
1.3252629 1.8758427 0.23160493 -0.062001586 0.7042209 -0.49138495 -1.6677657 0.91826224
-0.58472025 -0.13824458 -1.0665225 -0.10831755 0.6557428 0.8565053 0.199298 0.010500556
-0.95242214 -0.54242337 -0.5700221 -0.21348815 0.16276513 0.17326191 0.73154587 -0.23748794
1.7566552 1.2977153 -0.28454876 0.06224901 -0.6196127 -0.050286632 2.270738 -2.127507
00000000: 761c 0d3f 6061 223e 442c 88be b3b0 353e
00000010: 8681 f63f 8716 04c0 f50b a73e 9718 b7bf
00000020: 60d0 713e 5a3b a03f f642 a1bf 3838 22bf
00000030: ea95 5dbf 229b 99be 5d31 c33e ec69 143f
00000040: 01ac a5bf 636b df3f 269b 813e 238c c0bc
00000050: 99bd 383f ca20 283d cd92 d5bf 24c3 9f3f
00000060: de87 dfbe 9ca3 36be ca6f 22bf bfd7 a03d
00000070: cf3a a83e ae90 ff3e 54ab 013e e6f9 123f
00000080: b41d 3cbf 6c05 dbbe 04b5 1dbf dcf1 a0be
00000090: 8610 89be 43df 1d3e 3c99 ad3f 4a7c 92bd
000000a0: f681 233f 84e6 ed3f 640a 26bf bdae 75be
000000b0: 86de 0dbe f67a e0be 1cfa ec3f 620e 0cc0
000000c0: 0aef 4c3e 80fb b6bd 10da abbe c0ff e8bd
000000d0: 5002 75bd 389a d53d 101b a03c 2ced db3d
000000e0: a90c ae3e 5e13 5d3e 170f b0be 72b9 043e
000000f0: c244 89be ecf0 8fbd 888c 76bd d9fd 83be
00000100: 99c2 3bbe 571a 48be 7621 023e 0016 7a3c
00000110: c429 f0bd 4061 833c d975 a13e 5c40 9bbe
00000120: f1d2 ae3e 7add 6d3e 3ada acbe d602 62be
00000130: e619 513e 226f 013e 80f6 3a3c 301a 90bc
00000140: ae60 1e3e 2c5b 123e c27b 5c3e a06b 303c
00000150: 350d 913e 69c7 8fbe b982 953e 7387 8f3e
00000160: 90dd b33c b12c b3be 581a 6fbd adae 9b3e
00000170: 5a08 f4bd 2d30 38be c1fe acbe 2830 64be
00000180: 89aa 033e fd27 84be 422f d93e 3908 713d
00000190: 430c 9ebf 3ab9 903f ef02 93be a5c9 91bf
000001a0: 77f6 3c3f 5888 d03d 72f1 4140 7c6f bd3e
000001b0: ba2e 5abe c17b 083f cca5 d5bf d4dd f0be
000001c0: 6064 2b3e 1dc0 eb3f 782b d43e 91c2 aabe
000001d0: 52a8 e43f aa69 8e3f 1dd4 cd3f d771 d8be
000001e0: 392e 98be fd0c 61bf cd35 e93e 71fb 9a3e
000001f0: 57c6 f9be d715 16bf 475b 30bf 8da9 18bf
00000200: 0df8 c8be 0e45 cabe 7d0f f7bd eebd c03d
00000210: 4b59 4e3e d2a1 d2be 8513 963f 18c7 323f
00000220: f73c 86bf da2e edbf 2d53 1d3d 175d 083f
00000230: 708d a0bf 2103 17bf 8304 683f ca36 92bf
00000240: dcec 233e 182f b73e cd53 20be 5338 26be
00000250: 1f3c 0f40 1865 f8bf 9563 ccbe d2b0 bbbf
00000260: 6799 4d3f 2219 923f 0ede c3bf c81f 3e3f
00000270: 47f4 e9be 1be7 57be b5eb f23e 15de d13d
00000280: 37a2 a93f 9d1b f03f d829 6d3e 60f5 7dbd
00000290: d247 343f cf96 fbbe 5979 d5bf 3c13 6b3f
000002a0: 3ab0 15bf fd8f 0dbe cf83 88bf 97d5 ddbd
000002b0: c3de 273f ee43 5b3f c614 4c3e 860a 2c3c
000002c0: f0d1 73bf 42dc 0abf f8ec 11bf a39c 5abe
000002d0: e7ab 263e 926b 313e 9746 3b3f 0a30 73be
000002e0: 14da e03f 891b a63f 60b0 91be d1f8 7e3d
000002f0: f09e 1ebf 5bf9 4dbd c553 1140 1329 08c0

lstm.weight_hh_l0 f4 [32, 8]
-0.30728045 0.24084821 0.2516847 0.020474613 -0.17441612 -0.31845373 0.031274438 0.1658428
-0.30213654 -0.05384901 0.0028325617 -0.067849964 0.1952785 0.34838375 -0.19369599 -0.049354434
0.0058222115 -0.3046764 -0.024043143 -0.1602964 0.20590469 0.101368785 -0.34716895 -0.19435799
0.020920098 0.23202798 0.33693752 0.00686118 0.18674359 -0.16419758 -0.03172204 -0.1529765
-0.1449876 0.26783797 -0.16880023 -0.21892612 -0.20300838 -0.08695802 -0.17560986 0.32546374
0.29770032 -0.25931448 -0.23744144 -0.051834762 -0.2651158 -0.2627939 -0.29478562 0.08963013
0.34617743 0.29878476 0.00521785 -0.08767152 0.18077907 0.24921975 0.33734676 0.13586804
-0.047814876 0.2643247 0.08988404 0.03920558 -0.2611843 0.3070478 -0.10767242 -0.13331035
-0.27248496 0.31929412 -0.27792352 0.03080964 0.26296356 0.22410825 -0.05326903 0.19492105
0.3399171 -0.2186938 -0.3478341 0.16358086 -0.32520226 -0.034081876 0.15122852 0.21631959
0.0147437155 -0.09450811 0.23289469 -0.13132124 0.15571937 -0.15028402 -0.08581343 0.323575
-0.0150948465 -0.28458145 -0.24850489 0.34918252 0.12396589 -0.31614017 0.16288123 0.18254372
0.34778377 -0.24053791 0.05009398 0.25354108 0.11457595 -0.28815198 0.21615878 0.11296928
-0.20778918 0.29053786 -0.26749298 -0.2768812 0.021092713 -0.081242055 -0.18456593 0.17808154
-0.17745298 -0.1375542 -0.023823798 0.114712596 -0.20903812 0.32332 -0.09021744 -0.033499926
0.13838583 0.32203034 0.12890929 -0.053989142 0.10512975 -0.25138214 0.13825446 0.15611532
-0.10714917 -0.25276703 0.16781893 -0.09146911 -0.084855944 0.07382634 -0.2569325 -0.21073774
0.20830652 0.30154768 0.10024372 0.08761749 -0.30830133 0.082398385 0.15131846 -0.13715588
0.29473904 0.277988 -0.23421091 -0.1944004 -0.25934744 0.29080155 0.095468014 0.09483728
0.32205197 -0.12891646 -0.033252627 -0.0581702 0.0975118 -0.29974392 -0.32850373 0.09430674
0.25010595 0.29351607 -0.2844038 -0.12358071 -0.3114239 0.04936695 -0.09892452 -0.25124314
0.21603164 -0.002087146 -0.07297173 -0.058733076 -0.19513738 0.010721266 -0.013733387 0.35128948
0.0985581 0.023828566 0.0177522 -0.30131304 0.19037709 0.0617719 0.27498838 -0.14650257
0.34801796 -0.023816586 0.27574554 -0.13569856 0.0016391873 -0.316761 0.2661403 -0.253967
0.23290566 0.23011264 -0.27544752 0.22063008 -0.33029327 0.0576874 0.1574817 0.28664276
0.14658234 0.076265186 -0.027946144 0.06030214 0.20374861 0.25254652 -0.17315763 -0.13235353
-0.098217756 0.12312868 -0.10806885 0.11279991 0.27063623 0.32101443 -0.021616995 0.26788947
-0.30650097 -0.27118006 -0.016022265 -0.1535808 0.17827854 -0.31235474 0.000962466 0.14397341
-0.11487751 0.17219922 0.064053 -0.06560308 0.15385684 -0.14169854 -0.19771726 0.08066073
-0.06429353 -0.3134901 0.22858867 -0.28724357 0.041541845 -0.030591458 0.15596423 0.09975949
0.07055184 0.04488489 0.15280095 -0.09770617 -0.118472636 0.13063613 -0.21731576 -0.2337594
0.1791533 -0.2953488 -0.22707398 0.0060923398 -0.042013884 -0.042303056 0.2233229 -0.20857139
00000000: dd53 9dbe eaa0 763e d1dc 803e 60ba a73c
00000010: 249a 32be 5e0c a3be a019 003d b2d2 293e
00000020: a4b1 9abe c890 5cbd 80a2 393b ecf4 8abd
00000030: 16f7 473e 5b5f b23e 3e58 46be e027 4abd
00000040: 40c8 be3b 8cfe 9bbe 20f6 c4bc bd24 24be
00000050: aed8 523e 709a cf3d 21c0 b1be c805 47be
00000060: a060 ab3c be98 6d3e 1383 ac3e c0d3 e03b
00000070: b639 3f3e 6923 28be f8ee 01bd dfa5 1cbe
00000080: a177 14be 0f22 893e f8d9 2cbe 2b2e 60be
00000090: 6ee1 4fbe 0c17 b2bd 12d3 33be 2fa3 a63e
000000a0: 2d6c 983e dec4 84be d923 73be b050 54bd
000000b0: 42bd 87be ec8c 86be 24ee 96be 0090 b73d
000000c0: 2b3e b13e 51fa 983e 80fa aa3b 208d b3bd
000000d0: 261e 393e 7633 7f3e b7b8 ac3e fe20 0b3e
000000e0: 88d9 43bd 9155 873e 2015 b83d 0896 203d
000000f0: f3b9 85be 5f35 9d3e 5c83 dcbd 8282 08be
00000100: 2683 8bbe 857a a33e fe4b 8ebe 8064 fc3c
00000110: 29a3 863e a27c 653e a030 5abd 6299 473e
00000120: 9d09 ae3e 44f1 5fbe 5017 b2be be81 273e
00000130: e980 a6be 7099 0bbd a6db 1a3e e282 5d3e
00000140: a08f 713c 788d c1bd f27b 6e3e 1379 06be
00000150: e674 1f3e 0ee4 19be f4be afbd 9fab a53e
00000160: 6050 77bc a9b4 91be 1178 7ebe 0dc8 b23e
00000170: d4e1 fd3d 20dd a1be 56ca 263e beec 3a3e
00000180: b710 b23e 924f 76be 582f 4d3d 23d0 813e
00000190: cca6 ea3d a888 93be ba58 5d3e 705c e73d
000001a0: b0c6 54be 61c1 943e d7f4 88be 5fc3 8dbe
000001b0: a0ca ac3c 3c62 a6bd dafe 3cbe 025b 363e
000001c0: 3cb6 35be 02db 0cbe 202a c3bc 70ee ea3d
000001d0: 170e 56be 338a a53e ecc3 b8bd 3837 09bd
000001e0: 04b5 0d3e 29e1 a43e cc00 043e b823 5dbd
000001f0: 444e d73d 29b5 80be 9492 0d3e b2dc 1f3e
00000200: 0671 dbbd ae6a 81be bad8 2b3e 2854 bbbd
00000210: f4c8 adbd 4432 973d a88c 83be a2cb 57be
00000220: 4e4e 553e 7564 9a3e 944c cd3d cc70 b33d
00000230: acd9 9dbe 7cc0 a83d 3af3 1a3e 9772 0cbe
00000240: 09e8 963e 7154 8e3e fcd4 6fbe e610 47be
00000250: 30c9 84be f1e3 943e bc84 c33d 0c3a c23d
00000260: ffe3 a43e ad02 04be e833 08bd e043 6ebd
00000270: 44b4 c73d 0978 99be a431 a8be e423 c13d
00000280: e30d 803e bd47 963e 609d 91be e217 fdbd
00000290: f472 9fbe 0035 4a3d f098 cabd f1a2 80be
000002a0: 6637 5d3e 80c8 08bb 3472 95bd 1892 70bd
000002b0: 18d2 47be 40a8 2f3c 0002 61bc 37dc b33e
000002c0: d4d8 c93d 2034 c33c 106d 913c b445 9abe
000002d0: 36f2 423e 8804 7d3d 47cb 8c3e c504 16be
000002e0: 692f b23e 001b c3bc 852e 8d3e 90f4 0abe
000002f0: 00da d63a 7f2e a2be 8b43 883e f607 82be
00000300: d27e 6e3e a6a2 6b3e 7507 8dbe daec 613e
00000310: 331c a9be a049 6c3d e242 213e d7c2 923e
00000320: ae19 163e ec30 9c3d 50ef e4bc 60ff 763d
00000330: 7aa3 503e c74d 813e 3c50 31be af87 07be
00000340: 6426 c9bd e42a fc3d 3453 ddbd a403 e73d
00000350: d590 8a3e 015c a43e 2016 b1bc cf28 893e
00000360: b2ed 9cbe 1dd8 8abe 2041 83bc 4944 1dbe
00000370: a68e 363e f6ec 9fbe 004e 7c3a c46d 133e
00000380: e644 ebbd fe54 303e 382e 833d e85a 86bd
00000390: a68c 1d3e 6c19 11be 6576 4abe 7431 a53d
000003a0: 54ac 83bd c681 a0be 2613 6a3e 9711 93be
000003b0: c827 2a3d f09a fabc 16b5 1f3e b44e cc3d
000003c0: 7c7d 903d 38d9 373d da77 1c3e 2c1a c8bd
000003d0: c8a1 f2bd 7ac5 053e 0688 5ebe a05e 6fbe
000003e0: f673 373e f537 97be 1586 68be 40a2 c73b
000003f0: c016 2cbd f845 2dbd c2ae 643e bd93 55be

lstm.bias_ih_l0 f4 [32]
0.15651977 0.31236184 0.59099746 1.2497072 -0.2851789 -0.59531784 -0.183198 0.53920054
0.32493916 0.2230899 0.32509312 0.28350464 -0.0036975145 -0.20961684 -0.13029335 0.13626873
-0.46729347 0.079684734 0.2889931 0.025276199 0.04180964 -0.20681551 0.5293238 0.21436226
-0.38220552 -0.19735415 0.74561596 0.75035316 -0.5619436 -0.72796446 0.1845724 0.54487073
00000000: b846 203e e4ed 9f3e 9c4b 173f 68f6 9f3f
00000010: f802 92be c066 18bf 4298 3bbe 0c09 0a3f
00000020: 6d5e a63e ae71 643e 9b72 a63e 8527 913e
00000030: 0052 72bb cca5 56be 9f6b 05be 088a 0b3e
00000040: 1741 efbe c031 a33d e7f6 933e 0810 cf3c
00000050: 9640 2b3d 72c7 53be c481 073f c881 5b3e
00000060: 71b0 c3be 3517 4abe b0e0 3e3f 2517 403f
00000070: 89db 0fbf e15b 3abf 8c00 3d3e a67c 0b3f

lstm.bias_hh_l0 f4 [32]
0.025544098 0.28384072 0.23352814 1.146459 -0.9408451 -0.6465368 -0.051803693 0.3319061
0.14063674 0.013843089 -0.20579648 -0.055851877 -0.21224095 0.14170331 -0.2414088 -0.21218333
-0.3601586 0.3242595 -0.0884276 -0.44861132 -0.49508396 0.04107567 0.20156047 0.57849383
-0.12409962 -0.045140896 0.6238552 1.2414358 -0.4142761 -0.55862343 -0.11029955 0.22951719
00000000: db41 d13c 9253 913e 0022 6f3e 2bbf 923f
00000010: 39db 70bf 7083 25bf 1c30 54bd 99ef a93e
00000020: 1403 103e 20ce 623c 50bc 52be f0c4 64bd
00000030: b155 59be ac1a 113e de33 77be 9646 59be
00000040: b566 b8be 5705 a63e 8819 b5bd 62b0 e5be
00000050: a57b fdbe f63e 283d de65 4e3e 2c18 143f
00000060: f127 febd a9e5 38bd f9b4 1f3f 5ee7 9e3f
00000070: ff1b d4be f201 0fbf bbe4 e1bd 8e06 6b3e

lstm.weight_ih_l1 f4 [32, 8]
0.5156358 -0.05782567 -0.6602347 0.17570424 0.30350834 0.5042003 0.6083615 -0.8472891
-0.00092556636 -0.5453969 1.0397658 -1.0279429 -0.154119 0.11801621 -0.4603757 0.97698855
-0.087361515 -0.42207143 0.38790601 -0.8292119 -0.014456288 0.27161455 0.05453323 0.57769
0.8683501 -0.61217684 0.14896259 -1.0648308 0.43563533 0.22921355 0.1709344 -0.8930205
0.47360748 0.4545048 -0.38548288 0.28952312 0.13184834 -0.17606346 0.90235066 -0.24993947
-0.5603006 1.3469621 -0.71617556 1.4412946 -0.6318336 0.29222068 1.0522183 0.40510955
0.5753021 1.3453876 -0.87564135 0.4914075 -0.57214487 0.93210125 1.4248302 -0.50695735
-1.611091 0.94283336 0.2613968 -0.20014931 -0.8887777 0.9663503 -0.71724325 1.0020388
0.25742105 -0.24360725 -0.23265654 0.27253214 0.27706167 0.24868742 -0.027686208 -0.04851839
0.047955602 0.28159192 -0.020335883 0.12223765 0.03706163 0.19765559 0.086398125 -0.0681667
-0.34699374 0.31079623 0.20298603 0.25912485 0.12755597 -0.14650299 -0.12539025 -0.22795199
0.31791654 0.03273326 0.33204922 -0.02693364 0.06930539 0.085292906 -0.005612135 0.26974598
0.30412957 0.18499371 0.09611449 -0.17799503 0.32304844 0.34661976 0.0018459857 -0.023028791
-0.13437161 0.30083677 0.12439498 -0.2774343 -0.16408603 0.30735853 -0.18837795 -0.007828027
-0.015177429 0.048040867 0.3013138 0.22066757 -0.35095596 0.08380172 0.3194166 0.32278642
-0.31462374 -0.18593487 0.14839926 -0.013916552 -0.23787302 0.22986004 0.13592878 0.17285922
0.29187527 1.11292 -0.54892516 0.48115638 0.265556 0.80533916 0.20681511 -0.48609123
-0.65682495 -0.6120698 0.77547354 -1.6561142 0.046466976 -0.33858603 -0.8621248 1.525821
-0.08966009 0.12374455 -0.5964433 0.73571944 -0.35034582 -0.041694835 0.65766245 -0.6224102
-0.09015735 -0.050217226 0.27139896 0.8680592 -0.17745675 -0.16454406 0.10009473 0.14668791
-0.49934936 -0.26226264 0.5829685 -1.3828228 0.024760183 -0.6679167 -0.3980634 1.0853823
-1.162969 -0.95315397 1.1795709 -1.7187889 -0.19174714 -0.10211149 -0.9893413 1.7559557
1.0759096 0.58469 -1.3229584 1.9613975 0.3031411 -0.1694648 0.83839077 -1.4595667
0.86240333 0.37408882 -0.862523 1.090046 -0.029159948 0.16819924 0.90588707 -1.5102915
0.62118924 0.09049823 -0.09162751 0.45837852 -0.14329396 0.9445869 0.22006018 -0.9546071
-0.31371197 -0.5820512 0.7318775 -1.4851496 -0.018784834 -0.22923857 -0.36278433 0.982194
0.5185633 -0.6629637 0.45227897 -0.6136737 0.43028447 0.9407072 -0.3021168 0.3506912
0.706514 0.031208994 -0.4230461 -1.0296001 0.51662505 0.17133103 -0.21707308 -0.03773852
1.1740382 0.43630284 -0.19935447 -0.22182153 -0.15605965 0.23810437 0.6675428 -0.46575794
-0.8863904 1.1565889 -0.45501927 1.0269625 -0.48818436 0.98136437 0.96694225 0.30694857
0.8122744 1.594122 -0.56672937 -0.0024160673 -0.08169445 0.95364183 1.4176723 -0.9772297
-1.6030409 0.6120221 0.43016 -0.2681145 -0.31809798 0.9608211 -1.1641643 1.2868447
00000000: b500 043f 9cda 6cbd 2405 29bf d0eb 333e
00000010: 7265 9b3e 4513 013f 94bd 1b3f f0e7 58bf
00000020: b5a1 72ba 229f 0bbf 0c17 853f a293 83bf
00000030: 5fd1 1dbe 7cb2 f13d 5db6 ebbe ec1b 7a3f
00000040: 98ea b2bd bf19 d8be 9e9b c63e 3b47 54bf
00000050: 11da 6cbc 1011 8b3e 3c5e 5f3d 7ee3 133f
00000060: 314c 5e3f 9fb7 1cbf a689 183e 604c 88bf
00000070: 980b df3e f5b6 6a3e 6d09 2f3e fe9c 64bf
00000080: ae7c f23e dab4 e83e 035e c5be 603c 943e
00000090: 4003 073e fb49 34be 7400 673f 22f0 7fbe
000000a0: dc6f 0fbf 4169 ac3f 4857 37bf 577c b83f
000000b0: d9bf 21bf f39d 953e 17af 863f 856a cf3e
000000c0: 0047 133f a935 ac3f 082a 60bf c499 fb3e
000000d0: 1678 12bf 309e 6e3f d660 b63f f5c7 01bf
000000e0: 3b38 cebf 875d 713f cdd5 853e f1f3 4cbe
000000f0: ef86 63bf bc62 773f 419d 37bf cf42 803f
00000100: b1cc 833e 2e74 79be 843d 6ebe 5589 8b3e
00000110: 07db 8d3e eaa7 7e3e 30ce e2bc 38bb 46bd
00000120: 186d 443d d12c 903e 7097 a6bc bc57 fa3d
00000130: f0cd 173d 3a66 4a3e 80f1 b03d fc9a 8bbd
00000140: 2aa9 b1be af20 9f3e 92db 4f3e 03ac 843e
00000150: 089e 023e e104 16be 4d66 00be 3f6c 69be
00000160: f5c5 a23e 5013 063d 5b02 aa3e f0a3 dcbc
00000170: fcef 8d3d 0cae ae3d 00e6 b7bb 251c 8a3e
00000180: dfb6 9b3e fe6e 3d3e acd7 c43d 5444 36be
00000190: 9b66 a53e 2578 b13e 00f5 f13a e0a6 bcbc
000001a0: b698 09be 4707 9a3e ccc2 fe3d de0b 8ebe
000001b0: 2b06 28be 195e 9d3e 26e6 40be 2041 00bc
000001c0: c0aa 78bc 80c6 443d cd45 9a3e aef6 613e
000001d0: 80b0 b3be 3ca0 ab3d 938a a33e 4344 a53e
000001e0: 5d16 a1be b665 3ebe faf5 173e 4002 64bc
000001f0: fc94 73be 6e60 6b3e ea30 0b3e 0202 313e
00000200: ad70 953e 2a74 8e3f 5c86 0cbf 215a f63e
00000210: f5f6 873e b52a 4e3f 57c7 533e f3e0 f8be
00000220: ae25 28bf 9bb0 1cbf 6f85 463f 8dfb d3bf
00000230: 2854 3e3d 265b adbe 36b4 5cbf 1a4e c33f
00000240: b69f b7bd c86d fd3d 82b0 18bf 1c58 3c3f
00000250: 8760 b3be 34c8 2abd 915c 283f 4656 1fbf
00000260: 6ba4 b8bd 94b0 4dbd cef4 8a3e 2139 5e3f
00000270: 39b7 35be 3d7e 28be 77fe cc3d 5b35 163e
00000280: b8aa ffbe 4a47 86be 6c3d 153f 5600 b1bf
00000290: ded5 ca3c 97fc 2abf f7ce cbbe cfed 8a3f
000002a0: 2bdc 94bf e601 74bf 2efc 963f 4601 dcbf
000002b0: 5d59 44be d41f d1bd 7945 7dbf 28c3 e03f
000002c0: 68b7 893f 3eae 153f b356 a9bf 130f fb3f
000002d0: 4f35 9b3e 2e88 2dbe c7a0 563f 15d3 babf
000002e0: 77c6 5c3f 9288 bf3e 4fce 5cbf a186 8b3f
000002f0: d8e0 eebc 6c3c 2c3e 37e8 673f 3b51 c1bf
00000300: 4206 1f3f 2357 b93d 34a7 bbbd 97b0 ea3e
00000310: a7bb 12be 72d0 713f 7557 613e 2261 74bf
00000320: db9e a0be 4f01 15bf 535c 3b3f 6219 bebf
00000330: a7e2 99bc 84bd 6abe debe b9be 1171 7b3f
00000340: 90c0 043f fdb7 29bf 1c91 e73e b819 1dbf
00000350: 3f4e dc3e 30d2 703f 0eaf 9abe cc8d b33e
00000360: 1ade 343f 01aa ff3c 8099 d8be f0c9 83bf
00000370: 8a41 043f 6771 2f3e 6848 5ebe b593 1abd
00000380: e246 963f 1663 df3e 9423 4cbe 2f25 63be
00000390: 1ace 1fbe a2d1 733e 16e4 2a3f d377 eebe
000003a0: 7bea 62bf 1b0b 943f 49f8 e8be 8273 833f
000003b0: 4df3 f9be b23a 7b3f 8789 773f 5d28 9d3e
000003c0: 37f1 4f3f 310c cc3f 2d15 11bf e256 1ebb
000003d0: 6b4f a7bd df21 743f 4976 b53f ba2b 7abf
000003e0: 7230 cdbf 7bad 1c3f ee3d dc3e 4e46 89be
000003f0: bddd a2be 5ff8 753f 5603 95bf 54b7 a43f

lstm.weight_hh_l1 f4 [32, 8]
0.09717521 0.14283103 0.028244585 -0.27520707 -0.31539503 0.19339117 0.24723408 0.14123178
-0.115182534 -0.14701386 0.3008413 -0.11096178 0.096428186 0.27410808 0.1949844 0.17435297
0.35116503 0.056435883 0.1607202 -0.29333857 -0.17824727 -0.04396838 0.23769662 -0.27484697
-0.25284404 0.18744269 0.25039062 -0.23334774 0.056218237 0.03138566 -0.32006073 -0.15170603
-0.31430572 0.15996882 -0.28648052 0.20700338 -0.25777596 -0.20092735 -0.3459504 -0.1456909
-0.0283252 -0.030124545 0.25638375 -0.12946361 -0.28769216 -0.21197306 0.014506906 -0.031942934
0.015822649 -0.1131503 0.05788961 0.10576847 0.17914698 0.15721539 0.35201088 0.0043248236
-0.29797122 0.3060595 0.0015763342 -0.21569775 -0.14135139 -0.08767435 -0.24973378 0.25132045
-0.020266265 0.17375681 0.21623048 0.33662215 0.1595389 0.13382879 -0.1483052 -0.058505684
-0.022423923 -0.07986656 -0.27381325 0.05875507 -0.25202236 -0.31460482 -0.12675601 -0.10063091
0.061989546 0.2056655 0.061278194 0.19365105 -0.23341602 0.1998181 -0.2596433 -0.08937794
-0.14865054 0.29542688 -0.04450193 -0.31007445 -0.08456415 0.11932692 -0.04984346 -0.028825313
0.28533038 -0.19929461 0.07903713 0.049582005 0.33222368 0.01436761 0.01474604 0.16120127
0.005709201 -0.2813329 -0.29183063 0.010078818 0.22978309 -0.20022674 -0.04273942 0.05065036
-0.19127187 -0.09159109 -0.09957948 0.29506168 -0.14521149 0.17709544 -0.07922009 0.25250575
-0.0294528 0.18997458 -0.2498729 0.10979891 0.31960526 -0.21252148 0.26990405 -0.27267468
0.11186424 0.30866137 0.049403727 -0.08843273 0.04394701 0.12988862 -0.3129472 -0.29658312
-0.34212282 0.12597376 0.057646275 -0.34714857 -0.24186435 -0.19706956 -0.24125892 -0.31039542
0.3012471 -0.08649698 -0.12490712 -0.25916165 -0.069333196 0.12875298 0.22246596 0.24455854
0.30657324 0.15559408 -0.08154762 -0.015679061 0.22239587 0.2530211 -0.22631487 0.3355892
0.13099888 0.20106468 0.1585522 0.0062081814 0.09239903 0.32309029 -0.0770095 0.26890662
-0.13471663 -0.019187093 -0.2403113 0.29291728 -0.27712867 -0.28159758 -0.29519913 -0.100753516
0.33597705 -0.053329587 0.24864766 0.32304952 -0.16739109 -0.2989507 -0.17209072 0.09594986
0.10417411 0.2387276 -0.17185529 0.04965931 -0.3132324 -0.04420808 0.082520366 0.3386478
-0.002575159 0.22621903 -0.12710752 -0.06513879 0.14095658 -0.25342217 0.048941225 0.019299626
-0.2724411 0.014069289 -0.14027141 0.19170025 0.32909724 0.2787905 0.12367499 -0.27446508
0.25766304 -0.0856466 -0.17351769 0.09089878 -0.25737953 0.25247845 0.24681613 0.11010638
0.014980286 0.33080736 -0.34091046 -0.29231173 -0.24839582 -0.25683367 0.2325767 0.040957093
0.24251649 0.04292345 0.10675076 -0.21942163 -0.23782694 -0.3195885 0.1933246 0.02103293
-0.21943879 0.20191202 0.16499689 0.15232834 -0.34096467 -0.27058613 -0.18793145 -0.28831816
-0.13569473 0.12193552 -0.12424879 -0.09166968 -0.111839905 0.1752607 0.32042912 0.13383728
-0.24283522 -0.329638 0.08282691 -0.17093544 -0.18668596 -0.020212233 0.07338512 -0.21491423
00000000: cc03 c73d 4c42 123e 3061 e73c f1e7 8cbe
00000010: 757b a1be 5608 463e ee2a 7d3e 109f 103e
00000020: d2e4 ebbd cd8a 16be df07 9a3e ee3f e3bd
00000030: 247c c53d e557 8c3e fea9 473e 9689 323e
00000040: e7cb b33e 5029 673d d693 243e 7930 96be
00000050: 7486 36be 3018 34bd be66 733e beb8 8cbe
00000060: c674 81be faf0 3f3e 3333 803e b6f2 6ebe
00000070: 1845 663d 408e 003d 00df a3be d358 1bbe
00000080: aeec a0be dece 233e 93ad 92be b2f8 533e
00000090: 36fb 83be e6bf 4dbe 6920 b1be ff2f 15be
000000a0: 400a e8bc c0c7 f6bc bb44 833e 1c92 04be
000000b0: 634c 93be 770f 59be 60ae 6d3c 98d6 02bd
000000c0: 809e 813c 58bb e7bd a81d 6d3d 249d d83d
000000d0: 4e72 373e 12fd 203e c53a b43e 40b7 8d3b
000000e0: af8f 98be d5b3 9c3e 009d ce3a dfdf 5cbe
000000f0: 6bbe 10be 9c8e b3bd 36ba 7fbe 13ad 803e
00000100: 7005 a6bc 4eed 313e 866b 5d3e bd59 ac3e
00000110: 2a5e 233e 6a0a 093e 51dd 17be a8a3 6fbd
00000120: 60b2 b7bc 1491 a3bd 4031 8cbe 28a9 703d
00000130: 1309 81be e213 a1be 54cc 01be 9417 cebd
00000140: c0e8 7d3d fa99 523e d8fe 7a3d 764c 463e
00000150: 9c04 6fbe 1e9d 4c3e f7ef 84be c80b b7bd
00000160: d937 18be 3142 973e a847 36bd 14c2 9ebe
00000170: f82f adbd ac61 f43d a828 4cbd 1023 ecbc
00000180: d316 923e e313 4cbe 38de a13d 8016 4b3d
00000190: 3919 aa3e 2066 6b3c 6099 713c f211 253e
000001a0: 4014 bb3b de0a 90be d36a 95be a021 253c
000001b0: 424c 6b3e 3d08 4dbe 880f 2fbd c076 4f3d
000001c0: c6dc 43be 1c94 bbbd 54f0 cbbd 5312 973e
000001d0: 52b2 14be 8258 353e 243e a2bd 6f48 813e
000001e0: 0047 f1bc b288 423e aede 7fbe 40de e03d
000001f0: 4da3 a33e 3b9f 59be dd30 8a3e 049c 8bbe
00000200: 1419 e53d dd08 9e3e 905b 4a3d 381c b5bd
00000210: c801 343d 8601 053e 9e3a a0be bed9 97be
00000220: b92a afbe 44ff 003e 801e 6c3d 75bd b1be
00000230: 4aab 77be 9acc 49be 940c 77be 26ec 9ebe
00000240: 0f3d 9a3e 5425 b1bd 4ecf ffbd d6b0 84be
00000250: 90fe 8dbd d2d7 033e 1ece 633e 8e6d 7a3e
00000260: 2bf7 9c3e 0e54 1f3e 7002 a7bd 6071 80bc
00000270: bebb 633e fb8b 813e 16bf 67be 59d2 ab3e
00000280: 9224 063e e6e3 4d3e 825b 223e 006e cb3b
00000290: b43b bd3d 176c a53e 28b7 9dbd 21ae 893e
000002a0: 28f3 09be 402e 9dbc 2a14 76be 41f9 953e
000002b0: cfe3 8dbe 8f2d 90be 5724 97be dc57 cebd
000002c0: 2f05 ac3e 2070 5abd 7e9d 7e3e bf66 a53e
000002d0: 9268 2bbe 1110 99be 8d38 30be 5c81 c43d
000002e0: 3c59 d53d 0275 743e d5fa 2fbe 9067 4b3d
000002f0: ff5f a0be 8813 35bd 7000 a93d 3f63 ad3e
00000300: 00c4 28bb f6a5 673e 7928 02be 7c67 85bd
00000310: ec56 103e 8dc0 81be 9876 483d 401a 9e3c
00000320: 667d 8bbe e082 663c 4fa3 0fbe 124d 443e
00000330: 6f7f a83e a1bd 8e3e 5049 fd3d b086 8cbe
00000340: 69ec 833e 7c67 afbd 9fae 31be 2429 ba3d
00000350: 40c7 83be db44 813e 5ebd 7c3e 747f e13d
00000360: e06f 753c 955f a93e d18b aebe e2a9 95be
00000370: 795b 7ebe b47f 83be 9628 6e3e a0c2 273d
00000380: 3e56 783e 80d0 2f3d 24a0 da3d 10b0 60be
00000390: e888 73be 1ba1 a3be e2f6 453e 404d ac3c
000003a0: 90b4 60be 06c2 4e3e f2f4 283e f6fb 1b3e
000003b0: ec92 aebe 448a 8abe 1a71 40be 709e 93be
000003c0: 8ff3 0abe 54b9 f93d 2676 febd 50bd bbbd
000003d0: 520c e5bd 8a77 333e 490f a43e a40c 093e
000003e0: cca9 78be 50c6 a8be 28a1 a93d b309 2fbe
000003f0: 9b2a 3fbe 2094 a5bc f04a 963d 7a12 5cbe

lstm.bias_ih_l1 f4 [32]
-0.53393155 0.54089123 -0.89992946 -0.44639647 -0.37490883 2.1460915 1.475492 0.43196973
-0.061446995 0.048421025 0.23270395 -0.05941108 -0.06887764 0.055658907 0.2923331 -0.059103757
0.077635616 0.095177546 -0.06129501 -0.17923097 0.25946984 0.2954261 -0.31892318 -0.17683992
-0.25913882 0.72578347 -0.6566438 -0.3472579 -0.29801577 2.2203436 1.2997597 0.5396103
00000000: bdaf 08bf d977 0a3f c761 66bf 148e e4be
00000010: 0df4 bfbe 9059 0940 ecdc bc3f 232b dd3e
00000020: d8af 7bbd 2055 463d f249 6e3e 0859 73bd
00000030: b80f 8dbd 98fa 633d afac 953e c816 72bd
00000040: 6cff 9e3d 72ec c23d 7a10 7bbd 5388 37be
00000050: 3bd9 843e 1742 973e e649 a3be 8615 35be
00000060: d8ad 84be f2cc 393f cf19 28bf cacb b1be
00000070: 8695 98be 1c1a 0e40 875e a63f e723 0a3f

lstm.bias_hh_l1 f4 [32]
-0.42466602 0.7881969 -0.77183414 -0.6808867 -0.08724355 2.5842857 1.6802636 0.5923539
0.3195561 -0.036386013 -0.001463592 -0.29636946 -0.30118573 -0.047924668 -0.26147124 0.13349667
-0.046196893 0.23459853 -0.04284813 -0.055278815 -0.17392497 0.042040702 -0.019066041 0.019638175
-0.024393553 0.91775817 -0.5415715 -0.22886214 0.122413866 2.4949672 1.7861185 0.4737139
00000000: d36d d9be 46c7 493f ec96 45bf 974e 2ebf
00000010: bfac b2bd f064 2540 e112 d73f 81a4 173f
00000020: db9c a33e 8009 15bd 00d6 bfba bdbd 97be
00000030: 0435 9abe a84c 44bd 8fdf 85be 5ab3 083e
00000040: f438 3dbd 993a 703e 8581 2fbd 0a6c 62bd
00000050: 6319 32be df32 2c3d 6330 9cbc 3de0 a03c
00000060: fdd4 c7bc 33f2 6a3f 6ea4 0abf d65a 6abe
00000070: 1fb4 fa3d 8bad 1f40 889f e43f a18a f23e

lstm.weight_ih_l2 f4 [32, 8]
1.5576482 2.4658573 0.15484266 -1.4168764 -1.0112339 0.08120459 0.20461066 -0.57488436
1.5157253 1.1297182 -0.4627118 -0.92434865 -1.6643404 0.63137686 -0.08895719 -0.6925566
0.37791198 -1.0055301 -0.11945247 -0.10686968 0.029786 0.9947446 -0.14909135 -0.26291493
2.3227782 2.7538152 -0.8752793 -1.4236041 -1.6143223 0.49693888 0.08316811 -1.255009
0.19341087 -0.20000157 0.3635566 -0.2593535 0.03517812 1.01727 -0.5560892 -0.60809165
-0.23202088 0.34255955 -0.046930518 -0.16064708 0.4584217 1.665698 -1.1066931 -0.61914504
0.5033207 -0.2409727 -0.7478201 -0.61939204 -0.68672955 -1.5221714 1.1854255 -0.023574075
0.1522199 0.7095554 0.2900332 -0.17350842 -0.23249303 2.028747 -1.4394723 -0.3767578
0.32715514 -0.3237925 0.038185716 0.16780058 0.17674342 0.11043978 0.21268001 0.26899114
0.088137835 0.26764664 0.12112683 -0.2550433 -0.051150262 -0.30095905 0.27251068 0.18744436
-0.22626308 0.16831091 -0.33851266 0.112151444 0.13724518 -0.34317094 -0.16405399 0.082214296
0.01919511 -0.013926864 -0.016066462 -0.29361638 0.25710097 -0.21651189 0.2810932 -0.34472686
0.19325861 0.13285187 0.19479653 0.03563437 0.16713044 -0.21394381 -0.007983625 -0.18464492
-0.010143518 -0.33509564 0.01797077 0.2568811 -0.20541863 0.15699598 -0.04796064 0.11696568
0.28279725 -0.3238677 -0.14678158 -0.03678441 -0.32760185 0.28309318 0.2149829 0.12032172
-0.07099113 0.30387786 -0.30899292 0.15491328 0.1001353 0.32542786 -0.029639512 0.30916855
-0.058186863 0.83914655 0.22397216 0.23834679 -0.13486786 2.4141316 -1.7960117 -0.7053259
-0.01940543 -0.7975826 0.14830928 -0.22099091 -0.3364235 -2.742252 1.7333244 1.0967934
-0.40007332 0.5546442 -0.09781183 0.56355953 -0.18044432 -0.8062072 0.00738867 0.14809439
-0.0051752427 -1.068794 0.01340005 0.14663085 -0.21994199 -2.9758112 1.8595877 0.881772
-0.4464257 0.3345562 -0.0077883997 -0.4279586 0.18600695 2.3159251 -1.1854708 -0.53799194
-0.2566804 0.42683083 -0.068322234 0.24698982 -0.10518872 2.2798421 -1.4702226 -0.86957663
-0.26554206 0.8862355 -0.07093997 0.14116362 0.33002466 2.927954 -1.6296238 -0.6640338
0.5180356 -0.49516892 0.36110064 0.035588864 -0.34854117 -2.3235152 1.7744881 0.98156625
1.6729048 2.5172465 -0.23340169 -1.1959951 -0.64076716 -0.08686387 0.425548 -0.4176993
1.9253381 1.1700275 -0.443325 -1.2458982 -1.6197534 0.4191763 -0.31857637 -0.5085552
-0.15001321 -0.56341887 -0.34136546 -0.2436042 0.3307804 1.0203625 -0.281527 -0.40995026
2.2499144 2.7913024 -0.90504396 -1.5844347 -1.5391209 0.24026343 -0.03960128 -1.2609667
0.34659427 -0.48653403 0.22613521 -0.03613142 -0.017816974 1.654225 -0.5444227 -0.27062312
0.17266552 0.16740736 0.11867212 -0.668531 0.15802476 1.6628591 -1.2641691 -0.73599064
0.7564431 0.3257833 -0.59714895 -0.3829328 -0.75508195 -1.5724573 0.7335279 0.3665934
0.068122804 0.68514216 -0.09923752 -0.74419993 0.08611298 2.3192172 -1.4234229 -0.7875396
00000000: 0461 c73f 9bd0 1d40 138f 1e3e 355c b5bf
00000010: 1d70 81bf 984e a63d 7585 513e 9f2b 13bf
00000020: 4903 c23f 9b9a 903f 90e8 ecbe 1da2 6cbf
00000030: 1b09 d5bf eaa1 213f 302f b6bd 644b 31bf
00000040: ae7d c13e 36b5 80bf 7fa3 f4bd 7ede dabd
00000050: c501 f43c 95a7 7e3f 67ab 18be c99c 86be
00000060: 66a8 1440 823e 3040 4e12 60bf a938 b6bf
00000070: 1da2 cebf c66e fe3e 0b54 aa3d 23a4 a0bf
00000080: 800d 463e 36cd 4cbe 1724 ba3e fbc9 84be
00000090: ef16 103d e735 823f dd5b 0ebf e5ab 1bbf
000000a0: e296 6dbe f763 af3e 373a 40bd ab80 24be
000000b0: 40b6 ea3e 9835 d53f 1fa8 8dbf 4a80 1ebf
000000c0: a0d9 003f 8cc1 76be 2371 3fbf 7a90 1ebf
000000d0: 82cd 2fbf 83d6 c2bf 06bc 973f 6b1e c1bc
000000e0: 89df 1b3e 6ca5 353f 3b7f 943e 31ac 31be
000000f0: a712 6ebe fed6 0140 a140 b8bf 66e6 c0be
00000100: e180 a73e 21c8 a5be a068 1c3d ead3 2b3e
00000110: 3afc 343e 402e e23d cac8 593e 35b9 893e
00000120: 9c81 b43d fb08 893e 5811 f83d 0995 82be
00000130: f082 51bd 4e17 9abe 8586 8b3e 6af1 3f3e
00000140: 82b1 67be b259 2c3e 8851 adbe a8af e53d
00000150: 008a 0c3e 1ab4 afbe c5fd 27be f85f a83d
00000160: 103f 9d3c 802d 64bc d09d 83bc e354 96be
00000170: bda2 833e 4bb5 5dbe 73eb 8f3e 0a80 b0be
00000180: 96e5 453e 520a 083e be78 473e 58f5 113d
00000190: 3e24 2b3e 1614 5bbe c0cd 02bc 8f13 3dbe
000001a0: 0031 26bc a891 abbe 7037 933c eb85 833e
000001b0: 4359 52be 8ec3 203e 6072 44bd b48b ef3d
000001c0: cdca 903e fdd1 a5be e94d 16be 40ab 16bd
000001d0: 6ebb a7be 97f1 903e 7a24 5c3e 3c6b f63d
000001e0: cc63 91bd e195 9b3e 5234 9ebe 96a1 1e3e
000001f0: bc13 cd3d 7b9e a63e 90ce f2bc 574b 9e3e
00000200: 5955 6ebd 4fd2 563f f558 653e 2e11 743e
00000210: cd1a 0abe 2281 1a40 b6e3 e5bf 3d90 34bf
00000220: 23f8 9ebc 602e 4cbf 63de 173e 714b 62be
00000230: b33f acbe 0f81 2fc0 93dd dd3f ba63 8c3f
00000240: 69d6 ccbe 2afd 0d3f 9251 c8bd 7045 103f
00000250: 65c6 38be 9863 4ebf a81c f23b 0ea6 173e
00000260: 1595 a9bb 3ece 88bf e28b 5b3c 6626 163e
00000270: 7938 61be b173 3ec0 f806 ee3f cfbb 613f
00000280: e991 e4be f34a ab3e d535 ffbb 641d dbbe
00000290: 9b78 3e3e 1e38 1440 82bd 97bf d7b9 09bf
000002a0: 9d6b 83be 9289 da3e 87ec 8bbd e6ea 7c3e
000002b0: 2f6d d7bd efe8 1140 4130 bcbf 939c 5ebf
000002c0: 21f5 87be 54e0 623f fa48 91bd 328d 103e
000002d0: fef8 a83e 9963 3b40 8397 d0bf 1efe 29bf
000002e0: fb9d 043f c886 fdbe 2fe2 b83e a1c5 113d
000002f0: fd73 b2be 79b4 14c0 6d22 e33f ed47 7b3f
00000300: bf21 d63f 911a 2140 da00 6fbe 5e16 99bf
00000310: 5109 24bf afe5 b1bd 6de1 d93e afdc d5be
00000320: 7b71 f63f 76c3 953f 7ffb e2be 9879 9fbf
00000330: 1454 cfbf 479e d63e 711c a3be ac30 02bf
00000340: 109d 19be 383c 10bf 74c7 aebe 6173 79be
00000350: 0c5c a93e 3d9b 823f 4f24 90be 00e5 d1be
00000360: 99fe 0f40 b3a4 3240 f6b0 67bf c2ce cabf
00000370: ea01 c5bf 9e07 763e f434 22bd 5b67 a1bf
00000380: ce74 b13e fd1a f9be fd8f 673e 8afe 13bd
00000390: e7f4 91bc a5bd d33f 495f 0bbf 1d8f 8abe
000003a0: 3bcf 303e d66c 2b3e 5e0a f33d d924 2bbf
000003b0: 3ed1 213e 91d8 d43f 4bd0 a1bf e269 3cbf
000003c0: 41a6 413f 12cd a63e c1de 18bf c50f c4be
000003d0: 0d4d 41bf 4846 c9bf 7cc8 3b3f 21b2 bb3e
000003e0: f883 8b3d 7a65 2f3f 0a3d cbbd e383 3ebf
000003f0: 015c b03d 0e6e 1440 b932 b6bf 329c 49bf

lstm.weight_hh_l2 f4 [32, 8]
0.04397741 0.27115354 0.24573919 -0.2619493 0.32610694 0.22431716 0.24934271 -0.22454555
-0.12609288 0.29392996 0.2787576 0.04200065 0.26070163 0.254895 -0.07254997 0.20387545
-0.16451925 -0.25222132 -0.19665012 -0.1068123 0.032968014 -0.047046095 0.11987734 0.24064311
0.014170706 0.026946306 -0.09378049 0.3377973 0.0006455183 0.023892373 -0.2901211 -0.045636177
-0.034564555 -0.052557796 -0.13036202 0.1803725 -0.29326785 0.35055372 -0.27791393 0.18743649
0.29160348 0.17159459 -0.20035532 0.041974753 0.3083845 -0.04374945 0.2651101 -0.15827511
0.02229935 -0.30336112 -0.35047644 0.13122067 0.20235619 0.14506632 0.2711518 0.18300429
-0.21251498 0.17279717 -0.052312165 -0.29557377 0.08162433 0.18895116 -0.29891077 0.2738786
0.17066297 0.088443756 -0.10133201 -0.2757068 0.16485032 -0.193415 0.21592972 0.33093676
-0.09255394 -0.3192843 -0.18391135 -0.008073062 -0.15857153 -0.3019953 0.039387494 0.19402364
-0.021097183 0.12696925 -0.3016234 0.3091794 -0.2784373 -0.099782795 0.27742633 -0.31063712
0.2553676 0.14577085 -0.30276233 -0.1762888 -0.2050375 -0.23138258 0.123238295 -0.07425475
0.33267203 -0.13923262 0.19628337 0.09441084 -0.1126264 -0.07903656 0.17467973 0.20822278
-0.2682523 0.27639863 0.26447216 0.34298643 0.34520492 -0.1759606 0.34388348 -0.0880515
0.08134982 0.25883898 -0.024476111 -0.089755535 0.17601076 0.33002236 0.13095704 0.011538386
0.27101675 0.20546785 -0.24593516 0.18242106 0.21849295 0.044510275 0.32466778 -0.1426766
-0.24087316 -0.069456875 0.19332138 -0.32251754 -0.011416525 -0.31811377 0.23140535 -0.06823295
0.13832486 -0.35277733 -0.2962443 -0.3358473 0.2871031 -0.082623124 -0.3002711 0.0024070442
-0.34786758 -0.07857007 0.09950867 -0.014659882 0.08678922 -0.03134179 0.3355823 0.023885548
-0.20190468 -0.0080935955 0.04778087 0.11068386 0.2098796 -0.05703312 -0.31467187 -0.114926025
-0.24796651 0.018067122 0.27461877 -0.31695735 -0.058456838 -0.1066547 0.18102548 0.018411756
0.2272555 -0.086642146 0.18224844 0.083492935 0.19864306 0.23479745 -0.12517214 0.14574018
0.17021587 0.06218493 0.31692407 0.09426656 -0.33016053 0.2246814 0.08442709 0.22242406
-0.2767431 0.14335766 -0.12730004 0.16486052 0.047027916 -0.34010622 -0.23966792 0.13701716
0.14709201 0.24286518 -0.12175593 0.2803463 -0.3503067 -0.34021658 0.14292353 -0.27784058
-0.036839932 0.044395834 -0.24032119 0.07297698 -0.27475122 -0.11913009 -0.21368106 -0.29699898
0.2631016 -0.23455994 0.28893682 0.062000245 0.2760714 0.027280599 -0.22051594 -0.13471742
0.3207818 -0.29254335 -0.17020836 -0.24777508 0.044445127 0.12136108 -0.08876312 -0.20505415
-0.3366721 0.32045856 0.35334727 -0.2874335 -0.23788485 -0.19702551 0.32126835 -0.07286611
0.30576786 -0.106790036 0.2981445 -0.061552107 0.19544807 0.21992609 -0.011326581 0.08399087
-0.2820066 0.04108271 0.10991287 -0.22407594 -0.020237565 -0.3135727 -0.10004738 0.2193906
0.06022975 -0.039337814 0.045899928 -0.04756239 -0.30133858 -0.3440905 -0.03283325 0.3248535
00000000: a821 343d a3d4 8a3e 0ea3 7b3e 381e 86be
00000010: 7df7 a63e 66b3 653e b253 7f3e 45ef 65be
00000020: 7e1e 01be fd7d 963e 51b9 8e3e e008 2c3d
00000030: af7a 853e 9981 823e 1495 94bd bac4 503e
00000040: bc77 28be 2723 81be a65e 49be 68c0 dabd
00000050: 7809 073d 68b3 40bd 4082 f53d 266b 763e
00000060: 402c 683c 80be dc3c fc0f c0bd c5f3 ac3e
00000070: 0038 293a f0b9 c33c c18a 94be 00ed 3abd
00000080: 9093 0dbd d846 57bd 9f7d 05be 92b3 383e
00000090: 3427 96be c77b b33e bc4a 8ebe 5aef 3f3e
000000a0: 0d4d 953e 7eb6 2f3e f229 4dbe b8ed 2b3d
000000b0: 93e4 9d3e a032 33bd 83bc 873e df12 22be
000000c0: 20ad b63c 2652 9bbe a671 b3be b65e 063e
000000d0: 7636 4f3e 448c 143e 69d4 8a3e 7a65 3b3e
000000e0: 879d 59be bef1 303e 4845 56bd 7255 97be
000000f0: a82a a73d 6a7c 413e d50a 99be d139 8c3e
00000100: 46c2 2e3e 0022 b53d 2887 cfbd 7129 8dbe
00000110: 86ce 283e 950e 46be ae1c 5d3e 8b70 a93e
00000120: ec8c bdbd 3b79 a3be 4253 3cbe e044 04bc
00000130: 9360 22be 219f 9abe c854 213d 22ae 463e
00000140: 00d4 acbc 3a04 023e 626e 9abe c34c 9e3e
00000150: 558f 8ebe ec5a ccbd d30a 8e3e d40b 9fbe
00000160: 8bbf 823e f444 153e aa03 9bbe 0d85 34be
00000170: 5af5 51be 8eef 6cbe 5c64 fc3d e012 98bd
00000180: fd53 aa3e ff92 0ebe 82fe 483e 785a c13d
00000190: aca8 e6bd ecdd a1bd 3edf 323e 5a38 553e
000001a0: 5e58 89be 1f84 8d3e e568 873e eb9b af3e
000001b0: b3be b03e 042f 34be 7f11 b03e 5854 b4bd
000001c0: bc9a a63d 8b86 843e 2082 c8bc c0d1 b7bd
000001d0: 2a3c 343e b1f8 a83e 9a19 063e 800b 3d3c
000001e0: b5c2 8a3e 2a66 523e 6dd6 7bbe 96cc 3a3e
000001f0: 9ebc 5f3e 6850 363d db3a a63e d119 12be
00000200: 74a7 76be 683f 8ebd 0af6 453e 0521 a5be
00000210: 600c 3bbc cfdf a2be 86f5 6c3e b8bd 8bbd
00000220: 08a5 0d3e 3b9f b4be 55ad 97be 2df4 abbe
00000230: 2dff 923e 5036 a9bd 22bd 99be 80bf 1d3b
00000240: b31b b2be 58e9 a0bd 34cb cb3d 0030 70bc
00000250: 8cbe b13d 4060 00bd 71d1 ab3e a0ab c33c
00000260: 1ac0 4ebe 009b 04bc e0b5 433d 38ae e23d
00000270: aeea 563e 909b 69bd ac1c a1be 565e ebbd
00000280: efea 7dbe 8001 943c d59a 8c3e 3c48 a2be
00000290: 7070 6fbd c86d dabd be5e 393e 40d4 963c
000002a0: aab5 683e 7071 b1bd 569f 3a3e 58fe aa3d
000002b0: 1669 4b3e be6e 703e 202d 00be ea3c 153e
000002c0: 124d 2e3e a0b5 7e3d df43 a23e d40e c13d
000002d0: cd0a a9be e212 663e 1ce8 ac3d 22c3 633e
000002e0: 46b1 8dbe 5acc 123e f15a 02be 32d1 283e
000002f0: 58a0 403d 6722 aebe 826b 75be 3a4e 0c3e
00000300: 4a9f 163e a6b1 783e 2c5b f9bd 8d89 8f3e
00000310: 665b b3be de30 aebe 8c5a 123e 1f41 8ebe
00000320: 78e5 16bd 68d8 353d c216 76be f474 953d
00000330: 31ac 8cbe 7afa f3bd 35cf 5abe 4010 98be
00000340: 41b5 863e 7b30 70be 87ef 933e f8f3 7d3d
00000350: 3b59 8d3e 907b df3c eece 61be 5df3 09be
00000360: 833d a43e 3ec8 95be 1a4b 2ebe c0b8 7dbe
00000370: 180c 363d 288c f83d 70c9 b5bd b7f9 51be
00000380: 4960 acbe 2513 a43e efe9 b43e 7c2a 93be
00000390: 1698 73be 0ec1 49be 497d a43e d43a 95bd
000003a0: 9b8d 9c3e bcb4 dabd 65a6 983e 101e 7cbd
000003b0: 8a23 483e 4e34 613e 2093 39bc 6803 ac3d
000003c0: 2b63 90be 5846 283d 001a e13d 2a74 65be
000003d0: 40c9 a5bc 9a8c a0be a4e5 ccbd eea7 603e
000003e0: 78b3 763d b020 21bd 9001 3c3d c8d0 42bd
000003f0: 0d49 9abe a12c b0be 287c 06bd 3353 a63e

lstm.bias_ih_l2 f4 [32]
0.7583757 1.0780361 0.76567036 1.9687544 0.25923297 0.20092425 1.0200937 0.27232063
0.34899136 -0.28737402 -0.2516458 0.31039295 0.3478413 -0.18623301 -0.061606497 -0.09744066
-0.30905333 -0.13108262 -0.7996002 0.11335355 0.041493114 0.14544111 -0.058356833 -0.13874844
0.8557805 1.3274274 0.39432204 2.3886743 0.38852862 0.13378233 0.51177424 0.106056005
00000000: e924 423f 16fd 893f f902 443f 2500 fc3f
00000010: 2fba 843e 16bf 4d3e 6e92 823f 9c6d 8b3e
00000020: ffae b23e b022 93be b8d7 80be d3eb 9e3e
00000030: 4118 b23e deb3 3ebe 1857 7cbd f88e c7bd
00000040: 3d3c 9ebe 863a 06be 99b2 4cbf e825 e83d
00000050: aff4 293d 84ee 143e 9307 6fbd 1214 0ebe
00000060: 6e14 5b3f 24e9 a93f 94e4 c93e 0ae0 1840
00000070: 39ed c63e 3cfe 083e a303 033f e433 d93d

lstm.bias_hh_l2 f4 [32]
0.783044 1.3505034 0.85556376 2.5268629 0.74377364 0.55445117 0.4877271 0.49312314
0.057137936 -0.17949407 0.3340216 0.305199 0.2557111 0.09012672 -0.33040607 0.032354623
0.3115246 0.09477634 -1.0681503 -0.10086147 0.10649089 0.10287765 -0.07655157 -0.13696915
0.64010763 1.4705148 0.47012478 1.8806859 0.18228738 0.22652832 0.76137996 0.6225262
00000000: 9275 483f 4cdd ac3f 3a06 5b3f 1fb8 2140
00000010: f367 3e3f 83f0 0d3f 5eb7 f93e a37a fc3e
00000020: 7809 6a3d 4bcd 37be e104 ab3e 0b43 9c3e
00000030: 91ec 823e 5c94 b83d fc2a a9be 4886 043d
00000040: 2780 9f3e 191a c23d 26b9 88bf 7590 cebd
00000050: e517 da3d 84b1 d23d 12c7 9cbd a441 0cbe
00000060: 18de 233f d439 bc3f 32b4 f03e 51ba f03f
00000070: 8ba9 3a3e 0af7 673e cce9 423f e15d 1f3f

lstm.weight_ih_l3 f4 [32, 8]
0.60635155 -0.5003453 0.25727057 -1.900397 0.25555137 0.051020596 0.8538785 -0.57898724
0.89213854 -0.76732504 -1.4953877 -1.1946212 -1.1959926 -0.6155489 0.09499963 0.5394063
-0.061564352 -0.9594855 -1.796693 -0.4597118 0.42911997 0.6044009 -0.65155894 -0.7083829
0.8728629 -1.2004716 -0.5827458 -1.8085567 0.31273407 0.6313378 0.7635456 -0.64877224
0.8117444 -0.4447106 -2.6030438 -1.4235494 -1.5392033 -0.6582344 -0.2612021 0.77902484
1.1249721 -0.8707946 -3.6977901 -1.1106406 -1.6526265 -0.95342344 0.018455451 1.7548871
0.9523765 -0.85003465 -3.4055827 -0.84721154 -1.2201166 -1.1885961 -0.14617546 0.83457047
-0.7015392 0.1671278 0.050457217 0.84538615 0.60267246 0.31225115 -0.15933634 -0.44061923
-0.24291171 -0.10721648 0.3278276 -0.31710765 -0.009108931 0.1321305 0.22779283 0.21898642
-0.014660656 0.22129175 0.291037 -0.27922228 0.24019971 0.29268816 0.044647515 -0.3468869
0.23115209 0.021089762 -0.17784351 0.1301246 -0.16432078 0.023270845 -0.19442163 -0.2005847
-0.072962165 -0.260575 -0.106787756 -0.1704354 0.08374554 0.17028019 0.08334476 0.06443834
0.15380374 0.21422324 -0.2611946 0.33445618 -0.2471892 0.31378344 -0.0819377 0.2999778
0.21799359 -0.19344833 0.16450003 0.130795 -0.18278979 0.099056214 -0.16886501 0.33704165
0.14761487 -0.19421233 0.0999549 0.13702628 -0.033280075 1.1712313e-05 -0.087234735 -0.06457102
-0.027765334 -0.35078216 0.023703128 -0.26423192 0.34981993 -0.122397736 -0.33092225 0.058950573
1.2188591 -0.5537795 -0.424949 -1.7061827 0.4964984 -0.111034565 0.7995705 -0.10346754
-1.7407627 0.9666643 0.21231997 2.9050486 -0.20559506 -0.40946323 -1.2070824 0.6608507
-1.515523 1.5742655 0.12507805 2.7396295 -0.80664396 -0.43588838 -1.0359203 0.91307795
-1.7309097 1.1792527 -0.18804465 2.6552553 -0.2979876 -0.14769313 -0.81700003 0.656849
1.5409691 -1.5712878 -0.34319028 -2.7400262 0.16437916 0.68046564 0.97947043 -0.42268753
-1.9885756 1.595534 0.46478102 3.0154438 -0.6964197 -0.63093424 -0.79628015 0.6695647
1.8772244 -1.6041256 -0.021338383 -2.6197088 0.07357594 0.37485522 1.1868958 -0.8091654
-0.2547965 0.54780835 -0.5174474 0.9375022 0.5603726 0.39176992 -0.04470145 0.039137624
1.0552323 -0.6287732 -0.054061238 -1.430219 -0.017745186 0.4072714 0.6653004 -0.29459617
0.41570482 -0.36302325 -1.4891616 -1.3464826 -0.7536731 -0.053926107 0.041555267 -0.0935241
0.2714421 -0.8396173 -1.4068254 -0.07351487 0.90572006 0.6091161 -0.96707994 -0.7906771
1.0894688 -1.0938655 -0.73339 -1.86574 0.47840148 0.63664865 0.6686585 -1.0320289
0.7919767 -0.6221686 -2.605929 -1.26902 -1.5580223 -0.8534548 -0.2111946 1.0456322
1.4571937 -1.1975856 -4.346991 -1.2055922 -2.4872491 -1.9602354 0.46910182 2.1288636
1.4334836 -0.6027618 -3.8398938 -1.1157894 -1.435389 -1.2888385 0.21064492 1.8425094
-0.70405 0.21697706 -0.09424627 0.7782063 0.7793115 0.5514022 -0.41837987 -0.30340827
00000000: db39 1b3f a116 00bf f8b8 833e 3540 f3bf
00000010: a1d7 823e f9fa 503d c897 5a3f 8238 14bf
00000020: 3163 643f 6a6f 44bf dd68 bfbf 59e9 98bf
00000030: 4916 99bf 9d94 1dbf 2a8f c23d 8816 0a3f
00000040: e72a 7cbd d7a0 75bf 09fa e5bf 585f ebbe
00000050: 9db5 db3e 04ba 1a3f 91cc 26bf 9558 35bf
00000060: f173 5f3f 0ea9 99bf d42e 15bf c97e e7bf
00000070: ae1e a03e 5b9f 213f b977 433f f015 26bf
00000080: 7bce 4f3f 1cb1 e3be 4598 26c0 de36 b6bf
00000090: 9d04 c5bf 0d82 28bf 48bc 85be 2c6e 473f
000000a0: 16ff 8f3f 65ec 5ebf 98a8 6cc0 7929 8ebf
000000b0: 4489 d3bf 8f13 74bf e32f 973c 24a0 e03f
000000c0: f2ce 733f df9b 59bf 11f5 59c0 dbe2 58bf
000000d0: c82c 9cbf eb23 98bf 05af 15be 69a6 553f
000000e0: 1398 33bf 8d23 2b3e 3aac 4e3d 3a6b 583f
000000f0: be48 1a3f 62df 9f3e 1129 23be d898 e1be
00000100: d9bd 78be 5094 dbbd 05d9 a73e ef5b a2be
00000110: a03d 15bc 384d 073e 8642 693e fa3d 603e
00000120: 4033 70bc 4e9a 623e cd02 953e 39f6 8ebe
00000130: eaf6 753e 39db 953e 50e0 363d 299b b1be
00000140: 22b3 6c3e 70c4 ac3c 9c1c 36be 623f 053e
00000150: b543 28be 80a2 be3c 7716 47be 1366 4dbe
00000160: 306d 95bd 166a 85be 8ab3 dabd 9e86 2ebe
00000170: c882 ab3d ee5d 2e3e a8b0 aa3d 40f8 833d
00000180: ba7e 1d3e 565d 5b3e 4cbb 85be d73d ab3e
00000190: 2a1f 7dbe 39a8 a03e f4ce a7bd b196 993e
000001a0: b639 5f3e 5217 46be b272 283e 20ef 053e
000001b0: 3f2d 3bbe fcdd ca3d f3ea 2cbe b990 ac3e
000001c0: 5a28 173e 99df 46be 28b5 cc3d 9e50 0c3e
000001d0: b050 08bd 0080 4437 20a8 b2bd d03d 84bd
000001e0: 2074 e3bc b899 b3be 102d c23c 6849 87be
000001f0: 991b b33e aaab fabd a46e a9be 2876 713d
00000200: 9303 9c3f 7ec4 0dbf ea92 d9be 3264 dabf
00000210: 0a35 fe3e 1766 e3bd a7b0 4c3f cae6 d3bd
00000220: 50d1 debf 5077 773f 686a 593e 51ec 3940
00000230: 8387 52be 2aa5 d1be ad81 9abf 832d 293f
00000240: a8fc c1bf 8881 c93f 7614 003e 1756 2f40
00000250: 3880 4ebf c32c dfbe 0999 84bf 7abf 693f
00000260: 738e ddbf c1f1 963f c78e 40be b4ef 2940
00000270: d591 98be de3c 17be ea26 51bf 4227 283f
00000280: 7a3e c53f f51f c9bf a3b6 afbe 975c 2fc0
00000290: 0353 283e ff32 2e3f 93be 7a3f 806a d8be
000002a0: a589 febf 753a cc3f c7f7 ed3e 08fd 4040
000002b0: 9048 32bf e884 21bf 04d9 4bbf 9868 2b3f
000002c0: e448 f03f fd53 cdbf d5cd aebc 4fa9 27c0
000002d0: fcae 963d 06ed bf3e 34ec 973f 7725 4fbf
000002e0: b074 82be 2b3d 0c3f 6f77 04bf 2500 703f
000002f0: 9474 0f3f 1196 c83e de18 37bd c64e 203d
00000300: da11 873f 48f7 20bf 516f 5dbd 6b11 b7bf
00000310: 5a5e 91bc e085 d03e 2151 2a3f 4fd5 96be
00000320: 43d7 d43e 2fde b9be d99c bebf 8b59 acbf
00000330: b8f0 40bf 9fe1 5cbd db35 2a3d 9089 bfbd
00000340: 75fa 8a3e 29f1 56bf db12 b4bf f78e 96bd
00000350: 45dd 673f 08ef 1b3f 8d92 77bf d069 4abf
00000360: b773 8b3f c903 8cbf 72bf 3bbf 91d0 eebf
00000370: 0af1 f43e 68fb 223f 342d 2b3f 8619 84bf
00000380: fcbe 4a3f 7146 1fbf 8ac7 26c0 3f6f a2bf
00000390: 466d c7bf 047c 5abf 6643 58be 47d7 853f
000003a0: 5385 ba3f 7c4a 99bf 8d1a 8bc0 d850 9abf
000003b0: 172f 1fc0 fee8 fabf 1d2e f03e 4d3f 0840
000003c0: 647c b73f 994e 1abf d2c0 75c0 30d2 8ebf
000003d0: d4ba b7bf a9f8 a4bf 4db3 573e 59d7 eb3f
000003e0: 9f3c 34bf 3c2f 5e3e 3004 c1bd 8738 473f
000003f0: f580 473f b228 0d3f e335 d6be 5458 9bbe
