ModelSave60.pt (torch_old, 30741 bytes, 45 tensors)

lstm.weight_ih_l0 f4 [32, 6]
00000000: 368e 6a3f 5297 453e 1604 6bbf 71fa 013e
00000010: 37d8 0140 daf5 12c0 c5e7 193f b03c debf
00000020: dda4 343e e694 a23f 7f67 b5bf 2c03 43bf
00000030: 4917 53bf 1d9d 2fbe 3fba 7b3f a29e 313f
00000040: 086c b4bf 8f7d c23f 8b55 4bbe 4942 76bc
00000050: 787f b43f e8e3 a23c 5716 ffbf 2bcb c53f
00000060: 47a0 563e e2d6 e5bb d5d1 5fbf 5d75 39be
00000070: 2966 2a3f d4b6 2d3f 3741 1bbf 1454 f03e
00000080: 7a14 8fbe 431e 33bf 0820 dbbe 54db 253e
00000090: f0f6 28bf b6a8 303e c690 0940 7d20 0f3e
000000a0: 68ce cd3e 4870 0b40 6a82 833e 59fa d3bd
000000b0: c137 0dbf be95 22bf fbd1 0340 49b9 4bc0
000000c0: 0aef 4c3e 80fb b6bd 10da abbe c0ff e8bd
000000d0: 5002 75bd 389a d53d 101b a03c 2ced db3d
000000e0: a90c ae3e 5e13 5d3e 170f b0be 72b9 043e
000000f0: c244 89be ecf0 8fbd 888c 76bd d9fd 83be
00000100: 99c2 3bbe 571a 48be 7621 023e 0016 7a3c
00000110: c429 f0bd 4061 833c d975 a13e 5c40 9bbe
00000120: f1d2 ae3e 7add 6d3e 3ada acbe d602 62be
00000130: e619 513e 226f 013e 80f6 3a3c 301a 90bc
00000140: ae60 1e3e 2c5b 123e c27b 5c3e a06b 303c
00000150: 350d 913e 69c7 8fbe b982 953e 7387 8f3e
00000160: 90dd b33c b12c b3be 581a 6fbd adae 9b3e
00000170: 5a08 f4bd 2d30 38be c1fe acbe 2830 64be
00000180: 5897 3ebe 009e 03be 3b64 903f 39d5 7c3e
00000190: d4b8 cabf ebc1 ba3f 0e56 78be e77e 86bf
000001a0: b2ed 6d3f 6100 13be db34 5d40 1cfc e83e
000001b0: 0f0b 91be c938 053f 1b8d c8bf 8678 09bf
000001c0: 119f b93e 5902 f53f d95e 053e 32c8 a1be
000001d0: 3673 0940 ebc4 ae3f c53f a93f 8bc6 91be
000001e0: e3ed 82be 6c21 6ebf 2a41 d53e c415 913e
000001f0: 396b 17bf ea5d 50bf bb70 d1be 8b14 1ebf
00000200: 6c77 f5be 20c3 b7be 41f6 42be fdd2 2b3e
00000210: 37c5 643e 5459 dbbe 4bf7 813f c7c8 3d3f
00000220: cd32 a0bf 620f f9bf 816f 423d 19e3 0c3f
00000230: 9a4b e6bf 4947 17bf 42ca 863f 65b1 9fbf
00000240: aba2 133f cea6 873e bb69 74bf fd3d 9abe
00000250: c46f 1f40 6204 17c0 7962 a0bd f5b2 0cc0
00000260: 104d 4a3f 51cd 733f be42 c5bf 4a8d ef3e
00000270: d399 a4be 8856 b63c 9f54 673f 7003 6f3e
00000280: 27a2 a03f bf98 e83f 2e45 56be 6c50 d5bc
00000290: b045 b13f 0641 edbe 2cb4 ffbf 4238 9a3f
000002a0: 5bca a43d 1a2a 393d 874e abbf 3622 d2be
000002b0: 3e56 823f faac 833f 859f 06bf 4350 80bd
000002c0: 54e1 05bf 9f49 54bf cfde b9be 14cd 813e
000002d0: d2eb 47be f121 6c3e 4fdf b93f 1940 d2bd
000002e0: bf43 c73f b8bd c93f f3fb 233f 7e7a 4d3e
000002f0: 9b92 82bf 75ab 44be f1d4 1b40 e77c 3bc0
0.91623247 0.19296005 -0.9180311 0.12693192 2.0288217 -2.2962556 0.6011928 -1.736227
0.17641015 1.270169 -1.417221 -0.76176715 -0.82457405 -0.17149778 0.98331064 0.6938268
-1.4095469 1.5194567 -0.19856851 -0.015030452 1.41014 0.019884065 -1.9928693 1.5452627
0.20959578 -0.0070141414 -0.87429553 -0.18111177 0.66562134 0.678571 -0.60646385 0.46939147
-0.2794531 -0.6996805 -0.42797875 0.16196948 -0.66001797 0.17251858 2.1494613 0.13977237
0.40196538 2.178728 0.25685436 -0.103504844 -0.551632 -0.6350974 2.0596912 -3.183184
0.20013061 -0.089346886 -0.33564806 -0.113769054 -0.05981666 0.104298055 0.019544154 0.10738596
0.33994034 0.21589419 -0.34386513 0.12961367 -0.2681027 -0.07028374 -0.060192615 -0.25779608
-0.18335952 -0.19541298 0.12708077 0.015264034 -0.11726716 0.016037583 0.31535223 -0.3032254
0.3414531 0.23229018 -0.33760244 -0.22071394 0.20420036 0.1264005 0.011411309 -0.017590612
0.15466568 0.14292592 0.21531585 0.010767847 0.2833039 -0.28081825 0.29201296 0.28033027
0.021956235 -0.34995034 -0.058374733 0.30406705 -0.119156554 -0.17987128 -0.33788112 -0.22283995
-0.1861242 -0.12853241 1.1280588 0.24690713 -1.5837655 1.4590429 -0.24251577 -1.0507478
0.9294082 -0.14355613 3.456351 0.45504844 -0.2832875 0.5203977 -1.5668062 -0.5369953
0.3625417 1.9141341 0.13024463 -0.3159805 2.147657 1.3653845 1.3222586 -0.2847179
-0.25572118 -0.9301975 0.4165128 0.28336918 -0.59147984 -0.813933 -0.4090632 -0.61750096
-0.47942674 -0.35891056 -0.19039251 0.16779704 0.22340856 -0.4284159 1.0153593 0.74134487
-1.2515503 -1.945782 0.04746962 0.55034024 -1.7991822 -0.5909315 1.0530474 -1.2476012
0.57670087 0.2649445 -0.9547383 -0.30125418 2.4911966 -2.3596425 -0.07831282 -2.1984227
0.7902384 0.9523516 -1.5410993 0.46787483 -0.3214861 0.022258058 0.90363497 0.23341155
1.2549485 1.8171614 -0.20924827 -0.026039325 1.3849392 -0.4633867 -1.9976859 1.2048419
0.08046409 0.045206167 -1.338334 -0.41041726 1.0182569 1.0287163 -0.5258716 -0.06265309
-0.5229695 -0.82924837 -0.36302802 0.25351775 -0.19523552 0.23059823 1.4521273 -0.10266132
1.556755 1.5761023 0.6405632 0.20066258 -1.020099 -0.1920603 2.434872 -2.9294984

lstm.weight_hh_l0 f4 [32, 8]
00000000: dd53 9dbe eaa0 763e d1dc 803e 60ba a73c
00000010: 249a 32be 5e0c a3be a019 003d b2d2 293e
00000020: a4b1 9abe c890 5cbd 80a2 393b ecf4 8abd
00000030: 16f7 473e 5b5f b23e 3e58 46be e027 4abd
00000040: 40c8 be3b 8cfe 9bbe 20f6 c4bc bd24 24be
00000050: aed8 523e 709a cf3d 21c0 b1be c805 47be
00000060: a060 ab3c be98 6d3e 1383 ac3e c0d3 e03b
00000070: b639 3f3e 6923 28be f8ee 01bd dfa5 1cbe
00000080: a177 14be 0f22 893e f8d9 2cbe 2b2e 60be
00000090: 6ee1 4fbe 0c17 b2bd 12d3 33be 2fa3 a63e
000000a0: 2d6c 983e dec4 84be d923 73be b050 54bd
000000b0: 42bd 87be ec8c 86be 24ee 96be 0090 b73d
000000c0: 2b3e b13e 51fa 983e 80fa aa3b 208d b3bd
000000d0: 261e 393e 7633 7f3e b7b8 ac3e fe20 0b3e
000000e0: 88d9 43bd 9155 873e 2015 b83d 0896 203d
000000f0: f3b9 85be 5f35 9d3e 5c83 dcbd 8282 08be
00000100: 2683 8bbe 857a a33e fe4b 8ebe 8064 fc3c
00000110: 29a3 863e a27c 653e a030 5abd 6299 473e
00000120: 9d09 ae3e 44f1 5fbe 5017 b2be be81 273e
00000130: e980 a6be 7099 0bbd a6db 1a3e e282 5d3e
00000140: a08f 713c 788d c1bd f27b 6e3e 1379 06be
00000150: e674 1f3e 0ee4 19be f4be afbd 9fab a53e
00000160: 6050 77bc a9b4 91be 1178 7ebe 0dc8 b23e
00000170: d4e1 fd3d 20dd a1be 56ca 263e beec 3a3e
00000180: b710 b23e 924f 76be 582f 4d3d 23d0 813e
00000190: cca6 ea3d a888 93be ba58 5d3e 705c e73d
000001a0: b0c6 54be 61c1 943e d7f4 88be 5fc3 8dbe
000001b0: a0ca ac3c 3c62 a6bd dafe 3cbe 025b 363e
000001c0: 3cb6 35be 02db 0cbe 202a c3bc 70ee ea3d
000001d0: 170e 56be 338a a53e ecc3 b8bd 3837 09bd
000001e0: 04b5 0d3e 29e1 a43e cc00 043e b823 5dbd
000001f0: 444e d73d 29b5 80be 9492 0d3e b2dc 1f3e
00000200: 0671 dbbd ae6a 81be bad8 2b3e 2854 bbbd
00000210: f4c8 adbd 4432 973d a88c 83be a2cb 57be
00000220: 4e4e 553e 7564 9a3e 944c cd3d cc70 b33d
00000230: acd9 9dbe 7cc0 a83d 3af3 1a3e 9772 0cbe
00000240: 09e8 963e 7154 8e3e fcd4 6fbe e610 47be
00000250: 30c9 84be f1e3 943e bc84 c33d 0c3a c23d
00000260: ffe3 a43e ad02 04be e833 08bd e043 6ebd
00000270: 44b4 c73d 0978 99be a431 a8be e423 c13d
00000280: e30d 803e bd47 963e 609d 91be e217 fdbd
00000290: f472 9fbe 0035 4a3d f098 cabd f1a2 80be
000002a0: 6637 5d3e 80c8 08bb 3472 95bd 1892 70bd
000002b0: 18d2 47be 40a8 2f3c 0002 61bc 37dc b33e
000002c0: d4d8 c93d 2034 c33c 106d 913c b445 9abe
000002d0: 36f2 423e 8804 7d3d 47cb 8c3e c504 16be
000002e0: 692f b23e 001b c3bc 852e 8d3e 90f4 0abe
000002f0: 00da d63a 7f2e a2be 8b43 883e f607 82be
00000300: d27e 6e3e a6a2 6b3e 7507 8dbe daec 613e
00000310: 331c a9be a049 6c3d e242 213e d7c2 923e
00000320: ae19 163e ec30 9c3d 50ef e4bc 60ff 763d
00000330: 7aa3 503e c74d 813e 3c50 31be af87 07be
00000340: 6426 c9bd e42a fc3d 3453 ddbd a403 e73d
00000350: d590 8a3e 015c a43e 2016 b1bc cf28 893e
00000360: b2ed 9cbe 1dd8 8abe 2041 83bc 4944 1dbe
00000370: a68e 363e f6ec 9fbe 004e 7c3a c46d 133e
00000380: e644 ebbd fe54 303e 382e 833d e85a 86bd
00000390: a68c 1d3e 6c19 11be 6576 4abe 7431 a53d
000003a0: 54ac 83bd c681 a0be 2613 6a3e 9711 93be
000003b0: c827 2a3d f09a fabc 16b5 1f3e b44e cc3d
000003c0: 7c7d 903d 38d9 373d da77 1c3e 2c1a c8bd
000003d0: c8a1 f2bd 7ac5 053e 0688 5ebe a05e 6fbe
000003e0: f673 373e f537 97be 1586 68be 40a2 c73b
000003f0: c016 2cbd f845 2dbd c2ae 643e bd93 55be
-0.30728045 0.24084821 0.2516847 0.020474613 -0.17441612 -0.31845373 0.031274438 0.1658428
-0.30213654 -0.05384901 0.0028325617 -0.067849964 0.1952785 0.34838375 -0.19369599 -0.049354434
0.0058222115 -0.3046764 -0.024043143 -0.1602964 0.20590469 0.101368785 -0.34716895 -0.19435799
0.020920098 0.23202798 0.33693752 0.00686118 0.18674359 -0.16419758 -0.03172204 -0.1529765
-0.1449876 0.26783797 -0.16880023 -0.21892612 -0.20300838 -0.08695802 -0.17560986 0.32546374
0.29770032 -0.25931448 -0.23744144 -0.051834762 -0.2651158 -0.2627939 -0.29478562 0.08963013
0.34617743 0.29878476 0.00521785 -0.08767152 0.18077907 0.24921975 0.33734676 0.13586804
-0.047814876 0.2643247 0.08988404 0.03920558 -0.2611843 0.3070478 -0.10767242 -0.13331035
-0.27248496 0.31929412 -0.27792352 0.03080964 0.26296356 0.22410825 -0.05326903 0.19492105
0.3399171 -0.2186938 -0.3478341 0.16358086 -0.32520226 -0.034081876 0.15122852 0.21631959
0.0147437155 -0.09450811 0.23289469 -0.13132124 0.15571937 -0.15028402 -0.08581343 0.323575
-0.0150948465 -0.28458145 -0.24850489 0.34918252 0.12396589 -0.31614017 0.16288123 0.18254372
0.34778377 -0.24053791 0.05009398 0.25354108 0.11457595 -0.28815198 0.21615878 0.11296928
-0.20778918 0.29053786 -0.26749298 -0.2768812 0.021092713 -0.081242055 -0.18456593 0.17808154
-0.17745298 -0.1375542 -0.023823798 0.114712596 -0.20903812 0.32332 -0.09021744 -0.033499926
0.13838583 0.32203034 0.12890929 -0.053989142 0.10512975 -0.25138214 0.13825446 0.15611532
-0.10714917 -0.25276703 0.16781893 -0.09146911 -0.084855944 0.07382634 -0.2569325 -0.21073774
0.20830652 0.30154768 0.10024372 0.08761749 -0.30830133 0.082398385 0.15131846 -0.13715588
0.29473904 0.277988 -0.23421091 -0.1944004 -0.25934744 0.29080155 0.095468014 0.09483728
0.32205197 -0.12891646 -0.033252627 -0.0581702 0.0975118 -0.29974392 -0.32850373 0.09430674
0.25010595 0.29351607 -0.2844038 -0.12358071 -0.3114239 0.04936695 -0.09892452 -0.25124314
0.21603164 -0.002087146 -0.07297173 -0.058733076 -0.19513738 0.010721266 -0.013733387 0.35128948
0.0985581 0.023828566 0.0177522 -0.30131304 0.19037709 0.0617719 0.27498838 -0.14650257
0.34801796 -0.023816586 0.27574554 -0.13569856 0.0016391873 -0.316761 0.2661403 -0.253967
0.23290566 0.23011264 -0.27544752 0.22063008 -0.33029327 0.0576874 0.1574817 0.28664276
0.14658234 0.076265186 -0.027946144 0.06030214 0.20374861 0.25254652 -0.17315763 -0.13235353
-0.098217756 0.12312868 -0.10806885 0.11279991 0.27063623 0.32101443 -0.021616995 0.26788947
-0.30650097 -0.27118006 -0.016022265 -0.1535808 0.17827854 -0.31235474 0.000962466 0.14397341
-0.11487751 0.17219922 0.064053 -0.06560308 0.15385684 -0.14169854 -0.19771726 0.08066073
-0.06429353 -0.3134901 0.22858867 -0.28724357 0.041541845 -0.030591458 0.15596423 0.09975949
0.07055184 0.04488489 0.15280095 -0.09770617 -0.118472636 0.13063613 -0.21731576 -0.2337594
0.1791533 -0.2953488 -0.22707398 0.0060923398 -0.042013884 -0.042303056 0.2233229 -0.20857139

lstm.bias_ih_l0 f4 [32]
00000000: 1c31 003f c041 8c3e cdf1 373f 5336 3f3f
00000010: a7cd 80be ee44 9fbf 8e6b fcbe f313 9c3f
00000020: 6d5e a63e ae71 643e 9b72 a63e 8527 913e
00000030: 0052 72bb cca5 56be 9f6b 05be 088a 0b3e
00000040: 9232 77bf c3af 9bbd 3423 ca3e ebc3 a6be
00000050: 13b4 dcbc 0e3e 7fbe 0f94 a23e 30df b83d
00000060: 9600 013e 4eba 10be 792d 493f f859 7c3e
00000070: 052e 07bf f2d8 b0bf 33c7 0e3d 33c8 933f
0.50074935 0.27393913 0.71853334 0.7469227 -0.251569 -1.2442911 -0.49300808 1.2193588
0.32493916 0.2230899 0.32509312 0.28350464 -0.0036975145 -0.20961684 -0.13029335 0.13626873
-0.9656154 -0.07601883 0.39479983 -0.3257135 -0.026941335 -0.24926016 0.31753585 0.09026945
0.1259788 -0.1413357 0.7858501 0.24643695 -0.52804595 -1.3816206 0.03485794 1.1545471

lstm.bias_hh_l0 f4 [32]
00000000: 0353 bd3e dc4e 7b3e 6add b83e dac7 243f
00000010: 8340 68bf 46d3 a5bf 6a25 b9be 5a8b 813f
00000020: 1403 103e 20ce 623c 50bc 52be f0c4 64bd
00000030: b155 59be ac1a 113e de33 77be 9646 59be
00000040: 54c5 5bbf e299 2c3e 005f 8e3c a8b2 4cbf
00000050: 7957 10bf 1b71 b3ba 9e91 27bc 33a7 e83e
00000060: bea6 c43e 4137 323c c201 2a3f 05ce 3c3f
00000070: e1c0 c2be fa2b 9bbf 8c20 85be 67d5 563f
0.36977395 0.24541801 0.36106426 0.6436745 -0.9072344 -1.29551 -0.36161357 1.0120652
0.14063674 0.013843089 -0.20579648 -0.055851877 -0.21224095 0.14170331 -0.2414088 -0.21218333
-0.85847974 0.16855577 0.017379284 -0.7996011 -0.5638347 -0.0013690324 -0.010227589 0.45440063
0.38408464 0.010877431 0.6640893 0.7375186 -0.3803778 -1.2122796 -0.26001394 0.83919376

lstm.weight_ih_l1 f4 [32, 8]
00000000: c7e8 273f 0470 67bd 8081 08bf b264 053e
00000010: c495 d63e 02e9 0a3f b301 f93e 0ec3 2bbf
00000020: 5801 ba3e 7d12 51be 4144 743f 8d99 c2bf
00000030: 1c64 0c3e 1906 4a3f 7081 02bf cbce a73e
00000040: 4db9 433e 75c0 0ebf 1d72 c93e 8c9d 7abf
00000050: aed4 51bd fad6 003f 93a4 a53d 6819 103f
00000060: c80f 803f 9a7a 95bf f8ae 123f 7255 8ebf
00000070: 6cbb a73e a083 98be 9592 99bc f919 00bd
00000080: 4a52 883f 5a29 933e 1dc6 a4be 2aa7 9dbd
00000090: c64e d83c 58be ac3e ca33 5c3f 2ee8 e3be
000000a0: d4ae 98bf 0afb d93f b639 07bf 1c76 fe3f
000000b0: bd8e 3dbf 5f00 5bbe 7e22 913f a833 673f
000000c0: 3fb3 823f 3621 e73f 731b 53bf cab2 5f3d
000000d0: 4092 00bf 555b bb3f 7d83 ab3f 30d9 90bf
000000e0: 2a81 0bc0 0b45 433f 7d33 fd3e d525 df3e
000000f0: d08f 8ebf 24be 863e 46c9 22bf 9dec da3f
00000100: b1cc 833e 2e74 79be 843d 6ebe 5589 8b3e
00000110: 07db 8d3e eaa7 7e3e 30ce e2bc 38bb 46bd
00000120: 186d 443d d12c 903e 7097 a6bc bc57 fa3d
00000130: f0cd 173d 3a66 4a3e 80f1 b03d fc9a 8bbd
00000140: 2aa9 b1be af20 9f3e 92db 4f3e 03ac 843e
00000150: 089e 023e e104 16be 4d66 00be 3f6c 69be
00000160: f5c5 a23e 5013 063d 5b02 aa3e f0a3 dcbc
00000170: fcef 8d3d 0cae ae3d 00e6 b7bb 251c 8a3e
00000180: dfb6 9b3e fe6e 3d3e acd7 c43d 5444 36be
00000190: 9b66 a53e 2578 b13e 00f5 f13a e0a6 bcbc
000001a0: b698 09be 4707 9a3e ccc2 fe3d de0b 8ebe
000001b0: 2b06 28be 195e 9d3e 26e6 40be 2041 00bc
000001c0: c0aa 78bc 80c6 443d cd45 9a3e aef6 613e
000001d0: 80b0 b3be 3ca0 ab3d 938a a33e 4344 a53e
000001e0: 5d16 a1be b665 3ebe faf5 173e 4002 64bc
000001f0: fc94 73be 6e60 6b3e ea30 0b3e 0202 313e
00000200: 75f0 193f eebc b53f ea1e f5be 7c6e 893e
00000210: b9a7 9b3e 8654 9b3f 8206 863e f4b9 20bf
00000220: 33d3 a1bf a6be 09bf 362a 373f 7477 94bf
00000230: 9487 8e3d 255b 52bf 9bbf 2dbf 77a2 f13f
00000240: c761 1c3e d337 0f3e 671b 24bf 2957 143f
00000250: 90f8 a4be 9ae8 463e 0170 3a3f 394c 39bf
00000260: 52d3 16bf d609 b0be e7c2 b93d 3cf6 923f
00000270: a8ff 0dbc 717c 08bf 3213 0d3e 57e7 813e
00000280: e717 81bf c6db aebe ca0e 153f 1d39 7fbf
00000290: b6c8 fabb 7865 99bf ff40 e1be 60f5 ac3f
000002a0: 6fd6 d5bf 7811 a6bf 226e 923f 5940 9dbf
000002b0: adbc 63be 6991 13bf e5bc 62bf d439 1140
000002c0: c37e cc3f 7d64 433f cdd0 a6bf d2f5 bc3f
000002d0: a661 b33e dd78 9d3e 95c6 353f 4ac3 f5bf
000002e0: 96a4 ac3f b113 673f db9a 65bf 2d46 1e3f
000002f0: f6ba bb3c d6b7 313f 9804 5b3f 3deb 04c0
00000300: 7661 433f 89a0 e43d 248f df3c 2cbe d33e
00000310: 4b40 02bd 1137 7c3f 053a d63d 25ca 46bf
00000320: a535 563d 5249 51be ad8a 263f f1af fabf
00000330: 68e9 863e fd72 dc3e dec1 d2be dd47 a53e
00000340: b7cb 4e3f be51 4ebf c213 eb3e 7f05 46bf
00000350: d6d4 c83e be7a 983f fa3c 8fbe 6590 aa3e
00000360: 043a 513f a6ee 09bf 5464 083c e2a7 87bf
00000370: f834 ce3e add1 bdbe 7001 d0be 44c7 5b3f
00000380: a133 e23f 7315 863e fbc8 00be 557b 20bf
00000390: bcfb 8abe 2525 423f 06a6 1b3f 0690 25bf
000003a0: ab42 c4bf 8c3b c23f 6116 8ebe 7f69 ca3f
000003b0: 94ed 17bf 022b ee3e fa52 863f d940 4b3f
000003c0: fcf0 9e3f 3206 0540 20b4 04bf 5ab5 f1be
000003d0: 2ef3 f8bb 47e3 be3f ea9c a83f b648 cfbf
000003e0: 7e31 0ac0 09bc d53e 2eb2 363f e090 ba3e
000003f0: 4d35 0ebf f19a 833e b301 8abf fd25 0040
0.65589565 -0.05650331 -0.533226 0.13026693 0.41911137 0.5426179 0.4863411 -0.67094505
0.3632915 -0.20417209 0.9541665 -1.520311 0.13710064 0.78915554 -0.50978756 0.32774958
0.19113655 -0.55762416 0.39344874 -0.9789665 -0.051228218 0.5032803 0.08088031 0.56288767
1.0004816 -1.167804 0.5729823 -1.1119826 0.3276018 -0.29787922 -0.018746654 -0.03127477
1.0650113 0.28742486 -0.32182398 -0.076979 0.02640475 0.3373897 0.86016524 -0.44513077
-1.1928353 1.7029736 -0.52822435 1.9879794 -0.74045926 -0.2138686 1.1338651 0.90313196
1.0210952 1.805701 -0.8246376 0.054613866 -0.5022316 1.4637247 1.3399502 -1.131628
-2.1797585 0.76277226 0.49453345 0.4358355 -1.1137638 0.2631694 -0.6358837 1.7103459
0.25742105 -0.24360725 -0.23265654 0.27253214 0.27706167 0.24868742 -0.027686208 -0.04851839
0.047955602 0.28159192 -0.020335883 0.12223765 0.03706163 0.19765559 0.086398125 -0.0681667
-0.34699374 0.31079623 0.20298603 0.25912485 0.12755597 -0.14650299 -0.12539025 -0.22795199
0.31791654 0.03273326 0.33204922 -0.02693364 0.06930539 0.085292906 -0.005612135 0.26974598
0.30412957 0.18499371 0.09611449 -0.17799503 0.32304844 0.34661976 0.0018459857 -0.023028791
-0.13437161 0.30083677 0.12439498 -0.2774343 -0.16408603 0.30735853 -0.18837795 -0.007828027
-0.015177429 0.048040867 0.3013138 0.22066757 -0.35095596 0.08380172 0.3194166 0.32278642
-0.31462374 -0.18593487 0.14839926 -0.013916552 -0.23787302 0.22986004 0.13592878 0.17285922
0.60132533 1.4198282 -0.47875148 0.26842105 0.304014 1.213517 0.2617684 -0.6278374
-1.2642578 -0.5380653 0.71548784 -1.1598954 0.06959453 -0.82170326 -0.6787049 1.8877705
0.15271674 0.13986139 -0.6410431 0.57945496 -0.32220888 0.19424668 0.72827154 -0.7238193
-0.589162 -0.34382504 0.09070378 1.1481395 -0.00866691 -0.5331488 0.13776854 0.2537181
-1.008542 -0.3415205 0.5822569 -0.9969652 -0.007653321 -1.1984091 -0.439949 1.3512383
-1.6706065 -1.2974081 1.143986 -1.2285262 -0.22239943 -0.57643753 -0.8856948 2.2691545
1.5976185 0.7632521 -1.3032471 1.4762518 0.35035437 0.30756274 0.7100614 -1.9200222
1.3487728 0.9026442 -0.89689416 0.6182583 0.022916298 0.69421136 0.85553885 -2.0768578
0.7632059 0.11163432 0.027289934 0.41356027 -0.031799596 0.98521525 0.10460285 -0.776522
0.052297253 -0.20438126 0.6505535 -1.9584943 0.2634995 0.4305648 -0.41163534 0.3228139
0.80779594 -0.8059348 0.45913512 -0.77352136 0.3922488 1.1912458 -0.2797621 0.3331329
0.8172915 -0.53879774 0.008324701 -1.0598109 0.40274787 -0.37074032 -0.40626097 0.8585093
1.7672006 0.2618824 -0.12576668 -0.6268819 -0.27145183 0.7583793 0.60800207 -0.6467289
-1.5332845 1.5174422 -0.2775145 1.5813445 -0.5934689 0.46517187 1.0494072 0.79395825
1.2417293 2.0785031 -0.5183735 -0.47208673 -0.0075973487 1.491311 1.3172886 -1.6194065
-2.1592708 0.41745022 0.7136563 0.36438656 -0.5555008 0.25704148 -1.0781769 2.0023186

lstm.weight_hh_l1 f4 [32, 8]
00000000: cc03 c73d 4c42 123e 3061 e73c f1e7 8cbe
00000010: 757b a1be 5608 463e ee2a 7d3e 109f 103e
00000020: d2e4 ebbd cd8a 16be df07 9a3e ee3f e3bd
00000030: 247c c53d e557 8c3e fea9 473e 9689 323e
00000040: e7cb b33e 5029 673d d693 243e 7930 96be
00000050: 7486 36be 3018 34bd be66 733e beb8 8cbe
00000060: c674 81be faf0 3f3e 3333 803e b6f2 6ebe
00000070: 1845 663d 408e 003d 00df a3be d358 1bbe
00000080: aeec a0be dece 233e 93ad 92be b2f8 533e
00000090: 36fb 83be e6bf 4dbe 6920 b1be ff2f 15be
000000a0: 400a e8bc c0c7 f6bc bb44 833e 1c92 04be
000000b0: 634c 93be 770f 59be 60ae 6d3c 98d6 02bd
000000c0: 809e 813c 58bb e7bd a81d 6d3d 249d d83d
000000d0: 4e72 373e 12fd 203e c53a b43e 40b7 8d3b
000000e0: af8f 98be d5b3 9c3e 009d ce3a dfdf 5cbe
000000f0: 6bbe 10be 9c8e b3bd 36ba 7fbe 13ad 803e
00000100: 7005 a6bc 4eed 313e 866b 5d3e bd59 ac3e
00000110: 2a5e 233e 6a0a 093e 51dd 17be a8a3 6fbd
00000120: 60b2 b7bc 1491 a3bd 4031 8cbe 28a9 703d
00000130: 1309 81be e213 a1be 54cc 01be 9417 cebd
00000140: c0e8 7d3d fa99 523e d8fe 7a3d 764c 463e
00000150: 9c04 6fbe 1e9d 4c3e f7ef 84be c80b b7bd
00000160: d937 18be 3142 973e a847 36bd 14c2 9ebe
00000170: f82f adbd ac61 f43d a828 4cbd 1023 ecbc
00000180: d316 923e e313 4cbe 38de a13d 8016 4b3d
00000190: 3919 aa3e 2066 6b3c 6099 713c f211 253e
000001a0: 4014 bb3b de0a 90be d36a 95be a021 253c
000001b0: 424c 6b3e 3d08 4dbe 880f 2fbd c076 4f3d
000001c0: c6dc 43be 1c94 bbbd 54f0 cbbd 5312 973e
000001d0: 52b2 14be 8258 353e 243e a2bd 6f48 813e
000001e0: 0047 f1bc b288 423e aede 7fbe 40de e03d
000001f0: 4da3 a33e 3b9f 59be dd30 8a3e 049c 8bbe
00000200: 1419 e53d dd08 9e3e 905b 4a3d 381c b5bd
00000210: c801 343d 8601 053e 9e3a a0be bed9 97be
00000220: b92a afbe 44ff 003e 801e 6c3d 75bd b1be
00000230: 4aab 77be 9acc 49be 940c 77be 26ec 9ebe
00000240: 0f3d 9a3e 5425 b1bd 4ecf ffbd d6b0 84be
00000250: 90fe 8dbd d2d7 033e 1ece 633e 8e6d 7a3e
00000260: 2bf7 9c3e 0e54 1f3e 7002 a7bd 6071 80bc
00000270: bebb 633e fb8b 813e 16bf 67be 59d2 ab3e
00000280: 9224 063e e6e3 4d3e 825b 223e 006e cb3b
00000290: b43b bd3d 176c a53e 28b7 9dbd 21ae 893e
000002a0: 28f3 09be 402e 9dbc 2a14 76be 41f9 953e
000002b0: cfe3 8dbe 8f2d 90be 5724 97be dc57 cebd
000002c0: 2f05 ac3e 2070 5abd 7e9d 7e3e bf66 a53e
000002d0: 9268 2bbe 1110 99be 8d38 30be 5c81 c43d
000002e0: 3c59 d53d 0275 743e d5fa 2fbe 9067 4b3d
000002f0: ff5f a0be 8813 35bd 7000 a93d 3f63 ad3e
00000300: 00c4 28bb f6a5 673e 7928 02be 7c67 85bd
00000310: ec56 103e 8dc0 81be 9876 483d 401a 9e3c
00000320: 667d 8bbe e082 663c 4fa3 0fbe 124d 443e
00000330: 6f7f a83e a1bd 8e3e 5049 fd3d b086 8cbe
00000340: 69ec 833e 7c67 afbd 9fae 31be 2429 ba3d
00000350: 40c7 83be db44 813e 5ebd 7c3e 747f e13d
00000360: e06f 753c 955f a93e d18b aebe e2a9 95be
00000370: 795b 7ebe b47f 83be 9628 6e3e a0c2 273d
00000380: 3e56 783e 80d0 2f3d 24a0 da3d 10b0 60be
00000390: e888 73be 1ba1 a3be e2f6 453e 404d ac3c
000003a0: 90b4 60be 06c2 4e3e f2f4 283e f6fb 1b3e
000003b0: ec92 aebe 448a 8abe 1a71 40be 709e 93be
000003c0: 8ff3 0abe 54b9 f93d 2676 febd 50bd bbbd
000003d0: 520c e5bd 8a77 333e 490f a43e a40c 093e
000003e0: cca9 78be 50c6 a8be 28a1 a93d b309 2fbe
000003f0: 9b2a 3fbe 2094 a5bc f04a 963d 7a12 5cbe
0.09717521 0.14283103 0.028244585 -0.27520707 -0.31539503 0.19339117 0.24723408 0.14123178
-0.115182534 -0.14701386 0.3008413 -0.11096178 0.096428186 0.27410808 0.1949844 0.17435297
0.35116503 0.056435883 0.1607202 -0.29333857 -0.17824727 -0.04396838 0.23769662 -0.27484697
-0.25284404 0.18744269 0.25039062 -0.23334774 0.056218237 0.03138566 -0.32006073 -0.15170603
-0.31430572 0.15996882 -0.28648052 0.20700338 -0.25777596 -0.20092735 -0.3459504 -0.1456909
-0.0283252 -0.030124545 0.25638375 -0.12946361 -0.28769216 -0.21197306 0.014506906 -0.031942934
0.015822649 -0.1131503 0.05788961 0.10576847 0.17914698 0.15721539 0.35201088 0.0043248236
-0.29797122 0.3060595 0.0015763342 -0.21569775 -0.14135139 -0.08767435 -0.24973378 0.25132045
-0.020266265 0.17375681 0.21623048 0.33662215 0.1595389 0.13382879 -0.1483052 -0.058505684
-0.022423923 -0.07986656 -0.27381325 0.05875507 -0.25202236 -0.31460482 -0.12675601 -0.10063091
0.061989546 0.2056655 0.061278194 0.19365105 -0.23341602 0.1998181 -0.2596433 -0.08937794
-0.14865054 0.29542688 -0.04450193 -0.31007445 -0.08456415 0.11932692 -0.04984346 -0.028825313
0.28533038 -0.19929461 0.07903713 0.049582005 0.33222368 0.01436761 0.01474604 0.16120127
0.005709201 -0.2813329 -0.29183063 0.010078818 0.22978309 -0.20022674 -0.04273942 0.05065036
-0.19127187 -0.09159109 -0.09957948 0.29506168 -0.14521149 0.17709544 -0.07922009 0.25250575
-0.0294528 0.18997458 -0.2498729 0.10979891 0.31960526 -0.21252148 0.26990405 -0.27267468
0.11186424 0.30866137 0.049403727 -0.08843273 0.04394701 0.12988862 -0.3129472 -0.29658312
-0.34212282 0.12597376 0.057646275 -0.34714857 -0.24186435 -0.19706956 -0.24125892 -0.31039542
0.3012471 -0.08649698 -0.12490712 -0.25916165 -0.069333196 0.12875298 0.22246596 0.24455854
0.30657324 0.15559408 -0.08154762 -0.015679061 0.22239587 0.2530211 -0.22631487 0.3355892
0.13099888 0.20106468 0.1585522 0.0062081814 0.09239903 0.32309029 -0.0770095 0.26890662
-0.13471663 -0.019187093 -0.2403113 0.29291728 -0.27712867 -0.28159758 -0.29519913 -0.100753516
0.33597705 -0.053329587 0.24864766 0.32304952 -0.16739109 -0.2989507 -0.17209072 0.09594986
0.10417411 0.2387276 -0.17185529 0.04965931 -0.3132324 -0.04420808 0.082520366 0.3386478
-0.002575159 0.22621903 -0.12710752 -0.06513879 0.14095658 -0.25342217 0.048941225 0.019299626
-0.2724411 0.014069289 -0.14027141 0.19170025 0.32909724 0.2787905 0.12367499 -0.27446508
0.25766304 -0.0856466 -0.17351769 0.09089878 -0.25737953 0.25247845 0.24681613 0.11010638
0.014980286 0.33080736 -0.34091046 -0.29231173 -0.24839582 -0.25683367 0.2325767 0.040957093
0.24251649 0.04292345 0.10675076 -0.21942163 -0.23782694 -0.3195885 0.1933246 0.02103293
-0.21943879 0.20191202 0.16499689 0.15232834 -0.34096467 -0.27058613 -0.18793145 -0.28831816
-0.13569473 0.12193552 -0.12424879 -0.09166968 -0.111839905 0.1752607 0.32042912 0.13383728
-0.24283522 -0.329638 0.08282691 -0.17093544 -0.18668596 -0.020212233 0.07338512 -0.21491423

lstm.bias_ih_l1 f4 [32]
00000000: 4294 33bf 33d5 3b3e 5b2b 72bf 87e6 0fbf
00000010: fbd9 23bf 8212 1f40 a58d 803f 1264 733f
00000020: d8af 7bbd 2055 463d f249 6e3e 0859 73bd
00000030: b80f 8dbd 98fa 633d afac 953e c816 72bd
00000040: e964 11be a5ba 173f 5619 89bd fcea cc3d
00000050: 2f94 d53e 5b6b 453f a8b5 4bbf 87d5 26bf
00000060: 86e9 d8be e485 b93e b7bf 35bf c52d e8be
00000070: 16ed 19bf a613 2540 d8de 4f3f bb49 863f
-0.701481 0.18343048 -0.94597405 -0.5621113 -0.64004487 2.4855046 1.0043226 0.9507457
-0.061446995 0.048421025 0.23270395 -0.05941108 -0.06887764 0.055658907 0.2923331 -0.059103757
-0.1419865 0.5926917 -0.066942856 0.10005757 0.41714618 0.77116936 -0.7957406 -0.65169567
-0.42365664 0.36234963 -0.7099566 -0.4534742 -0.6012739 2.5793242 0.8119941 1.0491251

lstm.bias_hh_l1 f4 [32]
00000000: 6e9b 17bf 6c89 dc3e 8060 51bf 1cee 4bbf
00000010: 0b6b b4be e21d 3b40 96c3 9a3f 8239 8e3f
00000020: db9c a33e 8009 15bd 00d6 bfba bdbd 97be
00000030: 0435 9abe a84c 44bd 8fdf 85be 5ab3 083e
00000040: 7419 88be bc6b 3b3f bea3 46bd c962 653e
00000050: 7d1b 85bc 858d 043f 77e4 fdbe 4712 e9be
00000060: f971 41be 37e8 0d3f 574a 18bf 618f abbe
00000070: 5e2f 39be 15a7 3640 7930 a63f f0b4 7b3f
-0.5922154 0.43073595 -0.8178787 -0.796602 -0.35237917 2.923699 1.2090938 1.11113
0.3195561 -0.036386013 -0.001463592 -0.29636946 -0.30118573 -0.047924668 -0.26147124 0.13349667
-0.2658192 0.73211265 -0.048496 0.22400965 -0.016248459 0.5177844 -0.49588367 -0.45521757
-0.18891133 0.55432457 -0.59488434 -0.33507827 -0.18084475 2.8539479 1.2983543 0.98322964

lstm.weight_ih_l2 f4 [32, 8]
00000000: afa9 c03f 72e6 0c40 5deb 5e3e 3ce7 6fbf
00000010: 30c5 96bf 89c3 953e 601c 053f 10bd 92bf
00000020: 47d3 b83f 7b31 4b3f 87ed bbbe a9ff 1ebf
00000030: 9066 ecbf e57c 763f a597 9b3e 06b3 a4bf
00000040: f085 ea3e dc6d 76bf 9bf4 c6bc 0892 12be
00000050: 02bb 54bc c548 8f3f 7579 c0bd ec0f afbe
00000060: be30 1340 7e5f 1b40 8df9 4cbf 928e 8fbf
00000070: 7b9e ebbf c20f 4e3f 793c f83e 0866 f5bf
00000080: 4a51 7f3e 339d abbe cd9c fd3e 40b4 3fbe
00000090: 70e0 e2bd df81 af3f db8a 99be b35e 81bf
000000a0: a4e9 35be ed38 953d eff8 b33d 54f8 aebd
000000b0: a051 673e ad4e 1140 18c3 34bf 869e 89bf
000000c0: c9ed db3e 95fd 23be 3596 53bf f3d5 1cbf
000000d0: bbc9 11bf a46c 08c0 e45d 713f d5d5 743e
000000e0: 68c0 733e 1fb0 ba3e 9500 e33e 3a08 c5bc
000000f0: 5764 03bf 7bfd 2740 762c 78bf d325 64bf
00000100: e180 a73e 21c8 a5be a068 1c3d ead3 2b3e
00000110: 3afc 343e 402e e23d cac8 593e 35b9 893e
00000120: 9c81 b43d fb08 893e 5811 f83d 0995 82be
00000130: f082 51bd 4e17 9abe 8586 8b3e 6af1 3f3e
00000140: 82b1 67be b259 2c3e 8851 adbe a8af e53d
00000150: 008a 0c3e 1ab4 afbe c5fd 27be f85f a83d
00000160: 103f 9d3c 802d 64bc d09d 83bc e354 96be
00000170: bda2 833e 4bb5 5dbe 73eb 8f3e 0a80 b0be
00000180: 96e5 453e 520a 083e be78 473e 58f5 113d
00000190: 3e24 2b3e 1614 5bbe c0cd 02bc 8f13 3dbe
000001a0: 0031 26bc a891 abbe 7037 933c eb85 833e
000001b0: 4359 52be 8ec3 203e 6072 44bd b48b ef3d
000001c0: cdca 903e fdd1 a5be e94d 16be 40ab 16bd
000001d0: 6ebb a7be 97f1 903e 7a24 5c3e 3c6b f63d
000001e0: cc63 91bd e195 9b3e 5234 9ebe 96a1 1e3e
000001f0: bc13 cd3d 7b9e a63e 90ce f2bc 574b 9e3e
00000200: 5dcc e93c 0eac 0b3f 62ac bc3e 55b5 a93e
00000210: c75f cabe a1e8 3d40 7ae5 aabf a928 97bf
00000220: cf0e d6bd 408a ecbe 5be8 29bc 722b b0be
00000230: 21ea 3dbd f4bb 55c0 9aef 9e3f c805 ce3f
00000240: 4b9e 05bf 4885 ee3e 3ddc 20be 6c7e 1b3f
00000250: cfff 30be 1941 51bf 1edb fa3c a2d5 c13d
00000260: 8a52 d8bd 007a 36bf 1e50 1abe 9d5e 98bc
00000270: 33f1 ae3d a196 63c0 5b04 ad3f ed85 b53f
00000280: a7a1 e0be 17ee f83c 7a6d 233e 6e19 d3be
00000290: f850 aabd 5660 3f40 0e12 3abf 81d5 7abf
000002a0: 5ddb 5ebe 5997 e93d 6440 c93d c173 9c3e
000002b0: 883b c5be 26bf 3a40 bdff 7ebf 435a acbf
000002c0: fd93 13be 2813 083f 4779 bb3d 83d5 ab3e
000002d0: bbd1 723c 6b73 5f40 8a57 8ebf 4f41 9cbf
000002e0: 6df1 e93e 09aa 4fbe 0bec 513e 215b 04bd
000002f0: 7c0a 9dbd 4296 3bc0 733b a73f 1843 bb3f
00000300: 0a96 cf3f e09c 1040 868d 1ebe 45a9 26bf
00000310: 128e 4fbf 3e7a f23d ea66 3c3f f058 7bbf
00000320: 0330 ef3f be9b 5a3f db66 a3be 2689 69bf
00000330: 4214 e6bf 3c22 3b3f 7040 663d 0bd0 8bbf
00000340: b8d8 babd 9a2a 0dbf cbd4 6dbe 136c 90be
00000350: 384b 843e ae82 9d3f 2408 28be 2610 13bf
00000360: 4fc5 0e40 30ba 1f40 893f 50bf dd54 9ebf
00000370: 8301 dfbf 882c 033f ab19 a73e c359 f2bf
00000380: fa15 c93e 8793 20bf 89d9 b73e 3927 ca3c
00000390: a736 2cbe 5ea2 0240 38cc 8ebe 017a 2ebf
000003a0: dfb8 663e 2d20 e5bd bc9b 823e 1a68 17bf
000003b0: ca7c 9ebd 8f67 1140 5004 5cbf e05d 99bf
000003c0: ca68 313f c218 d63e 8d4c 2dbf 14a9 bdbe
000003d0: c703 24bf 50be 0cc0 4908 fd3e 9910 233f
000003e0: 40f0 1a3e 6857 b23e f1fa 473d fc6a 1abf
000003f0: 7320 41be baaa 3a40 f35a 75bf c7e7 a5bf
1.5051783 2.2015653 0.21769471 -0.9371221 -1.1778927 0.29250744 0.5199642 -1.1463947
1.4439477 0.79372376 -0.36704656 -0.62108856 -1.84688 0.96284324 0.30389133 -1.2867134
0.4580531 -0.9626138 -0.024286559 -0.14313519 -0.012984039 1.1194082 -0.09398166 -0.34191835
2.29985 2.4277034 -0.80068284 -1.1215384 -1.8407739 0.80492795 0.48483637 -1.9171762
0.24933353 -0.3351837 0.49533692 -0.18721104 -0.11077964 1.3711509 -0.2998875 -1.0107025
-0.17764908 0.07286248 0.08787715 -0.085434586 0.22589731 2.270427 -0.7061019 -1.0751503
0.42954853 -0.16014703 -0.8265107 -0.6126396 -0.5694844 -2.131631 0.9428389 0.23909695
0.23803866 0.36462495 0.44336382 -0.024051774 -0.5132498 2.6248462 -0.9694284 -0.89120215
0.32715514 -0.3237925 0.038185716 0.16780058 0.17674342 0.11043978 0.21268001 0.26899114
0.088137835 0.26764664 0.12112683 -0.2550433 -0.051150262 -0.30095905 0.27251068 0.18744436
-0.22626308 0.16831091 -0.33851266 0.112151444 0.13724518 -0.34317094 -0.16405399 0.082214296
0.01919511 -0.013926864 -0.016066462 -0.29361638 0.25710097 -0.21651189 0.2810932 -0.34472686
0.19325861 0.13285187 0.19479653 0.03563437 0.16713044 -0.21394381 -0.007983625 -0.18464492
-0.010143518 -0.33509564 0.01797077 0.2568811 -0.20541863 0.15699598 -0.04796064 0.11696568
0.28279725 -0.3238677 -0.14678158 -0.03678441 -0.32760185 0.28309318 0.2149829 0.12032172
-0.07099113 0.30387786 -0.30899292 0.15491328 0.1001353 0.32542786 -0.029639512 0.30916855
0.02853983 0.5455941 0.36850268 0.33146158 -0.39526197 2.9673235 -1.3351281 -1.1809283
-0.10452043 -0.46199226 -0.010370339 -0.34408146 -0.04636586 -3.3395967 1.241687 1.6095514
-0.5219466 0.4658606 -0.15709014 0.6073978 -0.17285083 -0.81739956 0.030622061 0.09464575
-0.10562618 -0.7127991 -0.15069625 -0.018599803 0.08542099 -3.5560687 1.3516954 1.4181496
-0.4387333 0.030386968 0.1595973 -0.4123034 -0.08316225 2.9902549 -0.726838 -0.9798203
-0.21763368 0.114058204 0.09826735 0.30557063 -0.3852198 2.9179168 -0.99608976 -1.3465046
-0.14411922 0.5315423 0.09153991 0.33561334 0.014820511 3.4914196 -1.1120465 -1.2207431
0.45692006 -0.20279707 0.205002 -0.03231347 -0.07668015 -2.931046 1.3065017 1.462985
1.6217663 2.259575 -0.15483674 -0.65102035 -0.8107616 0.11839722 0.73594534 -0.9818258
1.8686527 0.85393894 -0.3191441 -0.91224897 -1.7974932 0.7309911 0.056213796 -1.0922865
-0.09123367 -0.5514313 -0.23225705 -0.28207454 0.25838637 1.2305505 -0.16409355 -0.57446516
2.2307928 2.495739 -0.81346947 -1.2369648 -1.7422336 0.51239824 0.3263677 -1.8933643
0.3927458 -0.6272511 0.35908154 0.024676906 -0.16817723 2.04116 -0.27890182 -0.68154913
0.2253146 -0.11187778 0.2550944 -0.5914322 -0.077386454 2.2719457 -0.8594408 -1.1981773
0.6930052 0.41815764 -0.6769493 -0.3704306 -0.64068264 -2.1991158 0.49420384 0.636972
0.1513071 0.3483231 0.0488233 -0.60319495 -0.18860035 2.9166703 -0.958419 -1.2961358

lstm.weight_hh_l2 f4 [32, 8]
00000000: a821 343d a3d4 8a3e 0ea3 7b3e 381e 86be
00000010: 7df7 a63e 66b3 653e b253 7f3e 45ef 65be
00000020: 7e1e 01be fd7d 963e 51b9 8e3e e008 2c3d
00000030: af7a 853e 9981 823e 1495 94bd bac4 503e
00000040: bc77 28be 2723 81be a65e 49be 68c0 dabd
00000050: 7809 073d 68b3 40bd 4082 f53d 266b 763e
00000060: 402c 683c 80be dc3c fc0f c0bd c5f3 ac3e
00000070: 0038 293a f0b9 c33c c18a 94be 00ed 3abd
00000080: 9093 0dbd d846 57bd 9f7d 05be 92b3 383e
00000090: 3427 96be c77b b33e bc4a 8ebe 5aef 3f3e
000000a0: 0d4d 953e 7eb6 2f3e f229 4dbe b8ed 2b3d
000000b0: 93e4 9d3e a032 33bd 83bc 873e df12 22be
000000c0: 20ad b63c 2652 9bbe a671 b3be b65e 063e
000000d0: 7636 4f3e 448c 143e 69d4 8a3e 7a65 3b3e
000000e0: 879d 59be bef1 303e 4845 56bd 7255 97be
000000f0: a82a a73d 6a7c 413e d50a 99be d139 8c3e
00000100: 46c2 2e3e 0022 b53d 2887 cfbd 7129 8dbe
00000110: 86ce 283e 950e 46be ae1c 5d3e 8b70 a93e
00000120: ec8c bdbd 3b79 a3be 4253 3cbe e044 04bc
00000130: 9360 22be 219f 9abe c854 213d 22ae 463e
00000140: 00d4 acbc 3a04 023e 626e 9abe c34c 9e3e
00000150: 558f 8ebe ec5a ccbd d30a 8e3e d40b 9fbe
00000160: 8bbf 823e f444 153e aa03 9bbe 0d85 34be
00000170: 5af5 51be 8eef 6cbe 5c64 fc3d e012 98bd
00000180: fd53 aa3e ff92 0ebe 82fe 483e 785a c13d
00000190: aca8 e6bd ecdd a1bd 3edf 323e 5a38 553e
000001a0: 5e58 89be 1f84 8d3e e568 873e eb9b af3e
000001b0: b3be b03e 042f 34be 7f11 b03e 5854 b4bd
000001c0: bc9a a63d 8b86 843e 2082 c8bc c0d1 b7bd
000001d0: 2a3c 343e b1f8 a83e 9a19 063e 800b 3d3c
000001e0: b5c2 8a3e 2a66 523e 6dd6 7bbe 96cc 3a3e
000001f0: 9ebc 5f3e 6850 363d db3a a63e d119 12be
00000200: 74a7 76be 683f 8ebd 0af6 453e 0521 a5be
00000210: 600c 3bbc cfdf a2be 86f5 6c3e b8bd 8bbd
00000220: 08a5 0d3e 3b9f b4be 55ad 97be 2df4 abbe
00000230: 2dff 923e 5036 a9bd 22bd 99be 80bf 1d3b
00000240: b31b b2be 58e9 a0bd 34cb cb3d 0030 70bc
00000250: 8cbe b13d 4060 00bd 71d1 ab3e a0ab c33c
00000260: 1ac0 4ebe 009b 04bc e0b5 433d 38ae e23d
00000270: aeea 563e 909b 69bd ac1c a1be 565e ebbd
00000280: efea 7dbe 8001 943c d59a 8c3e 3c48 a2be
00000290: 7070 6fbd c86d dabd be5e 393e 40d4 963c
000002a0: aab5 683e 7071 b1bd 569f 3a3e 58fe aa3d
000002b0: 1669 4b3e be6e 703e 202d 00be ea3c 153e
000002c0: 124d 2e3e a0b5 7e3d df43 a23e d40e c13d
000002d0: cd0a a9be e212 663e 1ce8 ac3d 22c3 633e
000002e0: 46b1 8dbe 5acc 123e f15a 02be 32d1 283e
000002f0: 58a0 403d 6722 aebe 826b 75be 3a4e 0c3e
00000300: 4a9f 163e a6b1 783e 2c5b f9bd 8d89 8f3e
00000310: 665b b3be de30 aebe 8c5a 123e 1f41 8ebe
00000320: 78e5 16bd 68d8 353d c216 76be f474 953d
00000330: 31ac 8cbe 7afa f3bd 35cf 5abe 4010 98be
00000340: 41b5 863e 7b30 70be 87ef 933e f8f3 7d3d
00000350: 3b59 8d3e 907b df3c eece 61be 5df3 09be
00000360: 833d a43e 3ec8 95be 1a4b 2ebe c0b8 7dbe
00000370: 180c 363d 288c f83d 70c9 b5bd b7f9 51be
00000380: 4960 acbe 2513 a43e efe9 b43e 7c2a 93be
00000390: 1698 73be 0ec1 49be 497d a43e d43a 95bd
000003a0: 9b8d 9c3e bcb4 dabd 65a6 983e 101e 7cbd
000003b0: 8a23 483e 4e34 613e 2093 39bc 6803 ac3d
000003c0: 2b63 90be 5846 283d 001a e13d 2a74 65be
000003d0: 40c9 a5bc 9a8c a0be a4e5 ccbd eea7 603e
000003e0: 78b3 763d b020 21bd 9001 3c3d c8d0 42bd
000003f0: 0d49 9abe a12c b0be 287c 06bd 3353 a63e
0.04397741 0.27115354 0.24573919 -0.2619493 0.32610694 0.22431716 0.24934271 -0.22454555
-0.12609288 0.29392996 0.2787576 0.04200065 0.26070163 0.254895 -0.07254997 0.20387545
-0.16451925 -0.25222132 -0.19665012 -0.1068123 0.032968014 -0.047046095 0.11987734 0.24064311
0.014170706 0.026946306 -0.09378049 0.3377973 0.0006455183 0.023892373 -0.2901211 -0.045636177
-0.034564555 -0.052557796 -0.13036202 0.1803725 -0.29326785 0.35055372 -0.27791393 0.18743649
0.29160348 0.17159459 -0.20035532 0.041974753 0.3083845 -0.04374945 0.2651101 -0.15827511
0.02229935 -0.30336112 -0.35047644 0.13122067 0.20235619 0.14506632 0.2711518 0.18300429
-0.21251498 0.17279717 -0.052312165 -0.29557377 0.08162433 0.18895116 -0.29891077 0.2738786
0.17066297 0.088443756 -0.10133201 -0.2757068 0.16485032 -0.193415 0.21592972 0.33093676
-0.09255394 -0.3192843 -0.18391135 -0.008073062 -0.15857153 -0.3019953 0.039387494 0.19402364
-0.021097183 0.12696925 -0.3016234 0.3091794 -0.2784373 -0.099782795 0.27742633 -0.31063712
0.2553676 0.14577085 -0.30276233 -0.1762888 -0.2050375 -0.23138258 0.123238295 -0.07425475
0.33267203 -0.13923262 0.19628337 0.09441084 -0.1126264 -0.07903656 0.17467973 0.20822278
-0.2682523 0.27639863 0.26447216 0.34298643 0.34520492 -0.1759606 0.34388348 -0.0880515
0.08134982 0.25883898 -0.024476111 -0.089755535 0.17601076 0.33002236 0.13095704 0.011538386
0.27101675 0.20546785 -0.24593516 0.18242106 0.21849295 0.044510275 0.32466778 -0.1426766
-0.24087316 -0.069456875 0.19332138 -0.32251754 -0.011416525 -0.31811377 0.23140535 -0.06823295
0.13832486 -0.35277733 -0.2962443 -0.3358473 0.2871031 -0.082623124 -0.3002711 0.0024070442
-0.34786758 -0.07857007 0.09950867 -0.014659882 0.08678922 -0.03134179 0.3355823 0.023885548
-0.20190468 -0.0080935955 0.04778087 0.11068386 0.2098796 -0.05703312 -0.31467187 -0.114926025
-0.24796651 0.018067122 0.27461877 -0.31695735 -0.058456838 -0.1066547 0.18102548 0.018411756
0.2272555 -0.086642146 0.18224844 0.083492935 0.19864306 0.23479745 -0.12517214 0.14574018
0.17021587 0.06218493 0.31692407 0.09426656 -0.33016053 0.2246814 0.08442709 0.22242406
-0.2767431 0.14335766 -0.12730004 0.16486052 0.047027916 -0.34010622 -0.23966792 0.13701716
0.14709201 0.24286518 -0.12175593 0.2803463 -0.3503067 -0.34021658 0.14292353 -0.27784058
-0.036839932 0.044395834 -0.24032119 0.07297698 -0.27475122 -0.11913009 -0.21368106 -0.29699898
0.2631016 -0.23455994 0.28893682 0.062000245 0.2760714 0.027280599 -0.22051594 -0.13471742
0.3207818 -0.29254335 -0.17020836 -0.24777508 0.044445127 0.12136108 -0.08876312 -0.20505415
-0.3366721 0.32045856 0.35334727 -0.2874335 -0.23788485 -0.19702551 0.32126835 -0.07286611
0.30576786 -0.106790036 0.2981445 -0.061552107 0.19544807 0.21992609 -0.011326581 0.08399087
-0.2820066 0.04108271 0.10991287 -0.22407594 -0.020237565 -0.3135727 -0.10004738 0.2193906
0.06022975 -0.039337814 0.045899928 -0.04756239 -0.30133858 -0.3440905 -0.03283325 0.3248535

lstm.bias_ih_l2 f4 [32]
00000000: 620c 9b3f 37e7 c73f c838 823f 1c13 1c40
00000010: 18a8 253f 7d60 1c3f 057d 433f a940 383f
00000020: ffae b23e b022 93be b8d7 80be d3eb 9e3e
00000030: 4118 b23e deb3 3ebe 1857 7cbd f88e c7bd
00000040: 1c4d 023e 1519 17bf 2921 61bf a293 b6be
00000050: 5b56 f33e 7730 163f 91ff d73e 15a8 14bf
00000060: 35f2 a83f 8ea0 ea3f eef1 353f 252d 3840
00000070: e42e 463f 7fc8 0b3f 60cc 7b3e a2d3 0b3f
1.2113154 1.5617436 1.0173578 2.4386663 0.64709616 0.6108473 0.7636264 0.71973664
0.34899136 -0.28737402 -0.2516458 0.31039295 0.3478413 -0.18623301 -0.061606497 -0.09744066
0.12724727 -0.5902265 -0.87941223 -0.3565951 0.47526821 0.586677 0.4218717 -0.5806897
1.3198916 1.8330247 0.7107228 2.8777554 0.774153 0.5460281 0.24589682 0.546198

lstm.bias_hh_l2 f4 [32]
00000000: b634 9e3f 6dc7 ea3f 68ba 8d3f 26cb 3f40
00000010: 81d9 903f 3ce1 763f 46cf 6c3e 2bc7 703f
00000020: 7809 6a3d 4bcd 37be e104 ab3e 0b43 9c3e
00000030: 91ec 823e 5c94 b83d fc2a a9be 4886 043d
00000040: 8071 3f3f 698e babe 6cf0 92bf a020 12bf
00000050: e14e 0a3f 084b 0b3f bdae ce3e 7a33 14bf
00000060: 0a57 8d3f 3ff1 fc3f bb59 493f 45aa 1740
00000070: ae62 113f b486 233f 7db2 fd3e 7f05 883f
1.2359836 1.834211 1.1072512 2.9967742 1.1316377 0.9643743 0.23125944 0.94053906
0.057137936 -0.17949407 0.3340216 0.305199 0.2557111 0.09012672 -0.33040607 0.032354623
0.7478256 -0.36436775 -1.1479621 -0.5708103 0.5402661 0.54411364 0.4036769 -0.57891047
1.1042187 1.9761122 0.7865254 2.3697674 0.567912 0.63877416 0.49550238 1.0626677

lstm.weight_ih_l3 f4 [32, 8]
00000000: 65e0 6e3f 5f84 5ebf 27f9 d1bd 57dd 14c0
00000010: 60f4 0d3f aa0d 9b3e ce36 533f 49e6 65bf
00000020: e725 4f3f 4c67 2bbf e1c9 cebf 5dee 8abf
00000030: 0db4 8ebf fcc3 06bf 637d afbc 7842 e83e
00000040: 42ed d3bd 153f 7fbf b3a3 12c0 7ca5 e7be
00000050: f857 623f 48e9 853f 4b45 33bf 8913 94bf
00000060: afa6 563f 4733 93bf ebff 1bbf 3e3b e2bf
00000070: df75 a53e dcec 273f 7d81 393f bc9c 2fbf
00000080: 1454 4a3f e12b dfbe efba 26c0 fd7f b4bf
00000090: cca0 c3bf 6ab5 26bf 24cc 89be 6394 473f
000000a0: b3b7 8c3f 596a 5dbf 5c71 78c0 5ec5 8cbf
000000b0: 4f6f c9bf b9f5 4fbf d56f 443c fb4f cb3f
000000c0: 42fb 6c3f 91d4 56bf 73fc 5ec0 0441 54bf
000000d0: e639 97bf 2e4d 90bf 7c44 22be aec6 443f
000000e0: d0ad 2ebf 0389 623e e937 fa3e 3176 5b3f
000000f0: 872c 693e c11b fabc 806d eebd 1660 9ebd
00000100: d9bd 78be 5094 dbbd 05d9 a73e ef5b a2be
00000110: a03d 15bc 384d 073e 8642 693e fa3d 603e
00000120: 4033 70bc 4e9a 623e cd02 953e 39f6 8ebe
00000130: eaf6 753e 39db 953e 50e0 363d 299b b1be
00000140: 22b3 6c3e 70c4 ac3c 9c1c 36be 623f 053e
00000150: b543 28be 80a2 be3c 7716 47be 1366 4dbe
00000160: 306d 95bd 166a 85be 8ab3 dabd 9e86 2ebe
00000170: c882 ab3d ee5d 2e3e a8b0 aa3d 40f8 833d
00000180: ba7e 1d3e 565d 5b3e 4cbb 85be d73d ab3e
00000190: 2a1f 7dbe 39a8 a03e f4ce a7bd b196 993e
000001a0: b639 5f3e 5217 46be b272 283e 20ef 053e
000001b0: 3f2d 3bbe fcdd ca3d f3ea 2cbe b990 ac3e
000001c0: 5a28 173e 99df 46be 28b5 cc3d 9e50 0c3e
000001d0: b050 08bd 0080 4437 20a8 b2bd d03d 84bd
000001e0: 2074 e3bc b899 b3be 102d c23c 6849 87be
000001f0: 991b b33e aaab fabd a46e a9be 2876 713d
00000200: 6131 cf3f 8cbd 7cbf 89ec 5cbf 6372 0bc0
00000210: 716a 643f da58 7c3e 419e 333f ea0f 03bf
00000220: b419 0cc0 9ded bb3f 6053 2f3f 1908 5a40
00000230: 0ff1 2bbf 3b4e 5fbf c6dc 74bf 1efb 913f
00000240: 499b f6bf b91f 0240 c5d9 173f a935 4d40
00000250: fbc2 9fbf 90e8 59bf 4541 5ebf 542c ae3f
00000260: cc59 0cc0 f739 d93f 6cd1 8f3e 8487 4a40
00000270: e5c4 43bf 0483 1cbf fddc 0fbf 5d62 913f
00000280: ae6a fd3f c434 04c0 e462 52bf 30e4 4ec0
00000290: 651b 223f 8f39 923f c5ed 3b3f e448 67bf
000002a0: ff06 1ac0 26f7 0340 1886 6f3f 7707 5f40
000002b0: fda8 92bf f888 87bf a097 1bbf da17 903f
000002c0: 58d0 1340 84af 05c0 df38 ffbe 7cc6 46c0
000002d0: 280c 093f 5aae 523f 7b6a 783f 3af6 a3bf
000002e0: e1d3 a5be 8e2b 5e3f d6a8 1dbd 83ff 8d3f
000002f0: 9cd1 d73d d21f 88bc cd0a 373d 7955 e93e
00000300: 6c2d ac3f 54b0 7ebf e2db d7be 351b ebbf
00000310: 65f7 933e 74ee 2a3f 0f27 213f bc2d 1fbf
00000320: 0f2e a93e b8b4 86be 4b1f cebf 3f0d 9ebf
00000330: f3ff 2abf 57a5 1f3d fcbb 9dbd 40b0 3bbe
00000340: 5e79 6b3e 7dac 60bf 0b95 f3bf 3790 89bd
00000350: 9377 ae3f fe14 873f d5ba 81bf 7818 9fbf
00000360: a3f8 863f c9a9 85bf c56a 42bf 57a5 e9bf
00000370: 6dd9 f93e 6b30 293f cb54 213f dadf 88bf
00000380: 9709 453f 4381 1cbf 64c5 26c0 08df a0bf
00000390: 78cd c5bf 6d08 58bf 4951 60be 865f 853f
000003a0: 1f3b b73f c32b 98bf 78f8 8dc0 4c8c 98bf
000003b0: 1765 1cc0 275a f1bf 2248 ec3e 67aa 0240
000003c0: 4918 b43f 8433 17bf 64ee 78c0 7c72 8cbf
000003d0: e6fd b3bf ee7f 9fbf 26d8 4a3e 3922 e63f
000003e0: bf84 2ebf 9f73 843e c651 a83e 19b7 483f
000003f0: 1f71 d93e 4db7 653e c5a9 c1be e907 363d
0.9331115 -0.8692073 -0.102526 -2.3260095 0.5545101 0.30283862 0.825055 -0.8980451
0.8091721 -0.66954494 -1.6155359 -1.0853993 -1.1148697 -0.526428 -0.021422094 0.45363212
-0.10347988 -0.9970563 -2.2912414 -0.45243442 0.8841548 1.0461817 -0.7002761 -1.1568462
0.8384809 -1.1500024 -0.60937375 -1.7674329 0.3231649 0.65595794 0.7246321 -0.6859853
0.79034543 -0.43588164 -2.6051595 -1.4101559 -1.5283446 -0.65120566 -0.2691356 0.77960795
1.099356 -0.864904 -3.881919 -1.0997732 -1.5737094 -0.8123432 0.011989553 1.5883783
0.9257089 -0.839181 -3.4841583 -0.82911706 -1.1814544 -1.1273553 -0.15846437 0.7686566
-0.68233967 0.22122578 0.4887078 0.8572722 0.22770892 -0.030530812 -0.11641979 -0.07733171
-0.24291171 -0.10721648 0.3278276 -0.31710765 -0.009108931 0.1321305 0.22779283 0.21898642
-0.014660656 0.22129175 0.291037 -0.27922228 0.24019971 0.29268816 0.044647515 -0.3468869
0.23115209 0.021089762 -0.17784351 0.1301246 -0.16432078 0.023270845 -0.19442163 -0.2005847
-0.072962165 -0.260575 -0.106787756 -0.1704354 0.08374554 0.17028019 0.08334476 0.06443834
0.15380374 0.21422324 -0.2611946 0.33445618 -0.2471892 0.31378344 -0.0819377 0.2999778
0.21799359 -0.19344833 0.16450003 0.130795 -0.18278979 0.099056214 -0.16886501 0.33704165
0.14761487 -0.19421233 0.0999549 0.13702628 -0.033280075 1.1712313e-05 -0.087234735 -0.06457102
-0.027765334 -0.35078216 0.023703128 -0.26423192 0.34981993 -0.122397736 -0.33092225 0.058950573
1.6186944 -0.98726726 -0.86298424 -2.1788566 0.89224917 0.24643269 0.7016335 -0.5119616
-2.1890688 1.4681889 0.68486595 3.4067442 -0.671647 -0.87228745 -0.95649374 1.140476
-1.9266139 2.0331862 0.59316665 3.2064002 -1.2481378 -0.8512049 -0.86818343 1.3607278
-2.1929808 1.6970814 0.28089464 3.1645212 -0.7647231 -0.61137414 -0.56196576 1.1358143
1.9798181 -2.0657206 -0.82182145 -3.2326775 0.6332305 1.1423815 0.7340968 -0.903456
-2.406677 2.0619597 0.93563986 3.4848306 -1.1457821 -1.0588675 -0.60778236 1.1257279
2.3095913 -2.0888376 -0.49848077 -3.1058645 0.53534174 0.8229729 0.97037476 -1.2809517
-0.32388213 0.8678521 -0.038491093 1.1093601 0.10538027 -0.016616736 0.044688035 0.45573023
1.3451362 -0.99487805 -0.42159945 -1.8367678 0.28899685 0.667701 0.62950224 -0.6217916
0.33042952 -0.26309752 -1.61033 -1.2347792 -0.667968 0.03897604 -0.07701871 -0.18328953
0.22995517 -0.87763196 -1.9029859 -0.0671696 1.3630241 1.0553281 -1.0135142 -1.2429342
1.0544628 -1.0442439 -0.7594417 -1.8253583 0.48798695 0.66089505 0.6302001 -1.0693314
0.7696776 -0.6113474 -2.6057978 -1.2568064 -1.5453329 -0.84387857 -0.21906008 1.0419776
1.4314917 -1.1888355 -4.4365807 -1.1917815 -2.44367 -1.8855637 0.46148783 2.0416505
1.4069911 -0.5906298 -3.8895502 -1.0972438 -1.4061859 -1.2460916 0.19809017 1.7979194
-0.68171304 0.25869462 0.32874888 0.78404385 0.42469117 0.22433205 -0.37824836 0.044441137
