ModelSave20.pt (torch_old, 30998 bytes, 45 tensors)

lstm.weight_ih_l0 f4 [32, 8]
0	0xbdb6bef1	-0.08923138
1	0xbec96f75	-0.39342847
2	0x3eb70594	0.35746443
3	0xbe844a46	-0.25837916
4	0x3df1a4b3	0.11798992
5	0x3e257d2e	0.16161034
6	0xbda89694	-0.082318455
7	0xbda0c927	-0.07850867
8	0x3cbad9fe	0.022809025
9	0xbe81d897	-0.25360557
10	0x3eaccca5	0.3374988
11	0x3b1beadc	0.002379111
12	0x3cb270b6	0.02178226
13	0x3e520081	0.20508005
14	0xbc9a48be	-0.018833514
15	0x3e88db28	0.26729703
16	0x3ea63f1e	0.3247003
17	0xbde4c8c8	-0.111711085
18	0x3ecc75fc	0.39933765
19	0xbca26750	-0.019824654
20	0x3ea190ad	0.3155569
21	0x3e194a69	0.14969791
22	0xbe504089	-0.20337118
23	0x3e8011c3	0.2501355
24	0x3dac4188	0.084109366
25	0xbec597e1	-0.38592437
26	0x3d9659e9	0.07341368
27	0x3e8ea84d	0.27862778
28	0x3b9e526a	0.004831602
29	0x3f0f5a45	0.55997115
30	0x3e923f0f	0.28563735
31	0x3eb4d873	0.35321388
32	0xbd47a485	-0.048740882
33	0xbf01a594	-0.5064328
34	0x3e0ab3c8	0.13545144
35	0x3b7be3ea	0.0038435408
36	0x3e746277	0.23865686
37	0x3ecf2785	0.40459839
38	0x3e36d14f	0.17853282
39	0x3f04989f	0.5179538
40	0xbea96e3d	-0.33091918
41	0x3e947453	0.28994998
42	0x3e548417	0.20753513
43	0xbed570c7	-0.41687605
44	0x3df3c49f	0.11902737
45	0xbe3a4944	-0.18192011
46	0xbe2c2203	-0.1680985
47	0x3dd4cbd3	0.10390439
48	0x3ea5e26f	0.32399318
49	0xbed268de	-0.41095632
50	0x3ecfae39	0.4056261
51	0x3edf1839	0.43573168
52	0x3d206ff9	0.039169285
53	0xbd8bc160	-0.06823993
54	0x3d337b66	0.043818854
55	0x3ecb6190	0.39722872
56	0xbeb7fe64	-0.35936272
57	0xbe9e7047	-0.30945036
58	0x3ed1bd67	0.40964815
59	0x3c64738b	0.013943563
60	0x3d4ae0ca	0.04953078
61	0xbdd9c780	-0.10633755
62	0x3e5e5727	0.21712933
63	0xbe0481c2	-0.12940124
64	0xbe58c3da	-0.21168461
65	0xbe090709	-0.1338159
66	0x3d7feea8	0.06248346
67	0xbe9e5d04	-0.3093034
68	0x3e82d69d	0.25554362
69	0x3e7830de	0.24237391
70	0xbd24b610	-0.04021269
71	0x3ead4f6d	0.3384966
72	0xbdfc6e8e	-0.12325774
73	0xbdb221cc	-0.086978525
74	0xbe915ae6	-0.28389663
75	0xbe227701	-0.15865709
76	0xbdedf81e	-0.1161959
77	0x3d532190	0.05154568
78	0xbded2342	-0.115789905
79	0x3e909991	0.28242162
80	0xbea0ebc6	-0.3142988
81	0x3e906b8f	0.2820706
82	0xbe4cc0f9	-0.19995488
83	0xbd7037a0	-0.058646798
84	0xbd85f714	-0.06541267
85	0x3dd11144	0.10208371
86	0x3eb05b5b	0.344447
87	0x3e80f821	0.25189307
88	0xbe77763c	-0.24166197
89	0xbdcb2520	-0.099191904
90	0x3d1a2b58	0.037638992
91	0x3e8f5807	0.27996847
92	0xbe86352e	-0.26212448
93	0x3dfd57ac	0.12370238
94	0x3da241d8	0.07922715
95	0x3ea61759	0.32439688
96	0xbddf032e	-0.10889278
97	0x3eb343bd	0.35012618
98	0xbe6b2046	-0.2296153
99	0x3d018340	0.03161931
100	0x3e4606de	0.19338557
101	0x3d87c3bc	0.0662913
102	0x3d89e994	0.067340046
103	0x3e04ecc6	0.12980947
104	0xbde73766	-0.11289863
105	0xbe9b7246	-0.3036062
106	0xbe54118c	-0.20709819
107	0x3e5fa406	0.21839914
108	0xbd331a18	-0.043726057
109	0x3e44b31a	0.19208947
110	0x3e80f45f	0.2518644
111	0x3e9c3d65	0.3051559
112	0x3e238236	0.1596764
113	0xbe8fd366	-0.28090972
114	0x3eaac811	0.33355764
115	0x3da09a74	0.078419596
116	0xbe27c14a	-0.16382328
117	0x3c072360	0.00824818
118	0x3d082930	0.033242404
119	0x3ea0592b	0.3131803
120	0x3e86e60f	0.26347396
121	0xbc39f220	-0.011349231
122	0x3e600682	0.21877483
123	0xbe2ee70d	-0.17080326
124	0x3e8ffc8f	0.28122374
125	0xbcaa9590	-0.02082327
126	0xbda0adb0	-0.07845628
127	0x3e863cab	0.2621816
128	0x3d92c313	0.07166114
129	0x3f4088c7	0.75208706
130	0xbe490400	-0.19630432
131	0xbefb5475	-0.49087873
132	0xbe5c9497	-0.21541058
133	0xbe94e56d	-0.29081288
134	0xbd81bad9	-0.063344665
135	0xbec9596a	-0.3932603
136	0x3c44e8f8	0.012018435
137	0xbf21a63c	-0.6314428
138	0x3f08ccff	0.534378
139	0x3f16218f	0.58644956
140	0x3e026b62	0.12736276
141	0x3f0b2aca	0.54362166
142	0x3b7abed6	0.003826072
143	0x3f039495	0.51398593
144	0xbe0e7673	-0.13912372
145	0xbf0086e4	-0.50205827
146	0x3f1e1d48	0.6176343
147	0x3f4df37e	0.80449665
148	0x3e4c99b7	0.19980513
149	0x3e7600ab	0.24023692
150	0x3d8e0313	0.0693418
151	0x3f04b907	0.5184483
152	0xbc85dd1a	-0.016340781
153	0xbec698f5	-0.38788572
154	0x3f2ade12	0.667451
155	0x3eecda78	0.46260428
156	0xbd139cdd	-0.03603827
157	0x3f2e7e5e	0.6816157
158	0xbd432649	-0.047643933
159	0x3e821776	0.25408524
160	0xbe5873d2	-0.21137932
161	0xbd463ca1	-0.048397664
162	0x3edde742	0.43340498
163	0x3edc902c	0.43078744
164	0x3dea6857	0.114456825
165	0x3edd6998	0.43244624
166	0x3e535484	0.20637709
167	0x3f08a2ef	0.53373617
168	0x3e105a76	0.14097008
169	0xbef64149	-0.48096684
170	0x3d4535c3	0.048146974
171	0x3f49da9d	0.788492
172	0x3ecebf95	0.4038054
173	0x3e2c974a	0.16854587
174	0x3df8f587	0.121562056
175	0x3e791264	0.24323422
176	0x3e6583ee	0.22413608
177	0x3ea8e087	0.329838
178	0x3d930c3d	0.07180069
179	0xbf0f51ce	-0.559842
180	0xbece98df	-0.40351006
181	0xbe34fa1b	-0.17673533
182	0xbe579738	-0.21053779
183	0xbd99d279	-0.075108476
184	0x3d386ca0	0.045025468
185	0x3f474608	0.77841234
186	0xbefbf14a	-0.49207526
187	0xbe3d0c18	-0.18461645
188	0xbd75207a	-0.059845425
189	0xbefdd750	-0.49578333
190	0x3d2cfd6f	0.04223388
191	0xbf0a3aa6	-0.5399574
192	0xbdcc947e	-0.0998926
193	0xbec917f3	-0.39276084
194	0x3e8c418f	0.27393767
195	0x3d6068e7	0.054787543
196	0x3e783794	0.24239951
197	0x3cebf236	0.028802019
198	0xbe07abbc	-0.13249105
199	0xbdc327a3	-0.095290445
200	0xbe1b1b3f	-0.15147112
201	0xbf0abd44	-0.54195046
202	0x3e14ceb1	0.14531972
203	0xbb9dc7a7	-0.00481506
204	0x3ecc66a3	0.39922056
205	0x3e93abe2	0.28842074
206	0x3d3eb6e2	0.04656113
207	0x3e0afd83	0.1357327
208	0x3eb429dd	0.3518819
209	0xbeee6ad6	-0.46565884
210	0xbc2c85d1	-0.010529951
211	0x3eb9af4a	0.36266547
212	0x3ea9caa1	0.33162406
213	0xbdab460a	-0.08362968
214	0xbe897699	-0.26848295
215	0x3e545742	0.20736411
216	0xbd031ba8	-0.032008797
217	0xbf299a7b	-0.66251343
218	0x3e238722	0.15969518
219	0x3f0d7616	0.5525831
220	0x3c16c868	0.009203054
221	0x3e084cce	0.13310549
222	0x3ec08fdb	0.37609753
223	0x3e8af6a7	0.27141306
224	0x3e84030d	0.25783578
225	0xbe415f38	-0.1888398
226	0xbabff825	-0.0014646096
227	0x3f04a9fe	0.5182189
228	0xbe01a448	-0.12660325
229	0x3f2f7050	0.6853075
230	0x3e933862	0.28753954
231	0x3e0dc708	0.13845456
232	0xbed6cd0a	-0.41953307
233	0x3e8ebcfd	0.27878562
234	0xbddbc9ca	-0.107318476
235	0xbe888f48	-0.26671815
236	0x3dde9cf5	0.10869781
237	0xbe3d70ed	-0.18500109
238	0xbda5b45d	-0.08091042
239	0xbe925dec	-0.28587282
240	0x3e912445	0.28347984
241	0xbd6073e2	-0.054798014
242	0x3ee63aa2	0.44966608
243	0x3ef5277e	0.47881693
244	0x3e8ea706	0.27861804
245	0xbd96dce4	-0.0736635
246	0xbd0d305c	-0.034469947
247	0x3d649ca9	0.055813465
248	0xbe9ba04d	-0.30395737
249	0xbc3e1308	-0.011601217
250	0x3dc16794	0.09443584
251	0x3ec45dd4	0.38352835
252	0x3e97a4aa	0.29617816
253	0x3d80b573	0.06284609
254	0xbded6d77	-0.115931444
255	0x3bca9c8f	0.006183214

lstm.weight_hh_l0 f4 [32, 8]
0	0xbe422dc3	-0.18962769
1	0xbe92c66c	-0.2866701
2	0xbe344624	-0.17604882
3	0xbe9ac368	-0.30227208
4	0xbdcc70c0	-0.09982443
5	0xbe97b332	-0.29628903
6	0x3ea8af1d	0.329461
7	0xbd266ec0	-0.040632963
8	0xbe4e5828	-0.20150816
9	0x3e8b7cc1	0.27243617
10	0xbe275726	-0.16341838
11	0x3af20800	0.0018465519
12	0xbd73f160	-0.059556365
13	0x3c684d80	0.014178634
14	0x3e512aea	0.20426527
15	0x3d11f6b8	0.03563568
16	0xbd85dbf8	-0.06536096
17	0x3e158fc4	0.14605623
18	0xbe0b0372	-0.13575533
19	0x3e92850f	0.2861714
20	0x3e8d491b	0.27594838
21	0x3d4cd830	0.05001086
22	0xbe2be8bf	-0.16788004
23	0x3e5b62de	0.21424434
24	0xbe5b2c8c	-0.21403712
25	0xbe241b86	-0.16026124
26	0xbe8dcd44	-0.27695668
27	0x3e769fe6	0.24084434
28	0x3eb24583	0.34818658
29	0x3ea7eea5	0.3279926
30	0xbe8b4602	-0.2720185
31	0x3d7a0ff8	0.061050385
32	0x3e62cf02	0.2214928
33	0xbe68af84	-0.22723204
34	0x3deac090	0.1146251
35	0xbd393c28	-0.045223385
36	0x3e33c81a	0.17556801
37	0x3e94ec87	0.29086706
38	0x3e44f286	0.1923314
39	0x3e2bfcd6	0.16795668
40	0xbda144fc	-0.07874486
41	0x3e84a397	0.2590606
42	0xbd937058	-0.07199162
43	0xbe083246	-0.13300428
44	0xbe9fbd25	-0.31198993
45	0xbdc6efd0	-0.09713709
46	0xbe619b09	-0.22031797
47	0xbe88d77c	-0.26726902
48	0xbe8dd3c0	-0.27700615
49	0xbe1c1fee	-0.15246555
50	0xbe034a93	-0.12821417
51	0xbd1d82e8	-0.03845492
52	0x3a6ca800	0.00090277195
53	0xbd38b4d8	-0.04509434
54	0x3e4c806e	0.19970867
55	0xbe9fddd1	-0.3122392
56	0x3c3712a0	0.011173874
57	0x3d71a1e8	0.058992296
58	0x3d3ad4a0	0.04561293
59	0xbe3872bc	-0.18012518
60	0xbd3bf890	-0.045891345
61	0xbcb49150	-0.022041947
62	0x3bdec000	0.0067977905
63	0x3eab2e9d	0.33434
64	0x3d9f80bc	0.07788226
65	0xbe8e69b8	-0.27815032
66	0xbdba3e34	-0.090938956
67	0xbe536109	-0.20642485
68	0x3e30424e	0.17212793
69	0xbe4f2664	-0.20229489
70	0x3dbe1adc	0.09282467
71	0x3e13f392	0.14448383
72	0xbddbd838	-0.107346
73	0x3ea68513	0.32523403
74	0xbcccac70	-0.024984568
75	0x3b8b3bc0	0.004249066
76	0xbe845cd5	-0.25852075
77	0xbd5e6188	-0.05429223
78	0xbe149354	-0.14509326
79	0xbd939a50	-0.07207167
80	0xbd798700	-0.06091976
81	0xbd93ccc0	-0.07216787
82	0xbe2f7a59	-0.17136516
83	0xbe618881	-0.22024728
84	0x3dcdee7c	0.10055253
85	0x3cefbe90	0.029265672
86	0xbe16dfee	-0.1473386
87	0xbe34b276	-0.17646202
88	0xbd9e6b00	-0.077352524
89	0x3eaba05d	0.33520785
90	0xbe9c8efd	-0.3057784
91	0xbe1bade3	-0.15203051
92	0x3e863637	0.26213238
93	0xbead39b0	-0.33833075
94	0x3e07fb88	0.13279545
95	0x3e93fcb1	0.28903726
96	0xbdab66bc	-0.083692044
97	0x3c723be0	0.014784783
98	0x3da70824	0.081558496
99	0x3eaee6e7	0.3416054
100	0xbd2fac38	-0.04288885
101	0x3e9e5d65	0.3093063
102	0x3eb37ae1	0.35054687
103	0x3e096378	0.1341685
104	0xbe9b8711	-0.30376485
105	0xbeb1465c	-0.34623992
106	0x3e9c76b5	0.30559316
107	0x3ca3ccb0	0.019995064
108	0xbe182ba6	-0.148604
109	0x3e8dc00f	0.27685592
110	0xbe81ce24	-0.25352585
111	0x3e270fce	0.16314623
112	0xbdf1292a	-0.117754295
113	0xbe2efa19	-0.17087592
114	0x3e81532b	0.25258765
115	0xbd6c5b40	-0.05770421
116	0x3e1d3f4a	0.15356174
117	0xbdb2b38c	-0.08725652
118	0x3e8d5169	0.27601174
119	0xbe503996	-0.20334467
120	0x3e82cc0b	0.25546297
121	0xbe18cb0f	-0.1492121
122	0x3e92e1a9	0.2868779
123	0xbe08e340	-0.13367939
124	0xbb7ec580	-0.0038875043
125	0xbe7ed08e	-0.24884245
126	0x3df56ff0	0.11984241
127	0x3e25876e	0.16164944
128	0x3d280260	0.04101789
129	0x3e5bac72	0.21452501
130	0x3e35cac2	0.17753127
131	0x3da9043c	0.08252761
132	0xbcf27750	-0.029597908
133	0x3e697276	0.2279757
134	0xbe4d8324	-0.20069557
135	0xbe336ffa	-0.17523184
136	0xbd4dc990	-0.050241053
137	0xbeaab2d5	-0.33339563
138	0xbe75cd88	-0.24004185
139	0xbe22ad41	-0.15886404
140	0x3e89bde9	0.26902702
141	0x3e70a9d2	0.23502281
142	0x3c6c1ce0	0.014411181
143	0xbe6c22bf	-0.2306013
144	0x3e43b66a	0.19112554
145	0x3d4fb960	0.050713897
146	0x3e9323af	0.28738162
147	0xbe956e87	-0.29185888
148	0xbeb3f682	-0.35149008
149	0x3e1166c0	0.14199352
150	0x3e8e27b3	0.27764663
151	0xbe1f6b19	-0.15568198
152	0x3c230880	0.009950757
153	0x3dfae374	0.122504145
154	0xbd8c471c	-0.068495005
155	0xbdbefb28	-0.09325248
156	0xbd6fdc80	-0.058559895
157	0x3e411eaa	0.18859354
158	0x3e635802	0.22201541
159	0x3d009210	0.031389296
160	0xbcc6b5f0	-0.024256676
161	0xbe51066d	-0.20412607
162	0x3c5dca80	0.013537049
163	0xbe69629f	-0.22791527
164	0xbd25ee20	-0.040510297
165	0xbb0a7b80	-0.002113074
166	0xbe01bc13	-0.12669401
167	0xbeac3c3c	-0.33639705
168	0xbdcb1618	-0.099163234
169	0xbea0fe03	-0.31443796
170	0xbd9ff1ec	-0.07809815
171	0xbdce630c	-0.100774854
172	0xbc2208a0	-0.009889752
173	0xbdfc9d78	-0.12334722
174	0x3ea17c0d	0.31539956
175	0x3e242ece	0.1603348
176	0xbea351e9	-0.3189843
177	0xbe1b3ae7	-0.15159188
178	0xbe1ee13c	-0.15515608
179	0xbe869564	-0.2628585
180	0x3c669d60	0.014075607
181	0x3df34580	0.118784904
182	0x3e096b44	0.13419825
183	0x3d4bcd40	0.04975629
184	0x3e3c5352	0.18391159
185	0x3e56a772	0.20962313
186	0xbeb396e2	-0.35076052
187	0xbe94d9fc	-0.2907256
188	0x3e37baf6	0.17942414
189	0xbea0c9ef	-0.31404063
190	0x3e9b1643	0.30290422
191	0xbcd94150	-0.026520401
192	0x3bbd9240	0.0057852566
193	0xbe77d563	-0.24202494
194	0xbe7037a6	-0.23458728
195	0x3da99510	0.082803845
196	0xbb1ca600	-0.0023902655
197	0xbca5c220	-0.020234168
198	0x3ead67d5	0.3386828
199	0xbda8b350	-0.08237326
200	0x3c1784e0	0.009247988
201	0x3e793d7e	0.24339864
202	0xbc5dbc00	-0.013533592
203	0xbe761ab4	-0.24033624
204	0xbe8769cc	-0.26447904
205	0x3e68f176	0.2274836
206	0xbe72f577	-0.2372645
207	0xbeaae7e6	-0.3338005
208	0x3e099e72	0.13439348
209	0xbe678734	-0.2261017
210	0x3e4b0392	0.1982558
211	0x3e00a574	0.12563115
212	0x3c5098e0	0.012731761
213	0xbe73c065	-0.23803861
214	0x3e4df84e	0.20114252
215	0xbdbf6914	-0.09346214
216	0xbe8b6d23	-0.27231702
217	0xbc115360	-0.008869976
218	0xbcaabe70	-0.02084276
219	0xbea05d3e	-0.31321138
220	0x3e875933	0.2643524
221	0x3da4f580	0.08054638
222	0x3db10a0c	0.086444944
223	0x3e13603c	0.14392179
224	0x3e12b166	0.14325485
225	0x3e8c52ab	0.2740682
226	0x3e9d1701	0.30681613
227	0x3e8ad85f	0.27118203
228	0xbe4747fc	-0.19461054
229	0x3c52f1e0	0.01287505
230	0x3e8a19b7	0.26972744
231	0x3e93dc13	0.2887884
232	0xbe9efe07	-0.31053182
233	0xbe1c738b	-0.15278451
234	0xbe2d5b72	-0.16929415
235	0xbd9872c0	-0.07443762
236	0x3e306ed6	0.1722978
237	0xbe880283	-0.26564416
238	0xbe7d7f2d	-0.24755545
239	0x3e93fcf3	0.28903922
240	0x3ea183b7	0.31545803
241	0xbe859486	-0.26089877
242	0x3eb4d96b	0.35322127
243	0xbdce9f58	-0.10088986
244	0xbe1c83e2	-0.15284684
245	0x3e7567e2	0.2396541
246	0xbe7c88d1	-0.24661566
247	0x3e360a46	0.17777357
248	0x3eb34b59	0.35018423
249	0xbdb95f88	-0.09051424
250	0x3eacbd05	0.3373796
251	0x3e8f72c5	0.2801725
252	0xbe1789b6	-0.14798626
253	0x39d2c400	0.00040200353
254	0x3e9e8297	0.30959007
255	0xbe81473e	-0.25249666

lstm.bias_ih_l0 f4 [32]
0	0x3ded8aa8	0.11598712
1	0x3eb01f62	0.34398943
2	0x3ef54dd8	0.47910953
3	0x3edbde8a	0.4294322
4	0x3e3bde42	0.18346503
5	0x3ebdee4d	0.37095872
6	0xbd8e7d86	-0.069575354
7	0x3dd9799f	0.106189005
8	0xbda74e6c	-0.08169255
9	0xbdd03cb0	-0.10167825
10	0xbe12b638	-0.14327323
11	0xbea446af	-0.32085177
12	0xbe06c325	-0.13160379
13	0xbd6f11a0	-0.058366418
14	0x3e4b6f6a	0.1986672
15	0xbeab3f85	-0.334469
16	0x3e87335f	0.2640638
17	0xbda53541	-0.08066798
18	0xbdee92e2	-0.116491094
19	0xbcf9ce1b	-0.030493787
20	0x3e201448	0.15632737
21	0xbeae0632	-0.33989102
22	0xbec6fc08	-0.3886416
23	0xbdfc59e1	-0.123218305
24	0x3ecb4876	0.3970372
25	0x3edb5b4f	0.428431
26	0x3f4ea3c6	0.8071865
27	0x3effe41e	0.49978727
28	0x3ed46d16	0.41489476
29	0x3dba6151	0.09100593
30	0xbcb3f615	-0.021967927
31	0x3f3cae5b	0.73703545

lstm.bias_hh_l0 f4 [32]
0	0x3ee00656	0.43754834
1	0x3f5bb097	0.8581633
2	0x3f33d3cf	0.7024507
3	0xbbf55389	-0.007486765
4	0x3d7a94b6	0.061176978
5	0x3ca5b698	0.020228669
6	0x3e18242c	0.14857548
7	0x3f277765	0.65416557
8	0xbd5bbef8	-0.05364892
9	0x3e1ea506	0.15492639
10	0x3dc295bc	0.09501216
11	0x3e6720da	0.22571126
12	0x3e9c50b9	0.30530336
13	0xbe32ae27	-0.17449246
14	0xbbc86700	-0.006115794
15	0xbe86d808	-0.26336694
16	0x3dd8313f	0.10556268
17	0xbe896b89	-0.26839855
18	0xbee2e57c	-0.44315708
19	0x3e07a855	0.13247807
20	0x3e4a4143	0.19751458
21	0xbe92d0ff	-0.28675076
22	0xbdf0ea02	-0.117633834
23	0x3ecf2826	0.40460318
24	0x3f0c65b1	0.5484267
25	0x3f62f7d8	0.8865943
26	0x3f06f71d	0.52720815
27	0x3d4f9eb3	0.050688457
28	0x3f1204e7	0.5703873
29	0x3e92cab5	0.28670278
30	0x3d1df5c0	0.038564444
31	0x3eca6ef8	0.39537787

lstm.weight_ih_l1 f4 [32, 8]
0	0xbe3e9550	-0.18611646
1	0x3f1bf9f6	0.60928285
2	0x3eae9629	0.34098938
3	0x3d35c3a0	0.044376016
4	0x3f07de1d	0.5307329
5	0x3cab471b	0.02090793
6	0xbd64eca8	-0.055889755
7	0xbf02dfb9	-0.51122624
8	0xbc967fad	-0.018371427
9	0x3f0806ed	0.5313557
10	0x3dc6be8b	0.09704312
11	0x3e7f30b0	0.24920917
12	0x3f14e18f	0.58156675
13	0xbe9b8ee0	-0.30382442
14	0xbeaf9c7b	-0.34299073
15	0xbedf0b5a	-0.43563348
16	0xbe6dfaee	-0.23240253
17	0xbc648616	-0.013947984
18	0xbe8d6cd2	-0.27622086
19	0xbd028244	-0.031862512
20	0x3d8c7c74	0.06859675
21	0x3ded3e5a	0.11584158
22	0xbece43d8	-0.40286136
23	0x3df216f8	0.11820787
24	0xbe682537	-0.22670446
25	0xbd3ef801	-0.046623234
26	0x3dd3d486	0.1034327
27	0xbdb2a9da	-0.08723803
28	0x3e7d5c84	0.24742323
29	0xbd97d460	-0.07413554
30	0x3eaa3515	0.33243623
31	0xbe6c00b9	-0.2304715
32	0x3e4eb07b	0.2018451
33	0xbd3efcac	-0.046627685
34	0x3e09e4e4	0.13466221
35	0xbc9bb601	-0.019007685
36	0x3edd6433	0.43240508
37	0x3e554e57	0.20830666
38	0xbdbea33d	-0.09308479
39	0x3e634ec2	0.22198012
40	0xbe7ba3e2	-0.24574235
41	0xbdfc13ec	-0.12308487
42	0x3e834c30	0.25644064
43	0x3e01d2a0	0.12678003
44	0x3e9e5620	0.30925083
45	0xbe8d2fa8	-0.2757542
46	0xbedc02fa	-0.4297102
47	0xbe090078	-0.13379085
48	0x3d8e73d9	0.0695569
49	0xbefed0e7	-0.49768755
50	0xbea49bd3	-0.32150134
51	0xbdaf014d	-0.0854517
52	0xbea54c40	-0.32284737
53	0xbe01591e	-0.12631652
54	0xbe94a580	-0.29032516
55	0x3e2829b8	0.16422164
56	0x3ce3fdf0	0.027831048
57	0x3e6d5038	0.23175132
58	0x3ed862cd	0.4226288
59	0x3f230365	0.63677055
60	0x3ec4eff4	0.3846432
61	0x3d35161f	0.04421055
62	0xbee77ec3	-0.452139
63	0xbd96508c	-0.07339582
64	0x3dcef958	0.10106152
65	0x3ea2628f	0.3171582
66	0xbe5a517d	-0.21320148
67	0x3e3a9876	0.18222222
68	0x3e74f2c2	0.2392073
69	0x3e295bba	0.16538897
70	0x3e09c9aa	0.13455835
71	0x3d705fa0	0.058684945
72	0x3e513ef6	0.20434174
73	0xbcac6c70	-0.0210478
74	0x3e75f736	0.24020085
75	0xbd2d2758	-0.04227385
76	0x3e97968f	0.29607055
77	0xbd979040	-0.074005604
78	0x3db4719c	0.08810732
79	0xbe89478a	-0.26812392
80	0x3e1fc286	0.15601549
81	0x3d3d7050	0.046249688
82	0xbe45778a	-0.19283882
83	0xbc39a260	-0.011330217
84	0xbe1084e0	-0.14113188
85	0x3e67f512	0.2265208
86	0x3eab8a1d	0.3350381
87	0x3d234d18	0.039868444
88	0xbe6f10fa	-0.2334632
89	0xbe1a2ae6	-0.15055427
90	0xbea3c56c	-0.31986558
91	0x3e19ad16	0.15007433
92	0x3e130d94	0.14360648
93	0xbdf65774	-0.12028399
94	0x3eaf4f85	0.34240356
95	0x3e4611a6	0.1934267
96	0xbda3d178	-0.07998937
97	0x3e932f91	0.28747228
98	0x3c689e40	0.014197886
99	0xbd278bd0	-0.04090482
100	0x3cef83b0	0.029237598
101	0xbdf09fda	-0.11749239
102	0xbdc2d268	-0.09512788
103	0x3ea98c11	0.33114675
104	0x3e66c666	0.2253662
105	0x3dce4578	0.10071844
106	0xbd103618	-0.035207838
107	0x3e61d1d2	0.22052696
108	0xbcb19a70	-0.021680087
109	0xbd02eb18	-0.031962484
110	0x3e36ea0e	0.17862722
111	0xbdc3cd04	-0.09560588
112	0xbe92facb	-0.28706965
113	0x3cf58ff0	0.029975861
114	0x3db8c9a0	0.09022832
115	0x3dff0d28	0.12453681
116	0xbe291a0c	-0.16513842
117	0xbe95ed5c	-0.29282653
118	0x3e4360c2	0.19079879
119	0x3c011c80	0.00788033
120	0x3ea95c83	0.33078393
121	0x3d49a0a0	0.04922545
122	0x3e988b39	0.29793718
123	0x3e9ae0c9	0.30249622
124	0x3e7adc1a	0.24498025
125	0xbea3567e	-0.31901926
126	0x3e6c8ae2	0.23099855
127	0xbe8e280e	-0.27764934
128	0xbea7c010	-0.3276372
129	0x3f283f39	0.6572147
130	0x3f6b5fda	0.9194313
131	0x3e5e0097	0.21679913
132	0x3e07ec21	0.1327367
133	0x3f1e790b	0.61903447
134	0xbf0fee99	-0.56223446
135	0xbedae255	-0.42750803
136	0x3f5d4f1f	0.86448854
137	0xbf5ad113	-0.8547527
138	0xbf36d5de	-0.71420085
139	0xbf204fe0	-0.6262188
140	0xbf1a6fb2	-0.60326684
141	0xbef77c05	-0.48336807
142	0x3ea534c2	0.32266814
143	0x3f616221	0.8804036
144	0x3e8c5931	0.27411798
145	0xbef6650b	-0.48123965
146	0xbf832b31	-1.0247556
147	0xbe58921d	-0.21149488
148	0xbf3644be	-0.7119864
149	0xbf2097da	-0.6273171
150	0x3f04960f	0.5179147
151	0x3e9f8b06	0.31160754
152	0xbf2626d6	-0.6490301
153	0x3f2f7e87	0.6855244
154	0x3ee35f2b	0.44408545
155	0x3dc1485a	0.09437628
156	0xbd468d07	-0.048474338
157	0x3d85e3db	0.065376006
158	0xbec6b581	-0.38810351
159	0xbcd82025	-0.026382515
160	0xbe6d6352	-0.23182419
161	0x3f141547	0.57844967
162	0x3f301b31	0.6879149
163	0x3eefa879	0.46808222
164	0x3e3ae452	0.1825116
165	0x3e9737c2	0.29534727
166	0xbe9ce45b	-0.3064297
167	0xbf02df78	-0.51122236
168	0xbf1efb48	-0.62102175
169	0x3ec14b6a	0.3775285
170	0x3ee67e73	0.45018348
171	0x3f0e686f	0.55628103
172	0x3f023a5d	0.50870305
173	0x3eb09b6a	0.34493572
174	0xbdf40eb9	-0.119168706
175	0xbe115856	-0.14193854
176	0x3ef05544	0.46940053
177	0xbf09cc7b	-0.5382764
178	0xbea40f24	-0.320428
179	0xbe7879ec	-0.2426526
180	0xbf1f84d3	-0.6231205
181	0xbedd1ebb	-0.43187508
182	0x3de91def	0.113826625
183	0x3f416b3a	0.7555424
184	0x3f61de72	0.8823005
185	0xbf4d5f09	-0.8022314
186	0xbf452e16	-0.77023447
187	0xbf54e300	-0.83158875
188	0xbea8c1e6	-0.32960433
189	0xbf113478	-0.56720686
190	0x3c852f2e	0.016257849
191	0x3f1134b9	0.56721073
192	0xbe1ff61d	-0.15621229
193	0x3f3176ab	0.693217
194	0x3f2db662	0.6785642
195	0x3efb1831	0.49041894
196	0x3f1f4b1d	0.6222399
197	0xbcb7690f	-0.022388963
198	0xbe8549f3	-0.2603298
199	0xbeeccb13	-0.46248683
200	0x3dc15cf8	0.094415605
201	0x3f12c1c1	0.57326895
202	0x3eb84cab	0.35995993
203	0x3f132b71	0.5748816
204	0x3e3e1205	0.18561561
205	0xbdc27ae3	-0.09496095
206	0xbebda1ab	-0.37037405
207	0xbda461e3	-0.08026483
208	0xbd9ef50b	-0.07761582
209	0xbde128d5	-0.10994116
210	0x3d17b82d	0.037040878
211	0x3e081b75	0.13291724
212	0x3ef49265	0.4776794
213	0x3e1ef673	0.155237
214	0xbd8a6b91	-0.06758798
215	0x3e892477	0.26785633
216	0x3e3c691a	0.18399468
217	0x3e2014c6	0.15632924
218	0x3e17f4ca	0.14839473
219	0xbe809813	-0.25116023
220	0x3db1f3d1	0.086890824
221	0xbd556c92	-0.052105494
222	0xbc246cbb	-0.010035689
223	0x3ec28793	0.3799406
224	0x3e98b1f9	0.29823282
225	0x3ddd4259	0.108036704
226	0xbda17bba	-0.07884927
227	0x3cf56f97	0.029960437
228	0x3ed5d2fd	0.41762534
229	0x3e105da4	0.14098221
230	0xbe9af8bb	-0.3026789
231	0x3e634eb5	0.22197993
232	0xbe9f33f3	-0.31094322
233	0x3e6a6f50	0.22894025
234	0x3eb6390a	0.35590392
235	0xbdb65a22	-0.0890391
236	0x3e22fb50	0.1591618
237	0xbe834fc3	-0.2564679
238	0x3d0611f2	0.032731958
239	0x3d969b06	0.07353787
240	0x3e38665e	0.180078
241	0xbe0163c9	-0.12635721
242	0xbee7b2f8	-0.4525373
243	0xbeb5e8fe	-0.3552932
244	0xbe448b99	-0.19193877
245	0xbd117028	-0.03550735
246	0x3d2f4513	0.042790484
247	0x3efdfd33	0.49607238
248	0xbf0cd4d2	-0.5501224
249	0x3ed98d54	0.42490637
250	0x3efc443d	0.49270812
251	0x3ef4a38e	0.47781032
252	0x3f0a0987	0.5392079
253	0xbe47d588	-0.1951505
254	0x3d915516	0.07096307
255	0xbe29910c	-0.16559237

lstm.weight_hh_l1 f4 [32, 8]
0	0xbe4eee90	-0.20208192
1	0xbdfec84e	-0.12440549
2	0xbe64ba7c	-0.22336763
3	0x3e509a8e	0.20371458
4	0xbda27b90	-0.07933724
5	0x3daf2604	0.08552173
6	0x3e8cc6ed	0.27495518
7	0x3d66d9b8	0.056359977
8	0x3ea23497	0.31680748
9	0x3db513b0	0.08841646
10	0x3e0af362	0.13569406
11	0x3e9b840b	0.30374178
12	0x3e3032a6	0.17206821
13	0x3ddff18c	0.10934743
14	0x3e7ec0aa	0.24878183
15	0xbe0987ff	-0.13430785
16	0x3da296a4	0.07938889
17	0xbd1c0a48	-0.038095742
18	0xbd6aea98	-0.057352632
19	0x3eacacbf	0.33725545
20	0xbdcbfca0	-0.09960294
21	0xbeb2da32	-0.34932095
22	0x3d50f040	0.05101037
23	0xbc9e1620	-0.01929766
24	0x3db1823c	0.08667418
25	0x3e829f35	0.2551209
26	0x3e406d32	0.18791655
27	0xbe9595f5	-0.2921597
28	0x3e8be17d	0.2732047
29	0x3dc91740	0.09818888
30	0xbe4dec04	-0.20109564
31	0xbd82137c	-0.063513726
32	0xbe90c8e8	-0.2827828
33	0xbe0d9a23	-0.1382833
34	0x3e9e16d3	0.30876788
35	0xbe860fa3	-0.26183805
36	0x3d797e08	0.06091121
37	0xbe78e14e	-0.24304697
38	0x3e8433ab	0.2582067
39	0xbd0a8dc0	-0.03382659
40	0xbdf46288	-0.11932856
41	0x3e66222a	0.2247397
42	0xbe903d8c	-0.28171957
43	0xbeaa4eb6	-0.33263177
44	0xbdff9502	-0.12479593
45	0x3e88f669	0.26750496
46	0x3d4460e0	0.04794395
47	0xbbadd580	-0.005304992
48	0x3e5abe4a	0.21361652
49	0x3e85bf4d	0.26122513
50	0x3dba8cb0	0.09108865
51	0xbd854cb4	-0.065087706
52	0x3e97f871	0.29681733
53	0x3e26cf42	0.1629
54	0x3d977a60	0.07396388
55	0x3d294198	0.04132232
56	0x3e994c41	0.2994099
57	0xbe862790	-0.2620206
58	0x3e9234a5	0.2855579
59	0xbda6beb4	-0.081418425
60	0xbdefde86	-0.11712365
61	0x3e93ffa1	0.28905967
62	0x3d347d20	0.04406464
63	0x3e6148f2	0.22000483
64	0xbe828eac	-0.25499475
65	0xbe75afe6	-0.23992881
66	0xbe993f0d	-0.29930916
67	0xbea6601a	-0.32495195
68	0x3e98eadd	0.29866686
69	0x3e55aa96	0.20865855
70	0x3de345d8	0.11097306
71	0xbdf149e8	-0.117816746
72	0xbe64e763	-0.22353892
73	0xbe917334	-0.28408206
74	0x3e2b2ea6	0.16717014
75	0x3ea9276b	0.33037886
76	0x3d6747d0	0.05646497
77	0xbd89bb38	-0.06725162
78	0xbe813e77	-0.2524297
79	0xbe88cc68	-0.2671845
80	0xbe6367bc	-0.2220754
81	0x3e5a97c2	0.21346954
82	0x3d5f1638	0.05446455
83	0x3e52d9ce	0.20590898
84	0x3d3b2f60	0.045699477
85	0xbe26d21f	-0.16291092
86	0x3dc71068	0.09719926
87	0xbe940b5e	-0.28914922
88	0x3ea66eb7	0.32506344
89	0x3e2cf1f2	0.1688917
90	0xbe21e946	-0.15811643
91	0xbd6a2858	-0.05716738
92	0x3d6189b0	0.05506295
93	0x3de73ebc	0.112912625
94	0x3dfc02d0	0.12305224
95	0x3e6ef90a	0.23337188
96	0x3e6c6922	0.2308698
97	0xbe700698	-0.23440015
98	0xbe39d628	-0.181481
99	0xbd7b1048	-0.061294824
100	0x3e1a7ac6	0.15085897
101	0xbb1c8680	-0.002388388
102	0x3e532746	0.2062045
103	0xbe8804c6	-0.26566142
104	0x3c59d980	0.013296485
105	0x3e1f19ee	0.15537235
106	0x3e43942e	0.19099495
107	0x3daa37a8	0.08311397
108	0x3e031424	0.12800652
109	0x3de7b3c8	0.113135874
110	0xbd6b6f20	-0.057479024
111	0xbeb04073	-0.3442417
112	0x3dedce6c	0.116116375
113	0x3a302200	0.00067189336
114	0x3d733c88	0.0593839
115	0x3d933e88	0.07189661
116	0x3e9d0b37	0.3067262
117	0x3e091cc2	0.13389876
118	0x3df60f00	0.1201458
119	0xbe10b778	-0.14132488
120	0xbe1a5f6f	-0.15075468
121	0xbe7b151a	-0.24519768
122	0x3e5b8942	0.21439078
123	0x3e370fe6	0.17877159
124	0xbe85244f	-0.26004264
125	0x3db04228	0.08606368
126	0xbe16ad43	-0.14714532
127	0x3dee0d70	0.11623657
128	0x3cfb9b10	0.030713588
129	0xbe9a5332	-0.30141598
130	0x3e620fde	0.22076365
131	0x3e9ad919	0.30243757
132	0xbe9d15a3	-0.3068057
133	0x3ea652bb	0.32484993
134	0x3e4fdb86	0.20298585
135	0xbde27492	-0.1105739
136	0xbd565658	-0.052328438
137	0xbd0d2840	-0.034462214
138	0xbcceaad0	-0.025227934
139	0x3ea41411	0.3204656
140	0xbe86e616	-0.26347417
141	0x3e3b2aca	0.18278041
142	0xbe6eaec4	-0.23308855
143	0xbe79ff8c	-0.2441389
144	0x3e4aac3e	0.19792268
145	0xbda9e340	-0.082952976
146	0xbaa05300	-0.0012231767
147	0x3e8d557d	0.27604285
148	0x3dac8448	0.08423668
149	0x3c3503e0	0.011048287
150	0x3dce017c	0.10058877
151	0x3e8c870f	0.27446792
152	0xbe68a7f5	-0.2272032
153	0xbdd8993c	-0.10576102
154	0x3eb41879	0.3517492
155	0xbe9b47f6	-0.3032834
156	0x3b062d00	0.00204736
157	0xbe96be34	-0.29441988
158	0x3cb4f000	0.022087097
159	0x3e042b72	0.12907198
160	0x3ea82a97	0.32844993
161	0xbeaf9eb0	-0.34300756
162	0x3e332622	0.17495015
163	0x3e44363e	0.19161317
164	0x3d7547d8	0.05988297
165	0x3e975449	0.29556492
166	0x3cea65e0	0.02861303
167	0x3e00a57a	0.12563124
168	0xbeafc0bf	-0.3432674
169	0xbe3d112c	-0.18463582
170	0xbde18bd2	-0.11012997
171	0x3e49344e	0.19648859
172	0x3de5f9b4	0.11229268
173	0xbe6149e2	-0.2200084
174	0x3e2a96e6	0.16659126
175	0x3d387ca0	0.045040727
176	0xbace2a00	-0.001572907
177	0x3e637b1e	0.22214934
178	0xbe58220b	-0.21106736
179	0x3e2d9faa	0.16955438
180	0x3e046c00	0.12931824
181	0xbd58e570	-0.052953184
182	0x3e07a474	0.13246328
183	0xbe97f19b	-0.29676518
184	0x3d9ce5ac	0.07660994
185	0x3d038418	0.032108396
186	0xbea1e970	-0.3162341
187	0x3e801821	0.2501841
188	0xbe690f87	-0.2275983
189	0xbe398d03	-0.18120198
190	0x3e0d9a26	0.13828334
191	0x3e930f21	0.2872248
192	0x3daa9750	0.08329642
193	0x3e75f906	0.24020776
194	0x3e27cb8a	0.16386238
195	0xbe4fb4c3	-0.20283799
196	0x3c5acf00	0.013355017
197	0xbe330ac0	-0.1748457
198	0xbe0858d8	-0.13315141
199	0xbe88b151	-0.26697782
200	0x3d5e2f98	0.054244608
201	0xbe54fb26	-0.2079893
202	0x3ea3078b	0.31841692
203	0x3e8c8703	0.27446756
204	0xbd3fba88	-0.04680875
205	0xbe15c601	-0.14626314
206	0x3e253ae2	0.16135743
207	0xbe17c973	-0.1482294
208	0x3e049ec8	0.12951195
209	0x3e8ef205	0.2791902
210	0x3e2b2a22	0.16715291
211	0x3e6ea492	0.23304966
212	0xbcc17d90	-0.023619443
213	0xbd496320	-0.0491668
214	0xbe67ef18	-0.22649801
215	0x3ea4a31d	0.32155696
216	0xbe946518	-0.28983378
217	0x3e90e03f	0.28296086
218	0x3e9ca2a7	0.30592844
219	0xbea198d4	-0.3156191
220	0xbbb67dc0	-0.00556919
221	0x3e3ebb36	0.18626103
222	0x3e460f86	0.19341859
223	0x3e39b93e	0.1813707
224	0xbdbfe304	-0.09369472
225	0x3e11901e	0.14215133
226	0x3eadbccb	0.339331
227	0xbeb3f81c	-0.3515023
228	0xbeb1f6ac	-0.34758508
229	0xbdc02560	-0.09382129
230	0xbdf8d614	-0.12150207
231	0xbd7195b0	-0.058980644
232	0x3dcd05cc	0.10010871
233	0x3e60b52a	0.21944109
234	0xbe820fb2	-0.254026
235	0x3e90b2e7	0.28261492
236	0xbe527eeb	-0.20556228
237	0x3cfe89d0	0.031071573
238	0x3d5d24c8	0.053990155
239	0xbe1ae563	-0.15126567
240	0xbe5d905f	-0.21637104
241	0x3e06dad8	0.1316942
242	0xbe88eaea	-0.26741725
243	0xbe558308	-0.20850766
244	0x3cd55d60	0.026045501
245	0x3e78849a	0.24269333
246	0x3e68be9a	0.22728959
247	0xbc746480	-0.014916539
248	0xbb98eb40	-0.004666716
249	0xbea0a6dc	-0.31377304
250	0x3e39e7d2	0.18154839
251	0xbe69496c	-0.22781914
252	0x3ca69610	0.020335227
253	0x3c56c220	0.013107806
254	0x3be431c0	0.0069639385
255	0xbeb1e1ce	-0.34742588

lstm.bias_ih_l1 f4 [32]
0	0x3e4b4092	0.1984885
1	0x3ebd2092	0.36938912
2	0x3eb3e45d	0.35135165
3	0x3e2763f9	0.1634673
4	0x3eda3093	0.42615184
5	0x3e1d5511	0.15364482
6	0x3e902be9	0.281585
7	0x3f6e2fbd	0.9304159
8	0xbeb2fcdc	-0.3495854
9	0x3d067ea8	0.032835633
10	0x3d3abfc0	0.045593023
11	0xbe97333b	-0.29531273
12	0xbdb1c3c8	-0.086799204
13	0x3ea07e1b	0.3134621
14	0xbea61d91	-0.32444432
15	0x3e849279	0.25893
16	0x3db2d4af	0.087319724
17	0x3e82a1b2	0.2551399
18	0x3ee34013	0.44384822
19	0xbf1ac6d7	-0.60459656
20	0xbe80fa3b	-0.2519091
21	0xbe47ab18	-0.19498861
22	0x3eb30ee6	0.34972304
23	0x3dd70a48	0.10500008
24	0x3eb58dfb	0.35459885
25	0x3f0b1a2d	0.54336816
26	0x3f2d9622	0.6780721
27	0x3e921f9f	0.2853975
28	0x3ebd1989	0.36933544
29	0x3ca25de4	0.019820161
30	0x3e6f97f5	0.23397811
31	0x3ecf5a73	0.40498695

lstm.bias_hh_l1 f4 [32]
0	0x3e9c763d	0.3055896
1	0x3f006ea8	0.5016885
2	0x3f46213b	0.77394456
3	0x3d9252dc	0.071447104
4	0x3e6e4baa	0.23271051
5	0x3d07f685	0.033194084
6	0x3e7edcbb	0.2488889
7	0x3f0e3d08	0.55561876
8	0x3d97726c	0.07394871
9	0xbe947100	-0.28992462
10	0xbe2a12f0	-0.16608787
11	0x3d8a31b4	0.06747761
12	0xbe9c7fe1	-0.30566314
13	0x3dd3cf38	0.10342258
14	0x3e7a187a	0.244234
15	0xbdf9a5c0	-0.121898174
16	0xbda3dad4	-0.080007225
17	0x3e9d00e0	0.3066473
18	0x3dc8fbb8	0.098136365
19	0x3d7fa2dc	0.062411174
20	0xbe97a807	-0.29620382
21	0xbd222f15	-0.039595682
22	0x3ef56752	0.4793039
23	0x3eaddcda	0.3395756
24	0x3e24626e	0.16053173
25	0x3f46a3bc	0.7759359
26	0x3f383ed9	0.719709
27	0xbd8001c1	-0.062503345
28	0x3e99d513	0.30045375
29	0x3e1a0ce2	0.15043977
30	0x3f030ed5	0.51194507
31	0x3ef0fe70	0.4706912

lstm.weight_ih_l2 f4 [32, 8]
0	0x3f2fffc6	0.68749654
1	0xbe897713	-0.2684866
2	0xbe431217	-0.1904987
3	0xbcbb3bec	-0.022855721
4	0x3edce11d	0.43140498
5	0x3e754c7c	0.23954958
6	0x3d873617	0.06602114
7	0xbea33741	-0.31878093
8	0xbd086b09	-0.0333052
9	0x3e8a5521	0.27018073
10	0x3e81460f	0.25248763
11	0xbf0c570d	-0.5482033
12	0xbe8227b1	-0.25420907
13	0xbee1b144	-0.44080555
14	0x3e7e7d0f	0.24852394
15	0x3ec3f27d	0.3827094
16	0xbdcfb04e	-0.10141049
17	0x3e8b66ea	0.27226955
18	0x3e47fed1	0.19530798
19	0x3c4de222	0.012566121
20	0x3e1ff1e9	0.15619625
21	0x3e21af2f	0.15789483
22	0x3ef17b41	0.47164348
23	0x3ed79fa0	0.42113972
24	0x3f229dd4	0.63522077
25	0x3d03bd6f	0.03216308
26	0x3d882d90	0.06649315
27	0xbd24ea61	-0.040262584
28	0xbdbb72ce	-0.09152757
29	0x3c313e78	0.010818116
30	0x3e1b03e0	0.15138197
31	0xbe1f557c	-0.15559953
32	0x3d0163b2	0.031589217
33	0xbe62a28e	-0.22132322
34	0xbdd1ad2d	-0.10238109
35	0x3c4388e5	0.011934494
36	0xbe36e029	-0.17858948
37	0x3e3fbd9f	0.18724678
38	0x3f01c8a4	0.5069678
39	0xbeac3e68	-0.33641362
40	0x3dd6754c	0.10471591
41	0x3ca814fd	0.02051782
42	0x3ede556f	0.43424556
43	0x3de2c236	0.11072199
44	0xbd2f2090	-0.042755663
45	0xbd385d58	-0.045010895
46	0x3ea4a355	0.32155862
47	0x3d7b6e95	0.061384756
48	0xbd4e1d4f	-0.05032092
49	0x3f2e6097	0.68116134
50	0x3ef93b22	0.48677927
51	0xbe547e6a	-0.20751348
52	0xbc849ce1	-0.016188087
53	0xbe7bcfe8	-0.24591029
54	0x3ecbd251	0.39808896
55	0x3f353819	0.70788723
56	0x3e450d52	0.19243363
57	0xbf037f37	-0.5136599
58	0xbda91a4e	-0.0825697
59	0xbe43d222	-0.19123128
60	0x3e739aea	0.23789564
61	0xbe017fec	-0.12646455
62	0x3d6e7fb1	0.058227245
63	0xbf1df648	-0.6170392
64	0x3e95a0c9	0.29224232
65	0x3dbac354	0.09119287
66	0x3e6f8212	0.23389462
67	0x3e691642	0.22762397
68	0x3cac6910	0.021046191
69	0x3e859277	0.26088306
70	0x3e46e09a	0.19421616
71	0x3df0e6bc	0.11762759
72	0xbbd8cf00	-0.006616473
73	0xbcd11d70	-0.025526732
74	0xbe8fa111	-0.2805257
75	0x3eb0b673	0.34514198
76	0xbcf7a250	-0.030228764
77	0xbe062372	-0.13099459
78	0xbe9dd45b	-0.30826077
79	0x3dec5ac4	0.1154075
80	0x3ea7e15b	0.3278912
81	0xbbc7cd40	-0.0060974658
82	0xbd2fa4a8	-0.042881638
83	0x3e38d54e	0.1805012
84	0x3e153434	0.14570695
85	0xbd24d820	-0.040245175
86	0xbead8a8a	-0.3389476
87	0x3e12fb26	0.14353618
88	0xbe0272d7	-0.1273912
89	0x3d11e138	0.035615176
90	0x3d80aa24	0.06282452
91	0xbdb61430	-0.08890569
92	0xbdbfa334	-0.093573004
93	0xbe80e77f	-0.25176618
94	0xbeb14995	-0.3462645
95	0xbd1b5ea8	-0.037932068
96	0x3e29b182	0.1657162
97	0xbe7765e0	-0.24159956
98	0x3cb60ce0	0.022222936
99	0xbd1548f8	-0.03644654
100	0xbead7063	-0.33874807
101	0xbd95f32c	-0.07321772
102	0xbe6b4b58	-0.2297796
103	0xbe6f7b51	-0.23386885
104	0x3dab02e0	0.08350158
105	0xbe087ba6	-0.13328418
106	0xbe8f29d7	-0.2796161
107	0xbdcab418	-0.098976314
108	0x3e519966	0.20468673
109	0x3d6ccba8	0.05781141
110	0x3d9e8174	0.07739535
111	0x3e59b9e2	0.21262315
112	0xbdcf89f4	-0.10133734
113	0x3d3f6ef8	0.046736687
114	0xbdb87ffc	-0.09008786
115	0xbe0ae3fb	-0.1356353
116	0xbdb5d1a8	-0.088778794
117	0xbde1ccac	-0.11025366
118	0x3d39b7e0	0.045341372
119	0x3e3bb9a2	0.18332532
120	0x3e32fd82	0.17479518
121	0xbd977090	-0.073945165
122	0x3d97676c	0.07392773
123	0xbe914538	-0.28373122
124	0xbe0c9b5f	-0.13731144
125	0xbe00aa01	-0.12564851
126	0x3e8894b5	0.26675954
127	0x3e89632d	0.26833478
128	0x3ea8efd1	0.32995465
129	0xbf879b74	-1.0594316
130	0xbf4b48cd	-0.7940796
131	0x3e784d75	0.24248298
132	0x3f0c2fd3	0.54760474
133	0x3f16a24c	0.58841395
134	0xbf4e7078	-0.80640364
135	0xbf5605f3	-0.8360283
136	0x3f00a31f	0.50248903
137	0xbf0af728	-0.5428338
138	0xbf3bce49	-0.7336164
139	0x3f27a97c	0.6549299
140	0x3edec0e8	0.4350655
141	0x3eeaad48	0.45835328
142	0xbf214060	-0.62988853
143	0xbf1931d0	-0.5984163
144	0x3f2a1752	0.66441834
145	0xbf708a62	-0.93961155
146	0xbe542de4	-0.20720631
147	0x3f07511f	0.52858156
148	0x3e0dd593	0.13851003
149	0x3eda982b	0.4269422
150	0xbde1c70a	-0.11024292
151	0xbf58b863	-0.8465635
152	0x3f45da05	0.77285796
153	0xbf6e4d5c	-0.9308679
154	0xbea699f1	-0.32539323
155	0x3ec2cfef	0.38049266
156	0x3e69a444	0.22816569
157	0x3e94fa4c	0.2909721
158	0xbe65a72c	-0.22427052
159	0xbf4dccc0	-0.8039055
160	0x3f24823a	0.6426121
161	0xbf0a72eb	-0.540816
162	0xbf12dc53	-0.5736744
163	0x3f0a7827	0.5408959
164	0x3f1b3f24	0.6064322
165	0x3e04b7ad	0.12960692
166	0xbeb295c6	-0.34879893
167	0xbf6f20c8	-0.93409395
168	0x3f0fc93a	0.5616642
169	0xbf1ed44f	-0.6204271
170	0xbde45fe4	-0.11151102
171	0x3e9ff89f	0.3124437
172	0x3ea6b760	0.3256178
173	0xbcd5f45c	-0.026117496
174	0xbe5b43ed	-0.2141263
175	0xbf460bfb	-0.7736203
176	0x3ee55bfc	0.4479674
177	0xbf23f41a	-0.64044344
178	0xbf177229	-0.5915857
179	0x3e31581a	0.17318764
180	0x3f4e2999	0.80532223
181	0x3dc83e12	0.09777464
182	0xbe4cea27	-0.20011197
183	0xbf422185	-0.75832397
184	0xbe6ebac2	-0.2331343
185	0x3f0c8de5	0.54904014
186	0x3f21743f	0.63068
187	0xbe9e5946	-0.30927485
188	0xbe8f307a	-0.27966672
189	0xbea04b42	-0.31307417
190	0x3f2ee9a0	0.68325233
191	0x3f0aa1a2	0.5415288
192	0x3d7d09f5	0.061777074
193	0xbf136e54	-0.5759022
194	0xbed44ce3	-0.4146491
195	0xbe31ec26	-0.1737524
196	0x3b02bf05	0.0019950282
197	0x3f05312d	0.5202816
198	0xbd914664	-0.07093504
199	0xbf1da1c7	-0.6157498
200	0x3e18151b	0.14851801
201	0x3ee5c004	0.4487306
202	0x3f210618	0.62899923
203	0xbeb85b83	-0.36007318
204	0xbecc4767	-0.39898226
205	0x3e0221c2	0.1270819
206	0x3e7119d2	0.23545006
207	0x3ecb5254	0.3971125
208	0xbe8b762a	-0.2723859
209	0x3ecd0e82	0.4005013
210	0xbd654846	-0.05597713
211	0x3cd05050	0.025428921
212	0xbe10cce7	-0.14140664
213	0x3e557d21	0.20848514
214	0x3ebf22cc	0.37331235
215	0x3ddacad9	0.10683221
216	0x3d98e126	0.07464819
217	0xbf0f800e	-0.5605477
218	0xbe525f13	-0.2054408
219	0xbe2b0a69	-0.1670319
220	0x3e41fac9	0.18943323
221	0x3df9b95d	0.12193558
222	0x3e60899b	0.21927492
223	0x3d73403b	0.059387427
224	0xbdc90146	-0.09814696
225	0x3df5ecff	0.12008094
226	0x3e79d94a	0.24399295
227	0xbdbec8f5	-0.09315673
228	0xbe03a2c7	-0.12855063
229	0xbdbdf7a9	-0.09275753
230	0xbc48e3b8	-0.012261324
231	0xbe4fc209	-0.20288862
232	0xbd07af5a	-0.033126213
233	0x3dc9a3bc	0.09845683
234	0x3ee30a3b	0.44343743
235	0x3db3289d	0.08747981
236	0xbef240a9	-0.47314957
237	0xbdd488c6	-0.1037765
238	0x3f01e90e	0.5074624
239	0x3e905192	0.28187233
240	0xbcd28cd8	-0.025701925
241	0x3f52e629	0.82382447
242	0x3e7dd3d4	0.24787837
243	0xbec4e931	-0.3845916
244	0xbf1d149d	-0.6135958
245	0xbeeb8573	-0.4600025
246	0x3f09f57d	0.5389021
247	0x3f2c5add	0.67326146
248	0x3e361f3f	0.17785357
249	0xbf1ce805	-0.61291534
250	0xbe762c39	-0.24040307
251	0x3d8e2204	0.06940082
252	0xbc6293a2	-0.013829144
253	0x3dc1dd47	0.094660334
254	0xbdb18a4a	-0.08668955
255	0xbeffbbb3	-0.4994789

lstm.weight_hh_l2 f4 [32, 8]
0	0xbcabbaa0	-0.020963013
1	0x3e491c46	0.19639692
2	0x3e9e25bb	0.3088816
3	0x3cb4e6a0	0.022082627
4	0xbe2e6efc	-0.17034525
5	0xbe9b535f	-0.30337045
6	0xbe83b062	-0.25720507
7	0x3c1d9ce0	0.009619921
8	0x3e89eab9	0.26936892
9	0x3d3f3a08	0.046686202
10	0x3e6b27da	0.22964421
11	0x3e2c3cfe	0.16820142
12	0xbdb4ec2c	-0.08834109
13	0x3e8aac1f	0.27084443
14	0x3e0561d0	0.13025594
15	0xbea1b8f9	-0.31586435
16	0xbe438a5d	-0.1909575
17	0xbe50e2e5	-0.20399053
18	0x3e8375df	0.25675866
19	0x3c902470	0.0175955
20	0xbe1a45c8	-0.15065682
21	0x3e06d456	0.13166937
22	0x3c41ee20	0.011836559
23	0xbe9b391a	-0.30317003
24	0x3d7f8730	0.062384784
25	0x3e01fa00	0.12693024
26	0xbdeb2a02	-0.11482622
27	0x3e930cff	0.28720853
28	0xbe981e70	-0.29710722
29	0xbe84bc48	-0.25924897
30	0x3e0184a0	0.12648249
31	0x3e59624a	0.212289
32	0xbe671f9a	-0.22570649
33	0xbe947cab	-0.29001364
34	0x3e0cdb8a	0.13755623
35	0x3e24acce	0.16081545
36	0x3d1a85c0	0.03772521
37	0xbea90e56	-0.3301875
38	0x3e05e00a	0.13073745
39	0xbe6b324c	-0.22968405
40	0xbd615450	-0.055012047
41	0x3e8fbf11	0.2807546
42	0xbd63e798	-0.055640787
43	0xbd856844	-0.06514028
44	0xbe16ddf3	-0.14733104
45	0x3e437f36	0.19091496
46	0x3eaca42f	0.33719012
47	0xbe70ceb2	-0.23516348
48	0x3ea76421	0.3269358
49	0x3e3d0162	0.18457559
50	0xbe58adc1	-0.21160032
51	0xbe110a5d	-0.1416411
52	0x3e8819bd	0.26582137
53	0x3e86f33f	0.26357457
54	0x3d59b2b8	0.053148955
55	0xbe7c8db9	-0.24663438
56	0x3e7aff6e	0.24511501
57	0xbeb2eb8f	-0.34945342
58	0xbe6e65ee	-0.2328107
59	0x3ead56f7	0.3385541
60	0xbe9baf65	-0.30407253
61	0xbcc93e50	-0.024565846
62	0xbe87e7ae	-0.26543945
63	0x3e316b62	0.1732612
64	0xbe0e9381	-0.13923456
65	0x3da62ad0	0.081136346
66	0xbe4ff094	-0.20306617
67	0xbc8c4c00	-0.017126083
68	0xbe54bb05	-0.20774467
69	0xbe206b1d	-0.1566586
70	0xbeaf9f2b	-0.34301123
71	0xbe3f7c69	-0.18699802
72	0xbe82d5d3	-0.2555376
73	0x3dc24bf8	0.09487146
74	0x3c2712c0	0.010197341
75	0xbe916513	-0.28397426
76	0xbe8e32a3	-0.27773008
77	0xbb99dcc0	-0.004695505
78	0x3d957dc0	0.072993755
79	0xbc148460	-0.009064764
80	0xbca6ae10	-0.020346671
81	0x3e56707e	0.2094135
82	0xbe9281c1	-0.2861462
83	0xbd038520	-0.03210938
84	0x3d6ef760	0.058341384
85	0x3c3251e0	0.010883778
86	0x3e17d7b2	0.14828375
87	0xbe472474	-0.194475
88	0xbc4ed8a0	-0.01262489
89	0xbe72c98c	-0.23709697
90	0xbe647d98	-0.22313535
91	0x3cbf0b50	0.023320824
92	0xbda9ba34	-0.082874686
93	0xbe10c24e	-0.14136621
94	0xbe809ad8	-0.25118136
95	0x3d0f5030	0.034988582
96	0xbea67c78	-0.32516837
97	0x3e2a661e	0.16640517
98	0xbe4aa3e5	-0.19789083
99	0xbde1abd0	-0.11019099
100	0x3e89651b	0.2683495
101	0x3e047e14	0.1293872
102	0xbe74640e	-0.23866293
103	0xbdf2f00e	-0.11862193
104	0xbe47bfdd	-0.19506784
105	0x3e673f62	0.22582772
106	0x3e983263	0.29725942
107	0x3ea86675	0.3289067
108	0x3dcaa104	0.098939925
109	0xbc09d440	-0.008412421
110	0xbeaf5f8e	-0.3425259
111	0xbda03e28	-0.07824355
112	0x3e9ce9c9	0.30647114
113	0x3b5d8980	0.003380388
114	0x3e9c76b9	0.30559328
115	0x3ea0c31b	0.31398854
116	0x3e8aaac3	0.27083406
117	0x3dfb9fc4	0.12286332
118	0x3e14c25a	0.14527264
119	0x3e452362	0.19251779
120	0x3e391eca	0.18078151
121	0xbe0705f4	-0.13185865
122	0xbba0e180	-0.004909694
123	0xbea99758	-0.3312328
124	0x3ea4c84f	0.32184073
125	0xbe3862e4	-0.18006474
126	0x3e1fa4e6	0.15590248
127	0xbdadf464	-0.084938794
128	0xbe695ecf	-0.22790073
129	0x3d3e00a0	0.046387315
130	0x3e30059a	0.17189637
131	0xbc80b020	-0.015708983
132	0xbe3b49c3	-0.18289857
133	0xbe8ed1cd	-0.2789444
134	0x3e9a0393	0.30080852
135	0xbe9e36fb	-0.30901322
136	0xbeb0d24c	-0.34535444
137	0x3e21dcc6	0.15806875
138	0x3e1e0502	0.15431598
139	0xbd663380	-0.056201458
140	0x3e304236	0.17212757
141	0x3db3d218	0.087803066
142	0xbd63c6c0	-0.055609465
143	0x3e1f79b2	0.15573767
144	0x3e362aae	0.17789719
145	0x3d03f4a0	0.032215714
146	0x3e754b4e	0.23954508
147	0xbdbc90e4	-0.09207323
148	0x3e988be7	0.29794237
149	0xbd5eebc0	-0.054424047
150	0xbeaf504f	-0.34240958
151	0x3e1a58fa	0.15073004
152	0xbe94921d	-0.29017726
153	0xbe27b69e	-0.16378257
154	0x3e65137e	0.22370717
155	0xbe0c4665	-0.13698728
156	0xbe0f32e4	-0.13984257
157	0xbd35df58	-0.04440245
158	0xbe1e9fb2	-0.15490606
159	0xbd7163e0	-0.05893314
160	0xbe668943	-0.22513299
161	0xbe922c7c	-0.28549564
162	0x3d9032c8	0.07040936
163	0xbe846714	-0.25859892
164	0x3d4ad620	0.04952061
165	0xbd5392b0	-0.051653564
166	0xbeab241c	-0.33425987
167	0x3dd92f9c	0.10604784
168	0x3e8b299f	0.27180192
169	0xbe424cbe	-0.18974587
170	0x3e9d4247	0.30714628
171	0xbc44dd40	-0.012015641
172	0x3eb16b95	0.3465239
173	0xbda2095c	-0.079119414
174	0x3e0f9160	0.140203
175	0x3e8e0879	0.2774084
176	0xbe3fe82d	-0.18740912
177	0x3e8e50af	0.27795932
178	0x3e9d5493	0.30728588
179	0x3e9d5845	0.30731407
180	0xbdcc8510	-0.09986317
181	0xbe30137e	-0.17194936
182	0x3cd8a040	0.0264436
183	0xbe6047d2	-0.21902397
184	0x3c649da0	0.013953596
185	0x3dc8a354	0.09796777
186	0xbea8dd20	-0.32981205
187	0x3eaa66fd	0.332817
188	0xbd227978	-0.039666623
189	0x3e3410a2	0.1758447
190	0x3e992df9	0.29917887
191	0xbe90be83	-0.2827035
192	0xbeadf2fe	-0.3397445
193	0xbe63fbff	-0.22264098
194	0x3c800c10	0.015630752
195	0xbe20dbd2	-0.15708855
196	0xbc245300	-0.010029554
197	0x3defe174	0.11712924
198	0x3dcaef10	0.09908879
199	0x3d072cd8	0.03300175
200	0x3d0ecc80	0.034862995
201	0xbea0d8ca	-0.31415397
202	0x3c26a140	0.010170281
203	0xbe421158	-0.18951929
204	0xbe7e4d3e	-0.24834153
205	0xbc824d90	-0.015906125
206	0xbe489c94	-0.1959098
207	0x3d78e6c0	0.060766935
208	0xbd424e88	-0.047438174
209	0x3d7e7358	0.06212172
210	0x3e23c0d2	0.15991524
211	0xbddc7bea	-0.10765822
212	0xbd778658	-0.060430855
213	0x3e085db4	0.13316995
214	0xbeb057d1	-0.34442
215	0x3e902a71	0.2815738
216	0xbe8b74a2	-0.2723742
217	0xbe331a9d	-0.17490621
218	0x3d0b7980	0.03405142
219	0x3ea6f87f	0.32611462
220	0xbe75e138	-0.24011695
221	0x3c0dc300	0.008652449
222	0x3e8e43c1	0.27786067
223	0xbdf05392	-0.1173469
224	0x3d19df78	0.037566632
225	0x3ea1c3b9	0.31594637
226	0xbe305985	-0.17221649
227	0x3e07909a	0.13238755
228	0xbc976ab0	-0.01848349
229	0xbe82a563	-0.25516805
230	0x3c87e280	0.016587496
231	0xbe88fd61	-0.26755813
232	0xbd18b608	-0.037282974
233	0xbe5254d2	-0.20540169
234	0x3e9183eb	0.28420958
235	0x3e64d776	0.22347817
236	0x3db9a17c	0.09064004
237	0x3d629ec0	0.055327177
238	0xbe6f3142	-0.23358634
239	0x3e08b5b6	0.13350567
240	0xbd611b38	-0.0549576
241	0xbbca83c0	-0.0061802566
242	0x3ead3f03	0.33837137
243	0xbdc91fa0	-0.09820485
244	0x3e142856	0.14468512
245	0xbd9daba4	-0.076987535
246	0x3e928e17	0.2862403
247	0xbc99d170	-0.018776625
248	0x3e2bbb0a	0.16770568
249	0x3e614682	0.21999553
250	0x3e9cb2a3	0.3060504
251	0xbd49cf28	-0.049269825
252	0x3d55afb0	0.0521695
253	0xbe779012	-0.24176052
254	0x3c0563c0	0.008141458
255	0x3e6c0ad2	0.23051003

lstm.bias_ih_l2 f4 [32]
0	0x3f41317f	0.7546615
1	0xbda160ba	-0.07879777
2	0x3ed718f8	0.42011237
3	0x3e65d121	0.22443058
4	0x3e8daf72	0.27672917
5	0x3f26424b	0.64944905
6	0x3ea94a07	0.3306429
7	0x3e8aef78	0.27135825
8	0x3b5cd300	0.0033695102
9	0x3ea28fb3	0.3175026
10	0xbe7d87a6	-0.24758777
11	0xbd168938	-0.036751956
12	0x3e9145ff	0.28373715
13	0x3e7fb71e	0.24972197
14	0x3cce7c80	0.02520585
15	0xbdadfb20	-0.08495164
16	0xbb8b4423	-0.004250066
17	0xbe9b0134	-0.30274355
18	0xbeaf9098	-0.34290004
19	0xbd88b8b6	-0.06675856
20	0xbe59b5e2	-0.21260789
21	0xbe014abf	-0.1262617
22	0xbece3f85	-0.40282837
23	0xbe35cebb	-0.17754643
24	0x3f45fdc7	0.7734036
25	0x3edb81a8	0.42872357
26	0x3e669e85	0.22521408
27	0x3ee40556	0.4453532
28	0x3f35e907	0.71058697
29	0x3e73e0c4	0.2381621
30	0x3e9ee714	0.31035674
31	0x3deaccea	0.114648655

lstm.bias_hh_l2 f4 [32]
0	0x3e9a8840	0.30182076
1	0xbcda98ad	-0.02668413
2	0x3eefc882	0.46832663
3	0x3f1986c8	0.59971285
4	0x3f4af934	0.79286504
5	0x3eccdf9a	0.40014344
6	0x3f086cd6	0.5329107
7	0x3ec1759a	0.37785035
8	0xbd760ca0	-0.060070634
9	0x3e644b4e	0.22294351
10	0xbe4e3295	-0.20136483
11	0xbdd69db0	-0.10479295
12	0x3dcabf44	0.09899762
13	0x3d469788	0.048484355
14	0xbe7f213e	-0.24915025
15	0xbdc003b8	-0.09375709
16	0xbcf08bc2	-0.029363517
17	0xbe783579	-0.24239148
18	0xbe2880fb	-0.16455452
19	0xbe71f621	-0.23629047
20	0xbda38ec9	-0.079862185
21	0xbf04bb2f	-0.5184812
22	0xbe3bf8ab	-0.18356578
23	0xbd5bc74c	-0.05365686
24	0x3e171959	0.14755763
25	0xbdd6c079	-0.1048593
26	0x3e49ab1a	0.19694176
27	0x3eea3a8b	0.4574779
28	0x3e4325f6	0.1905745
29	0x3e158279	0.14600553
30	0x3d378062	0.04480017
31	0x3ef2ddb7	0.4743478
