ModelSave1.pt (torch_old, 3860 bytes, 11 tensors)

lstm1.weight_ih f4 [24, 6]
-0.021025004 -0.5906861 -0.10453686 -0.16379271 -0.14588167 0.42840487 0.13147226 0.01147428
-0.20997636 -0.2486029 0.20266359 -0.07701877 0.012193433 -0.28188732 -0.22608316 -0.024017178
0.4024901 0.2724096 0.17935258 -0.3395827 0.2699889 0.0610887 0.22340481 -0.22635832
-0.07347141 -0.09336677 0.3330392 -0.2188131 0.009177018 0.21808805 -0.2658988 -0.34846652
-0.45831275 0.023871928 -0.46388403 -0.48046628 0.39247566 -0.17028321 -0.16365205 -0.047129065
-0.03689882 0.2448768 -0.34092215 -0.19367544 0.20043737 -0.32227403 -0.038653523 0.28155386
0.19451219 -0.31151643 0.15438616 0.30591404 -0.38451102 0.16953981 -0.29864815 -0.26865658
0.031894118 -0.012612134 -0.14686286 -0.14628449 0.38428384 0.13283068 0.37906384 -0.238797
-0.12070349 0.049601823 -0.18836568 0.01197052 -0.1409086 -0.3096354 -0.25721434 -0.4069563
-0.03715722 -1.1447263 1.0405884 0.83266485 0.35307065 -0.78137094 -0.07749331 0.20199016
-0.768561 -0.4025169 0.068476476 0.06945849 0.144419 0.29729632 -0.3662498 -0.1330571
0.2627801 0.11371399 -0.24372147 1.0244758 -1.7907236 -0.54723966 0.08336587 -0.049298856
-0.009260651 -0.5931987 1.0439514 1.1728995 0.065191895 -0.7428193 0.051739357 -1.3803294
3.0765676 1.2282128 0.64013475 0.107571654 -0.16602147 0.0792064 -0.077577844 -0.30470186
-0.22729772 0.14629114 0.18081354 0.0873207 -0.40372273 -0.18706147 0.030192835 0.018149342
0.20718886 0.22845164 0.094695866 0.11616951 0.19983913 -0.09580308 -0.14001122 -0.22171152
0.3149085 0.37502304 0.28685147 -0.25266048 0.0865686 -0.23799577 0.3888329 -0.13372886
-0.11862647 0.53216916 0.09225811 0.08594499 -0.40017754 -0.051659398 -0.1891293 -0.44341806
00000000: a13c acbc 3437 17bf 6c17 d6bd 47b9 27be
00000010: 0162 15be e257 db3e aaa0 063e 9efe 3b3c
00000020: 0b04 57be c291 7ebe 0b87 4f3e 04bc 9dbd
00000030: f7c6 473c 8953 90be 5882 67be acbf c4bc
00000040: 2f13 ce3e 4579 8b3e 34a8 373e c9dd adbe
00000050: fc3b 8a3e 2538 7a3d 3bc4 643e 7aca 67be
00000060: 2e78 96bd 1437 bfbd 1d84 aa3e 8b10 60be
00000070: 345b 163c 7952 5f3e e323 88be 346a b2be
00000080: f8a7 eabe 108f c33c 3582 edbe adff f5be
00000090: 92f2 c83e b95e 2ebe 6794 27be 680a 41bd
000000a0: 3823 17bd fcc0 7a3e 598d aebe db52 46be
000000b0: 743f 4d3e 1a01 a5be 2853 1ebd d427 903e
000000c0: 342e 473e 157f 9fbe 6817 1e3e c4a0 9c3e
000000d0: a1de c4be d89b 2d3e 69e8 98be 5b8d 89be
000000e0: 68a3 023d 20a3 4ebc 3863 16be 9acb 15be
000000f0: dac0 c43e c404 083e a814 c23e 3387 74be
00000100: 6433 f7bd 482b 4b3d efe2 40be 0020 443c
00000110: 584a 10be 8888 9ebe 99b1 83be 935c d0be
00000120: 2b32 18bd 6486 92bf 0032 853f 8629 553f
00000130: adc5 b43e ed07 48bf d0b4 9ebd 82d6 4e3e
00000140: 6ac0 44bf b216 cebe 653d 8c3d 4140 8e3d
00000150: 93e2 133e 3937 983e 1885 bbbe 1f40 08be
00000160: 1d8b 863e e1e2 e83d 1f92 79be 0622 833f
00000170: 6e36 e5bf e617 0cbf babb aa3d 99ed 49bd
00000180: fcb9 17bc dfdb 17bf 33a0 853f 9221 963f
00000190: 5483 853d 6829 3ebf a6ec 533d a2ae b0bf
000001a0: 7ce6 4440 1436 9d3f dfdf 233f 874e dc3d
000001b0: 8801 2abe f736 a23d 22e1 9ebd e201 9cbe
000001c0: bcc0 68be 58cd 153e 2f27 393e 32d5 b23d
000001d0: bfb4 cebe 0b8d 3fbe f756 f73c eead 943c
000001e0: 5129 543e 3aef 693e e8ef c13d 48ea ed3d
000001f0: a1a2 4c3e 6834 c4bd 1a5f 0fbe 5808 63be
00000200: b03b a13e 0503 c03e 32de 923e b75c 81be
00000210: e14a b13d 2ab5 73be 1b15 c73e 38f0 08be
00000220: 6ff2 f2bd 3d3c 083f d2f1 bc3d ed03 b03d
00000230: 12e4 ccbe ce98 53bd 1cab 41be b107 e3be

lstm1.weight_hh f4 [24, 6]
0.26180124 -0.076581836 0.24833244 -0.25922096 0.07408118 -0.34108382 -0.25983578 0.30659562
0.13206887 0.07946795 -0.13612866 -0.12596697 -0.13931671 -0.024543166 0.24729866 0.33314842
-0.22424498 0.11219466 -0.23566742 -0.19223179 -0.23600473 -0.2595725 0.21560776 0.0421862
0.009803712 0.004016638 0.059420884 -0.053253174 -0.38133755 0.05077365 -0.2750736 0.21371108
-0.28418124 0.103485346 -0.3264366 0.12783271 -0.3588082 0.3904286 0.24369782 -0.2295876
-0.21461399 -0.14720845 -0.17928803 0.34377927 0.0073418617 -0.20796286 0.32795018 -0.21109238
-0.02350527 -0.059639633 -0.08208394 -0.2805054 -0.057071775 -0.3569644 -0.050934434 -0.3997999
0.14523864 -0.113584995 -0.39603084 -0.20721568 -0.109043986 0.13859099 0.28136015 0.32787853
0.27361435 -0.22037299 0.19015318 -0.08231622 0.078674614 -0.09232706 -0.25351915 -0.27447447
-0.36883524 -0.0708715 0.2047314 -0.26603425 -0.376427 -0.07456094 -0.24123463 0.3421595
-0.29348025 -0.32479036 0.18482232 -0.27462304 0.38528228 -0.28847018 0.030630857 -0.06366426
-0.26433286 -0.11212233 -0.38667277 0.26811665 -0.1103428 0.14638287 -0.073432684 0.07011384
-0.19175072 -0.33054742 0.052319348 0.13500994 0.063794255 -0.083519965 -0.04226023 -0.33292854
0.2546286 -0.054385662 -0.2904264 0.3242452 0.026898831 -0.30931902 0.040942222 0.12142998
0.35422772 -0.04689902 -0.29396158 0.014544576 0.06387937 -0.1466769 -0.011764139 0.18588734
0.2936111 -0.08351153 -0.40634134 0.31465954 -0.015806347 0.27362347 -0.2776528 0.111713886
0.11799008 0.10401893 0.34029216 0.072645545 0.40112704 0.019437492 -0.30678007 0.13306642
-0.34409237 0.08494204 -0.011001766 0.09967482 -0.36395556 0.18248713 0.24966222 0.27093446
00000000: d00a 863e f0d6 9cbd dc4a 7e3e 9cb8 84be
00000010: e0b7 973d 8aa2 aebe 3209 85be 1afa 9c3e
00000020: 103d 073e 18c0 a23d 5065 0bbe 7cfd 00be
00000030: 0aa9 0ebe c00e c9bc dc3b 7d3e 6e92 aa3e
00000040: 7aa0 65be 50c6 e53d cd52 71be 69d8 44be
00000050: 39ab 71be b0e6 84be 48c8 5c3e 70cb 2c3d
00000060: c09f 203c 009e 833b 5063 733d 0020 5abd
00000070: ad3e c3be 08f8 4f3d 72d6 8cbe 14d7 5a3e
00000080: 3480 91be 20f0 d33d b322 a7be 94e6 023e
00000090: b5b5 b7be 42e6 c73e ec8b 793e 0319 6bbe
000000a0: c5c3 5bbe d0bd 16be 4897 37be d603 b03e
000000b0: 0094 f03b 37f4 54be 16e9 a73e 9a28 58be
000000c0: 208e c0bc b048 74bd a01b a8bd 679e 8fbe
000000d0: 18c4 69bd 0ac4 b6be a0a0 50bd 93b2 ccbe
000000e0: 70b9 143e 409f e8bd 8ec4 cabe 5930 54be
000000f0: 7452 dfbd ccea 0d3e 700e 903e b2df a73e
00000100: 2e17 8c3e 75a9 61be 84b7 423e 6895 a8bd
00000110: 2820 a13d f815 bdbd 43cd 81be eb87 8cbe
00000120: f9d7 bcbe 1425 91bd 1ca5 513e a435 88be
00000130: 0abb c0be 68b3 98bd 3606 77be 882f af3e
00000140: 0b43 96be ec4a a6be 1042 3d3e 649b 8cbe
00000150: b843 c53e 5db2 93be 90ed fa3c 6862 82bd
00000160: a356 87be 64a0 e5bd f9f9 c5be 9646 893e
00000170: 68fb e1bd 64e5 153e e063 96bd d897 8f3d
00000180: 4d5a 44be 833d a9be d04c 563d 0c40 0a3e
00000190: 90a6 823d 840c abbd 1019 2dbd 9c75 aabe
000001a0: ae5e 823e 80c3 5ebd c5b2 94be 7803 a63e
000001b0: f05a dc3c 105f 9ebe 08b3 273d 48b0 f83d
000001c0: 565d b53e 3019 40bd 2282 96be 604c 6e3c
000001d0: 30d3 823d 7832 16be 60be 40bc 4059 3e3e
000001e0: 3254 963e 1808 abbd f90b d0be 0e1b a13e
000001f0: 507c 81bc 6018 8c3e 8228 8ebe 40ca e43d
00000200: c8a4 f13d e007 d53d c63a ae3e 30c7 943d
00000210: 8660 cd3e 603b 9f3c 4712 9dbe 9042 083e
00000220: e02c b0be 18f6 ad3d c040 34bc 5022 cc3d
00000230: 6258 babe e8dd 3a3e 74a7 7f3e ecb7 8a3e

lstm1.bias_ih f4 [24]
0.6108645 0.5277398 -0.24278699 0.63404936 0.093790844 0.20664492 0.08407214 -0.19239686
-0.33316487 0.14138943 -0.20083655 0.114068925 -0.71090937 0.080434754 -0.0995208 -1.1421448
0.44258523 0.64175093 0.48837274 0.15103549 -0.09179911 0.15088686 0.12773587 0.43186814
00000000: 9e61 1c3f f519 073f 279d 78be 0f51 223f
00000010: 6a15 c03d ba9a 533e 042e ac3d af03 45be
00000020: 9694 aabe 64c8 103e 19a8 4dbe f89c e93d
00000030: 28fe 35bf faba a43d 90d1 cbbd cd31 92bf
00000040: 889a e23e ca49 243f fe0b fa3e 0ca9 1a3e
00000050: 2c01 bcbd 1682 1a3e 31cd 023e d21d dd3e

lstm1.bias_hh f4 [24]
0.6346014 0.32440966 -0.059267808 0.090383254 0.5715472 0.27790987 -0.26436847 -0.08842501
0.22323722 0.22314644 -0.3213362 0.2025162 -0.61181056 0.5614466 0.076686606 -1.1285127
0.41453025 0.5826197 1.2421565 0.007175274 0.04194945 0.20166406 0.15309535 0.74994737
00000000: 3d75 223f 0619 a63e cdc2 72bd db1a b93d
00000010: eb50 123f 344a 8e3e 4e5b 87be 2c18 b5bd
00000020: 4c98 643e 8080 643e 2e86 a4be 6860 4f3e
00000030: 9e9f 1cbf f7ba 0f3f de0d 9d3d 1b73 90bf
00000040: 4f3d d43e 9126 153f fcfe 9e3f 901e eb3b
00000050: 30d3 2b3d 0681 4e3e 07c5 1c3e 8dfc 3f3f

layer1.weight f4 [6, 6]
0.12115364 -0.36662528 0.13822374 0.2733843 0.0061483607 -0.25688624 -0.3571188 0.13078496
0.47584793 0.7913515 -0.56800497 -0.7048597 -1.2731621 0.89383 0.1813215 0.78626484
-0.90916663 -1.4304103 0.29699394 -0.3625297 -0.16485974 0.18334365 0.34917262 -0.122085735
-1.3019425 0.3789857 0.32943922 0.09645104 -0.19114052 -0.30000967 0.3554841 -0.32843128
-0.3709481 -0.2131627 -0.14352228 0.45185626
00000000: 661f f83d 4fb6 bbbe 868a 0d3e 07f9 8b3e
00000010: 3078 c93b 9886 83be 46d8 b6be 7eec 053e
00000020: 57a2 f33e 0396 4a3f c668 11bf af71 34bf
00000030: faf6 a2bf 0bd2 643f 58ac 393e a748 493f
00000040: 25bf 68bf af17 b7bf 970f 983e 7e9d b9be
00000050: fed0 28be 70be 3b3e c1c6 b23e 1608 fabd
00000060: 0da6 a6bf 6a0a c23e 42ac a83e 1f88 c53d
00000070: 57ba 43be de9a 99be 0302 b63e 2528 a8be
00000080: e9ec bdbe 5347 5abe 81f7 12be b459 e73e

layer1.bias f4 [6]
-0.2206907 0.31997243 1.3214276 -0.17675127 0.32298946 0.1078721
00000000: befc 61be 6dd3 a33e 8a24 a93f 49fe 34be
00000010: e05e a53e 0cec dc3d

layer2.weight f4 [6, 6]
0.071965784 0.19068152 -0.30321652 -0.17397971 -0.11450866 0.009954244 0.05942136 0.36312437
-0.3707737 0.22095084 -0.26179528 0.39354503 -0.30482432 0.3355956 -0.2674113 0.09338057
0.24911666 -0.30868366 -0.33320346 -0.14834964 0.16691083 -0.0284428 -0.078795016 0.007162273
-0.024316788 -0.27891627 -0.07623431 -0.17995743 -0.0025047362 0.14419758 0.16785091 -0.31495622
0.30977428 -0.30055654 0.33392727 0.13526481
00000000: cc62 933d 0442 433e 323f 9bbe bd27 32be
00000010: 8483 eabd 2017 233c d063 733d 70eb b93e
00000020: 0dd6 bdbe f040 623e 080a 86be bc7e c93e
00000030: ef11 9cbe 30d3 ab3e 22ea 88be 503e bf3d
00000040: 7018 7f3e c90b 9ebe a599 aabe f8e8 17be
00000050: acea 2a3e e000 e9bc 485f a1bd 80b1 ea3b
00000060: 0034 c7bc 1dce 8ebe bc20 9cbd c346 38be
00000070: 8026 24bb 88a8 133e 1ce1 2b3e f141 a1be
00000080: bc9a 9e3e 8ce2 99be 84f8 aa3e dc82 0a3e

layer2.bias f4 [6]
-0.3680498 -0.17474034 -0.2410184 0.36575508 -0.09352213 0.3640424
00000000: 0671 bcbe 22ef 32be 87cd 76be 4044 bb3e
00000010: 8888 bfbd c463 ba3e

layer3.weight f4 [6, 6]
-0.16191654 -0.23986967 -0.039113224 -0.26849866 0.27341723 -0.20187107 0.007935971 0.048935086
0.37403357 0.15550327 0.019224226 -0.14537692 -0.25754923 0.018141389 0.15062612 -0.38351676
-0.14129901 -0.20905417 0.3353474 -0.34245235 0.40192592 0.19893515 0.15718764 0.040216297
0.26544964 -0.06474432 -0.292596 0.3342926 0.20213705 0.13460183 -0.3029254 -0.14864978
0.092638254 -0.06622809 -0.40476516 -0.21798387
00000000: 73cd 25be 65a0 75be 3035 20bd a878 89be
00000010: 58fd 8b3e 4ab7 4ebe e005 023c 2870 483d
00000020: 5481 bf3e 403c 1f3e 207c 9d3c b0dd 14be
00000030: 7edd 83be 409d 943c bc3d 1a3e 4f5c c4be
00000040: b0b0 10be 4c12 56be a8b2 ab3e ea55 afbe
00000050: 3cc9 cd3e a8b5 4b3e ccf5 203e d8b9 243d
00000060: 04e9 873e ac98 84bd 25cf 95be 6628 ab3e
00000070: 04fd 4e3e 10d5 093e 0a19 9bbe a637 18be
00000080: 20b9 bd3d 98a2 87bd 613d cfbe 2a37 5fbe

layer3.bias f4 [6]
-0.34934193 0.040871114 -0.12519315 -0.07614827 -0.3856343 0.37519127
00000000: f2dc b2be 7868 273d a232 00be a0f3 9bbd
00000010: dc71 c5be 1219 c03e

layer4.weight f4 [1, 6]
-0.295159 0.8440288 1.9142656 0.10968651 1.1631403 -0.46168843
00000000: 151f 97be 4512 583f a806 f53f 52a3 e03d
00000010: c8e1 943f 6d62 ecbe
