ModelSave3.pt (torch_old, 30998 bytes, 45 tensors)

lstm.weight_ih_l0 f4 [32, 8]
0	0x3e253f8c	0.16137522
1	0xbf90efab	-1.1323141
2	0x3efeb36e	0.4974627
3	0xbe9a73d2	-0.3016649
4	0x3a85d225	0.0010209723
5	0x3e37041a	0.17872658
6	0xbdb96e70	-0.090542674
7	0xbecf95f6	-0.405441
8	0x3e842508	0.25809503
9	0xbf2670b7	-0.6501574
10	0x3d382f0b	0.04496674
11	0x3dfc57b9	0.12321419
12	0xbc97a925	-0.018513272
13	0x3eec5294	0.46156752
14	0x3e311616	0.17293581
15	0x3da410c6	0.08011012
16	0x3ea4a8b2	0.32159954
17	0xbe85b41d	-0.26113978
18	0x3f0dbb30	0.5536375
19	0xbe31d735	-0.17367251
20	0xbcad0a0d	-0.021122957
21	0xbeb6f887	-0.35736486
22	0xbf1b7c27	-0.60736316
23	0x3f041519	0.5159469
24	0x3e5d681b	0.21621744
25	0xbf092acb	-0.5358092
26	0xbe6e5ef3	-0.23278408
27	0x3f0a4e69	0.54025894
28	0xbe5b052e	-0.21388695
29	0x3f8dafff	1.1069335
30	0x3eeee170	0.4665637
31	0x3d6c3966	0.057671927
32	0x3de9df2b	0.11419519
33	0xbf80a6fd	-1.0050961
34	0x3e1d5f98	0.15368497
35	0x3e168c80	0.14702034
36	0x3d36a37a	0.044589497
37	0x3f58726d	0.845496
38	0x3e5b150a	0.21394745
39	0x3e6cb483	0.23115735
40	0xbf4ad505	-0.7923129
41	0x3ef0ecfe	0.4705581
42	0x3ebc34be	0.3675899
43	0xbf0cbe1a	-0.5497757
44	0x3ee8f8c0	0.4550228
45	0xbebb325b	-0.36561856
46	0x3ca8a85c	0.020588093
47	0x3e397bc3	0.18113618
48	0x3f0cfc6e	0.5507268
49	0xbf854b78	-1.0413656
50	0x3ef4a0f2	0.47779042
51	0x3ebba55b	0.36649594
52	0xbca2f2f4	-0.01989124
53	0x3e747331	0.23872067
54	0xbcdc1260	-0.02686423
55	0x3ca07dcd	0.019591236
56	0xbdf81840	-0.12114
57	0x3d110f3b	0.035414916
58	0xbece2d90	-0.40269136
59	0x3eed4d04	0.4634782
60	0x3ec29e2b	0.38011298
61	0x3eae63b8	0.34060454
62	0x3f1d4cb2	0.6144515
63	0x3e275d3a	0.16344157
64	0xbe58c3da	-0.21168461
65	0xbe090709	-0.1338159
66	0x3d7feea8	0.06248346
67	0xbe9e5d04	-0.3093034
68	0x3e82d69d	0.25554362
69	0x3e7830de	0.24237391
70	0xbd24b610	-0.04021269
71	0x3ead4f6d	0.3384966
72	0xbdfc6e8e	-0.12325774
73	0xbdb221cc	-0.086978525
74	0xbe915ae6	-0.28389663
75	0xbe227701	-0.15865709
76	0xbdedf81e	-0.1161959
77	0x3d532190	0.05154568
78	0xbded2342	-0.115789905
79	0x3e909991	0.28242162
80	0xbea0ebc6	-0.3142988
81	0x3e906b8f	0.2820706
82	0xbe4cc0f9	-0.19995488
83	0xbd7037a0	-0.058646798
84	0xbd85f714	-0.06541267
85	0x3dd11144	0.10208371
86	0x3eb05b5b	0.344447
87	0x3e80f821	0.25189307
88	0xbe77763c	-0.24166197
89	0xbdcb2520	-0.099191904
90	0x3d1a2b58	0.037638992
91	0x3e8f5807	0.27996847
92	0xbe86352e	-0.26212448
93	0x3dfd57ac	0.12370238
94	0x3da241d8	0.07922715
95	0x3ea61759	0.32439688
96	0xbddf032e	-0.10889278
97	0x3eb343bd	0.35012618
98	0xbe6b2046	-0.2296153
99	0x3d018340	0.03161931
100	0x3e4606de	0.19338557
101	0x3d87c3bc	0.0662913
102	0x3d89e994	0.067340046
103	0x3e04ecc6	0.12980947
104	0xbde73766	-0.11289863
105	0xbe9b7246	-0.3036062
106	0xbe54118c	-0.20709819
107	0x3e5fa406	0.21839914
108	0xbd331a18	-0.043726057
109	0x3e44b31a	0.19208947
110	0x3e80f45f	0.2518644
111	0x3e9c3d65	0.3051559
112	0x3e238236	0.1596764
113	0xbe8fd366	-0.28090972
114	0x3eaac811	0.33355764
115	0x3da09a74	0.078419596
116	0xbe27c14a	-0.16382328
117	0x3c072360	0.00824818
118	0x3d082930	0.033242404
119	0x3ea0592b	0.3131803
120	0x3e86e60f	0.26347396
121	0xbc39f220	-0.011349231
122	0x3e600682	0.21877483
123	0xbe2ee70d	-0.17080326
124	0x3e8ffc8f	0.28122374
125	0xbcaa9590	-0.02082327
126	0xbda0adb0	-0.07845628
127	0x3e863cab	0.2621816
128	0xbdb5e2a4	-0.08881119
129	0x3f8b2e84	1.087357
130	0x3d8d28b9	0.06892533
131	0xbf1f5e9e	-0.6225375
132	0xbd5fd71f	-0.054648515
133	0xbf4c9511	-0.7991496
134	0xbde72e4d	-0.11288128
135	0xbe00f83c	-0.12594694
136	0x3e567dfd	0.20946498
137	0xbf8f240b	-1.1182874
138	0x3eb6317d	0.35584632
139	0x3f139b5e	0.57658947
140	0x3cad7933	0.021175956
141	0x3f7b96ae	0.98276794
142	0x3ba825b5	0.005131448
143	0x3e315030	0.17315745
144	0xbdcb20d4	-0.09918371
145	0xbf3bea6b	-0.7340457
146	0x3ea2a088	0.317631
147	0x3f53a8da	0.8267952
148	0x3e3a8b7f	0.18217276
149	0x3f2b1332	0.66826165
150	0x3e25350b	0.16133516
151	0x3ed95530	0.42447805
152	0x3e89989f	0.26874253
153	0xbf88630d	-1.0655228
154	0x3f2b81a2	0.6699468
155	0x3eb664df	0.35623834
156	0xbdcaf93c	-0.09910819
157	0x3f7695c8	0.963223
158	0xbdbffbc1	-0.0937419
159	0xbcdab7b5	-0.026698926
160	0xbe3c3ff1	-0.18383767
161	0xbec717b1	-0.38885263
162	0x3e891f1b	0.26781544
163	0x3eed572a	0.46355563
164	0x3d560ae4	0.05225648
165	0x3f42befe	0.7607268
166	0x3eef1272	0.4669376
167	0x3dfd5266	0.12369232
168	0x3ebf2dcd	0.3733963
169	0xbf66a1ac	-0.9009044
170	0xbdc5e766	-0.096632764
171	0x3f6bbba9	0.9208322
172	0x3ec14baa	0.3775304
173	0x3f1a0b2f	0.60173315
174	0xbe08cac0	-0.13358593
175	0x3df6d25b	0.12051841
176	0x3db1419d	0.08655093
177	0x3e871cc6	0.2638914
178	0x3f1d506e	0.6145085
179	0xbf68e468	-0.9097352
180	0xbe8a0ff2	-0.2696529
181	0xbf226b83	-0.634453
182	0xbf0a8ab1	-0.54117876
183	0xbe34aadc	-0.17643303
184	0xbe3d354b	-0.18477361
185	0x3fb78550	1.4337559
186	0xbeeaf113	-0.4588705
187	0xbe5bdb42	-0.21470359
188	0x3b2d3893	0.0026431426
189	0xbf5b3f3c	-0.85643363
190	0x3d88d882	0.066819206
191	0xbe0460c3	-0.12927537
192	0x3e380856	0.1797193
193	0xbf94c17c	-1.1621547
194	0x3edc2de2	0.43003756
195	0x3d7a232f	0.06106871
196	0x3e0a123a	0.13483515
197	0x3dc5699a	0.096392825
198	0xbdea5f69	-0.11443979
199	0xbec5eaa8	-0.3865559
200	0x3cb62e28	0.022238806
201	0xbf561ea9	-0.83640534
202	0xbe2a37a4	-0.16622788
203	0x3e1e5bdb	0.15464728
204	0x3e696d39	0.22795571
205	0x3f07434a	0.5283705
206	0x3e99fda9	0.3007634
207	0x3d302b33	0.043009948
208	0x3eb0ef2f	0.34557483
209	0xbf2058ef	-0.626357
210	0x3e100176	0.14063057
211	0x3e107ac7	0.14109336
212	0xbce6a22b	-0.0281535
213	0xbf0f5c4e	-0.5600022
214	0xbf27e6b4	-0.655864
215	0x3ef0fc16	0.47067326
216	0x3a496dab	0.00076838833
217	0xbf48cd8e	-0.7843865
218	0xbe803ede	-0.25047964
219	0x3f40c5ae	0.75301635
220	0xbe06b42c	-0.13154668
221	0x3f30484d	0.6886032
222	0x3f2e3ddd	0.68063146
223	0xbd0d5033	-0.034500312
224	0x3efd869f	0.4951677
225	0xbf1d789d	-0.61512166
226	0xbd88487a	-0.06654449
227	0x3f1a46a9	0.6026407
228	0xbe33c0d4	-0.17554027
229	0x3f8b4ac6	1.0882194
230	0x3e116e33	0.14202194
231	0x3e272bbf	0.16325282
232	0xbf51e3a2	-0.81987965
233	0x3eb9e93a	0.3631075
234	0x3e390f14	0.18072158
235	0xbeae332b	-0.34023413
236	0x3eeb1a9e	0.45918745
237	0xbedd5345	-0.43227592
238	0x3da6f054	0.08151308
239	0xbe2d1f56	-0.16906485
240	0x3f1aa99c	0.60415053
241	0xbf37a2fb	-0.71733063
242	0x3f12bb97	0.5731749
243	0x3ed45904	0.41474164
244	0x3e76050c	0.24025363
245	0x3e43d2d4	0.19123393
246	0xbda90155	-0.08252207
247	0xbe7b95f5	-0.24568923
248	0xbd85e4dc	-0.06537792
249	0x3ec141d6	0.3774554
250	0xbf373812	-0.7156993
251	0x3f3e3731	0.74302965
252	0x3ee02c4e	0.43783802
253	0x3f17b8df	0.59266466
254	0x3e5ce6c3	0.21572404
255	0x3e965c96	0.29367512

lstm.weight_hh_l0 f4 [32, 8]
0	0xbe422dc3	-0.18962769
1	0xbe92c66c	-0.2866701
2	0xbe344624	-0.17604882
3	0xbe9ac368	-0.30227208
4	0xbdcc70c0	-0.09982443
5	0xbe97b332	-0.29628903
6	0x3ea8af1d	0.329461
7	0xbd266ec0	-0.040632963
8	0xbe4e5828	-0.20150816
9	0x3e8b7cc1	0.27243617
10	0xbe275726	-0.16341838
11	0x3af20800	0.0018465519
12	0xbd73f160	-0.059556365
13	0x3c684d80	0.014178634
14	0x3e512aea	0.20426527
15	0x3d11f6b8	0.03563568
16	0xbd85dbf8	-0.06536096
17	0x3e158fc4	0.14605623
18	0xbe0b0372	-0.13575533
19	0x3e92850f	0.2861714
20	0x3e8d491b	0.27594838
21	0x3d4cd830	0.05001086
22	0xbe2be8bf	-0.16788004
23	0x3e5b62de	0.21424434
24	0xbe5b2c8c	-0.21403712
25	0xbe241b86	-0.16026124
26	0xbe8dcd44	-0.27695668
27	0x3e769fe6	0.24084434
28	0x3eb24583	0.34818658
29	0x3ea7eea5	0.3279926
30	0xbe8b4602	-0.2720185
31	0x3d7a0ff8	0.061050385
32	0x3e62cf02	0.2214928
33	0xbe68af84	-0.22723204
34	0x3deac090	0.1146251
35	0xbd393c28	-0.045223385
36	0x3e33c81a	0.17556801
37	0x3e94ec87	0.29086706
38	0x3e44f286	0.1923314
39	0x3e2bfcd6	0.16795668
40	0xbda144fc	-0.07874486
41	0x3e84a397	0.2590606
42	0xbd937058	-0.07199162
43	0xbe083246	-0.13300428
44	0xbe9fbd25	-0.31198993
45	0xbdc6efd0	-0.09713709
46	0xbe619b09	-0.22031797
47	0xbe88d77c	-0.26726902
48	0xbe8dd3c0	-0.27700615
49	0xbe1c1fee	-0.15246555
50	0xbe034a93	-0.12821417
51	0xbd1d82e8	-0.03845492
52	0x3a6ca800	0.00090277195
53	0xbd38b4d8	-0.04509434
54	0x3e4c806e	0.19970867
55	0xbe9fddd1	-0.3122392
56	0x3c3712a0	0.011173874
57	0x3d71a1e8	0.058992296
58	0x3d3ad4a0	0.04561293
59	0xbe3872bc	-0.18012518
60	0xbd3bf890	-0.045891345
61	0xbcb49150	-0.022041947
62	0x3bdec000	0.0067977905
63	0x3eab2e9d	0.33434
64	0x3d9f80bc	0.07788226
65	0xbe8e69b8	-0.27815032
66	0xbdba3e34	-0.090938956
67	0xbe536109	-0.20642485
68	0x3e30424e	0.17212793
69	0xbe4f2664	-0.20229489
70	0x3dbe1adc	0.09282467
71	0x3e13f392	0.14448383
72	0xbddbd838	-0.107346
73	0x3ea68513	0.32523403
74	0xbcccac70	-0.024984568
75	0x3b8b3bc0	0.004249066
76	0xbe845cd5	-0.25852075
77	0xbd5e6188	-0.05429223
78	0xbe149354	-0.14509326
79	0xbd939a50	-0.07207167
80	0xbd798700	-0.06091976
81	0xbd93ccc0	-0.07216787
82	0xbe2f7a59	-0.17136516
83	0xbe618881	-0.22024728
84	0x3dcdee7c	0.10055253
85	0x3cefbe90	0.029265672
86	0xbe16dfee	-0.1473386
87	0xbe34b276	-0.17646202
88	0xbd9e6b00	-0.077352524
89	0x3eaba05d	0.33520785
90	0xbe9c8efd	-0.3057784
91	0xbe1bade3	-0.15203051
92	0x3e863637	0.26213238
93	0xbead39b0	-0.33833075
94	0x3e07fb88	0.13279545
95	0x3e93fcb1	0.28903726
96	0xbdab66bc	-0.083692044
97	0x3c723be0	0.014784783
98	0x3da70824	0.081558496
99	0x3eaee6e7	0.3416054
100	0xbd2fac38	-0.04288885
101	0x3e9e5d65	0.3093063
102	0x3eb37ae1	0.35054687
103	0x3e096378	0.1341685
104	0xbe9b8711	-0.30376485
105	0xbeb1465c	-0.34623992
106	0x3e9c76b5	0.30559316
107	0x3ca3ccb0	0.019995064
108	0xbe182ba6	-0.148604
109	0x3e8dc00f	0.27685592
110	0xbe81ce24	-0.25352585
111	0x3e270fce	0.16314623
112	0xbdf1292a	-0.117754295
113	0xbe2efa19	-0.17087592
114	0x3e81532b	0.25258765
115	0xbd6c5b40	-0.05770421
116	0x3e1d3f4a	0.15356174
117	0xbdb2b38c	-0.08725652
118	0x3e8d5169	0.27601174
119	0xbe503996	-0.20334467
120	0x3e82cc0b	0.25546297
121	0xbe18cb0f	-0.1492121
122	0x3e92e1a9	0.2868779
123	0xbe08e340	-0.13367939
124	0xbb7ec580	-0.0038875043
125	0xbe7ed08e	-0.24884245
126	0x3df56ff0	0.11984241
127	0x3e25876e	0.16164944
128	0x3d280260	0.04101789
129	0x3e5bac72	0.21452501
130	0x3e35cac2	0.17753127
131	0x3da9043c	0.08252761
132	0xbcf27750	-0.029597908
133	0x3e697276	0.2279757
134	0xbe4d8324	-0.20069557
135	0xbe336ffa	-0.17523184
136	0xbd4dc990	-0.050241053
137	0xbeaab2d5	-0.33339563
138	0xbe75cd88	-0.24004185
139	0xbe22ad41	-0.15886404
140	0x3e89bde9	0.26902702
141	0x3e70a9d2	0.23502281
142	0x3c6c1ce0	0.014411181
143	0xbe6c22bf	-0.2306013
144	0x3e43b66a	0.19112554
145	0x3d4fb960	0.050713897
146	0x3e9323af	0.28738162
147	0xbe956e87	-0.29185888
148	0xbeb3f682	-0.35149008
149	0x3e1166c0	0.14199352
150	0x3e8e27b3	0.27764663
151	0xbe1f6b19	-0.15568198
152	0x3c230880	0.009950757
153	0x3dfae374	0.122504145
154	0xbd8c471c	-0.068495005
155	0xbdbefb28	-0.09325248
156	0xbd6fdc80	-0.058559895
157	0x3e411eaa	0.18859354
158	0x3e635802	0.22201541
159	0x3d009210	0.031389296
160	0xbcc6b5f0	-0.024256676
161	0xbe51066d	-0.20412607
162	0x3c5dca80	0.013537049
163	0xbe69629f	-0.22791527
164	0xbd25ee20	-0.040510297
165	0xbb0a7b80	-0.002113074
166	0xbe01bc13	-0.12669401
167	0xbeac3c3c	-0.33639705
168	0xbdcb1618	-0.099163234
169	0xbea0fe03	-0.31443796
170	0xbd9ff1ec	-0.07809815
171	0xbdce630c	-0.100774854
172	0xbc2208a0	-0.009889752
173	0xbdfc9d78	-0.12334722
174	0x3ea17c0d	0.31539956
175	0x3e242ece	0.1603348
176	0xbea351e9	-0.3189843
177	0xbe1b3ae7	-0.15159188
178	0xbe1ee13c	-0.15515608
179	0xbe869564	-0.2628585
180	0x3c669d60	0.014075607
181	0x3df34580	0.118784904
182	0x3e096b44	0.13419825
183	0x3d4bcd40	0.04975629
184	0x3e3c5352	0.18391159
185	0x3e56a772	0.20962313
186	0xbeb396e2	-0.35076052
187	0xbe94d9fc	-0.2907256
188	0x3e37baf6	0.17942414
189	0xbea0c9ef	-0.31404063
190	0x3e9b1643	0.30290422
191	0xbcd94150	-0.026520401
192	0x3bbd9240	0.0057852566
193	0xbe77d563	-0.24202494
194	0xbe7037a6	-0.23458728
195	0x3da99510	0.082803845
196	0xbb1ca600	-0.0023902655
197	0xbca5c220	-0.020234168
198	0x3ead67d5	0.3386828
199	0xbda8b350	-0.08237326
200	0x3c1784e0	0.009247988
201	0x3e793d7e	0.24339864
202	0xbc5dbc00	-0.013533592
203	0xbe761ab4	-0.24033624
204	0xbe8769cc	-0.26447904
205	0x3e68f176	0.2274836
206	0xbe72f577	-0.2372645
207	0xbeaae7e6	-0.3338005
208	0x3e099e72	0.13439348
209	0xbe678734	-0.2261017
210	0x3e4b0392	0.1982558
211	0x3e00a574	0.12563115
212	0x3c5098e0	0.012731761
213	0xbe73c065	-0.23803861
214	0x3e4df84e	0.20114252
215	0xbdbf6914	-0.09346214
216	0xbe8b6d23	-0.27231702
217	0xbc115360	-0.008869976
218	0xbcaabe70	-0.02084276
219	0xbea05d3e	-0.31321138
220	0x3e875933	0.2643524
221	0x3da4f580	0.08054638
222	0x3db10a0c	0.086444944
223	0x3e13603c	0.14392179
224	0x3e12b166	0.14325485
225	0x3e8c52ab	0.2740682
226	0x3e9d1701	0.30681613
227	0x3e8ad85f	0.27118203
228	0xbe4747fc	-0.19461054
229	0x3c52f1e0	0.01287505
230	0x3e8a19b7	0.26972744
231	0x3e93dc13	0.2887884
232	0xbe9efe07	-0.31053182
233	0xbe1c738b	-0.15278451
234	0xbe2d5b72	-0.16929415
235	0xbd9872c0	-0.07443762
236	0x3e306ed6	0.1722978
237	0xbe880283	-0.26564416
238	0xbe7d7f2d	-0.24755545
239	0x3e93fcf3	0.28903922
240	0x3ea183b7	0.31545803
241	0xbe859486	-0.26089877
242	0x3eb4d96b	0.35322127
243	0xbdce9f58	-0.10088986
244	0xbe1c83e2	-0.15284684
245	0x3e7567e2	0.2396541
246	0xbe7c88d1	-0.24661566
247	0x3e360a46	0.17777357
248	0x3eb34b59	0.35018423
249	0xbdb95f88	-0.09051424
250	0x3eacbd05	0.3373796
251	0x3e8f72c5	0.2801725
252	0xbe1789b6	-0.14798626
253	0x39d2c400	0.00040200353
254	0x3e9e8297	0.30959007
255	0xbe81473e	-0.25249666

lstm.bias_ih_l0 f4 [32]
0	0x3e9d8169	0.30762795
1	0x3ef11275	0.47084394
2	0x3ea5b04e	0.32361072
3	0x3ea50fc4	0.3223859
4	0x3d8e41c5	0.06946138
5	0x3f7d6ab8	0.98990965
6	0xbde9594f	-0.113939874
7	0x3eb0471a	0.34429246
8	0xbda74e6c	-0.08169255
9	0xbdd03cb0	-0.10167825
10	0xbe12b638	-0.14327323
11	0xbea446af	-0.32085177
12	0xbe06c325	-0.13160379
13	0xbd6f11a0	-0.058366418
14	0x3e4b6f6a	0.1986672
15	0xbeab3f85	-0.334469
16	0x3ee179b7	0.44038174
17	0xbe6c0cda	-0.23051777
18	0xbe9d92f6	-0.30776185
19	0xbe394481	-0.18092538
20	0x3e8cafa0	0.2747774
21	0xbf248f2b	-0.64280957
22	0xbe5d23d3	-0.21595697
23	0xbc7c6bcc	-0.01540656
24	0x3f20382f	0.6258573
25	0x3f023ed5	0.50877124
26	0x3f287451	0.65802485
27	0x3ee103c0	0.43948174
28	0x3e3d5901	0.18490984
29	0x3f418ee7	0.75608677
30	0xbd080093	-0.033203673
31	0x3f546cd0	0.82978535

lstm.bias_hh_l0 f4 [32]
0	0x3f21128d	0.6291893
1	0x3f7c2a23	0.98501796
2	0x3f0c050e	0.5469521
3	0xbdea9044	-0.11453298
4	0xbd5860cd	-0.05282669
5	0x3f23a14a	0.6391798
6	0x3dd56c97	0.104211025
7	0x3f646bcc	0.89226985
8	0xbd5bbef8	-0.05364892
9	0x3e1ea506	0.15492639
10	0x3dc295bc	0.09501216
11	0x3e6720da	0.22571126
12	0x3e9c50b9	0.30530336
13	0xbe32ae27	-0.17449246
14	0xbbc86700	-0.006115794
15	0xbe86d808	-0.26336694
16	0x3e9052a2	0.28188044
17	0xbed624a5	-0.41824833
18	0xbf2269db	-0.6344277
19	0xbc931306	-0.017953407
20	0x3ea1c620	0.3159647
21	0xbf16f491	-0.5896693
22	0x3d617cfd	0.05505084
23	0x3f032d9f	0.5124149
24	0x3f46f9a4	0.7772467
25	0x3f77890c	0.9669349
26	0x3ec18f4e	0.37804645
27	0xbc1d91c8	-0.0096172765
28	0x3eae493d	0.3404025
29	0x3f73a816	0.95178354
30	0x3cdfe05e	0.027328666
31	0x3ef9ebe1	0.48812774

lstm.weight_ih_l1 f4 [32, 8]
0	0xbeb33a45	-0.35005394
1	0x3f319afc	0.6937711
2	0x3e9de51a	0.30838853
3	0x3e29496a	0.16531911
4	0x3f0a32b0	0.53983593
5	0x3eaea282	0.3410836
6	0xbe2df6df	-0.16988705
7	0xbf3a172d	-0.72691613
8	0xbe22f72c	-0.15914601
9	0x3f08c87d	0.5343092
10	0xbdfd0c93	-0.12355914
11	0x3ec01968	0.37519383
12	0x3f393a3e	0.72354496
13	0xbe4203f1	-0.18946816
14	0xbf0d6e00	-0.5524597
15	0xbe9cc797	-0.30621025
16	0xbdcf132e	-0.1011108
17	0x3c730121	0.014831812
18	0xbe06bbc7	-0.13157569
19	0xbd0187b7	-0.03162357
20	0x3d910d92	0.070826665
21	0x3cdc9148	0.026924744
22	0xbec598d1	-0.38593152
23	0xbe75e048	-0.24011338
24	0x3e467733	0.19381408
25	0xbea111b1	-0.3145881
26	0xbdb753ea	-0.08951552
27	0xbe8103ec	-0.25198305
28	0x3e5c8bc1	0.21537687
29	0xbf64dfbf	-0.8940391
30	0x3edc4e3e	0.43028444
31	0x3dcf8ddb	0.10134479
32	0x3ee26922	0.44220835
33	0xbe49bde1	-0.1970134
34	0x3e0b97b4	0.13632089
35	0xbdaf30f7	-0.08554261
36	0x3f129387	0.5725636
37	0xbef28708	-0.47368646
38	0xbe100704	-0.14065176
39	0x3f0cbeee	0.54978836
40	0xbedd103a	-0.43176442
41	0xbd34b8bc	-0.04412149
42	0x3e32ff72	0.17480257
43	0x3eac55eb	0.336593
44	0x3ea9b962	0.33149248
45	0xbd75d1fd	-0.060014714
46	0xbefeb630	-0.49748373
47	0xbea4251b	-0.3205956
48	0x3ef10213	0.47071895
49	0xbf479798	-0.7796569
50	0xbf07eefe	-0.5309905
51	0xbe9011ad	-0.28138486
52	0xbea91041	-0.33020213
53	0xbf62e6b9	-0.88633305
54	0xbe8c8ce6	-0.27451247
55	0x3f0e51be	0.5559348
56	0xbe401e5d	-0.18761583
57	0x3e8733de	0.2640676
58	0x3e5dfb27	0.21677838
59	0x3f53aead	0.8268841
60	0x3f13d0f5	0.5774072
61	0x3e029cd0	0.12755132
62	0xbf36a688	-0.71347857
63	0x3dcf1606	0.101116225
64	0x3dcef958	0.10106152
65	0x3ea2628f	0.3171582
66	0xbe5a517d	-0.21320148
67	0x3e3a9876	0.18222222
68	0x3e74f2c2	0.2392073
69	0x3e295bba	0.16538897
70	0x3e09c9aa	0.13455835
71	0x3d705fa0	0.058684945
72	0x3e513ef6	0.20434174
73	0xbcac6c70	-0.0210478
74	0x3e75f736	0.24020085
75	0xbd2d2758	-0.04227385
76	0x3e97968f	0.29607055
77	0xbd979040	-0.074005604
78	0x3db4719c	0.08810732
79	0xbe89478a	-0.26812392
80	0x3e1fc286	0.15601549
81	0x3d3d7050	0.046249688
82	0xbe45778a	-0.19283882
83	0xbc39a260	-0.011330217
84	0xbe1084e0	-0.14113188
85	0x3e67f512	0.2265208
86	0x3eab8a1d	0.3350381
87	0x3d234d18	0.039868444
88	0xbe6f10fa	-0.2334632
89	0xbe1a2ae6	-0.15055427
90	0xbea3c56c	-0.31986558
91	0x3e19ad16	0.15007433
92	0x3e130d94	0.14360648
93	0xbdf65774	-0.12028399
94	0x3eaf4f85	0.34240356
95	0x3e4611a6	0.1934267
96	0xbda3d178	-0.07998937
97	0x3e932f91	0.28747228
98	0x3c689e40	0.014197886
99	0xbd278bd0	-0.04090482
100	0x3cef83b0	0.029237598
101	0xbdf09fda	-0.11749239
102	0xbdc2d268	-0.09512788
103	0x3ea98c11	0.33114675
104	0x3e66c666	0.2253662
105	0x3dce4578	0.10071844
106	0xbd103618	-0.035207838
107	0x3e61d1d2	0.22052696
108	0xbcb19a70	-0.021680087
109	0xbd02eb18	-0.031962484
110	0x3e36ea0e	0.17862722
111	0xbdc3cd04	-0.09560588
112	0xbe92facb	-0.28706965
113	0x3cf58ff0	0.029975861
114	0x3db8c9a0	0.09022832
115	0x3dff0d28	0.12453681
116	0xbe291a0c	-0.16513842
117	0xbe95ed5c	-0.29282653
118	0x3e4360c2	0.19079879
119	0x3c011c80	0.00788033
120	0x3ea95c83	0.33078393
121	0x3d49a0a0	0.04922545
122	0x3e988b39	0.29793718
123	0x3e9ae0c9	0.30249622
124	0x3e7adc1a	0.24498025
125	0xbea3567e	-0.31901926
126	0x3e6c8ae2	0.23099855
127	0xbe8e280e	-0.27764934
128	0xbf1c5c43	-0.6107828
129	0x3f3f81d8	0.748075
130	0x3f6986f9	0.91221577
131	0x3eae80be	0.34082597
132	0x3daa8f52	0.083281174
133	0x3fa73ea3	1.306599
134	0xbf140862	-0.5782529
135	0xbf1a8f13	-0.60374564
136	0x3f8c7654	1.0973611
137	0xbf6e7a85	-0.931557
138	0xbf364b04	-0.71208215
139	0xbf3b5531	-0.73176867
140	0xbf037495	-0.51349765
141	0xbf91f0aa	-1.140157
142	0x3e9ebcb6	0.3100335
143	0x3f8bc8a4	1.0920606
144	0x3f0ecc0b	0.55780095
145	0xbf1aedf0	-0.60519314
146	0xbf83c750	-1.02952
147	0xbebe853c	-0.37211025
148	0xbf2e83e0	-0.68169975
149	0xbfa8b979	-1.3181602
150	0x3f0e233f	0.5552253
151	0x3f0d465e	0.55185497
152	0xbf70c3cd	-0.9404877
153	0x3f5b2cf6	0.8561548
154	0x3ef96c2f	0.4871535
155	0x3e340984	0.17581755
156	0xbd8caab2	-0.06868495
157	0x3f3f4b68	0.74724436
158	0xbec25fa2	-0.37963587
159	0xbea92c0d	-0.3304142
160	0xbf0c849d	-0.5488985
161	0x3f41f751	0.75768
162	0x3f39c5f3	0.7256767
163	0x3f1ab9b4	0.6043961
164	0x3e4e5a4b	0.20151632
165	0x3f7700fb	0.9648587
166	0xbebaac7f	-0.3645973
167	0xbf49ef83	-0.7888109
168	0xbf6011b0	-0.8752699
169	0x3ef725aa	0.48270923
170	0x3f063491	0.5242396
171	0x3f287f53	0.6581928
172	0x3edd9d51	0.43284085
173	0x3f856804	1.0422368
174	0xbdf97d8c	-0.12182149
175	0xbec38173	-0.381847
176	0x3f4152b9	0.7551685
177	0xbf31393c	-0.6922796
178	0xbea39059	-0.31946066
179	0xbeb6c180	-0.35694504
180	0xbf1d4118	-0.6142745
181	0xbf8eecfc	-1.1166072
182	0x3e20fa34	0.15720445
183	0x3f80036d	1.0001045
184	0x3f8f3c18	1.1190214
185	0xbf64245d	-0.89117986
186	0xbf465cd6	-0.77485406
187	0xbf6c40eb	-0.92286557
188	0xbe846123	-0.2585536
189	0xbf9f53af	-1.2447413
190	0x3cf57bc1	0.029966237
191	0x3f4b3e2d	0.7939175
192	0xbe95105d	-0.29114047
193	0x3f4477b4	0.7674515
194	0x3f248f62	0.64281285
195	0x3f1aa6cd	0.6041077
196	0x3f200397	0.6250548
197	0x3e7009b9	0.23441209
198	0xbebe9202	-0.3722077
199	0xbf2e14ad	-0.680003
200	0xbd8492ab	-0.06473287
201	0x3f173735	0.59068614
202	0x3e21158c	0.15730876
203	0x3f30bf1e	0.6904162
204	0x3eadd14d	0.33948746
205	0x3cc7ed7c	0.024405234
206	0xbf174d5a	-0.59102404
207	0x3d25be2e	0.040464573
208	0x3da36fb2	0.079802886
209	0xbde9c9ad	-0.1141542
210	0x3e20faf8	0.15720737
211	0x3df50996	0.11964719
212	0x3ef59863	0.47967824
213	0x3ce66b28	0.028127268
214	0xbd7dfbec	-0.06200783
215	0xbd08b504	-0.033375755
216	0x3f213e14	0.6298535
217	0xbde669ea	-0.1125067
218	0xbd48eac8	-0.04905203
219	0xbed39713	-0.41326198
220	0x3d23157d	0.039815415
221	0xbf62fefa	-0.88670313
222	0x3dd7c2f4	0.10535231
223	0x3f2ceb00	0.6754608
224	0x3f0b8511	0.5449992
225	0xbd3156ab	-0.043295544
226	0xbdd3daac	-0.10344443
227	0xbd069aa9	-0.03286234
228	0x3f0fb94e	0.5614213
229	0xbf0d5480	-0.5520706
230	0xbeb46146	-0.35230464
231	0x3f0cdf07	0.5502781
232	0xbf014202	-0.50491345
233	0x3ea99d65	0.33127895
234	0x3e8d9980	0.27656174
235	0x3e131dbd	0.14366813
236	0x3e3f921e	0.18708083
237	0xbd14ebac	-0.036357567
238	0xbd1e0695	-0.038580496
239	0xbe09c821	-0.1345525
240	0x3f1648e4	0.5870497
241	0xbed558af	-0.41669223
242	0xbf2a27f8	-0.6646724
243	0xbf0db9c2	-0.5536157
244	0xbe4fe441	-0.20301916
245	0xbf520df8	-0.82052565
246	0x3d7eb0ec	0.062180445
247	0x3f620734	0.8829224
248	0xbf3994a5	-0.7249244
249	0x3ee273c5	0.4422895
250	0x3e818959	0.253001
251	0x3f30b7ad	0.69030267
252	0x3f3f5073	0.7473213
253	0xbe2342e5	-0.15943487
254	0xbe6603f1	-0.22462441
255	0x3cb304d1	0.021852883

lstm.weight_hh_l1 f4 [32, 8]
0	0xbe4eee90	-0.20208192
1	0xbdfec84e	-0.12440549
2	0xbe64ba7c	-0.22336763
3	0x3e509a8e	0.20371458
4	0xbda27b90	-0.07933724
5	0x3daf2604	0.08552173
6	0x3e8cc6ed	0.27495518
7	0x3d66d9b8	0.056359977
8	0x3ea23497	0.31680748
9	0x3db513b0	0.08841646
10	0x3e0af362	0.13569406
11	0x3e9b840b	0.30374178
12	0x3e3032a6	0.17206821
13	0x3ddff18c	0.10934743
14	0x3e7ec0aa	0.24878183
15	0xbe0987ff	-0.13430785
16	0x3da296a4	0.07938889
17	0xbd1c0a48	-0.038095742
18	0xbd6aea98	-0.057352632
19	0x3eacacbf	0.33725545
20	0xbdcbfca0	-0.09960294
21	0xbeb2da32	-0.34932095
22	0x3d50f040	0.05101037
23	0xbc9e1620	-0.01929766
24	0x3db1823c	0.08667418
25	0x3e829f35	0.2551209
26	0x3e406d32	0.18791655
27	0xbe9595f5	-0.2921597
28	0x3e8be17d	0.2732047
29	0x3dc91740	0.09818888
30	0xbe4dec04	-0.20109564
31	0xbd82137c	-0.063513726
32	0xbe90c8e8	-0.2827828
33	0xbe0d9a23	-0.1382833
34	0x3e9e16d3	0.30876788
35	0xbe860fa3	-0.26183805
36	0x3d797e08	0.06091121
37	0xbe78e14e	-0.24304697
38	0x3e8433ab	0.2582067
39	0xbd0a8dc0	-0.03382659
40	0xbdf46288	-0.11932856
41	0x3e66222a	0.2247397
42	0xbe903d8c	-0.28171957
43	0xbeaa4eb6	-0.33263177
44	0xbdff9502	-0.12479593
45	0x3e88f669	0.26750496
46	0x3d4460e0	0.04794395
47	0xbbadd580	-0.005304992
48	0x3e5abe4a	0.21361652
49	0x3e85bf4d	0.26122513
50	0x3dba8cb0	0.09108865
51	0xbd854cb4	-0.065087706
52	0x3e97f871	0.29681733
53	0x3e26cf42	0.1629
54	0x3d977a60	0.07396388
55	0x3d294198	0.04132232
56	0x3e994c41	0.2994099
57	0xbe862790	-0.2620206
58	0x3e9234a5	0.2855579
59	0xbda6beb4	-0.081418425
60	0xbdefde86	-0.11712365
61	0x3e93ffa1	0.28905967
62	0x3d347d20	0.04406464
63	0x3e6148f2	0.22000483
64	0xbe828eac	-0.25499475
65	0xbe75afe6	-0.23992881
66	0xbe993f0d	-0.29930916
67	0xbea6601a	-0.32495195
68	0x3e98eadd	0.29866686
69	0x3e55aa96	0.20865855
70	0x3de345d8	0.11097306
71	0xbdf149e8	-0.117816746
72	0xbe64e763	-0.22353892
73	0xbe917334	-0.28408206
74	0x3e2b2ea6	0.16717014
75	0x3ea9276b	0.33037886
76	0x3d6747d0	0.05646497
77	0xbd89bb38	-0.06725162
78	0xbe813e77	-0.2524297
79	0xbe88cc68	-0.2671845
80	0xbe6367bc	-0.2220754
81	0x3e5a97c2	0.21346954
82	0x3d5f1638	0.05446455
83	0x3e52d9ce	0.20590898
84	0x3d3b2f60	0.045699477
85	0xbe26d21f	-0.16291092
86	0x3dc71068	0.09719926
87	0xbe940b5e	-0.28914922
88	0x3ea66eb7	0.32506344
89	0x3e2cf1f2	0.1688917
90	0xbe21e946	-0.15811643
91	0xbd6a2858	-0.05716738
92	0x3d6189b0	0.05506295
93	0x3de73ebc	0.112912625
94	0x3dfc02d0	0.12305224
95	0x3e6ef90a	0.23337188
96	0x3e6c6922	0.2308698
97	0xbe700698	-0.23440015
98	0xbe39d628	-0.181481
99	0xbd7b1048	-0.061294824
100	0x3e1a7ac6	0.15085897
101	0xbb1c8680	-0.002388388
102	0x3e532746	0.2062045
103	0xbe8804c6	-0.26566142
104	0x3c59d980	0.013296485
105	0x3e1f19ee	0.15537235
106	0x3e43942e	0.19099495
107	0x3daa37a8	0.08311397
108	0x3e031424	0.12800652
109	0x3de7b3c8	0.113135874
110	0xbd6b6f20	-0.057479024
111	0xbeb04073	-0.3442417
112	0x3dedce6c	0.116116375
113	0x3a302200	0.00067189336
114	0x3d733c88	0.0593839
115	0x3d933e88	0.07189661
116	0x3e9d0b37	0.3067262
117	0x3e091cc2	0.13389876
118	0x3df60f00	0.1201458
119	0xbe10b778	-0.14132488
120	0xbe1a5f6f	-0.15075468
121	0xbe7b151a	-0.24519768
122	0x3e5b8942	0.21439078
123	0x3e370fe6	0.17877159
124	0xbe85244f	-0.26004264
125	0x3db04228	0.08606368
126	0xbe16ad43	-0.14714532
127	0x3dee0d70	0.11623657
128	0x3cfb9b10	0.030713588
129	0xbe9a5332	-0.30141598
130	0x3e620fde	0.22076365
131	0x3e9ad919	0.30243757
132	0xbe9d15a3	-0.3068057
133	0x3ea652bb	0.32484993
134	0x3e4fdb86	0.20298585
135	0xbde27492	-0.1105739
136	0xbd565658	-0.052328438
137	0xbd0d2840	-0.034462214
138	0xbcceaad0	-0.025227934
139	0x3ea41411	0.3204656
140	0xbe86e616	-0.26347417
141	0x3e3b2aca	0.18278041
142	0xbe6eaec4	-0.23308855
143	0xbe79ff8c	-0.2441389
144	0x3e4aac3e	0.19792268
145	0xbda9e340	-0.082952976
146	0xbaa05300	-0.0012231767
147	0x3e8d557d	0.27604285
148	0x3dac8448	0.08423668
149	0x3c3503e0	0.011048287
150	0x3dce017c	0.10058877
151	0x3e8c870f	0.27446792
152	0xbe68a7f5	-0.2272032
153	0xbdd8993c	-0.10576102
154	0x3eb41879	0.3517492
155	0xbe9b47f6	-0.3032834
156	0x3b062d00	0.00204736
157	0xbe96be34	-0.29441988
158	0x3cb4f000	0.022087097
159	0x3e042b72	0.12907198
160	0x3ea82a97	0.32844993
161	0xbeaf9eb0	-0.34300756
162	0x3e332622	0.17495015
163	0x3e44363e	0.19161317
164	0x3d7547d8	0.05988297
165	0x3e975449	0.29556492
166	0x3cea65e0	0.02861303
167	0x3e00a57a	0.12563124
168	0xbeafc0bf	-0.3432674
169	0xbe3d112c	-0.18463582
170	0xbde18bd2	-0.11012997
171	0x3e49344e	0.19648859
172	0x3de5f9b4	0.11229268
173	0xbe6149e2	-0.2200084
174	0x3e2a96e6	0.16659126
175	0x3d387ca0	0.045040727
176	0xbace2a00	-0.001572907
177	0x3e637b1e	0.22214934
178	0xbe58220b	-0.21106736
179	0x3e2d9faa	0.16955438
180	0x3e046c00	0.12931824
181	0xbd58e570	-0.052953184
182	0x3e07a474	0.13246328
183	0xbe97f19b	-0.29676518
184	0x3d9ce5ac	0.07660994
185	0x3d038418	0.032108396
186	0xbea1e970	-0.3162341
187	0x3e801821	0.2501841
188	0xbe690f87	-0.2275983
189	0xbe398d03	-0.18120198
190	0x3e0d9a26	0.13828334
191	0x3e930f21	0.2872248
192	0x3daa9750	0.08329642
193	0x3e75f906	0.24020776
194	0x3e27cb8a	0.16386238
195	0xbe4fb4c3	-0.20283799
196	0x3c5acf00	0.013355017
197	0xbe330ac0	-0.1748457
198	0xbe0858d8	-0.13315141
199	0xbe88b151	-0.26697782
200	0x3d5e2f98	0.054244608
201	0xbe54fb26	-0.2079893
202	0x3ea3078b	0.31841692
203	0x3e8c8703	0.27446756
204	0xbd3fba88	-0.04680875
205	0xbe15c601	-0.14626314
206	0x3e253ae2	0.16135743
207	0xbe17c973	-0.1482294
208	0x3e049ec8	0.12951195
209	0x3e8ef205	0.2791902
210	0x3e2b2a22	0.16715291
211	0x3e6ea492	0.23304966
212	0xbcc17d90	-0.023619443
213	0xbd496320	-0.0491668
214	0xbe67ef18	-0.22649801
215	0x3ea4a31d	0.32155696
216	0xbe946518	-0.28983378
217	0x3e90e03f	0.28296086
218	0x3e9ca2a7	0.30592844
219	0xbea198d4	-0.3156191
220	0xbbb67dc0	-0.00556919
221	0x3e3ebb36	0.18626103
222	0x3e460f86	0.19341859
223	0x3e39b93e	0.1813707
224	0xbdbfe304	-0.09369472
225	0x3e11901e	0.14215133
226	0x3eadbccb	0.339331
227	0xbeb3f81c	-0.3515023
228	0xbeb1f6ac	-0.34758508
229	0xbdc02560	-0.09382129
230	0xbdf8d614	-0.12150207
231	0xbd7195b0	-0.058980644
232	0x3dcd05cc	0.10010871
233	0x3e60b52a	0.21944109
234	0xbe820fb2	-0.254026
235	0x3e90b2e7	0.28261492
236	0xbe527eeb	-0.20556228
237	0x3cfe89d0	0.031071573
238	0x3d5d24c8	0.053990155
239	0xbe1ae563	-0.15126567
240	0xbe5d905f	-0.21637104
241	0x3e06dad8	0.1316942
242	0xbe88eaea	-0.26741725
243	0xbe558308	-0.20850766
244	0x3cd55d60	0.026045501
245	0x3e78849a	0.24269333
246	0x3e68be9a	0.22728959
247	0xbc746480	-0.014916539
248	0xbb98eb40	-0.004666716
249	0xbea0a6dc	-0.31377304
250	0x3e39e7d2	0.18154839
251	0xbe69496c	-0.22781914
252	0x3ca69610	0.020335227
253	0x3c56c220	0.013107806
254	0x3be431c0	0.0069639385
255	0xbeb1e1ce	-0.34742588

lstm.bias_ih_l1 f4 [32]
0	0x3eaceee6	0.33776015
1	0x3f37c39c	0.7178285
2	0x3f1cb9eb	0.6122119
3	0x3f008092	0.5019618
4	0x3f4da720	0.8033314
5	0x3eae9ddc	0.34104812
6	0x3f1220b2	0.5708114
7	0x3fa4ece3	1.2884792
8	0xbeb2fcdc	-0.3495854
9	0x3d067ea8	0.032835633
10	0x3d3abfc0	0.045593023
11	0xbe97333b	-0.29531273
12	0xbdb1c3c8	-0.086799204
13	0x3ea07e1b	0.3134621
14	0xbea61d91	-0.32444432
15	0x3e849279	0.25893
16	0xbdfdb334	-0.12387696
17	0x3ee4b1d7	0.4466693
18	0x3f1922b5	0.59818584
19	0xbf598aea	-0.8497759
20	0xbed84346	-0.42238826
21	0xbecf5d1b	-0.4050072
22	0x3f0ad277	0.54227394
23	0x3e957104	0.29187787
24	0x3f035f14	0.5131695
25	0x3f66c336	0.9014162
26	0x3f7765fe	0.9664
27	0x3f1836f5	0.5945886
28	0x3f417cfa	0.75581324
29	0x3e539ca8	0.20665228
30	0x3f03bb2f	0.51457494
31	0x3f4d22e6	0.80131376

lstm.bias_hh_l1 f4 [32]
0	0x3ee3c4ea	0.4448617
1	0x3f59a1fb	0.8501279
2	0x3f847477	1.0348042
3	0x3ed1e3de	0.4099416
4	0x3f1c21c1	0.60989004
5	0x3e61e444	0.22059733
6	0x3f09c1ea	0.53811514
7	0x3f69e719	0.9136825
8	0x3d97726c	0.07394871
9	0xbe947100	-0.28992462
10	0xbe2a12f0	-0.16608787
11	0x3d8a31b4	0.06747761
12	0xbe9c7fe1	-0.30566314
13	0x3dd3cf38	0.10342258
14	0x3e7a187a	0.244234
15	0xbdf9a5c0	-0.121898174
16	0xbe9518ae	-0.29120392
17	0x3eff1106	0.49817675
18	0x3e814449	0.2524741
19	0xbe3b279d	-0.1827683
20	0xbeeef112	-0.46668297
21	0xbe7f9ae5	-0.24961431
22	0x3f2bfeab	0.6718547
23	0x3f06c5a7	0.52645344
24	0x3ea3616f	0.31910273
25	0x3f912660	1.1339836
26	0x3f810758	1.0080366
27	0x3e7c9bc6	0.24668798
28	0x3f2fdabf	0.68693155
29	0x3eacaee5	0.33727184
30	0x3f4ae403	0.7925417
31	0x3f5df4e5	0.86701804

lstm.weight_ih_l2 f4 [32, 8]
0	0x3f5f4676	0.8721689
1	0xbed182a3	-0.4091998
2	0xbdf1cf76	-0.11807148
3	0xbdd9d6b9	-0.10636658
4	0x3ec21854	0.37909186
5	0x3eabe4a3	0.33572873
6	0x3eabaca5	0.33530155
7	0xbf006c5c	-0.50165343
8	0xbd3db7a7	-0.046317723
9	0x3f0e8ae2	0.5568067
10	0x3f0a9ea2	0.54148304
11	0xbf7a733e	-0.97832096
12	0xbf226627	-0.6343712
13	0xbf15d57c	-0.58528876
14	0x3f37472b	0.7159297
15	0x3f3321b8	0.69973326
16	0x3eb46124	0.35230362
17	0x3ccdb74d	0.025111819
18	0x3dd1dd2f	0.102472655
19	0xbecb695d	-0.39728823
20	0xbd6240b7	-0.055237498
21	0x3f067e6d	0.5253666
22	0x3f8a3b01	1.0799257
23	0x3e4a7504	0.197712
24	0x3f81ed0b	1.0150465
25	0xbe58ea0e	-0.21183035
26	0x3c015504	0.007893804
27	0xbecbc5ee	-0.39799446
28	0xbecf53ee	-0.4049372
29	0x3e9a9919	0.3019493
30	0x3f3aa1bd	0.72903043
31	0xbec7518a	-0.38929397
32	0x3ef27f90	0.47362947
33	0xbeb69b40	-0.3566532
34	0xbe3b724f	-0.18305324
35	0xbec172a9	-0.3778279
36	0xbed3b11f	-0.4134607
37	0x3ef09e56	0.469958
38	0x3f844490	1.0333424
39	0xbed1bc13	-0.40963802
40	0x3ddb507b	0.1070871
41	0x3e550a40	0.20804691
42	0x3f15181c	0.58239913
43	0xbe385734	-0.18002015
44	0xbe9b33c3	-0.3031293
45	0xbd9040e1	-0.07043625
46	0x3f3b92f8	0.7327113
47	0x3e8e42df	0.27785394
48	0xbdeb3daa	-0.11486371
49	0x3f7be194	0.9839108
50	0x3f3d9759	0.74059063
51	0xbf16579b	-0.58727425
52	0xbec58250	-0.38575983
53	0xbec0211d	-0.37525263
54	0x3f54ba8e	0.8309716
55	0x3f85575e	1.0417287
56	0x3eaadcee	0.3337168
57	0xbf461848	-0.773808
58	0xbe83a93d	-0.25715056
59	0x3e3efa64	0.18650204
60	0x3f1995f7	0.59994453
61	0xbc4935b5	-0.012280871
62	0xbe8501b0	-0.2597785
63	0xbf6c4b32	-0.9230224
64	0x3e95a0c9	0.29224232
65	0x3dbac354	0.09119287
66	0x3e6f8212	0.23389462
67	0x3e691642	0.22762397
68	0x3cac6910	0.021046191
69	0x3e859277	0.26088306
70	0x3e46e09a	0.19421616
71	0x3df0e6bc	0.11762759
72	0xbbd8cf00	-0.006616473
73	0xbcd11d70	-0.025526732
74	0xbe8fa111	-0.2805257
75	0x3eb0b673	0.34514198
76	0xbcf7a250	-0.030228764
77	0xbe062372	-0.13099459
78	0xbe9dd45b	-0.30826077
79	0x3dec5ac4	0.1154075
80	0x3ea7e15b	0.3278912
81	0xbbc7cd40	-0.0060974658
82	0xbd2fa4a8	-0.042881638
83	0x3e38d54e	0.1805012
84	0x3e153434	0.14570695
85	0xbd24d820	-0.040245175
86	0xbead8a8a	-0.3389476
87	0x3e12fb26	0.14353618
88	0xbe0272d7	-0.1273912
89	0x3d11e138	0.035615176
90	0x3d80aa24	0.06282452
91	0xbdb61430	-0.08890569
92	0xbdbfa334	-0.093573004
93	0xbe80e77f	-0.25176618
94	0xbeb14995	-0.3462645
95	0xbd1b5ea8	-0.037932068
96	0x3e29b182	0.1657162
97	0xbe7765e0	-0.24159956
98	0x3cb60ce0	0.022222936
99	0xbd1548f8	-0.03644654
100	0xbead7063	-0.33874807
101	0xbd95f32c	-0.07321772
102	0xbe6b4b58	-0.2297796
103	0xbe6f7b51	-0.23386885
104	0x3dab02e0	0.08350158
105	0xbe087ba6	-0.13328418
106	0xbe8f29d7	-0.2796161
107	0xbdcab418	-0.098976314
108	0x3e519966	0.20468673
109	0x3d6ccba8	0.05781141
110	0x3d9e8174	0.07739535
111	0x3e59b9e2	0.21262315
112	0xbdcf89f4	-0.10133734
113	0x3d3f6ef8	0.046736687
114	0xbdb87ffc	-0.09008786
115	0xbe0ae3fb	-0.1356353
116	0xbdb5d1a8	-0.088778794
117	0xbde1ccac	-0.11025366
118	0x3d39b7e0	0.045341372
119	0x3e3bb9a2	0.18332532
120	0x3e32fd82	0.17479518
121	0xbd977090	-0.073945165
122	0x3d97676c	0.07392773
123	0xbe914538	-0.28373122
124	0xbe0c9b5f	-0.13731144
125	0xbe00aa01	-0.12564851
126	0x3e8894b5	0.26675954
127	0x3e89632d	0.26833478
128	0x3eca92b2	0.39565045
129	0xbfa1a15a	-1.2627366
130	0xbf65d57f	-0.89778894
131	0x3f08c839	0.53430516
132	0x3f632cec	0.8874042
133	0x3f2e73ac	0.6814525
134	0xbf8c44c4	-1.0958486
135	0xbf8bd573	-1.0924515
136	0x3f1af25c	0.6052606
137	0xbf48fdc3	-0.7851221
138	0xbf66f506	-0.90217626
139	0x3f6ceb33	0.92546386
140	0x3f4435de	0.76644695
141	0x3f145a3b	0.5795018
142	0xbf6b5a66	-0.9193481
143	0xbf5fd910	-0.87440586
144	0x3f4bf591	0.7967158
145	0xbf9cc47f	-1.2247466
146	0xbed9a229	-0.4250653
147	0x3f5f4793	0.8721859
148	0x3f0c8a74	0.5489876
149	0x3f18f098	0.59742117
150	0xbeef3768	-0.4672196
151	0xbf959e94	-1.1689019
152	0x3f610aeb	0.87907284
153	0xbf96c3f0	-1.1778545
154	0xbef889a0	-0.485425
155	0x3f36e7f8	0.71447706
156	0x3f1b404d	0.6064499
157	0x3ed72c13	0.42025813
158	0xbf0fd30d	-0.5618141
159	0xbf8c7faf	-1.0976466
160	0x3f48cbfd	0.7843626
161	0xbf50ec34	-0.8161042
162	0xbf42fe85	-0.76169616
163	0x3f5a20f5	0.8520654
164	0x3f76fc18	0.96478415
165	0x3e9f8fb6	0.3116433
166	0xbf27b49b	-0.6550996
167	0xbf9f93a3	-1.246693
168	0x3f34e84b	0.7066695
169	0xbf6f1dc9	-0.93404824
170	0xbec0db70	-0.37667418
171	0x3f29d716	0.6634382
172	0x3f30d194	0.6906979
173	0x3e231fee	0.15930149
174	0xbf113dc7	-0.5673489
175	0xbf8e236c	-1.110456
176	0x3f08b033	0.5339386
177	0xbf64b3f0	-0.8933706
178	0xbf499b52	-0.78752625
179	0x3efc55ae	0.49284118
180	0x3f94f646	1.1637657
181	0x3e5eab87	0.2174512
182	0xbf055010	-0.5207529
183	0xbf850946	-1.0393455
184	0xbeb90e0f	-0.36143538
185	0x3f4c5482	0.7981645
186	0x3f48160e	0.7815865
187	0xbf1ecc5b	-0.6203057
188	0xbf22290a	-0.6334387
189	0xbeea2e7a	-0.45738584
190	0x3f7aab59	0.97917706
191	0x3f585c60	0.84515953
192	0x3e87adf1	0.26499894
193	0xbf3c46c9	-0.7354551
194	0xbec1bfc1	-0.3784161
195	0xbe703c67	-0.23460542
196	0xbc81fbf1	-0.015867205
197	0x3f22a6ad	0.6353558
198	0x3e4f17bf	0.20223902
199	0xbf5022d9	-0.81303173
200	0x3e112dd6	0.14177641
201	0x3f39fc5b	0.7265069
202	0x3f6c0ea1	0.9220982
203	0xbf4bac8f	-0.7956018
204	0xbf477ca8	-0.77924585
205	0xbc0d72be	-0.008633314
206	0x3f36cc11	0.7140513
207	0x3f33b396	0.701959
208	0x3de6431a	0.11243267
209	0x3e839dfa	0.25706464
210	0xbd9ac460	-0.07556987
211	0xbeecdc7a	-0.4626196
212	0xbec376d4	-0.38176596
213	0x3ef61b27	0.4806759
214	0x3f86c4e0	1.0528831
215	0xbcca6fa6	-0.024711441
216	0x3eda5dcd	0.4264969
217	0xbf3d0766	-0.73839414
218	0xbe34017d	-0.17578693
219	0xbf1bf990	-0.6092768
220	0xbe495387	-0.1966077
221	0x3eb4ef97	0.35339043
222	0x3f53e726	0.8277458
223	0xbdea5efc	-0.11443898
224	0x3ec57ed1	0.38573316
225	0xbe201d1f	-0.15636109
226	0x3cdf7292	0.027276311
227	0xbea4ba18	-0.32173228
228	0xbe272ea7	-0.1632639
229	0x3e93b22d	0.28846875
230	0x3ef97f4a	0.48729926
231	0xbedc7f4d	-0.43065873
232	0xbd8759ad	-0.06608901
233	0x3e9c1e44	0.3049184
234	0x3f1c64e2	0.61091435
235	0xbe503351	-0.20332076
236	0xbf3cba8d	-0.73722154
237	0xbe251de8	-0.1612469
238	0x3f6c0df1	0.9220877
239	0x3f03ace4	0.51435685
240	0xbe0dbb0d	-0.13840885
241	0x3f972654	1.1808572
242	0x3f0d21d3	0.55129737
243	0xbf520849	-0.8204389
244	0xbf84aa43	-1.036446
245	0xbf25a868	-0.6471009
246	0x3f7e492d	0.9933041
247	0x3f880be3	1.0628628
248	0x3ea3b897	0.31976768
249	0xbf5f04fb	-0.87116975
250	0xbed80e8b	-0.42198595
251	0x3ee88f2b	0.45421728
252	0x3eb0b6b2	0.34514385
253	0x3e5713e9	0.21003689
254	0xbed9e9f4	-0.42561305
255	0xbf4d52fe	-0.8020476

lstm.weight_hh_l2 f4 [32, 8]
0	0xbcabbaa0	-0.020963013
1	0x3e491c46	0.19639692
2	0x3e9e25bb	0.3088816
3	0x3cb4e6a0	0.022082627
4	0xbe2e6efc	-0.17034525
5	0xbe9b535f	-0.30337045
6	0xbe83b062	-0.25720507
7	0x3c1d9ce0	0.009619921
8	0x3e89eab9	0.26936892
9	0x3d3f3a08	0.046686202
10	0x3e6b27da	0.22964421
11	0x3e2c3cfe	0.16820142
12	0xbdb4ec2c	-0.08834109
13	0x3e8aac1f	0.27084443
14	0x3e0561d0	0.13025594
15	0xbea1b8f9	-0.31586435
16	0xbe438a5d	-0.1909575
17	0xbe50e2e5	-0.20399053
18	0x3e8375df	0.25675866
19	0x3c902470	0.0175955
20	0xbe1a45c8	-0.15065682
21	0x3e06d456	0.13166937
22	0x3c41ee20	0.011836559
23	0xbe9b391a	-0.30317003
24	0x3d7f8730	0.062384784
25	0x3e01fa00	0.12693024
26	0xbdeb2a02	-0.11482622
27	0x3e930cff	0.28720853
28	0xbe981e70	-0.29710722
29	0xbe84bc48	-0.25924897
30	0x3e0184a0	0.12648249
31	0x3e59624a	0.212289
32	0xbe671f9a	-0.22570649
33	0xbe947cab	-0.29001364
34	0x3e0cdb8a	0.13755623
35	0x3e24acce	0.16081545
36	0x3d1a85c0	0.03772521
37	0xbea90e56	-0.3301875
38	0x3e05e00a	0.13073745
39	0xbe6b324c	-0.22968405
40	0xbd615450	-0.055012047
41	0x3e8fbf11	0.2807546
42	0xbd63e798	-0.055640787
43	0xbd856844	-0.06514028
44	0xbe16ddf3	-0.14733104
45	0x3e437f36	0.19091496
46	0x3eaca42f	0.33719012
47	0xbe70ceb2	-0.23516348
48	0x3ea76421	0.3269358
49	0x3e3d0162	0.18457559
50	0xbe58adc1	-0.21160032
51	0xbe110a5d	-0.1416411
52	0x3e8819bd	0.26582137
53	0x3e86f33f	0.26357457
54	0x3d59b2b8	0.053148955
55	0xbe7c8db9	-0.24663438
56	0x3e7aff6e	0.24511501
57	0xbeb2eb8f	-0.34945342
58	0xbe6e65ee	-0.2328107
59	0x3ead56f7	0.3385541
60	0xbe9baf65	-0.30407253
61	0xbcc93e50	-0.024565846
62	0xbe87e7ae	-0.26543945
63	0x3e316b62	0.1732612
64	0xbe0e9381	-0.13923456
65	0x3da62ad0	0.081136346
66	0xbe4ff094	-0.20306617
67	0xbc8c4c00	-0.017126083
68	0xbe54bb05	-0.20774467
69	0xbe206b1d	-0.1566586
70	0xbeaf9f2b	-0.34301123
71	0xbe3f7c69	-0.18699802
72	0xbe82d5d3	-0.2555376
73	0x3dc24bf8	0.09487146
74	0x3c2712c0	0.010197341
75	0xbe916513	-0.28397426
76	0xbe8e32a3	-0.27773008
77	0xbb99dcc0	-0.004695505
78	0x3d957dc0	0.072993755
79	0xbc148460	-0.009064764
80	0xbca6ae10	-0.020346671
81	0x3e56707e	0.2094135
82	0xbe9281c1	-0.2861462
83	0xbd038520	-0.03210938
84	0x3d6ef760	0.058341384
85	0x3c3251e0	0.010883778
86	0x3e17d7b2	0.14828375
87	0xbe472474	-0.194475
88	0xbc4ed8a0	-0.01262489
89	0xbe72c98c	-0.23709697
90	0xbe647d98	-0.22313535
91	0x3cbf0b50	0.023320824
92	0xbda9ba34	-0.082874686
93	0xbe10c24e	-0.14136621
94	0xbe809ad8	-0.25118136
95	0x3d0f5030	0.034988582
96	0xbea67c78	-0.32516837
97	0x3e2a661e	0.16640517
98	0xbe4aa3e5	-0.19789083
99	0xbde1abd0	-0.11019099
100	0x3e89651b	0.2683495
101	0x3e047e14	0.1293872
102	0xbe74640e	-0.23866293
103	0xbdf2f00e	-0.11862193
104	0xbe47bfdd	-0.19506784
105	0x3e673f62	0.22582772
106	0x3e983263	0.29725942
107	0x3ea86675	0.3289067
108	0x3dcaa104	0.098939925
109	0xbc09d440	-0.008412421
110	0xbeaf5f8e	-0.3425259
111	0xbda03e28	-0.07824355
112	0x3e9ce9c9	0.30647114
113	0x3b5d8980	0.003380388
114	0x3e9c76b9	0.30559328
115	0x3ea0c31b	0.31398854
116	0x3e8aaac3	0.27083406
117	0x3dfb9fc4	0.12286332
118	0x3e14c25a	0.14527264
119	0x3e452362	0.19251779
120	0x3e391eca	0.18078151
121	0xbe0705f4	-0.13185865
122	0xbba0e180	-0.004909694
123	0xbea99758	-0.3312328
124	0x3ea4c84f	0.32184073
125	0xbe3862e4	-0.18006474
126	0x3e1fa4e6	0.15590248
127	0xbdadf464	-0.084938794
128	0xbe695ecf	-0.22790073
129	0x3d3e00a0	0.046387315
130	0x3e30059a	0.17189637
131	0xbc80b020	-0.015708983
132	0xbe3b49c3	-0.18289857
133	0xbe8ed1cd	-0.2789444
134	0x3e9a0393	0.30080852
135	0xbe9e36fb	-0.30901322
136	0xbeb0d24c	-0.34535444
137	0x3e21dcc6	0.15806875
138	0x3e1e0502	0.15431598
139	0xbd663380	-0.056201458
140	0x3e304236	0.17212757
141	0x3db3d218	0.087803066
142	0xbd63c6c0	-0.055609465
143	0x3e1f79b2	0.15573767
144	0x3e362aae	0.17789719
145	0x3d03f4a0	0.032215714
146	0x3e754b4e	0.23954508
147	0xbdbc90e4	-0.09207323
148	0x3e988be7	0.29794237
149	0xbd5eebc0	-0.054424047
150	0xbeaf504f	-0.34240958
151	0x3e1a58fa	0.15073004
152	0xbe94921d	-0.29017726
153	0xbe27b69e	-0.16378257
154	0x3e65137e	0.22370717
155	0xbe0c4665	-0.13698728
156	0xbe0f32e4	-0.13984257
157	0xbd35df58	-0.04440245
158	0xbe1e9fb2	-0.15490606
159	0xbd7163e0	-0.05893314
160	0xbe668943	-0.22513299
161	0xbe922c7c	-0.28549564
162	0x3d9032c8	0.07040936
163	0xbe846714	-0.25859892
164	0x3d4ad620	0.04952061
165	0xbd5392b0	-0.051653564
166	0xbeab241c	-0.33425987
167	0x3dd92f9c	0.10604784
168	0x3e8b299f	0.27180192
169	0xbe424cbe	-0.18974587
170	0x3e9d4247	0.30714628
171	0xbc44dd40	-0.012015641
172	0x3eb16b95	0.3465239
173	0xbda2095c	-0.079119414
174	0x3e0f9160	0.140203
175	0x3e8e0879	0.2774084
176	0xbe3fe82d	-0.18740912
177	0x3e8e50af	0.27795932
178	0x3e9d5493	0.30728588
179	0x3e9d5845	0.30731407
180	0xbdcc8510	-0.09986317
181	0xbe30137e	-0.17194936
182	0x3cd8a040	0.0264436
183	0xbe6047d2	-0.21902397
184	0x3c649da0	0.013953596
185	0x3dc8a354	0.09796777
186	0xbea8dd20	-0.32981205
187	0x3eaa66fd	0.332817
188	0xbd227978	-0.039666623
189	0x3e3410a2	0.1758447
190	0x3e992df9	0.29917887
191	0xbe90be83	-0.2827035
192	0xbeadf2fe	-0.3397445
193	0xbe63fbff	-0.22264098
194	0x3c800c10	0.015630752
195	0xbe20dbd2	-0.15708855
196	0xbc245300	-0.010029554
197	0x3defe174	0.11712924
198	0x3dcaef10	0.09908879
199	0x3d072cd8	0.03300175
200	0x3d0ecc80	0.034862995
201	0xbea0d8ca	-0.31415397
202	0x3c26a140	0.010170281
203	0xbe421158	-0.18951929
204	0xbe7e4d3e	-0.24834153
205	0xbc824d90	-0.015906125
206	0xbe489c94	-0.1959098
207	0x3d78e6c0	0.060766935
208	0xbd424e88	-0.047438174
209	0x3d7e7358	0.06212172
210	0x3e23c0d2	0.15991524
211	0xbddc7bea	-0.10765822
212	0xbd778658	-0.060430855
213	0x3e085db4	0.13316995
214	0xbeb057d1	-0.34442
215	0x3e902a71	0.2815738
216	0xbe8b74a2	-0.2723742
217	0xbe331a9d	-0.17490621
218	0x3d0b7980	0.03405142
219	0x3ea6f87f	0.32611462
220	0xbe75e138	-0.24011695
221	0x3c0dc300	0.008652449
222	0x3e8e43c1	0.27786067
223	0xbdf05392	-0.1173469
224	0x3d19df78	0.037566632
225	0x3ea1c3b9	0.31594637
226	0xbe305985	-0.17221649
227	0x3e07909a	0.13238755
228	0xbc976ab0	-0.01848349
229	0xbe82a563	-0.25516805
230	0x3c87e280	0.016587496
231	0xbe88fd61	-0.26755813
232	0xbd18b608	-0.037282974
233	0xbe5254d2	-0.20540169
234	0x3e9183eb	0.28420958
235	0x3e64d776	0.22347817
236	0x3db9a17c	0.09064004
237	0x3d629ec0	0.055327177
238	0xbe6f3142	-0.23358634
239	0x3e08b5b6	0.13350567
240	0xbd611b38	-0.0549576
241	0xbbca83c0	-0.0061802566
242	0x3ead3f03	0.33837137
243	0xbdc91fa0	-0.09820485
244	0x3e142856	0.14468512
245	0xbd9daba4	-0.076987535
246	0x3e928e17	0.2862403
247	0xbc99d170	-0.018776625
248	0x3e2bbb0a	0.16770568
249	0x3e614682	0.21999553
250	0x3e9cb2a3	0.3060504
251	0xbd49cf28	-0.049269825
252	0x3d55afb0	0.0521695
253	0xbe779012	-0.24176052
254	0x3c0563c0	0.008141458
255	0x3e6c0ad2	0.23051003

lstm.bias_ih_l2 f4 [32]
0	0x3f8550a2	1.0415232
1	0x3ea1539e	0.31509107
2	0x3f9595b6	1.1686313
3	0x3f46f6f3	0.77720565
4	0x3f63aec2	0.88938534
5	0x3f8b5bd7	1.0887402
6	0x3f2f7197	0.685327
7	0x3eb84f96	0.3599822
8	0x3b5cd300	0.0033695102
9	0x3ea28fb3	0.3175026
10	0xbe7d87a6	-0.24758777
11	0xbd168938	-0.036751956
12	0x3e9145ff	0.28373715
13	0x3e7fb71e	0.24972197
14	0x3cce7c80	0.02520585
15	0xbdadfb20	-0.08495164
16	0xbe35c455	-0.17750676
17	0xbec2c9e8	-0.38044667
18	0xbef281d3	-0.47364673
19	0xbe877c96	-0.2646224
20	0xbeb50286	-0.35353488
21	0xbe9f1ace	-0.31075138
22	0xbf1369cc	-0.5758331
23	0xbdd6cf79	-0.10488791
24	0x3f88b8c4	1.0681386
25	0x3f55f60a	0.8357855
26	0x3f791660	0.97299767
27	0x3f815ebb	1.0107034
28	0x3fabd38e	1.3423936
29	0x3f20996d	0.6273411
30	0x3f30859d	0.6895388
31	0x3e4f5c46	0.20250043

lstm.bias_hh_l2 f4 [32]
0	0x3f16b3ec	0.5886829
1	0x3ebc0244	0.3672048
2	0x3f9bc198	1.2168455
3	0x3f9384b6	1.1524875
4	0x3fb3e81f	1.4055213
5	0x3f56e532	0.83943474
6	0x3f63396a	0.8875948
7	0x3eeed5b4	0.46647418
8	0xbd760ca0	-0.060070634
9	0x3e644b4e	0.22294351
10	0xbe4e3295	-0.20136483
11	0xbdd69db0	-0.10479295
12	0x3dcabf44	0.09899762
13	0x3d469788	0.048484355
14	0xbe7f213e	-0.24915025
15	0xbdc003b8	-0.09375709
16	0xbe4f7bad	-0.20262022
17	0xbea3e370	-0.3200946
18	0xbe9731bd	-0.29530135
19	0xbede4975	-0.43415418
20	0xbe621685	-0.22078903
21	0xbf33f5e2	-0.7029706
22	0xbeb69067	-0.35657045
23	0x3c9ba955	0.019001642
24	0x3ee2742a	0.4422925
25	0x3e9aba4f	0.30220267
26	0x3f71d985	0.94472533
27	0x3f82ec08	1.0228281
28	0x3f52879b	0.8223817
29	0x3f0901dd	0.5351847
30	0x3ed91426	0.42398185
31	0x3f0fec4c	0.56219935
