ModelSave140.pt (torch_old, 30998 bytes, 45 tensors)

lstm.weight_ih_l0 f4 [32, 8]
00000000: 74bf 763d 9793 b8bf 19f1 2e3f c4df 20be
00000010: 42b8 2fbd 76b6 af3e 27af 92bc 559c 0cbf
00000020: 316d 7c3e 0291 32bf 6739 2c3d e090 ed3e
00000030: 355e 8ebc e7dc 133f 7f67 043f 8544 e53b
00000040: de97 03bd bc0a 07bf 53c8 fe3e 78bc 6abe
00000050: b7c1 76be ea53 cfbd 801e 33bf 8353 7e3e
00000060: 2343 8a3e dc3a 06bf e800 7fbe 4e66 633f
00000070: 65dc 8bbe a59e 973f 1087 333f 9f93 27be
00000080: 987d e73d af98 a0bf 29f6 9c3e 0758 ef3e
00000090: a328 f7bb f0c8 723f 3231 e33e e420 cdbb
000000a0: a94c dcbe 2c9a fd3e 37cb 5a3e ddf3 1abf
000000b0: f1cd 1e3f c266 6bbe a812 0f3e 226e 833e
000000c0: 07b0 f73e defd b6bf 411b 543f 7bd7 1a3f
000000d0: 7a17 36bd 2fc8 873e a315 183c 2a37 60be
000000e0: 5f8b 8dbe 15f6 933d 2207 06bf b467 143f
000000f0: a2cd dd3e 4e80 033f fe25 4a3f c7a9 6c3d
00000100: dac3 58be 0907 09be a8ee 7f3d 045d 9ebe
00000110: 9dd6 823e de30 783e 10b6 24bd 6d4f ad3e
00000120: 8e6e fcbd cc21 b2bd e65a 91be 0177 22be
00000130: 1ef8 edbd 9021 533d 4223 edbd 9199 903e
00000140: c6eb a0be 8f6b 903e f9c0 4cbe a037 70bd
00000150: 14f7 85bd 4411 d13d 5b5b b03e 21f8 803e
00000160: 3c76 77be 2025 cbbd 582b 1a3d 0758 8f3e
00000170: 2e35 86be ac57 fd3d d841 a23d 5917 a63e
00000180: 2e03 dfbd bd43 b33e 4620 6bbe 4083 013d
00000190: de06 463e bcc3 873d 94e9 893d c6ec 043e
000001a0: 6637 e7bd 4672 9bbe 8c11 54be 06a4 5f3e
000001b0: 181a 33bd 1ab3 443e 5ff4 803e 653d 9c3e
000001c0: 3682 233e 66d3 8fbe 11c8 aa3e 749a a03d
000001d0: 4ac1 27be 6023 073c 3029 083d 2b59 a03e
000001e0: 0fe6 863e 20f2 39bc 8206 603e 0de7 2ebe
000001f0: 8ffc 8f3e 9095 aabc b0ad a0bd ab3c 863e
00000200: cb08 eabd e320 9b3f 6899 653c e62d 74bf
00000210: 52a6 db3c 9e99 67bf a45c a4be 114e f73d
00000220: e80b 3b3e c05c b2bf a87a 093f 48c0 583f
00000230: a414 f83c fdc4 8a3f 18ec e13d 5081 31bd
00000240: 13d2 8abe e556 45bf 2a84 983e f9c4 793f
00000250: 65bc aa3d 15c2 5c3f 948f 873e c2d9 093e
00000260: 07e8 4b3e 6b07 aabf 017c 523f 9dc7 0a3f
00000270: 15ea 63bd fc48 8b3f e9f6 85bb 0f98 ebbd
00000280: ec46 8ebe ca7c c4be 8aff 863e 7bca 1f3f
00000290: 73a8 1c3d 8e73 3a3f 356d 2d3f 1814 6e3d
000002a0: e2fe 7e3e bd61 8cbf 4a61 ef3b 2d9e a43f
000002b0: 3eaf bc3e b983 2c3f a005 8ebd 4583 a2bd
000002c0: 72ec 423d b755 803e 8616 2c3f e5ac 90bf
000002d0: 8220 0bbe ead5 45bf 9fc8 2bbf dda3 afbd
000002e0: 36c9 b8bd ab02 d83f 4232 2bbf 482d d2be
000002f0: f449 71bd 2ebe 6bbf 1bdf 0dbc 5ee2 18bd
00000300: f079 87bb 239e c1bf 209b 203f 14c9 933e
00000310: 4307 fe3d e6bb 4a3e 5e19 58bd ce5a f4be
00000320: 7fcd e53d f55b 4cbf 58ef 26be 66dc d73e
00000330: 0e1a 783e 007b 0b3f 3b47 3f3f 7752 323d
00000340: 9123 953d e576 5dbf 94b8 033c 9879 8c3d
00000350: 2b98 9dbe 3262 7abe b203 49bf 0190 2c3e
00000360: dc71 88bd c991 51bf 4769 99be b986 8e3f
00000370: 73f4 07be f3b7 403f 95fe 713f 809a 57be
00000380: a129 f73e 8fb0 51bf 0cd9 68bd f2ed 573f
00000390: 4672 95be dc86 9e3f 9bc0 823e 4f84 79bd
000003a0: 8f19 02bf 2de7 b83e 4389 a43d 890c b0be
000003b0: e481 1f3f ee5a a4be 53f6 523e f6b5 bebd
000003c0: 77eb 0e3f 1613 84bf ff7e 573f da40 2f3f
000003d0: ce27 5b3e 1c76 3c3e 4c7f cdbc 8ac4 01bf
000003e0: 65b9 1ebe c309 ea3e 7742 4ebf 1230 503f
000003f0: 690e ad3e 8c8c 433f a741 b33e 0e94 323e
0.060241178 -1.4420041 0.68336636 -0.1571036 -0.04290033 0.34318894 -0.017905785 -0.54926044
0.24651028 -0.69752514 0.04204693 0.46399593 -0.017378906 0.57758945 0.5172042 0.0069966936
-0.032127254 -0.52750754 0.4976221 -0.22923458 -0.24097334 -0.10123427 -0.69968414 0.24836545
0.27004346 -0.5243356 -0.2490269 0.8882798 -0.27316585 1.184529 0.70127964 -0.16364907
0.11303252 -1.2546595 0.30656555 0.46746847 -0.007542686 0.94837856 0.4437347 -0.0062600244
-0.43027237 0.49531686 0.21366583 -0.60528356 0.6203299 -0.22988418 0.1397196 0.25669962
0.48376486 -1.4296224 0.82854086 0.6048505 -0.044455983 0.26519915 0.009282502 -0.21896043
-0.27645394 0.07224671 -0.52354634 0.5797074 0.43320948 0.5136765 0.7896422 0.0577791
-0.21168461 -0.1338159 0.06248346 -0.3093034 0.25554362 0.24237391 -0.04021269 0.3384966
-0.12325774 -0.086978525 -0.28389663 -0.15865709 -0.1161959 0.05154568 -0.115789905 0.28242162
-0.3142988 0.2820706 -0.19995488 -0.058646798 -0.06541267 0.10208371 0.344447 0.25189307
-0.24166197 -0.099191904 0.037638992 0.27996847 -0.26212448 0.12370238 0.07922715 0.32439688
-0.10889278 0.35012618 -0.2296153 0.03161931 0.19338557 0.0662913 0.067340046 0.12980947
-0.11289863 -0.3036062 -0.20709819 0.21839914 -0.043726057 0.19208947 0.2518644 0.3051559
0.1596764 -0.28090972 0.33355764 0.078419596 -0.16382328 0.00824818 0.033242404 0.3131803
0.26347396 -0.011349231 0.21877483 -0.17080326 0.28122374 -0.02082327 -0.07845628 0.2621816
-0.114274584 1.2119411 0.014013626 -0.95382535 0.026812706 -0.90468776 -0.3210193 0.12075437
0.1826626 -1.3934555 0.53702784 0.846684 0.03028328 1.0841366 0.110313594 -0.043336213
-0.271134 -0.77085716 0.29788333 0.9756618 0.08336715 0.86233646 0.2647673 0.13461974
0.1991273 -1.3283514 0.82220465 0.54210836 -0.05564316 1.0881648 -0.004088272 -0.11503612
-0.27788484 -0.38376456 0.26366836 0.62418336 0.038246583 0.7283257 0.6774476 0.05812463
0.24901918 -1.0967327 0.007305299 1.2860771 0.3685245 0.6738849 -0.06934667 -0.07935194
0.047588773 0.25065395 0.6722187 -1.1302763 -0.1358662 -0.7727953 -0.67103 -0.08576176
-0.09022753 1.6875814 -0.6687356 -0.41050172 -0.058908418 -0.92087066 -0.0086591495 -0.037325256
-0.004134409 -1.5126384 0.627367 0.28864348 0.12403729 0.1979824 -0.052758567 -0.47725528
0.11220836 -0.79827815 -0.1630224 0.42160338 0.24228689 0.5448456 0.74718064 0.043535676
0.072821744 -0.86509544 0.008039612 0.0685913 -0.30780157 -0.24451521 -0.78521264 0.16851808
-0.06662342 -0.81863075 -0.29963133 1.1134864 -0.13276844 0.75280684 0.94529086 -0.21055031
0.48273948 -0.8191003 -0.056847617 0.8434745 -0.29188746 1.2384906 0.2553757 -0.060917195
-0.5082025 0.36113873 0.08033993 -0.34384564 0.6230757 -0.32100624 0.20601778 -0.0931205
0.5582804 -1.0318325 0.84178156 0.6845833 0.21401903 0.1840443 -0.025085114 -0.5069052
-0.1550041 0.45710573 -0.8057017 0.8132335 0.33800057 0.7638633 0.35011026 0.17439291

lstm.weight_hh_l0 f4 [32, 8]
00000000: c32d 42be 6cc6 92be 2446 34be 68c3 9abe
00000010: c070 ccbd 32b3 97be 1daf a83e c06e 26bd
00000020: 2858 4ebe c17c 8b3e 2657 27be 0008 f23a
00000030: 60f1 73bd 804d 683c ea2a 513e b8f6 113d
00000040: f8db 85bd c48f 153e 7203 0bbe 0f85 923e
00000050: 1b49 8d3e 30d8 4c3d bfe8 2bbe de62 5b3e
00000060: 8c2c 5bbe 861b 24be 44cd 8dbe e69f 763e
00000070: 8345 b23e a5ee a73e 0246 8bbe f80f 7a3d
00000080: 02cf 623e 84af 68be 90c0 ea3d 283c 39bd
00000090: 1ac8 333e 87ec 943e 86f2 443e d6fc 2b3e
000000a0: fc44 a1bd 97a3 843e 5870 93bd 4632 08be
000000b0: 25bd 9fbe d0ef c6bd 099b 61be 7cd7 88be
000000c0: c0d3 8dbe ee1f 1cbe 934a 03be e882 1dbd
000000d0: 00a8 6c3a d8b4 38bd 6e80 4c3e d1dd 9fbe
000000e0: a012 373c e8a1 713d a0d4 3a3d bc72 38be
000000f0: 90f8 3bbd 5091 b4bc 00c0 de3b 9d2e ab3e
00000100: bc80 9f3d b869 8ebe 343e babd 0961 53be
00000110: 4e42 303e 6426 4fbe dc1a be3d 92f3 133e
00000120: 38d8 dbbd 1385 a63e 70ac ccbc c03b 8b3b
00000130: d55c 84be 8861 5ebd 5493 14be 509a 93bd
00000140: 0087 79bd c0cc 93bd 597a 2fbe 8188 61be
00000150: 7cee cd3d 90be ef3c eedf 16be 76b2 34be
00000160: 006b 9ebd 5da0 ab3e fd8e 9cbe e3ad 1bbe
00000170: 3736 863e b039 adbe 88fb 073e b1fc 933e
00000180: bc66 abbd e03b 723c 2408 a73d e7e6 ae3e
00000190: 38ac 2fbd 655d 9e3e e17a b33e 7863 093e
000001a0: 1187 9bbe 5c46 b1be b576 9c3e b0cc a33c
000001b0: a62b 18be 0fc0 8d3e 24ce 81be ce0f 273e
000001c0: 2a29 f1bd 19fa 2ebe 2b53 813e 405b 6cbd
000001d0: 4a3f 1d3e 8cb3 b2bd 6951 8d3e 9639 50be
000001e0: 0bcc 823e 0fcb 18be a9e1 923e 40e3 08be
000001f0: 80c5 7ebb 8ed0 7ebe f06f f53d 6e87 253e
00000200: 6002 283d 72ac 5b3e c2ca 353e 3c04 a93d
00000210: 5077 f2bc 7672 693e 2483 4dbe fa6f 33be
00000220: 90c9 4dbd d5b2 aabe 88cd 75be 41ad 22be
00000230: e9bd 893e d2a9 703e e01c 6c3c bf22 6cbe
00000240: 6ab6 433e 60b9 4f3d af23 933e 876e 95be
00000250: 82f6 b3be c066 113e b327 8e3e 196b 1fbe
00000260: 8008 233c 74e3 fa3d 1c47 8cbd 28fb bebd
00000270: 80dc 6fbd aa1e 413e 0258 633e 1092 003d
00000280: f0b5 c6bc 6d06 51be 80ca 5d3c 9f62 69be
00000290: 20ee 25bd 807b 0abb 13bc 01be 3c3c acbe
000002a0: 1816 cbbd 03fe a0be ecf1 9fbd 0c63 cebd
000002b0: a008 22bc 789d fcbd 0d7c a13e ce2e 243e
000002c0: e951 a3be e73a 1bbe 3ce1 1ebe 6495 86be
000002d0: 609d 663c 8045 f33d 446b 093e 40cd 4b3d
000002e0: 5253 3c3e 72a7 563e e296 b3be fcd9 94be
000002f0: f6ba 373e efc9 a0be 4316 9b3e 5041 d9bc
00000300: 4092 bd3b 63d5 77be a637 70be 1095 a93d
00000310: 00a6 1cbb 20c2 a5bc d567 ad3e 50b3 a8bd
00000320: e084 173c 7e3d 793e 00bc 5dbc b41a 76be
00000330: cc69 87be 76f1 683e 77f5 72be e6e7 aabe
00000340: 729e 093e 3487 67be 9203 4b3e 74a5 003e
00000350: e098 503c 65c0 73be 4ef8 4d3e 1469 bfbd
00000360: 236d 8bbe 6053 11bc 70be aabc 3e5d a0be
00000370: 3359 873e 80f5 a43d 0c0a b13d 3c60 133e
00000380: 66b1 123e ab52 8c3e 0117 9d3e 5fd8 8a3e
00000390: fc47 47be e0f1 523c b719 8a3e 13dc 933e
000003a0: 07fe 9ebe 8b73 1cbe 725b 2dbe c072 98bd
000003b0: d66e 303e 8302 88be 2d7f 7dbe f3fc 933e
000003c0: b783 a13e 8694 85be 6bd9 b43e 589f cebd
000003d0: e283 1cbe e267 753e d188 7cbe 460a 363e
000003e0: 594b b33e 885f b9bd 05bd ac3e c572 8f3e
000003f0: b689 17be 00c4 d239 9782 9e3e 3e47 81be
-0.18962769 -0.2866701 -0.17604882 -0.30227208 -0.09982443 -0.29628903 0.329461 -0.040632963
-0.20150816 0.27243617 -0.16341838 0.0018465519 -0.059556365 0.014178634 0.20426527 0.03563568
-0.06536096 0.14605623 -0.13575533 0.2861714 0.27594838 0.05001086 -0.16788004 0.21424434
-0.21403712 -0.16026124 -0.27695668 0.24084434 0.34818658 0.3279926 -0.2720185 0.061050385
0.2214928 -0.22723204 0.1146251 -0.045223385 0.17556801 0.29086706 0.1923314 0.16795668
-0.07874486 0.2590606 -0.07199162 -0.13300428 -0.31198993 -0.09713709 -0.22031797 -0.26726902
-0.27700615 -0.15246555 -0.12821417 -0.03845492 0.00090277195 -0.04509434 0.19970867 -0.3122392
0.011173874 0.058992296 0.04561293 -0.18012518 -0.045891345 -0.022041947 0.0067977905 0.33434
0.07788226 -0.27815032 -0.090938956 -0.20642485 0.17212793 -0.20229489 0.09282467 0.14448383
-0.107346 0.32523403 -0.024984568 0.004249066 -0.25852075 -0.05429223 -0.14509326 -0.07207167
-0.06091976 -0.07216787 -0.17136516 -0.22024728 0.10055253 0.029265672 -0.1473386 -0.17646202
-0.077352524 0.33520785 -0.3057784 -0.15203051 0.26213238 -0.33833075 0.13279545 0.28903726
-0.083692044 0.014784783 0.081558496 0.3416054 -0.04288885 0.3093063 0.35054687 0.1341685
-0.30376485 -0.34623992 0.30559316 0.019995064 -0.148604 0.27685592 -0.25352585 0.16314623
-0.117754295 -0.17087592 0.25258765 -0.05770421 0.15356174 -0.08725652 0.27601174 -0.20334467
0.25546297 -0.1492121 0.2868779 -0.13367939 -0.0038875043 -0.24884245 0.11984241 0.16164944
0.04101789 0.21452501 0.17753127 0.08252761 -0.029597908 0.2279757 -0.20069557 -0.17523184
-0.050241053 -0.33339563 -0.24004185 -0.15886404 0.26902702 0.23502281 0.014411181 -0.2306013
0.19112554 0.050713897 0.28738162 -0.29185888 -0.35149008 0.14199352 0.27764663 -0.15568198
0.009950757 0.122504145 -0.068495005 -0.09325248 -0.058559895 0.18859354 0.22201541 0.031389296
-0.024256676 -0.20412607 0.013537049 -0.22791527 -0.040510297 -0.002113074 -0.12669401 -0.33639705
-0.099163234 -0.31443796 -0.07809815 -0.100774854 -0.009889752 -0.12334722 0.31539956 0.1603348
-0.3189843 -0.15159188 -0.15515608 -0.2628585 0.014075607 0.118784904 0.13419825 0.04975629
0.18391159 0.20962313 -0.35076052 -0.2907256 0.17942414 -0.31404063 0.30290422 -0.026520401
0.0057852566 -0.24202494 -0.23458728 0.082803845 -0.0023902655 -0.020234168 0.3386828 -0.08237326
0.009247988 0.24339864 -0.013533592 -0.24033624 -0.26447904 0.2274836 -0.2372645 -0.3338005
0.13439348 -0.2261017 0.1982558 0.12563115 0.012731761 -0.23803861 0.20114252 -0.09346214
-0.27231702 -0.008869976 -0.02084276 -0.31321138 0.2643524 0.08054638 0.086444944 0.14392179
0.14325485 0.2740682 0.30681613 0.27118203 -0.19461054 0.01287505 0.26972744 0.2887884
-0.31053182 -0.15278451 -0.16929415 -0.07443762 0.1722978 -0.26564416 -0.24755545 0.28903922
0.31545803 -0.26089877 0.35322127 -0.10088986 -0.15284684 0.2396541 -0.24661566 0.17777357
0.35018423 -0.09051424 0.3373796 0.2801725 -0.14798626 0.00040200353 0.30959007 -0.25249666

lstm.bias_ih_l0 f4 [32]
00000000: d7a4 c13e ae6a 0f3f 1c3c ad3e 8fb7 bc3e
00000010: adb3 173e 1fa8 7f3f 4f4a 0ebd 6b90 933e
00000020: 6c4e a7bd b03c d0bd 38b6 12be af46 a4be
00000030: 25c3 06be a011 6fbd 6a6f 4b3e 853f abbe
00000040: 00e0 ca3e 0351 2ebe cb3b 89be 3037 14be
00000050: c729 8e3e 8a51 19bf 5ea8 69be 14ea 59bd
00000060: b51a 3e3f 4df0 fe3e 6918 203f 7f3a e23e
00000070: 685a 3d3e 0613 4f3f c6a1 5f3d c876 413f
0.37821075 0.56022155 0.33834922 0.36858794 0.14814635 0.9986591 -0.034738835 0.2882112
-0.08169255 -0.10167825 -0.14327323 -0.32085177 -0.13160379 -0.058366418 0.1986672 -0.334469
0.39624023 -0.17023091 -0.2680343 -0.14474177 0.2776625 -0.59890044 -0.22818133 -0.05320175
0.742595 0.4979271 0.62537247 0.44185254 0.18491518 0.808884 0.05459764 0.7557187

lstm.bias_hh_l0 f4 [32]
00000000: 4924 333f da85 893f e6ca 0f3f 27f1 8bbd
00000010: 83d4 d33c cbde 253f 5fd0 3b3e 8510 563f
00000020: f8be 5bbd 06a5 1e3e bc95 c23d da20 673e
00000030: b950 9c3e 27ae 32be 0067 c8bb 08d8 86be
00000040: e071 733e b546 b7be 403e 18bf 7157 953c
00000050: 4440 a33e eab6 0bbf 156b 2f3d 5f01 f33e
00000060: 2adc 643f 41c2 743f 7ad7 b03e 876b edbb
00000070: f049 ae3e 1896 803f 45c9 eb3d e0ff d33e
0.6997724 1.0743973 0.56168973 -0.068331055 0.02585817 0.6479308 0.18341206 0.83618957
-0.05364892 0.15492639 0.09501216 0.22571126 0.30530336 -0.17449246 -0.006115794 -0.26336694
0.23773909 -0.35796133 -0.59469986 0.018230172 0.31884968 -0.5457598 0.04282673 0.47461984
0.89398444 0.9560891 0.34539396 -0.0072454843 0.34040785 1.0045805 0.115129985 0.41406155

lstm.weight_ih_l1 f4 [32, 8]
00000000: 7e03 e8be 5aa7 543f 0607 3f3e 3a62 913e
00000010: 13a8 203f 18ae aa3e 4911 8cbe c2b0 49bf
00000020: 249b dfbe 9ffe 233f bae7 d0bc 396d 093f
00000030: 234a 6c3f 861e 7cbe 4633 24bf cbc0 cfbe
00000040: 4a2b 52bd b5ed 3b3e 619d 56be 5fd8 55bd
00000050: 6df5 8d3d 8c5d 4a3d aab0 c1be 3dec 9cbe
00000060: 31b7 da3e a690 d1be 51fa babc 6efc cebe
00000070: f28a af3d 0f9d 62bf 0dbb 0d3f 8177 273e
00000080: 0df3 633e f65c 13be afb3 273d 1c97 073e
00000090: a7e9 4a3f 37bb dbbe 182f e3be 7050 ea3e
000000a0: f668 19bf 75d2 413e 7bc5 9f3e 5112 093f
000000b0: bc3e ee3e b28e 56be 8f6d 08bf 57d6 d3be
000000c0: f54f 333f fcb4 65bf 6bae e3be b4b7 f7be
000000d0: 95b5 debe 7da1 5bbf c3c4 48be 26af 073f
000000e0: 6544 edbe 1f34 903e 37a5 9b3e 731b 793f
000000f0: 62cf 3c3f b5f6 7ebc a5b5 58bf 48af 1e3d
00000100: 58f9 ce3d 8f62 a23e 7d51 5abe 7698 3a3e
00000110: c2f2 743e ba5b 293e aac9 093e a05f 703d
00000120: f63e 513e 706c acbc 36f7 753e 5827 2dbd
00000130: 8f96 973e 4090 97bd 9c71 b43d 8a47 89be
00000140: 86c2 1f3e 5070 3d3d 8a77 45be 60a2 39bc
00000150: e084 10be 12f5 673e 1d8a ab3e 184d 233d
00000160: fa10 6fbe e62a 1abe 6cc5 a3be 16ad 193e
00000170: 940d 133e 7457 f6bd 854f af3e a611 463e
00000180: 78d1 a3bd 912f 933e 409e 683c d08b 27bd
00000190: b083 ef3c da9f f0bd 68d2 c2bd 118c a93e
000001a0: 66c6 663e 7845 ce3d 1836 10bd d2d1 613e
000001b0: 709a b1bc 18eb 02bd 0eea 363e 04cd c3bd
000001c0: cbfa 92be f08f f53c a0c9 b83d 280d ff3d
000001d0: 0c1a 29be 5ced 95be c260 433e 801c 013c
000001e0: 835c a93e a0a0 493d 398b 983e c9e0 9a3e
000001f0: 1adc 7a3e 7e56 a3be e28a 6c3e 0e28 8ebe
00000200: fb27 64bf 20a0 643f 71d2 4d3f c603 0a3f
00000210: c353 823e 64d7 9d3f 556a 3cbf 6c47 26bf
00000220: 48ef a83f 9e1f 8cbf 6328 10bf 0bcc 6bbf
00000230: 9297 29bf 2a7f 8cbf 2263 e53e 2505 913f
00000240: 7deb 4d3f 2604 3fbf ab1e 63bf c5e7 11bf
00000250: 7b7e 54bf 3e7f a1bf 6f28 333f ad88 1b3f
00000260: 6b8d 99bf 82f4 7f3f 86b0 e03e e8c8 bb3e
00000270: e89f e73d 4b2f 303f 3e14 05bf 4c00 cdbe
00000280: d414 4abf 9185 703f 08d1 1f3f 33e2 493f
00000290: bd8f c13e b16a 693f 9542 04bf 7265 59bf
000002a0: 2f7d 91bf 7700 213f b86e b53e d32f 5c3f
000002b0: 3353 143f e943 7d3f 57c8 81be a2d9 dcbe
000002c0: ac96 7d3f 5ae6 5ebf 3fe7 6cbe 2bf2 0ebf
000002d0: beae 4cbf 0aec 85bf 8ad6 a03e 48e0 8a3f
000002e0: 417e aa3f b1a5 88bf 5b71 17bf 2ea0 8dbf
000002f0: bdcd d0be 340e 9abf be17 3d3e 6bf2 583f
00000300: 7d02 b7be adc7 6a3f f326 0d3f 259f 323f
00000310: 1a6d 323f 950b 503e 335f e3be fbc9 45bf
00000320: e594 abbe fb66 373f 04bc 813e 98f4 593f
00000330: 6783 0b3f 38d8 3abd 1fef 2ebf 9763 a1bd
00000340: e86d 013e e211 8d3d 7ac9 cc3d 7cf0 df3d
00000350: fa7c f73e ea94 013d c788 49bd 16aa d4bd
00000360: c981 633f 2670 4ebe 991b 76bc 62a5 10bf
00000370: 3e39 c9bd 84f4 5ebf 2a96 553e 382c 3e3f
00000380: 9b8f a33e 4561 26bc ef80 40be d06c 383e
00000390: 641f 473f 29d0 fbbe 64a9 24bf e17b f43e
000003a0: 6a71 28bf 6274 123f f910 c13e 6203 af3e
000003b0: fd01 a13e 17d0 3abe 4f4a b8bd 1f65 5fbe
000003c0: 8f94 513f f43c 0abf 62b8 14bf e8b0 40bf
000003d0: d2f1 9dbe efa4 4cbf 9364 133e f124 5b3f
000003e0: 22cb 7abf 772f ee3e 5621 b23e f8f4 563f
000003f0: 1ea8 673f f841 91be de6e bbbe d93e 92bd
-0.45315164 0.8306786 0.18655023 0.28395253 0.6275646 0.33335948 -0.27356938 -0.78785336
-0.4367305 0.64060396 -0.02550112 0.53682286 0.92300624 -0.24621019 -0.6414074 -0.40576777
-0.051310815 0.18352397 -0.20958473 -0.0522083 0.06931577 0.04940562 -0.37830096 -0.30648986
0.4271789 -0.4093067 -0.022824438 -0.40426964 0.085714236 -0.885209 0.5536354 0.16354181
0.22260685 -0.1439093 0.040942844 0.13241237 0.79262775 -0.4291627 -0.44371867 0.45764494
-0.5992578 0.18927939 0.31205353 0.53543574 0.46532238 -0.20952871 -0.53292173 -0.41374466
0.7004388 -0.89729285 -0.44469008 -0.48382342 -0.4349791 -0.85793287 -0.19606309 0.5300163
-0.46341243 0.28164765 0.30399486 0.9730751 0.7375394 -0.015561749 -0.8465217 0.03874138
0.10106152 0.3171582 -0.21320148 0.18222222 0.2392073 0.16538897 0.13455835 0.058684945
0.20434174 -0.0210478 0.24020085 -0.04227385 0.29607055 -0.074005604 0.08810732 -0.26812392
0.15601549 0.046249688 -0.19283882 -0.011330217 -0.14113188 0.2265208 0.3350381 0.039868444
-0.2334632 -0.15055427 -0.31986558 0.15007433 0.14360648 -0.12028399 0.34240356 0.1934267
-0.07998937 0.28747228 0.014197886 -0.04090482 0.029237598 -0.11749239 -0.09512788 0.33114675
0.2253662 0.10071844 -0.035207838 0.22052696 -0.021680087 -0.031962484 0.17862722 -0.09560588
-0.28706965 0.029975861 0.09022832 0.12453681 -0.16513842 -0.29282653 0.19079879 0.00788033
0.33078393 0.04922545 0.29793718 0.30249622 0.24498025 -0.31901926 0.23099855 -0.27764934
-0.89123505 0.8930683 0.80399233 0.5391201 0.2545453 1.2331357 -0.7359975 -0.6495273
1.3198023 -1.0947149 -0.56311625 -0.9210822 -0.662469 -1.0976307 0.44802195 1.1329695
0.8043745 -0.74615705 -0.8871867 -0.5699428 -0.83005494 -1.2616956 0.6998357 0.60755426
-1.1996282 0.99982464 0.43884677 0.36676717 0.113097966 0.68822163 -0.5198401 -0.4003929
-0.7893803 0.93953806 0.6242833 0.7886078 0.37804976 0.91178423 -0.51664096 -0.8492042
-1.1366328 0.62891334 0.35436034 0.86010474 0.5793945 0.9893175 -0.2534816 -0.4313479
0.9905803 -0.8707024 -0.23135088 -0.5583827 -0.79954135 -1.0462658 0.3141368 1.0849695
1.331978 -1.0675565 -0.5915734 -1.1064508 -0.40781966 -1.2035584 0.18466088 0.847449
-0.35744086 0.9171093 0.55137557 0.69774085 0.69697726 0.20316918 -0.4440857 -0.7726132
-0.33512035 0.7164151 0.25338757 0.85138845 0.5449738 -0.04561636 -0.6833362 -0.078803234
0.12639582 0.068881765 0.09999366 0.10934541 0.48337537 0.031636156 -0.049202707 -0.10384004
0.8886991 -0.20159969 -0.015021228 -0.56502354 -0.09825371 -0.8709185 0.20858064 0.7428622
0.319455 -0.010155027 -0.18799184 0.18010259 0.77782273 -0.4918225 -0.6432097 0.47750762
-0.65798056 0.57208836 0.37708262 0.34182268 0.3144683 -0.18243442 -0.08998548 -0.21815918
0.8186731 -0.5399926 -0.58093846 -0.7526994 -0.30848557 -0.7993917 0.14393835 0.85603243
-0.97966206 0.46520588 0.34791058 0.8396754 0.904909 -0.28370643 -0.36608022 -0.071408935

lstm.weight_hh_l1 f4 [32, 8]
00000000: 90ee 4ebe 4ec8 febd 7cba 64be 8e9a 503e
00000010: 907b a2bd 0426 af3d edc6 8c3e b8d9 663d
00000020: 9734 a23e b013 b53d 62f3 0a3e 0b84 9b3e
00000030: a632 303e 8cf1 df3d aac0 7e3e ff87 09be
00000040: a496 a23d 480a 1cbd 98ea 6abd bfac ac3e
00000050: a0fc cbbd 32da b2be 40f0 503d 2016 9ebc
00000060: 3c82 b13d 359f 823e 326d 403e f595 95be
00000070: 7de1 8b3e 4017 c93d 04ec 4dbe 7c13 82bd
00000080: e8c8 90be 239a 0dbe d316 9e3e a30f 86be
00000090: 087e 793d 4ee1 78be ab33 843e c08d 0abd
000000a0: 8862 f4bd 2a22 663e 8c3d 90be b64e aabe
000000b0: 0295 ffbd 69f6 883e e060 443d 80d5 adbb
000000c0: 4abe 5a3e 4dbf 853e b08c ba3d b44c 85bd
000000d0: 71f8 973e 42cf 263e 607a 973d 9841 293d
000000e0: 414c 993e 9027 86be a534 923e b4be a6bd
000000f0: 86de efbd a1ff 933e 207d 343d f248 613e
00000100: ac8e 82be e6af 75be 0d3f 99be 1a60 a6be
00000110: ddea 983e 96aa 553e d845 e33d e849 f1bd
00000120: 63e7 64be 3473 91be a62e 2b3e 6b27 a93e
00000130: d047 673d 38bb 89bd 773e 81be 68cc 88be
00000140: bc67 63be c297 5a3e 3816 5f3d ced9 523e
00000150: 602f 3b3d 1fd2 26be 6810 c73d 5e0b 94be
00000160: b76e a63e f2f1 2c3e 46e9 21be 5828 6abd
00000170: b089 613d bc3e e73d d002 fc3d 0af9 6e3e
00000180: 2269 6c3e 9806 70be 28d6 39be 4810 7bbd
00000190: c67a 1a3e 8086 1cbb 4627 533e c604 88be
000001a0: 80d9 593c ee19 1f3e 2e94 433e a837 aa3d
000001b0: 2414 033e c8b3 e73d 206f 6bbd 7340 b0be
000001c0: 6cce ed3d 0022 303a 883c 733d 883e 933d
000001d0: 370b 9d3e c21c 093e 000f f63d 78b7 10be
000001e0: 6f5f 1abe 1a15 7bbe 4289 5b3e e60f 373e
000001f0: 4f24 85be 2842 b03d 43ad 16be 700d ee3d
00000200: 109b fb3c 3253 9abe de0f 623e 19d9 9a3e
00000210: a315 9dbe bb52 a63e 86db 4f3e 9274 e2bd
00000220: 5856 56bd 4028 0dbd d0aa cebc 1114 a43e
00000230: 16e6 86be ca2a 3b3e c4ae 6ebe 8cff 79be
00000240: 3eac 4a3e 40e3 a9bd 0053 a0ba 7d55 8d3e
00000250: 4884 ac3d e003 353c 7c01 ce3d 0f87 8c3e
00000260: f5a7 68be 3c99 d8bd 7918 b43e f647 9bbe
00000270: 002d 063b 34be 96be 00f0 b43c 722b 043e
00000280: 972a a83e b09e afbe 2226 333e 3e36 443e
00000290: d847 753d 4954 973e e065 ea3c 7aa5 003e
000002a0: bfc0 afbe 2c11 3dbe d28b e1bd 4e34 493e
000002b0: b4f9 e53d e249 61be e696 2a3e a07c 383d
000002c0: 002a ceba 1e7b 633e 0b22 58be aa9f 2d3e
000002d0: 006c 043e 70e5 58bd 74a4 073e 9bf1 97be
000002e0: ace5 9c3d 1884 033d 70e9 a1be 2118 803e
000002f0: 870f 69be 038d 39be 269a 0d3e 210f 933e
00000300: 5097 aa3d 06f9 753e 8acb 273e c3b4 4fbe
00000310: 00cf 5a3c c00a 33be d858 08be 51b1 88be
00000320: 982f 5e3d 26fb 54be 8b07 a33e 0387 8c3e
00000330: 88ba 3fbd 01c6 15be e23a 253e 73c9 17be
00000340: c89e 043e 05f2 8e3e 222a 2b3e 92a4 6e3e
00000350: 907d c1bc 2063 49bd 18ef 67be 1da3 a43e
00000360: 1865 94be 3fe0 903e a7a2 9c3e d498 a1be
00000370: c07d b6bb 36bb 3e3e 860f 463e 3eb9 393e
00000380: 04e3 bfbd 1e90 113e cbbc ad3e 1cf8 b3be
00000390: acf6 b1be 6025 c0bd 14d6 f8bd b095 71bd
000003a0: cc05 cd3d 2ab5 603e b20f 82be e7b2 903e
000003b0: eb7e 52be d089 fe3c c824 5d3d 63e5 1abe
000003c0: 5f90 5dbe d8da 063e eaea 88be 0883 55be
000003d0: 605d d53c 9a84 783e 9abe 683e 8064 74bc
000003e0: 40eb 98bb dca6 a0be d2e7 393e 6c49 69be
000003f0: 1096 a63c 20c2 563c c031 e43b cee1 b1be
-0.20208192 -0.12440549 -0.22336763 0.20371458 -0.07933724 0.08552173 0.27495518 0.056359977
0.31680748 0.08841646 0.13569406 0.30374178 0.17206821 0.10934743 0.24878183 -0.13430785
0.07938889 -0.038095742 -0.057352632 0.33725545 -0.09960294 -0.34932095 0.05101037 -0.01929766
0.08667418 0.2551209 0.18791655 -0.2921597 0.2732047 0.09818888 -0.20109564 -0.063513726
-0.2827828 -0.1382833 0.30876788 -0.26183805 0.06091121 -0.24304697 0.2582067 -0.03382659
-0.11932856 0.2247397 -0.28171957 -0.33263177 -0.12479593 0.26750496 0.04794395 -0.005304992
0.21361652 0.26122513 0.09108865 -0.065087706 0.29681733 0.1629 0.07396388 0.04132232
0.2994099 -0.2620206 0.2855579 -0.081418425 -0.11712365 0.28905967 0.04406464 0.22000483
-0.25499475 -0.23992881 -0.29930916 -0.32495195 0.29866686 0.20865855 0.11097306 -0.117816746
-0.22353892 -0.28408206 0.16717014 0.33037886 0.05646497 -0.06725162 -0.2524297 -0.2671845
-0.2220754 0.21346954 0.05446455 0.20590898 0.045699477 -0.16291092 0.09719926 -0.28914922
0.32506344 0.1688917 -0.15811643 -0.05716738 0.05506295 0.112912625 0.12305224 0.23337188
0.2308698 -0.23440015 -0.181481 -0.061294824 0.15085897 -0.002388388 0.2062045 -0.26566142
0.013296485 0.15537235 0.19099495 0.08311397 0.12800652 0.113135874 -0.057479024 -0.3442417
0.116116375 0.00067189336 0.0593839 0.07189661 0.3067262 0.13389876 0.1201458 -0.14132488
-0.15075468 -0.24519768 0.21439078 0.17877159 -0.26004264 0.08606368 -0.14714532 0.11623657
0.030713588 -0.30141598 0.22076365 0.30243757 -0.3068057 0.32484993 0.20298585 -0.1105739
-0.052328438 -0.034462214 -0.025227934 0.3204656 -0.26347417 0.18278041 -0.23308855 -0.2441389
0.19792268 -0.082952976 -0.0012231767 0.27604285 0.08423668 0.011048287 0.10058877 0.27446792
-0.2272032 -0.10576102 0.3517492 -0.3032834 0.00204736 -0.29441988 0.022087097 0.12907198
0.32844993 -0.34300756 0.17495015 0.19161317 0.05988297 0.29556492 0.02861303 0.12563124
-0.3432674 -0.18463582 -0.11012997 0.19648859 0.11229268 -0.2200084 0.16659126 0.045040727
-0.001572907 0.22214934 -0.21106736 0.16955438 0.12931824 -0.052953184 0.13246328 -0.29676518
0.07660994 0.032108396 -0.3162341 0.2501841 -0.2275983 -0.18120198 0.13828334 0.2872248
0.08329642 0.24020776 0.16386238 -0.20283799 0.013355017 -0.1748457 -0.13315141 -0.26697782
0.054244608 -0.2079893 0.31841692 0.27446756 -0.04680875 -0.14626314 0.16135743 -0.1482294
0.12951195 0.2791902 0.16715291 0.23304966 -0.023619443 -0.0491668 -0.22649801 0.32155696
-0.28983378 0.28296086 0.30592844 -0.3156191 -0.00556919 0.18626103 0.19341859 0.1813707
-0.09369472 0.14215133 0.339331 -0.3515023 -0.34758508 -0.09382129 -0.12150207 -0.058980644
0.10010871 0.21944109 -0.254026 0.28261492 -0.20556228 0.031071573 0.053990155 -0.15126567
-0.21637104 0.1316942 -0.26741725 -0.20850766 0.026045501 0.24269333 0.22728959 -0.014916539
-0.004666716 -0.31377304 0.18154839 -0.22781914 0.020335227 0.013107806 0.0069639385 -0.34742588

lstm.bias_ih_l1 f4 [32]
00000000: 9352 cc3e f645 613f b5f4 1e3f 7558 d53e
00000010: bf2e 843f 1f62 e43e 3e01 033f 8c02 b23f
00000020: dcfc b2be a87e 063d c0bf 3a3d 3b33 97be
00000030: c8c3 b1bd 1b7e a03e 911d a6be 7992 843e
00000040: 700c 4cbc c2dc b33e 81da 013f 4e7d 37bf
00000050: be43 95be 8236 a5be 19e4 cc3e 5e09 443e
00000060: 43c0 0f3f 5e56 893f ce71 7a3f e3b7 003f
00000070: 7dab 7a3f 3d44 9d3e 7331 e73e fc5b 683f
0.3990675 0.87997377 0.62092143 0.4166905 1.0326766 0.4460611 0.5117377 1.3907027
-0.3495854 0.032835633 0.045593023 -0.29531273 -0.086799204 0.3134621 -0.32444432 0.25893
-0.012454137 0.35129362 0.50724036 -0.71675575 -0.29153246 -0.3226815 0.40017775 0.19144198
0.56152743 1.0729482 0.978299 0.5028059 0.9791792 0.30716124 0.45154914 0.90765357

lstm.bias_hh_l1 f4 [32]
00000000: 4994 013f 2992 813f dc91 853f 273b a63e
00000010: 2cd8 563f 5eb6 a63e e744 f53e 4009 823f
00000020: 6c72 973d 0071 94be f012 2abe b431 8a3d
00000030: e17f 9cbe 38cf d33d 7a18 7a3e c0a5 f9bd
00000040: 8818 38be f03b ce3e a967 253e fec4 4bbd
00000050: 83f1 abbe c74d 2bbe 449e 073f 051f da3e
00000060: de23 bc3e 2f1b a73f 3c8d 823f 649f 1e3e
00000070: 3f09 693f d324 e03e 8fc1 3a3f fd2d 793f
0.5061689 1.012273 1.0435138 0.32467005 0.839236 0.3256101 0.4790413 1.0159073
0.07394871 -0.28992462 -0.16608787 0.06747761 -0.30566314 0.10342258 0.244234 -0.121898174
-0.17978108 0.40280104 0.16152824 -0.049748413 -0.33582696 -0.16728888 0.5297587 0.4260179
0.36746114 1.3055171 1.0199351 0.1549049 0.91029733 0.43778095 0.72951597 0.973358

lstm.weight_ih_l2 f4 [32, 8]
00000000: ae54 7b3f e307 19bf 2bdf 05be b858 7ebe
00000010: 2933 113f 3696 f13e e6a1 e73e 7b11 2cbf
00000020: e0a0 a3bd 60bc 3c3f a3fb 063f 65cf 71bf
00000030: cc5e 49bf 6882 3fbf a625 2a3f 6f61 553f
00000040: a6a9 033f 37f1 9d3c 5ee7 5ebd e453 11bf
00000050: 641a 143b 0af1 1f3f 0232 a53f e3e6 193e
00000060: eb55 9a3f 9ddd a1be b07d a0bd dbb1 20bf
00000070: 6565 8dbe 5b65 da3e 8bda 733f cc71 00bf
00000080: 1ab5 203f f7d4 f4be 782c 82be 7978 0cbf
00000090: 3ca6 93be 0edd 143f 2e52 973f 7e38 08bf
000000a0: 9e25 723d 3be4 c63e 0d53 0c3f bba5 e3bd
000000b0: 0dce f9be 1fcb 26be 784f 323f 5328 e03e
000000c0: 5609 32be 0096 963f 594d 373f 279f 02bf
000000d0: ac3b 19bf 304c f8be 7d23 473f cb5d 9a3f
000000e0: 73c0 c53e 75ed 75bf 2045 6dbe a1d8 f73d
000000f0: 643e 4e3f de64 af3d 0f2a 67be 7bf7 8abf
00000100: c9a0 953e 54c3 ba3d 1282 6f3e 4216 693e
00000110: 1069 ac3c 7792 853e 9ae0 463e bce6 f03d
00000120: 00cf d8bb 701d d1bc 11a1 8fbe 73b6 b03e
00000130: 50a2 f7bc 7223 06be 5bd4 9dbe c45a ec3d
00000140: 5be1 a73e 40cd c7bb a8a4 2fbd 4ed5 383e
00000150: 3434 153e 20d8 24bd 8a8a adbe 26fb 123e
00000160: d772 02be 38e1 113d 24aa 803d 3014 b6bd
00000170: 34a3 bfbd 7fe7 80be 9549 b1be a85e 1bbd
00000180: 82b1 293e e065 77be e00c b63c f848 15bd
00000190: 6370 adbe 2cf3 95bd 584b 6bbe 517b 6fbe
000001a0: e002 ab3d a67b 08be d729 8fbe 18b4 cabd
000001b0: 6699 513e a8cb 6c3d 7481 9e3d e2b9 593e
000001c0: f489 cfbd f86e 3f3d fc7f b8bd fbe3 0abe
000001d0: a8d1 b5bd accc e1bd e0b7 393d a2b9 3b3e
000001e0: 82fd 323e 9070 97bd 6c67 973d 3845 91be
000001f0: 5f9b 0cbe 01aa 00be b594 883e 2d63 893e
00000200: c0ad e33e 2904 babf c0a8 5fbf 3b3b f63e
00000210: 13ad 8b3f 05dc 4b3f 449a 87bf 05e0 9fbf
00000220: c748 2d3f 225a 78bf f417 66bf c793 583f
00000230: 7177 743f 80ec 333f f026 5abf 9c6a 83bf
00000240: c938 5f3f 6947 b6bf e6a5 d5be 0bfc 483f
00000250: 34c2 3f3f a229 3a3f 5782 cbbe c4dd aabf
00000260: 9a7c 733f fb0b b0bf a41f f4be 8b2e 223f
00000270: 84b5 4c3f ffec 0c3f 909b febe 0b5a a1bf
00000280: e39e 573f 7614 81bf 242b 3ebf 2a42 493f
00000290: 30c2 943f fa27 de3e 1f10 1bbf 6ed0 b3bf
000002a0: add5 4c3f d86e 8fbf 864f c9be 340d 103f
000002b0: bd42 5e3f ee68 9b3e b988 f4be 338c a2bf
000002c0: ed00 1c3f 2589 89bf 3391 49bf a3ea d13e
000002d0: 20d6 ab3f f20e af3e 0d58 eabe 8220 99bf
000002e0: 9901 d1be 08a8 7c3f 8889 423f f58c 12bf
000002f0: 7bef 53bf 3ef7 14bf 4b05 713f 3d8b 7f3f
00000300: 89f4 bd3e 32e8 6bbf 3d4d c9be 5d74 bcbe
00000310: 995c 2d3e e5c7 433f 9691 9d3e fff1 7abf
00000320: b8c2 de3d 48bd 673f 11c9 683f e16a 43bf
00000330: a83a 6bbf 8ee8 2fbe bdb5 2a3f dac3 553f
00000340: 7f4b 933e 6ed2 763e 7ff8 7dbe be2a 21bf
00000350: e067 95be b6f8 183f e6f8 a13f ac3d a8bd
00000360: 1692 1e3f 2a95 58bf eafe 88be 9ea0 58bf
00000370: ee39 a1bd f86e f93e 786d 873f 2d27 6abe
00000380: 4689 093f a089 8ebe 061e 29bd de60 fabe
00000390: 54bf cebc 28b6 ce3e 64d8 213f 5616 0ebf
000003a0: 71db eebd f647 f73e f785 133f ab5d 05be
000003b0: ba7c 6abf 8266 82be d686 613f 3034 2c3f
000003c0: acad 4dbe eaf9 af3f 02d7 073f d9d2 3dbf
000003d0: f323 a0bf 6c2e 43bf bb9f 6f3f b02c 9d3f
000003e0: cbb8 be3e b643 87bf ac7b ccbe 606a c83e
000003f0: 83f5 0b3f 2c2c a03e 8165 c8be 122f 76bf
0.98176086 -0.5977766 -0.13073413 -0.24838531 0.5671869 0.47184914 0.45240706 -0.67214173
-0.07989669 0.7372494 0.5272772 -0.94457084 -0.78660274 -0.7480836 0.66463697 0.83351797
0.5143074 0.01928006 -0.054419868 -0.5676863 0.0022598738 0.6247717 1.2905886 0.15029483
1.205747 -0.3161439 -0.07836473 -0.62771386 -0.2761642 0.42655453 0.95255345 -0.5017364
0.6277634 -0.4781873 -0.25424552 -0.54871327 -0.28837764 0.581498 1.1821954 -0.532112
0.059117906 0.38846 0.54814225 -0.11115595 -0.48790017 -0.16288422 0.6965251 0.43780765
-0.17386374 1.1764526 0.716024 -0.510241 -0.5985668 -0.48495626 0.77788526 1.2059873
0.3862339 -0.96065456 -0.231709 0.121018656 0.8056395 0.08564161 -0.22574638 -1.0856775
0.29224232 0.09119287 0.23389462 0.22762397 0.021046191 0.26088306 0.19421616 0.11762759
-0.006616473 -0.025526732 -0.2805257 0.34514198 -0.030228764 -0.13099459 -0.30826077 0.1154075
0.3278912 -0.0060974658 -0.042881638 0.1805012 0.14570695 -0.040245175 -0.3389476 0.14353618
-0.1273912 0.035615176 0.06282452 -0.08890569 -0.093573004 -0.25176618 -0.3462645 -0.037932068
0.1657162 -0.24159956 0.022222936 -0.03644654 -0.33874807 -0.07321772 -0.2297796 -0.23386885
0.08350158 -0.13328418 -0.2796161 -0.098976314 0.20468673 0.05781141 0.07739535 0.21262315
-0.10133734 0.046736687 -0.09008786 -0.1356353 -0.088778794 -0.11025366 0.045341372 0.18332532
0.17479518 -0.073945165 0.07392773 -0.28373122 -0.13731144 -0.12564851 0.26675954 0.26833478
0.44468498 -1.453252 -0.8736687 0.48092064 1.0912193 0.796326 -1.0593953 -1.249024
0.67689174 -0.9701253 -0.898803 0.8460049 0.95494753 0.70282745 -0.85215664 -1.026691
0.8719602 -1.4240543 -0.41728133 0.7850959 0.74905705 0.72719777 -0.3974788 -1.3348927
0.95112 -1.3753656 -0.4768039 0.6335227 0.7996447 0.5504913 -0.4972806 -1.2605604
0.84226817 -1.0084369 -0.7428458 0.78616583 1.1621761 0.43389875 -0.60571474 -1.4047983
0.80013543 -1.1205702 -0.39318484 0.56270146 0.86820585 0.30353492 -0.4776056 -1.2699035
0.6093891 -1.0744978 -0.7873718 0.40999326 1.3424721 0.3419109 -0.45770302 -1.1963046
-0.4082153 0.98693895 0.75991106 -0.57246333 -0.82787293 -0.5818976 0.941487 0.99821836
0.37100628 -0.92151177 -0.3931674 -0.36807528 0.16929854 0.7647689 0.30775136 -0.98025507
0.108769834 0.90523195 0.90931803 -0.7633496 -0.9188638 -0.17178556 0.6668356 0.8350197
0.28768536 0.2410371 -0.24801825 -0.62955844 -0.29180813 0.597545 1.2654083 -0.08214888
0.6194166 -0.84602606 -0.26756984 -0.8462008 -0.07872377 0.48717475 1.0580282 -0.22866507
0.5372509 -0.27839375 -0.0412884 -0.4890203 -0.025237717 0.4037335 0.6322081 -0.5550283
-0.11662949 0.4829709 0.5762629 -0.13024013 -0.9159657 -0.25468832 0.8809637 0.6726713
-0.20085782 1.3748143 0.5306245 -0.74149853 -1.2510971 -0.7624271 0.93603104 1.2279263
0.3725036 -1.0567539 -0.39938104 0.39143658 0.54671496 0.312837 -0.3913994 -0.96165574

lstm.weight_hh_l2 f4 [32, 8]
00000000: a0ba abbc 461c 493e bb25 9e3e a0e6 b43c
00000010: fc6e 2ebe 5f53 9bbe 62b0 83be e09c 1d3c
00000020: b9ea 893e 083a 3f3d da27 6b3e fe3c 2c3e
00000030: 2cec b4bd 1fac 8a3e d061 053e f9b8 a1be
00000040: 5d8a 43be e5e2 50be df75 833e 7024 903c
00000050: c845 1abe 56d4 063e 20ee 413c 1a39 9bbe
00000060: 3087 7f3d 00fa 013e 022a ebbd ff0c 933e
00000070: 701e 98be 48bc 84be a084 013e 4a62 593e
00000080: 9a1f 67be ab7c 94be 8adb 0c3e ceac 243e
00000090: c085 1a3d 560e a9be 0ae0 053e 4c32 6bbe
000000a0: 5054 61bd 11bf 8f3e 98e7 63bd 4468 85bd
000000b0: f3dd 16be 367f 433e 2fa4 ac3e b2ce 70be
000000c0: 2164 a73e 6201 3d3e c1ad 58be 5d0a 11be
000000d0: bd19 883e 3ff3 863e b8b2 593d b98d 7cbe
000000e0: 6eff 7a3e 8feb b2be ee65 6ebe f756 ad3e
000000f0: 65af 9bbe 503e c9bc aee7 87be 626b 313e
00000100: 8193 0ebe d02a a63d 94f0 4fbe 004c 8cbc
00000110: 05bb 54be 1d6b 20be 2b9f afbe 697c 3fbe
00000120: d3d5 82be f84b c23d c012 273c 1365 91be
00000130: a332 8ebe c0dc 99bb c07d 953d 6084 14bc
00000140: 10ae a6bc 7e70 563e c181 92be 2085 03bd
00000150: 60f7 6e3d e051 323c b2d7 173e 7424 47be
00000160: a0d8 4ebc 8cc9 72be 987d 64be 500b bf3c
00000170: 34ba a9bd 4ec2 10be d89a 80be 3050 0f3d
00000180: 787c a6be 1e66 2a3e e5a3 4abe d0ab e1bd
00000190: 1b65 893e 147e 043e 0e64 74be 0ef0 f2bd
000001a0: ddbf 47be 623f 673e 6332 983e 7566 a83e
000001b0: 04a1 ca3d 40d4 09bc 8e5f afbe 283e a0bd
000001c0: c9e9 9c3e 8089 5d3b b976 9c3e 1bc3 a03e
000001d0: c3aa 8a3e c49f fb3d 5ac2 143e 6223 453e
000001e0: ca1e 393e f405 07be 80e1 a0bb 5897 a9be
000001f0: 4fc8 a43e e462 38be e6a4 1f3e 64f4 adbd
00000200: cf5e 69be a000 3e3d 9a05 303e 20b0 80bc
00000210: c349 3bbe cdd1 8ebe 9303 9a3e fb36 9ebe
00000220: 4cd2 b0be c6dc 213e 0205 1e3e 8033 66bd
00000230: 3642 303e 18d2 b33d c0c6 63bd b279 1f3e
00000240: ae2a 363e a0f4 033d 4e4b 753e e490 bcbd
00000250: e78b 983e c0eb 5ebd 4f50 afbe fa58 1a3e
00000260: 1d92 94be 9eb6 27be 7e13 653e 6546 0cbe
00000270: e432 0fbe 58df 35bd b29f 1ebe e063 71bd
00000280: 4389 66be 7c2c 92be c832 903d 1467 84be
00000290: 20d6 4a3d b092 53bd 1c24 abbe 9c2f d93d
000002a0: 9f29 8b3e be4c 42be 4742 9d3e 40dd 44bc
000002b0: 956b b13e 5c09 a2bd 6091 0f3e 7908 8e3e
000002c0: 2de8 3fbe af50 8e3e 9354 9d3e 4558 9d3e
000002d0: 1085 ccbd 7e13 30be 40a0 d83c d247 60be
000002e0: a09d 643c 54a3 c83d 20dd a8be fd66 aa3e
000002f0: 7879 22bd a210 343e f92d 993e 83be 90be
00000300: fef2 adbe fffb 63be 100c 803c d2db 20be
00000310: 0053 24bc 74e1 ef3d 10ef ca3d d82c 073d
00000320: 80cc 0e3d cad8 a0be 40a1 263c 5811 42be
00000330: 3e4d 7ebe 904d 82bc 949c 48be c0e6 783d
00000340: 884e 42bd 5873 7e3d d2c0 233e ea7b dcbd
00000350: 5886 77bd b45d 083e d157 b0be 712a 903e
00000360: a274 8bbe 9d1a 33be 8079 0b3d 7ff8 a63e
00000370: 38e1 75be 00c3 0d3c c143 8e3e 9253 f0bd
00000380: 78df 193d b9c3 a13e 8559 30be 9a90 073e
00000390: b06a 97bc 63a5 82be 80e2 873c 61fd 88be
000003a0: 08b6 18bd d254 52be eb83 913e 76d7 643e
000003b0: 7ca1 b93d c09e 623d 4231 6fbe b6b5 083e
000003c0: 381b 61bd c083 cabb 033f ad3e a01f c9bd
000003d0: 5628 143e a4ab 9dbd 178e 923e 70d1 99bc
000003e0: 0abb 2b3e 8246 613e a3b2 9c3e 28cf 49bd
000003f0: b0af 553d 1290 77be c063 053c d20a 6c3e
-0.020963013 0.19639692 0.3088816 0.022082627 -0.17034525 -0.30337045 -0.25720507 0.009619921
0.26936892 0.046686202 0.22964421 0.16820142 -0.08834109 0.27084443 0.13025594 -0.31586435
-0.1909575 -0.20399053 0.25675866 0.0175955 -0.15065682 0.13166937 0.011836559 -0.30317003
0.062384784 0.12693024 -0.11482622 0.28720853 -0.29710722 -0.25924897 0.12648249 0.212289
-0.22570649 -0.29001364 0.13755623 0.16081545 0.03772521 -0.3301875 0.13073745 -0.22968405
-0.055012047 0.2807546 -0.055640787 -0.06514028 -0.14733104 0.19091496 0.33719012 -0.23516348
0.3269358 0.18457559 -0.21160032 -0.1416411 0.26582137 0.26357457 0.053148955 -0.24663438
0.24511501 -0.34945342 -0.2328107 0.3385541 -0.30407253 -0.024565846 -0.26543945 0.1732612
-0.13923456 0.081136346 -0.20306617 -0.017126083 -0.20774467 -0.1566586 -0.34301123 -0.18699802
-0.2555376 0.09487146 0.010197341 -0.28397426 -0.27773008 -0.004695505 0.072993755 -0.009064764
-0.020346671 0.2094135 -0.2861462 -0.03210938 0.058341384 0.010883778 0.14828375 -0.194475
-0.01262489 -0.23709697 -0.22313535 0.023320824 -0.082874686 -0.14136621 -0.25118136 0.034988582
-0.32516837 0.16640517 -0.19789083 -0.11019099 0.2683495 0.1293872 -0.23866293 -0.11862193
-0.19506784 0.22582772 0.29725942 0.3289067 0.098939925 -0.008412421 -0.3425259 -0.07824355
0.30647114 0.003380388 0.30559328 0.31398854 0.27083406 0.12286332 0.14527264 0.19251779
0.18078151 -0.13185865 -0.004909694 -0.3312328 0.32184073 -0.18006474 0.15590248 -0.084938794
-0.22790073 0.046387315 0.17189637 -0.015708983 -0.18289857 -0.2789444 0.30080852 -0.30901322
-0.34535444 0.15806875 0.15431598 -0.056201458 0.17212757 0.087803066 -0.055609465 0.15573767
0.17789719 0.032215714 0.23954508 -0.09207323 0.29794237 -0.054424047 -0.34240958 0.15073004
-0.29017726 -0.16378257 0.22370717 -0.13698728 -0.13984257 -0.04440245 -0.15490606 -0.05893314
-0.22513299 -0.28549564 0.07040936 -0.25859892 0.04952061 -0.051653564 -0.33425987 0.10604784
0.27180192 -0.18974587 0.30714628 -0.012015641 0.3465239 -0.079119414 0.140203 0.2774084
-0.18740912 0.27795932 0.30728588 0.30731407 -0.09986317 -0.17194936 0.0264436 -0.21902397
0.013953596 0.09796777 -0.32981205 0.332817 -0.039666623 0.1758447 0.29917887 -0.2827035
-0.3397445 -0.22264098 0.015630752 -0.15708855 -0.010029554 0.11712924 0.09908879 0.03300175
0.034862995 -0.31415397 0.010170281 -0.18951929 -0.24834153 -0.015906125 -0.1959098 0.060766935
-0.047438174 0.06212172 0.15991524 -0.10765822 -0.060430855 0.13316995 -0.34442 0.2815738
-0.2723742 -0.17490621 0.03405142 0.32611462 -0.24011695 0.008652449 0.27786067 -0.1173469
0.037566632 0.31594637 -0.17221649 0.13238755 -0.01848349 -0.25516805 0.016587496 -0.26755813
-0.037282974 -0.20540169 0.28420958 0.22347817 0.09064004 0.055327177 -0.23358634 0.13350567
-0.0549576 -0.0061802566 0.33837137 -0.09820485 0.14468512 -0.076987535 0.2862403 -0.018776625
0.16770568 0.21999553 0.3060504 -0.049269825 0.0521695 -0.24176052 0.008141458 0.23051003

lstm.bias_ih_l2 f4 [32]
00000000: e6fd 993f 275b 673e f969 a53f fe0c 7a3f
00000010: 67b3 863f 14ac 7d3f f890 133f 10bc ea3e
00000020: 00d3 5c3b b38f a23e a687 7dbe 3889 16bd
00000030: ff45 913e 1eb7 7f3e 807c ce3c 20fb adbd
00000040: 5fb1 a4bd 1f71 87be 7182 b2be 6e70 12be
00000050: 4194 7bbe f7b3 32be c179 eabe 12c4 4dbe
00000060: 0e6e 9c3f a57d 3f3f 2bd9 8c3f 1e92 9b3f
00000070: 065a c03f 29be 063f 94bc 133f 970b 9a3e
1.2030609 0.22593366 1.2922965 0.97676075 1.0523499 0.99090695 0.5764308 0.45846605
0.0033695102 0.3175026 -0.24758777 -0.036751956 0.28373715 0.24972197 0.02520585 -0.08495164
-0.08041643 -0.26453492 -0.34865144 -0.14300701 -0.24568273 -0.17451464 -0.45796016 -0.20094326
1.2221086 0.74801093 1.1003774 1.2153966 1.5027473 0.5263391 0.5770962 0.30086967

lstm.bias_hh_l2 f4 [32]
00000000: 480e 403f 3b5c 8e3e db95 ab3f b70f ad3f
00000010: 2ec4 c83f a2d9 3d3f cb58 473f 25a1 103f
00000020: a00c 76bd 4e4b 643e 9532 4ebe b09d d6bd
00000030: 44bf ca3d 8897 463d 3e21 7fbe b803 c0bd
00000040: 0f20 d8bd 4215 51be a864 2ebe 0905 a0be
00000050: 574b e7bd 7515 11bf 4c6d 74be 71ce 9dbd
00000060: b9a4 183f 0793 5b3e ba3a 893f 6a1f 9d3f
00000070: a194 7b3f 374d de3e 3282 9f3e ff1a 293f
0.7502179 0.2780474 1.3405107 1.3520421 1.5684869 0.74160206 0.7786986 0.5649589
-0.060070634 0.22294351 -0.20136483 -0.10479295 0.09899762 0.048484355 -0.24915025 -0.09375709
-0.1055299 -0.20418265 -0.17030585 -0.31253842 -0.11293667 -0.56673366 -0.23869818 -0.07705391
0.59626347 0.21442805 1.0721047 1.2275212 0.98273665 0.43418285 0.3115402 0.6605682

lstm.weight_ih_l3 f4 [32, 8]
00000000: ca97 103f 6f7f 3abf 4418 bcbe 011e 34be
00000010: 4270 483e 6755 14bf 9df7 62bf 2a72 a3be
00000020: 8c7d 013f ce03 77bf d165 cfbd 74af c03e
00000030: c9a2 8fbd 8e97 40bf fddd 05bf e29f d7bd
00000040: d83b 083e d765 72bf 1f9e 2bbf a721 98be
00000050: b6c2 22bf dd85 42bf ee0d 9dbf 9a86 83bd
00000060: f16a 373d c9d4 1dbf c5c2 4a3d 5096 0dbe
00000070: 798b 6f3c 5306 c2be 8b61 56bf ca54 29bf
00000080: 79b8 49bf 5774 d5be 179d 6ebf 0cba 7bbf
00000090: 7b18 08bf 8e21 1ebf 33bb 63bf 0bf8 a53e
000000a0: 6a52 09bf 207f e4be 0ca3 59bf c4f7 f5be
000000b0: 764d 7fbf 23ae 7abf 3f45 56bf 3828 0bbe
000000c0: b6e6 98be 02a0 6abf 2ee6 2abf 7ded ccbe
000000d0: a207 14bf 4caf 2abf f991 74bf 332a 7d3c
000000e0: e45a 1c3f b01c 303e f843 193f 16bd 283f
000000f0: cd37 5c3f 9436 1b3f 53d5 da3d e535 16bf
00000100: b097 953d cd7f 3bbe 4895 92be 124b 95be
00000110: ee49 723e 20cb 343c 3f8b 0fbe a82e 0f3d
00000120: 2889 8c3d 60db 7c3c 189a 03bd a62d 263e
00000130: 7a45 19be 0063 f6bc cee5 9ebe f076 91be
00000140: 52e3 4dbe accd 893d 220a 2f3e 45a6 93be
00000150: 6793 ab3e 8508 813e bb51 21be 885d dd3d
00000160: 2d62 87be 03de a03e c6c9 1e3e 2ae4 1d3e
00000170: f275 293e a5df 3dbe c4fd e2bd 1285 afbe
00000180: c6e8 673e aeba 2b3e 35f5 883e 8266 a2be
00000190: 25cf ad3e 5f0f 58be 2d0a 67be 4060 12bd
000001a0: f1c5 96be 9257 583e 9673 12be 8f16 42be
000001b0: dc03 0e3e d54d 993e 694a a13e 676c ad3e
000001c0: 8c39 03be a055 65bc b94d b23e d730 953e
000001d0: 8984 9abe a81f 0f3e 9054 79be 18e0 b0bd
000001e0: 04d8 cabd 3014 aebd ecfb a2be fd11 aa3e
000001f0: a6d3 473e 65b4 9b3e 12ad 3d3e 2d61 0ebe
00000200: 6b42 a53f 2be0 153f 0c17 b23f b292 823f
00000210: f3b1 9f3f 8cab 213f 2ee6 593f bf6c 52bf
00000220: ea0d 34bf 9e5a 51bf f71a 9dbf a670 b4bf
00000230: 97eb 8bbf f5cc 01bf c9df 22bf 4cfc 393f
00000240: 5ada 983f 3281 303f f5e5 543f 7ca5 ad3f
00000250: c2d7 8c3f 1d94 583f 2820 4a3f 5fdc 3ebf
00000260: 9726 333f ae85 583f b16e a23f a43d aa3f
00000270: 158e a23f 7a1c e23e ddcc 243f 8585 cebe
00000280: 5cdc 8f3f b04d 1d3f d905 833f 3c7c a13f
00000290: c159 8f3f e3b9 993e b49e 373f 6998 3bbf
000002a0: 2061 783f 2f64 2b3f dcb1 413f 3df3 7b3f
000002b0: 022f a63f c156 083f 42c8 583f da64 20bf
000002c0: 5242 793f eda3 f43e d887 973f dfc7 883f
000002d0: 1299 903f ef22 6b3f b6de 503f 64c5 ebbe
000002e0: 5641 393f 4c23 3b3f a3d5 893f 7862 033f
000002f0: e290 8b3f 8cbd 573f f5aa 813e 40ca 1fbf
00000300: 69cb 093f 79ec 9fbf efee 9cbe df8f 523e
00000310: 956e 883e b0f2 6dbf 2064 96bf c280 f6bd
00000320: c163 203f 94ac 55bf 32fe 83be 2580 5fbd
00000330: eeb7 973e 8707 51bf c034 5bbf 3cc2 31bf
00000340: d4d2 8ebe 0961 15bf 8aeb 7cbf bf48 e3bd
00000350: 8c50 5cbf fb64 0abf ba79 a6bf a6f0 d3be
00000360: c6b6 e43e 08eb 42bf 07bb d7be 381c f73c
00000370: 8b6c 013e ad01 20bf 28ed 6dbf 09bd bfbe
00000380: 645a 2cbf d78a 73bf a44d 70bf 0903 57bf
00000390: 47e2 8dbf 13a4 84bf 6286 03bf ac70 f5bd
000003a0: 77a0 48bf ed12 0bbf 3991 6bbf 6d49 34bf
000003b0: 12ec 81bf 1b17 acbe 8ed4 81bf 64cc 9abd
000003c0: 5a43 dfbe de18 3abf 627b 55bf 1fb9 6abf
000003d0: 8f57 22bf fa29 0dbf 168c 4abf 15ce 7d3e
000003e0: 2ead 823e c9c1 093f 616e 3d3f 388f a03e
000003f0: 48cc 5e3f 4319 ec3e 144a f33e 094e d0be
0.5648161 -0.728507 -0.36737263 -0.1758957 0.19574073 -0.57942814 -0.8865908 -0.31923038
0.50582194 -0.9649018 -0.10126842 0.3763386 -0.07013471 -0.75231254 -0.5229185 -0.10528542
0.13304079 -0.94686645 -0.6703815 -0.29713175 -0.63578355 -0.7598551 -1.2269876 -0.064221576
0.04477972 -0.6165281 0.049502153 -0.13826871 0.014620655 -0.3789545 -0.8374259 -0.66145
-0.7879711 -0.41690323 -0.9320845 -0.9833076 -0.53162354 -0.6176995 -0.8895752 0.32415804
-0.5364138 -0.4462824 -0.85014415 -0.48040593 -0.9972757 -0.9792196 -0.8369941 -0.13589561
-0.29863518 -0.916504 -0.66757476 -0.4002494 -0.57824147 -0.6667373 -0.95535237 0.015451956
0.6107619 0.17198443 0.5986934 0.6591352 0.86022645 0.60630155 0.106852196 -0.58675987
0.07304323 -0.18310471 -0.28629518 -0.29158837 0.23661014 0.011034757 -0.14017962 0.034956604
0.06862098 0.015433162 -0.032129377 0.16228351 -0.1496791 -0.030076504 -0.31034702 -0.28411055
-0.20106247 0.06728682 0.17093709 -0.2883779 0.33510897 0.25201812 -0.15753834 0.10808855
-0.2644209 0.31419381 0.15506658 0.15419069 0.16548899 -0.18542345 -0.11083558 -0.34281212
0.2264739 0.16770431 0.26749578 -0.31718832 0.339471 -0.21099614 -0.22562476 -0.035736322
-0.29447892 0.21127155 -0.14301905 -0.18953918 0.1386866 0.29942194 0.31502083 0.33871767
-0.12814921 -0.013997465 0.34824923 0.29138824 -0.3017924 0.1397692 -0.24348664 -0.086364925
-0.09904483 -0.08499944 -0.31832826 0.3321685 0.19514331 0.30411068 0.18523052 -0.13904257
1.2910894 0.5854518 1.3913283 1.0201018 1.2476181 0.63152385 0.8511685 -0.82197183
-0.7033373 -0.81778896 -1.2273854 -1.4096878 -1.0931271 -0.50703365 -0.6362272 0.726506
1.1941636 0.68947136 0.83163387 1.3566127 1.1003344 0.84601 0.78955317 -0.7455501
0.6998076 0.8457898 1.269003 1.3300061 1.269961 0.4416235 0.64375097 -0.40336242
1.1239123 0.61446667 1.023616 1.2616038 1.1199266 0.30024633 0.71726537 -0.73279434
0.970232 0.66949743 0.75662017 0.9841803 1.2983096 0.53257376 0.8468057 -0.6265389
0.9736682 0.47781315 1.1838331 1.0685996 1.1296713 0.9185018 0.8158983 -0.46049035
0.7236532 0.73100734 1.0768322 0.51322126 1.090359 0.842736 0.25325742 -0.62417984
0.53826004 -1.2494041 -0.30651042 0.20562695 0.26646867 -0.92948437 -1.1749306 -0.12036277
0.6265221 -0.8346646 -0.25779873 -0.054565568 0.29632515 -0.8165211 -0.85627365 -0.69437003
-0.27895224 -0.5835119 -0.98796904 -0.110978596 -0.86060405 -0.54060334 -1.3005898 -0.41394538
0.44670695 -0.7613988 -0.42134878 0.030164823 0.12639062 -0.6250256 -0.92939997 -0.3744891
-0.67325425 -0.9513373 -0.9386847 -0.83989006 -1.1084679 -1.0362571 -0.51376927 -0.11984381
-0.7836985 -0.54325753 -0.9201847 -0.7042454 -1.0150168 -0.33611378 -1.0142992 -0.07558516
-0.43606073 -0.72694194 -0.8339139 -0.9168872 -0.63414854 -0.55142176 -0.79120004 0.24785645
0.2552275 0.5381132 0.7399655 0.31359267 0.8703046 0.46113023 0.47517455 -0.40684536
